try1_simDataset1/30bp_SingleConserved_s0_UnifBG_fullytrainedGen.pth (torch, 68195 bytes, 7 tensors)

embeddings.weight f4 [6, 16]
0	0x3e431dc4	0.19054323
1	0x3ea60e70	0.3243289
2	0x3f4e9f29	0.8071161
3	0xbe1a4234	-0.15064317
4	0x3f82b603	1.0211796
5	0xbf9f052e	-1.2423456
6	0x3ea0c8fc	0.3140334
7	0xbfe373b2	-1.7769682
8	0x3ee5ad46	0.4485876
9	0x3f15441e	0.58307064
10	0x3f9efb91	1.2420522
11	0xbf9ab36a	-1.2086003
12	0x3f405ff1	0.75146395
13	0x3f808bbb	1.0042642
14	0xbebfc975	-0.37458387
15	0xbf299d35	-0.66255504
16	0x400f680c	2.2407255
17	0xbe7a58de	-0.24447963
18	0xc02ea5c2	-2.728867
19	0x3fc69177	1.5513142
20	0xbf8f8270	-1.1211681
21	0x3f068240	0.52542496
22	0xbfa8543e	-1.3150709
23	0xbf80dcee	-1.0067422
24	0x3f568a84	0.8380511
25	0xbf882ed7	-1.0639294
26	0x3f5fc2ce	0.87406623
27	0x3f1929ff	0.59829706
28	0xbf216d92	-0.63057816
29	0x3e723d29	0.23656143
30	0x3f0601ae	0.52346313
31	0xbf9a81e1	-1.2070886
32	0x3f6c4388	0.92290545
33	0xbf068686	-0.52549016
34	0xbe6bd309	-0.23029722
35	0x3fe6e2dd	1.8037983
36	0x3fc82f18	1.5639372
37	0x3dc58cd0	0.096459985
38	0x3fa00604	1.2501836
39	0xbe9c235c	-0.30495727
40	0xbf6787a0	-0.9044132
41	0xbf768200	-0.96292114
42	0xbfbb4b66	-1.4632385
43	0xbee06a5b	-0.43831143
44	0x3d4c593b	0.049889784
45	0x3fb52421	1.4151651
46	0xbfcc9005	-1.5981451
47	0xbd80aee8	-0.06283361
48	0x3d49fcbb	0.04931329
49	0x3fdb6d5f	1.7142752
50	0x3fbf03fb	1.492309
51	0xbf5b3cbc	-0.8563955
52	0xbb23179d	-0.00248859
53	0xbf88a892	-1.0676444
54	0xbc2c16ec	-0.010503512
55	0x3f3be63c	0.73398185
56	0xbeee115b	-0.46497616
57	0xbf039f9b	-0.51415414
58	0x3d9e2ad8	0.077230155
59	0xbf605ff5	-0.8764642
60	0x3f190c41	0.5978432
61	0x3d3268d9	0.04355702
62	0xbe7c577a	-0.24642745
63	0x3e0158ba	0.12631503
64	0xbc8117c5	-0.015758405
65	0xbf8a225b	-1.0791734
66	0x3f80f4b8	1.0074682
67	0x3e786a27	0.24259244
68	0xc00d00ce	-2.203174
69	0x3f68a387	0.9087452
70	0xc023c6c2	-2.5590062
71	0x3e1ad8bb	0.15121739
72	0xbf603eea	-0.87596
73	0x4017e7bd	2.3735192
74	0x3e4fae34	0.20281297
75	0x3e7c36f2	0.24630335
76	0xbfa3f8f5	-1.2810351
77	0xbefe567e	-0.49675363
78	0xbeac5538	-0.33658767
79	0xbf174cee	-0.5910176
80	0xbff662bd	-1.9248883
81	0xbcf4a946	-0.029865872
82	0xbf42277a	-0.75841486
83	0x3e1897c5	0.14901645
84	0x3f3fd809	0.7493902
85	0x3f82e80d	1.0227066
86	0x3eedd5a0	0.46452045
87	0xbf457137	-0.7712588
88	0xbe8caae7	-0.27474138
89	0x3eb37ade	0.35054678
90	0x3e6de2f9	0.23231114
91	0x3ec2f418	0.38076854
92	0x3fa593c9	1.2935725
93	0xc00703d9	-2.1096098
94	0x3f1a12fe	0.6018523
95	0x3df7a81f	0.120926134

gru.weight_ih_l0 f4 [192, 16]
0	0xbd8ab1f3	-0.06772222
1	0x3e09a224	0.13440758
2	0x3e4a0363	0.19727854
3	0x3d01cc2a	0.031688847
4	0x3e7008d5	0.23440869
5	0xbd0cd64b	-0.034384053
6	0x3e11d2c3	0.14240555
7	0xbd528835	-0.05139943
8	0xbe120c74	-0.14262563
9	0x3ca54935	0.02017651
10	0xbde3e9e1	-0.11128593
11	0xbe86390f	-0.26215407
12	0x3e364c72	0.17802599
13	0xbdcabd09	-0.09899337
14	0xbe645d1a	-0.2230114
15	0xbca9c8a5	-0.020725558
16	0xbe699c51	-0.22813536
17	0x3eda2753	0.42608127
18	0x3f0b15e8	0.543303
19	0xbe805a74	-0.2506901
20	0xbea483af	-0.32131717
21	0xbecfcfc3	-0.40588197
22	0xbea492d2	-0.32143265
23	0x3e98a974	0.29816782
24	0xbdf41973	-0.119189166
25	0x3eac756d	0.3368334
26	0x3e84f141	0.25965312
27	0xbdb16786	-0.08662324
28	0x3e54685e	0.20742938
29	0xbe839dab	-0.2570623
30	0x3dd30060	0.10302806
31	0x3e5f3873	0.21798877
32	0x3d9487ff	0.07252502
33	0x3f3f7a4a	0.74795973
34	0xbdeb20a8	-0.11480838
35	0x3e7ccfff	0.24688719
36	0x3ee87a39	0.45405748
37	0xbcfd16c9	-0.030894654
38	0x3ef361ab	0.47535452
39	0x3ebf6577	0.373821
40	0xbe27d635	-0.16390307
41	0xbf180068	-0.5937562
42	0xbeb0ce3b	-0.3453234
43	0xbce90c43	-0.02844823
44	0x3ebfafad	0.37438717
45	0x3d86501d	0.06558249
46	0xbe9b7c88	-0.30368447
47	0x3ea607f2	0.32427937
48	0xbe94669b	-0.28984532
49	0xbdda9e29	-0.10674698
50	0xbe6a9f7b	-0.229124
51	0x3d9c39dd	0.07628224
52	0x3e637c76	0.22215447
53	0x3e09ba61	0.13450004
54	0x3e9c0bba	0.30477697
55	0xbef94d2e	-0.48691696
56	0x3e405334	0.1878174
57	0x3cbf5d6c	0.023359977
58	0x3e9795e8	0.29606557
59	0x3d89c79f	0.06727528
60	0x3ea2df98	0.31811213
61	0xbe4416fa	-0.1914939
62	0x3df30635	0.11866418
63	0xbde458bb	-0.111497365
64	0x3dab8e25	0.08376721
65	0x3e1e3f20	0.15453768
66	0xbe072a3d	-0.13199706
67	0xbe4751a8	-0.19464743
68	0xbdcada32	-0.09904899
69	0x3d7bb02b	0.061447304
70	0xbda4d6a3	-0.08048751
71	0x3dee2a97	0.11629217
72	0x3e8ca7ae	0.2747168
73	0x3df4fc6b	0.119622074
74	0x3ddb163b	0.106975995
75	0x3e6dece9	0.23234905
76	0x3d387702	0.04503537
77	0xbe1206eb	-0.14260451
78	0x3e60756b	0.21919791
79	0x3e4d3e10	0.20043206
80	0xbef2b055	-0.47400156
81	0xbe445dc5	-0.19176395
82	0x3ce9e162	0.028549854
83	0x3e2e0d14	0.16997176
84	0xbf165f77	-0.5873942
85	0x3f1098df	0.5648326
86	0xbf123b71	-0.5712195
87	0x3f03bcda	0.5146004
88	0xbec97798	-0.39349055
89	0x3ec79add	0.3898534
90	0xbeb8d717	-0.361016
91	0x3ed4463c	0.41459835
92	0xbe4c4427	-0.19947873
93	0xbee5af4e	-0.4486031
94	0x3de16a06	0.110065505
95	0x3eb2ac0d	0.3489689
96	0xbe182560	-0.14858007
97	0x3d852eb1	0.06503046
98	0xbda05c2e	-0.07830082
99	0x3cddcce5	0.02707524
100	0x3ec6f9ee	0.38862556
101	0x3ddfb9f6	0.10924141
102	0x3e764a0f	0.24051689
103	0xbe463633	-0.19356613
104	0xbe0e1e33	-0.13878708
105	0xbe417663	-0.18892817
106	0xbe5b716a	-0.21429983
107	0xbea12eef	-0.3148112
108	0x3eee2b24	0.4651729
109	0xbd57cb05	-0.05268385
110	0xbe0e2c7a	-0.13884154
111	0x3e5edc22	0.21763662
112	0xbd8939a4	-0.06700447
113	0xbe208b6b	-0.15678184
114	0x3e08490b	0.13309114
115	0x3e097415	0.13423188
116	0x3f56b1f1	0.8386527
117	0xbd60da9f	-0.054895993
118	0x3ec82378	0.3908956
119	0xbea96d6a	-0.3309129
120	0xbd494d16	-0.04914578
121	0x3e0ceeb9	0.1376294
122	0x3d80745b	0.06272193
123	0xbea99dd5	-0.3312823
124	0x3e34429b	0.17603533
125	0x3e749225	0.23883875
126	0xbbff3df9	-0.00778937
127	0xbe6fbf9e	-0.2341294
128	0x3cbb519b	0.022866061
129	0x3dc65e7d	0.09685991
130	0xbcf75585	-0.030192146
131	0x3e239665	0.1597534
132	0x3e944624	0.28959763
133	0x3dd43dfd	0.10363386
134	0x3e2abd4d	0.16673775
135	0xbd6cde2d	-0.05782907
136	0xbd48f50b	-0.049061816
137	0xbdde264b	-0.108471476
138	0xbdf5a77b	-0.11994835
139	0x3daa3663	0.08311155
140	0x3e2fef60	0.17181158
141	0x3b912bae	0.004430256
142	0xbd89b726	-0.06724386
143	0x3e0c9635	0.13729174
144	0xbdfee00a	-0.12445076
145	0x3d18a0c3	0.03726269
146	0x3e75fed5	0.24022992
147	0x3e0c9e18	0.13732183
148	0xbc94521c	-0.018105559
149	0xbdd59e8b	-0.1043063
150	0xba936aac	-0.0011247001
151	0xbdeeb4f7	-0.1165561
152	0xbdbef6f7	-0.093244486
153	0x3e6db768	0.23214495
154	0xbdc6d489	-0.097085066
155	0xbe37a4ab	-0.1793391
156	0x3e1c1e0b	0.15245835
157	0x3dc49251	0.0959822
158	0xbe5e0eca	-0.21685329
159	0xbddcd2a7	-0.10782366
160	0xbd28cb40	-0.04120946
161	0xbe29a1b4	-0.16565591
162	0x3d22b0c8	0.039719373
163	0x3e3fe730	0.18740535
164	0xbdf744fc	-0.120737046
165	0x3ddeae45	0.10873083
166	0xbe5e9887	-0.21737872
167	0xbdb636f3	-0.088971995
168	0xbe407449	-0.1879436
169	0x3d86b6c1	0.06577826
170	0xbd3e0d31	-0.0463993
171	0xbe6c7b63	-0.23093943
172	0x3dca4dd8	0.09878129
173	0xbd6049c6	-0.054757856
174	0xbe7881e7	-0.24268304
175	0xbe470bc8	-0.19438088
176	0xbd97c778	-0.074110925
177	0x3d95ec0d	0.07320414
178	0x3d628c6b	0.055309694
179	0x3bbc3429	0.0057435227
180	0xbc9c4503	-0.019075876
181	0x3e062e86	0.13103685
182	0x3d6d4fb4	0.05793734
183	0x3e30a376	0.17249855
184	0xbe33bca1	-0.17552425
185	0xbd52c5b3	-0.051458072
186	0x3b2eaec4	0.0026654461
187	0xbca29ae4	-0.019849248
188	0x3df04f68	0.117338955
189	0xbdf1a1da	-0.11798449
190	0x3c8fbbe7	0.017545654
191	0xbdddba47	-0.10826545
192	0x3f11ee9d	0.5700472
193	0xbeb31731	-0.3497863
194	0x3f159b07	0.5843968
195	0xbb2aa660	-0.0026039109
196	0xbf0f1971	-0.55898196
197	0xbed9bce1	-0.42526916
198	0xbf409a15	-0.7523511
199	0x3e935532	0.28775936
200	0x3add7c01	0.0016897918
201	0xbc1fe09c	-0.009758141
202	0xbe9d279e	-0.30694288
203	0xbee5fbb1	-0.44918588
204	0xbf08c4a4	-0.5342505
205	0x3ef140c3	0.47119722
206	0xbf27c344	-0.65532327
207	0xbf1c6c73	-0.6110298
208	0x3e67c167	0.22632371
209	0xbf302608	-0.6880803
210	0xbdf62c44	-0.12020162
211	0x3f1395dd	0.5765055
212	0xbea4687c	-0.32110965
213	0x3e92595d	0.28583804
214	0xbed537cf	-0.4164414
215	0x3e8cf0b2	0.27527386
216	0xbf160a27	-0.5860924
217	0xbd1f4f86	-0.0388942
218	0xbf471fc9	-0.77782875
219	0x3df656bd	0.12028263
220	0xbe893bd9	-0.26803473
221	0x3d4ec625	0.050481934
222	0xbec72221	-0.38893226
223	0xbd9dca37	-0.07704585
224	0xbe012764	-0.12612683
225	0x3bb5238a	0.005527918
226	0x3ea97dee	0.3310389
227	0x3e09ba72	0.1345003
228	0x3e34dbe7	0.17662011
229	0x3df9e6e9	0.12202246
230	0xbe4e41d3	-0.20142297
231	0xbd98bf12	-0.07458319
232	0xbda75af5	-0.081716456
233	0x3e29b3c0	0.16572475
234	0xbd88f29d	-0.066869
235	0xbe06f529	-0.13179459
236	0x3e6f0ee5	0.23345526
237	0xbd7259e3	-0.059167754
238	0xbe95b4bf	-0.2923946
239	0x3d98dfef	0.07464587
240	0x3eb7396e	0.35786003
241	0x3cdcb16c	0.02694007
242	0x3dd0317d	0.10165689
243	0x3da45ee8	0.080259144
244	0xbe0118b1	-0.12607075
245	0xbe203c34	-0.15647966
246	0x3d5309cb	0.05152301
247	0x3e076ed2	0.13225868
248	0xbecc413e	-0.39893526
249	0xbe5ad0c8	-0.21368706
250	0xbf06e6f9	-0.52696186
251	0xbe5d5f81	-0.21618463
252	0xbbd7e69c	-0.00658877
253	0x3e06567c	0.13118929
254	0xbed48142	-0.41504866
255	0x3d820d6a	0.06350215

gru.weight_hh_l0 f4 [192, 64]
0	0x3df682b7	0.12036651
1	0xbe998571	-0.2998462
2	0xbee62bba	-0.44955236
3	0xbe6a3cd8	-0.22874773
4	0xbf0b0231	-0.5430022
5	0x3c3c05e8	0.011476018
6	0xbe41ecab	-0.18937938
7	0xbd835852	-0.0641333
8	0x3cfcd364	0.030862518
9	0x3ea88b73	0.3291889
10	0xbe5448ee	-0.20730945
11	0x3e7a3ca9	0.24437203
12	0x3d2fa28d	0.04287963
13	0xbe3855f2	-0.18001536
14	0xbe2729a8	-0.16324484
15	0x3c813e1a	0.015776683
16	0x3e73315e	0.23749301
17	0x3df62e53	0.120205544
18	0x3e8fe57b	0.28104767
19	0xbec2a7a3	-0.38018522
20	0xbec09b03	-0.37618265
21	0xbe9fc817	-0.31207344
22	0x3e7a57e6	0.24447593
23	0x3cd25378	0.025674567
24	0xbe3ac2fa	-0.1823844
25	0x3ec5dd0a	0.38645202
26	0xbe9dc897	-0.308171
27	0xbe90bc13	-0.2826849
28	0x3e77ee42	0.24211982
29	0x3e887000	0.2664795
30	0x3c06a46c	0.008217912
31	0x3b4079d4	0.002936949
32	0x3d85b05b	0.06527778
33	0xbe6865f2	-0.22695139
34	0x3dcad0ec	0.0990313
35	0x3d904dba	0.07046075
36	0xbeab2c1d	-0.33432093
37	0xbe672eeb	-0.22576492
38	0x3e4e052c	0.2011916
39	0xbe89fbe6	-0.26949996
40	0xbf3a5c40	-0.7279701
41	0xbe7a0f18	-0.2441982
42	0x3e3abcaf	0.1823604
43	0xbf1bb66e	-0.6082524
44	0xba322247	-0.0006795269
45	0xbe1c6397	-0.15272366
46	0xbcc37eeb	-0.02386423
47	0x3f079449	0.5296064
48	0xbd8a12af	-0.06741845
49	0xbe07a3ee	-0.13246128
50	0x3ce19754	0.02753798
51	0xbedf374c	-0.43596876
52	0xb9e4e00c	-0.00043654477
53	0xbed91a24	-0.42402756
54	0xbdd4c2d5	-0.10388724
55	0x3e2abcff	0.16673659
56	0xbde9e80b	-0.11421212
57	0xbd43369e	-0.04765951
58	0xbead1f54	-0.33812964
59	0x3f0bc709	0.5460058
60	0xbf01ad0d	-0.5065468
61	0xbd308e49	-0.043104444
62	0xbcbb5929	-0.022869663
63	0xbeeca961	-0.46222976
64	0xbcc266bc	-0.023730628
65	0x3e54ef87	0.20794497
66	0x3e8e8ec3	0.27843294
67	0x3e97b4ee	0.29630226
68	0xbe6ea79d	-0.23306127
69	0x3e96e107	0.29468557
70	0x3f11aea0	0.5690708
71	0xbe80b09d	-0.25134745
72	0xbf0f7e91	-0.560525
73	0xbe22a578	-0.15883434
74	0x3eb10d0e	0.34580272
75	0x3eb4062e	0.35160965
76	0xbe47b1e8	-0.1950146
77	0xbeb6add3	-0.35679492
78	0x3e1cdba5	0.15318163
79	0xbd122124	-0.035676137
80	0x3f50d654	0.8157704
81	0xbf4ff559	-0.81233746
82	0xbe2b3b83	-0.1672192
83	0x3d75bb1b	0.05999289
84	0xbca27621	-0.019831719
85	0x3d2ad00b	0.04170231
86	0xbf0d7005	-0.55249053
87	0x3e670079	0.22558774
88	0x3f082b11	0.53190714
89	0xbe294c33	-0.16532974
90	0xbed2ee11	-0.41197255
91	0xbd321087	-0.043472793
92	0xbe3279f1	-0.1742933
93	0xbec826eb	-0.39092192
94	0x3f64c57c	0.8936384
95	0x3e15a9f6	0.14615616
96	0xbe4c5e14	-0.19957763
97	0x3afba1d2	0.0019198006
98	0xbcf25259	-0.029580282
99	0x3f4c3f9c	0.7978456
100	0x3e6cb61b	0.23116343
101	0x3df034a0	0.117287874
102	0x3ec515f9	0.38493326
103	0x3df03016	0.11727922
104	0x3ec568b9	0.3855646
105	0x3dddeace	0.10835801
106	0x3f6cc8b6	0.9249376
107	0xbf3839fa	-0.71963465
108	0x3e8cef2a	0.27526218
109	0x3ebc0f5d	0.3673047
110	0x3f3d4c55	0.739446
111	0xbe0cfbaf	-0.13767885
112	0x3e84071c	0.25786674
113	0xbe923166	-0.28553313
114	0xbf11d7cc	-0.56969905
115	0xbe3b6616	-0.18300661
116	0x3f06397a	0.5243145
117	0x3e30d27f	0.17267798
118	0x3e24e78e	0.16103956
119	0xbec973f7	-0.39346287
120	0x3ea0a7c0	0.31377983
121	0x3eb97a08	0.36225915
122	0xbef58cff	-0.47959134
123	0xbd305a8e	-0.04305511
124	0xbd6f2aea	-0.058390535
125	0x3f11e11d	0.5698412
126	0xbd6d2a72	-0.057901807
127	0xbd2c5992	-0.04207761
128	0x3e10f496	0.14155802
129	0xbd74624c	-0.059664056
130	0xbe95d252	-0.29262024
131	0xbde063ac	-0.10956511
132	0xbe400665	-0.1875244
133	0xbcf2b7d5	-0.029628674
134	0xbea54c32	-0.32284695
135	0x3e4323e4	0.1905666
136	0xbd93bd08	-0.07213789
137	0x3e9cbc04	0.30612195
138	0xbefa7fb6	-0.4892556
139	0x3e442fab	0.19158809
140	0x3d1b7a7c	0.037958607
141	0xbd8fd895	-0.070237316
142	0xbe416c5b	-0.1888899
143	0x3e0ca4e1	0.13734771
144	0x3eb22b54	0.34798682
145	0x3e57972d	0.21053763
146	0x3d8761bb	0.066104375
147	0xbc344abf	-0.011004149
148	0x3c6aa79f	0.014322191
149	0xbe7af591	-0.24507739
150	0x3b86cfe6	0.004114139
151	0x3cd4e1e8	0.025986627
152	0xbdeeec2d	-0.11666141
153	0x3db2f8b3	0.08738842
154	0xbe2838a6	-0.1642786
155	0x3d9e2152	0.07721199
156	0xbe57d5d6	-0.21077666
157	0x3e1d58ff	0.1536598
158	0x3ea29ae1	0.31758788
159	0x3e6075c7	0.21919928
160	0xbe7cff07	-0.2470666
161	0xbe968d63	-0.29404745
162	0x3e58bd32	0.21165922
163	0xbe309a44	-0.17246348
164	0xbe94c773	-0.29058418
165	0xbee28843	-0.44244584
166	0xbe0ced48	-0.1376239
167	0xbe160adb	-0.14652579
168	0xbf0cf445	-0.55060226
169	0xbe19542f	-0.1497352
170	0x3ed09d9c	0.40745246
171	0xbef42a75	-0.47688642
172	0xbd1cfd8b	-0.038327735
173	0xbdc0be89	-0.09411342
174	0xbe9b7fe5	-0.30371013
175	0x3db1f733	0.08689728
176	0x3de816cd	0.11332474
177	0xbe2b95b6	-0.16756329
178	0x3e8b2c50	0.27182245
179	0x3d88430f	0.066534154
180	0xbe4f1dbf	-0.20226191
181	0xbe47ced5	-0.19512494
182	0xbe1ff35e	-0.15620181
183	0xbe5f8416	-0.2182773
184	0x3e578d29	0.21049942
185	0x3e7221ce	0.23645708
186	0xbe95f994	-0.29291975
187	0x3e18f759	0.14938106
188	0x3db4c150	0.08825934
189	0xbe765241	-0.24054815
190	0xbde192de	-0.11014341
191	0xbe673c82	-0.22581676
192	0xbe8b6e10	-0.2723241
193	0xbd80bcf0	-0.06286037
194	0x3e7aa268	0.24476016
195	0xbcbbf724	-0.022944994
196	0x3e58040c	0.21095294
197	0xbeb6db01	-0.35713962
198	0xbd911afe	-0.070852265
199	0xbe51719e	-0.20453498
200	0xbecb1f43	-0.39672288
201	0xbd8a4f54	-0.06753412
202	0xbf04d2d6	-0.5188421
203	0xbe05c392	-0.13062885
204	0xbc20cb8d	-0.009814155
205	0xbecebd1b	-0.4037865
206	0xbcb81449	-0.02247061
207	0xbdd66f6d	-0.104704715
208	0xbe889d32	-0.2668243
209	0xbf09aa73	-0.5377571
210	0xbe889b15	-0.26680818
211	0x3e3e6f39	0.18597116
212	0x3e3c8deb	0.18413512
213	0x3d98023c	0.07422301
214	0xbeb359e3	-0.35029516
215	0x3e660b15	0.22465165
216	0x3e235e9f	0.15954064
217	0xbe222606	-0.15834817
218	0xbd356384	-0.04428436
219	0xbea6bcd5	-0.32565942
220	0xbc29e236	-0.010368874
221	0xbd78c83c	-0.060737833
222	0xbd5536ae	-0.0520541
223	0x3d54c35f	0.051944133
224	0x3e1d31f5	0.15351088
225	0x3eef6ebc	0.4676417
226	0xbde9f648	-0.114239275
227	0x3d4d00d1	0.050049607
228	0xbe19eb34	-0.15031129
229	0x3ea6c43a	0.32571584
230	0x3e771785	0.24130066
231	0xbe34658a	-0.17616859
232	0x3eb063c1	0.34451106
233	0x3e3d8798	0.18508756
234	0x3ec22af5	0.379234
235	0x3e4ac2f3	0.1980093
236	0xbe6cf458	-0.23140085
237	0xbdead96c	-0.11467251
238	0x3d4c9aa0	0.04995215
239	0x3d892298	0.06696051
240	0xbe361447	-0.17781173
241	0xbd39b234	-0.045335963
242	0xbdfade87	-0.12249475
243	0x3e5ecc06	0.21757516
244	0x3e0404c6	0.12892446
245	0x3c235c99	0.0099708075
246	0x3d362d3d	0.044476736
247	0x3e12d261	0.14338066
248	0xbe2e5ddb	-0.1702799
249	0xbebece63	-0.37266836
250	0x3e874e9f	0.2642717
251	0xbe1dbc99	-0.15403976
252	0xbd9f3d91	-0.07775415
253	0x3d04a393	0.03238256
254	0xbe085ae4	-0.13315922
255	0x3edb5202	0.42836004

gru.bias_ih_l0 f4 [192]
0	0x3eae357d	0.34025183
1	0x3d8a285b	0.067459784
2	0x3dd8784c	0.1056982
3	0x3e43641c	0.19081157
4	0xbead5d09	-0.33860043
5	0x3dd56dba	0.10421319
6	0x3de24f4b	0.1105028
7	0x3e238e9d	0.15972371
8	0x3e53cf22	0.20684484
9	0x3e2cdd02	0.16881183
10	0x3e333329	0.17499985
11	0x3b3d5629	0.0028890467
12	0xbe549ff3	-0.20764141
13	0x3e2043f2	0.15650919
14	0x3e367679	0.17818631
15	0x3e59fe6b	0.21288459
16	0x3e79b4d5	0.24385388
17	0x3dd42a2e	0.10359608
18	0x3d19c72b	0.037543457
19	0x3e7d1788	0.24716008
20	0x3e7958a8	0.24350226
21	0x3e6ef9fe	0.23337552
22	0x3e580232	0.21094587
23	0x3eaddd25	0.33957782
24	0x3dd9e59c	0.10639498
25	0x3ea973a2	0.33096033
26	0xbd8462a4	-0.06464127
27	0x3e822541	0.25419047
28	0xbe8dda48	-0.27705598
29	0xbd905207	-0.070468955
30	0xbdc808d6	-0.0976731
31	0x3e373277	0.17890345
32	0x3debb93e	0.115099415
33	0xbd70fbd2	-0.058833905
34	0xbe2759b1	-0.16342808
35	0xbdc3e9dc	-0.095660895
36	0xbe0f228f	-0.13978027
37	0x3e913f1c	0.2836846
38	0xbda66b16	-0.08125894
39	0x3d594398	0.053042978
40	0x3e90fc74	0.28317606
41	0x3e8ceaba	0.27522832
42	0xbc6c20a7	-0.014412082
43	0xbc12ead5	-0.008967121
44	0x3da624db	0.081124984
45	0xbd2aafce	-0.041671567
46	0x3d80442f	0.06263005
47	0x3ed29d46	0.41135615
48	0xbbd734df	-0.006567582
49	0x3ca23639	0.019801246
50	0x3df985ee	0.12183748
51	0xbe2686c8	-0.16262352
52	0x3dc3c6dc	0.09559414
53	0x3e2d5b1b	0.16929285
54	0x3d3b0b63	0.045665156
55	0x3e0f299b	0.13980715
56	0xbdf33e67	-0.11877137
57	0x3e8c173b	0.27361473
58	0xbd58964f	-0.05287772
59	0x3c370f29	0.011173048
60	0x3ce205d4	0.02759067
61	0x3eb07b47	0.34469053
62	0x3ea45ca3	0.32101926
63	0xbc3626ca	-0.0111176465
64	0xbf1f7106	-0.62281835
65	0xbe1dcbd6	-0.15409788
66	0xbebb4f8c	-0.36584127
67	0xbe02f173	-0.12787418
68	0xbeba2951	-0.36359647
69	0xbe659e91	-0.2242377
70	0xbdf32232	-0.118717566
71	0xbee41a13	-0.44551143
72	0xbe2ccb9f	-0.1687455
73	0xbeabdc88	-0.3356669
74	0xbe3e317e	-0.18573567
75	0xbe718929	-0.23587479
76	0xbe88b43f	-0.26700017
77	0xbd86dd39	-0.065851636
78	0xbf1bed23	-0.60908717
79	0xbd3c2251	-0.045931164
80	0xbe97e1c4	-0.29664433
81	0xbe6f2f66	-0.23357925
82	0xbe9e5254	-0.30922186
83	0xbe74e22a	-0.239144
84	0xbf29bc38	-0.66302824
85	0x3c44934a	0.011998007
86	0xbe1e82cb	-0.15479581
87	0xbeeedc4b	-0.46652445
88	0xbe9b8382	-0.3037377
89	0xbea779ad	-0.3271002
90	0xbed866c0	-0.42265892
91	0xbf259a46	-0.6468853
92	0x3ddf5125	0.10904149
93	0x3e6b15d7	0.2295755
94	0xbeeb90a2	-0.46008784
95	0xbeae2a1c	-0.34016502
96	0xbf191356	-0.5979513
97	0xbefc0c13	-0.49227962
98	0xbe601105	-0.21881492
99	0xbdfbf992	-0.12303461
100	0x3df6ceae	0.1205114
101	0xbf018d4b	-0.5060622
102	0xbe18d712	-0.14925793
103	0xbe91595c	-0.28388488
104	0xbec51c84	-0.38498318
105	0xbef847e4	-0.48492348
106	0xbe8f6d83	-0.28013238
107	0xbc5eafc4	-0.0135917105
108	0xbebec3ab	-0.37258658
109	0xbe8c5fe1	-0.274169
110	0xbe2a3853	-0.16623048
111	0xbcd00fec	-0.025398217
112	0xbf10d0c0	-0.5656853
113	0xbf086f01	-0.5329438
114	0xbf180b72	-0.59392464
115	0xbe32b79e	-0.17452857
116	0xbecea453	-0.40359744
117	0x3d23b486	0.039967082
118	0x3ec7f1e3	0.39051732
119	0xbdc6d3cd	-0.097083665
120	0xbe84a02d	-0.25903454
121	0x3d45c6ae	0.04828518
122	0xbec28782	-0.3799401
123	0xbeb02ef7	-0.3441083
124	0xbea8d04f	-0.32971427
125	0xbebf206e	-0.3732943
126	0xbeba4737	-0.36382458
127	0xbdb8058a	-0.089854315
128	0x3e84a901	0.2591019
129	0xbd409dff	-0.047025677
130	0xbd9462bf	-0.07245397
131	0x3d7eaa98	0.06217441
132	0xbd4b4a1d	-0.049631227
133	0xbd49fe26	-0.04931464
134	0xbdd1d171	-0.10245026
135	0x3e267a8d	0.16257687
136	0xbd8aef53	-0.06783929
137	0x3e0e7e65	0.13915403
138	0xbcd5b825	-0.026088784
139	0x3de9e662	0.11420895
140	0xbe02cca4	-0.12773377
141	0xbd94917d	-0.07254312
142	0x3d86ff8d	0.06591711
143	0x3dcfe0bc	0.101502866
144	0x3e9a4cb4	0.30136645
145	0x3e274bf9	0.16337575
146	0x3e33c46c	0.17555398
147	0xbe45fac0	-0.19333935
148	0x3ca7c280	0.020478487
149	0xbe2a24ed	-0.16615649
150	0x3da32a30	0.07967031
151	0x3ca8f57d	0.02062487
152	0xbcfba320	-0.030717432
153	0x3d7dbadc	0.06194578
154	0xbe9c168b	-0.3048595
155	0xbe9a9eea	-0.30199367
156	0xba74b4e3	-0.00093348155
157	0x3e04374a	0.12911716
158	0x3e5f694f	0.21817516
159	0xbe2dade8	-0.16960871
160	0xbd876501	-0.06611062
161	0xbd801fd0	-0.06256068
162	0x3c9458a3	0.018108672
163	0xbe721275	-0.23639853
164	0xbe3c1de6	-0.1837078
165	0xbdc0a980	-0.094073296
166	0x3cdd49eb	0.027012786
167	0xbb995bae	-0.0046801185
168	0xbd465a95	-0.04842623
169	0x3d7172ea	0.05894748
170	0x3e47845f	0.1948409
171	0xbe7823dc	-0.2423243
172	0x3d0a42a9	0.03375498
173	0xbd48f3cd	-0.04906063
174	0xbde7add9	-0.11312456
175	0x3c98860f	0.018618612
176	0xbe3df980	-0.18552208
177	0xbdd020b2	-0.10162486
178	0x3af172c2	0.0018421041
179	0x3e4b4f71	0.19854523
180	0xbd371e8c	-0.044706866
181	0xbe83fc60	-0.25778484
182	0xbe83229d	-0.25612345
183	0xbd9f37a6	-0.07774286
184	0xbe585be3	-0.21128802
185	0xbe311dc3	-0.1729651
186	0xbedc0e2a	-0.42979556
187	0xbd33a01c	-0.043853864
188	0xbec66e9b	-0.3875626
189	0xbe16a24e	-0.14710352
190	0x3ee072d2	0.438376
191	0xbe9aa0ce	-0.3020081

gru.bias_hh_l0 f4 [192]
0	0x3ea2a8ff	0.3176956
1	0x3de23362	0.11044957
2	0x3e02b0bf	0.12762736
3	0xbcacc0ed	-0.021088088
4	0xbeca2b55	-0.39486185
5	0x3e38a251	0.18030669
6	0x3db8b1af	0.090182655
7	0x3e04a7d0	0.1295464
8	0x3e60f2d0	0.21967626
9	0x3e0b13fa	0.13581839
10	0x3e9bb532	0.3041168
11	0x3e072821	0.13198902
12	0xbe2b272b	-0.1671416
13	0x3dcba86e	0.09944235
14	0x3e91f56b	0.28507552
15	0x3e1991ed	0.14997073
16	0x3de39ae8	0.111135304
17	0x3df27b1b	0.11839887
18	0x3e39c3d9	0.18141116
19	0x3ea50886	0.32233065
20	0x3e80350d	0.25040475
21	0x3e688548	0.22707093
22	0x3e8dac21	0.27670386
23	0x3e31b13a	0.17352763
24	0x3e1f49f3	0.15555553
25	0x3e6e629f	0.23279808
26	0xb7d681ff	-2.5571322e-05
27	0x3e8c0faa	0.273557
28	0xbe944e09	-0.28965786
29	0x3c052b90	0.008128062
30	0xbdb85f9c	-0.09002611
31	0x3db08726	0.086195275
32	0x3c7b2cb9	0.015330487
33	0xbd003237	-0.03129789
34	0xbd9f0d03	-0.07766154
35	0xbe119589	-0.142172
36	0xbce01d26	-0.027357649
37	0x3ecbe57c	0.3982352
38	0xbd0044e0	-0.031315684
39	0x3e269d2c	0.16270894
40	0x3e829703	0.25505838
41	0x3e0ea2b3	0.13929252
42	0x3e02ded2	0.12780312
43	0xbba42663	-0.005009459
44	0x3e2f491f	0.17117737
45	0xbe20fb44	-0.1572085
46	0x3e314832	0.17312697
47	0x3ed1ec4d	0.41000596
48	0x3c5eb647	0.013593263
49	0xbdc83397	-0.09775465
50	0x3e0a65aa	0.13515344
51	0xbde92a9d	-0.11385081
52	0x3de6e280	0.1127367
53	0x3e3562b3	0.17713432
54	0x3e1a38e2	0.15060762
55	0x3e071f37	0.13195501
56	0xbe0138e0	-0.12619352
57	0x3e6db9af	0.23215364
58	0xbe1c571d	-0.15267606
59	0x3e0bb147	0.13641845
60	0x3b2380b4	0.002494854
61	0x3e9e51c9	0.30921772
62	0x3e2c97d9	0.168548
63	0x3cae01b8	0.021241054
64	0xbedc9a45	-0.43086448
65	0xbced3df4	-0.028960206
66	0xbecf0bec	-0.40438783
67	0xbd9d0a8a	-0.07668026
68	0xbea19e81	-0.3156624
69	0xbe702324	-0.23450905
70	0xbc73a6b5	-0.014871289
71	0xbf0151ee	-0.5051564
72	0xbe4eb18d	-0.20184918
73	0xbeb000bd	-0.34375563
74	0xbe51e5b1	-0.20497777
75	0xbebf1d61	-0.37327102
76	0xbe5369ba	-0.206458
77	0xbd266319	-0.04062185
78	0xbf0c5c52	-0.5482837
79	0x3b973fe2	0.0046157697
80	0xbebe7ca4	-0.37204468
81	0xbe3e2eb7	-0.18572508
82	0xbeca849d	-0.395543
83	0xbe3ed843	-0.18637185
84	0xbef13196	-0.47108144
85	0x3d741800	0.0595932
86	0xbe128b3f	-0.1431093
87	0xbf14a441	-0.5806313
88	0xbe9b2f09	-0.30309322
89	0xbe9729e0	-0.29524136
90	0xbeb68d99	-0.35654905
91	0xbf1e8b92	-0.6193172
92	0x3caa347e	0.020776983
93	0x3e49ff61	0.19726326
94	0xbefc2487	-0.49246618
95	0xbe00eaaf	-0.12589525
96	0xbf3b7219	-0.73220974
97	0xbe9a324f	-0.30116507
98	0x3c760ec2	0.015018167
99	0xbe30195e	-0.17197177
100	0x3d2c7776	0.042106114
101	0xbf28dffe	-0.65966785
102	0xbe31fa9b	-0.17380755
103	0xbe9ff4a6	-0.3124134
104	0xbe93d41a	-0.28872758
105	0xbea30194	-0.31837142
106	0xbe3d24a1	-0.18471004
107	0xbd8fd210	-0.07022488
108	0xbedc5a24	-0.43037522
109	0xbe8b0ce9	-0.27158287
110	0xbe2d56b4	-0.16927606
111	0xbde18d67	-0.110132985
112	0xbf031a1b	-0.5121171
113	0xbee43846	-0.44574183
114	0xbef22eac	-0.47301233
115	0xbe1f39f5	-0.15549453
116	0xbf043aab	-0.5165202
117	0xbc2963db	-0.010338749
118	0x3ec0a129	0.37622955
119	0xbd5bf146	-0.053696893
120	0xbe8dd2d1	-0.27699903
121	0xbd36468b	-0.04450087
122	0xbe3906ab	-0.1806895
123	0xbe9efe60	-0.31053448
124	0xbe359f10	-0.17736459
125	0xbed41af7	-0.41426823
126	0xbe98ac9d	-0.29819193
127	0xbe9c3725	-0.30510822
128	0x3eabe1d9	0.33570746
129	0xbe458230	-0.19287944
130	0xbe717539	-0.23579873
131	0xbe509744	-0.20370203
132	0xbe8f582c	-0.27996957
133	0xbdf6052d	-0.12012706
134	0xbe3771b2	-0.17914465
135	0xbc2a445e	-0.010392277
136	0x3d624f5c	0.055251464
137	0x3e4272dd	0.1898913
138	0xbe2d09ce	-0.16898271
139	0xbba26a81	-0.004956544
140	0xbe6c7b57	-0.23093925
141	0xbc0a94c5	-0.008458321
142	0xbd74d8ad	-0.05977695
143	0x3e6b55a9	0.22981896
144	0x3e785554	0.242513
145	0x3e84dbe3	0.2594901
146	0x3e66d0c1	0.22540571
147	0xbe9f7246	-0.3114187
148	0xbb045323	-0.0020191155
149	0xbc6ce46c	-0.014458757
150	0x3e4b0ee9	0.19829907
151	0x3d5cb98d	0.053887893
152	0xbe6117d3	-0.21981744
153	0x3d3ec26e	0.04657214
154	0xbdf6cc39	-0.12050671
155	0xbebdcf02	-0.37071997
156	0x3d163c56	0.036678635
157	0x3de6a98a	0.11262806
158	0x3e5d80dc	0.21631187
159	0xbea34987	-0.31892034
160	0x3e1c011f	0.15234803
161	0xbda54e62	-0.08071591
162	0x3e11be4e	0.14232752
163	0xbe4ae258	-0.19812906
164	0xbe441d72	-0.19151857
165	0xbeaf03eb	-0.34182677
166	0x3e3f7dbc	0.18700308
167	0xbe883552	-0.2660318
168	0xbe4cb706	-0.19991693
169	0xbe1682c4	-0.1469832
170	0x3e5234e9	0.20527996
171	0xbe3232c9	-0.17402185
172	0x3e97f121	0.29676154
173	0xbe3989e9	-0.18119015
174	0x3d49581a	0.049156286
175	0x3b42a1fe	0.0029698606
176	0x3dcc1657	0.099651985
177	0xbd9f5f38	-0.077818334
178	0x3e2e1483	0.17000012
179	0x3dbfc57d	0.0936384
180	0x3d1c5c33	0.038173866
181	0xbe1629a0	-0.14664316
182	0xbe21f3ed	-0.15815707
183	0xbddc62ec	-0.10761055
184	0x3def38db	0.11680766
185	0xbde9cf7e	-0.11416529
186	0xbe84b566	-0.25919646
187	0x3d1db031	0.038498107
188	0xbeb5b74a	-0.354914
189	0xbe35bf50	-0.17748761
190	0x3e5f04b7	0.21779142
191	0xbed971b4	-0.4246956

gru2out.weight f4 [6, 64]
0	0xbe3c4eac	-0.18389386
1	0x3edbafdb	0.42907605
2	0x3e827405	0.2547914
3	0x3ea4c9c7	0.32185194
4	0x3e76c40d	0.24098225
5	0x3d06fddb	0.03295694
6	0x3eecebaf	0.46273562
7	0xbf285927	-0.65761036
8	0xbe28d400	-0.16487122
9	0xbf43657d	-0.76326734
10	0xbb6be6eb	-0.0035995792
11	0xbdd25d67	-0.10271721
12	0xbea85435	-0.32876745
13	0x3d66ec6f	0.056377824
14	0x3f2a8d36	0.6662172
15	0xbde1eb9d	-0.11031268
16	0xbcff5589	-0.031168716
17	0xbf16f744	-0.5897105
18	0xbee6ceab	-0.4507955
19	0x3e5b4b1a	0.21415368
20	0x3e631777	0.2217692
21	0x3f1c2f55	0.6100972
22	0xbea0e162	-0.31421953
23	0xbf2b4f5f	-0.66917986
24	0x3f02be46	0.51071584
25	0xbeb5ab44	-0.35482228
26	0xbe815763	-0.25261983
27	0xbe64153e	-0.22273728
28	0xbe74d914	-0.23910934
29	0xbde390b0	-0.11111581
30	0xbf059f67	-0.52196354
31	0x3e1e6289	0.15467276
32	0x3e498589	0.19679846
33	0x3e7f1984	0.24912077
34	0xbf0559e6	-0.520903
35	0xbbb9f1b3	-0.0056745647
36	0x3dd37a2f	0.10326039
37	0x3d747473	0.059681367
38	0x3d72e6ef	0.059302267
39	0xbe575387	-0.21027957
40	0x3e891df5	0.26780668
41	0x3f391ba1	0.72307783
42	0x3e8f2dd7	0.2796466
43	0x3f446666	0.7671875
44	0x3f03cbc9	0.51482826
45	0xbe408302	-0.18799976
46	0x3f186f10	0.5954447
47	0xbd7cd76b	-0.061728876
48	0xbf1ce8ea	-0.612929
49	0x3ef3452c	0.4751371
50	0xbf639791	-0.88903147
51	0x3eb50310	0.353539
52	0x3e76ab37	0.24088751
53	0x3f053d2c	0.52046466
54	0x3e36f3b2	0.178664
55	0x3e918ad3	0.28426227
56	0xbd4ea633	-0.05045147
57	0xbdd41014	-0.10354629
58	0x3e3adbda	0.18247929
59	0xbe8dc34a	-0.27688056
60	0x3e942dfc	0.28941333
61	0x3a82bfe4	0.0009975401
62	0x3b8a5e4f	0.0042226682
63	0xbdb9e620	-0.09077096
64	0xbec7c7f4	-0.3901974
65	0x3ec125e4	0.3772422
66	0x3c892436	0.0167409
67	0x3e11d33a	0.14240733
68	0x3e6f4cb2	0.233691
69	0xbdb46066	-0.08807449
70	0x3ee2a3f5	0.44265714
71	0xbe604342	-0.21900657
72	0x3e3ba507	0.18324672
73	0xbe98c030	-0.29834127
74	0x3ea7ef19	0.32799605
75	0xbe415664	-0.18880612
76	0xbd97aaaa	-0.074055985
77	0x3da911d9	0.08255357
78	0x3e84db4f	0.2594857
79	0xbe3d8683	-0.18508343
80	0xbe44a05a	-0.19201794
81	0xbec16b16	-0.37777013
82	0xbe99aaad	-0.30013028
83	0x3ea47120	0.32117558
84	0x3e704c42	0.2346659
85	0x3ef95bee	0.4870295
86	0xbd8bf797	-0.068343334
87	0x3dd76963	0.10518148
88	0x3e48439c	0.19557041
89	0xbe45f1b0	-0.19330478
90	0x3d905de0	0.07049155
91	0x3f5ac6b7	0.85459465
92	0xbe4af040	-0.1981821
93	0xbe900229	-0.28126648
94	0xbc9d0ea4	-0.01917202
95	0x3ee01b64	0.43770897
96	0xbe074559	-0.13210048
97	0x3d7349fb	0.059396725
98	0xbddfea33	-0.10933342
99	0x3c9d4f59	0.019202875
100	0x3eb23b39	0.34810808
101	0x3dafe05d	0.08587716
102	0xbe6b9365	-0.23005445
103	0x3df508c2	0.11964561
104	0x3b8ff86e	0.004393629
105	0x3ef33747	0.4750311
106	0xbe74d2c8	-0.23908532
107	0x3e9ea81d	0.30987635
108	0xbd411055	-0.047134716
109	0xbcc2f443	-0.023798114
110	0x3e9d6fc1	0.30749324
111	0xbebd0ba3	-0.3692294
112	0xbe5cc5fd	-0.21559902
113	0x3e80cbe2	0.2515555
114	0xbed8f5b7	-0.42374966
115	0x3ca5e977	0.020252926
116	0xbdeee3ae	-0.1166452
117	0x3ea33b4b	0.31881174
118	0x3e6d103e	0.23150727
119	0x3d116c7c	0.03550385
120	0xbe1a66e0	-0.15078306
121	0xbe3d156c	-0.18465203
122	0x3e98be78	0.29832816
123	0xbe6d7108	-0.23187649
124	0x3e514827	0.2043768
125	0x3e3fbd48	0.18724549
126	0xbd9bd211	-0.07608426
127	0xbdfa1c57	-0.12212437
128	0x3e0d471f	0.13796662
129	0xbe36cccd	-0.17851563
130	0xbeb8ec26	-0.36117667
131	0xbd32a2a1	-0.043612126
132	0x3ecd5ce0	0.4010992
133	0x3cd88ab1	0.02643332
134	0x3b24028d	0.0025025934
135	0x3dc8d9c9	0.09807164
136	0x3e67cb8f	0.22636245
137	0x3dbfc1e0	0.093631506
138	0xbd7a1338	-0.061053485
139	0x3c9a4bf2	0.018835042
140	0x3da7a962	0.08186604
141	0x3df466e5	0.11933688
142	0xbe0a33a9	-0.1349627
143	0x3e2db31c	0.16962856
144	0x3d696cf8	0.056988686
145	0xbd8cfb43	-0.06883862
146	0x3e67272f	0.22573541
147	0xbe3bd088	-0.18341267
148	0xbe45e19d	-0.19324346
149	0xbe1ed052	-0.15509155
150	0xbec69d82	-0.38792044
151	0x3d096f49	0.033553395
152	0x3ed4853d	0.41507903
153	0x3d318a64	0.04334487
154	0x3ec6fb52	0.38863617
155	0x3f7ea05f	0.99463457
156	0x3cac664d	0.021044875
157	0x3dd2714a	0.102755144
158	0x3e817a4f	0.25288627
159	0xbe96405e	-0.29345983
160	0x3eed9599	0.46403196
161	0xbd511fd8	-0.05105576
162	0x3da5c4b8	0.08094162
163	0x3e97fd0c	0.29685247
164	0xbe4833b0	-0.19550967
165	0xbd88134e	-0.06644307
166	0x3d4620d7	0.048371162
167	0xbb67e9b2	-0.0035387096
168	0xbea98577	-0.33109638
169	0xbd6cb1ee	-0.057786874
170	0x3d42a2ed	0.04751866
171	0xbd657e21	-0.05602849
172	0xbc98e328	-0.018663004
173	0x3e04ff17	0.12987934
174	0xbe28bc9d	-0.164782
175	0x3e0f8498	0.14015424
176	0x3d9474de	0.07248853
177	0xbe622baf	-0.22086976
178	0x3e93c07f	0.288578
179	0xbdbfaa85	-0.09358696
180	0xbe0bcfbe	-0.13653466
181	0xbdc82428	-0.09772521
182	0xbde9968a	-0.11405666
183	0xbe6c7636	-0.23091969
184	0x3e0f1284	0.13971907
185	0x3eb742bc	0.35793102
186	0x3eae46a1	0.3403826
187	0x3e0de094	0.13855201
188	0x3ef1a4d3	0.47196063
189	0xbea40572	-0.32035404
190	0x3eb8ead0	0.36116648
191	0x3ec8ceb1	0.39220193
192	0x3db64324	0.08899525
193	0x3e0c4ee7	0.13701974
194	0x3e44f769	0.19235004
195	0xbdb333f8	-0.087501466
196	0xbe9481dc	-0.29005325
197	0xbcc45372	-0.023965571
198	0xbdc846f1	-0.09779156
199	0x3ea653be	0.32485765
200	0xbd27ebfb	-0.040996533
201	0x3cb9409f	0.022613822
202	0xbd5c0f2e	-0.053725414
203	0xbdfa28ef	-0.12214839
204	0x3d181903	0.037133228
205	0xbdff8b48	-0.12477738
206	0xbd0cf437	-0.03441259
207	0x3e0e48bd	0.13894935
208	0xbc8c2738	-0.017108545
209	0x3e3aaaef	0.18229268
210	0x3ed718b5	0.42011037
211	0xbe1af52c	-0.15132588
212	0xbe52df98	-0.20593107
213	0xbcc1daf4	-0.023663975
214	0x3deda37b	0.11603447
215	0xbc573579	-0.0131353075
216	0xbe920b17	-0.28524086
217	0xbd96e26c	-0.07367405
218	0x3da76c9b	0.08175012
219	0xbe9d2423	-0.30691633
220	0xbd940832	-0.07228126
221	0x3d9e9be3	0.07744577
222	0x3e687435	0.2270058
223	0xbe941b01	-0.28926852
224	0x3e21324a	0.1574184
225	0xbe28252e	-0.16420433
226	0x3c9339c9	0.01797189
227	0xbe69cf4f	-0.22832988
228	0x3e9a3c39	0.3012407
229	0xbc3a3438	-0.011364989
230	0xbac45378	-0.0014978489
231	0x3e767ca9	0.24070992
232	0x3e89d693	0.2692152
233	0xbdae033d	-0.084967114
234	0x3d6ff895	0.058586676
235	0x3e9e888b	0.3096355
236	0x3c6bd985	0.014395122
237	0x3e5c7209	0.21527876
238	0x3e06d91e	0.13168761
239	0x3d8961d2	0.06708111
240	0xbc54aaf1	-0.012980209
241	0xbe069afb	-0.13145058
242	0xbe72c7cf	-0.23709033
243	0xbc231a33	-0.009954977
244	0xbe607e56	-0.21923193
245	0xbd88726b	-0.066624485
246	0xbe3877b9	-0.1801442
247	0xbde33685	-0.11094383
248	0x3d84711e	0.06466888
249	0xbf161c32	-0.5863677
250	0xbe117766	-0.14205703
251	0x3d6bbf3d	0.057555426
252	0xbe80a660	-0.25126934
253	0x3f076b50	0.5289812
254	0xbe70e995	-0.23526604
255	0xbe237178	-0.15961254

gru2out.bias f4 [6]
0	0xbe0889e5	-0.13333853
1	0xbe841dba	-0.2580393
2	0x3d77f203	0.060533535
3	0x3d6812bc	0.05665849
4	0xbcc602d4	-0.02417127
5	0x3e5bcc76	0.21464714
