try1_simDataset1/30bp_SingleConserved_s0_UnifBG_pretrainedDisc.pth (torch, 495389 bytes, 20 tensors)

embeddings.weight f4 [6, 16]
00000000: 5456 18bd c87b 8dbf fd17 6d3f c8d9 813f
00000010: 40b5 22bf fe32 13bf 7b02 1940 cff0 c5bd
00000020: b22a fc3f 8c5e 86bd d9de de3f ec98 e9be
00000030: b034 833e 2472 3b3e b86a edbf 89aa 80bf
00000040: 9d13 1cbf 0050 8f3e 680f d03f 282c 86bf
00000050: bdc5 9b3d 3405 93bf 9753 1dbf 4d57 173f
00000060: 4ee1 1bbe ef65 87bf aa2f 50be 19f5 983f
00000070: 4f93 853f b73c 453e 5b84 1940 acd1 45bf
00000080: 6edf 04be 11f3 09bf bd8c 5e3f f58c a93e
00000090: 5851 cdbd 745d 3cbe c3f3 3b3e 4385 e33f
000000a0: 74c5 293e b96a 78bf ed4d 35bf fcf1 30bc
000000b0: e6dd b33f 0d3f d4bf 4e8c a3be c8e9 a43e
000000c0: e4f2 0e3f 8ffb 88bf 5e29 7f3e b2d4 db3e
000000d0: 5296 34bf 6063 e73f caae 803f c31e 6d3c
000000e0: 7d25 5a3c 4588 af3f 2a8b 8d3f 2a65 913e
000000f0: 4615 d43f c8e2 1c3e fc52 f9bf 7940 23bf
00000100: 95d5 af3f 1772 5cbf a0cb 6f3f 5db2 c5be
00000110: ee72 37bf 387c ca3e 1138 73bf 2ea3 09c0
00000120: 8b9e c33e b788 c33b d53c b2bf b3ff bd3f
00000130: 33c9 1e3f 1edf 0040 8563 a53f decd 3d3f
00000140: 0d42 46bf de04 b2bf bbcb 5d3f e8fa 5bbf
00000150: fa91 a13f 68b4 1cbf 7e7a a63d 0e55 773f
00000160: 5d0b 1f3e dcdf bcbe 6a22 aa3e a90f 9bbe
00000170: 5480 0a3f 2d71 e8bd 29e6 aebf 9633 8f3f
-0.037191704 -1.10534 0.9261473 1.0144587 -0.63557816 -0.5749968 2.3907764 -0.09665071
1.970053 -0.06561002 1.7411758 -0.45624483 0.25626135 0.1830526 -1.8548193 -1.0052043
-0.6096743 0.27990723 1.6254702 -1.0482225 0.07606075 -1.1485963 -0.6145567 0.59117585
-0.15222666 -1.0577983 -0.20330682 1.1949798 1.043558 0.19261442 2.3987033 -0.7727306
-0.12975857 -0.53886515 0.869335 0.33115354 -0.10025281 -0.18395025 0.18354706 1.7775043
0.16579229 -0.97037846 -0.7082203 -0.010799881 1.4052093 -1.6581742 -0.3194298 0.3220961
0.5583937 -1.070177 0.24918124 0.4293571 -0.7054187 1.8077202 1.0053341 0.014472666
0.013314602 1.3713461 1.1058095 0.28397495 1.6568992 0.15320885 -1.947845 -0.6377025
1.3737055 -0.8611159 0.9367008 -0.38612643 -0.71659744 0.39547896 -0.95007426 -2.1505847
0.38206896 0.0059672254 -1.3924814 1.4843658 0.62025756 2.013618 1.2920996 0.74142253
-0.77444535 -1.3907735 0.86638993 -0.8592973 1.2622674 -0.6121278 0.08128832 0.9661416
0.15531678 -0.3688954 0.3322938 -0.30285385 0.54102063 -0.113497116 -1.3663989 1.1187618

gru.weight_ih_l0 f4 [192, 16]
00000000: 649e 57bd 38a6 36bc 97bc a2bd 8d06 073e
00000010: 6e12 94bd cb86 033e 0523 d8bc 9b15 06be
00000020: ec0f 9a3d bd5a 993d e7ff 293e fca2 b13d
00000030: 694c d63d da23 983d 2a9d e93c 3beb 37bd
00000040: 80d9 c0bd c6e6 94bd 3063 93bd f430 5c3c
00000050: 86d6 01be d82d ea3c ed41 86bd 5674 d8bd
00000060: b7aa b9bb 1f73 d33d d0ad bbbd 4719 be3c
00000070: f7ee 56bd 7eb0 323d 4531 61bd 4498 fb3b
00000080: 52b3 163d ec0f a6bd 60fe 423d 11f1 e6bd
00000090: 9c14 7fbc 1641 83bc ba7a 89bd 2989 893d
000000a0: 7784 0bbe 0494 9fbc 994f f13d 491b c63d
000000b0: ad7f 843d fa8f c2bd b54b 94bd b696 01be
000000c0: 4741 153e 1ecd 0cbe 4d57 113e b873 763d
000000d0: 8e53 db39 5924 9fbd 2f60 24bd 700f d43d
000000e0: 3996 7abc 2035 56bc 4dc9 1b3d 8a99 a1bd
000000f0: 591e 983d 0451 8cbd 429c 233d b983 9fbd
00000100: 6665 c73d 1834 39bd 0780 80bc 612d 5d3d
00000110: 0240 92bc a0b4 1a3d 20a5 3fbd ab01 85bd
00000120: f339 08bd 14fc 6f3c 3161 cebd 3b7a d83d
00000130: 39ab a33d fb36 c53d 248d 983c 5d2c 8bbc
00000140: 6c74 78bd 9173 d43d 11c5 de3c 96c9 b53c
00000150: d22d 943d ee54 843b 0a72 ea3d ded0 babd
00000160: 475b 0b3e e22b e93a c955 4d3d 1344 173e
00000170: e62a ba3d 3174 523d 954d 7c3d d593 4a3d
00000180: b03b 95bd 0bfa ad3d 9ce9 e2bb c102 0ebe
00000190: f589 a03b 166f ec3d b89e d3bd 88a3 2c3c
000001a0: b76c 933d 805a 013e ec15 bc3d 3fbf 953c
000001b0: 6674 b63d 3096 4f3d 9ea7 86bd fad4 333d
000001c0: f287 9bbd 1cef 0a3e 3b44 36bc 9a7a ea3d
000001d0: 8cfe 8c3c 27b8 6cbd cbad 113e 46ba 15bc
000001e0: 0d24 dc3c cf3d 44bd a0ca 303e a155 b1bd
000001f0: 92f3 cd3a b87c bd3c d125 9d3d 14a3 2bbd
00000200: d4c7 fcbb 2dd7 de3d 9bf9 b8bd 29e8 9ebd
00000210: c3b4 8f3d e67d e63d 3c8a 03be 6fc8 aa3c
00000220: 17fe be3d 9d70 153d db15 2a3d 6209 9c3d
00000230: 8f7a a6bb a6cd ca3d 526f 5a3d 08a6 a6b9
00000240: d53e fabc 358c b9bd 5e63 72bd 2e75 b3bd
00000250: 70b2 9a3d 1f4d 393d c6ee edbc d818 7dbd
00000260: 6d48 913d 01c1 ad3d 2e01 2cbc 9a91 05be
00000270: d80b 9dbd 14a1 b53c dc16 ccbd fd26 f4bb
00000280: ce4d 253e d0c0 af3d 8a6b 9d3d 467b 80bd
00000290: 758f 883d 3d16 f53d cf92 f43d f527 07be
000002a0: f09f 9dbd 5627 143e 86cf e7ba ce1f 60bd
000002b0: 68c8 c53d 77c0 083e c605 9e3d 9eec f1ba
000002c0: a49f e83d 628b bfbd 2fbf 773b 6086 103e
000002d0: 52af dcbd 1866 803c 3012 b5bd 724a 18bd
000002e0: 1717 dabd c788 943d dc28 043e cb9f 3b3d
000002f0: 4d8c e33d 2bf3 93bc 7a3f 97bc 9949 ca3d
00000300: c00a 05be e7ec a5bd 8e71 b63d 527b ebbc
00000310: 732b 55bd ff57 14be d256 b23d 21e3 d63d
00000320: 73a0 7d3d d257 e6bd 6b1e c0bc d2a4 92bd
00000330: 0ddb d2bd 5fed a4bd 5091 ac3d 57a8 b93c
00000340: 681b 87bd 7cb6 cabd 951c 06be e402 303d
00000350: 2224 143d c091 1ebe 0d22 8ebd 8666 033d
00000360: 29c3 7f3d 099f adbb 8078 ab3d 6baa a5bd
00000370: c276 1dbe 0b12 09be 80b1 0e3e 5642 33bd
00000380: 890a 953c 7c5b 9dbc e5de bcbc 4c7e c93d
00000390: f6a2 683d 534d 89ba 85ae aa3d d98d 3dbd
000003a0: 30f2 fabd b0fd 1e3e 16ef dabd f59d 07be
000003b0: 8112 a63c 1201 4b3d 7334 9b3c a7c9 30bd
000003c0: 50c3 d83b eb37 2fbc 9cb4 e43d 364a a6bd
000003d0: d4ed cebd 3eaf 743c 97b7 2cbd 7cc3 1dbd
000003e0: d8ee 0d3e 7177 c6bd f455 773c d74d 38bd
000003f0: 92e1 923d 860d 783d aea7 15be 092c d5bd
-0.052641287 -0.011148028 -0.07946127 0.13186093 -0.07230078 0.12844388 -0.026383886 -0.1309418
0.07522568 0.0748801 0.16601525 0.08673665 0.10463793 0.07428713 0.028517324 -0.044902068
-0.09416485 -0.07270579 -0.07196653 0.013439406 -0.1267949 0.028586313 -0.06555543 -0.10569064
-0.0056661027 0.10324692 -0.091640115 0.023205413 -0.05247399 0.043625347 -0.054978628 0.0076780636
0.036792107 -0.081085056 0.047605872 -0.112764485 -0.0155688785 -0.016022246 -0.06712861 0.06715614
-0.1362475 -0.019479759 0.1178276 0.09673173 0.06469665 -0.095001176 -0.072410025 -0.12655148
0.14575683 -0.13750121 0.14193459 0.06016895 0.00041833188 -0.07770605 -0.04013079 0.10354507
-0.015294605 -0.013074189 0.038033772 -0.078906134 0.07427663 -0.0685139 0.03994394 -0.07788796
0.09736137 -0.045215696 -0.015686048 0.053998355 -0.017852787 0.037769914 -0.046788335 -0.06494459
-0.03325839 0.014647502 -0.100771315 0.105701886 0.079916425 0.09629627 0.018621989 -0.016988927
-0.060657904 0.10373605 0.027193578 0.02219085 0.07235302 0.0040384447 0.114475325 -0.091218695
0.13609038 0.0017789567 0.05013064 0.14772062 0.090902135 0.05138034 0.061597425 0.04945739
-0.07286775 0.084949575 -0.006924821 -0.13868238 0.0048992583 0.115446255 -0.103330076 0.010537036
0.0719847 0.1263218 0.09183869 0.01827967 0.0890892 0.05068034 -0.06574939 0.043904282
-0.07594289 0.13567775 -0.011124666 0.11449166 0.017211221 -0.05779281 0.14226453 -0.009138649
0.02687266 -0.047910508 0.17264795 -0.086589105 0.0015712848 0.02313076 0.076732285 -0.04190357
-0.007714251 0.10880885 -0.090319835 -0.07759125 0.070168994 0.11254482 -0.12845701 0.020847527
0.093258075 0.03648435 0.04152475 0.07618977 -0.005080528 0.099025056 0.05332882 -0.0003178569
-0.030547539 -0.090599455 -0.059176795 -0.087625846 0.075535655 0.045239564 -0.02904452 -0.06179127
0.07093892 0.08484078 -0.010498328 -0.13043824 -0.07668275 0.022171535 -0.099652976 -0.007450937
0.16142961 0.08581698 0.07686527 -0.062735125 0.06667987 0.11967132 0.11942064 -0.13198836
-0.07696521 0.1446813 -0.0017685748 -0.05471783 0.09657365 0.1335467 0.07715945 -0.0018457358
0.11358574 -0.09352757 0.0037803163 0.1411376 -0.10775627 0.015673682 -0.088413596 -0.03718037
-0.10648935 0.07252651 0.12906212 0.045806687 0.111107446 -0.018060287 -0.018462885 0.09877319
-0.12992382 -0.08101826 0.089083776 -0.028745327 -0.05204339 -0.14486693 0.08707966 0.1049254
0.061920594 -0.11247219 -0.023452004 -0.07160343 -0.10295687 -0.080530874 0.08426154 0.022663279
-0.06597024 -0.098980874 -0.1309684 0.042971507 0.03616727 -0.15485287 -0.069400884 0.032080196
0.06244198 -0.0052984995 0.08372593 -0.08089145 -0.15377334 -0.13385789 0.13934898 -0.043764435
0.0181935 -0.019208662 -0.023055503 0.09838542 0.056796037 -0.0010475315 0.08334068 -0.046277855
-0.12253225 0.15526462 -0.10690133 -0.1324385 0.020272495 0.049561568 0.018945908 -0.04316106
0.00661508 -0.010694484 0.11167261 -0.08119623 -0.10103956 0.014934359 -0.042167272 -0.038516507
0.13860643 -0.096907504 0.015096176 -0.04499611 0.071719304 0.060559772 -0.14614746 -0.1040879

gru.weight_hh_l0 f4 [192, 64]
00000000: 5524 9c3c 05b2 c23d 21d9 47bd 358c dbbd
00000010: aca5 c83d b660 aa3d e938 b83d 80e3 053e
00000020: f97d a6bd 0a7d cfbd 8cdb ecbd a3ac 8b3d
00000030: fa83 52bd 1581 183d 98aa 123d b8b2 6a3c
00000040: 5472 fc3d 981b a0bd 7eeb 05be b717 babd
00000050: 8f8b 7fbd 4ce7 5cbd 6f83 61bc 115e 38bc
00000060: 6128 bcbd 3dd6 cebd df52 6fbb 8aa1 793d
00000070: a06e b63c 8493 c93d 57be a33c e5cc 6a3d
00000080: 4402 783d 780e 0bbd ae6f ec3d 5dde d5bd
00000090: f480 d1bd 208e 6d3d b2fd e33c f694 d53d
000000a0: 9704 e5bd 64e5 4abb 71e4 51bb af63 3cbd
000000b0: a1d9 c73d 0969 ae3c 8c22 ce3d 4b54 be3c
000000c0: 055a d43d 2e1f 50bd 8e1f b43d ee8f cdbd
000000d0: 219a 98bd 4f07 37bd f0b7 033e ec64 e0bd
000000e0: 799a 6b3d 4dcf 80bd 170b 17bd 02a7 a93d
000000f0: dd54 d43d d83e 88bd e0af 9f3d 1077 99bc
00000100: d58d 61bb c6d7 6dbd b39b 49bd 11e0 a3bd
00000110: 5683 51bd ca4f 9c3d 601a 3ebd 1ab4 0e3d
00000120: 2a13 d6bd b85b b8bd b175 96bd de77 25bd
00000130: 8f38 bb3b feb4 3bbd a931 7cbd aebe 063c
00000140: df9a a53d 2d7b 6dbc 85d5 9b3d 2d0f a2bd
00000150: c42f 663d 93f3 d4bc af7a d3bd a605 c7bc
00000160: d5b0 43bd 2018 05bd ccfc 81bd c389 e2bd
00000170: ec53 acbd 1e46 fabd f99d cb3c b9de afbb
00000180: 7b32 84bd 525e 60bc 13d7 c83d fb81 0abe
00000190: e5c6 02be e1a0 03bd 3e99 a1bd dc72 c2bd
000001a0: 2408 a8bd e137 103e 9157 eabc 42fe 923d
000001b0: 1e3e 59bd a3a5 d93c 5304 c1bd d111 d6bc
000001c0: 3765 ee3d 4ec6 ebba da54 cf3b a856 a3bd
000001d0: e684 e8ba eaac 8bbc 5799 ba3c 3966 8a3b
000001e0: 4a70 0bbd 3f47 c0bd 46a9 023e 519b e33c
000001f0: 406e c73c 9a06 033e 21a8 76bd 0638 a13d
00000200: 9b9c d9bd 80e0 bebd 15dc b6bc 3738 e33d
00000210: 5dc9 80bd 0450 01bd 9903 f7bc f63a 463d
00000220: bd49 fcbd 901f 083c cec9 3cbc c06c 12be
00000230: 4b25 fc3d 631a 67bd 519e 18bd c9a4 7abd
00000240: b4c5 213d 3917 f33d f0ad 5abd 2c04 b43d
00000250: 1dd5 c43c 3912 98bb 8918 cd3d 4d2a c6bd
00000260: 78bc c13d 90d9 b93d dd0f 243d 6ef5 a33d
00000270: 98e7 cdbd 9cac 703d f019 31be 988d c93d
00000280: c025 c53d 8259 15be 50cd 74bd f646 523d
00000290: 18d3 0d3c 5028 bcbd e9b1 8f3d 00b7 dfbd
000002a0: f59e bcbd 5159 29bd 7557 763d 5a28 34bd
000002b0: d4ab a73d 6d60 fbbd c994 9e3d 80b4 7638
000002c0: aa0e 913d 5efd d6bd 20f6 a13c 98ff 223e
000002d0: f960 883d e618 323d 6e2c bbbd 9b7d 7a3d
000002e0: 9fd4 e8bd b24d b0b9 335f c83d b555 293c
000002f0: 4a47 ad3d f114 0d3e bf0c 90bd 240f 82bc
00000300: 7482 173d 4a27 71bc 7a85 b6bd cdd9 15be
00000310: ef62 00bd b238 aebd 3440 b9bc 3098 1a3d
00000320: ccf2 aabd 8055 37bd 869f 8fbd 477d 783c
00000330: 63ba e4bc 27e8 b5bd 874f 0cbe c1e2 0ebe
00000340: 7a14 3c3d d737 acbd c2f8 633d f7fe 833d
00000350: ed20 97bd e5b0 b13d 6378 d1bd 4bc4 05bc
00000360: 2ea5 37bd 6ff1 9fbd 6dfb 89bd c746 e73d
00000370: caef 05be bd3b 8fbd 7c77 423c 6717 aabd
00000380: a1a4 6c3d 7112 83bd 6fa2 343d f367 e83d
00000390: 7b3c acbd 1dc1 48bd d387 a93d 6731 063e
000003a0: 338d 683d c5bb c93b 6112 e5bd f912 e0bd
000003b0: 59d7 27bd 9773 c13d 381b 44bd 90c5 e2bd
000003c0: 2186 21bd a0dc 4a3d a304 19bc 4492 dbbd
000003d0: ff93 ed3d 1912 a6bc 11f8 14be a9bf 92bd
000003e0: 61f6 903c 75a0 8bbd de39 d93d df65 0dbe
000003f0: fd2b 99bd 5fe8 c9bd b4da 033e e44c b9bd
0.019060293 0.09506611 -0.048791055 -0.10720102 0.097972244 0.083192274 0.0899523 0.13075066
-0.08129496 -0.10131271 -0.11565313 0.06820037 -0.051395394 0.037232477 0.035807222 0.014324836
0.12326494 -0.07817763 -0.13078114 -0.090865545 -0.062388953 -0.05393152 -0.013764246 -0.011252896
-0.09187389 -0.100994565 -0.00365179 0.06094507 0.022269547 0.098425895 0.019988222 0.05732431
0.060549036 -0.033949345 0.11544739 -0.10442803 -0.10229674 0.05799687 0.027830932 0.10428803
-0.11182516 -0.0030959481 -0.003202703 -0.045993503 0.09758306 0.021290319 0.10065183 0.023233553
0.10368732 -0.050810985 0.08795081 -0.10037218 -0.07451273 -0.044684704 0.12863135 -0.10956749
0.057520363 -0.062895395 -0.03687581 0.08283807 0.10367749 -0.066526115 0.07797217 -0.018733531
-0.0034416814 -0.058067106 -0.049220752 -0.08001722 -0.051150642 0.07632406 -0.046411872 0.034839727
-0.10452874 -0.09001869 -0.073466666 -0.040397517 0.0057135294 -0.045826904 -0.061570797 0.0082241725
0.0808618 -0.014494699 0.07609085 -0.07913051 0.056197897 -0.025995051 -0.103261344 -0.024294686
-0.047776062 -0.03249371 -0.06347045 -0.11061432 -0.08414444 -0.12220405 0.0248556 -0.005367127
-0.06454941 -0.013694363 0.09806647 -0.13526146 -0.12771185 -0.032135848 -0.07890557 -0.09494564
-0.08204678 0.14083816 -0.028606208 0.07177402 -0.053037755 0.02656824 -0.09424653 -0.026131542
0.11640399 -0.0017988177 0.0063272538 -0.07975513 -0.0017739802 -0.017050225 0.022778196 0.0042236117
-0.034042634 -0.09388589 0.12759885 0.027784022 0.024344563 0.12795487 -0.060218934 0.07872014
-0.10625573 -0.09320164 -0.02232174 0.110947065 -0.06288407 -0.03157045 -0.030153083 0.048396073
-0.12318752 0.008308306 -0.011522723 -0.14299297 0.123118006 -0.05642165 -0.037260357 -0.061192308
0.039495185 0.11869664 -0.053388536 0.08789858 0.024027402 -0.004640844 0.10014445 -0.09676037
0.09459776 0.090747 0.04005419 0.080057964 -0.100539386 0.058758363 -0.1729505 0.0984146
0.09626341 -0.14584926 -0.059766114 0.051337205 0.008656286 -0.091873765 0.070163555 -0.10923576
-0.09210006 -0.041344944 0.060142 -0.043983795 0.081870705 -0.12274251 0.07743222 5.8819074e-05
0.07082875 -0.10497545 0.019770682 0.15917814 0.06659121 0.043480776 -0.09139334 0.061154943
-0.11368679 -0.00033627223 0.09783783 0.010335376 0.08460863 0.1377752 -0.07033681 -0.01587636
0.036989644 -0.01471884 -0.089121774 -0.14633866 -0.03134435 -0.085069075 -0.022613622 0.037742794
-0.08347091 -0.044759274 -0.070128486 0.015166587 -0.027920907 -0.0888217 -0.13702212 -0.13953687
0.045917965 -0.08409088 0.055657156 0.06445115 -0.07379327 0.08676318 -0.1022804 -0.008164476
-0.044835262 -0.07809722 -0.06737409 0.112927966 -0.13079754 -0.06993816 0.011869308 -0.08305245
0.05777419 -0.06400002 0.04410022 0.11347952 -0.08409973 -0.049012292 0.082778595 0.13104783
0.056775283 0.006156417 -0.11185146 -0.10941119 -0.040976856 0.09445875 -0.04787752 -0.11072838
-0.039434556 0.04952681 -0.009339484 -0.10721257 0.11600494 -0.020272302 -0.14547755 -0.071654625
0.017695608 -0.06817714 0.106067404 -0.13808392 -0.07479093 -0.098587744 0.12876397 -0.09047869

gru.bias_ih_l0 f4 [192]
00000000: 8822 2ebd 0e22 bbbc 9e19 e3bc 5eb2 21bd
00000010: 6cc5 f93d f0cd e9bd a7a7 c9bc eec0 ac3d
00000020: 9749 9cbd 19a5 fdbd 1fec bb3d dfa0 06bd
00000030: c6be 933d 8da1 89bd 77dd 7cbc 869a dabd
00000040: 53f1 b7bd 2f4a e83d c745 833d 7557 bebd
00000050: eb32 1c3c b338 f1bc 2db0 9ebd 475d 45bb
00000060: 0d0f 7bbc 736d 4fbd 6e7e df3d b145 413c
00000070: 9b69 c43b c950 cbbd 1f73 7fbd f1b8 19be
00000080: db3a c3bd c550 563d bbd0 02be 4b17 113d
00000090: bc2f bfbc ae24 b7bd aa74 323d 9783 da3c
000000a0: 614a 2dbc a27f 9cbd 2345 893d 1f8a cb3d
000000b0: 621e 6a3d f570 3c3c 67ac 76bd b978 d5bd
000000c0: 87d6 8e3d fb1c a7bd f969 8a3c a8b5 16bd
000000d0: b2eb bc3d 785e 7f3d e50e f93d 0291 ec3d
000000e0: f6cc 3a3c 1aa0 953b 866f 973c 00b9 db3d
000000f0: 18a1 733d afa3 413c e420 66bd bf28 a4bd
00000100: f0b1 ad3d 4ce1 8bbd 6c9a 2bbd 89ef a03d
00000110: 4386 bbbd a8e3 653d e05f 753d ca14 7b3d
00000120: 5e45 d43d 94c5 c63d 8690 09be 6a4d 81bd
00000130: c983 d4bc b485 03be de8d da3d cda4 a4bd
00000140: 168e eb3d 56c7 4abc 22e6 d8bd ff41 5fbd
00000150: 5da6 76bd 1449 b53d 2cbf 40bd 907d 53bd
00000160: ac25 ac3c 4acb 52bb c4d1 79bd 938b 85bd
00000170: 268e c23b 783a 82bd 646e c63d c9ee b3bd
00000180: 29ea 763d 49cb 393d 62ee 8bbd 0319 993d
00000190: 9340 e7bd 0d37 a0bd 9a6d 2d3d 4b3a 1ebc
000001a0: 3c47 22bd ab55 27bd 6b5d 7bbd 5616 dabd
000001b0: 7fcd a03c 24b3 39bd a031 2fba a108 36bb
000001c0: bcde ab3d 9a58 e03d c114 8b3d a441 07be
000001d0: e789 663d 3308 e1bd 0042 cdbd 24d8 873d
000001e0: 89da b1bc 6373 a9bd 4614 1cbd 63fb bb3c
000001f0: 9c17 3ebd ca28 7cbd 78e4 153d f7c1 d5bc
00000200: 1ada f5bc 614e 873d f7e7 b33d 8edc 63bd
00000210: 5fde aebd 3b2f be3d b968 05be 9c36 b3bc
00000220: 06db a03d 88c2 17bc 01a3 d93d 5730 aebd
00000230: 3282 45bd 05b9 86bd 992c 0dbe 1895 b8bc
00000240: c632 83bd 8d42 b4b9 b6cd a8bd 91db 8abc
00000250: 047e 933d 4dda 34bd c32d 9dbc 59ff 983b
00000260: d941 7fbd 8780 dabb 6a64 0ebd 0356 ce3d
00000270: b0a4 b1bd f79a 953d d70c eb3d a947 cb3d
00000280: debf 48bd 1ed7 c3bd 02a9 c83c e865 f23d
00000290: c67e 92bd 7875 cc3d 8bb7 b43d 64cb 063e
000002a0: 26b6 95bd d90a 4f3b 62d2 d3bd a82a e63d
000002b0: 88f9 d6bc 84e8 da3d 1212 c9bd de21 d9bd
000002c0: e2fe a13d e4f8 b53d 99ab 59bd 3765 013c
000002d0: ea31 ef3c 3ece 65bd d4d2 84bd 095a b3bd
000002e0: f2f4 df3d 54b6 383d a0c4 063d fd7c 99bd
000002f0: 9690 08be f35c 183d 363c d93d 6dfd 713d
-0.0425134 -0.022843387 -0.027722176 -0.039476745 0.12195858 -0.114162326 -0.024616076 0.08435236
-0.07631224 -0.123850055 0.09175896 -0.032868262 0.072141215 -0.067202665 -0.015433661 -0.10674004
-0.08981576 0.113422744 0.06409793 -0.09294025 0.009533624 -0.029445982 -0.077484466 -0.0030115412
-0.015323413 -0.05064149 0.109127864 0.011796401 0.0059940345 -0.09927518 -0.062365647 -0.15011956
-0.0953271 0.05232312 -0.12774937 0.035422605 -0.023338191 -0.08942543 0.04356829 0.026674075
-0.010576815 -0.076415315 0.0670264 0.09938454 0.05715788 0.01150154 -0.06022301 -0.10423417
0.069745116 -0.081598245 0.016896235 -0.036794335 0.09224643 0.06234595 0.12161044 0.115510955
0.011401406 0.0045662047 0.018485796 0.10728645 0.059479803 0.01181881 -0.05618371 -0.08015584
0.084812045 -0.06830081 -0.041895315 0.07858188 -0.09156468 0.056125313 0.059905887 0.061299123
0.10364793 0.09705654 -0.13434038 -0.06313594 -0.025941746 -0.12843972 0.1067159 -0.08039246
0.1150171 -0.012376627 -0.10590769 -0.0545063 -0.06021725 0.08851829 -0.047057316 -0.051633418
0.021014057 -0.0032164627 -0.060991064 -0.06520762 0.0059373556 -0.06358808 0.09689024 -0.08785779
0.060281906 0.045359883 -0.06832577 0.07475474 -0.112916134 -0.07823 0.042340852 -0.009657453
-0.039618716 -0.040853184 -0.061368387 -0.106487915 0.019629238 -0.045336857 -0.0006683115 -0.002777614
0.083920926 0.109543994 0.06791068 -0.13208634 0.056283858 -0.10987892 -0.10022354 0.066330224
-0.021710651 -0.082739614 -0.03810527 0.022947019 -0.046409234 -0.061562337 0.036594838 -0.026093466
-0.030011225 0.066067465 0.08784478 -0.05563026 -0.08538508 0.09286352 -0.1302823 -0.021876626
0.078542754 -0.009262688 0.10626794 -0.08505314 -0.048219867 -0.065782584 -0.13786544 -0.022532031
-0.06406169 -0.0003438186 -0.08242361 -0.0169504 0.0720177 -0.0441535 -0.01918686 0.0046691117
-0.062318657 -0.0066681537 -0.03476373 0.10074999 -0.0867399 0.07304948 0.114770584 0.099257775
-0.049011104 -0.09562515 0.024494652 0.11835843 -0.07153086 0.09983343 0.088240705 0.13163525
-0.07310133 0.003159216 -0.10342862 0.11238605 -0.026242033 0.1068888 -0.098179 -0.10602163
0.07909943 0.08885363 -0.053142164 0.007897667 0.029198606 -0.05610489 -0.06485525 -0.08757407
0.109353915 0.045095757 0.03290236 -0.07494543 -0.13336405 0.03719802 0.106071874 0.059079576

gru.bias_hh_l0 f4 [192]
00000000: e8fe e2bd a587 b5bd 0f10 3cbc ca10 17bd
00000010: 21a8 62bd a7eb 28bd b37e 6bbd dc7b 04be
00000020: 5962 61bb 7733 24bd 0aca 2a3d 177c e93b
00000030: 5639 c83d 3930 8f3d 5de5 df39 f1ac 76bd
00000040: b950 a0bc d18e 89bd 160a 08be 1e02 003e
00000050: bfe7 9c3d cb3f 593c 8cee d63b 3b24 a33d
00000060: 72ef a03d 9131 d73d d268 a7bd 8a71 f2bd
00000070: ed67 0c3c f13b e3bd 7369 babd 59f1 0bbe
00000080: 79ed 29bd 2e1d bebd 1079 95bd a0a9 ebbd
00000090: d106 fabd 5863 d4bd 24d9 523d d15e e0bd
000000a0: 85c9 203d 9b41 6c3d c79a 683c 066f 753d
000000b0: 0acd a83d c3e4 b43c 52ea af3d 3bca a43c
000000c0: 9533 8abd 9fa5 533c 1afc 9b3d c09b 63bd
000000d0: e40b debd f516 c5bd 619f c93d f74b 61bd
000000e0: 75dd e9bd 1678 02be 6cf4 03be 0969 dfbc
000000f0: b204 043e 3f0b d43d 0778 b1bd d988 c23d
00000100: 9e1d ce3a 533f 0ebc 1c67 5f3d ad81 a93d
00000110: 6b0e 903d 3b85 afbd e8b6 ab3c 0c22 b43d
00000120: aef4 a3bd b207 813d d88c a43d 948f d73d
00000130: ba39 1c3d 96e2 46bd 3edb db3d 8d41 823d
00000140: fdba 4dbc bbf5 c53b 776a 9abc b5c4 293d
00000150: edd3 913d a253 e7bd f4e6 a5bc 1406 853d
00000160: cd7d 4a3d 062b 11bd 85ba b8bd 742d 093d
00000170: a075 3bbc 9662 723d 5f31 323d 1c8c f43b
00000180: 1379 083d 73c8 cfbd 147f 073d 7eec ecbc
00000190: a15c 80bc 8804 4c3c 70db 18be b9bf 9fbd
000001a0: 740d 0d3d e33d 2d3d 301d 82bd 5dd0 6e3d
000001b0: 38f9 94bd f94b 95bd 228a 0fbc a0fb 483d
000001c0: e9f9 183d 086f 083e f435 4b3d d650 a9bb
000001d0: c2c0 f53d bf7c 01be e241 bfbd f3fd c6bd
000001e0: ae3c bc3c 43c3 0dbd f0dd ee3d 3251 a83d
000001f0: ef8f 9cbd f40b e63c b026 5cbd 1604 7fbd
00000200: b038 6d3d 1eab aa3c 8686 983d ea2c 43bd
00000210: ed13 17be cc60 f1bc 39e9 f1bd 01e1 f93b
00000220: 8ae2 45bd 8b97 a7bd 31fc 813d c113 b6bd
00000230: bcae b4bd fde7 3a3d 5f53 c83d 0264 cbbd
00000240: c10a b73d 10bf 6b3c 8dcc e33d 5cc6 26bd
00000250: be7a 2a3d e073 84bd 3089 a9bd 59e8 a83d
00000260: c295 0c3e 1252 743b d360 92bd 15d6 3c3d
00000270: b0c1 cfbd 3b70 c03d 0e6f 983d 9d8a 34bd
00000280: 3814 f33d 55f0 f9bb 8129 92bc 5d4d 02bc
00000290: 3d22 54bd b92e efbd 31bc 14bc 2120 6bbd
000002a0: 82e9 373d 8781 97bb 9aef ebbd f78e 053c
000002b0: 338c be3d 856f dd3c c682 8b3d 94f9 bb3d
000002c0: bf99 e2bd 4b07 df3d b449 48bd a693 4cbc
000002d0: 557b d83d c28e 06be 190e 01be 5360 b33a
000002e0: 8393 f53d c222 b4bd 54dd cbbd 992b 713a
000002f0: a68b e3bc f0ab 29bd 19b3 283d 74d2 0b3d
-0.11083776 -0.08863763 -0.011478438 -0.036881246 -0.05533612 -0.04124036 -0.057493877 -0.12937874
-0.0034390895 -0.040088143 0.041696586 0.0071253884 0.09776561 0.069916196 0.00042704763 -0.060223524
-0.019569742 -0.06716693 -0.13285097 0.12500808 0.076613896 0.013259838 0.0065591987 0.07965895
0.078581706 0.10507501 -0.0817429 -0.11838062 0.0085697 -0.11095417 -0.09102144 -0.13666286
-0.041486237 -0.09282909 -0.072984815 -0.11506963 -0.122083314 -0.10370511 0.051476613 -0.10955585
0.039254684 0.057679754 0.014197058 0.059920333 0.08242233 0.022081738 0.08589615 0.020115962
-0.0674812 0.012917905 0.07616444 -0.055568457 -0.10842112 -0.09623519 0.09844852 -0.055004086
-0.11419193 -0.12741122 -0.12886208 -0.027271764 0.12892416 0.103537075 -0.086654715 0.09498758
0.0015725379 -0.00868209 0.054541692 0.08276687 0.07034 -0.085703336 0.02096124 0.087955564
-0.08005653 0.06300296 0.08034676 0.10525432 0.03814099 -0.048555933 0.107351765 0.06360159
-0.0125567885 0.0060412562 -0.018849595 0.04144736 0.071205 -0.112952486 -0.020251729 0.064953
0.04943638 -0.03544142 -0.09019951 0.033490613 -0.011441618 0.05917605 0.043504115 0.0074629914
0.03331859 -0.101456545 0.033080176 -0.028921362 -0.015669169 0.012452252 -0.14927459 -0.0780024
0.034436658 0.042295348 -0.06353223 0.05830418 -0.07274097 -0.07289881 -0.008760961 0.049068093
0.037347708 0.13323605 0.049612 -0.005167107 0.11999656 -0.12645243 -0.09338738 -0.09716406
0.022978153 -0.034610044 0.11663425 0.08218612 -0.07644641 0.028081872 -0.053747833 -0.062259756
0.05791539 0.020833548 0.07447533 -0.047650255 -0.14753695 -0.029465102 -0.11812062 0.0076256995
-0.048311748 -0.081832014 0.0634693 -0.088904865 -0.088223904 0.045631398 0.09781527 -0.09931184
0.08937598 0.014388815 0.11122999 -0.040716514 0.041620962 -0.06467414 -0.082781196 0.08247442
0.13729003 0.0037280363 -0.07147374 0.046102602 -0.10144365 0.09396406 0.07443057 -0.044077504
0.11869091 -0.0076275268 -0.017842056 -0.007953015 -0.051790465 -0.116788335 -0.009078071 -0.057403687
0.044900425 -0.004623595 -0.1152031 0.008151761 0.09304085 0.027030716 0.068120524 0.091784626
-0.11064481 0.10890063 -0.048898414 -0.012486374 0.10570399 -0.13140395 -0.12603034 0.0013685323
0.11991026 -0.08795692 -0.09954324 0.0009199917 -0.02777655 -0.041423738 0.041186426 0.03413625

gru.weight_ih_l0_reverse f4 [192, 16]
00000000: add9 493d b077 bbbd d9e6 153d 1087 99bc
00000010: 06de 4dbb b92c 8f3d e522 d7bc fe33 0fbd
00000020: 6ca6 84bd 3fc9 eb3d 60c5 5b3c e7f9 7e3d
00000030: d9ea 92ba 5c08 0a3d b2a8 873d b356 a13d
00000040: 9e9a 18bd f8e3 043e b761 563d 57d7 e1bd
00000050: 045d 95bc 2608 8e3d 9f20 02be 4549 28bd
00000060: 1e7c d9bb 671d 8d3d 3292 d9bc c420 083e
00000070: 8976 be3d 53ba f1bd 0dcc 123c 1545 65bd
00000080: 330d 153e 7641 a43d e22c 003e 28a6 dabd
00000090: cd72 d6bd d05e 54bb e9a6 853d 4955 f53c
000000a0: fc19 a83d 2b25 073e c681 273e 2392 0e3e
000000b0: 56c8 d7bd 81c1 10bd 093f 563d cb2a 543d
000000c0: c882 94bd 523c 3a3c af6a 94bd d3bd 83bc
000000d0: b5cf 08be b68a a93d cdc5 93bd 48b1 95bd
000000e0: 3615 c03d e334 9a3d b57b f23d 55cc cd3d
000000f0: 0f96 593c 0966 15bd 4899 903c 10ca ddbd
00000100: 78e2 2c3d f953 c73c f2c3 28bd 0dfe 82bd
00000110: a7a9 cc3d 8d1a 26bc 3502 14bd 9bd0 0a3e
00000120: 0bc4 b1bd 5d35 91bd b3d2 91bd 1d39 863d
00000130: 9a96 013c 5eb6 f3bc c28b e53d fcbd 0b3e
00000140: 5137 5c3c 3269 81bd b4a7 913d 4f4d 17bd
00000150: a882 bebd 1786 20bd da1c 663d eb51 993d
00000160: d1ba 01bd 6c60 63bd da0a b33d b328 943b
00000170: 722a 64bd 9329 9e3d 71ed e93c 06e7 e6bd
00000180: 22dd 663d 9ceb 00be 51f9 893d 9771 df3d
00000190: 9d24 62bb 061f 923d 4808 eb3d 7a12 eb3d
000001a0: e4bd 95bd df74 213e 79b8 4d3d f391 7b3d
000001b0: ff0e 113e 33ff 843d 812d b33d 8893 34be
000001c0: b733 1e3e 4c7f d9bd a4c6 a63d 3176 053e
000001d0: 4321 393d e4cd 45bc 87ac 5ebc c6d5 953d
000001e0: d2df 53bd 9a72 d53d 198a 933d 3aca be3d
000001f0: 2a46 cfbd efc0 cbbc a6be 9c3d a125 c13c
00000200: 5d1c 023e b8bf 453d 6f6f df3d c5de 8cbd
00000210: ce44 6cbc 0946 423d 1854 d9bc d8c4 1dbd
00000220: 19e2 95bd e337 c93c 5a71 3c3d bf5a 583d
00000230: b81e 063e 1c30 97bc e397 cbbd 0fcc 9dbd
00000240: e795 823d 892f e23d 3422 d03c cdda bb3d
00000250: eaaa 12bd 4913 203e b860 50bb 6190 483d
00000260: ad39 c03d 4c4e ec3c 1bcd 013e bebc c1bd
00000270: 006f 08bd da8e dc3d 01f9 00be 4179 963d
00000280: 03af af3d cb3d 65bd a57f 6cbc e2cb a33d
00000290: e4ba 9fbd fcb5 f93c 314e 093e d459 af3d
000002a0: 4455 003e 76da 9fbd f9c5 dfbb 180e 14be
000002b0: 2c1f 14bd cfa4 8d3d c0e3 05bd c05a 2cbd
000002c0: e088 9b3d d646 233d 8927 3bbb 1cd1 17bd
000002d0: b2c4 9e3d f2fa 8e3c 4188 723d d6c4 e8bd
000002e0: 5fdf 7fbc 269a 633e b081 8c3d db8f bdbd
000002f0: 288b b43d 9639 4a3d eeb9 9c3d 777d 31bd
00000300: 6642 94bd 42f0 9a3b 66b7 0bbe 7107 1e3d
00000310: 6d30 1abd 7d97 ce3d ff12 933c 8c86 bb3d
00000320: 4489 79bd 2c83 df3d d6db 26bd b2d2 f33c
00000330: a646 16be 0869 a4bc 2b17 563d ad2a 0dbe
00000340: 1f57 803c 82c6 1bbd b7ad b43d d0fb 9e3d
00000350: 6e14 623d 3ce4 a73c e3ed ec3d 0ead 083e
00000360: e0e4 b4bd f4ec 6b3d 4724 0a3d a6dc 0ebd
00000370: c8df 273d 63f1 263d 820e 843d da8d 403d
00000380: f59b 95bd 3d1e c63c 52e8 f7bd ac49 e4bd
00000390: 87fb bc3c 7129 74bc 584c 793d 3d0e 03be
000003a0: d543 26bd 0a63 9d3d a8c2 e23d 5bb4 a23d
000003b0: b2c7 4bbd 9255 1b3e 3956 3f3d 08b2 f0bc
000003c0: 2c79 a4bd 488c 2cbc 2b61 ca3b 9a0d ec3d
000003d0: 98ff b03c 84ff 8fbd 259c afbd ae77 63bc
000003e0: 7624 a7bd 81ff 07be 1e79 05be 5c10 3fbc
000003f0: 880b adbc 28e0 193d 5422 98bd b48d e53c
0.049279857 -0.09153688 0.036597107 -0.01874116 -0.0031412854 0.06990952 -0.026261756 -0.034961693
-0.06477055 0.11512994 0.013413757 0.062250044 -0.0011208906 0.03369938 0.06623973 0.07877865
-0.03725683 0.12977588 0.052339282 -0.11027401 -0.01823283 0.06935148 -0.12707756 -0.0410855
-0.0066371104 0.06890374 -0.02655897 0.13293749 0.092999525 -0.11803117 0.008959782 -0.055974085
0.14555816 0.08020298 0.12517121 -0.10676223 -0.10471115 -0.0032405145 0.06525976 0.029947894
0.08208081 0.13197772 0.16358098 0.13922934 -0.10536258 -0.03534079 0.05230621 0.051798623
-0.07251507 0.011366921 -0.07246911 -0.016081726 -0.13360484 0.0827841 -0.07215462 -0.07309204
0.09379046 0.075296186 0.118400015 0.10048739 0.013280406 -0.03647426 0.017651215 -0.10829556
0.042208165 0.024332033 -0.041202493 -0.063961126 0.09993296 -0.010138166 -0.036134917 0.13556139
-0.0867997 -0.07090256 -0.07120266 0.06553862 0.007909441 -0.029750045 0.11208297 0.13646692
0.013440923 -0.063188925 0.07112065 -0.03693896 -0.093022645 -0.039190378 0.05617986 0.07486328
-0.031672303 -0.055511877 0.08742304 0.0045214533 -0.05570454 0.077227734 0.028555604 -0.11274533
0.056363232 -0.12589878 0.067370065 0.109103374 -0.0034506686 0.071348235 0.11476189 0.114781335
-0.073116094 0.15767239 0.050224755 0.061418485 0.14165877 0.06493988 0.087489136 -0.17634404
0.15449415 -0.10619983 0.081433564 0.13033368 0.045197736 -0.012073014 -0.013590938 0.07316165
-0.051727124 0.10422249 0.072040744 0.093159154 -0.101208046 -0.024872271 0.07653551 0.023577513
0.12706132 0.04827854 0.10909926 -0.068784274 -0.014420701 0.047430072 -0.026529357 -0.038517803
-0.07318515 0.024562782 0.046006538 0.052820917 0.13097656 -0.018455558 -0.099410795 -0.07704937
0.06376248 0.11044223 0.025406934 0.09172592 -0.035807528 0.15632357 -0.003179593 0.048965815
0.09386001 0.028845929 0.12675898 -0.09459828 -0.033308983 0.10769434 -0.12594987 0.07347346
0.08578303 -0.055967133 -0.01443473 0.07997872 -0.077993184 0.030482285 0.13408734 0.08562055
0.12532526 -0.0780534 -0.00682902 -0.14458501 -0.03616254 0.069162 -0.032687902 -0.042078733
0.07594466 0.039862476 -0.00285575 -0.037064657 0.077523604 0.017453644 0.059211973 -0.113656685
-0.015617221 0.22226772 0.068606734 -0.09255954 0.088156044 0.049371324 0.07652651 -0.043332543
-0.07239227 0.004728348 -0.1364418 0.038581315 -0.03764384 0.10087488 0.017953394 0.09156522
-0.060921922 0.10913691 -0.040736996 0.029763553 -0.14675388 -0.020069614 0.05226819 -0.13785811
0.015666543 -0.03803111 0.08822196 0.07762873 0.055195265 0.020494573 0.11568811 0.13347265
-0.08832717 0.057599023 0.033726003 -0.034878395 0.0409849 0.040757548 0.0644808 0.04701028
-0.07305137 0.02418434 -0.121048585 -0.11146864 0.023069156 -0.0149024585 0.060863823 -0.127984
-0.040592033 0.07684906 0.11072284 0.07944556 -0.04975099 0.15169361 0.046713088 -0.029381767
-0.08030924 -0.0105314925 0.006176134 0.11526032 0.021606252 -0.070311576 -0.08574704 -0.013883514
-0.08161251 -0.13281061 -0.13034484 -0.011661615 -0.021123663 0.037567288 -0.074284226 0.02802167

gru.weight_hh_l0_reverse f4 [192, 64]
00000000: 2d30 e9bd ff55 033e da63 b8bd 6134 a7bd
00000010: 5d85 ad3d 0386 da3d 11a5 e3bd ecb4 07bd
00000020: 664d 103e 4547 f43d 6e45 b33d dcb3 783d
00000030: eab5 79bd 66b3 53bc a455 543d 2277 9ebd
00000040: 6d68 05be 1ca8 453d 6f5c a43d 8cb1 ffbc
00000050: 2431 2f3d eecd 4e3c 2e52 17be f574 36bd
00000060: 7ae4 6cbd 1fca 3a3d f77f dfbd 1214 983d
00000070: f426 bc3d 03c9 e3bd 569f 903d 0578 b0bd
00000080: 35f1 763d 5cfb db3c 7c74 0dbe 0ea8 0bbe
00000090: 87cb 0abe d09c ed3d 6d93 4fbd ce14 ad3d
000000a0: f0cc 593d 7546 22bc 1179 1e3d fe3b 9e3d
000000b0: dc59 2ebc 524d 0d3e 61ca 403d a8d1 09bb
000000c0: d756 c33d 8706 f53c 6039 013d 5349 adbd
000000d0: 9e64 cebd 331d 72bd 98b5 23bd 1bcf 41bd
000000e0: 6d85 34bc 7a2c ff3d 35d8 ef3d 894b 5ebb
000000f0: 15a0 b0bc c310 63bd 1e5e f4bd c39b 0cbe
00000100: d11c 32bc ba60 b5bd 302c c8bc 1ae7 ce3d
00000110: 2d98 debd 926c 9f3d 55f5 acbd 69b1 d43d
00000120: 4bdb f63d c026 0ebd 4aae dabd 8833 ad3d
00000130: 73dd 063e 84bc ff3c 899d 9bbd a491 c13d
00000140: e34e 6a3d a9a4 d33d 06ca b9ba 6da4 6b3d
00000150: 39fe b9bd 6c49 ac3d 03c8 813d b953 793d
00000160: 7083 043e 68a2 d7bc e775 823c d445 ba3d
00000170: fee1 ea3d 743a 3cbd 703a b6bd 8d85 69bc
00000180: 59c4 c23d 424c d9bc ff8a 813d 1456 afbc
00000190: 3cbb 0cbe 0adf 2bbd 2c3a ed3c 482d 06be
000001a0: 68d2 1fbb 174f d5bc 19bc 39bc 3e8e 8f3d
000001b0: e8f9 88bd ebc4 98bd 5f43 58bd ae67 0d3d
000001c0: fe8d 9ebd c3b5 d1bd 9642 11be 062c cdbd
000001d0: 7fd3 503d d90b 0b3d e9e8 9ebd fd1b b8bc
000001e0: 6764 32bc 6005 a7bd 628b 6e3d dd54 74bd
000001f0: fdbf cfbd 9581 61bd 6eda d1bc 7e15 853d
00000200: 926a 8abc 95e7 bebb bedb c5ba ce8a 1f3c
00000210: 6cf4 0b3e 22b3 b1bd c9be a33d c4bb 9dbc
00000220: 7799 cdbc 6a4f 25bd 65d2 293e fbaf a2bd
00000230: 4b64 a0bc c63a be3c 83ed 22be 9d48 84bc
00000240: 9808 d43d 1ca9 4f3d 0582 153d 8507 74bd
00000250: 6c82 4c3c 011d bdbd af51 723d 4d22 e33c
00000260: 8018 efbd 6a85 93bd 90b0 89bd 376a 08be
00000270: af8c 193c af48 80bd 3d50 903d c5af 27bd
00000280: f3b9 e33d 19b1 d1bb e70f c1bd d8d3 073e
00000290: d01e 9f3d 0284 3f3c 9fe8 71bd 875b 9b3c
000002a0: d73d bd3d b0bf a03d 5db0 25bd 6428 0f3d
000002b0: 06f3 2a3d 9e32 943b 080e ad3d e2a5 5dbd
000002c0: dc86 0cbc ff2d b13d c0d3 98ba d3da 1dbd
000002d0: 04d0 073b 6ff6 e5bd 2ad7 c2bd 2afd 6fbd
000002e0: d5bc 00be 47f6 07be 3b61 1ebd b1e7 abbd
000002f0: a780 fcbc 10d2 1abd 78df 00be c797 253e
00000300: 8fb9 9c3d f8dd eabd c130 dd3d 6fb9 943c
00000310: aadc 7cbb 3ca6 f73b 4b8b 32bb f7ac 15bd
00000320: 02d3 18bd 51da 283d afd7 cb3c 52b1 3bbd
00000330: 8b1c b13d 8ee9 a13d 958e 9cbd 15ff a8bd
00000340: 9985 2cbc bf5c acbc a194 5cbd ee2c efbd
00000350: c537 e6bd 5d60 10bd 23f4 bb3d 0187 b8bd
00000360: 4741 23bd 66ad d13c fe9d 133e d9b7 863d
00000370: b82a cd3d a3b6 923d 0052 f53d aea0 c83d
00000380: adbb c5bd 8dc1 1a3d 34f4 efbd 04d2 c63d
00000390: 22c0 e13d cccf f4bc cb7e 9c3c 7c16 a2bd
000003a0: c710 dabd da95 763d 8e94 b7bd b456 bbbd
000003b0: 375d 6a3d d08b 7c3d 2f40 9d3c 83f3 63bd
000003c0: 6280 99bd e05a 95bc 1829 efbd 625e 2cbd
000003d0: 03f1 d33d 23aa 043d d3ed 813d 60a2 c8bd
000003e0: 42e7 6dbc 1c80 a13d 80dd 623d ea64 00bc
000003f0: c014 d13d 87c4 213e 2f51 49bd 4749 7fbd
-0.11386142 0.12825774 -0.0900342 -0.08164287 0.08472703 0.10670092 -0.11115468 -0.033131525
0.14092025 0.11927656 0.08753477 0.060718402 -0.060964502 -0.01292119 0.051839486 -0.077375665
-0.13028117 0.048256025 0.08025443 -0.03121259 0.042771474 0.01262234 -0.14777443 -0.044545133
-0.05783508 0.045602914 -0.10913079 0.07425703 0.09187117 -0.11122324 0.07061641 -0.08616642
0.060288627 0.026853256 -0.13813967 -0.13638327 -0.13554202 0.11602175 -0.050677706 0.08451234
0.05317396 -0.009904494 0.038689677 0.07726286 -0.010641541 0.13799027 0.047068004 -0.0021029506
0.09538048 0.029910339 0.031548858 -0.08461251 -0.10077785 -0.059109878 -0.039968103 -0.04731665
-0.011018139 0.12459655 0.1171116 -0.0033919534 -0.021560708 -0.055435907 -0.11932014 -0.13731293
-0.010871128 -0.0885634 -0.024435133 0.10102673 -0.10868869 0.0778438 -0.08445231 0.10385401
0.120535456 -0.034704924 -0.10677774 0.084570944 0.13170414 0.031217821 -0.07598407 0.09451607
0.05720414 0.10334141 -0.0014174588 0.057529856 -0.09081692 0.084124416 0.06336977 0.06087086
0.12940764 -0.026322559 0.01592536 0.0909535 0.11468886 -0.045954183 -0.08897865 -0.014253032
0.095101066 -0.02652562 0.063253395 -0.02140335 -0.13743299 -0.041960754 0.028958403 -0.13103211
-0.0024386887 -0.02603869 -0.01133635 0.070095524 -0.06688291 -0.07459434 -0.052798625 0.034522705
-0.077419266 -0.102397464 -0.14185557 -0.100181624 0.05098295 0.033946846 -0.07759268 -0.022474283
-0.010888196 -0.08155322 0.058238395 -0.059651244 -0.10144041 -0.05505522 -0.02561685 0.0649824
-0.01689652 -0.0058259466 -0.0015095396 0.009737683 0.13667458 -0.08676745 0.07995374 -0.019254573
-0.025097592 -0.04035894 0.16584165 -0.07943722 -0.019579073 0.023221385 -0.15910916 -0.016147906
0.10353202 0.050698385 0.03650095 -0.059577484 0.012482267 -0.09234048 0.05915993 0.027726317
-0.11674595 -0.07203181 -0.0672313 -0.13321768 0.0093719205 -0.06263863 0.07046554 -0.04093911
0.111194514 -0.0063992855 -0.09426861 0.13264406 0.07769549 0.011689188 -0.059059735 0.018964542
0.09240311 0.078490615 -0.040451396 0.03495063 0.04173567 0.0045226356 0.08449942 -0.054113276
-0.008577075 0.08651351 -0.0011659786 -0.038538765 0.0020723352 -0.11228644 -0.095136955 -0.058591045
-0.12572034 -0.13277541 -0.038666945 -0.08393801 -0.030823065 -0.037797987 -0.12585247 0.1617118
0.0765258 -0.114681184 0.10800315 0.018154828 -0.0038583674 0.0075576585 -0.002724367 -0.036541905
-0.037310608 0.041223828 0.02488312 -0.045823403 0.08648022 0.07905875 -0.07644383 -0.08251778
-0.010529899 -0.021040319 -0.05385268 -0.116784915 -0.11241106 -0.03524815 0.09177425 -0.09010125
-0.039857175 0.025595378 0.14415738 0.06578035 0.100179136 0.071637414 0.11978531 0.09796272
-0.09654937 0.03778224 -0.117165 0.09708026 0.110229746 -0.029884242 0.019103428 -0.07914445
-0.10647731 0.060201503 -0.089638814 -0.09147397 0.057217803 0.061656773 0.019195644 -0.055652153
-0.0749519 -0.01823181 -0.1167776 -0.042082198 0.10348704 0.032388818 0.063441895 -0.097965956
-0.014520468 0.07885763 0.05538702 -0.00783656 0.10209036 0.15797625 -0.04914969 -0.062325742

gru.bias_ih_l0_reverse f4 [192]
00000000: 7d07 113c ebec d2bc 2aea b23c cf8a a3bc
00000010: fad8 c43c 15ca 51bd fa14 c4bd 6726 88bc
00000020: 00b6 f73d 8ee9 cb3c f2c6 08be 782c 923d
00000030: 5ee3 f5bb 95f8 f3bd 8f3c 9dbd 88e2 adbd
00000040: 70e8 f73d e2a4 3a3c 9623 d2bc 1855 8abd
00000050: 2a0c c3bd 60c5 d13d 4efa 41bd fe76 82bc
00000060: 0986 07bd c881 a9ba c7fd c6bd 2a86 613c
00000070: 8963 a1bd 0769 94bc 97b9 92bc 0a47 d7bd
00000080: 2c4c edbd 2864 e7bc 8d5e 8c3d 3b17 8c3d
00000090: f1a3 acbd 7d57 133d 6b1e 7cbc 6388 e43d
000000a0: db66 20bc 7cc9 943d e69b 9e3c c38a 7abd
000000b0: 23cd bebc 6ce9 9dbd 13bc ad3b bc8e e33b
000000c0: 9816 5a3d b50f 6e3b 6e1b fbbd 8a99 b63c
000000d0: d380 d6bc d148 85bc f1eb fa3c ed50 4f3d
000000e0: 019a 38bc 9e0f 48bd ec38 b73c c021 bcbd
000000f0: ecae f73c 214d ecbd 14e5 b7bd f35a 563d
00000100: 5298 ffbd f333 af3d 1446 abbc 1781 19bd
00000110: 1cc7 b23d beae e0bd aca5 b33d ec37 6d3d
00000120: bb63 aa3d 5b43 bc3d d8f3 88bc 5e3b 5d3d
00000130: bd3f b6bc 1557 ea3d b7f4 bb3d 4241 a3bd
00000140: ec1d 4abd e9e0 16bd 96cc 153c ccd4 a03d
00000150: 154a a53d 7cba a93d 7a47 94bd 0fd3 773d
00000160: 88a1 cfbd 1f10 ea3c f52e dabd 2b4c 643d
00000170: d14b 513d b037 653d 00f8 03be c1cb 22bd
00000180: 5e93 19bd a6ad 343d 753c aa3d f329 a73d
00000190: a2be ecbd 19aa b33b 98eb ebbd 5350 30be
000001a0: 7552 df3c d9fe 97bd a615 293d 1b09 cd3d
000001b0: bcc5 ae3c 5721 15be 0146 2f3d ef4e 71bd
000001c0: 4f3a aabd 2032 e63d cad3 01bd 5f20 0cbe
000001d0: 3be0 fdbd f22a adbd c800 febc c0b6 8dbd
000001e0: 91df f0bd 21bb e83b 5e96 bebb 5df7 b6bd
000001f0: 6beb d4bd 35ca a43d c3c0 cbbd 7385 f43d
00000200: 5146 9fbd 0eb0 fbbd fe58 e5bd 808c b13d
00000210: 46b2 1a3d 54bf 33bd dffa ce3d df37 10be
00000220: 347c 0dbe 66bd 2e3c be09 123d fcc7 03be
00000230: a389 f4bd a766 9abd 3e39 7bbc f3b8 51bd
00000240: 9e9f a03d 418d 0b3e 73c1 a6bd bbd0 c3bd
00000250: 0379 583d c3a7 acbd 856f 1b3a 390d 0ebd
00000260: 0227 98bc fc3b 9a3d 9112 aebd 0302 103d
00000270: 2ed5 0dbe dd95 403b bf79 423d ddc5 b23d
00000280: 639b 913a b3c9 3ebd fb16 afbd fb9f 2c3d
00000290: 8bbc cabb bc1a cd3d 547a 113d 69d6 793d
000002a0: d249 133e 2f18 f8bd 5ded 8d3d 892f dcbd
000002b0: 65df fa3d 8c3d a63c 2771 0a3e 5223 c93d
000002c0: 8012 b03d 3485 583c 9a56 9c3c bcfa a73c
000002d0: 9f99 9e3d 366e a03d 5e8a eb3d 14c5 663d
000002e0: 4491 1fbd c915 cebd 51e9 b7bd 03d9 a4bc
000002f0: 15f2 a1bd 6396 f1bd d4d2 053e d653 aa3d
0.008851883 -0.025747737 0.021840174 -0.01996365 0.024029244 -0.05121811 -0.095743135 -0.016619874
0.120952606 0.024891641 -0.13357142 0.07137388 -0.007503911 -0.11912648 -0.07677566 -0.08490473
0.12104881 0.01139185 -0.025651734 -0.067545116 -0.095238045 0.102427244 -0.04735785 -0.01592588
-0.03308681 -0.0012932355 -0.09716373 0.013764897 -0.07880313 -0.018116487 -0.017910762 -0.105115965
-0.11586794 -0.028246 0.06853972 0.06840368 -0.08429707 0.035972107 -0.015388112 0.11158826
-0.009790148 0.072649926 0.019361448 -0.06116749 -0.023291176 -0.07710537 0.005301961 0.0069445055
0.053244203 0.003632528 -0.12261091 0.02229001 -0.026184475 -0.016270073 0.030630084 0.050614286
-0.011267186 -0.04884302 0.02236601 -0.09186125 0.030234776 -0.11538149 -0.0897924 0.05233283
-0.12480225 0.085548304 -0.02090744 -0.037476625 0.08729383 -0.109708294 0.08771834 0.05791466
0.08319803 0.091925345 -0.016717836 0.054011695 -0.02224719 0.11442391 0.09177535 -0.07971431
-0.049344942 -0.036835585 0.009143015 0.07853088 0.08070771 0.08287522 -0.072401956 0.060504016
-0.101382315 0.02857214 -0.106534876 0.055736702 0.051097695 0.05596131 -0.12887573 -0.039745096
-0.037494056 0.044110917 0.083123125 0.08162298 -0.11559798 0.0054829237 -0.11519545 -0.17218141
0.027260998 -0.07421655 0.04128041 0.10011502 0.021334521 -0.145635 0.04279137 -0.058913168
-0.08311903 0.11240029 -0.03169612 -0.13684224 -0.12396284 -0.08455457 -0.031006232 -0.069196224
-0.11761392 0.0071023856 -0.005816265 -0.089338996 -0.10396465 0.080463804 -0.09948876 0.11939516
-0.07777084 -0.12289439 -0.111986145 0.086693764 0.03776767 -0.043883637 0.101064436 -0.14083813
-0.13816911 0.010665273 0.035653822 -0.12869257 -0.119403146 -0.07539111 -0.015333472 -0.051201772
0.078429446 0.13628103 -0.08142366 -0.095612966 0.05284978 -0.084304355 0.00059293985 -0.03468058
-0.018573288 0.07530972 -0.08499635 0.03515817 -0.13850853 0.00293862 0.047479387 0.08729146
0.0011108931 -0.046579074 -0.08549305 0.042144757 -0.006187027 0.10014865 0.03551705 0.060995493
0.14383629 -0.12113988 0.06930039 -0.10751254 0.122496404 0.02029302 0.13519727 0.0982119
0.085972786 0.013215352 0.019084264 0.020505302 0.07744145 0.07833521 0.11501001 0.056340292
-0.038956895 -0.10062749 -0.089800484 -0.02012301 -0.079075016 -0.11796262 0.13068706 0.08316772

gru.bias_hh_l0_reverse f4 [192]
00000000: 0396 4abc 7976 04be 989a c63d 0ca7 c83d
00000010: 9f85 ca3d c52c f73d 1d39 46bd d65a 0a3d
00000020: cea8 94bd 8942 a1bd 6604 e5bd f816 8fbd
00000030: fdf6 3d3d 6d74 8e3d 564b 1bbe f69f 833d
00000040: 441f c93d 0455 89bd a80d b7bd 5ece 793d
00000050: dc5c e83d 7c1e 473c 6d85 db3c 25b7 f33d
00000060: 8363 83bd ba0d cdbd a374 a63d 60c9 713c
00000070: e1c2 c33d 6765 c4bd 7f37 d7bd fcf6 b13d
00000080: 65b9 9a3a c681 6dbd 1f26 9abd af6d 31bd
00000090: 21e1 cf3d f7c0 6abd 441b d23d 67be ac3d
000000a0: 6ebd c83d 8490 77bd e0ef e5bd be53 e33d
000000b0: ec10 b43d b606 94bd ec0d 9f3d 3f9d 873d
000000c0: 5c5d e8bb 5131 ba3c 4cde c83d 08e2 c93d
000000d0: ee73 0abe a2f2 c4bd 24f8 2fbd 16d5 ec3d
000000e0: a6b2 89bd c88e a63d 3ee9 03bd 5ebe 98bd
000000f0: d541 a33d 7764 49bd cb36 a6bc 20f8 913d
00000100: 8cb9 b63d aad4 f93c bdd7 97bd b0a4 e5bd
00000110: b673 dabd be41 b93d bef4 b6bd 23f2 fb3c
00000120: e9fb d4bd 50cc d33c 2ad7 433d 5739 0fbe
00000130: ccda fc3c 7ce0 6ebd bf89 bc3d 029a cc3d
00000140: eea9 e6bd 7a0f b53d d26d 96bd 5b6a ebbc
00000150: 89e4 913d 87e8 18be d0fb 90bd 57f0 c93d
00000160: dadb cabc 64d8 553d fe87 1d3d dd65 c13d
00000170: 286d c2bd 7fb4 04bc 3892 883d 5dbc b3bd
00000180: bd67 cdbd 82af 003d d7bc f9bd bfcb 153d
00000190: bcdd 8bbd c004 d73d 40fc 96bd b656 ba3c
000001a0: 0a90 90bb f6da 12be 7094 8b3d 1fbf cabd
000001b0: 6b60 c4bd 6327 dabd a467 8dbd 4cea d73c
000001c0: 8398 5d3d 587d 84bb 2712 fdbd bbe2 84bd
000001d0: 6aa7 c9bc 2a1c afba ea21 b5bd 62af dd3d
000001e0: fb0d c5bc abf3 2a3c 7479 90bd cec4 f43c
000001f0: 617e 033e 2e6c 30bd a141 0cbe 2664 55bd
00000200: 650b bfbd 5f22 3abd 3cf4 8fbc b8a1 9d3d
00000210: 2e24 dd3d 254e 853d 2d92 633d 82ba f6bd
00000220: ebb8 e3bd c59f aabc 2c3d 95bd 94f9 7e3c
00000230: 0e9c 2d3b c994 c6bd 7f6c f4ba 8c33 3fbc
00000240: 6687 4d3d 1e73 203d 38e6 ad3c 539e ce3d
00000250: 1d2f 69bd 638f 52bc 4537 be3d 226b 5bbd
00000260: 4bd7 e6bc 61dc 56bd 2561 c3bd f2e3 9e3c
00000270: f528 8abd 9e6e 703d 4a8a c8bd 7975 e83d
00000280: d4d9 273d c323 a83d d8c3 103e 3681 27bc
00000290: 7db1 fa3d 3447 a73d bda7 39bd 5a53 123e
000002a0: 156b 08bc ce3c 2fbd 589d b4bc 15c4 44bd
000002b0: fb90 15ba 23ad c7bd f3f2 aabd 3494 803c
000002c0: ca57 7cbd 02b5 55bd fa04 873d b5be 43bd
000002d0: be9a 6abc 2122 2ebd 4bd4 cf3d dd8b 8abd
000002e0: 0791 0d3e 4500 96bd 60a1 97bb 8743 303d
000002f0: 836c d83d a53c 683d 8b41 153e faf6 16bd
-0.012364867 -0.12935819 0.09697455 0.09797487 0.098887675 0.12069086 -0.04839431 0.033778034
-0.072587594 -0.07874019 -0.111824796 -0.06986803 0.046378125 0.069558 -0.15165457 0.064269945
0.098204166 -0.067056686 -0.089381516 0.060987823 0.113458365 0.012153264 0.02679702 0.119001664
-0.06415465 -0.10012384 0.081277154 0.014757484 0.095586546 -0.095896535 -0.10508632 0.08689687
0.001180452 -0.05798509 -0.07526802 -0.043317493 0.10150362 -0.057312932 0.10259107 0.08434754
0.09801756 -0.060440555 -0.11227393 0.11099957 0.0879229 -0.072278425 0.07766327 0.06621789
-0.0070912074 0.022728594 0.09808025 0.09857565 -0.13520786 -0.09616591 -0.042961255 0.115640804
-0.067235276 0.08132702 -0.03220486 -0.07458185 0.07971541 -0.049168076 -0.0202898 0.07127404
0.08922109 0.030496914 -0.07414196 -0.11213052 -0.10666601 0.090457425 -0.089333996 0.030755108
-0.103996105 0.02585426 0.04781262 -0.13986717 0.03086605 -0.058319554 0.092059605 0.09990312
-0.1126288 0.088408425 -0.07345165 -0.028737238 0.07123668 -0.14932452 -0.070792794 0.09860294
-0.024763037 0.05220832 0.03845977 0.09443257 -0.09493476 -0.008099674 0.06668514 -0.08776162
-0.10029552 0.031417377 -0.121942215 0.03657126 -0.06829402 0.10498953 -0.073723316 0.022746425
-0.004411702 -0.1434134 0.068154216 -0.09899735 -0.09588703 -0.10652044 -0.069045335 0.026356839
0.054100525 -0.0040432625 -0.12356978 -0.06488558 -0.024615962 -0.0013359834 -0.08844359 0.10824467
-0.024054518 0.0104340715 -0.07054415 0.029879 0.12841178 -0.04307192 -0.1369691 -0.052097462
-0.09328345 -0.045442935 -0.017572515 0.07696861 0.10797916 0.065090455 0.055559326 -0.12047292
-0.11119255 -0.020828137 -0.07287058 0.015562434 0.002649072 -0.09696347 -0.0018648057 -0.011670005
0.050177954 0.039172284 0.02122794 0.10088792 -0.056929696 -0.012851569 0.092878856 -0.053568967
-0.028178832 -0.052456263 -0.09540013 0.019395802 -0.06746093 0.058699243 -0.097920015 0.11350531
0.04097922 0.08209946 0.14137208 -0.010223677 0.122408845 0.08167878 -0.045325983 0.14289609
-0.008326312 -0.042782597 -0.022047684 -0.04803856 -0.00057055027 -0.0974982 -0.0834712 0.015695669
-0.06160716 -0.052174576 0.06592746 -0.047789294 -0.01431912 -0.042513017 0.101479135 -0.06764958
0.13824855 -0.0732427 -0.0046273917 0.04303315 0.10567572 0.05669846 0.14575784 -0.03685663
