try1_simDataset1/30bp_SingleConserved_s0_UnifBG_pretrainedGen.pth (torch, 68175 bytes, 7 tensors)

embeddings.weight f4 [6, 16]
00000000: 0063 573e 9738 9b3e 9501 4e3f 386d ebbd
00000010: 5c15 833f 2850 9ebf ce47 a43e 7888 e4bf
00000020: df4b e33e 8669 103f 8568 9e3f 7513 9bbf
00000030: b562 403f ed87 823f fc5c cbbe 3de3 2abf
00000040: 7236 d73f 3cef 4a3f 147b 02c0 169a 4c3f
00000050: 79f3 c7bf 2638 f83e a40a d2bf af0e cabe
00000060: 89ab be3e 0334 8abf 6347 473f 3817 ba3e
00000070: acbf e4bd ba13 cebe d707 c83e 589e b3bd
00000080: 2556 663f d4ff fdbe 6b97 66be dbe6 ea3f
00000090: 4d81 cb3f 3831 df3d e72a a03f a8c1 9dbe
000000a0: a6a8 82bf 3b67 70bf 09cb bcbf f674 e1be
000000b0: e61c cc3d 7f69 b53f 7b1b cfbf 732f 99bd
000000c0: e2a3 2e3d 4dd3 d73f e2ff b83f fe11 54bf
000000d0: ff3c f83b 067b 84bf ed5f 9cbc 35a7 473f
000000e0: 6468 02bf f62a f8be b206 503c 1266 59bf
000000f0: ad1b 0e3f 147e ee3c 66b5 85be 70a3 153e
00000100: 2470 3bbc 75ce 88bf f634 813f 5ddd 643e
00000110: 10bf 0bc0 0328 613f fbae 21c0 41a3 2c3e
00000120: cd83 5fbf 4c8c 1640 1736 393e e03e 803e
00000130: 0fd4 9fbf a820 f8be 02b3 abbe ac9d 13bf
00000140: e746 f8bf e574 98bc 82e6 3ebf 6d28 1a3e
00000150: 0d8e 323f 0c3f 8b3f 215a df3e 32eb 35bf
00000160: 75cf 9cbe c046 b83e 1949 653e 7501 d33e
00000170: a47f a33f 4ee5 0cc0 8a96 243f 79db 083e
0.21033859 0.30316612 0.80471164 -0.11495441 1.0240893 -1.2368212 0.32086033 -1.7854147
0.44393823 0.56411016 1.2375647 -1.2115313 0.75150615 1.0197731 -0.3971938 -0.6675299
1.681349 0.7927129 -2.038762 0.79922616 -1.5621177 0.48480338 -1.6409497 -0.39464328
0.37240246 -1.0797123 0.778433 0.3634584 -0.11169371 -0.40249425 0.3906848 -0.08770436
0.89975196 -0.49609244 -0.22518699 1.8351701 1.5898834 0.108980596 1.2513093 -0.3081181
-1.0207717 -0.9390752 -1.4749461 -0.44034547 0.099664494 1.417282 -1.6180261 -0.07479753
0.04263676 1.6861359 1.4453089 -0.82839954 0.0075756307 -1.0350044 -0.01908871 0.7798951
-0.5094054 -0.48470277 0.012696909 -0.8492137 0.5551098 0.029112853 -0.2611496 0.14613128
-0.011440311 -1.0688006 1.0094287 0.22350068 -2.1835365 0.8795168 -2.526305 0.16859151
-0.8731049 2.352313 0.1808704 0.2504797 -1.248659 -0.48462415 -0.3353501 -0.57662463
-1.9396638 -0.018610427 -0.74570477 0.15054484 0.69748 1.0878615 0.4362345 -0.71062005
-0.30627027 0.35991478 0.22391166 0.4121205 1.2773328 -2.2014956 0.64292204 0.13364972

gru.weight_ih_l0 f4 [192, 16]
00000000: cf7b c7bb 3002 9dbb 6a9d ad3d 6a74 1e3e
00000010: 924e 623e 366d a33d 4a10 ce3d ec34 35be
00000020: 05e2 86bd ecac 183e adeb 6fbd f95b 17be
00000030: 4299 163d 3048 28bd f4c1 31be 9845 00be
00000040: ba9c ac3d 37f1 203e 9e26 ac3e c5de 153c
00000050: 73c8 65bd bfb8 8bbe dfa3 53bd a363 f0b9
00000060: af0f 90be bd2b 9e3d 68b9 803c dda3 abbe
00000070: c803 4a3e 643d 3a3d c670 20be 15f1 383d
00000080: a0a1 7f3e d481 1a3f b6bf 1cbe b11e 923e
00000090: 0fd1 e63e 16c4 42bd b23c ea3e 1fb5 a33e
000000a0: f737 f7bd 3bad 0fbf 70d5 a3be f813 febc
000000b0: a747 983e 57db 273e bc6a a2be e0ed 843e
000000c0: 1cdd 6cbe ca94 b2bd d0f3 40be 2f43 7f3d
000000d0: 0324 773e 79c2 743d 91c0 9c3e 9219 04bf
000000e0: f967 493e 1ca6 d73c 191a aa3e bbd7 0ebc
000000f0: 312d a23e 41ad 04be 02f5 a93d 8e61 2bbe
00000100: fa09 a8be 063c b03d d9ef febe 25b0 27bd
00000110: 6ee3 903e ed77 d83e d785 823e a4a0 b9be
00000120: 5847 9b3d f13a 243e c989 963d d087 b53e
00000130: 673d 043f 42c0 e7be 9593 913e 3479 a63e
00000140: 9595 08be 2b19 ccbc cf0c a73c 3414 7a3e
00000150: 66de 88be 51e2 913e dc23 73be f258 e73e
00000160: 0c9f b2be 770c 5b3d 19f2 e4be 3ede 6a3e
00000170: 3d2e d3bc a9bb e1bd de91 aabc 31e4 d23e
00000180: 6299 f1bd dc0f 1fbd 7a1c 913c 1b4d 3c3d
00000190: 976e 313e d2a4 203e 811c 223d b160 18be
000001a0: 7adf 34be 0ce3 3d3d fe14 69be c4b9 9bbe
000001b0: 390f a53e aebf 68bd d79b 38be 8c8a 9a3d
000001c0: 7d6a 91be cabf e3bd b868 2a3e 3d62 b83d
000001d0: ef39 763f 80eb a0bd a34d e13e f47f 9cbe
000001e0: 401c c4bd e5f1 e83d b8da da3d 105b bbbe
000001f0: 9dc3 873e 1a44 d63c 1e98 6a3b 8174 3fbe
00000200: 58ea 853b c38c a83c aca5 f23c 2ffd 423e
00000210: 0b9c 603e cb4c 293e 0ca2 bf3d 28fb 7cbd
00000220: 21ab cfbd 47dc e3bc fff5 81bd af58 0a3e
00000230: a3ae ca3d 3b02 19bd 81b5 ecbd 1a45 223d
00000240: b2cf 05be 5d20 c63c a62c 663e cdd6 0f3e
00000250: a9d1 17bd eacb b0bd 901b d6bb 1ae7 cbbd
00000260: e0a9 c5bd 1213 603e e81e eabd fc9d 21be
00000270: a430 093e 3014 ac3d 8407 55be 2933 abbd
00000280: 5811 12bd fab4 2cbe 54a8 0b3d c761 4b3e
00000290: a552 cabd 2330 e73d 0f42 49be fef7 b5bd
000002a0: fc3b 42be 575e 583d 5695 aabd 73d0 68be
000002b0: 3624 c93d 7646 45bd a5c8 81be 6e4c 40be
000002c0: 26d6 95bd 1bed 933d 9a71 673d b0d7 1f3c
000002d0: fada 74bc 0bfd 073e a8ea 763d dd2e 233e
000002e0: 5c9a 39be c096 53bd 9598 0d3a a06c d7bc
000002f0: 027e 173e c246 e9bd 1284 613c b631 08be
00000300: 9bdf 0e3f a666 0cbe 94e6 293f 6dff dabd
00000310: 16ab 0cbf 2f9f e9be 9161 3fbf e775 a73e
00000320: 8fdb 59bd 3c73 0abd 9b40 98be 1bdb 05bf
00000330: d487 01bf 037c ec3e 930f 2abf 08ef 14bf
00000340: 308e 633e d9e5 54bf 27b6 89be be89 353f
00000350: c39b 9cbe cd75 c73e a1d4 cbbe 6f0c 2b3e
00000360: 54b7 02bf 59c7 073d 8aec 48bf 9032 803e
00000370: f225 a0be 0c51 3e3d 406c aabe 35f0 febd
00000380: c40b 2cbe 23f8 f43c 204e af3e c2bc b13d
00000390: 3246 4f3d 0d7c 0a3e a7fc 9bbe 3b59 46bd
000003a0: a47c 94bd 77b5 803e 395d 01bd e5ec a4bd
000003b0: 00ad 5c3e 6803 d9bd ba81 76be 92f0 ae3d
000003c0: d8c4 803e f05b b5bd 8c22 8dbc 790a 333e
000003d0: 1d05 94be fa3f b9bb 6cc9 45bd 101a cb3d
000003e0: d78b afbe 57af f4bd 5d2e 1bbf ca53 4abd
000003f0: 8606 35be 3801 f9bc 7273 86be 0be9 8e3d
-0.006087757 -0.0047915205 0.0847729 0.15474096 0.22100285 0.07979815 0.10061701 -0.1769597
-0.065860786 0.14909714 -0.058574367 -0.14781179 0.03676725 -0.04108447 -0.17359143 -0.12526548
0.08428331 0.15717016 0.33623213 0.009147351 -0.056099366 -0.27289388 -0.05166995 -0.00045850602
-0.28136966 0.07723186 0.015713409 -0.33523455 0.19728005 0.045468703 -0.1566802 0.04515179
0.24963999 0.6035435 -0.15307507 0.2853904 0.45081374 -0.047550283 0.45749432 0.31974122
-0.12071221 -0.56123704 -0.31998777 -0.031015381 0.29742166 0.16392265 -0.31722057 0.25962734
-0.23131222 -0.087197855 -0.18843007 0.06231993 0.24134831 0.059755776 0.30615667 -0.5160152
0.19668569 0.026324324 0.33223036 -0.008718426 0.31675103 -0.12956716 0.08298685 -0.16736433
-0.32820112 0.086051986 -0.49792364 -0.04093947 0.28298515 0.42278996 0.25492737 -0.36255372
0.07581967 0.1603811 0.07350499 0.3545518 0.5165619 -0.4526387 0.2843291 0.32514346
-0.13338311 -0.024914345 0.02039185 0.2442177 -0.26732177 0.28492978 -0.23744148 0.45185047
-0.34886968 0.053478684 -0.44715956 0.22936341 -0.025778884 -0.110221215 -0.020821508 0.4118972
-0.117968336 -0.038833484 0.017713774 0.04597197 0.17327343 0.15687874 0.039577965 -0.14880635
-0.17663375 0.046359107 -0.22761914 -0.30415165 0.32238176 -0.056823425 -0.18028198 0.07545957
-0.28401557 -0.11120565 0.1664151 0.090031125 0.9618215 -0.07857418 0.44004545 -0.3056637
-0.09575701 0.11374263 0.106862485 -0.36592913 0.2651643 0.02615552 0.0035796235 -0.18696786
0.004086774 0.020574933 0.029620014 0.19041894 0.21934526 0.165332 0.0935708 -0.06176296
-0.10140062 -0.027814997 -0.06345748 0.13510393 0.098965906 -0.037355643 -0.115580566 0.03961668
-0.1306751 0.024185354 0.2247797 0.14046784 -0.037065182 -0.086326435 -0.0065340474 -0.099561885
-0.09651542 0.21882275 -0.11431676 -0.15782923 0.13397461 0.08402288 -0.20803648 -0.083593674
-0.03566107 -0.16865912 0.034096077 0.19861518 -0.098790444 0.11288478 -0.19654106 -0.088851914
-0.18968195 0.052824344 -0.08329265 -0.22735767 0.0982136 -0.0481629 -0.25348392 -0.18779156
-0.07316236 0.07222959 0.056504823 0.009756014 -0.014944786 0.13280122 0.06028238 0.15935846
-0.1812529 -0.05165744 0.00054014596 -0.026296914 0.14794162 -0.11390449 0.013764398 -0.13300213
0.55809945 -0.13711032 0.6636746 -0.1069325 -0.54948556 -0.4562926 -0.7475825 0.3270714
-0.053187903 -0.033801302 -0.2973679 -0.52287453 -0.5059788 0.46188363 -0.66430014 -0.5817723
0.22222209 -0.8316322 -0.26896784 0.709133 -0.30587587 0.38957062 -0.3981066 0.16703962
-0.51060987 0.033149097 -0.7848593 0.25038576 -0.3127895 0.04646401 -0.33285713 -0.124481596
-0.16801363 0.029903477 0.34239292 0.08678581 0.050604053 0.13523884 -0.30466196 -0.04842494
-0.07250336 0.25138447 -0.031583045 -0.080529965 0.2155037 -0.10596353 -0.24072924 0.08541979
0.2515018 -0.08855426 -0.017228387 0.17484464 -0.2891015 -0.0056533786 -0.048287794 0.099170804
-0.34286377 -0.11947506 -0.6061762 -0.049396314 -0.1767827 -0.030396089 -0.26259953 0.06978043

gru.weight_hh_l0 f4 [192, 64]
00000000: 255f 0e3b 6195 4ebe 3183 b7be 79b4 cbbd
00000010: 9d27 15bf 58c5 023e 7bfb 80bd 0992 4fbe
00000020: 6550 3e3d 0469 3b3e 4a34 07be a13e 9e3e
00000030: c3bf 1f3e eaaf babd d795 eebd 729e bfbd
00000040: c268 da3e e0d6 f4bc 66f2 2b3e 21e6 80be
00000050: b601 4dbe 5568 38be 5b56 a33d c863 253e
00000060: 4089 fdbd a00d 693e 1bba babe 10fb 62be
00000070: 15e6 433e 88b0 243e 3dd1 0e3e 7e76 eb3d
00000080: 94ca 183e 0070 98bd 5f3b 6dbc d37a 543e
00000090: 6a0c 0bbf 0bc9 a3bd 078b b83e c0d2 81be
000000a0: fb47 3dbf f3a1 c6bd 091e af3e 2196 47bf
000000b0: 9534 18be 18e9 6abd 0713 123d 564a fd3e
000000c0: 8e89 fa3c badf 0dbe 22b5 033d e360 18bf
000000d0: 04f0 2f3e d3cc 86be 9f20 0ebd 4733 823d
000000e0: 753f 683d 036e 8abd 7fe9 babe e1f1 cb3e
000000f0: e7e9 ddbe 3876 41be 5569 8a3d 1bf7 0bbf
00000100: bfcf 803e 0666 8abd 3c4f 393c a2da 6bbd
00000110: 868b 97be f23c c93c 390b 803d c407 503d
00000120: 548b aebe 22a1 c83d 53bb 3f3e f950 9a3e
00000130: 40c1 89bd b03e 51be d997 fa3c 33f4 0b3d
00000140: 47eb 463f 7ebc b4be c24b 803d 38b0 4bbe
00000150: 332c 90be f6cd 5cbe b2c3 94be da99 ac3d
00000160: d4dd dc3d 7f29 b73d 6538 2dbf a12f f0be
00000170: dda6 113e cb88 cbbd f50a 413f 504b a6bd
00000180: efc7 2d3e b252 11be 7e76 923e b418 8e3e
00000190: 13c8 b43d 73a8 09be e275 393f a1a6 a9bd
000001a0: 2f8f b63d a4af 66bd 921f 323f 5fc8 25bf
000001b0: a327 d13e 116b 113e d829 313e ab1f 7e3e
000001c0: 4f7b 363c 6862 31be 03c9 9abe e43c 5abd
000001d0: e5b8 423e 55d6 aabd 34a3 1bbe 7676 a6bc
000001e0: 70e2 a23d bd7f 523e f698 33bf e77f 6b3e
000001f0: cb14 b9be 6a94 9abc 8581 123d cd14 5d3e
00000200: 8488 e23d d041 b1bd 2032 e1be 55a4 3fbd
00000210: 01df 4bbd 0565 153d a831 83be 12d4 0c3e
00000220: d6d9 b93d cc32 813e 38a8 a7be 6e0a 723e
00000230: 6d20 b33d 3951 8f3d 3c22 12be a8ec 633e
00000240: 2227 013f a760 173e 23cc 41bc 271f 2bbc
00000250: 8e7b 3fbc 2e29 41be 3943 49bd 37cb b53d
00000260: 1f0a bcbd 08ef a53d b7f3 9cbe 999d 003e
00000270: 607a a4be 6fc3 dd3d f739 ba3e 862a 913e
00000280: eb67 73be db94 6fbe 1c96 453e 8fca 073e
00000290: 00ed 91be 0235 97be 7c31 933c 1b70 3cbe
000002a0: cc68 1cbf 5e4e b6bd 97af a83e 89df e7be
000002b0: 26e0 6cbd b34c 1bbd 5ddd 6fbe 4570 6b3d
000002c0: 4b3e 193e 07d7 19be 42f9 9a3e ad1c fdbc
000002d0: 58f1 08be 0740 0fbe 8d93 12be 559e 3bbe
000002e0: b60f 873e c664 593e 86a0 acbe cf41 113d
000002f0: 58f2 273e 7227 8abe 050a 323d 192c 94be
00000300: f0c9 83be ea3b 8dbd 4bf5 893e 7bab 7cbd
00000310: d0a1 713e 391a bbbe 60c0 27bd b56d 6abe
00000320: d4ad c3be a299 83bd c665 0bbf 7818 07be
00000330: e602 9bbc 54f0 e5be f57a 7cbc 1d9f d5bd
00000340: 377e 85be 0927 06bf d6e5 85be 4a5f 373e
00000350: 6359 4b3e bea9 8e3d c9ad bcbe 4b3e 3a3e
00000360: abea 273e 4276 22be f579 67bd 95f4 a3be
00000370: f158 393b b353 55bd 3323 8ebd 0c43 473d
00000380: 229a 1d3e 1d7e ec3e 2189 dabd 5245 d03d
00000390: eccc 40be c35c a33e 201c 823e 1a6f 3cbe
000003a0: db65 ba3e dea5 543e 6afa c93e 2889 423e
000003b0: 334d 50be 2a17 12be f281 8c3d cc96 5a3d
000003c0: c754 54be d671 54bd 2414 fcbd 724a 4d3e
000003d0: 2901 3d3e 592c 173c 24ed 043d e650 0c3e
000003e0: 1f58 42be 0c40 babe 66bc 823e 1b6b 1ebe
000003f0: 5669 8cbd ccfd 203d f2e3 02be c906 db3e
0.002172419 -0.20174171 -0.3584228 -0.09946532 -0.5826357 0.12770593 -0.06297966 -0.20270552
0.04646339 0.18301779 -0.1320354 0.30907157 0.15600495 -0.09115584 -0.116496734 -0.09356393
0.4265805 -0.029887617 0.16791686 -0.25175574 -0.20020184 -0.1800855 0.079754554 0.16151345
-0.12379694 0.22759104 -0.36470112 -0.22166085 0.19130738 0.16082966 0.13947006 0.1149721
0.14921027 -0.07443237 -0.014479487 0.20749979 -0.5431582 -0.0799733 0.3604357 -0.25356102
-0.7393796 -0.09698858 0.34202603 -0.77963454 -0.14863808 -0.0573512 0.035662677 0.49470776
0.03058317 -0.13854876 0.032155164 -0.5952284 0.17181402 -0.26328143 -0.03469908 0.063574366
0.056701142 -0.06759264 -0.36506268 0.39832976 -0.43342516 -0.18892753 0.06758372 -0.5467393
0.25158498 -0.06757741 0.011310395 -0.05758155 -0.29598635 0.024565194 0.062521406 0.050788656
-0.34090674 0.09796359 0.18723802 0.30139902 -0.06726313 -0.2043407 0.030589985 0.034168433
0.77702755 -0.35300058 0.0626445 -0.19891441 -0.2815872 -0.21562943 -0.29055554 0.08427782
0.10784498 0.089434616 -0.67664176 -0.46911338 0.1422381 -0.099382006 0.75407344 -0.081198335
0.169708 -0.14191702 0.28606027 0.27753222 0.08827224 -0.13443165 0.724455 -0.08283735
0.08914029 -0.056319848 0.6957942 -0.6475887 0.40850553 0.14200999 0.17301118 0.24816768
0.0111377975 -0.17322695 -0.30231485 -0.053280726 0.19015844 -0.08341662 -0.15198976 -0.020320158
0.07953346 0.20556541 -0.70155275 0.2299801 -0.36148676 -0.018869597 0.03576805 0.21589966
0.110611945 -0.08655131 -0.43983555 -0.04678758 -0.04977322 0.036473293 -0.25623822 0.13752773
0.09074752 0.25234067 -0.32745528 0.23636791 0.08746419 0.06997914 -0.14270872 0.22258246
0.50450337 0.14782964 -0.011828455 -0.010444439 -0.011687173 -0.18863365 -0.049136374 0.08876651
-0.09181618 0.08102232 -0.3065469 0.12560119 -0.32124615 0.108282916 0.3637235 0.28352755
-0.2377011 -0.23396628 0.19295543 0.13260864 -0.2850113 -0.2953263 0.017967932 -0.1840214
-0.6109741 -0.08901666 0.32946464 -0.4528773 -0.057830952 -0.037914943 -0.23424287 0.057480115
0.14965169 -0.15023433 0.30268294 -0.030897463 -0.13373315 -0.13989268 -0.14314099 -0.18322118
0.26379174 0.21229848 -0.3371622 0.03546315 0.1640104 -0.2698322 0.043466587 -0.28939894
-0.25740004 -0.06896193 0.26944956 -0.061686974 0.23596883 -0.36543444 -0.040954947 -0.22893412
-0.38218558 -0.064257875 -0.5445217 -0.13192928 -0.01892228 -0.44909918 -0.015410175 -0.10430739
-0.26072857 -0.5240331 -0.26151913 0.17907444 0.19858317 0.069659695 -0.36851338 0.18187825
0.16398112 -0.15865424 -0.05651279 -0.3202254 0.0028281773 -0.052081775 -0.069403075 0.048647925
0.15390828 0.46189967 -0.106706865 0.10169472 -0.18828171 0.3190671 0.25412083 -0.18401757
0.36405835 0.20766398 0.39448863 0.18997633 -0.20341949 -0.14266649 0.068607226 0.053366467
-0.20735465 -0.051866375 -0.12308529 0.2004793 0.18457474 0.009226882 0.032452717 0.13702735
-0.18978928 -0.3637699 0.25534362 -0.15470545 -0.06856029 0.03930454 -0.12782267 0.42778614

gru.bias_ih_l0 f4 [192]
00000000: 645e 753e 1e4f 9e3e be9b 803d 1eb2 513e
00000010: 18d8 1d3e 8390 aa3d c0b1 163e 34e5 673e
00000020: acc4 8d3e bcef 233e 90b9 303e c92e ec3b
00000030: 5ea2 17be c86c 983d d9c0 2a3e 263d 903d
00000040: eddb 883e 9db3 f9bd 848a 463c 1693 8f3e
00000050: b87d 8a3e ff1d 6d3e 7c9d 5a3e d517 eb3e
00000060: 654c e93d 27dd a63e 27fb ecbc efc9 893e
00000070: 3e34 99be 0c92 8ebd cdfa c8bd 0230 353e
00000080: d0f6 123e c862 003c 7a89 26be 4199 fbbd
00000090: 6efa a7be 277d 6e3e 28e4 a9bd 7ae0 623d
000000a0: a4c0 283e 806b 833e e350 00bc e01a ea3d
000000b0: 912c 883d 9193 aebd fa3b 233d 5a53 aa3e
000000c0: 9e8a d93c 7ab2 113d 435d b83d acb3 5dbe
000000d0: e4e7 bb3d 09b2 2e3e 6f9b 273d 467c 2d3e
000000e0: e557 cebd 3602 813e 71d6 c73d cdd1 423b
000000f0: 644f f73d 32ce a53e d322 883e 629f 433e
00000100: b533 24bf a328 61be 4944 bcbe 7a78 f9bd
00000110: e4d2 eabe 8c1a 65be 4a24 7e3c b950 1abf
00000120: 63d3 27be 8b70 b4be 1f00 c5bd 34bf 64be
00000130: b182 3ebe b428 00bd 3735 fcbe 2bb8 40bd
00000140: 9ea3 31be 1602 61be d98c bcbe 4a12 73be
00000150: aac7 35bf a784 27bc 04cc 1fbe 4d5e d9be
00000160: 86ac 93be 7da7 a4be b344 bcbe 8925 1bbf
00000170: a7ff a23d d75b 493e 2dcb ebbe b986 99be
00000180: d5ca 00bf a603 fdbe 1285 2bbe f40f 0abe
00000190: 00fb 143e cf9a 05bf 0c20 01be 15fe 91be
000001a0: 5129 c4be 1f70 03bf 28e1 93be 7411 a9bc
000001b0: 1794 c5be 7c8a 90be 1557 15be 71db 37be
000001c0: db71 06bf acb5 f7be 0038 0fbf 93f7 4fbe
000001d0: 8560 ccbe bc59 2f3d 4357 943e 5180 003c
000001e0: 9955 4dbe 9c8e 6e3d c25a debe 1a3c b5be
000001f0: 7f35 a9be b53b 79be ba8c b3be c64f d8bd
00000200: fbc1 593e 074c 90bd e73f 83bd 52aa ba3c
00000210: aee0 1dbe 3fa3 afbc 27a5 12be 4e28 393e
00000220: ccc6 5ebd ae5f 093e 85a3 05bd 85ba 083e
00000230: 3871 ffbd 6a71 5dbd 93d8 ec3c 3253 883d
00000240: e803 993e 27c4 e03d 6e6b 003e d647 4fbe
00000250: 26eb c83b 039c 28be 5912 9e3d c416 963c
00000260: e261 f2bc 2303 5e3d 1d44 9fbe c6f0 97be
00000270: 9d40 d03c 5482 053e 428a 553e f882 09be
00000280: 218a 82bc aa23 6ebd 05f6 0d3d 73ac 85be
00000290: a4b6 8cbe 804b 43be 9500 073d 556a 97bc
000002a0: 6914 4cbd fdb1 f73c fa05 3c3e c480 51be
000002b0: 0d00 c73c f500 f0bc 7e51 cebd 3b4e bf3d
000002c0: 017b 27be 168a d2bd 93dd 5dbc b9dc 573e
000002d0: c074 45bd 4e6e 89be 1396 94be 75a9 16be
000002e0: 3c46 2bbe 57c1 3cbe d3b9 d5be 364c 8d3d
000002f0: 369d aabe 6d5a 02be 0c68 c03e 1ba3 8fbe
0.23961788 0.30919737 0.062797055 0.20478103 0.15414464 0.08328345 0.14716244 0.22646028
0.2768911 0.1600942 0.17258286 0.0072077257 -0.14808032 0.074426234 0.16675128 0.07042913
0.2673029 -0.12192462 0.012117986 0.28041905 0.2704904 0.23155974 0.21349138 0.4591662
0.11391524 0.325906 -0.028928353 0.26911876 -0.2992267 -0.0696145 -0.098134615 0.17694095
0.14351964 0.007836051 -0.1626338 -0.1228509 -0.3280825 0.2328993 -0.082954705 0.05538986
0.16479737 0.25667953 -0.007831785 0.11430907 0.06649125 -0.0852424 0.03985212 0.33266717
0.026555356 0.0355706 0.09002163 -0.2165057 0.09175089 0.17060103 0.040919717 0.16941938
-0.10075358 0.25197 0.09757698 0.0029727102 0.120756894 0.32383877 0.2658907 0.19103768
-0.641414 -0.21988158 -0.36770847 -0.12181182 -0.45864022 -0.22373408 0.015511582 -0.60279423
-0.16389231 -0.35242113 -0.09619164 -0.22338563 -0.18604542 -0.031288818 -0.4925935 -0.047050636
-0.17347571 -0.21973452 -0.36826208 -0.23737445 -0.7100779 -0.010224498 -0.1560517 -0.42454758
-0.28842562 -0.32159033 -0.36771163 -0.6060415 0.07958918 0.1966394 -0.46053448 -0.29985598
-0.503095 -0.49416846 -0.16749981 -0.13482648 0.14548874 -0.52189344 -0.12609881 -0.28514162
-0.38312772 -0.5134296 -0.28882718 -0.020638205 -0.38589546 -0.28230655 -0.14584 -0.17954804
-0.5251748 -0.48380792 -0.55944824 -0.20309286 -0.3991739 0.042810187 0.28972825 0.007843093
-0.20052184 0.05824147 -0.43428618 -0.35397416 -0.33048627 -0.24339183 -0.35068303 -0.105620906
0.21265404 -0.07045751 -0.06408673 0.022786293 -0.1541774 -0.021440146 -0.14320813 0.18081781
-0.054388806 0.13415405 -0.032626648 0.13352402 -0.12472767 -0.05406324 0.028911864 0.06656493
0.29885793 0.10974913 0.12540981 -0.20242247 0.0061315475 -0.16465764 0.07718343 0.018321402
-0.02958769 0.05420221 -0.31106654 -0.29675883 0.025421435 0.13037997 0.20853522 -0.13428867
-0.015935006 -0.05813948 0.03465845 -0.2610813 -0.27483094 -0.1907177 0.03295954 -0.01848332
-0.049824152 0.030236239 0.18361655 -0.20459276 0.024292016 -0.029297331 -0.10074137 0.09341093
-0.16355516 -0.10280244 -0.013541597 0.21080293 -0.048207045 -0.26841968 -0.29020748 -0.1471308
-0.16726011 -0.18433128 -0.41743335 0.06899302 -0.33323067 -0.12729807 0.3757938 -0.28054127

gru.bias_hh_l0 f4 [192]
00000000: 6245 5e3e df51 b43e f284 ad3d 0143 e9bb
00000010: 0f77 c83d a933 233e f9e2 013e 67fe 483e
00000020: 8456 943e b426 023e 6b78 9a3e 3b94 0b3e
00000030: 2d53 dcbd 4335 8e3c 981a 8c3e a742 f63b
00000040: 75d0 093e ad62 dbbd b6ba 1f3e d30f b63e
00000050: 7306 8e3e 49a9 663e b4f9 8e3e 5613 963e
00000060: 49fd 263e a535 693e ec2c 123d 55b4 933e
00000070: ffa7 9fbe 322b 133c 9351 b9bd 3f82 ac3d
00000080: d433 333d 53e2 103d 926c 9dbd 366d 2dbe
00000090: ead5 5cbe f6e4 b13e fc36 07bd 6204 293e
000000a0: c2f5 0b3e 5148 f73d ce9b 093e d335 f23d
000000b0: fa4c 203e 0f99 4dbe 14f5 193e 61a2 a93e
000000c0: 8259 3f3d e8e7 a7bd b1a2 d33d 2bc2 2bbe
000000d0: 8803 df3d a1b9 363e e15c 153e e271 253e
000000e0: 3f8b ddbd 8e8f 573e 2d95 11bb 9e4b 033e
000000f0: f3e9 c33d b4a4 933e 7d48 e83d 06c2 643e
00000100: c31f e6be 1309 c2bd a900 d0be 0ea0 90bd
00000110: 1448 d2be 1f9f 6fbe e971 f43d 9e95 29bf
00000120: 51b9 49be c094 b8be 8368 ecbd 64b8 b8be
00000130: df83 00be e48a c6bb 9b13 ddbe ff21 653b
00000140: 5dd9 7ebe 6701 30be 22bf e8be 6308 3dbe
00000150: 3ea4 04bf fd11 193d 78d4 13be 43e5 09bf
00000160: 0d58 93be b057 94be 8c6b 9abe d516 14bf
00000170: e222 0ebc 6145 283e 125f fcbe c847 afbd
00000180: 9629 23bf e229 9bbe 9ed9 873d 892c 3cbe
00000190: 0463 893d 82ed 2cbf 9143 1abe 5f99 a0be
000001a0: e7e0 92be e599 b1be f00b 46be 7340 9ebd
000001b0: 902a e3be 8437 8fbe 7675 18be 1250 87be
000001c0: 7276 f1be e90f cbbe db87 e0be ea79 3cbe
000001d0: ba18 03bf 319e f5bb 8906 8d3e 63d6 513d
000001e0: e3ba 5fbe 9e7e 0dbd 31ad 70be 830b a4be
000001f0: 6369 36be 6198 91be 20f2 91be c049 a4be
00000200: afcd 813e f66a 5abe c92d 5abe 1198 68be
00000210: be3a 87be 5f64 bebd 8cdc 74be 9a0c ee3c
00000220: bc22 873d 3f3f 393e 8802 34be f3c6 df3b
00000230: f0d1 65be 8c5f 5cbc 3f1a f9bd c430 1e3e
00000240: 6615 733e 6dad 463e 89af 4c3e 36ae 99be
00000250: b686 303c 169f 57bc 1928 483e 9290 8c3d
00000260: 4884 64be 66cd ff3c f5f6 c0bd 51b6 bcbe
00000270: cca8 c53c f548 e73d 4414 5e3e eb62 8abe
00000280: 7b67 3c3e 66e9 f0bd 534b 083e 0f05 5cbe
00000290: 8e27 e9bd 672a cfbe 55d0 383e 8d31 97be
000002a0: 29d3 1fbe dec8 2fbe 69f9 433e ebae 5bbe
000002b0: b7fa 943e ae58 3bbe 681c 6f3d ab45 d93d
000002c0: 283c b33d ccf6 acbd 27d0 153e 8b38 d03d
000002d0: 7ab6 003d 7f20 1bbe 4321 30be 1b4e 4dbe
000002e0: 84ae 073e 3aab 05be c6f0 60be 3fd1 943d
000002f0: 616a 9fbe 1e69 23be 837e 313e 7da7 afbe
0.21706155 0.35218713 0.08472623 -0.007118583 0.097883336 0.15937676 0.1268424 0.19628297
0.28972256 0.12710077 0.30169997 0.13630764 -0.10758052 0.017359382 0.2736404 0.00751527
0.13458426 -0.1071218 0.15598568 0.35558948 0.27739295 0.22525515 0.27924883 0.29311627
0.16307558 0.2277437 0.035687372 0.2884852 -0.31182858 0.0089824665 -0.09048762 0.0842328
0.0437506 0.03537209 -0.07686724 -0.16936192 -0.21565977 0.34744996 -0.03301142 0.16505578
0.13667968 0.1207434 0.13438341 0.118266724 0.15654364 -0.20077918 0.15034896 0.33131698
0.04671622 -0.081985295 0.10333765 -0.16773288 0.108893454 0.1784425 0.14586212 0.16156724
-0.10817575 0.21050856 -0.002221416 0.12821814 0.09566107 0.28836596 0.11341951 0.22339639
-0.44946107 -0.09474387 -0.40625504 -0.07061778 -0.41070616 -0.23400544 0.11935789 -0.6624392
-0.19699599 -0.36050987 -0.115433715 -0.3607818 -0.12550305 -0.0060590375 -0.4317902 0.003496289
-0.24887605 -0.17188035 -0.45458323 -0.1846023 -0.51813114 0.03737067 -0.14436519 -0.5386545
-0.28778115 -0.2897315 -0.30160177 -0.5784734 -0.008675309 0.16432716 -0.49291283 -0.08558613
-0.6373533 -0.30305392 0.06633304 -0.18376364 0.06708339 -0.6754991 -0.15064837 -0.31367013
-0.28687212 -0.34687725 -0.19340491 -0.077271365 -0.4436841 -0.27972043 -0.14888558 -0.26428276
-0.4716068 -0.39660576 -0.4385365 -0.18405882 -0.51209605 -0.0074956645 0.27544048 0.051229846
-0.21848635 -0.03454458 -0.23503567 -0.32040033 -0.1781364 -0.28436568 -0.2850504 -0.32087517
0.25352237 -0.21329865 -0.21306528 -0.22714259 -0.26412004 -0.09296488 -0.23912257 0.029058743
0.06598422 0.18090533 -0.1757909 0.0068291365 -0.22443366 -0.0134505145 -0.12163209 0.1544829
0.23738632 0.19402094 0.19988836 -0.30015725 0.010774305 -0.013160488 0.19546546 0.06863512
-0.22316086 0.031225871 -0.09422103 -0.36857846 0.02412834 0.11293212 0.21687418 -0.27028593
0.1839885 -0.11763267 0.13309984 -0.21486305 -0.113844976 -0.40462038 0.18048222 -0.29529992
-0.15607895 -0.17166469 0.19138111 -0.21453445 0.2909753 -0.18295547 0.0583767 0.10608991
0.08751708 -0.0844551 0.14630185 0.10167035 0.031424023 -0.15149115 -0.17200188 -0.20049326
0.13250166 -0.13053599 -0.21966848 0.07266473 -0.31135848 -0.15958068 0.17333417 -0.3430747

gru2out.weight f4 [6, 64]
00000000: 6f1e d8bd 8ebf a53e cfc1 923e f160 ae3e
00000010: 77e3 623e bb05 13bc 91db 053f f2cb 32bf
00000020: 0d90 32be 6a89 34bf d7ce 85bd 3785 adbd
00000030: 97fc c9be 6ce8 df3b 1e0d 3d3f e98e e0bd
00000040: 299d 6dbd 482c ccbe 9c18 c0be 201f 343e
00000050: cfa2 5c3e 5a36 063f 533f 7dbe b947 40bf
00000060: d306 e33e 1141 acbe aa1d 8bbe 5869 95be
00000070: 6cdc 8dbd 1ae9 9ebd a17c f8be 035e 0d3d
00000080: f68f 3e3e cfe4 813e 7c95 08bf 5afe 95bc
00000090: efcd 073a 5c73 033d 7753 893d d5c0 08be
000000a0: 9859 803e aee0 2e3f 9dd4 923e f7f9 273f
000000b0: f553 063f c230 67be 3079 243f df35 80bd
000000c0: b147 2abf bd66 f13e 2c4a 4fbf be5f a23e
000000d0: 2d85 853e ae31 e63e 32e5 5b3e b5c1 a33e
000000e0: ec8e 04be bef9 9bbd 0826 b13d c03b 8cbe
000000f0: 40cf 673e 9168 ef3d 0efc 8cbc 98dd 02be
00000100: d32c c2be 8d83 be3e f7ce 9b3c 8e73 1c3e
00000110: ecfd 5d3e 141c cebd 34e3 d83e 02a7 7fbe
00000120: ca3b 363e 50cc 95be a877 b33e c015 40be
00000130: 69d8 cbbd 1f59 983d da69 863e 2661 3abe
00000140: 60af 44be 665f a2be 4e42 97be 448a a23e
00000150: e2bf 623e bf98 f43e fa30 3abd 8f4a 1f3d
00000160: 642c 293e a808 3abe cf42 723d 8ab1 4d3f
00000170: d6e3 07be b57a 8ebe 6250 55bc 45af da3e
00000180: 2fe5 20be 05c3 5d3d 82fa f7bd 9df6 d8b9
00000190: 0368 bc3e dba0 ad3d 5dd4 70be b547 633e
000001a0: 655d e6ba f4bb e73e 23c4 79be 0aa2 aa3e
000001b0: 99dc 13bd e411 bebc fe32 9b3e 1d37 bbbe
000001c0: 9933 72be 8b75 823e 2a81 e0be ed17 383b
000001d0: 545a e9bd 315a 9d3e 3c3f 743e 925a 1c3d
000001e0: 0939 2abe 432c 1bbe 63d3 883e be34 68be
000001f0: c4fb 3d3e 2b39 533e dee7 c0bd 6466 0dbe
00000200: 343e 2a3e dc5a 2bbe 15f9 bbbe 02db 0abe
00000210: 5042 c93e e787 953c 6776 90bd cac7 ce3d
00000220: 4835 723e 6050 093e d739 62bd dea2 ca3c
00000230: 4264 fc3d ee59 323d 242d 0ebe 47d8 633e
00000240: 759a 1e3d 50d0 1cbd a322 7a3e 0c59 60be
00000250: 7d88 6cbe 8fea 48be 2d1b b5be 478b 453b
00000260: 5c54 b53e 8bfb 573d b792 bf3e 3faa 5c3f
00000270: c22f 4bbd 27c0 203e 4005 403e 25e4 9cbe
00000280: 189c ca3e bea5 1fbe bdbf f03d 7dc3 113e
00000290: 987d 39be c254 bfbd d2a4 083c 0ed5 92bb
000002a0: 3edd adbe 07a4 d5bd 2a61 39bc dc3c 1bbd
000002b0: 1b17 14bd 76f5 de3d 9306 0cbe dd3a 1a3e
000002c0: ac80 623d d646 47be d5be 8b3e fcd9 dfbd
000002d0: 25dd 26be e8eb 09be e1ab e8bd c90b f5bd
000002e0: cfe5 e93d 74e4 703e 4aea ae3e 6e11 413e
000002f0: 506c bf3e f5a0 7bbe 55e7 b83e b211 ec3e
00000300: ac37 e43d e2bb d23d 4fe3 3c3e dcc1 b2bd
00000310: ffb8 83be e359 4e3c 80f0 b3bd fda5 863e
00000320: 36f1 59bd 51ad e53c 18bf 3bbe aceb f3bd
00000330: b893 f8bc 3fc4 97bd 371c bdbc ca85 e53d
00000340: 2fe3 d0bc e96d 4a3e a7b0 c53e 65bd 09be
00000350: fc0d 35be 7346 eabc bc10 e23d dde5 a83c
00000360: 1d9f 8abe 99b7 63bd dfea b13d dc34 90be
00000370: 5ace 943c 5b36 933d 7277 823e 4dfa 6fbe
00000380: 856a dd3d f646 25be ab5f 533d 32cb 8cbc
00000390: 68d0 8d3e 1ea9 ed3c 5c84 b03d 02ea 6b3e
000003a0: 0b91 7c3e 09a8 26bd e892 593d 0540 8f3e
000003b0: 958a 8f3d fc44 0d3e d5f9 b23d 8047 393d
000003c0: ffef 853c dd70 febd dc1e 6dbe 8442 a5bb
000003d0: ad22 1fbe 2d2b 6fbd 35e2 1abe 2c1d c7bd
000003e0: 3c66 56bc 7457 a6be 77a6 0ebe ba2d e53b
000003f0: 15d9 69be ca3f dd3e 4157 5abe ac7d 30be
-0.1055268 0.32372707 0.2866349 0.34058335 0.22157083 -0.008973534 0.52288157 -0.69842446
-0.17437764 -0.7052218 -0.06533592 -0.08472674 -0.39450523 0.006833127 0.7384814 -0.10964758
-0.058011208 -0.39877534 -0.37518775 0.17589998 0.21546482 0.52426684 -0.24731188 -0.7510944
0.44341144 -0.33643392 -0.2717107 -0.29181933 -0.06926808 -0.07759304 -0.48532584 0.034513485
0.18609604 0.2536988 -0.53353095 -0.01830976 0.0005180528 0.032092437 0.06705373 -0.1335481
0.25068355 0.68311584 0.28677836 0.6561579 0.5247186 -0.22577193 0.6424742 -0.06260275
-0.6651564 0.47148696 -0.8097255 0.3171367 0.26078168 0.44959778 0.2147415 0.31983724
-0.12945145 -0.07615994 0.08649832 -0.27389336 0.22637653 0.11689866 -0.017210033 -0.12779844
-0.37924823 0.3720974 0.019019587 0.15278456 0.21678895 -0.10063949 0.42360842 -0.24966052
0.17796245 -0.2925744 0.35052228 -0.18758297 -0.09953386 0.074388735 0.26252633 -0.18201122
-0.19207525 -0.31713408 -0.29542774 0.31746113 0.2214351 0.47772786 -0.045456864 0.038889464
0.1652084 -0.18167365 0.059145745 0.8034903 -0.13270506 -0.27827993 -0.013019653 0.42711845
-0.15712427 0.054141063 -0.121083274 -0.00041382472 0.36798105 0.08477946 -0.2351851 0.22195323
-0.0017575441 0.45260584 -0.24391226 0.3332675 -0.03609905 -0.02320189 0.3031234 -0.36565486
-0.23652495 0.25480303 -0.43848544 0.0028090433 -0.11394182 0.30732873 0.23852247 0.038172312
-0.1662332 -0.15153603 0.26723775 -0.2267637 0.18553072 0.20627277 -0.09419225 -0.1380859
0.16625291 -0.16733879 -0.36713472 -0.13560107 0.39308405 0.01825328 -0.070538335 0.100967005
0.23653138 0.13409567 -0.05523094 0.024735864 0.1232381 0.043542795 -0.13884407 0.22250472
0.03872152 -0.0382846 0.24427275 -0.21908969 -0.23098941 -0.19620727 -0.35372296 0.003014283
0.35415924 0.052730124 0.37416622 0.86197275 -0.049606092 0.156983 0.18752003 -0.3064281
0.39572215 -0.1559057 0.11755321 0.14234729 -0.18114316 -0.09342338 0.0083400775 -0.0044809645
-0.33957857 -0.10431676 -0.01131467 -0.037899837 -0.036154848 0.10886662 -0.13674383 0.15061517
0.055298492 -0.19460616 0.2729403 -0.10930249 -0.16295297 -0.13468897 -0.11360908 -0.119651385
0.11420786 0.23524648 0.34163123 0.18854305 0.37387323 -0.24573119 0.36113992 0.4610725
0.11143431 0.10289742 0.18446086 -0.08728382 -0.25727078 0.012594673 -0.08786106 0.26298514
-0.053208552 0.028036745 -0.18334615 -0.11910185 -0.030343875 -0.07410478 -0.023084743 0.11207159
-0.025498955 0.1976849 0.38611338 -0.13451155 -0.17681116 -0.028598046 0.11038348 0.02061742
-0.2707452 -0.055595014 0.08687376 -0.28165329 0.018164802 0.07188102 0.25481755 -0.23435326
0.108113326 -0.1614035 0.051604908 -0.017186735 0.27698064 0.029011305 0.086189955 0.23038486
0.24664705 -0.040687595 0.053118616 0.2797853 0.07008854 0.13795847 0.08739058 0.045234203
0.01634979 -0.12423871 -0.23156303 -0.0050433297 -0.15540572 -0.058390785 -0.15125354 -0.09722361
-0.013085898 -0.32488596 -0.13930689 0.0069939764 -0.22836716 0.4321273 -0.21322347 -0.1723544

gru2out.bias f4 [6]
00000000: 0d1e f0bd b261 83be c1ce cd3d b7d2 7b3d
00000010: f4fa 5fbd ee71 4c3e
-0.11724482 -0.25660473 0.10049201 0.06148025 -0.054682687 0.19965336
