try1_simDataset1/30bp_SingleConserved_s0_UnifBG_fullytrainedDisc.pth (torch, 495413 bytes, 20 tensors)

embeddings.weight f4 [6, 16]
00000000: 0152 0fbd a429 89bf 12ed 563f 7de2 813f
00000010: f51e 23bf 334b 11bf ae4c 1740 7d76 fbbd
00000020: 3cff fd3f ebcf 96bd 3e58 e03f c5c1 e2be
00000030: 46c6 753e c8d6 4d3e ce80 e9bf b625 81bf
00000040: fcb6 14bf 09e6 983e b63a ce3f a130 87bf
00000050: 7de4 623d 5c1d 8abf 8b7a 24bf 3db7 0e3f
00000060: fad4 16be 03d4 87bf 1ebf 2ebe 6799 9c3f
00000070: 2606 8b3f b25f 8a3e aba7 1940 fe2e 51bf
00000080: e670 febd 370c f7be 9a67 5b3f d6b5 c03e
00000090: aae7 e7bd ec1d 3bbe 6876 293e 3398 e33f
000000a0: d896 f03d 9073 79bf 35ea 3dbf e2a0 c2bc
000000b0: d225 b33f 13c9 d9bf 2b13 8ebe bc59 993e
000000c0: a660 093f 5fe0 86bf 2cbf 5b3e 42ad ce3e
000000d0: 0357 2ebf e11a e93f f926 833f d4b4 a33c
000000e0: 8201 81bd 0e1c b03f cf7f 933f 091a 6a3e
000000f0: 2a74 ce3f 09c5 533e 17fc fcbf 0f32 29bf
00000100: 0647 b33f 42c7 4fbf 5698 6c3f 6945 bcbe
00000110: 8a0b 3cbf 6f0d ce3e 5d26 76bf e130 0ac0
00000120: 0118 c63e fc6c c93b 4b23 b6bf d17b bc3f
00000130: adfe 1c3f 5cfd 0040 9f26 a83f 8369 393f
00000140: f1a7 4dbf 8422 afbf 18db 553f 958c 69bf
00000150: 17ae a63f 68c1 26bf d655 d53c 1f03 783f
00000160: bb6f 063e 4056 c8be 8e14 a03e 20fd a5be
00000170: 3811 003f 055a adbd f4e9 a7bf 994f 933f
-0.034990314 -1.0715833 0.8395549 1.0147244 -0.6371911 -0.5675537 2.3640552 -0.12278459
1.9843516 -0.07363876 1.7526929 -0.4428846 0.24001417 0.20101464 -1.8242433 -1.0089633
-0.5809171 0.29863003 1.6111667 -1.0561715 0.055393685 -1.079021 -0.64249486 0.5574835
-0.14729682 -1.0611576 -0.17065093 1.2234315 1.0861251 0.27026135 2.4008586 -0.8171233
-0.124238774 -0.48251507 0.8570496 0.3763873 -0.11323483 -0.18273133 0.16549075 1.7780823
0.11747521 -0.9744196 -0.74185497 -0.023758356 1.3995917 -1.7014488 -0.27749 0.29951274
0.536631 -1.0537223 0.21459645 0.4036656 -0.6810152 1.8211328 1.0246269 0.019983687
-0.06299116 1.3758562 1.1523379 0.22861494 1.61292 0.20680632 -1.9764432 -0.6609201
1.400605 -0.8116342 0.92419946 -0.36771706 -0.7345511 0.40244624 -0.9615229 -2.1592333
0.3869019 0.006147025 -1.422952 1.4725286 0.61326104 2.0154638 1.3136786 0.72426623
-0.80334383 -1.3682408 0.83537436 -0.91230136 1.3021878 -0.65138865 0.026041906 0.9687976
0.1312856 -0.39128304 0.31265682 -0.32419682 0.50026274 -0.084644355 -1.3118272 1.1508666

gru.weight_ih_l0 f4 [192, 16]
00000000: caca 783d 0ef2 44bd 2142 8abd 5539 053e
00000010: eec7 2cbe 8dd4 7f3e 5c73 0dbd 2fcf 72be
00000020: 8d52 db3d 02c1 4d3e 329b 373e 3233 343e
00000030: ab46 003e ed9f 3d3e ba8c 083d 04f1 6bbd
00000040: 631f 16be 1f3e 94bd ecad efbd 37c4 52bc
00000050: aab7 a2bd a7cb 7b3d ede5 033d 6059 dbbd
00000060: ebe0 85bd 0b93 5b3e 5aeb 6b3d 9c09 33bd
00000070: f602 b2bd 57a7 8c3d 7feb 11be 81d5 e0bc
00000080: 514f b63d 3688 98bd fc22 a33d d2e5 5dbd
00000090: 83bf 8fbd 9352 91bc 8028 e6bd c78e be3d
000000a0: 6e9a c1bd 748d ebbd eee9 203b 5010 1d3e
000000b0: 242a cc3d 63cb 1dbe b967 c4bb 7ed5 00be
000000c0: 2134 4a3e 9091 28be de66 3a3e 98a7 ad3d
000000d0: 767c 8abd 04ad 41bc 0421 71bd a997 b63d
000000e0: 1cd8 c23c 488f 02bd c0c5 8ebc 919e ebbc
000000f0: b236 fe3d a65d 82bd ebd9 8a3d b9bf 7bbd
00000100: 2205 353e a268 34bd a375 a0bc 2d84 89bc
00000110: 599e 84bd a5e6 823d 4618 09be 7630 36be
00000120: f404 283b 0b65 a33d 2ee6 06be 0caf 383e
00000130: 5c68 3f3d 40f2 583e 5a6a cc3d 6c69 583c
00000140: 36fd fdbc 8187 4f3d eb14 dc3d 6082 13bd
00000150: b47e c33d 5b4a 87bd 35cf a83c a64d 82bd
00000160: cc77 573e 38af c8bd d001 47bd 50c0 5e3e
00000170: 6989 f83d e632 2c3c 6311 e63d 358d 1d3e
00000180: 2c2c 36bd e663 e93d 3684 dbbc 5470 02be
00000190: 7fc4 f1bc f813 e63d 828f 28be 1fa2 39bd
000001a0: 2a0d 793d e59e 0f3e 7594 883d fe02 103d
000001b0: 107b 783d f965 af3d 9b25 c83c 1fe6 e93c
000001c0: 3e28 cdbd 55c6 e43d b25d 043d f602 563d
000001d0: 8c39 9f3d 28bf dbbd 90ba c13d 2afc 183d
000001e0: 2158 783d b7e6 09be 0983 d73d adbf 9dbd
000001f0: d524 413c 65ef 5cbc 8b00 ab3d 0c4a 2a3d
00000200: 18c5 983d 2b2c 813d 1862 10bd 2f5a b2bd
00000210: 0ff4 9b3c fb80 2d3e 358d 0dbe ae99 48bc
00000220: 60cd 313e af48 783d 4d58 383b a94c 353e
00000230: 8c37 613d 5c4f 1e3e 19e1 373d 734c f73c
00000240: bcde f73c c8de 8cbd 9e28 50bd 20af 93bd
00000250: e34f b83c 0a3e 663d 0cb6 b8bd 6731 a9bd
00000260: 726a 9f3d 8e26 5d3d 48dc 82bd 06b7 9ebd
00000270: 7c86 85bd 8e51 c63c 2826 d5bc f86b 4fbc
00000280: c39c 863e 7043 8ebd 32da 733e 25a3 90bd
00000290: 611f ba3c 7d3b 553e 08f3 fe3d 85c8 a6bd
000002a0: a6a6 883d 7fa0 d83d d046 b9bd 159b cf3d
000002b0: 12ac 923e c5e9 e33d 8567 5b3b 2870 c83d
000002c0: bba7 603e 4498 34be 3a6f c23d 7b56 253e
000002d0: 78aa 51be f247 e43d 3fc1 a0bd a380 bbbc
000002e0: 86cd 9abc b0ad a03d c91e aa3d 2ad6 1d3e
000002f0: fcfb 623e b43e b4bc 7ddf 6bbd 268b 003e
00000300: 55b7 8fbe 57bf f5bd 1c67 123e a4cb 7bbd
00000310: 7546 af3d 3e5e 9cbe 934b cb3d 3584 7e3e
00000320: 3feb a03d ebff 7bbe 7ef9 41bd 1998 32be
00000330: 0c18 6bbd 5e28 5dbe 78dc 023d 9517 b63d
00000340: eabf 36be fd12 d4bd ccc8 d4bd bd8e 6dbb
00000350: 1687 0a3e 2b14 b3be 4d66 08be 8deb d63d
00000360: afd4 c93d 2ce0 1ebe 7dc6 6cbc d5ce f2bd
00000370: dc71 2dbe 019b 4cbe c3f6 243e 16be b33c
00000380: ad77 1bbb 02e4 11be 4c97 713d 298b 093c
00000390: abb8 f13d ca76 cd3c c37c f73d 083c d0bc
000003a0: 6279 57bd 04b8 4c3e 0740 67bd 8ee3 e0bd
000003b0: 57bd a93d 30f2 af3d fa17 cebd 82d9 083d
000003c0: 82e1 a53d 2ca8 10bd 88bf 0b3e 9095 f3bd
000003d0: 1fea 0dbe 55b3 423d 3fa2 e5bd 118d febd
000003e0: cd9e 353e b6f2 55bd 255c 57bc dc8e bf3c
000003f0: 73a5 933d 3018 1d3e 7689 e6bd a730 87bd
0.06074027 -0.048082404 -0.06750894 0.13010152 -0.16873142 0.24983425 -0.034533843 -0.23711847
0.10709105 0.20093158 0.17930296 0.17597654 0.12526958 0.18518038 0.033337332 -0.057602897
-0.1466041 -0.07238411 -0.11703095 -0.012864164 -0.079451874 0.061473515 0.032201696 -0.10710406
-0.0653704 0.21442811 0.057597496 -0.043710336 -0.08691971 0.06867855 -0.14249991 -0.027445557
0.08901847 -0.07447855 0.07965657 -0.05417425 -0.0701895 -0.01773957 -0.112381935 0.09304576
-0.09453283 -0.115015894 0.0024553495 0.15338254 0.09968975 -0.15409617 -0.00599381 -0.12581441
0.19746448 -0.16461778 0.18203303 0.084792316 -0.0676202 -0.011821035 -0.058869377 0.08915646
0.02378469 -0.031874925 -0.017428279 -0.028762134 0.12412776 -0.06365518 0.06779846 -0.061462138
0.1767774 -0.044045098 -0.019587344 -0.01678666 -0.06475515 0.06391648 -0.13388166 -0.17791924
0.0025637718 0.07978257 -0.13173744 0.18035525 0.046730384 0.21186161 0.099812225 0.013208728
-0.03100453 0.050666336 0.10746177 -0.036013007 0.09545651 -0.06605979 0.020606617 -0.063624665
0.21041793 -0.09799045 -0.048585713 0.21753049 0.12135584 0.010510182 0.11233785 0.15385897
-0.04447572 0.11396007 -0.026796442 -0.12738162 -0.029512642 0.112342775 -0.16460994 -0.045320626
0.06080357 0.14025457 0.06668941 0.035159104 0.060664237 0.085643716 0.024431994 0.028552113
-0.10017441 0.11170641 0.032315917 0.052248918 0.07774648 -0.107298195 0.09459412 0.037349857
0.06063092 -0.13466917 0.1052304 -0.07702575 0.011788567 -0.0134848105 0.08349713 0.041574523
0.07459468 0.063072525 -0.0352498 -0.087086074 0.019037275 0.16943733 -0.13823397 -0.012243671
0.173635 0.06061619 0.0028128803 0.17705025 0.054984614 0.1545996 0.044892404 0.030187821
0.030257575 -0.0687843 -0.050819986 -0.07211137 0.02249903 0.05621151 -0.09019098 -0.08261376
0.07783975 0.053991847 -0.063896716 -0.07749753 -0.065197915 0.02420881 -0.02601917 -0.012660019
0.26291475 -0.069464564 0.23813704 -0.07062367 0.02272004 0.20823474 0.12448698 -0.08143715
0.06672411 0.10577487 -0.090467095 0.101370014 0.28646904 0.111285724 0.003347845 0.09787017
0.21938984 -0.1763621 0.09493871 0.16146271 -0.20475185 0.11146535 -0.07849359 -0.022888487
-0.01889683 0.07845628 0.08306653 0.15413728 0.22166437 -0.022002555 -0.057586182 0.12553081
-0.2806956 -0.11999386 0.14297146 -0.061473504 0.085583605 -0.3054065 0.09926524 0.2485512
0.0785737 -0.24609344 -0.047357075 -0.17440833 -0.05739598 -0.2159743 0.031948537 0.08891217
-0.17846647 -0.10355184 -0.103898615 -0.0036248409 0.13528094 -0.34976324 -0.13320275 0.104941465
0.09855019 -0.15515202 -0.01445162 -0.11855856 -0.16937965 -0.19981004 0.16109757 0.021941226
-0.0023722455 -0.14247134 0.05898218 0.008394995 0.11802801 0.025081057 0.12084343 -0.02541925
-0.052605994 0.19992071 -0.056457546 -0.109809026 0.08288067 0.085911155 -0.10063167 0.033410557
0.08099653 -0.03531663 0.13647282 -0.11893761 -0.13858841 0.047534306 -0.112125866 -0.1242925
0.17736359 -0.05223342 -0.013144528 0.02338355 0.07209291 0.15341258 -0.11256687 -0.066010766

gru.weight_hh_l0 f4 [192, 64]
00000000: 2ff0 0a3d f4ed c73d d68e 12bd e6e0 eebd
00000010: ee2f 893d 3673 b23d 1c3f 6e3d afe0 283e
00000020: 27a3 1ebd ecc4 93bc 9c93 d7bd d211 7e3d
00000030: 83b2 33bc 8621 623d 95a2 413d d256 1a3c
00000040: 12d3 cb3d 494a 92bd 7aac 1abe 81f3 00be
00000050: fb0e b9bd 26d8 41bd f8a4 e5ba a1a8 35bd
00000060: f97d f0bd 2097 adbd c7e6 8fbc f206 593d
00000070: a3d7 6d3c 91f6 793d 856c c53c c4f9 853d
00000080: c2bb 713d 09e4 8bbd 3b52 ae3d 0d0e dabd
00000090: 6200 dbbd a3d2 7a3d ee4a 113d b4a7 c93d
000000a0: 5bac e6bd 2c2e a5bb 142b a33b d3c5 bcbd
000000b0: 1108 f93d 35d6 033d bb5d b63d 589c 8f3c
000000c0: 55fd 993d 06d2 37bd 5036 af3d c9b2 bbbd
000000d0: dc44 9bbd 650c 80bd ffe7 db3d 5f1a f8bd
000000e0: 72c0 9c3d bb38 03bd 67c6 55bd e4fc ea3d
000000f0: 0d01 fa3d 0306 7cbd d893 eb3d bde2 c9bc
00000100: 2b3a 0a3c b264 74bd dd38 eabc dd4a 5abd
00000110: 2686 27bd 143f 163d 1d42 5fbd 8ce2 d33d
00000120: b209 f0bd c533 c7bd 3675 a5bd 5e35 6fbd
00000130: 9f5c 5fbd 812c 95bc c300 51bc 06e6 35bd
00000140: b691 aa3d 8665 c83c a7c1 af3d 2a29 c3bd
00000150: 2ff8 0d3d e3d5 aabd 89d5 f0bd 8c0b 58bc
00000160: ef18 c9bc 3944 1fbd 6402 0cbd 72aa 89bd
00000170: 99cb edbd 3d65 15be 4a8f 79bc 8f39 a3bc
00000180: bc57 04bd 5f00 c1bd 1dd4 013e 1ff9 36be
00000190: 87c3 2abe 5552 e1bb 603d ccbb ea3d 86bd
000001a0: e911 dfbd bef3 1d3e fcd3 cdbb b640 893d
000001b0: 2ff0 28bd 68f8 bd3d 2f5d f5bd ef3d a0bc
000001c0: 584c 793c 3204 e03b 4433 82bb 9fc2 6ebd
000001d0: 2b42 2e3d a51e 023c 7756 d43c 8759 d83c
000001e0: b2b4 97bd 2b69 8dbd 07f9 1f3e dc02 cc3c
000001f0: 0bd0 033d 7463 203e ae14 a0bd 1a17 b43d
00000200: 4296 fcbd 1dae 60bd 92e1 7c3c 83fa e93d
00000210: b54c 23bd bb41 83bd 170b e1bb ef60 3b3d
00000220: adf0 14be 1987 2d3e a5d6 8abd 101e 51be
00000230: 99f4 4f3d 1915 233c bb83 5fbd 6c08 bcbc
00000240: dee6 dc3c 8667 ed3d 7dd3 02bd aedf 163d
00000250: 01bd 203d b423 d3ba f95d 5c3d b9b2 11be
00000260: ff08 ad3d 25c2 d33d 6513 993d a1f9 fc3d
00000270: 190a c8bd 7e18 be3d 5d06 7fbe ebf0 c43d
00000280: 1bbb 1f3e d53f cbbd cb4a 03bd 7d22 d13d
00000290: c081 59bc 0e1f 80bd 8017 a83d eba7 46bd
000002a0: d0d0 47bd 6463 afbc 5e86 963d ecc3 0dbc
000002b0: b11f 253d a867 bcbd f1a7 fd3b 6ff6 573d
000002c0: 6579 a13d 1da6 1abd a1aa 07bd 08d9 443e
000002d0: b7cd fb3d ef13 1c3d 80c0 78bd d5e6 9c3c
000002e0: 9ab3 2ebe 0f1d 0a3e 996d ec3d 2862 0e3d
000002f0: 4cc0 cc3d 45eb 433e 7c4d b0bd d1de 573d
00000300: f5dc 9a3c 2e7d 1f3c d5b1 2fbd a5a7 35be
00000310: b14f 20bd 4bb4 f0bd f17e 11bd 3421 dd3c
00000320: aa83 12be f678 c4bc 2e3f ebbd ab8b 713b
00000330: e8de 413d 5a08 58bd 7e89 55be 75e9 07be
00000340: 8958 e53b 0ec9 17be 2aff d13c 76ce 043e
00000350: 95a4 3abd b351 913d ee4a bdbd 4216 bbbc
00000360: 5790 90bb 3052 a5bd f162 adbd 5586 ed3d
00000370: f3b6 d7bd e89d ffbc f24a 91bd 7d53 83bd
00000380: 201a f13d 9321 76bd 78b1 c53c cc32 2f3e
00000390: bfe4 95bd 913e 38bd 18e4 da3d a24f 2b3e
000003a0: e784 193d 350b 1dbd 584f 26be e833 18be
000003b0: c002 9dbd 237e f83d 56a9 cbbd 8b78 a8bd
000003c0: 5a52 1abd 27d3 073e e533 a03b 51f0 0dbe
000003d0: 5b12 f23d 7b63 81bd f5b8 0abe f886 8ebd
000003e0: ab8e 67bd ebb8 44bd 8151 eeba f507 4ebe
000003f0: 0a23 abbd 5a72 9abd 2d8c 063e fcbc 15bd
0.033920463 0.09762183 -0.03578075 -0.1166399 0.06698595 0.08713381 0.058165655 0.1649196
-0.038729813 -0.018038236 -0.10526201 0.062028714 -0.0109678535 0.05520775 0.04727419 0.009420114
0.09952368 -0.07143075 -0.15104857 -0.1259289 -0.090360604 -0.047325276 -0.0017520478 -0.04435027
-0.117427774 -0.084760904 -0.017566098 0.05298514 0.014516744 0.06102616 0.024099598 0.0654178
0.05901695 -0.06830604 0.08511778 -0.10647211 -0.106934324 0.061236035 0.03547185 0.0984644
-0.11263343 -0.0050409045 0.0049795005 -0.092174195 0.12159742 0.032186706 0.089045964 0.017530605
0.075190224 -0.04487803 0.08555281 -0.0916496 -0.07581493 -0.06252364 0.10737609 -0.12114405
0.076538935 -0.032036524 -0.052191164 0.11474016 0.12207232 -0.06152917 0.11502808 -0.02464425
0.00843672 -0.059666343 -0.028591568 -0.05329405 -0.04089942 0.03668125 -0.05450641 0.10345945
-0.11720599 -0.09726671 -0.08078997 -0.058400504 -0.05453169 -0.018209698 -0.012756529 -0.04440882
0.083285734 0.024462473 0.08581858 -0.09529336 0.034660514 -0.08341577 -0.117594786 -0.013186347
-0.024548022 -0.03888342 -0.034181967 -0.06721963 -0.11611099 -0.145894 -0.015231917 -0.019924907
-0.032310233 -0.09423899 0.12678571 -0.1786847 -0.1667615 -0.00687627 -0.0062329024 -0.06554778
-0.10892088 0.15425012 -0.006281374 0.06701796 -0.041244682 0.09275895 -0.11980664 -0.019560782
0.015215956 0.0068364376 -0.0039733965 -0.058291074 0.04254357 0.007941877 0.025920136 0.026409877
-0.07407512 -0.06904825 0.1562234 0.024903707 0.032180827 0.15662938 -0.07816444 0.08793469
-0.12333347 -0.054853547 0.0154346395 0.114247344 -0.039868075 -0.064090215 -0.006867777 0.04574674
-0.14544936 0.16946067 -0.067792214 -0.20421624 0.050770376 0.009953761 -0.054568987 -0.022953235
0.026965555 0.11592011 -0.031939972 0.03683441 0.03924275 -0.0016108663 0.053800557 -0.14228334
0.084489815 0.103397645 0.07474402 0.123523004 -0.09767551 0.09282015 -0.24904771 0.09616264
0.15598719 -0.09924284 -0.03205375 0.10211656 -0.013275564 -0.06255923 0.08207607 -0.048499983
-0.048783123 -0.021409698 0.07349847 -0.008652668 0.040313426 -0.09199458 0.0077409674 0.05272525
0.07884482 -0.037756074 -0.03312171 0.19223416 0.12295096 0.038104948 -0.060730457 0.019153038
-0.170607 0.13487647 0.115443416 0.034761578 0.09997615 0.19132717 -0.08608529 0.05270273
0.018904189 0.009734435 -0.042894203 -0.17739733 -0.0391385 -0.11753138 -0.03552145 0.026993372
-0.14308038 -0.02398346 -0.1148666 0.003685693 0.04733172 -0.05274234 -0.2085323 -0.1327265
0.0069990796 -0.1482279 0.025634367 0.12969384 -0.045567114 0.07095661 -0.09242807 -0.022837762
-0.004411738 -0.08072317 -0.08466137 0.115978874 -0.10532942 -0.031203225 -0.07094373 -0.064124085
0.11772561 -0.060090613 0.024132475 0.17109221 -0.073190205 -0.044981543 0.10688037 0.16729596
0.03748026 -0.038340766 -0.16241205 -0.1486355 -0.0766654 0.12133434 -0.09944408 -0.08226117
-0.037676193 0.13264142 0.004888999 -0.13861205 0.11819907 -0.063178025 -0.13547118 -0.06959337
-0.056532543 -0.048027914 -0.0018182249 -0.20120223 -0.083562925 -0.07541342 0.1313941 -0.036557183

gru.bias_ih_l0 f4 [192]
00000000: c938 84bc 0687 51bd 6b52 c6bb 349a b13a
00000010: ea22 e33d f869 62bd f24e 48bd 90c6 df3d
00000020: 5821 9ebc f519 f8bd b6d1 883e 0414 853d
00000030: d47c fd3d 5fca 7cbd 4435 a13d ad35 b2bd
00000040: 99ee c0bd 7edb 4a3e bbc1 1a3e e5e1 523d
00000050: ab07 1dbb 3d0c 7bbd 8645 d03d 32ae b03d
00000060: b7f6 13bd 6477 ddba c0ba 473e 0460 96bb
00000070: c45b c4bb 82df 4fbd 68fc 003d 45d4 25be
00000080: 7a16 43bd 8b1b ae3d b326 8d3d 8451 a33d
00000090: fd7f 02bd 9a5b 97bc ae2e a83d f949 fa3c
000000a0: a350 543d f6d2 70bd 40de 0e3e 8729 843e
000000b0: 573c 0b3e 5fec a53c 011b 4ebd 12da 55ba
000000c0: 3f6a fa3d 119a 47bd 9e12 de3d 072f 613d
000000d0: 0bf0 dd3d dffc 4c3d d82b 6a3e d849 453e
000000e0: 35da 5d3d 5847 cd3c a352 b03d f2c8 d03d
000000f0: cc47 333d ed4d 143e 79ca ecbc 444e 91bd
00000100: 4d4f e43d 4f73 24bd a51e b2bd 717d 873d
00000110: a52b aebd 014f 393d bea9 e23d a081 fc3c
00000120: 26b3 fc3d 4f02 263d cfad 02be aa39 8bbd
00000130: b435 8cbd bf17 1abe 05df c03d 3d92 9cbd
00000140: ee74 d03d 57a4 4e3c 661f 01be 18c9 58bd
00000150: 1e44 aabd a79b bb3d 6b31 61bd 1c24 d5bc
00000160: 66b6 443b 2934 8539 a4f2 c3bd b8bd 03be
00000170: e7ce 23bd ef0e d7bd e533 ca3d 1dff 8abd
00000180: 09e9 cc3c aa59 f43c e8c1 86bd ab45 d43c
00000190: a745 02be 86c9 e8bd ae98 203d d8cf 83bd
000001a0: 0286 75bc 8967 fdbb f297 1dbc ce4c 04be
000001b0: 9772 ea3c b7a4 40bd 07c4 29bd 5627 ff3b
000001c0: de2f 8b3d 993b 2e3d 3ea8 703d 4bb5 d2bd
000001d0: 160f 82bb 651f 14be 1730 3abd 4af1 843d
000001e0: b93f 873c 9110 5bbe ff46 5bbd 3ddd fb3b
000001f0: 2afc 26bd b5dc 91bd 17b3 5a3d c212 91bc
00000200: aa5b 36bd a56a 9d3d 580b a23d aa16 0fbd
00000210: e542 9ebd 1200 be3d 27f7 edbd 9f2f 86bc
00000220: 1430 a73d 0a5e 863b 72f5 ef3d c958 c4bd
00000230: a3ad 4fbd 1e16 87bd 8488 babd bce8 93bc
00000240: 82dd 6fbd 9982 1e3d 62ba 86bd b048 85bc
00000250: eb7a 5e3d 049c 11bd 42c0 10bd 4dff 143d
00000260: 812a 9cbd 2844 a6bb 9cca 74bc 1dc9 b13d
00000270: 83af b4bd bd8c 2b3d 068a ba3d 8cd4 a63d
00000280: 1772 52bd 91df ddbd 8a0e a33d 7771 e03d
00000290: ffd7 82bd a2e5 e13d 124f cf3d 0863 0b3e
000002a0: 6aa6 a4bd 9278 1cbc 0bf6 abbd 95bb 133e
000002b0: 0794 1dbd 0502 c63d 3fb8 d7bd 5fb8 ccbd
000002c0: 5f00 a23d cfc0 cf3d 96a4 98bd d309 473c
000002d0: 3f50 c03c 8566 32bd 4e7c 38bd c562 87bd
000002e0: e40f ad3d 44a1 973d 45f8 4e3d 9602 4fbd
000002f0: 4350 efbd b9c2 6a3d c94d bb3d eb70 073d
-0.016140359 -0.05115416 -0.0060523055 0.0013549984 0.11090644 -0.05527684 -0.048903413 0.10926545
-0.019303009 -0.12114326 0.26722497 0.06497958 0.12377325 -0.061716434 0.07871488 -0.08701644
-0.09420509 0.19810292 0.15112965 0.05148496 -0.002396087 -0.06129097 0.101695105 0.08626975
-0.036123957 -0.0016896543 0.19504833 -0.0045890827 -0.0059923846 -0.050750263 0.031490713 -0.16194256
-0.047628857 0.08501347 0.06892147 0.07974532 -0.03186034 -0.018476296 0.082120284 0.030552851
0.051834714 -0.058794938 0.13951969 0.25812933 0.13597237 0.020254312 -0.05031872 -0.00081578
0.12227296 -0.048730914 0.10843395 0.05497649 0.108368 0.050045844 0.22868288 0.1926645
0.054163177 0.025058433 0.08609512 0.10194577 0.043769643 0.14482851 -0.02890514 -0.07095006
0.11147938 -0.04014903 -0.08697251 0.06615723 -0.08504418 0.04524136 0.11067532 0.030823529
0.12338857 0.040529545 -0.12761615 -0.06798108 -0.068461806 -0.15048121 0.094175376 -0.0764508
0.101785526 0.012612424 -0.12609634 -0.052926153 -0.083137736 0.09160548 -0.05497877 -0.026018195
0.0030015945 0.000254066 -0.095677644 -0.1286534 -0.03999224 -0.10500895 0.09873179 -0.0678694
0.025013464 0.029827911 -0.065799534 0.025912127 -0.12721883 -0.113665625 0.039208107 -0.064361274
-0.014985563 -0.0077332896 -0.009618746 -0.12919924 0.028619094 -0.047032084 -0.041446712 0.0077866716
0.06796239 0.042537306 0.0587542 -0.10288485 -0.0039690835 -0.14465101 -0.04545602 0.06491335
0.016509878 -0.21393038 -0.053534504 0.007686286 -0.040767826 -0.07122175 0.05339345 -0.01770914
-0.04452101 0.076863565 0.0791232 -0.034933724 -0.07727603 0.09277357 -0.11619406 -0.01638013
0.08163467 0.004100566 0.11716737 -0.09587247 -0.050702702 -0.065960154 -0.091080695 -0.018055312
-0.058560856 0.038698766 -0.065785185 -0.016270012 0.054316442 -0.03554918 -0.0353396 0.036376286
-0.076252945 -0.005074043 -0.014940884 0.086809374 -0.08822539 0.041882265 0.09108357 0.08146009
-0.051378336 -0.108336575 0.079617575 0.10959142 -0.06388854 0.11030127 0.10122503 0.13611996
-0.080395535 -0.009550231 -0.08396538 0.14427026 -0.038471248 0.09668354 -0.10533189 -0.099961035
0.07910227 0.10144197 -0.07453267 0.012148338 0.023475764 -0.0435548 -0.04504042 -0.06610636
0.084502965 0.07403806 0.050529737 -0.050539576 -0.116852306 0.05731461 0.09145696 0.03306667

gru.bias_hh_l0 f4 [192]
00000000: f2fb acbd 7d82 efbd d3f9 263c 5d73 813b
00000010: a2f6 87bd ee8b 903c dc7c a7bd 18f2 d5bd
00000020: 156c 5b3d 3c1d 19bd ae5f 5e3e 44fc d63d
00000030: 93fb 183e 516c 9a3d dcb0 c13d 1be3 25bd
00000040: ed45 c4bc 5b77 8f3c edab 3bbd 1ff3 893e
00000050: 6e79 843d 7f40 98bc 7432 3e3e 8cfe 2c3e
00000060: 11ac 6c3d 51b9 1d3e e2ec 883b 6100 0abe
00000070: d7ea 5fbb d6b5 7fbd 8eca 393b ab0c 18be
00000080: 5f8f cb3b 1054 76bd f94e fd3d b2e3 90bd
00000090: 3abd 05be 212b 06bd e660 b83d 8f6d d8bd
000000a0: 1836 d03d f536 9a3d 7e8a b13d a7e9 5f3e
000000b0: 5f1b 253e 8f98 fc3c 2e33 c43d 6aff fc3d
000000c0: 45fd 74bc 5589 3b3d 4aba 2b3e e648 143d
000000d0: 9b07 bdbd 2348 debd 0e74 523e e571 b53c
000000e0: f349 92bd 60f8 dabd 13e4 7abd 0095 05bd
000000f0: d8dc e73d 2b39 723e 8934 73bd 5a63 d53d
00000100: 3a58 e73c a77e 9f3c cc10 1b3c 950f 903d
00000110: 0969 9d3d 75cf c5bd aee7 923d 3570 6b3d
00000120: 5d0d 77bd 1636 d43b d751 b23d 52a3 cd3d
00000130: d182 8fbb 7195 90bd 652c c23d 1754 8a3d
00000140: 2242 d3bc 2433 fe3c 72e6 1fbd a63d 303d
00000150: 3ac6 453d 3501 e1bd cacb e6bc f37b b93d
00000160: 85b6 003d a9f3 02bd 56c4 ffbd d663 f5bc
00000170: 01fe 6abd 5374 913c 31bc 393d 40e2 e03c
00000180: e792 ffba 8297 efbd ebd7 113d ed42 9fbd
00000190: 5089 f5bc b247 bcbc 9f10 1cbe fee3 07be
000001a0: 05f3 713d 3e73 9a3d ba0b 41bc 1fca 113d
000001b0: 1590 82bd 69c4 98bd c3e9 4abd 5c41 743d
000001c0: f638 af3c 3ea3 873d a8b4 253d e4e1 c43c
000001d0: f4b5 743d fd17 25be dd2f 1ebd dee4 c9bd
000001e0: 0bab 7a3d afc7 29be 9744 cf3d 1f10 893d
000001f0: 7402 91bd a9ec 963c 1158 17bd bbac 5cbd
00000200: cff9 133d 56b5 013d 7622 843d 22ba e9bc
00000210: eadd 07be 74f8 15bd 8451 cfbd 9d03 4a3c
00000220: 840b 86bd 4e3b 9ebd fcd1 903d 9d20 b1bd
00000230: d534 c9bd 4e9b 8a3d dfae 123e 79bb bfbd
00000240: f71d ce3d 1e32 533d 76fe ea3d 652d b3bc
00000250: 18cb bf3c 48e6 71bd 6df2 babd e6d9 df3d
00000260: e12c fb3d dc67 693c 8702 66bd a33c 083d
00000270: cde0 e4bd daa4 743d 4c04 353d d013 63bd
00000280: 496f 0a3e 6650 3bbc 874e be3c 1a45 b9b9
00000290: 5b22 3dbd fe0f f8bd ca41 5f3b d5a4 44bd
000002a0: 7307 273d f9c7 83bc 84bc cdbd bcf8 ad3c
000002b0: 371e ac3d 9bc6 473c 4b36 703d 67a7 e73d
000002c0: 14ab e5bd e937 fe3d 4049 8ebd c7d7 3d3c
000002d0: 5d8a da3d 81f3 e7bd c8dc f7bd 011a 413c
000002e0: 3eff bb3d ab0b 7fbd d80c afbd 41f3 933c
000002f0: e0bc 3bbc d322 34bc 9421 c73c a1bf b23b
-0.08446492 -0.116948105 0.010191399 0.00395052 -0.06638838 0.017644849 -0.08178112 -0.10446566
0.053569872 -0.037381396 0.21716186 0.104973346 0.14939718 0.07540191 0.094575614 -0.040499788
-0.023959124 0.017512968 -0.045818258 0.269433 0.064684734 -0.018585442 0.18573934 0.16893977
0.057781283 0.15402724 0.0041786293 -0.13476707 -0.0034167075 -0.06242927 0.0028349492 -0.14848582
0.0062121595 -0.060138762 0.123685785 -0.070746794 -0.13060465 -0.032755975 0.09002857 -0.10567772
0.101665676 0.075300135 0.086689934 0.21866475 0.16123722 0.030834464 0.09580074 0.12353404
-0.014952962 0.045785267 0.16770282 0.036202334 -0.09229966 -0.10853603 0.20552084 0.022149036
-0.07143011 -0.10691905 -0.061252665 -0.0326128 0.113214195 0.2365462 -0.059376273 0.104193404
0.028240312 0.019469572 0.009464454 0.07034222 0.076860495 -0.0965871 0.07173096 0.057480056
-0.06031548 0.006476174 0.08707016 0.100409165 -0.004379608 -0.07059754 0.09481124 0.0675432
-0.02578837 0.031030245 -0.03903813 0.043027543 0.048284747 -0.10986558 -0.028173346 0.090568446
0.031424064 -0.031970654 -0.1248862 -0.029954832 -0.057371143 0.017755663 0.04534549 0.027451634
-0.0019498736 -0.1169882 0.035606306 -0.07776437 -0.029972702 -0.022983406 -0.15240715 -0.13270566
0.059069652 0.07541512 -0.011782581 0.03559315 -0.06375138 -0.07459337 -0.04953934 0.059632644
0.021389466 0.06622933 0.04045549 0.024033494 0.059743837 -0.16122432 -0.038619865 -0.09858106
0.061198276 -0.1658008 0.10120504 0.06692528 -0.07080546 0.018423395 -0.03694922 -0.053875666
0.036126908 0.031667076 0.064518854 -0.028531138 -0.13268247 -0.036613896 -0.1012297 0.012329963
-0.06545165 -0.07726155 0.07071301 -0.086487986 -0.0982453 0.06767903 0.1432452 -0.093619294
0.10064309 0.051561467 0.11474316 -0.021872232 0.023412272 -0.059057504 -0.0912827 0.10930233
0.12264419 0.014245953 -0.056154754 0.033260953 -0.1117569 0.059727527 0.04419355 -0.055438817
0.13519014 -0.011432743 0.023230804 -0.00035337434 -0.046175342 -0.12112425 0.0034066313 -0.04800876
0.04077859 -0.016086565 -0.10045722 0.02123677 0.084042005 0.012193347 0.058645528 0.11311226
-0.11214271 0.12413008 -0.06947565 0.01158709 0.10670922 -0.113257416 -0.121026576 0.011785985
0.09179543 -0.062266987 -0.085473716 0.018060328 -0.0114586055 -0.010994631 0.024308003 0.005454973

gru.weight_ih_l0_reverse f4 [192, 16]
00000000: 1d32 863d f0dc bbbd dbc5 303d 324e 80bd
00000010: cb04 9b3c afda 1b3d ba0e abbd 5259 97bd
00000020: 9c1c 96bd 064e a73d d0f3 1bbd d16d c23d
00000030: cb9c fb3b 3dac 8c3d 0654 dd3d 8c05 f43d
00000040: 4ce5 023d 0952 9e3d 1357 a63d 04b8 adbd
00000050: 2a9b d1bd 0012 8d3e 2edb a4bd f457 5cbd
00000060: 9705 1bbc f175 563e 1aea 853c 486a 313e
00000070: fef5 2c3e 1ff6 c4bd 97d9 63bd 39f3 9dbd
00000080: 6cd5 223e 2d1b fa3c 3a81 243e 5516 19be
00000090: e062 b9bd da82 a83d 14cf ab3d eb8d 563d
000000a0: acd9 a83d 161e 143e 4287 243e 4e31 363e
000000b0: 430d 37bd c2cb 05bd 4d65 80bb 0b64 d23d
000000c0: 3f23 b8bd d34b b83c cdc4 b6bd 3b01 5a3c
000000d0: 1d15 17be 37d4 003e 5b29 18bd c48a 66bd
000000e0: 31c7 8b3d e5f8 f63d 0c86 183e 7c1c a23d
000000f0: 2494 cd3c a4bd 8bbd fb08 00bb c46d fbbd
00000100: 454a 233d c096 2abd 497d 423c 779e b2bd
00000110: 2542 fd3d 31ea 253d c71d 213d cf0c 203e
00000120: 4e18 e6bc ab3a 27bd 0c6e cfbc eaa9 ba3d
00000130: fd3b 8c3d d296 e0bc 919e 0e3d bf5e 2d3e
00000140: 5c1e 043d b41c a5bd 115c 8b3d 402c a0bd
00000150: 1f6d 55bd 916c 2c3c 94d5 4f3d eb2b 423d
00000160: 8092 1dbd 7ba7 733c 9ad8 f23d 3c44 193d
00000170: 7282 2cbd f2b7 023e bb74 ae3c 1948 a6bd
00000180: fdb8 423d 329b 13be 3695 373d 4f5b f53d
00000190: 6660 68bd 5cde 5f3e 688e 423e 735f 413d
000001a0: 54ff eebd 6c77 af3e 510f 1e3e d5ff 473d
000001b0: e21b 243e 9a0c f53d c6fa 7a3b 4dce 4cbe
000001c0: 95d1 733e 9cc2 02be 1984 8e3d 08ff 443e
000001d0: 9add 75bd c85e 3b3e 6361 f03d 6d18 6a3d
000001e0: 73ea a3bd cda8 a03e 1a10 353e 9dcf 093e
000001f0: 671b 12bd 2cac 91bb 4dbe bb3b 129a b1bc
00000200: 4b59 3b3e 9d51 d23c 850d 013e e3ae 93bd
00000210: 4027 7bbd 63cf ef3d 113b c5bc 6ce0 7ebd
00000220: 7da7 9bbd b6f0 2e3d 25bc d03c f6d6 ee3d
00000230: 4ebb 2c3e aca3 32bb f594 e1bd 6b51 75bd
00000240: 4ce5 f13d 719f 463d 517c 9f3d 06e2 ad3d
00000250: 9b75 85bd b951 713e a8c9 0e3d c61b 683d
00000260: 7049 bf3d a480 ef3c 339b d93d 7c0b bcbc
00000270: d115 853d b705 de3d 29ac 27be 27b4 f63d
00000280: 5fb0 313d 377b e6bd 3b35 153d 3f22 123d
00000290: b347 45bb a969 e93c f901 203e 0ef1 2b3e
000002a0: 2b6e f53d d21c 02be cc3d 8d3b 0f3a 16be
000002b0: ae62 ba3c 137c 3d3c 34e3 bebd c8fe d63b
000002c0: 5fc4 b73d c39f 153d 4636 b8bc 8f7b 77bc
000002d0: 967c 5b3d 6cab ab3d 7482 b13d d083 22be
000002e0: 54b9 8bbc 99ba af3e e102 103e 5910 cabd
000002f0: c0ce b33d 7566 c63d 6547 373d 44e3 c8bd
00000300: 41a1 5ebd 4cfb 5fbd def9 c8bd 3b58 d1bc
00000310: 10f2 133b cc70 4a3e 3585 153d a92b a33d
00000320: 6356 71bd f5b2 393e 5556 6abc 50ba 9d3d
00000330: e794 a9bd 5580 d33c 896b b2ba 3b47 92bd
00000340: f74d 5f3e 3351 0a3b c623 da3d b7de 4f3e
00000350: 4723 36be 7c03 6c3d c33e 893c e371 b7bc
00000360: 13e9 84bc 352e b03c 6350 3cbe 38dc ce3d
00000370: 4fc8 ed3c 111f 053e 4cb8 4b3e 4f72 933c
00000380: 83d4 92bd 4d99 0dbd 875a 99bd e631 02be
00000390: 368d 613d 3e37 1b3d b47c 073e e212 49bd
000003a0: 4c59 2cbd e1ff 853d 5e6f 133e 190a bd3d
000003b0: 61c4 de3c 5cae cd3d 5eb9 00bd c1e3 13bb
000003c0: a8c0 d6bd 7b13 76bd 2525 273d 1033 a73d
000003d0: 6e9d 6a3d 7a4b 48bd 9fff 28bd d2da 0c3d
000003e0: c3cf 94bd 6c33 e2bd 6659 91bd 9457 e4bc
000003f0: 1693 a23c 3403 8e3c 8180 0dbe bb78 7e3d
0.06552527 -0.09173 0.04315744 -0.062649146 0.018923184 0.03805035 -0.08352418 -0.073900834
-0.073296756 0.08169179 -0.038074315 0.09493602 0.0076786033 0.06868789 0.10807042 0.119151205
0.031956956 0.07730491 0.08122077 -0.08482364 -0.10234673 0.27552795 -0.08049618 -0.053794816
-0.009461782 0.20943429 0.01634698 0.173257 0.16890714 -0.096172564 -0.05562743 -0.07712407
0.15901726 0.030530537 0.16064921 -0.14949925 -0.09052062 0.08228083 0.083891064 0.052381437
0.082446426 0.14464602 0.16067222 0.17792246 -0.04469038 -0.03266502 -0.003918326 0.10272988
-0.08991098 0.022497093 -0.089242555 0.013305957 -0.14754148 0.12580954 -0.037148815 -0.05628468
0.06825102 0.120591916 0.14894885 0.07915589 0.025095053 -0.068232805 -0.0019536603 -0.122767955
0.03986575 -0.041647673 0.011870691 -0.08721631 0.12366132 0.040506545 0.03933504 0.15629886
-0.028087761 -0.040827435 -0.02532103 0.0911444 0.06847379 -0.027415667 0.03481919 0.16930674
0.032255515 -0.08062115 0.0680467 -0.0782094 -0.05210602 0.010523931 0.050740793 0.047405165
-0.03846979 0.014871473 0.1185772 0.03741859 -0.04211659 0.12765482 0.021295896 -0.0811922
0.0475397 -0.14414671 0.044820033 0.11980306 -0.056732558 0.21862167 0.18999636 0.047210168
-0.11669794 0.342708 0.1543553 0.048827965 0.16026261 0.11965294 0.0038296445 -0.20000573
0.23810418 -0.1276955 0.069587894 0.19237912 -0.06002579 0.18297875 0.11737325 0.0571522
-0.08003702 0.31378785 0.17681924 0.13458104 -0.035670664 -0.0044455733 0.0057294727 -0.021679912
0.18295781 0.025673682 0.12602814 -0.07211091 -0.06131673 0.11709478 -0.024076017 -0.062225744
-0.07600305 0.04271003 0.02548034 0.11662094 0.16868326 -0.00272582 -0.110147394 -0.0598921
0.11811313 0.0484919 0.07787383 0.08490376 -0.06516572 0.23566331 0.034860283 0.05666711
0.09340179 0.029236145 0.10625305 -0.022954695 0.06498302 0.10840934 -0.16374268 0.1204608
0.04338109 -0.1125397 0.036427718 0.03567719 -0.003010255 0.028492766 0.15625753 0.16791174
0.119839035 -0.12706307 0.0043103453 -0.14670585 0.022752132 0.011565226 -0.09320679 0.006561134
0.08973002 0.036529314 -0.022486817 -0.015105142 0.05358561 0.083823055 0.0866746 -0.15870595
-0.017056145 0.3432205 0.14063598 -0.09866399 0.08779669 0.09687511 0.04474582 -0.098089725
-0.054353002 -0.054683015 -0.098132834 -0.025554767 0.00225747 0.19769591 0.03650399 0.07967312
-0.058920275 0.18134673 -0.01430281 0.07701552 -0.08280354 0.02581803 -0.001361237 -0.071424924
0.21807085 0.0021105527 0.106513545 0.20299803 -0.17786895 0.05762051 0.01675356 -0.022393173
-0.01622442 0.021506408 -0.1839004 0.10100597 0.029026179 0.13000132 0.19894522 0.017998843
-0.0716944 -0.034570027 -0.0748797 -0.12714347 0.05506631 0.03789448 0.13231164 -0.049090274
-0.042077348 0.06542946 0.14397952 0.092304416 0.02719325 0.10043022 -0.03142678 -0.0022566172
-0.10485965 -0.06007717 0.04080691 0.08164036 0.057279043 -0.048900105 -0.041259404 0.03438837
-0.0726619 -0.11044964 -0.070971295 -0.027873792 0.019845527 0.017335512 -0.13818552 0.062126856

gru.weight_hh_l0_reverse f4 [192, 64]
00000000: 6422 d1bd 6a51 c43d 94cd 7abd 2ab1 88bd
00000010: d667 bb3d 87ea e63d ed10 fdbd 0f27 8cbd
00000020: a041 023e 1fd6 ed3d 7b5d ab3d 7e38 a63d
00000030: 2000 a2bd bac2 843d 8503 963d dbdb 35bd
00000040: 5ef8 37be 6b04 4f3d 70e3 503d 6598 a4bd
00000050: c95c ce3c dabe c93c ff84 20be 6294 6ebd
00000060: 6acc 2cbd 0505 943c 3ca2 18be 80a3 a13d
00000070: c81f ae3d b2e5 b5bd 7b46 8b3d 4d0d a2bd
00000080: 1014 e33c 84d9 1f3c cdb3 26be b8d8 17be
00000090: 9316 3bbe 4437 313e e81c bebc 5917 823d
000000a0: 44c9 723d 07f6 74bc 54ce 1c3d 9212 3e3d
000000b0: 0d1d 0fbc 3f8b 1d3e ce1e 9e3c 3ab0 8ebc
000000c0: 74d5 fa3d b571 373d cd09 723d e1af c6bd
000000d0: 78e3 f8bd ac2d 38bd ae8c 21bd db95 2fbc
000000e0: c1ed c13b e6f7 0a3e d917 e83d de24 d93c
000000f0: 5392 78bd 7c4f ddbd 984d f4bd c6e9 66be
00000100: eaf7 88bd eabb e1bc 079e a8bd a48c 323d
00000110: 9371 2cbe 8547 f23d ea8c 613c 50c3 3d3e
00000120: d016 b93d ba73 aeb9 95dd e7bd cdef de3c
00000130: 6803 c13d 75be c63b e7e8 103c 9778 fdbc
00000140: 5dff 063e 5407 293e 804f 9b3c 171c 283e
00000150: f7e0 f1bd 6528 c23c 5f60 e73d 14f9 063e
00000160: 5dd5 e43d ceea 4d3d 3c5a 743d a621 033e
00000170: 227e 123d ae16 d9bd d1a8 03be f4ad 65bd
00000180: 42fe 9b3d bad7 b5bd 37df fa3d 7d9a b7bd
00000190: 79d4 70bd 3727 00be 4e9f 52bc 9696 c5bd
000001a0: c2a8 0ebd b28c fcbc 6e0c 033d 7b50 213e
000001b0: 1eb3 4ebd 108b 2dbe 7341 bf3c adc2 54bd
000001c0: 20ae 71bd 375f 9ebd 90bf 1abe a252 54bb
000001d0: 0470 e23d 388c 583d eaf8 6abc cfc7 1abb
000001e0: 1bf0 dbba b55b 3bbe a446 003e d368 2fbe
000001f0: c563 85bc 40eb 7b3a 310a b9bb dce4 6d3e
00000200: 7e7f 813d b958 26bc d86d 413c 25cb 25bc
00000210: 34ff d43d 91ec 7dbd 2dc8 e13d 2d60 94bd
00000220: 9c65 babc 7dd9 bebb 4e4b bb3d 40a3 8cbd
00000230: e7f3 9dbc afd5 4c3d 0136 c2bd f4be d13d
00000240: 4db0 713d e221 1b3d 6bac b6bc c294 1fbe
00000250: 7db4 383d 3180 edbd b45d 963d be70 ca3d
00000260: 6ac4 9abd 5241 48bd d1ec bdbd fbc7 e1bd
00000270: 5ea0 44bd cd67 0abe 2a6d 803c 72a0 6abd
00000280: a8dd fb3d c37f 273c 5d3c d1bd 991b 773d
00000290: 4e27 223d c307 233d 6642 dabd 2fa0 87bc
000002a0: c573 433e 4eaa c53d 563d c33b 5cf5 8e3d
000002b0: 3796 4a3a 51a1 413b 84d5 223e aab1 00be
000002c0: 12ea 0c3d f617 153e e460 5ebd 1039 f73b
000002d0: abbd 95bd 1a6c 10be 80b5 77bd 231d b9bd
000002e0: 110b 01be 8fac 1abe a4f7 acbd 148f 0abe
000002f0: 1af9 6bbd 8143 ae3c 8297 d4bd 14e8 d63d
00000300: ce98 9f3d 23d8 19be ba80 ec3d 416a d83c
00000310: b4b0 2a3d 40c1 aabb 9c94 513d e89a 7fbd
00000320: a404 25bd 1ae6 b83c a01f df3c 319d f5bc
00000330: db27 023e 924c 973d 407d b9bd 906c afbd
00000340: e7d5 443c a28e a4bc 9c2b 64bd 14f9 c5bd
00000350: 331e 08be fc6e e5bc 04f4 b83d 0af0 bfbd
00000360: 3ac1 3bbd 5e63 ee3c fd15 103e 2551 473d
00000370: cb50 e23d d5c8 813d 7304 0a3e 7b85 053e
00000380: 575d d5bd 3010 e73c 2f5d ffbd 1c5e d03d
00000390: 51a4 d23d 8218 9938 feef 863b 455d 5fbd
000003a0: 8ecf 83bd 5dc4 873d 7132 efbd 9184 c7bd
000003b0: cf00 803d a447 a13d fec2 1e3c c274 44bd
000003c0: 9c2b abbd b5f0 39bd b415 0abe ff06 53bd
000003d0: 3b9e 003e 6407 663c c148 803d ce92 cfbd
000003e0: 09c3 f1b9 3475 9d3d b336 963d 8b4d 9c3c
000003f0: f645 ce3d 7770 4a3e 7c22 57bd 5c55 81bd
-0.102116376 0.09585841 -0.06123121 -0.06674416 0.091506645 0.11275201 -0.12356744 -0.06843387
0.12720346 0.11613106 0.08367439 0.08116244 -0.0791018 0.06482454 0.0732489 -0.044399124
-0.17965838 0.050541323 0.05099815 -0.080368795 0.025190728 0.024627138 -0.15675734 -0.058246978
-0.042187132 0.0180688 -0.14905638 0.07892513 0.085021555 -0.088817015 0.068005525 -0.07912693
0.027719527 0.00975645 -0.16279526 -0.14828765 -0.1827033 0.17306238 -0.023207143 0.063521095
0.059273973 -0.014951236 0.038282707 0.04640443 -0.008734954 0.1538515 0.019301798 -0.017418016
0.12247744 0.044786174 0.059091378 -0.09701515 -0.12152761 -0.04496543 -0.039440803 -0.010716881
0.005918235 0.13571128 0.113326736 0.026506837 -0.06068642 -0.10806176 -0.11928862 -0.22550115
-0.06687911 -0.027555425 -0.08233266 0.043591157 -0.168402 0.118300475 0.013766507 0.18531537
0.09037554 -0.0003327409 -0.1132156 0.027213955 0.09424478 0.0060651847 0.008844591 -0.03094129
0.13183351 0.16506702 0.018958807 0.16416965 -0.11810487 0.023700902 0.11297678 0.13180953
0.11173508 0.050272755 0.059656367 0.12805805 0.03576482 -0.10600029 -0.12857367 -0.056074098
0.07616855 -0.08879037 0.12249606 -0.08965013 -0.05879638 -0.1251496 -0.012855364 -0.096478626
-0.03482891 -0.030828808 0.031994276 0.15753357 -0.05046379 -0.1694758 0.023346638 -0.05194347
-0.05900395 -0.077330045 -0.15112138 -0.0032397886 0.110565215 0.052868098 -0.014341572 -0.002361763
-0.0016779931 -0.18296702 0.12526947 -0.17129831 -0.016282925 0.0009609945 -0.005646967 0.23231834
0.06323145 -0.010152989 0.011805974 -0.010119234 0.10400239 -0.061993185 0.110245086 -0.072449066
-0.02275353 -0.0058242665 0.091452226 -0.06867075 -0.01928134 0.050008472 -0.09482957 0.102414995
0.059006024 0.03787411 -0.022299012 -0.1558409 0.045094002 -0.11596716 0.07342091 0.09884785
-0.07556994 -0.04889042 -0.09273685 -0.11024471 -0.0480045 -0.1351616 0.015677053 -0.05728192
0.12298137 0.010223332 -0.102165915 0.060329054 0.039588265 0.039802324 -0.10657196 -0.016555874
0.19087131 0.09651624 0.0059582395 0.06980392 0.0007728072 0.0029545615 0.15901762 -0.12567773
0.034402914 0.14559922 -0.05429162 0.007544644 -0.07311567 -0.14103737 -0.060475826 -0.090387605
-0.12601878 -0.15104888 -0.08445671 -0.13531142 -0.05761061 0.021272423 -0.1038046 0.10493484
0.07792817 -0.15023856 0.1154799 0.026417853 0.041672423 -0.0052110255 0.051167116 -0.06240359
-0.04028763 0.022570658 0.02723676 -0.029982181 0.12710516 0.073876515 -0.09057093 -0.085656285
0.012013889 -0.020087544 -0.05570565 -0.096666485 -0.1329277 -0.028007023 0.09030917 -0.09371956
-0.045838572 0.029100116 0.14070888 0.04866137 0.11050566 0.06337134 0.1347826 0.130392
-0.10418194 0.028205961 -0.12468945 0.101742 0.10285247 7.3001735e-05 0.0041179648 -0.054532308
-0.06436072 0.0662925 -0.11679543 -0.09742082 0.06250154 0.078749925 0.009690044 -0.04796291
-0.08357927 -0.04539557 -0.13484842 -0.051520344 0.1256036 0.014039848 0.06263877 -0.10135423
-0.00046112415 0.0768837 0.07334652 0.019079944 0.10071938 0.19769464 -0.05252312 -0.06315109

gru.bias_ih_l0_reverse f4 [192]
00000000: f208 583c b13a d73c 39d4 8a3d 4ddc ebbc
00000010: 4d06 ad3d c901 38bd bb48 c0bd 85f1 823b
00000020: 749f 143e d3af bf3d 74e9 a1bd 351c 853d
00000030: 8dcd 303d 3e3c 01be 1033 8dbc 2f60 30bd
00000040: 9920 163e f1b1 613d cb99 f8bb 4ff6 73bd
00000050: 8361 a3bd 57ab 213e d425 28bd f619 a63b
00000060: 8a40 b4bb 90d8 353d 4384 2fbd af19 1f3d
00000070: 5c34 babd 92a8 1dbd a1eb b93c b8d6 17bd
00000080: 4245 c1bd 6a54 f1b9 98ef ac3d c5d2 9a3d
00000090: 5083 bfbd c8da b33d ae19 22bb a191 073e
000000a0: 93e4 213d 0854 ba3d 0ff9 9b3d 608c dabc
000000b0: c120 27bb 2f4e 99bd 2780 473d 69e6 ba3d
000000c0: 5937 e33d c230 e83c 692e eabd 755e 9c3d
000000d0: 627d 10bc 2d58 d83c a2e2 043d d259 c23d
000000e0: b8af ccbb 4a5d 1ebd 8878 3d3d 4e2d 553c
000000f0: 4b41 903d 2055 19be 578b 9ebd f4bb b33d
00000100: 663a f9bd 4256 ea3d e2e0 953c 44fb 5e3c
00000110: 0569 f23d 52cf 68bd 27c2 133e bf07 183e
00000120: 94ae 1b3e de60 1c3e 0096 193c e752 f13d
00000130: c44b 4e3b 8b72 bf3c f89b 133e 4530 10be
00000140: f93d 08bc ce67 36bc 90db df3c 6f52 883d
00000150: bba6 153e b090 013e 353c 473c 36d4 c83d
00000160: 8bab 84bd b930 62bc ed1f 93bd e033 ff3d
00000170: 8d6d 0f3b 9e6b e63d 01a1 b3bd 86c5 143d
00000180: 00ff 40bc 88ce fe3d 2977 ec3d 59f3 113e
00000190: ed3d fbbd df37 7eba 0895 a6bd 4824 50bd
000001a0: e670 963d eaf4 033a 0a4e e53d 7b1e c83d
000001b0: 8cb0 8e3d d8de bdbd 1af0 853d 78c3 033d
000001c0: d63f 76bd df8b 423e 47bc 15bb f38d 17be
000001d0: c793 78bc a6a9 26bc 50e5 003d 1d59 29bd
000001e0: 67c2 73bd 127e fe3c 834a 683c 929f c4bc
000001f0: 3e89 9bbd 2505 db3a 3665 c1bd 13b0 e73d
00000200: 0e9b 85bd e36c d4bd a43d a7bd 42e5 c13d
00000210: bb46 c93c 3c70 89bd 9f47 b43d 3ce5 f5bd
00000220: 57d8 d7bd 0eca 303d 9d87 973c f552 cdbd
00000230: a075 99bd 7069 67bd 771c a23b a32f 15bd
00000240: 801b 423d 88fe df3d ce5c d1bd 510b f1bd
00000250: 1026 7e3d 1e08 83bd 4b1a 0cbd ae24 33bd
00000260: 625e b0ba 1dcc 4c3d 9000 c2bd 4e49 7e3d
00000270: 2339 eabd 6276 a1bc 8bc9 073c 2245 683d
00000280: bda8 f43c 7a9d 27bc b6ab d9bd 5e7d a43c
00000290: 658f debc 0666 e53d 7e6b 06bb 47e4 003d
000002a0: 8b8e 013e 203d b4bd 8e84 b13d 5c51 abbd
000002b0: 10b7 bd3d c129 393d 6437 f73d 3d60 a03d
000002c0: b229 dc3d 824c f23c 7c3b 12bc 7a2e 3d3d
000002d0: 4a0b 723d 5c77 4a3d 9e61 bf3d 55fe 003c
000002e0: 1586 85bd 618f 51bd 39e6 e5bd b88b 16bd
000002f0: 4ddc c5bd de46 ecbd 52f1 be3d 9d65 653d
0.0131857265 0.026273103 0.067787595 -0.028791571 0.084484674 -0.044923577 -0.09388872 0.0039960765
0.14513952 0.09359708 -0.07905856 0.06499521 0.04316478 -0.12620637 -0.017236263 -0.043060478
0.14660873 0.05510134 -0.007586693 -0.05956107 -0.07977583 0.15788017 -0.0410517 0.0050690128
-0.0055008577 0.044395983 -0.042850744 0.038842853 -0.09092018 -0.03849084 0.022695364 -0.037070006
-0.09437038 -0.00046029995 0.084441364 0.07559732 -0.09351218 0.087819636 -0.0024734545 0.13239147
0.039524626 0.09098059 0.076158635 -0.026678264 -0.00255017 -0.074856155 0.0487062 0.091259785
0.11094541 0.028343562 -0.11434633 0.07635204 -0.008818956 0.026409233 0.032442696 0.09489788
-0.0062465332 -0.038663186 0.046257526 0.01301129 0.07043704 -0.14973879 -0.07741421 0.087760836
-0.12169342 0.114422336 0.018295709 0.013609711 0.11836437 -0.05683834 0.14429532 0.14846705
0.15203315 0.15271327 0.009374142 0.117833905 0.0031478265 0.023370048 0.14414966 -0.14080913
-0.008315557 -0.011133147 0.027326375 0.06656348 0.14614384 0.1265285 0.012160351 0.09806101
-0.06478032 -0.013805562 -0.07183824 0.12461066 0.0021885366 0.11250995 -0.087709434 0.036321186
-0.011779547 0.124417365 0.115461655 0.14252986 -0.12267671 -0.00096976565 -0.08133894 -0.05081585
0.073457524 0.00050337485 0.111965254 0.09771439 0.069672674 -0.0927102 0.06539936 0.032168835
-0.060119472 0.18998669 -0.0022847818 -0.14800243 -0.015171952 -0.010172283 0.03146869 -0.04134475
-0.05951157 0.031065974 0.014177921 -0.02400187 -0.07594536 0.0016709907 -0.094431326 0.1131288
-0.06523715 -0.10372331 -0.08166054 0.094675556 0.02456986 -0.0671086 0.08802723 -0.120066136
-0.105393104 0.043161444 0.018497283 -0.100255884 -0.07493138 -0.056497037 0.004947241 -0.036422383
0.047389507 0.1093722 -0.10222779 -0.117697366 0.062048018 -0.063980326 -0.034204762 -0.043736152
-0.0013455863 0.049999345 -0.094727635 0.062081628 -0.11436679 -0.01970977 0.008287798 0.056706555
0.029865617 -0.010230416 -0.106284544 0.020079311 -0.027167985 0.112011 -0.0020510848 0.031467702
0.12652032 -0.08800721 0.08667861 -0.083651274 0.09263432 0.045205835 0.12071112 0.07830856
0.1075014 0.029577497 -0.008925315 0.0461869 0.059092797 0.049430236 0.09344791 0.0078731375
-0.06519715 -0.051162127 -0.11225552 -0.03675434 -0.0966116 -0.11536954 0.09323372 0.05600511

gru.bias_hh_l0_reverse f4 [192]
00000000: 3094 03bc 4063 9ebd 305a 123e 0393 b63d
00000010: 692a 233e 8908 023e c9a0 3ebd 15cc 5e3d
00000020: f440 46bd e069 24bc bebe 6abd 7d27 9cbd
00000030: cac0 c63d 54e9 7f3d 9aa6 bcbd 4e52 d93d
00000040: 0978 fd3d 6a42 bfbc 910e 92bd fa40 8d3d
00000050: 1704 043e a874 8a3d 3c97 073d 395b 0f3e
00000060: e4c8 15bd cef6 5ebd 2ed8 0a3e 7b2a 233d
00000070: 0cf2 aa3d 901f eebd 600e 84bd 66a9 1e3e
00000080: adc6 b93c 8364 f7bc f329 73bd 95f7 13bd
00000090: c201 bd3d a11a b3bb 328e ec3d c358 d73d
000000a0: e6dd 163e b37a 2cbd 983a 63bd c4fa 143e
000000b0: 4f8b de3d 9b6b 8fbd 21f2 f73d 6e25 1a3e
000000c0: 0d4d 4f3d 2150 423d a1cb d93d f94c 1c3e
000000d0: 4557 f1bd 9414 5bbd 7c8b 28bd 5cc3 233e
000000e0: dfd4 7ebd be67 bb3d a935 08bc 1b24 f83c
000000f0: 0d97 f53d 4610 abbd f6a0 01bc 6c86 da3d
00000100: 6a17 bd3d 132e 733d 1e1c 0fbd 6109 7abd
00000110: dbd1 9abd 47c4 123e 1b2c 06bd 2870 f83d
00000120: f405 10bd 7671 b13d 785b 973d 75bd 9bbd
00000130: 3a72 663d 66f5 18be 7ce6 133e c8f5 1e3d
00000140: caa2 92bd 1bb3 e93d 2e61 62bd 01ba 26bd
00000150: f1f3 0b3e d96a d8bd 6999 613c fb6d 0b3e
00000160: b9f6 413c da10 213c 23d3 953d c839 273e
00000170: b74b 13be ac72 463d 33e1 dc3d f19d 3fbc
00000180: cfbd 98bd 7fcf e43d eb81 b7bd 2da3 c73d
00000190: e55c 9abd e8cd c93d d54b 23bd fe91 133e
000001a0: 9326 2b3d 22af 8cbd c52b 0e3e bfa9 cfbd
000001b0: 66c2 42bd c886 5bbd 0a35 3ebd ca83 f03d
000001c0: 89e6 9d3d b49d 963d 44d6 c0bd 98bd 9bbd
000001d0: 0164 ac3d 5799 953d b2bc d4bc b25c 0b3e
000001e0: bf75 0b3d a1e4 0c3d 530d 4fbd ab00 c33d
000001f0: 9e2f 203e 4394 f9bd c713 07be c00e 6fbd
00000200: 0d8c 96bd bf8f 00bc 51e4 1f3c 4d12 b83d
00000210: 7602 b63d beca 393d b857 0b3d 60c4 b7bd
00000220: 193b a2bd 209d 883c ccc3 b2bd c8fd 483d
00000230: 4b9b 5e3d b50a 95bd c953 a13c a000 083c
00000240: 9703 d33c 2492 f73b 1a9c 8fbb c44a 883d
00000250: 3463 43bd 716c 3d3b 5732 6c3d 48e8 58bd
00000260: b7d6 02bc c977 92bd 6040 d7bd 645d 5a3d
00000270: 00c7 3ebd 2d12 1e3d 83a6 07be c4df a03d
00000280: 384e 773d e28f e83d 4596 f83d 54da f5bc
00000290: 7297 e13d b7ed be3d 1545 a8bd dc77 f03d
000002a0: b377 cebc b73b b7bb 2779 03bb e8dd acbc
000002b0: 554a 04bd c63e 94bd 29b3 b9bd c4f6 97bc
000002c0: ff86 21bd d1f1 20bd b97b df3c 717d b9bc
000002d0: 6128 09bd a60c a3bd f5cd a93d 93eb f0bd
000002e0: f860 e53d 566a 11bd 8027 eebc b25d c33c
000002f0: 8bc5 be3d 432f 6a3d 9314 df3d e6f4 7fbd
-0.008030936 -0.07733774 0.14292216 0.08914759 0.15934147 0.12698568 -0.046540055 0.054393847
-0.048401788 -0.010035008 -0.057310812 -0.07624719 0.0970474 0.06247838 -0.09211464 0.106114015
0.123764105 -0.023347098 -0.071316846 0.06897159 0.12892185 0.06760532 0.033103213 0.13999642
-0.036568537 -0.05443459 0.13559029 0.039835434 0.08346948 -0.11627114 -0.06448054 0.15494308
0.022677744 -0.030199295 -0.059366178 -0.036124784 0.09228851 -0.005465821 0.11550559 0.10514977
0.14733085 -0.042109203 -0.0554758 0.14548784 0.10866415 -0.07002946 0.12106729 0.15053341
0.05061059 0.047439698 0.10634542 0.15263738 -0.117842235 -0.05348642 -0.041148648 0.15992492
-0.06221473 0.091506466 -0.008313575 0.030290654 0.11991701 -0.08352713 -0.007911911 0.1067017
0.092329815 0.05937011 -0.034938924 -0.0610441 -0.07559558 0.14332686 -0.032756906 0.12130767
-0.035161927 0.08664219 0.07390493 -0.076044954 0.05626128 -0.14937362 0.14443392 0.038808614
-0.07159956 0.11411115 -0.05526846 -0.04070473 0.13667275 -0.105672546 0.013769486 0.13616173
0.011838608 0.009830678 0.07315662 0.16330636 -0.14384352 0.048449203 0.10785141 -0.011695371
-0.07458078 0.11172389 -0.08960327 0.0974792 -0.075372495 0.098537266 -0.03986724 0.1441116
0.041784834 -0.068693414 0.13883884 -0.101397984 -0.047548674 -0.053595334 -0.0464373 0.11743887
0.07709987 0.07354298 -0.09415868 -0.076045215 0.08417512 0.07304638 -0.025968883 0.13609579
0.03404784 0.034397725 -0.050549816 0.09521612 0.15643165 -0.12186482 -0.13191138 -0.058363676
-0.07350931 -0.007846772 0.009759025 0.089878656 0.08887188 0.045359366 0.034019202 -0.089730024
-0.07921428 0.016676486 -0.087287515 0.04907015 0.054347318 -0.07277433 0.019693272 0.00830093
0.025758548 0.007555263 -0.0043826224 0.066548854 -0.04770203 0.0028903747 0.057665195 -0.052955896
-0.007985762 -0.071517535 -0.105103254 0.05331172 -0.0465765 0.038591553 -0.13247113 0.0785518
0.06037733 0.113555685 0.12138037 -0.030011334 0.11015214 0.09322684 -0.08216301 0.11741611
-0.025203561 -0.0055918354 -0.0020061226 -0.021101907 -0.03229745 -0.072385356 -0.09067375 -0.018550284
-0.039435383 -0.039293114 0.027280675 -0.022642823 -0.033485774 -0.07961397 0.08291236 -0.11763682
0.11200136 -0.0355018 -0.02907157 0.023848388 0.09315022 0.05717398 0.10892596 -0.062489413
