try2_simDataset2/30bp_SingleConserved_s5_UnifBG_pretrainedGen.pth (torch, 68175 bytes, 7 tensors)

embeddings.weight f4 [6, 16]
00000000: d7ec 0640 194b 62bf 3d95 f5be bc8c 6f3f
00000010: 3c05 d0be 58aa ac3f 6565 80bf 6d4c 82bf
00000020: 3ff5 253f a3a9 603e 8dd2 2a3f ebd6 b63f
00000030: 73df 84be 5a88 9e3d 6df4 1abf abca abbf
00000040: 513c 7dbf 0a83 c3bd 1aa8 3f3f a812 d9be
00000050: 525f a7bf 2a7f b9bf 91ae 1e3f f40d ba3f
00000060: 9ded c9bf e415 a0bf 8af1 4cbf b69c a23e
00000070: 935a 933f e7f2 edbe 4527 073f 6dd5 bfbe
00000080: 55fd d3be d43b 3d3d 1b50 b3be b37f b7bf
00000090: d754 1fbf a5ac c43d 8685 5abf e562 1b3f
000000a0: 4d71 e5be 1e06 94bd cc4e 13c0 3ddb fe3e
000000b0: 8641 d9bf 5bfa 7c40 d7a3 873f a9ce abbe
000000c0: 214b b93e 608c 75bf 9920 c2be db49 b03c
000000d0: c0d6 bc3f 1b74 aebf e983 f23f 9eb7 4d3f
000000e0: 1322 8dbe 9f89 b33f 0b8c f9be 7dd7 39bf
000000f0: 57ea b93e 1a05 133f 3576 273f 8471 13bf
00000100: 049a 903f 1601 843f aa1f 853f c349 713f
00000110: d27a 313f 9ce6 ecbe 279b 8a3d 52eb a53f
00000120: 2fb2 393e b958 ce3e 0483 da3c b199 f53f
00000130: 644c 2a3f 6ce5 c83e 366f febe 0fbb 8dbf
00000140: 3012 333f 41a5 c8bf eb5a 963e c733 61be
00000150: e098 8dbe 0ad9 4bbe 4edb c2bf 13f8 e8bf
00000160: e403 3b3d 9920 6a3d ce17 123f 1c5b a03e
00000170: 3ded 86bf d9f6 1c3c 3286 0e3f 96a2 fc3f
2.1082056 -0.8839584 -0.47965422 0.9357412 -0.40628994 1.3489485 -1.0030943 -1.0179573
0.6482734 0.21939711 0.66727525 1.4284338 -0.25951728 0.07740851 -0.60529214 -1.3421224
-0.9892016 -0.09546478 0.7486588 -0.42397046 -1.3075964 -1.4491932 0.6198512 1.4535508
-1.5775639 -1.250668 -0.8005606 0.31760186 1.1512016 -0.46474382 0.52794296 -0.37467518
-0.41404215 0.046199635 -0.35022053 -1.4335846 -0.6223883 0.09603242 -0.8535999 0.60697776
-0.44813004 -0.07227729 -2.3016844 0.4977664 -1.6973121 3.9527805 1.0596875 -0.33556107
0.3619013 -0.9591732 -0.37915495 0.021519592 1.4753036 -1.3629183 1.8946506 0.803583
-0.2756506 1.4026374 -0.48739657 -0.72594434 0.363116 0.5742966 0.65414745 -0.57595086
1.1297002 1.0312831 1.0400288 0.94253176 0.69328034 -0.4626969 0.06767874 1.2962439
0.18134378 0.40302065 0.026673801 1.9187528 0.6652281 0.39237535 -0.49694222 -1.1072711
0.69949627 -1.5675431 0.2936624 -0.21992408 -0.27655697 -0.19907013 -1.5223176 -1.8200706
0.045658007 0.057159994 0.57067573 0.3131951 -1.0541149 0.009580337 0.55673516 1.9737117

gru.weight_ih_l0 f4 [192, 16]
00000000: 47a9 a83b 2f44 b1be 4735 223c e4ed f53c
00000010: 37c8 38bd 4b08 6abe 46ac 49bc 350a 9dbd
00000020: 615b 8abd fb12 103e 59e6 163e 5625 e73c
00000030: 83aa 0fbe 4041 843d 9fdf 4dbc 4d6c 253d
00000040: c63a 04be ed4c 20bf 4366 19bf a8bb 05be
00000050: ab9b f43e 628a a4be 4660 213f ef1b c8bd
00000060: 0a72 84be 21a7 e43e af13 8b3d 3aa8 56bf
00000070: 5240 243e 1de0 bfbe f120 353e 5a1a 413e
00000080: bb4f 7c3e 3b5a edbe 4977 9d3e 156d 423e
00000090: e520 943d 45bc bcbe ead8 f13d 9293 e8bc
000000a0: 3880 f13b dd15 623e eca9 093e ce3e 0ebb
000000b0: 4f7e 943d 4917 343d 575b 64bd 7edc 883e
000000c0: b699 f13b a751 ea3d d471 75be ad7b 37bd
000000d0: f8fe 9fbc f01e 653e 818d 40bd b75f dbbd
000000e0: a0a4 4d3e 0426 73bd fcae e53d 49ea ffbb
000000f0: 5c68 a2bd 1c5f 0abe 5030 8bbd e46d 2fbe
00000100: 0d59 11bf 2d0c aebe cdca fcbe add0 b7be
00000110: 7451 e9be c57f 3b3e 5f12 55be 7fae 67be
00000120: adbf c9be a5ef a3be 65a8 bcbe 75df 87be
00000130: 0657 d7be e769 a93e ddd5 ed3e 6c50 7d3e
00000140: 6e6d ae3d ddec ee3d 725b 1ebb 1e00 9f3d
00000150: f3ed 0e3d 6f89 f2bd 2fca 233e c1d1 d4bb
00000160: a0da 7d3e 2835 283e 9b0c ce3e 0482 f8bd
00000170: dfb0 053e 2da0 90be 3293 c3bd f560 07be
00000180: c776 073e cf5d be3d 9556 863c 48e3 763e
00000190: c578 723e aa8a 68be 4b36 4d3e 4606 b83e
000001a0: 74b6 1cbe bc40 be3d b5ed 3dbe ab62 d33d
000001b0: d8ec 343e be25 aa3d bfb0 e13d c878 a4be
000001c0: c2bc b43c c8aa 7bbc f8b4 82bd 7193 66bd
000001d0: d871 8b3b 0a1e 55bd b88d 5fbd 3506 753c
000001e0: 33ea 1dbe 614d 903c b5af 05be 15aa 393d
000001f0: 414e 013e 849d 8b3e e31b 13be de8d dabd
00000200: 1048 8b3d 050f cebd 9d71 40be 65a5 f6bc
00000210: cb81 a83e 6daa ebbd 3a49 d23e 2867 e63d
00000220: e5b4 41bd 8769 8f3e 6d04 99be 4843 87be
00000230: 5536 513e 6f3d a23e 9899 2ebd 7738 c0bd
00000240: 750b 8a3e bd79 5abe b88a 463e d07c b53c
00000250: 64bc 473b a9fd 923d 0cb1 58be 2869 adbd
00000260: be50 86bd 3098 373e b0a8 aa3d 5c92 143e
00000270: 8fc0 4bbe 14da 5c3d 25aa babc 691a f7bb
00000280: bcc2 8fbd 9fce c53d f6c4 c33d 3291 8ebc
00000290: cb16 463e d61d 0bbe fb77 933e abd9 883e
000002a0: fab1 b3be 80de ae3d 0655 0abe 9ea7 fb3a
000002b0: 4e88 b3bd be33 0e3e 6df7 d03d b96d 943d
000002c0: 5ffc 1e3e 2de6 703c 33ff ba3d d668 c23d
000002d0: 2dec b7bd 6c42 513e 53b3 e1be 3252 083d
000002e0: 76d8 393e fa7d 923a 5093 5c3d 87f2 0b3e
000002f0: bebc 94bc 34f6 613e 3d71 0cbe c177 64be
00000300: 30c9 b83e 6a22 53be 754f 933e 6b48 863e
00000310: 09ae 543e 347f 19bd 911a 0fbe 55c6 37be
00000320: 2302 843e dc6b 5c3e 5188 393e 5fdf 833e
00000330: b368 a0bd e11a adbd 8323 b6bd a0a7 ce3d
00000340: 32dc 4a3e 79d4 d3bd cc0d 733d 75a4 163e
00000350: f62b 8dbc 28b4 7f3e 5309 67bf 8dcd a8be
00000360: 6042 993e 886c 903d fd67 ec3d 5c61 523e
00000370: 89d2 23be 93b4 773e 2a3c aebd 2276 32bd
00000380: 5527 913e 1049 80be b06b 2e3d 2baf 913e
00000390: 995c 103e f580 07be f42a 79be bb5e 95bc
000003a0: 92d8 59bd a364 233e 9114 d7bd 7033 e13d
000003b0: 40f2 d6bd 663c 0d3e 0ddc d53d 36af 25be
000003c0: 393b 763e 8478 db3d 09b7 723c 63b6 e43e
000003d0: d8c8 d23e 8739 69bd 2cd7 f63d fafb cd3e
000003e0: 209b 563e cdf5 373e 09e2 2ebe 7e81 0c3f
000003f0: 0c07 e43d 7b71 e23d ec81 2fbe 0eff f1be
0.0051471326 -0.34622332 0.009900398 0.030020662 -0.045112815 -0.22854726 -0.01230914 -0.076679625
-0.067557104 0.1406974 0.14736308 0.028216045 -0.14029889 0.06457758 -0.012565522 0.040386487
-0.12913045 -0.6261738 -0.59921664 -0.13059866 0.47775015 -0.32136828 0.63037527 -0.09770953
-0.25868255 0.4465876 0.06790864 -0.83850443 0.16040161 -0.37475672 0.17688347 0.18857709
0.2463979 -0.46357903 0.3075507 0.18986924 0.07232837 -0.36862388 0.11808951 -0.02839068
0.007370021 0.22078653 0.13443726 -0.0021704915 0.07250654 0.04396752 -0.05575117 0.26730722
0.00737306 0.11441355 -0.23969203 -0.04479568 -0.019530758 0.22375083 -0.04700995 -0.107116155
0.2008233 -0.059362426 0.11215016 -0.0078099114 -0.07930061 -0.13512844 -0.06796324 -0.17131764
-0.56776506 -0.33993664 -0.49373475 -0.35901394 -0.45569956 0.18310459 -0.2080779 -0.22625159
-0.3940405 -0.32018772 -0.36847225 -0.26537672 -0.4205858 0.3308861 0.46452227 0.2473771
0.08516966 0.11666272 -0.0024163392 0.07763694 0.034894895 -0.1184262 0.15995096 -0.006494731
0.2479043 0.16426528 0.40243992 -0.121341735 0.13055752 -0.28247204 -0.0954956 -0.1322058
0.13228904 0.09295236 0.016398707 0.24110138 0.23678882 -0.22709146 0.20040242 0.35942286
-0.15303975 0.09289691 -0.1854771 0.10321554 0.17668474 0.0830798 0.1102004 -0.321234
0.022062663 -0.015360542 -0.06382173 -0.056292955 0.0042555146 -0.0520306 -0.054578513 0.014955093
-0.15421371 0.017615022 -0.13055308 0.04532822 0.12627508 0.27268612 -0.14366107 -0.1067159
0.06800854 -0.100614585 -0.1879334 -0.030108163 0.32911524 -0.115071155 0.41071492 0.11250144
-0.047291655 0.28010198 -0.2988619 -0.2641852 0.20430882 0.31687495 -0.042626947 -0.0938577
0.26961866 -0.21335502 0.19388855 0.022154242 0.003047728 0.07177288 -0.21161288 -0.084673226
-0.06558369 0.17929149 0.08332956 0.14508957 -0.19897674 0.053918913 -0.02278621 -0.00754099
-0.070195645 0.096585505 0.09559052 -0.017403219 0.19344632 -0.135856 0.28802475 0.26728567
-0.35096723 0.08538532 -0.13508996 0.0019199734 -0.087662324 0.13886926 0.10203443 0.072474904
0.1552596 0.014703316 0.09130707 0.09492652 -0.08980594 0.20435494 -0.44082126 0.033281513
0.1814898 0.001117646 0.053851426 0.13666736 -0.018156406 0.22066575 -0.13715072 -0.22311307
0.36090994 -0.20618597 0.28771558 0.26227126 0.20769514 -0.037474826 -0.13974978 -0.17946751
0.2578288 0.2152552 0.18118407 0.25756356 -0.0783247 -0.08452392 -0.08893492 0.10090566
0.1981056 -0.1034326 0.05933933 0.14711173 -0.017232876 0.24971068 -0.902486 -0.32969323
0.29933453 0.07051951 0.11543272 0.20544952 -0.15998282 0.24189977 -0.08507569 -0.04356969
0.2835032 -0.25055742 0.042583168 0.28453955 0.14097823 -0.13232787 -0.24332792 -0.018233648
-0.053185053 0.15956359 -0.105019696 0.10996139 -0.10495424 0.13792571 0.10442362 -0.16180119
0.24046029 0.10716346 0.014814147 0.446704 0.41168857 -0.056939628 0.120527595 0.40231305
0.20957613 0.1796486 -0.17078413 0.5488509 0.111341566 0.11056801 -0.17139405 -0.47264904

gru.weight_hh_l0 f4 [192, 64]
00000000: 4c29 57bd 2c66 b5be 6af6 193d dae5 583e
00000010: efd6 1dbe 1aa9 febe e268 6b3e d928 bc3a
00000020: cb4e 92be 4ff4 1f3d 5769 04be 4c2d 333e
00000030: 40e0 5abc d729 f63d df4f b43c 6b4c 45bf
00000040: 6d1d d13d 884c 9fbd b310 c6bd 5bce 03bf
00000050: 938d cdbd ea76 3b3e 8f7e 843d e70a 553e
00000060: 746b 92be ac3d 03be ee2c b13d 5fbb 65bd
00000070: 1d8e fa3a 2381 c2be f8c5 0dbe 9bcd 00bf
00000080: 5880 adbd b106 323d 6e83 163f c8a2 2dbe
00000090: b536 28be b37c c73e 946b b4bd d9b0 8dbe
000000a0: 5370 1d3e 9ebb 9c38 2e6d 67bd 5c74 dabb
000000b0: 45dc b2be 0290 eebd 8ba2 92be 1ff5 213e
000000c0: f46f a6bd b884 863c aa23 e73e 67aa 9cbe
000000d0: 3265 9f3c 522d d3bd bda1 b53e 3f35 6d3d
000000e0: 3357 10bd f803 eabd c826 923e a0db 353d
000000f0: b8fc 1bbf a1fb 923e ae58 4cbf 9aa8 64be
00000100: 2e41 5f3e 3ad3 db3e dad0 10be ae9a 58be
00000110: 860a 43be 7837 bebe cc48 77bd 13ec 2d3e
00000120: 529e 133f 1f3c 19bd cce7 963d 9e2d 70bb
00000130: 15b9 53bd 8c36 c63c 427d c13d 3889 763c
00000140: a2b9 d73d 275e 27be 9c7d 5b3d 9b4a 9bbe
00000150: 3412 74bd b2ad d8bd 7692 413d e31b f2bd
00000160: 58f7 96be 793e b4bd 1c1b 21be 109c 2c3e
00000170: 20d7 a0bd 7d26 fb3c 86be 243e d118 2e3e
00000180: d4e6 bcbe 6c16 833d 4211 493e b7a8 803e
00000190: 0251 f03d ed8c 76be d1c2 20bd 42c6 ea3e
000001a0: ddcb 963d cb5c d9bd 71ae abbd 4bf0 e13c
000001b0: 8abc 5bbe bf32 8c3e 8973 cebd 8a3a 1cbd
000001c0: 07bd 48bd 6aab aa3e aa71 853c bd07 cdbd
000001d0: ebbc d63e 0553 2e3e 2e93 1cbd 488e 06bc
000001e0: 37e1 10bd 7f29 593b 6277 c93d d232 433e
000001f0: d94e aa3d 3064 233e 215a 123f a0d5 5a3d
00000200: 1bfa abbd 4d45 12bf 2729 9ebe b230 52bc
00000210: 7dc3 53be 871b 43bf 86b6 f13c 0a8f 01bf
00000220: 6f4c 89be 93d7 ac3d b202 973c e72e 053e
00000230: e93c 603e b795 623d eb91 e8bd 1669 0abf
00000240: 1ca2 94bc ae39 6a3d 0086 ffbd 2c92 2ebe
00000250: bd81 acbd 6587 043e e40f 72bd 47da cabc
00000260: 4b24 13bf d428 2ebe bfe4 1e3e 35ae 01bd
00000270: 1c27 cebd a1af b9bd 67e3 1ebe 441f 4bbe
00000280: 65dc 173e 477b 24bd 1e1a 023f fd41 86bc
00000290: 4734 9dbc dce7 113e 3480 20bd 9d77 cdbd
000002a0: e56f 14bd e664 d03d 9432 d7bc a052 943d
000002b0: 8395 19bf f9a0 39bd 12a7 82be 19bd cd3c
000002c0: ee91 97bd dbab aabe a57b f23e 7e78 c1be
000002d0: cc09 2e3e 7868 bebd d40b f73e f486 62bd
000002e0: e0f9 c8bd 5012 35be e486 27bd eba3 c2bd
000002f0: 6b07 66bf 7c12 a5ba a7e4 8f3b fee7 3abe
00000300: 15ef 5a3c 022b 21be b30c 97bd 57dd 603e
00000310: c44a 53be 1e56 6e3c 4d1c 2cbe cea9 c03d
00000320: 0d55 debd 153b 0dbe a4a1 3a3e f6e0 78be
00000330: eb86 163e 81b2 583e 8b8f 643d 1657 643e
00000340: 7c8c 903c b698 85bd d1c7 433e c775 303b
00000350: c6c0 1f3e bf64 95bd 3e97 6bbe 3f5d d5bd
00000360: 044c 5fbe 6125 35be b507 293e f6d9 cc3c
00000370: 010d a63d 4567 b9bd e4da 483e 358e b93c
00000380: 12f9 873d ef46 1a3e c5ab 2bbe 2723 4e3d
00000390: da31 213e bd24 5c3d fec2 c83d a953 78bd
000003a0: c4c3 98be 204d 51be d6a1 14be 4d5c 1bbe
000003b0: 8255 703d a3a0 77be be48 08be d6b0 36be
000003c0: 6d8e 553e 3a2b 1fbe 29cd 8bbe 36ab d13d
000003d0: 0de7 a83c 1ed6 333e 0053 0e3d 81b5 423e
000003e0: 3bff 563d 230f 34be 24ae e2bd 0ac7 573e
000003f0: 2529 423e f905 58bd 1a77 a1bd 90aa 913e
-0.05252962 -0.35429513 0.037588514 0.21181431 -0.15414022 -0.4973839 0.22989228 0.0014355435
-0.2857574 0.03905135 -0.12930809 0.17497748 -0.013359129 0.12019699 0.022010742 -0.7706973
0.10210691 -0.07778269 -0.09671154 -0.5148675 -0.10036769 0.18307081 0.06469452 0.2080494
-0.28597605 -0.12816495 0.08651148 -0.056086894 0.0019115839 -0.37989148 -0.1384505 -0.5031373
-0.08471745 0.043463413 0.58794296 -0.16956627 -0.16427119 0.38962325 -0.088095814 -0.27673987
0.1537488 7.473606e-05 -0.056500606 -0.006666703 -0.34933677 -0.11648561 -0.28639635 0.15816163
-0.08126822 0.016420707 0.45144397 -0.30598757 0.019457433 -0.103113785 0.3547496 0.057912108
-0.03523941 -0.11426538 0.28545213 0.044398904 -0.60932493 0.28707603 -0.79822814 -0.22329941
0.21802208 0.4293459 -0.1414217 -0.21152756 -0.19046983 -0.37151694 -0.06037216 0.16984586
0.5766345 -0.03741085 0.073684305 -0.0036648284 -0.05169018 0.024195932 0.09447719 0.015047364
0.105334535 -0.1634451 0.053586587 -0.30330357 -0.059587672 -0.10580005 0.047258817 -0.11821725
-0.29485583 -0.08800978 -0.15732998 0.16856408 -0.07853532 0.030658001 0.16088304 0.17001654
-0.36894858 0.06400761 0.1963549 0.2512872 0.11734201 -0.24077196 -0.03924829 0.45854384
0.073631026 -0.10613402 -0.083828814 0.0275804 -0.2145864 0.27382466 -0.1008063 -0.038141765
-0.049008396 0.33333904 0.01628955 -0.100112416 0.41941008 0.17023857 -0.0382263 -0.008212633
-0.03537103 0.0033136306 0.098372236 0.19062355 0.0831582 0.15956187 0.57168776 0.053426385
-0.08397313 -0.57136995 -0.30890772 -0.012828993 -0.20680042 -0.7621388 0.02950598 -0.50608885
-0.26816127 0.08439555 0.018433902 0.13006173 0.21898235 0.05531856 -0.11355957 -0.540666
-0.018143706 0.057183914 -0.1247673 -0.17047948 -0.08423183 0.12942274 -0.059097186 -0.024762286
-0.57477254 -0.17007762 0.15516947 -0.031660277 -0.10066053 -0.09066702 -0.15516435 -0.19836146
0.14830168 -0.04015663 0.508211 -0.016388888 -0.019189967 0.14248604 -0.039184764 -0.1003258
-0.036239523 0.10175495 -0.026269235 0.07242322 -0.5999376 -0.04531953 -0.2551809 0.025114583
-0.07400881 -0.3333424 0.47359958 -0.3778724 0.16995925 -0.092972696 0.48251212 -0.055304483
-0.09813285 -0.17682767 -0.040900126 -0.09503921 -0.8985507 -0.001259401 0.004391271 -0.1825256
0.013362666 -0.15739062 -0.07375469 0.21959434 -0.2063399 0.014546899 -0.16807671 0.09407388
-0.10856066 -0.1379207 0.18225724 -0.24304566 0.14699905 0.21161844 0.055800956 0.22298846
0.017645113 -0.06523268 0.19119193 0.002692567 0.15600881 -0.072946064 -0.23006913 -0.10418176
-0.21806341 -0.1769004 0.16506846 0.025006276 0.08107949 -0.090529 0.1961475 0.022650817
0.06639303 0.15066122 -0.16764744 0.050326493 0.15741673 0.053745974 0.09802817 -0.06062666
-0.29836857 -0.20439577 -0.1451486 -0.15171929 0.058675297 -0.24182372 -0.13308999 -0.17840895
0.20855112 -0.15543833 -0.27304962 0.10237734 0.020617986 0.17562148 0.034747124 0.19014551
0.0524895 -0.17583899 -0.11068371 0.21072021 0.18961008 -0.05274007 -0.07884045 0.2845044

gru.bias_ih_l0 f4 [192]
00000000: 3890 273e ea0d 15be c72b 8f3d fffb d7bd
00000010: 95ae a63d d0a2 6e3d 6b7b 3d3d 1a16 333d
00000020: 999c 883d 3048 0f3e 769b 083e ed94 6c3e
00000030: 18b4 693c eb69 233e dcea 373e c125 103e
00000040: 75ac 1abc 6ef3 653d 7e46 4a3e 1b5c 9d3d
00000050: 9138 12bb 25d8 b83d 820f 833e 2f3b 7bbd
00000060: 8009 6e3d 089c 4d3d a4cb 343e f95a d03d
00000070: 6fba b9bd 329e 873d 93ac 123d 7a9c 213b
00000080: 264d 96bd 7afb 933d 849d da3d 7495 9d3d
00000090: 612e 8e3e dbee 70bd 0967 283d 85d9 e03d
000000a0: e961 ef3d b55b 0d3e 4d6a 683e d4fd 263e
000000b0: 8f69 783d 9b6c 933d 292b 293e 8ed1 f03d
000000c0: 732a 4b3e 847c 033e 4f0b 893c 018b cf3e
000000d0: e07b 2f3d fb1c 7f3e 4e92 693e a88a 4e3e
000000e0: 0708 85bc ac9b de3d b069 c63d 3262 233e
000000f0: 658f 8f3d 11be 2dbe a339 cebd b0fe 8d3e
00000100: 9563 48be a9b3 143d 6f2b 55bd fffd 0c3e
00000110: 905f 58bd a4ae 41be fb1f efbe b12b 08bd
00000120: ad40 85be 0f1f 8abe 7405 823e 0f50 a0be
00000130: d7a3 f4bd 3610 acbe a67c 44be 1d4f b3be
00000140: 37af 0f3e 8435 ccbd 9dad 74be fff7 93be
00000150: ecec 6abe 0b2b e2be 8fc8 12be c533 c9be
00000160: e2af cdbe 3a9a 68bd 4f39 d4bd bd2b c7bd
00000170: 6e07 723d bfb9 1ebe 63cf 13be a3d8 0d3d
00000180: c57a f23d 827d 80be 8fca 21bf 580c 09bf
00000190: abb2 a1be 9887 d53e ec5c 20be 2f1e bb3e
000001a0: 5165 56be 4aec fb3d 6af6 11be 46d5 b9bc
000001b0: 3784 a6be 9027 f6bd 2a6b a33d 7076 a9bd
000001c0: abbd 2f3e 1bc3 20be abc3 6fbe 2758 9abe
000001d0: ff86 5c3e bf2f 01bf 0f5d 5bbd b13a ebbe
000001e0: ed87 d3bc 764e 06bc c5d2 67be 27b5 57be
000001f0: a9ba 3fbe 40ed 98be 8623 0abe e1d4 dcbe
00000200: ce34 cfbd 6017 b83c 1765 913c eab7 ab3d
00000210: 37f4 3e3e 004c 503e 1bcb 463e ee81 afbd
00000220: 5482 25be 328e 013e 6894 ebbd b5c7 a33c
00000230: 4140 8a3d 8f63 8cbd ac45 61be 249a 1d3e
00000240: 4857 143c cf80 453e 1701 c7bd fbd1 ac3c
00000250: d725 68bd 02e9 f03d 8ded 0f3e bca2 8b3d
00000260: b99b ff3d 1178 2abc 2736 89bd 4f17 37be
00000270: ef0f 0cbe 49d3 11bd 3266 46be 77ec 27bd
00000280: 90c1 c83c f5df 463d 5d46 ebbc 6b27 7abb
00000290: 08b5 67bd 7b93 92bc 78df 70be 9393 b83d
000002a0: 97c1 423e 8f78 483e 60a8 af3d db51 9c3e
000002b0: e63d 423e 2210 8c3b c2b3 973d 427f 04bc
000002c0: 3c6f 35be 4b6a 2dbe ee5c 19be e549 0d3d
000002d0: 99ed efbd 4f15 06be 90e9 313e 5c29 a0bd
000002e0: b2c7 aabd 6681 223e 1897 ed3d b5af 29be
000002f0: 5602 153e 1f85 813c 75b3 0fbe a88b 65bd
0.16363609 -0.14556089 0.06990772 -0.10546111 0.08138768 0.05826074 0.04626028 0.04372225
0.06670494 0.13992381 0.13340554 0.23103686 0.014264129 0.15958373 0.17960685 0.14076902
-0.009440531 0.056140356 0.19753453 0.07683583 -0.0022311548 0.09025601 0.2559777 -0.06133574
0.05811453 0.05019763 0.17655808 0.10173602 -0.090687625 0.0662197 0.03580911 0.0024659918
-0.07338934 0.072257 0.10674575 0.076945215 0.2776976 -0.05882154 0.041113887 0.109789886
0.11688597 0.13804515 0.226968 0.16307765 0.060647544 0.07198449 0.1652037 0.117587194
0.19840412 0.12840468 0.016729025 0.4053574 0.042842746 0.24913399 0.22809717 0.2017008
-0.01623918 0.10869536 0.09688127 0.15955427 0.07009772 -0.16967036 -0.10069587 0.27733374
-0.19569238 0.03630415 -0.052043375 0.13768767 -0.05282551 -0.18914276 -0.46704087 -0.033244792
-0.26025906 -0.2697682 0.25394785 -0.3131108 -0.119453125 -0.33606118 -0.19188175 -0.35021296
0.14031683 -0.09971145 -0.23894353 -0.28900144 -0.22941941 -0.44173464 -0.1433432 -0.3929731
-0.4017325 -0.056787707 -0.10362493 -0.09725139 0.059089117 -0.15500544 -0.1443458 0.03463043
0.11839823 -0.25095755 -0.63199705 -0.5353446 -0.31581625 0.41705012 -0.15660447 0.36546466
-0.20937087 0.12300928 -0.14254156 -0.022684705 -0.32522747 -0.12019265 0.07979424 -0.08274543
0.17162196 -0.15699427 -0.23414485 -0.3014538 0.21535872 -0.5046348 -0.053555544 -0.45943215
-0.02582165 -0.0081974175 -0.22638996 -0.21065198 -0.18723549 -0.29868507 -0.13490114 -0.43131164
-0.101174936 0.022472084 0.017748399 0.08384688 0.18647848 0.20341492 0.19413416 -0.08569704
-0.16162997 0.126519 -0.115029156 0.019992689 0.06750537 -0.06854927 -0.21999234 0.15390831
0.009054013 0.19287418 -0.09717005 0.02109622 -0.056676712 0.11763193 0.14055462 0.068181485
0.124808736 -0.010404603 -0.06699782 -0.17879985 -0.13677953 -0.035601888 -0.19374922 -0.040996995
0.02450636 0.048553426 -0.028720075 -0.0038170468 -0.05656913 -0.01789259 -0.23522747 0.090125225
0.19019161 0.1957724 0.08577037 0.305312 0.18968925 0.004274384 0.07407333 -0.008086981
-0.17718214 -0.16935079 -0.14976856 0.0344943 -0.1171524 -0.13094066 0.17374253 -0.07820389
-0.0833887 0.15869674 0.116010845 -0.16570933 0.14551672 0.015810547 -0.14033301 -0.05604139

gru.bias_hh_l0 f4 [192]
00000000: 16a5 3e3e 7060 a6bd 337b 8c3d 0b2c e3bd
00000010: 9679 8d3d 0ee6 673d f165 fa3c 05a5 bd3d
00000020: b6da 95bc 10a0 813e 31c1 05bd d699 383e
00000030: c153 6d3e 2751 b33e 8408 1a3e c16b 903e
00000040: 122c ee3a 6efd 4c3e 4969 073e 2e1c 743d
00000050: b297 0d3e 3a2a 123e f2d5 763c 94eb 113e
00000060: 3d90 713c f97c a4bc 7ae1 233e 0a0d c13d
00000070: fa0b 9dbd d248 22bd e3cf 0b3c 7b1c 1bbd
00000080: a74d 5abd 2d5d 623e 7ca7 803e a8d1 883e
00000090: 3b2a d73d 86f9 6bbd 0d4f 473e ed94 c63c
000000a0: 2544 483e 04b3 4c3d eb37 493d 00aa 493e
000000b0: 3a2c 203d fedf 6a3d 0cfd 093d fd8c 583e
000000c0: 3319 4e3d ab78 363d f868 3d3e a7bc 9a3e
000000d0: 040c a6bd 3703 af3e 9b79 2c3d 13eb 9c3e
000000e0: 48f9 1d3e f6e1 503e d511 01bb 7f30 223d
000000f0: 49e9 4cbd 3e23 9e3c 2e57 93bb 1650 1b3e
00000100: 3b2f 5cbe 1a44 b03b b718 29be eb95 143e
00000110: 64a2 9cbd 009c f1bd c29c 94be afa1 14be
00000120: 8bbe 87be a6d9 51be 381a 753e 3484 63be
00000130: 8f5a 2cbd 7dc8 c5be b40f 01be 41c1 89be
00000140: 55ab f83d 8d09 4ebd b3e9 d7bd 1353 b3be
00000150: 2fa2 33be 2b6a 7cbe 77c9 89be b456 f3be
00000160: b39e d3be c119 26be cb0e 4bbe 279b a1bd
00000170: 377b cbbc 296e c0bd abfd e4bc 321b e93c
00000180: 909f 1d3e b7d1 43be 547a 13bf 0693 c5be
00000190: 3233 c5be 3ac9 bf3e d83a 65be ebdf 8d3e
000001a0: caaf 72be 5a76 af3e cece 5dbe e462 1dbe
000001b0: 9f49 b2be 374c a5bc b064 f43d 0345 1fbe
000001c0: c60f cb3d 322b 95be 9fee 58be a1e8 aebe
000001d0: 4fdd 0b3d df32 c2be ae92 3dbe e9d4 acbe
000001e0: 9d21 c2bd 86a0 c2bc 48ca d8be a138 9fbe
000001f0: a6e0 58be 1165 a0be 6784 37be 1a12 a7be
00000200: 1cad 92be 7d97 91bd 1571 8c3e d50f 5c3d
00000210: ab67 0a3d 2fa3 73bc 8a6b 253e 3ab3 30bd
00000220: 7540 fabd 458a a43e aa95 0fbe a887 f33d
00000230: b5e2 183e 3448 e0bc 27ed 01be d8ff 3cbe
00000240: 454e c03c ca63 7f3e 2970 62be 3664 aabd
00000250: bfc5 1ebe 1265 3a3e 724c 00bd 8ca7 273e
00000260: 5b60 ff3d d31c 8abd 26ab 90bc 5900 3bbd
00000270: 0981 393e d344 53bc db10 f2bd fea7 f2bc
00000280: 1e2b b1bd 03b6 b73b 5326 043e 6b5a 943c
00000290: b2db 66be 2246 b33d 4707 65be 8885 293e
000002a0: e719 5f3e 93cf bd3d 5d57 c83c 8104 6b3e
000002b0: 69d8 edbd 71ed c3bd dbfe 193e a51e 053e
000002c0: 0b2d 20be 74cd 24be 9a7f 1c3d abe7 c8bd
000002d0: 20b2 dd3c 35a4 b5bd c483 753e 99aa 01bc
000002e0: 1bc1 0fbe 0104 283e ce56 443e e045 c3bd
000002f0: b74f 0a3e 380c 98be 3713 1c3c 0bd8 97bd
0.18617663 -0.08123863 0.06859436 -0.11092385 0.06907956 0.05661588 0.030566188 0.092599906
-0.018292766 0.2531743 -0.032654945 0.18027434 0.23176481 0.35022852 0.15042311 0.2820721
0.0018171093 0.20018551 0.13223757 0.059597187 0.13827398 0.1427392 0.015065657 0.14250022
0.014743862 -0.020079123 0.16003981 0.09426315 -0.076683 -0.039620228 0.008533451 -0.037868958
-0.05329671 0.22105856 0.2512778 0.26722455 0.10506102 -0.05761101 0.19463749 0.024240935
0.19557245 0.04997541 0.049125593 0.19693756 0.039104678 0.05734252 0.03368859 0.21147533
0.050317 0.04454867 0.18497074 0.30222055 -0.081077605 0.3418214 0.04210816 0.30648097
0.15427125 0.20398697 -0.0019694467 0.03959703 -0.050027166 0.019303914 -0.0044964766 0.15167269
-0.21502392 0.005379212 -0.16513334 0.14510314 -0.07648161 -0.11797333 -0.29025847 -0.14514802
-0.2651256 -0.20493183 0.23935783 -0.222184 -0.04207855 -0.38629523 -0.12603647 -0.26905254
0.12142054 -0.050302077 -0.105426215 -0.35024318 -0.17542337 -0.24649875 -0.26911518 -0.47527087
-0.41332015 -0.16220762 -0.19829862 -0.07890921 -0.024839027 -0.093960114 -0.02795299 0.02845535
0.153929 -0.19122969 -0.5760853 -0.38588732 -0.3851562 0.3745821 -0.22385728 0.27709898
-0.2369987 0.34269983 -0.21660921 -0.15369755 -0.34821793 -0.020177944 0.11933267 -0.1555367
0.09915118 -0.29134518 -0.21184777 -0.34161857 0.034146603 -0.37929437 -0.18512985 -0.33756188
-0.094790675 -0.023758184 -0.42341828 -0.31097892 -0.21179447 -0.31327108 -0.17921601 -0.32630998
-0.28647697 -0.07108972 0.27430025 0.053726036 0.03379027 -0.014870449 0.16154304 -0.043139674
-0.122193255 0.3213674 -0.14021936 0.11891109 0.14930232 -0.02737818 -0.12688123 -0.18456972
0.023474822 0.2494041 -0.22113098 -0.08319895 -0.15505122 0.18202618 -0.031322904 0.16372508
0.1246955 -0.06743779 -0.017659735 -0.04565463 0.1811563 -0.012894827 -0.11819621 -0.02962112
-0.08650802 0.0056064143 0.12905245 0.01810952 -0.22544745 0.08753611 -0.22366057 0.16554844
0.21787225 0.09268107 0.02445572 0.22950937 -0.116135426 -0.09566773 0.15038626 0.12999971
-0.15642183 -0.16093999 0.038207628 -0.09809812 0.027062476 -0.08869211 0.23976046 -0.007914209
-0.14038508 0.16407777 0.19173738 -0.09534812 0.13506971 -0.29696822 0.009526066 -0.07414254

gru2out.weight f4 [6, 64]
00000000: 7462 56be 780c 23bd a9ac 843b 550a 783e
00000010: dff4 51bd 8d2c a23e 461d d13d 99a1 7b3e
00000020: 23c8 4abe 66c4 01bd 6ae6 673d 9e78 c2be
00000030: 04a1 6a3e 3c8e 063f fdf3 023e 002a fc3e
00000040: e5ec c0bc 36bb 24be d36f f53d 8ae7 f3bc
00000050: 0e0a 8b3e 9163 9fbe c3a6 e5be ef09 b7be
00000060: 5877 45be 6319 86be 6cf0 353e 91c6 213e
00000070: 646d b0bc 485a babd a6a9 653e ca2d 48be
00000080: 5fa8 60be f959 e73e 5cb6 a6be ac5a fb3e
00000090: ea46 c33d d7eb d53c 24f3 36bd 865d 44be
000000a0: 5f1f bfbe 82b8 96be 17b5 a6be 161d f1ba
000000b0: 6721 033f 18c8 dbbe 4528 a6be 36c8 a8be
000000c0: 011f 883e a178 cbbe acd5 cfbe 01e5 0c3f
000000d0: bb0d f4bb 21a6 0b3f 9657 433d 09f6 d53e
000000e0: 7078 9d3d fb83 8fbe 1f71 b43e 9286 333d
000000f0: 91e0 b03e f897 88be 32ed 7dbe aefb 0f3f
00000100: 9a89 403e 9fd1 c0bd 32d1 8d3c ad0c ecbb
00000110: 6ebf 88be 0163 8abe bfdf 8fbe c893 883e
00000120: 6ad3 683e 9352 97be 1242 6a3e 2ab5 35be
00000130: ef11 073e e569 e63c 2a18 853e 14c6 553e
00000140: fdbe 1d3d f659 87be a91f 973e 85b8 e7bc
00000150: 78eb 6e3e 9209 60be 6734 3dbe 4627 2bbe
00000160: 5639 5cbd bf32 d03d 6196 6a3e d2ce 903e
00000170: 3226 95bd 64e0 d93c cad7 4d3e 050e c73d
00000180: f4d4 4ebd 8aec 6f3e f462 643c 81b1 223d
00000190: 66f5 953e 3c80 cabd d948 653e c80d 12be
000001a0: 5056 8fbe 7514 79bd d96c 40be d64a 75be
000001b0: e851 1b3d 4785 74bd d71b d8bd 5429 3bbe
000001c0: eabf 5e3e d0f4 9c3d bd95 e6bd 8d9d 6f3e
000001d0: 967b f3bb a7e9 6e3e 81cc 74be 7272 403e
000001e0: d7db 8e3e b040 39be 3137 d6be f8bb 933e
000001f0: b3e0 afbd 1c2a 143e f0bb 6e3e 5d40 503e
00000200: 38b7 83be 1f7c 6e3d 5ccf 103e e30d 53bd
00000210: 938b e83c 30ff 053e ebe4 243c 9bc0 413c
00000220: 9955 d03d 899d 9d3e 2882 433c 6234 10bc
00000230: f626 78bd 64e2 b7bd b472 51be 8a28 f63e
00000240: 739d c73d dc2b 673d d0ab b2bd 551d 9a3e
00000250: b259 aabd 1db9 313e b35e 423d 0551 8f3e
00000260: 23d1 a93e d8d0 593e 473b 923d 7154 6abc
00000270: 0286 2c3e 91e7 9f3e c976 08be b78c ba3e
00000280: ac4d af3d 7915 41be e7d3 0abf 630b 47be
00000290: ec45 0cbe 9359 11bd 9727 f2bd 0bc6 2a3c
000002a0: dd4f 483e c783 413e 67ba c43d c686 ca3e
000002b0: cec1 b9bd d4b3 59bd fc34 cf3e 2e92 ac3d
000002c0: 0f94 90bd 03b3 4c3d 2526 f2bd 68e4 9e3e
000002d0: 50d0 84be f4df 8fbd a5aa 53be 9629 2fbe
000002e0: f09f 0b3b 94d3 a03e 851b 23be 61b6 4fbe
000002f0: 662d 1fbd 6cc1 2dbe 34c8 123e 9bca 953e
00000300: 8a4a d43e 0a4b 66bd 78bf bebe ce79 44bc
00000310: da64 13bf a157 233e 05e2 593e 1761 dfbb
00000320: b5d1 ba3d 04a2 fd3d 6587 ddbc 225d 673e
00000330: 2163 3e3e e314 a0bd 39f4 60be aa60 abbe
00000340: fb26 75bd 0770 9dbd 5568 0a3d 98cf 0ebe
00000350: 4b28 a4bd 041b 523e 48e0 4b3e ad2e 493e
00000360: 04c4 bd3d 0ee0 643d 74e3 3fbd 1818 11bd
00000370: b6f3 56be 4033 c13e 88c4 cebd c688 933d
00000380: dbc5 123e faef b1bc 75d3 c53e 0fe9 53be
00000390: bf49 25be 2498 b1bd 502a 27be d3b3 aa3d
000003a0: 25bd b03d e832 f83d 4233 c53d 9455 983e
000003b0: 4529 adbd c94e aa3d c37c a3be 3439 183e
000003c0: f428 0ebe 83d7 a83d 949c 953e 50c7 48be
000003d0: 5a43 9abe 979a 26be 800b 63bd acd5 10be
000003e0: d500 0dbe 69cc 09bf 288b 443e 446d 9f3d
000003f0: 71a9 40be b832 8c3d a9d9 cf3d 0e76 adbc
-0.20935994 -0.039806813 0.004048903 0.24222691 -0.051258918 0.31674615 0.102106616 0.24573363
-0.19802909 -0.03168144 0.056616224 -0.3798265 0.22912985 0.5256078 0.12788387 0.49250793
-0.02355046 -0.1608704 0.119842194 -0.029773492 0.2715611 -0.3113065 -0.44853792 -0.35749766
-0.19283807 -0.26191244 0.17767495 0.15798403 -0.021536537 -0.09099251 0.22427997 -0.19548717
-0.21939228 0.4518583 -0.32561004 0.49092615 0.0953501 0.026113434 -0.04466547 -0.19176301
-0.37328622 -0.29437643 -0.32560036 -0.0018395509 0.5122284 -0.42926097 -0.32452598 -0.3296525
0.26586154 -0.3974047 -0.40592706 0.5503693 -0.007447926 0.5455037 0.04769095 0.41789272
0.07688987 -0.2803038 0.35242555 0.043829508 0.3454633 -0.26678443 -0.24797514 0.5624341
0.18802491 -0.09414982 0.017311666 -0.0072036595 -0.2670855 -0.2702866 -0.28100392 0.26675248
0.22736898 -0.29555187 0.22876766 -0.1774489 0.13190435 0.028126666 0.25994998 0.20876342
0.03851222 -0.26435822 0.29516342 -0.028286228 0.23332012 -0.21878651 -0.18477021 -0.167142
-0.053765617 0.10165929 0.22908928 0.2828279 -0.07282676 0.026596256 0.20101848 0.09719471
-0.050496057 0.23430076 0.013939608 0.039720062 0.29288787 -0.0988774 0.2239107 -0.1426307
-0.2799554 -0.060810525 -0.18791522 -0.23954329 0.03791991 -0.059697416 -0.10552185 -0.18277484
0.21752897 0.07663882 -0.11259029 0.23399945 -0.007430504 0.23331319 -0.23906137 0.18793657
0.279021 -0.18091083 -0.41838983 0.28854346 -0.0858778 0.14469188 0.2331388 0.20337053
-0.25725722 0.05822384 0.14141601 -0.051526915 0.028386867 0.13085628 0.010064344 0.011825706
0.101725765 0.30784252 0.011932887 -0.008801552 -0.06058403 -0.089787275 -0.20453912 0.48077804
0.09746828 0.056438312 -0.08724177 0.30100504 -0.08317889 0.17355771 0.047453593 0.279915
0.3316737 0.21271074 0.071402125 -0.014302359 0.16847995 0.3123136 -0.13326563 0.36435482
0.085597366 -0.18855847 -0.5422959 -0.19437937 -0.13698548 -0.035485815 -0.118239574 0.010423194
0.19561715 0.18897925 0.09605866 0.3955595 -0.090701684 -0.053150013 0.4047011 0.08426319
-0.0705949 0.049975406 -0.11823682 0.31033635 -0.2594018 -0.070251375 -0.20670564 -0.17105708
0.0021305047 0.3141142 -0.15928467 -0.20284416 -0.038861655 -0.16968316 0.14334184 0.29256138
0.4146312 -0.056223907 -0.37255454 -0.011991931 -0.5757576 0.15951397 0.21277626 -0.006816994
0.0912203 0.12384418 -0.0270421 0.22594121 0.18592502 -0.07816484 -0.21968164 -0.33472186
-0.059851628 -0.07687383 0.033790905 -0.13946378 -0.08015498 0.20518118 0.19909775 0.19646712
0.09265903 0.055877738 -0.046847776 -0.03542337 -0.20991406 0.37734413 -0.10096079 0.07203822
0.14333288 -0.021720875 0.3863789 -0.20694374 -0.16141413 -0.08671597 -0.16324735 0.0833508
0.086298265 0.121190846 0.09628917 0.2975279 -0.08455137 0.08315808 -0.31931123 0.14865571
-0.1388281 0.082442306 0.29221022 -0.19607282 -0.3012951 -0.16269909 -0.05543089 -0.1414401
-0.13769849 -0.5382753 0.19193709 0.07784513 -0.18814637 0.06845611 0.10148937 -0.021174457

gru2out.bias f4 [6]
00000000: b41d 22bc cf94 d4bd 1525 783d 9a1e e1bc
00000010: 116d f8bc f5f2 14bd
-0.009894777 -0.103799455 0.06058224 -0.027480412 -0.030325444 -0.036364514
