try2_simDataset2/30bp_SingleConserved_s5_UnifBG_pretrainedDisc.pth (torch, 495389 bytes, 20 tensors)

embeddings.weight f4 [6, 16]
000000 55 7d 0a bf 84 ce 3c 40 0b 0b b4 3e c3 ba fc bf
       -0.5409749 2.9501047 0.35164675 -1.9744495
000010 8d 60 29 3f 4b 70 27 bf b4 49 e8 3e 04 64 21 3f
       0.6616295 -0.6540572 0.4536873 0.63043237
000020 46 ff 94 3e cb 31 77 3f 64 61 6f 3f 5f ef 3a 3f
       0.29101008 0.96560353 0.9350798 0.730215
000030 b7 54 c3 3e 52 fc df be 35 4d 19 40 a3 a8 0a be
       0.3815057 -0.43747193 2.3953373 -0.13540892
000040 35 d1 55 bf 81 1e bf 3e 14 70 79 be 2e e8 89 3f
       -0.8352235 0.3732796 -0.2435916 1.0773981
000050 08 3b c9 3e 4e fd 93 be cd d1 89 3f 55 b5 4d 3f
       0.3930285 -0.28904194 1.0767151 0.80354816
000060 45 ba 20 bd af e5 24 bf d5 51 8e bf 3e de 4d 3f
       -0.03924014 -0.6441297 -1.1118723 0.8041724
000070 51 6a 54 bf ac 22 80 3f bc 4e a8 3f 0a a5 3f 3f
       -0.82974726 1.0010581 1.3149028 0.74861205
000080 73 f3 52 3f f6 1a 86 3f ae 64 31 3f eb e3 cc 3e
       0.82402724 1.0476978 0.6929425 0.40017638
000090 b3 ea 0f 3e 96 9a 02 3f d5 c9 07 40 54 a6 74 3f
       0.14054374 0.5101713 2.1216938 0.95566297
0000a0 29 13 08 c0 8f 79 b6 3f 00 e3 99 bf 2e 17 b1 bf
       -2.1261694 1.4255847 -1.20224 -1.3835199
0000b0 72 15 83 bd 01 0f 0e 3f 89 d6 bc bf 1d 55 a8 be
       -0.06400575 0.55491644 -1.4752971 -0.32877436
0000c0 04 f5 5e 3f e9 03 c1 be 27 9c 09 bf a8 96 aa 3f
       0.87092614 -0.37698296 -0.53753895 1.3327227
0000d0 24 b4 4a bf 82 a6 bf bf 8a a8 b8 be be e0 38 3f
       -0.7918112 -1.4972689 -0.36066085 0.7221793
0000e0 5b 2f 99 3f 1e 93 ad bf 7d 81 a0 3e ec 90 a2 3f
       1.1967577 -1.3560522 0.31348792 1.2700477
0000f0 48 f5 1d c0 6c 01 3e 3f 8e 71 95 bf 8b d7 48 bf
       -2.4680958 0.7422092 -1.1675279 -0.7845389
000100 6c 9b 16 3f fc 7f f7 bd 2d 9c 2f 3f 76 fd bd 3f
       0.58830905 -0.12084958 0.6859768 1.4842975
000110 9e ee 95 3f 46 ac db 3f a9 67 92 3f a6 b6 c1 be
       1.1713445 1.7161949 1.1437885 -0.37834662
000120 e7 a9 2d 3f 86 6b a1 3e 44 48 a4 3f a8 33 18 3e
       0.67837375 0.31527346 1.2834554 0.14863455
000130 68 58 4a 3f e2 d7 d0 be 41 2c 0b bf 69 a9 e4 3e
       0.7904115 -0.40789706 -0.543644 0.446605
000140 33 c6 bc 3e 70 c9 d2 3f aa 09 1f 3f 9c 2e b6 bf
       0.36869964 1.6467724 0.6212412 -1.4232974
000150 aa 5e 07 3e 15 2e 3e 3f ba c0 83 3e 0f 2d 83 bf
       0.13219705 0.74289066 0.25732976 -1.0248126
000160 e3 c9 8b bf e3 62 5f bf 48 8f 99 3f 1e be fb 3e
       -1.0920986 -0.87260264 1.1996851 0.49168485
000170 90 13 24 bf 45 5c 99 3d 8e a4 9c 3f ca da 8b 3c
       -0.6409235 0.07488302 1.2237718 0.0170721

gru.weight_ih_l0 f4 [192, 16]
000000 4f af f7 bc 76 3e 62 3d 2c 36 f3 3d 4a cf 16 bd
       -0.03023496 0.05523535 0.11875567 -0.03681878
000010 96 86 e4 3d a2 a0 8c 3d d5 d8 a4 bd ae 40 b4 3c
       0.11158483 0.06866576 -0.0804917 0.022003498
000020 06 a2 1a 3c 83 12 03 3e ac e6 d7 3d ce 89 6a 3d
       0.009438043 0.1280003 0.10542044 0.057260327
000030 16 10 12 3d b8 65 e9 3c c2 7a c3 bd f4 b4 eb 3d
       0.035659872 0.028490886 -0.095448986 0.115091234
000040 62 e8 1c 3c 62 dd 3d bd fc 34 09 3e 25 d5 51 3c
       0.009576889 -0.046353705 0.13399118 0.012807165
000050 93 9f e5 3d c8 3e df 3d f8 39 f1 3d b5 08 1b bd
       0.11212077 0.109006464 0.11778635 -0.0378501
000060 60 d7 11 be 37 95 47 3d 24 88 01 bd a4 c9 ef bd
       -0.14242315 0.048726287 -0.031623974 -0.11708382
000070 d1 f2 15 3e f7 ae 56 bd a4 32 6a 3d f2 4b 88 3d
       0.14643408 -0.052412953 0.0571772 0.066551104
000080 42 dc 8b bd 94 cf 91 3d d8 b4 f4 bc b8 32 1e 3c
       -0.0682912 0.071196705 -0.02987139 0.009655647
000090 f3 c6 ab bd f6 92 84 bb 98 95 91 bb 99 bb 03 3d
       -0.08387556 -0.0040458394 -0.004442882 0.03216133
0000a0 00 dc 84 3d c7 4d 63 bc 84 68 e0 bd ab 2a a8 bc
       0.06487274 -0.013873524 -0.10957435 -0.020528158
0000b0 5f c7 94 3d 95 9c 04 3d 03 9b 79 3d 53 02 b1 3d
       0.072645895 0.03237589 0.060938846 0.086430214
0000c0 6a fb 78 3d f8 3f e9 bc b7 07 36 3d 75 e4 c6 bd
       0.060786642 -0.028472885 0.04444095 -0.097115435
0000d0 9e c9 11 3e e3 c8 4c 3d 59 a0 0e 3e 4d 46 c9 bd
       0.14237067 0.049996268 0.13928355 -0.09827862
0000e0 15 21 3a bd 3c 69 0a 3d 0e 93 92 3d 68 72 41 bc
       -0.045441706 0.033791766 0.07156955 -0.011807062
0000f0 e8 a5 dc 3d 91 07 70 3d 45 dd b1 bd 3f 70 2a bd
       0.107738316 0.058600966 -0.08684782 -0.041610952
000100 5a b5 ac bd f1 7a f4 3d f2 0d cf 3d 3f 14 fe bd
       -0.084330276 0.11937512 0.10110082 -0.124062054
000110 ae f4 a1 3d ee e2 ba 3d c6 bd dc bc 30 ef b0 bd
       0.07907997 0.09125315 -0.02694596 -0.086393714
000120 43 8f 8c 3d d2 d6 59 3d 1b b3 85 3d 13 55 d8 bd
       0.068632625 0.053183384 0.06528302 -0.105631016
000130 a4 17 91 bd 99 0a 51 3d 13 a1 8f bd 1e ad 76 bc
       -0.07084587 0.051035497 -0.07013144 -0.015055923
000140 15 a5 c2 bd af b3 81 3b 93 2b de 3d 8e 4d e0 3d
       -0.09504143 0.0039581875 0.10848155 0.109522924
000150 74 af 05 3d 3f 84 c7 3d a6 92 d7 3d 8c 68 23 bd
       0.03263803 0.09742021 0.10526018 -0.039894626
000160 fd a0 c4 bd a6 9b 1e 3e dd f4 5e 3d 3c 24 67 3d
       -0.096010186 0.15489063 0.05443274 0.05643104
000170 53 d2 f5 3d 64 50 0f 3d 53 4b f1 bd f8 61 5a 3d
       0.12003007 0.034988776 -0.11781945 0.053316087
000180 30 9b e4 bd 3e 04 0b be 95 43 8e bd 34 70 63 bd
       -0.11162412 -0.13575837 -0.06946484 -0.055526927
000190 21 8a a5 bd 98 89 ec bd 8b 2e 89 3d a1 57 3f 3d
       -0.080829866 -0.115496814 0.066983305 0.04671443
0001a0 51 4a 0b bd 56 c9 a7 bd 63 1e 8d 3d 3c fa c9 bc
       -0.03400642 -0.08192699 0.068905614 -0.024655454
0001b0 7c 57 68 bd 05 b8 4b bd 82 e1 06 3d ea 31 0f 3d
       -0.056724057 -0.04973604 0.032929905 0.03495971
0001c0 9f bd ca bd 97 15 97 bd 93 b2 4c bd 3b fe 97 3d
       -0.098994486 -0.07377165 -0.04997499 0.074215375
0001d0 3c 88 ac bd c6 de ea bd a2 08 6f 3d 9a ae c2 3d
       -0.08424422 -0.11468272 0.058357842 0.09505959
0001e0 54 50 29 3d aa a5 21 3e 4f 68 53 bd 17 90 17 be
       0.041336372 0.15785852 -0.05161315 -0.1480106
0001f0 21 0c 4f 3d ac 03 b4 bd 78 ef bb bd fe f1 74 3d
       0.050548676 -0.08789763 -0.091765344 0.059801094
000200 8d 83 ff ba 6b b5 e2 3c 07 20 8c 3c 1c 0c 8c bd
       -0.0019494161 0.027674397 0.017105116 -0.06838247
000210 a6 a0 16 3c 4f f7 e1 3d 55 83 86 3d 80 13 e4 bd
       0.009193575 0.110334985 0.06568018 -0.11136532
000220 74 2e 1a 3d 68 35 a1 bc 16 98 03 be d0 f6 2e bd
       0.037641957 -0.019678786 -0.12850985 -0.042715847
000230 ba 7b 16 3d 4c df f1 bd d8 de 64 3d 90 d5 b4 3c
       0.03673909 -0.118101686 0.055876583 0.02207449
000240 b9 f3 af bd 1d 2b 44 3c 57 29 92 bd eb 8f 1c 3d
       -0.08591408 0.01197317 -0.07136791 0.03822319
000250 e0 01 d9 bc ac 31 ab bd dd 37 44 3d 1d 13 14 be
       -0.026490152 -0.083590835 0.047904838 -0.14460416
000260 3f c4 44 3d f1 d9 38 bd 61 b0 f3 bd e3 51 a4 bd
       0.048038717 -0.04512972 -0.11898876 -0.08023431
000270 e0 7e a6 3d ce 04 d1 bd 6a 78 87 3c 84 70 a4 bc
       0.08129668 -0.102059945 0.01653691 -0.020073183
000280 6b 24 a4 bb eb 8c 9c bd 02 df 0f 3e 52 e4 de 3d
       -0.005009224 -0.076440655 0.14049914 0.108833924
000290 18 e2 59 bb aa e4 da 3d c4 e5 31 3c a2 1c 25 3d
       -0.0033246335 0.106881455 0.010858003 0.04031051
0002a0 59 4e 95 bc ca f1 c8 3d 73 11 dd 3d 6b 0a bc 3c
       -0.018225836 0.098117426 0.10794344 0.022954186
0002b0 43 32 02 be b8 55 ab bc 77 5f 0b be ac 0b b4 3d
       -0.12714486 -0.020914897 -0.13610636 0.08791289
0002c0 14 77 01 be b0 01 ea 3d 02 16 1d 3e f5 7f 7d 3c
       -0.12643081 0.11426103 0.15340427 0.015472402
0002d0 76 80 98 bd 67 c4 75 3d 23 64 50 bd 74 37 92 bd
       -0.07446377 0.060001757 -0.050876748 -0.07139483
0002e0 f4 2d 4a be f7 b2 c4 3d 38 1d a8 bc 54 de f9 3b
       -0.19744092 0.09604447 -0.020521745 0.0076253805
0002f0 e0 0a 35 3d 0a a5 46 bd cd 98 b9 3d be e5 90 3d
       0.044199824 -0.048497237 0.090623476 0.0707507
000300 50 17 2c 3c a9 a8 a2 bd 2e e9 ad bc fb a0 b4 3d
       0.010503605 -0.079423256 -0.021229353 0.08819767
000310 00 05 36 3e 2d 04 b8 3d 59 83 69 bd ce e2 90 bd
       0.17775345 0.089851715 -0.05701003 -0.070745096
000320 bc df 22 be 1a 0f 05 3e da 7c c8 3d 33 fe e4 bc
       -0.1590566 0.12994042 0.097894385 -0.027953243
000330 92 e4 bd 3d b4 be a9 3d 03 a9 84 bc ee 00 c3 3b
       0.09272112 0.08288327 -0.016193872 0.0059510386
000340 f0 d6 67 3d 38 fe d5 3b c9 ee 67 3d 95 5b 4f 3d
       0.056601465 0.0065305494 0.056624208 0.05062445
000350 88 e7 12 bc d5 e2 c8 3c 85 36 c8 3d de 62 f9 3d
       -0.008966334 0.024522224 0.09776024 0.121770605
000360 80 22 ff 3c 0d 5b 91 3d 2f e7 85 bd 28 a4 f9 bd
       0.03114438 0.07097445 -0.065382354 -0.121895134
000370 0f 60 2f bd db 44 d1 3d 17 02 52 3d ea e8 ad bd
       -0.042816218 0.10218211 0.051271524 -0.084916905
000380 63 e4 f6 3c 4d c8 bc bd bf 9a be 3d 6f 2e 18 bd
       0.0301382 -0.09217892 0.09306859 -0.037153658
000390 e7 f1 12 3d de f1 c9 3a b3 75 39 3d 86 17 83 3d
       0.035875227 0.0015407165 0.045278262 0.06400971
0003a0 dc 37 ae 3d f1 dc 33 3b d8 b4 cd 3d a9 98 3c bd
       0.08506748 0.0027444924 0.10044259 -0.046044026
0003b0 38 1e 49 bd fb 2a 18 bc f5 a0 1d bd d4 66 83 bd
       -0.049101084 -0.009287591 -0.03848358 -0.06416097
0003c0 6a 97 87 3b af 2d 7a 3d b1 f1 e9 bc cf 36 83 bd
       0.004137923 0.061078724 -0.02855763 -0.06406938
0003d0 0b 30 12 3d 26 dd 88 bd 15 ae 00 3e 3c 82 a0 3d
       0.03569035 -0.06682806 0.12566407 0.0783734
0003e0 0f 55 ef bd c9 d7 49 bd 5c b1 ec 3c 79 94 f9 bc
       -0.116861455 -0.049278054 0.028893165 -0.030466305
0003f0 b7 a4 37 bc 84 05 f6 bd 90 e5 09 3e f8 78 e3 3c
       -0.011208705 -0.12012771 0.13466477 0.027767643

gru.weight_hh_l0 f4 [192, 64]
000000 82 0c a3 3d b8 7b 5b bd fc a4 80 bd 49 d8 ea bd
       0.0796137 -0.053584784 -0.06281468 -0.11467034
000010 97 58 cf bd 06 02 ef bb bf 66 24 3c 8c 33 12 be
       -0.10124319 -0.0072939424 0.010034262 -0.14277476
000020 00 ed 9a bd 57 a9 88 3d df 71 97 3d 34 9f 8e 3d
       -0.075647354 0.06672924 0.07394766 0.06963959
000030 44 20 23 3d 8e 24 d7 3d ee b2 d8 3b c0 b3 92 bc
       0.039825693 0.10505019 0.006613127 -0.017907977
000040 b2 05 07 be da 8c 83 3d 21 78 0f bc 33 d9 d4 bd
       -0.13185766 0.0642335 -0.008756668 -0.1039299
000050 05 4a 5c 3d 61 3f 8a 3d 2b 51 dd 3d 7d 31 6f bd
       0.053781528 0.0675037 0.10806497 -0.058396805
000060 8b 94 6e 3d f1 c8 70 bc 32 7c a9 3c 10 74 b2 3c
       0.05824713 -0.014696346 0.020689104 0.021783859
000070 46 c6 2a bd c1 5a 44 3d 3a 64 82 bd 50 1d 6c bd
       -0.041692995 0.047938112 -0.06366773 -0.057645142
000080 93 49 bd bd 04 35 7c bd 1c 34 75 bd 77 5d 9b 3d
       -0.09242549 -0.061573997 -0.05986415 0.075861864
000090 e6 a5 a8 3d 61 7c 81 3d d7 7b b0 3d 6e fe 7a bd
       0.082347676 0.063225515 0.086173706 -0.0612778
0000a0 b4 df b5 bc 40 72 7c bc ea 53 a1 bc fb 44 68 bd
       -0.022201397 -0.015408099 -0.019693334 -0.05670641
0000b0 fd f1 33 bd b9 7e 15 3d bd 39 51 3d a8 c9 74 3d
       -0.04393195 0.036497805 0.051080454 0.059762627
0000c0 67 f0 68 bd 0f ae 76 bc c5 08 7c bd 4a 06 ba 3c
       -0.05686989 -0.015056147 -0.0615318 0.022708077
0000d0 c0 d1 bc 3b 61 d2 b1 3c 17 91 b9 bd 98 4a b0 3d
       0.005762309 0.021706762 -0.09060877 0.08607978
0000e0 47 27 15 3d 3d fc 62 bc 0e 6e 2b ba 48 a9 ff 3d
       0.03641441 -0.013854084 -0.0006539532 0.1248346
0000f0 f8 01 ac 3d e5 e2 a2 bb b7 c8 bb bd 46 29 18 bd
       0.08398813 -0.0049708956 -0.09169143 -0.037148736
000100 7e 9a f4 bd 8e 10 1a 3c 41 1d 4b bc 31 64 00 be
       -0.119435295 0.009403361 -0.012397111 -0.1253822
000110 0c fa 60 3d 0f f8 61 3c 60 c9 a4 3c 33 1b 3b bd
       0.054925963 0.013792052 0.020115554 -0.045680236
000120 e2 cb 9a bd 8e ae 08 be 32 6e cf bc a6 86 35 3d
       -0.07558419 -0.13347837 -0.0253211 0.044317864
000130 a8 3a 78 3b 52 11 ce 3c 72 43 ad 3d ec 36 2e bd
       0.0037876759 0.025154743 0.0846013 -0.042532846
000140 3a 1c e2 bc f4 83 a3 3d da 20 cc bd 9b 69 3d bd
       -0.02760135 0.079841524 -0.099672034 -0.04624329
000150 24 94 b6 bd 24 ac 80 3d 65 17 6a bd 96 5e 3a 3d
       -0.08914974 0.06282833 -0.057151217 0.04550036
000160 c5 ae c9 3d 25 03 fe bd 68 80 be 3d 63 2a 35 bd
       0.09847788 -0.124029435 0.09301835 -0.044229876
000170 f0 e6 df bd ac 8a ad 3d ab 1c a1 bd 8d e1 a8 3d
       -0.1093272 0.08473715 -0.07866796 0.082461454
000180 1c d9 47 3d bd b8 88 bd 6b 68 e6 3c 39 66 c2 3c
       0.048791036 -0.06675861 0.028125962 0.023730384
000190 ff f6 f1 3c 85 9a bd bd df 8d d7 3d b5 d3 58 bd
       0.029536722 -0.09257988 0.10525107 -0.052936275
0001a0 e9 eb b9 bd 5d a9 24 bd e2 1a 85 3d 38 e5 09 bd
       -0.090781994 -0.04020058 0.06499268 -0.033665866
0001b0 c8 e9 98 3d 86 25 49 3d 60 cf 4f bd 12 b8 4b bb
       0.07466465 0.04910805 -0.050734878 -0.0031085056
0001c0 75 45 9f bd 4e 06 98 3d ef 9e a7 3d d7 c3 01 bd
       -0.0777692 0.074230775 0.08184611 -0.031680908
0001d0 f6 55 39 3d 88 32 76 3d 9c f3 0d 3d e9 cc ea 3d
       0.045247994 0.060106784 0.034656152 0.11464865
0001e0 80 2a 5f bb 78 a9 83 3d b6 76 fa bd 0c d7 eb 3c
       -0.0034052432 0.06428808 -0.122296736 0.028789066
0001f0 38 e5 6f 3d 61 2c 8c bd ad 54 31 3d f4 38 43 3d
       0.05856821 -0.06844402 0.043293644 0.047661737
000200 50 fd 21 3d 1d 46 8b bd 45 57 fc bd 50 0f 6b bd
       0.03954822 -0.068004824 -0.12321333 -0.05738765
000210 2a ec a7 bd b9 84 b1 bd a5 2d 16 3c d5 af cd bc
       -0.081993416 -0.08667893 0.009166156 -0.025108257
000220 08 c9 f6 3d 2c 54 eb bd 35 42 bb 3a 91 7d 62 bd
       0.120500624 -0.11490664 0.0014286699 -0.05529553
000230 63 cd a5 3c ec 2b 04 3d 03 39 44 3d 45 97 0c 3d
       0.020239538 0.03226845 0.047905933 0.03432395
000240 45 9b b6 3d 6f f0 c2 bd 92 37 91 bd c2 ed c8 3d
       0.08916334 -0.09518515 -0.07090677 0.09810974
000250 aa 49 a3 bc bd 36 bc bd 55 0f 99 bd 64 af 63 3d
       -0.019932587 -0.09190128 -0.074736275 0.055587187
000260 b8 62 43 3d 0e 40 4e 3a f7 cd d7 3d 1b e8 08 be
       0.047701567 0.0007867821 0.105373316 -0.13369791
000270 24 40 b2 3d 57 71 2a 3d ac 4f ae 3c 4f c4 8f bd
       0.0870364 0.041611996 0.021278225 -0.07019865
000280 e8 c1 9b bd 49 e0 00 be 99 9f 52 3d c9 4b d6 3a
       -0.07605344 -0.12585558 0.051421735 0.001634949
000290 1c 35 c8 bd 67 7f c5 3c 50 d6 26 3d 09 ca 90 3d
       -0.09775755 0.024108602 0.040731728 0.07069785
0002a0 62 26 de bb c5 11 2f bd b7 76 ca 3d cc 59 80 bb
       -0.006779478 -0.042741556 0.09885924 -0.0039169546
0002b0 7c a6 f9 bd c4 fc b2 3d 35 69 7b 3c 25 e3 33 bd
       -0.121899575 0.087396175 0.0153449075 -0.043917794
0002c0 fc bf fe bd 38 bc c4 3c ad d7 3d 3d f4 17 ac 3d
       -0.12438962 0.024015531 0.046348263 0.08403006
0002d0 49 73 6f 3d 4f 40 2a be ee 6c 81 3d 3c 43 d8 bd
       0.058459554 -0.16626094 0.06319605 -0.10559699
0002e0 0a 05 fe 3c d3 55 27 bd 86 85 e0 3d 94 3c e9 3c
       0.031008262 -0.040853333 0.109629676 0.028471269
0002f0 0a 70 f9 bd c7 33 9f 3d 05 12 cd 3c 1f 1e f7 bd
       -0.12179573 0.077735476 0.025033006 -0.12066292
000300 97 c3 cd 3c 80 9a ca 3d 64 d9 9c 3c d9 93 13 3d
       0.025117679 0.0989275 0.019146629 0.03602967
000310 26 aa b9 3d e1 12 40 3c 2b 16 88 bc 41 63 be bd
       0.09065656 0.011723251 -0.016612133 -0.09296275
000320 c6 90 4c 3c 10 60 50 3d 7b 47 bd 3d ee 42 ed bd
       0.012485689 0.050872862 0.092421494 -0.115850314
000330 8a 5c c1 3d 06 fa 4f 3d 2d c8 7e 3b b8 4e 6a 3d
       0.094414786 0.05077555 0.0038876638 0.05720398
000340 da b2 32 bc 14 cd cf bb 4e 49 ac bd fd 3c 03 be
       -0.010906899 -0.006341586 -0.08412419 -0.12816234
000350 c8 12 9e bc 94 72 4d bd c7 50 04 3e 22 6f bd bd
       -0.019296065 -0.0501581 0.12921439 -0.092497125
000360 1f 9f 43 bc ba d8 5d bd db 1f 90 bc ca 52 09 3d
       -0.011939793 -0.054161765 -0.017593315 0.03352622
000370 3d e9 01 3c cf 2a 01 3c 4f f1 a0 bd bc 08 09 3d
       0.0079291435 0.0078837415 -0.07858526 0.033455595
000380 5e 48 9f bc 3a 02 d0 bd 6b f3 03 be e9 44 6c bd
       -0.019443687 -0.10156675 -0.12885825 -0.057682905
000390 80 22 d5 bb 95 e9 f4 3b ce 4d fd 3d 20 6f d7 3d
       -0.006504357 0.007474134 0.12368356 0.10519242
0003a0 46 94 98 bd 37 55 7c bc d2 25 45 3d fc 86 20 be
       -0.07450156 -0.015401176 0.04813177 -0.15676492
0003b0 9e 5f 6d 3d a3 ae 11 3e 16 3a be 3c 57 36 0b be
       0.057952516 0.14226775 0.023221057 -0.13594948
0003c0 84 5d 55 bb 4c 32 bf 3d ef 3a ed 3d 8c e2 d5 3d
       -0.003255696 0.09335765 0.11583506 0.10443601
0003d0 e4 fe e6 bd 8c 0f fb bc c6 67 8a 3d 2f e9 8a 3d
       -0.11279085 -0.030647062 0.067580745 0.067827575
0003e0 de ca 42 3c c1 74 d7 bc 2c db f9 bc 55 e3 d6 3c
       0.011889188 -0.02630079 -0.030500017 0.026231447
0003f0 d3 28 fd 3c 40 91 de 3d 27 d0 a0 bd c5 5b 07 bd
       0.030903256 0.10867548 -0.07852202 -0.033046503

gru.bias_ih_l0 f4 [192]
000000 45 54 dc 3d cf ff 36 3d 9f 94 c0 bc d8 64 ce bd
       0.10758261 0.04467755 -0.023508368 -0.10077828
000010 7a 34 09 bd 66 f6 8b bd f1 ae ba bd fc 47 cd 3d
       -0.03349731 -0.06834106 -0.09115399 0.100234956
000020 70 60 8b bd c3 52 58 3b 75 07 d8 3d fd d7 60 bd
       -0.06805503 0.0033008314 0.10548297 -0.054893482
000030 76 ae 85 bd c2 8f ee bb 14 52 8c bd 2b 61 f7 3c
       -0.065274164 -0.007280321 -0.06851593 0.0301977
000040 ee 6e a5 bd 6e 13 01 be 4b cf 5d bd 63 e7 b2 bd
       -0.08077799 -0.12605068 -0.054152768 -0.0873554
000050 c9 07 26 3d 20 c1 97 bd ec ef cc 3d b1 09 ee 3d
       0.04053477 -0.074098825 0.10006699 0.11622942
000060 f0 97 56 3d 47 32 80 bc ac fc e6 bc d7 41 58 bb
       0.052390993 -0.015648974 -0.028196655 -0.0032998228
000070 18 83 d2 bd 2f 46 18 bc 37 4a d8 bd 10 e3 09 bd
       -0.102789104 -0.009294077 -0.1056103 -0.03366381
000080 12 7a b6 3d 29 e0 c7 bb 75 d3 e6 bc eb 1e a7 bc
       0.08910002 -0.00609972 -0.028177002 -0.020400485
000090 84 8f a8 bd 92 88 ee bd 8e e4 ef 3d 86 fa c4 3d
       -0.082304984 -0.116471425 0.11713515 0.09618096
0000a0 da a1 8f 3d 4d 6e 17 3b 71 4b d2 3c 2d d0 92 bd
       0.070132926 0.0023106516 0.025670739 -0.07168613
0000b0 fd ac b0 bd 0f 91 6a 3d 87 74 b8 3d ba 06 52 3d
       -0.08626745 0.057267245 0.09006601 0.051275946
0000c0 dc 5a de 3c 83 a3 a6 bd 34 77 8c 3d de d4 10 bc
       0.027142935 -0.08136656 0.06858674 -0.008839814
0000d0 99 f6 ec 3c ba 7e 0e 3c 5c b8 88 3c 99 31 01 3c
       0.02892618 0.008697206 0.016689472 0.00788536
0000e0 15 8a cb bc 13 c5 a9 bd c5 1e 02 3d 07 6e d3 bd
       -0.024846116 -0.08289542 0.031767625 -0.103237204
0000f0 78 44 d6 3d 20 c7 64 bd 8b 0a a1 bc 9e f5 d1 bd
       0.10462278 -0.055853963 -0.019658348 -0.10251926
000100 71 7d f2 3c 2b 03 13 bd 27 53 1c 3d 1e 00 9e bd
       0.02960083 -0.035891693 0.038165238 -0.07714866
000110 42 f5 03 3d 8e a7 12 3d 66 2e a8 bd 63 cc d7 bd
       0.032216318 0.035804324 -0.08211975 -0.105370305
000120 9c 1c b2 3d 2f 25 49 bd 99 b2 a6 bc ec f5 4b bd
       0.08696863 -0.049107727 -0.020348834 -0.049795076
000130 23 bc 8a 3d 26 4f 09 3e 7a fb 08 be 4d aa 19 3c
       0.067741655 0.13409099 -0.1337718 0.009378982
000140 a4 d8 92 3d 65 68 2e bd 16 ba e7 3c a2 3d 38 3d
       0.07170227 -0.042580027 0.028286975 0.044980653
000150 fe a4 fc bd b4 8a a1 bd 6a 88 51 3c 8f 6a fb 3d
       -0.12336157 -0.07887784 0.012788871 0.12276184
000160 c4 7c 8c 3d b2 e7 c0 3d 04 f6 56 3d 0b ea 8f bc
       0.06859735 0.094191924 0.052480713 -0.017567655
000170 04 d8 ac bc a0 d6 50 bd a5 04 ca bd e8 1a d1 bd
       -0.021099098 -0.050985932 -0.09864167 -0.1021021
000180 5e 87 d8 bd 30 29 42 bd 97 94 5b bc 34 e8 6c bb
       -0.10572694 -0.04740256 -0.013402126 -0.0036149146
000190 d0 ee 57 bd bc 05 ab bd 9a 0f 77 3d 6e 85 af bb
       -0.052717984 -0.08350703 0.060317613 -0.005356482
0001a0 bb c7 f2 bb 70 23 0b 3d 3f fb 24 bd 4b ac 8e 3d
       -0.0074090636 0.033969343 -0.04027867 0.06966456
0001b0 b4 eb 56 bc 1d 52 98 3d 7b 68 d5 bd 37 9d c8 3d
       -0.013117719 0.07437537 -0.10420319 0.09795611
0001c0 f7 df 38 bd 5d b5 a9 bd 9d 9b 3f 3d 9c 56 be bc
       -0.045135465 -0.082865454 0.046779264 -0.023234658
0001d0 43 98 5a bd 13 fa ce bd 39 42 85 3d 6a e2 3b 3c
       -0.053367864 -0.101062916 0.065067716 0.011467556
0001e0 ab 54 0e 3d 57 62 db bd 27 e6 8d 3d 64 c6 77 3d
       0.034748714 -0.10712116 0.06928664 0.060491934
0001f0 be 8a d6 bb ad e5 6d bd 3a 3d 0e be 3f 8e a3 3c
       -0.006547301 -0.058080364 -0.13890544 0.01996529
000200 b3 43 58 bd 2a a3 ed 3d 21 de 2b bd 7d bc 06 3e
       -0.052798938 0.11603387 -0.041959886 0.1315784
000210 be e9 cd 3d d4 37 e3 3d 6f fd 03 bd 6d 47 bd 3c
       0.100543484 0.11094633 -0.032224115 0.023105348
000220 e0 ec bb bc 69 9b a4 3d 4d 09 a0 bd d6 b7 bf bd
       -0.0229401 0.08037455 -0.07814274 -0.09361236
000230 e4 c9 7a bd 59 f7 4f 3d 8c 7a a3 bd ca 66 a2 bd
       -0.061227694 0.050773 -0.07982358 -0.07929762
000240 51 d3 7f bd 54 33 d5 3c da 78 c0 bd 4b 6f a9 3d
       -0.062457386 0.026025452 -0.093980506 0.082731806
000250 7d 5e be 3d 62 6c 98 3d 3f d8 d7 bd 53 aa e4 3c
       0.09295366 0.074425474 -0.105392925 0.027913248
000260 15 15 a6 3d a5 fa c2 3d 31 2a 09 3e 25 40 7b bd
       0.0810949 0.09520463 0.13395001 -0.06134047
000270 19 ef d9 3d 03 a2 8a ba 41 22 be bd 06 19 7f 3d
       0.106413074 -0.0010576848 -0.09283877 0.062279724
000280 c9 6d db 3d 85 20 e1 3d 9d 6d 09 bd 04 01 09 3e
       0.10714299 0.10992531 -0.0335518 0.13379294
000290 7c b5 23 3d 4e e8 27 bd 7b ed ca bd 99 cd 5f bd
       0.039968 -0.040993027 -0.09908577 -0.054639433
0002a0 76 fe cc bd e7 7b 88 bd 03 1f ea 3c cc d5 2e 3c
       -0.10009472 -0.066642575 0.02857924 0.01067109
0002b0 da e6 c9 3c 16 18 84 bd eb 6b 87 bc 83 b0 47 3d
       0.024646211 -0.064499065 -0.016530951 0.04875232
0002c0 c2 57 15 3d b6 d7 9e 3b 80 4d 08 3e 61 bf 0d 3d
       0.036460645 0.004847492 0.13310814 0.03460634
0002d0 aa 84 62 3d a6 62 f5 3c c5 6b 11 3d 21 92 2a 3d
       0.0553023 0.029954266 0.035503168 0.041643266
0002e0 e1 14 c6 3d 58 45 3d 3d 26 50 e0 3d 9f 6d a2 3d
       0.09671951 0.04620871 0.10952787 0.07931065
0002f0 ab 73 94 bd 08 4c c9 bd 5d 25 13 bd 1a 60 6d bc
       -0.072486244 -0.09828955 -0.035924304 -0.014488244

gru.bias_hh_l0 f4 [192]
000000 0f 1c b9 bd 27 60 bc 3d 69 11 b4 3d c6 3e 08 bd
       -0.09038555 0.09198027 0.08792383 -0.03326299
000010 22 d9 c4 3d c8 83 ee 3c 9d e2 ca bd b6 8c a1 bd
       0.09611727 0.029115573 -0.09906504 -0.078881666
000020 76 ba b9 3d c8 2d a5 bd bd 01 67 bd 6b a4 b9 bd
       0.09068768 -0.08065373 -0.056398142 -0.09064563
000030 ad 57 2a bc c1 38 95 bd 7a 2d ef bd eb a4 bd 3d
       -0.01039688 -0.072862156 -0.11678596 0.09259971
000040 be ba 2d 3d c9 69 10 bd 1d f3 0c be 41 ca 51 bd
       0.04241442 -0.035257135 -0.13764615 -0.051218275
000050 43 27 a0 3d 36 ec 99 bd d0 cc 02 be 7a d4 55 3d
       0.078199886 -0.07515757 -0.12773442 0.052204587
000060 17 c7 d2 3d 86 22 48 3d 26 28 97 3c 3f b9 e5 3d
       0.102918796 0.04886105 0.018451761 0.112169735
000070 9f 5d 00 3e 94 fc d1 3c 9b d6 15 3d 81 56 0c 3e
       0.12535714 0.025633134 0.036581617 0.13704874
000080 97 1d 0a be c0 ef cb 3d 61 96 f7 3d d0 a7 54 3d
       -0.1348785 0.09957838 0.120892294 0.05191785
000090 56 6c 18 3d cc 3c f6 bd 67 19 cc bc dd 46 1a 3c
       0.037212692 -0.12023315 -0.024914457 0.009416309
0000a0 17 4a 40 3d fe bf 02 bd 4a f5 b4 3d ca f9 79 3c
       0.046945658 -0.03192138 0.08835848 0.015257308
0000b0 ae 0a 24 3d 94 13 8c 3d 27 cf f0 bd 10 94 af bd
       0.040049247 0.06839672 -0.11758261 -0.085731626
0000c0 56 6f 6f 3d b9 51 d0 3d 6e 04 93 3b 5e 87 29 bd
       0.058455788 0.10171837 0.004486612 -0.04138886
0000d0 18 9b 3f bd ec 11 cd 3a 3f 2b 4c bc 96 1d 37 3b
       -0.04677877 0.00156456 -0.012461483 0.0027941219
0000e0 a4 da 61 3d 07 7c a5 bd af 41 fc bc c9 73 a7 bd
       0.055140153 -0.08080297 -0.03079304 -0.08176381
0000f0 8a 94 c1 bd 96 29 cf bd 14 62 a2 3d 7d 2a 3e bd
       -0.0945216 -0.10115354 0.07928863 -0.04642724
000100 d2 cd a4 ba 95 4b 92 3d 34 cb be bd 85 36 c3 bc
       -0.0012573546 0.071433224 -0.09316102 -0.023829708
000110 e9 14 0c be d4 d7 a8 bd 09 85 53 bd 21 83 ad 3d
       -0.13679852 -0.08244291 -0.051640544 0.084722765
000120 c4 2c 12 3e 0d 07 16 3d 78 f9 8f 3d fa bc b5 3d
       0.14274889 0.036627818 0.07030004 0.08873935
000130 5b 39 b5 bd 74 87 e4 3d b9 d9 00 bb 21 c1 79 3c
       -0.0884883 0.11158648 -0.0019661023 0.015243799
000140 96 df ce bd a5 47 00 3e 99 b8 2f bd b9 38 c2 3d
       -0.101012394 0.1252733 -0.042900655 0.09483475
000150 c7 c4 2a 3d 48 5c b5 bd 0f 74 02 3e 6b 00 3d bd
       0.041691568 -0.08855492 0.12739585 -0.046142977
000160 7a e2 61 3d c6 5d ba bd e8 cc 2a 3d f3 f3 8f 3b
       0.055147626 -0.09099917 0.04169932 0.0043930947
000170 c8 05 b9 bd da 52 68 bc 85 05 66 3d bf 1b 00 bd
       -0.09034306 -0.01417991 0.056157608 -0.03127646
000180 01 58 a4 3c 58 96 7c 3d c3 5c e2 bd ee 4c 5b bd
       0.020061495 0.061666816 -0.11052849 -0.053540163
000190 aa 37 bc 3c d4 60 61 bb 58 37 ea bc 44 8f cc bb
       0.022975761 -0.003438999 -0.028590843 -0.0062426645
0001a0 8d d2 fe 3d 96 ba ba 3d 26 fd cb bd 9d 58 a3 bd
       0.12442503 0.0911762 -0.099603936 -0.07975886
0001b0 8b 54 83 3d e7 f7 a3 bd 12 f1 86 3c 05 6b 1a 3c
       0.0641261 -0.08006268 0.016472373 0.0094249295
0001c0 d2 2a de 3c 69 e5 c1 3d 18 b3 31 bd e4 61 d2 bd
       0.027120028 0.09467585 -0.043383688 -0.102725774
0001d0 57 73 3b 3d e4 11 8b bd ad 0f 97 3d 1d ff 20 3d
       0.045764294 -0.06790522 0.07376037 0.039305795
0001e0 f3 c8 e7 3b 1c 87 bc 3b 48 a8 93 bd 39 2c f1 3d
       0.0070735156 0.005753411 -0.072098315 0.11776013
0001f0 04 21 6e bd 59 ba a1 3c 79 cb 9d 3d 04 fd af bd
       -0.058136955 0.019742178 0.07704825 -0.08593181
000200 1d 9b 82 bc b4 06 41 3c 0c 86 2a bc 59 4b 04 3e
       -0.015943104 0.011781383 -0.010407936 0.12919368
000210 5e 43 da bd 7f 70 bf 3c 48 b5 43 b9 f8 b1 2e 3d
       -0.106573805 0.023369072 -0.00018664182 0.042650193
000220 f7 3c 9f 3d 63 38 ec 3d 51 c4 bb 3d 26 b3 74 3d
       0.077753 0.115341924 0.09168304 0.05974116
000230 3c e5 cf ba 9a 64 33 bd b2 58 aa bd c7 06 d6 3d
       -0.0015861164 -0.043797113 -0.083176985 0.104505114
000240 94 d1 77 3d bd 62 2e 3d ec 4d 92 3b ee c5 84 3c
       0.060502604 0.042574633 0.0044648554 0.016207661
000250 c2 08 a6 3d 40 10 99 3d 6d 39 33 3d 6e 49 b7 bc
       0.08107139 0.074738026 0.043755937 -0.022373881
000260 eb c7 20 bc 1d b0 54 3d b4 1e 99 3d 02 aa 94 3d
       -0.009813289 0.051925767 0.07476559 0.07258989
000270 8f 71 8e bd 09 c6 ea bd 75 c8 1e bc 9a 2a 80 3d
       -0.06955253 -0.114635535 -0.009691347 0.062581256
000280 0b 6f f7 3c cf c2 a8 bd c6 13 1c 3d a7 cc d8 3d
       0.030204317 -0.08240282 0.038104795 0.10585909
000290 9a 84 cc bd 56 e7 88 bd 7b e5 93 bd 2f 45 3b bd
       -0.09986229 -0.06684749 -0.07221504 -0.045720275
0002a0 a1 b1 78 3d 3a fa 80 bd 3a 2e 95 3d 95 21 a8 3d
       0.060716275 -0.06297727 0.07284208 0.0820953
0002b0 0e 5d 5c bd 5c 0e 24 3d 26 51 d6 3d 9e e2 f9 3d
       -0.05379968 0.040052757 0.104646966 0.12201427
0002c0 cf 63 43 3c fa c3 06 bd be d8 02 3e f4 f9 00 be
       0.011925652 -0.03290174 0.12777993 -0.1259535
0002d0 6e 83 c0 bd 20 7c e6 bd 83 48 03 3e d5 2c bb bc
       -0.09400068 -0.11254144 0.1282063 -0.022848526
0002e0 69 a9 56 bd dc 7d 39 3d 2c 86 88 3c b0 19 99 bd
       -0.052407656 0.045286044 0.01666554 -0.074756026
0002f0 d0 88 08 bd 82 33 f2 bd e4 3e ea bb 52 01 ce bc
       -0.0333336 -0.118262306 -0.0071486104 -0.025147114

gru.weight_ih_l0_reverse f4 [192, 16]
000000 5e 21 e2 3d fe 01 ae 3d 7f 65 db 3d f0 cb 93 3d
       0.110415205 0.08496474 0.10712718 0.07216632
000010 be d9 eb bd 82 6b b1 3c 1d de ef bd f5 ca ca 3d
       -0.115161404 0.021657709 -0.117122866 0.09901992
000020 d1 e5 2c 3c 9d a1 a0 3d 51 19 88 3d 00 70 46 3c
       0.010552839 0.07843325 0.06645454 0.012111664
000030 ce 05 0f bd dd 27 5c 3d d1 0e e8 bc 30 3c a6 bd
       -0.034917645 0.053748954 -0.028327378 -0.081169486
000040 58 b8 00 be 63 b4 0a 3e 83 85 01 bc 49 2b 8d bd
       -0.12570322 0.13545375 -0.007905367 -0.068930216
000050 ef 1d 4b 3e 15 cb 31 bc d5 35 32 bb a9 0a 80 3d
       0.19835638 -0.010851641 -0.002719273 0.06252033
000060 30 e8 4a 3d d3 68 b3 bc 0d ff 24 bd f8 e5 3f 3d
       0.049537838 -0.02190057 -0.040282298 0.046850175
000070 02 3b 67 3d 03 1a 11 be 21 85 08 3d fb 4c 3c 3d
       0.05645276 -0.14170079 0.033330087 0.04597185
000080 c4 95 f1 3d 16 6a 2a bd 22 1a a5 bc a5 37 24 bd
       0.11796144 -0.041605078 -0.020154063 -0.04009213
000090 03 fd 19 3d 26 0b b5 3c a8 9c ef 3d 3d 30 f5 bd
       0.037594806 0.022100043 0.11699802 -0.11972091
0000a0 69 da 35 be ea 6c 2c 3d c6 37 85 3d 4d 32 06 be
       -0.17759098 0.042096056 0.065047786 -0.13105126
0000b0 ff b7 10 3d 43 70 b9 bd 6e 60 d4 bc 7f f7 f3 3d
       0.035331722 -0.09054615 -0.025924888 0.119124405
0000c0 db b5 6c 3c 5c fc df 3d 07 1c 0c bd 89 7b 78 bd
       0.014447655 0.109368056 -0.034206416 -0.060664687
0000d0 c2 a7 3b bd 6a c1 24 bd 7e 1a b2 3d e7 6d f0 bd
       -0.045814283 -0.040223517 0.08696459 -0.11739712
0000e0 75 42 2f 3d b3 a7 ee 3c 67 c0 d1 bc 2f 37 34 bc
       0.042787988 0.0291327 -0.02560444 -0.010999485
0000f0 1e d9 2c bd 7e 7d ee bd 29 f0 57 bd 82 69 f3 bd
       -0.042199247 -0.116450295 -0.05271927 -0.118853584
000100 03 a7 ba 3c 55 41 b5 bc a1 7f 2d 3e 29 4f da bd
       0.022784716 -0.02212588 0.16943218 -0.1065963
000110 cf f1 83 3c cb 1e 77 3d c5 6e bf 3c 12 41 81 3d
       0.016106514 0.0603321 0.023368249 0.06311239
000120 46 90 01 be d2 aa 9c ba 5f dc 96 bd f0 cf e4 3b
       -0.12652692 -0.0011952764 -0.07366251 0.006982796
000130 90 7f 84 3d 1b 70 dd 3d bd 33 de bd ad dc 5a 3d
       0.06469643 0.10812398 -0.10849712 0.05343311
000140 f9 16 d1 bb 16 41 5a bb 5d 7b f2 3d b6 54 35 bb
       -0.0063809124 -0.0033302954 0.11839936 -0.00276689
000150 0b 60 d7 bd fd 32 b9 3c cf 0a 91 3d 49 1c 1a 3d
       -0.105163656 0.02260732 0.0708214 0.03762463
000160 56 89 c5 bd 85 51 5a 3d 6b da 8b 3c cf ef 0f bd
       -0.096453354 0.0533004 0.017071923 -0.03514081
000170 83 75 db 3c a7 4c 6a 3d 13 3d 09 bc 94 c6 82 bb
       0.026789432 0.057202008 -0.008376378 -0.0039909575
000180 d9 e9 3d bd 33 7d 4f bd 0f d4 ee 3d 8a 2a 88 3d
       -0.046365593 -0.05065651 0.11661541 0.06648739
000190 2f b4 e3 3d 88 d0 8d 3c d6 ff 0c bd 78 f0 7a bd
       0.11118352 0.01731135 -0.03442367 -0.061264485
0001a0 8c 88 bf 3d aa 95 f2 3d 1c 52 0a be 0c ad 3c be
       0.09352216 0.118449524 -0.13507885 -0.18425387
0001b0 e3 d3 e8 3d 74 2a d3 bd b9 94 28 bc e1 a2 a8 3d
       0.11368539 -0.10310832 -0.0102893645 0.08234192
0001c0 92 e5 66 3d 28 b7 79 bd 08 bc b6 3d 9d 8e a9 3d
       0.05637128 -0.060965687 0.08922583 0.082791544
0001d0 e9 90 09 3e b5 dd 2e 3e 9b 67 01 bd 88 27 fa bd
       0.13434185 0.17076762 -0.031592946 -0.12214571
0001e0 a6 b2 a4 bd ad 8d 0b 3e f1 18 73 3d 28 ba a4 3b
       -0.08041887 0.13628264 0.059349958 0.0050270744
0001f0 7d bd 04 bd c4 ac ba bd ee 59 6d bd d2 0b 67 3d
       -0.032407273 -0.09114984 -0.05794709 0.056407757
000200 ec 1b 88 bd 01 d7 01 3d dd 22 5c 3d 12 04 ed bd
       -0.06645951 0.031699184 0.053744186 -0.11573042
000210 a5 2a e4 3d a8 c6 9f 3d 91 82 fc 3d ae 85 32 bd
       0.11140946 0.078015625 0.12329591 -0.043584518
000220 f3 57 bb bc 14 78 0e 3e 18 c9 76 3c 31 74 2d bd
       -0.022869086 0.13912994 0.015062593 -0.042347137
000230 bf 25 c2 bd 5b e0 1a bd a0 a5 1d 3e bf 0d 27 bd
       -0.09479856 -0.03781162 0.15395212 -0.040784594
000240 4a 00 d5 3d 41 9f 9d 3d 30 37 75 3d 1c 57 e8 3d
       0.10400446 0.07696391 0.059867084 0.1134474
000250 eb 2d 8c 3a 85 70 15 bd 79 35 88 bc 4c b5 18 bd
       0.0010694837 -0.03648426 -0.01662706 -0.037282273
000260 30 c6 f7 bd 66 45 35 bb 43 35 71 3c 97 51 b0 bd
       -0.12098348 -0.0027659773 0.014722171 -0.08609312
000270 3b 26 c8 bc 27 e0 a5 3d 53 19 7c bd 80 b4 48 bd
       -0.024432292 0.08099394 -0.06154759 -0.049000263
000280 48 6d e2 bd be b1 d5 3d 03 dd b9 3d 3e ff 82 3d
       -0.11056 0.10434292 0.09075358 0.0639634
000290 f9 cc 55 bd 75 0e dc ba 5f 60 94 3d 98 e8 90 bd
       -0.05219743 -0.0016788976 0.07244944 -0.07075614
0002a0 3e 3f 6c bd ee cc 11 3d 01 43 d0 3b f1 28 f4 bd
       -0.0576775 0.035595827 0.0063556437 -0.119218715
0002b0 5d 72 a0 bd 63 ff d5 3b 47 f5 9f 3b 23 80 df bd
       -0.07834313 0.0065306886 0.0048815343 -0.10913112
0002c0 12 05 cd bd dd ce 86 bd 02 8b 42 3d da 38 a2 bd
       -0.10010733 -0.06582425 0.04749585 -0.07921
0002d0 fa b3 15 3d 8e d8 22 3e e4 5f a2 3d 04 bb ce 3c
       0.036548592 0.15902922 0.07928446 0.02523566
0002e0 cf 21 4b be af 70 45 bc 2b 5b 7c 3d 51 54 19 be
       -0.19837116 -0.012050792 0.061610382 -0.1497357
0002f0 35 c9 2f bc e6 34 01 3e a2 11 d0 bb 67 00 15 3d
       -0.010729124 0.12617835 -0.0063497582 0.036377337
000300 03 4a f2 bd 00 dd 12 3e 31 e7 03 3e 16 0a 99 3a
       -0.11830523 0.14342117 0.12881161 0.001167598
000310 68 79 b4 3d 79 c5 c0 3d b0 18 bc 3b 87 8f bf bd
       0.08812219 0.09412665 0.0057402477 -0.093535475
000320 6b 28 53 3c 30 0e c8 3d 78 91 98 bd 32 32 5d 3d
       0.012888054 0.09768331 -0.07449621 0.054002948
000330 4c 56 b0 3d 9e f9 b5 bd 88 19 00 3e e5 b6 c3 bd
       0.0861021 -0.08885501 0.1250974 -0.09556369
000340 db 96 fa bd 26 d1 86 3d f0 69 af bd 3e 22 cf bd
       -0.12235805 0.06582861 -0.08565128 -0.10113953
000350 00 71 cb 3d f8 fc 11 3d 84 1c 5d 3d c9 1b b8 3c
       0.099336624 0.03564164 0.053982273 0.022474186
000360 f2 46 99 3d 87 f5 dd 3d 1b 57 f1 3c c1 fe e7 bd
       0.07484235 0.10837846 0.02946048 -0.11327887
000370 c2 87 1c 3d 2b d6 ef bd fd 16 82 bd 23 4b 83 bd
       0.038215406 -0.11710771 -0.06352041 -0.064108156
000380 de d0 44 3d cd 59 fa bd 26 14 89 bd d8 23 f2 bd
       0.048050754 -0.122241594 -0.06693296 -0.11823243
000390 a2 db 1d 3e ad 06 31 3e 0e c6 94 3d b0 5b c6 3c
       0.15415815 0.17287703 0.072643384 0.024213642
0003a0 cb 88 d5 bd 0d 7d c9 bd f2 1c a8 bd b5 11 07 bd
       -0.10426482 -0.09838305 -0.08208646 -0.03297587
0003b0 e5 ce d3 3d c6 8d bd bd 0e 71 0c 3e 21 77 d7 3c
       0.103421964 -0.09255557 0.13715002 0.026301922
0003c0 fc 48 ac 3d 96 de 34 bd 7e 1e 9d bd ef d2 d9 bd
       0.08412358 -0.044157587 -0.076718315 -0.106359355
0003d0 79 79 f8 3d b7 6a 3a 3c b4 97 ed 3c 3e 11 38 bc
       0.12132544 0.011377982 0.029003002 -0.01123458
0003e0 8c f6 77 3b 5c ca e2 bd e2 5c 02 3e dc d8 c5 bb
       0.0037836162 -0.11073753 0.12730744 -0.0060378145
0003f0 c9 a9 9b 3d 59 84 d5 bc 3c ca 2c bd a6 3b 34 bc
       0.07600743 -0.026064085 -0.042185053 -0.011000549

gru.weight_hh_l0_reverse f4 [192, 64]
000000 f1 20 a6 3c 51 2f 01 3e d2 aa 72 3d 70 73 05 be
       0.02027938 0.12615706 0.05924494 -0.13032317
000010 b4 c2 f6 3d fb 81 a4 3d 40 12 c0 bc ed 27 e3 3d
       0.120488554 0.08032604 -0.023446202 0.110915996
000020 b9 f0 4d 3d 5c 8e c8 3c a0 2e c4 bd a2 32 ae 3d
       0.0502784 0.024481945 -0.095792055 0.08505751
000030 36 44 a5 bd b2 e1 94 3d 7d 21 40 bd 21 38 4f 3d
       -0.08069651 0.072696105 -0.046906937 0.050590638
000040 59 c2 ce 3d 41 8d af bd c3 c3 e1 3d 9c 8c d4 bd
       0.100956626 -0.08571864 0.11023667 -0.103783816
000050 8f d5 2b 3d 86 a0 b3 bd 83 e5 69 bd f1 a0 a8 3d
       0.041951712 -0.08770852 -0.057103645 0.08233822
000060 a4 ba a2 bd af a0 58 bd 96 3a 7d bd 53 29 15 be
       -0.07945755 -0.052887615 -0.06182345 -0.14566545
000070 b8 88 cf 3d 90 56 b4 bd 29 b6 0d be c7 c0 d9 bd
       0.10133499 -0.08805573 -0.1383902 -0.106324725
000080 31 f2 02 3e 25 4d 03 3d 5c 34 55 bd 91 13 63 3c
       0.12787701 0.032055993 -0.052051887 0.013859645
000090 3d 59 2a bd 6b c1 60 bd f0 ae fd 3d c8 e6 0b bd
       -0.04158901 -0.054871958 0.12386882 -0.034155637
0000a0 ea 9d 33 bd 9e b6 b4 3d 2b 6f db 3b 8b 29 15 3d
       -0.04385177 0.08823894 0.006696602 0.03641657
0000b0 0e 8d b5 3d a3 17 ba 3c 81 99 b8 bc ce 40 b2 bb
       0.08864795 0.022716349 -0.022534134 -0.005439854
0000c0 18 ae 8b 3d e2 8b e0 bd 67 18 f4 bd b4 6c 7c bd
       0.06820315 -0.109641805 -0.11918717 -0.061627105
0000d0 58 e1 f9 39 a2 94 f5 3d f3 c5 b7 3d 8f e2 e6 3d
       0.00047660875 0.1199124 0.08973303 0.11273681
0000e0 4a e9 de bc 18 9a 25 bc 85 36 04 3d 15 75 e9 3c
       -0.02721085 -0.01010754 0.032278556 0.028498212
0000f0 96 42 45 3d 2f 38 82 3d 20 01 23 3d a1 36 54 bc
       0.048159204 0.063583724 0.039795995 -0.012952478
000100 cf 1b 1a 3d 0e d1 30 3c 99 11 32 3c 0f f1 7e 3d
       0.037624177 0.01079203 0.010868453 0.06224161
000110 0b 99 ab 3c e0 78 99 bd 76 74 8a 3d a7 41 06 be
       0.020947 -0.07493758 0.067604944 -0.13110982
000120 c3 3f 30 3d 6f 84 91 3d 94 1f 8e bc 37 bb 09 3e
       0.043029558 0.07105338 -0.017349042 0.13450323
000130 42 91 20 bc c2 06 77 bd cc cc 85 bd d2 23 3d be
       -0.009800257 -0.06030918 -0.065332025 -0.18470696
000140 f6 c8 91 3d d9 4d 1a 3d bd 08 a8 bd 76 01 17 3d
       0.071184084 0.037671898 -0.08204792 0.036866628
000150 28 88 13 bd 7f 0d 74 3d f0 76 40 bd 89 4a 85 3a
       -0.03601852 0.059583183 -0.046988428 0.0010169308
000160 e4 3e d2 bd 77 55 a0 3c 52 5c 0a bd 9f 83 2b 3d
       -0.10265902 0.019572003 -0.03377945 0.04187357
000170 7e fa bf 3c f0 54 46 bd ce 81 a6 3d d6 e0 3f bd
       0.023434874 -0.048420846 0.08130227 -0.04684528
000180 90 e1 a4 3d 50 d6 01 3d ff 9c 8d 3d 2a 85 49 be
       0.08050835 0.031698525 0.0691471 -0.19679704
000190 12 58 8a ba 6c e7 16 3b e5 f1 04 be 7d 76 96 3d
       -0.0010554811 0.0023026122 -0.129829 0.073468186
0001a0 fb 70 ca bd 29 8b 2d bd 71 9d 54 bd 67 39 d3 bd
       -0.098848306 -0.04236904 -0.05190796 -0.10313683
0001b0 53 ea a9 3d f2 a1 ab bd ee 81 0c bd 47 4c 48 bd
       0.08296647 -0.08380498 -0.034303598 -0.04890087
0001c0 17 fb 61 3d ff c0 ab 3d 43 b2 b5 3d 2d 17 32 bd
       0.0551711 0.083864205 0.08871891 -0.043479133
0001d0 24 22 dc bd c8 9a cb 3d 1e 99 e0 3c cf 90 1d 3e
       -0.10748699 0.099416316 0.027416762 0.15387271
0001e0 18 32 89 3d 70 e3 14 bc 54 84 49 3b 04 68 1c ba
       0.06699008 -0.009087428 0.003074904 -0.0005966427
0001f0 b9 75 08 3e 8f 85 64 bc f2 cd 16 3d 01 f5 d5 3d
       0.13326158 -0.0139478585 0.0368175 0.104471214
000200 aa cd b8 3b 42 de a0 bc 65 ad c2 3d b3 0a 54 bc
       0.0056397514 -0.01963723 0.09505729 -0.012942004
000210 e5 53 7f bd f6 32 2b be 77 e7 40 3c bf d3 be bd
       -0.062335867 -0.16718659 0.0117739355 -0.09317731
000220 fd 6f 14 3e d2 88 eb bd 26 da 5c 3d 88 1e 20 3e
       0.14495845 -0.11500706 0.05391898 0.15636647
000230 5e e4 84 bc d9 59 a0 bd f7 79 13 be 2e 87 0c 3d
       -0.016222175 -0.07829637 -0.14401995 0.034308605
000240 ac 54 73 3d 3e 28 07 3e 85 b4 1e 3e fb 1b 07 bd
       0.05940692 0.13198945 0.1549855 -0.03298567
000250 1c 6b b7 3d 18 63 0f bd 56 3d 68 bd 44 a9 ac 3c
       0.08955976 -0.035006613 -0.05669912 0.021076806
000260 3e e9 85 3d 56 c7 08 bd 5d 34 e2 bd c8 ae f3 bd
       0.06538628 -0.033393227 -0.11045144 -0.11898571
000270 0c 5b a8 bd f9 c7 a0 bd 1c 18 91 bc e3 0f 06 3e
       -0.08220491 -0.07850642 -0.017711692 0.13091998
000280 cf 59 c8 3d e0 ed 88 3d 81 29 73 bd f5 fc 63 bd
       0.09782755 0.06685996 -0.059365753 -0.05566116
000290 47 f5 22 3d 2f 99 bf 3d 72 c3 ee bd 06 4a cb 3d
       0.039784696 0.09355389 -0.11658372 0.09926228
0002a0 1d 63 09 be 86 fc 33 bd 35 a6 0f 3e e9 ff 79 3d
       -0.13416715 -0.043941997 0.14028247 0.06103507
0002b0 b6 ac 07 bd eb 6a 32 be 46 6f 56 3c 0f 39 41 bd
       -0.033123694 -0.17423598 0.013088053 -0.047173556
0002c0 9e 80 68 bd f5 2e 97 3d 04 bb 2a 3d 5e ea 0a 3d
       -0.056763284 0.07382003 0.04168226 0.033914916
0002d0 1c a0 a2 3d c7 b0 82 3d 91 35 b9 3b 5b 99 a5 bd
       0.07940695 0.06381374 0.0056521376 -0.08085891
0002e0 a6 8a aa bd 3c f1 ea bd 8a 6b f8 ba 4c 87 eb bd
       -0.08327226 -0.11471793 -0.0018952948 -0.11500415
0002f0 f2 c8 88 3d f7 51 15 3c f5 71 a0 3c 70 3f ce 3d
       0.06678952 0.00911378 0.019585589 0.100706935
000300 31 17 bf 3c df 44 cd 3d 46 38 26 3e 3e 42 1f be
       0.023326488 0.10022902 0.16232404 -0.15552613
000310 01 c6 0a 3e 36 c8 ed 3c 6a 17 19 bd e8 15 39 3d
       0.13552095 0.029026132 -0.037375845 0.045186907
000320 1d a8 29 3d 19 bd ad bd d6 44 34 3d e3 88 03 3e
       0.04142009 -0.08483333 0.04401096 0.12845187
000330 c2 0f 4d bd 02 60 36 3d f8 bc 0c be 02 04 12 bd
       -0.050063856 0.044525154 -0.13743961 -0.035648353
000340 e5 7d a8 3d 92 f9 fb 3d ed 1b bc bd 72 bd 1e bd
       0.082271375 0.12303461 -0.09185014 -0.038754888
000350 f7 36 59 3c 71 39 26 3d f8 77 b6 3d b7 01 c0 3d
       0.013257734 0.040582124 0.08909601 0.09375327
000360 58 91 4a 3b fc 1f 73 bc 69 44 87 3d 0e c0 f8 3c
       0.0030909386 -0.014839169 0.06604845 0.030365016
000370 fd 7a 00 be ad d8 43 be a9 80 66 3d be 8f df 3d
       -0.12546916 -0.19125624 0.056275044 0.109160885
000380 46 e8 a3 bd 39 84 a0 bd 24 dc 25 bc 3c 2d df 3c
       -0.08003287 -0.078377195 -0.010123286 0.02724325
000390 8c fc 26 be 1a 7b b1 3d 8f c5 9e bd d9 93 79 bd
       -0.16307276 0.08666058 -0.07752525 -0.060932014
0003a0 e7 a6 69 bc 3b 7c 45 3d 1d 4a 0f 3e 9c 93 04 3c
       -0.014260984 0.04821418 0.13993116 0.008091833
0003b0 04 26 a6 3d 98 93 86 bd cf 6d 53 bb 46 12 00 3c
       0.0811272 -0.0657112 -0.0032261496 0.007816857
0003c0 53 38 d0 3d 49 d7 06 3e bc d2 4e 3d 0e d3 fe 3c
       0.10166993 0.13168062 0.05049394 0.031106498
0003d0 11 f3 b7 3d 5a 83 cc bc ca f5 10 3e a1 92 d4 3d
       0.08981908 -0.024964977 0.14156261 0.1037953
0003e0 8b 3b 90 3d ed e7 65 bd 23 01 43 3c d4 9c d8 3d
       0.07042607 -0.056129385 0.0119021265 0.105767876
0003f0 2f a3 24 3d 74 90 99 bc c1 e3 23 be 42 0c 49 bb
       0.040194687 -0.018745638 -0.1600485 -0.0030677472

gru.bias_ih_l0_reverse f4 [192]
000000 10 7c 70 bd 85 69 c7 3d 30 48 e6 3d 13 11 a1 3c
       -0.058712065 0.09736923 0.112442374 0.019661462
000010 e7 dd d8 bd a7 31 ad bd 3a a5 9b 3d 5c 4c e7 bd
       -0.105891995 -0.08456736 0.07599874 -0.11293861
000020 c3 ee e5 bd 4e b3 8b bc d6 18 d3 3d a9 79 0f 3e
       -0.11227181 -0.017053273 0.103074715 0.14011253
000030 72 60 84 3c 55 46 3d bc b9 fd b3 bd 5c a9 73 3d
       0.01615927 -0.011552413 -0.08788628 0.059487686
000040 d2 69 23 3d 03 c8 91 3d ed 2a 4a 3d b7 85 2d bd
       0.03989584 0.07118227 0.049357343 -0.04236385
000050 da ba 1c bd d0 d3 69 3b d7 c8 52 3d 9c 2b 87 bd
       -0.038264133 0.0035679229 0.051461067 -0.06600115
000060 7d 9e 4a bd 4c 69 85 bd e7 63 8f 3d c8 26 e1 bd
       -0.049467552 -0.065142244 0.07001477 -0.10993725
000070 4f 9a 83 3d c6 ad bc 3b 50 31 5e bd 33 95 3f bd
       0.064259164 0.00575802 -0.054246247 -0.046773147
000080 10 0a bb 3d 99 ea e1 3d b0 78 0d 3e fb 38 e1 bc
       0.09132779 0.11031074 0.1381557 -0.02749299
000090 57 b2 df 3d bd 01 1c bd ac 78 f0 3c bf b6 bd bd
       0.109226875 -0.038087595 0.029354416 -0.09263372
0000a0 6e fa 79 bb 03 57 f5 3d 32 56 0f be 65 e8 c5 bd
       -0.0038143652 0.11979487 -0.13997725 -0.09663466
0000b0 bc 06 be bd de 4b c2 bc 0b 04 fa bc 39 75 eb 3b
       -0.09278628 -0.023717817 -0.030519506 0.007185605
0000c0 c8 04 ac bd 16 21 84 bc 28 f3 0c bd f3 a4 da bd
       -0.083993495 -0.016129058 -0.03441158 -0.10675993
0000d0 23 88 a6 3d ef 40 e3 bd 94 c4 e4 3c de ef 51 bd
       0.08131435 -0.110963695 0.027925767 -0.051254146
0000e0 f7 cf 85 3c d3 68 8f bd a0 d6 f2 3d b8 b7 09 3d
       0.016334517 -0.070024155 0.11857343 0.033622473
0000f0 33 5b bf 3d 14 d9 d5 3d c2 5e 22 be 1a 1e 2f 3d
       0.09343567 0.10441795 -0.1585646 0.042753316
000100 c5 58 52 3d 92 4d 23 3d 76 ce 9b 3d 22 99 4e 3c
       0.05135419 0.0398689 0.07607739 0.012609752
000110 18 ef ac 3d 58 36 81 bd fb 53 5c 3d 77 8f de 3c
       0.08444041 -0.063091934 0.053791028 0.027168019
000120 5b 52 ad bd ad 3d c7 bd 93 f6 53 3d 40 e4 43 bd
       -0.08462974 -0.097285606 0.051748823 -0.047825098
000130 04 56 64 3d 68 79 1f 3d 89 f6 a7 bd 65 83 8e 3d
       0.055746093 0.03893414 -0.0820132 0.06958655
000140 9f e3 6b 3d a4 4c 17 3d 2c aa dd 3d b7 64 1f 3b
       0.057590123 0.036938325 0.10823473 0.0024321505
000150 9d a1 b2 3c 1c 2f b6 bd 51 31 08 3d fd 8c 4b 3c
       0.021805579 -0.08895704 0.033250157 0.012423751
000160 0d c0 02 3d 68 f7 24 3c 5d 09 f5 bd b9 b7 fc bd
       0.031921435 0.010068752 -0.119646765 -0.1233973
000170 36 11 75 bd 93 20 9f 3c b9 5b b7 3d fe 0e 08 bd
       -0.059830867 0.019424712 0.089530416 -0.033217423
000180 61 02 0d bc b2 2d 86 bd 46 e1 a7 3d e5 b8 de 3c
       -0.008606524 -0.065516844 0.081972644 0.027187774
000190 6f d6 27 bd 7b cb d0 3c 29 f7 8f bd 30 06 28 3e
       -0.040975984 0.025487652 -0.07029564 0.1640861
0001a0 ed 3a cc 3c 3b fc 0e 3e 81 71 68 bd c1 76 ec 3d
       0.024930442 0.13963406 -0.05674887 0.11546088
0001b0 5e 45 f2 bd b6 7e 66 bd 9c 55 14 3e db c3 61 bd
       -0.11829637 -0.056273185 0.14485782 -0.055118423
0001c0 85 3f f6 3b f9 a9 bb bd ac 41 6a 3c ac fb eb 3d
       0.0075148963 -0.09163279 0.014297884 0.11522612
0001d0 ee e8 0e 3d 3b c1 bd 3c 0c b2 c0 bd 72 44 cb 3d
       0.034890108 0.023163429 -0.0940896 0.09925164
0001e0 bb f3 c5 3d ce 6e 8f 3d 21 c9 db 3d 5c 3c 6c 3b
       0.096656285 0.07003556 0.10731722 0.003604672
0001f0 86 9b e0 bd d8 8e f1 bc 93 a3 7f 3d 5a 62 e7 3c
       -0.10967164 -0.029487059 0.062411856 0.02824514
000200 29 1a 88 3d 73 ff af 3d 20 97 f9 3d 46 cc 04 be
       0.06645615 0.08593645 0.12187028 -0.12968549
000210 c3 31 06 3e 3d b2 d4 3d 54 f6 c0 bd c6 5f 68 bd
       0.1310492 0.10385559 -0.09421983 -0.05673196
000220 85 8f 2b ba 6d 37 51 3c c8 d9 94 bd bf 4e 24 bd
       -0.00065445184 0.012769562 -0.07268101 -0.04011416
000230 2a 5b 29 3d af d1 d2 bd 60 f3 af bd 14 4d 79 3d
       0.041346706 -0.102939 -0.08591342 0.060864523
000240 47 9a b2 3d ef d8 f6 bd de 0f b0 bd 1a 20 07 be
       0.08720832 -0.120530955 -0.085967764 -0.1319584
000250 63 65 a5 bc b8 d1 cc 3c 2b d1 d7 bd 1a 6a be 3b
       -0.020189947 0.025002345 -0.105379425 0.005810988
000260 9d c3 7e 3d 32 e5 23 bd 08 64 00 3e a5 12 61 bd
       0.06219827 -0.0400135 0.12538159 -0.05494942
000270 fc ab 74 bd 07 08 05 bb 08 4d 8e bd 78 e6 90 3d
       -0.05973433 -0.0020298974 -0.06948286 0.070752084
000280 73 94 80 bd 58 a6 d0 3d 1d 24 77 3d 7f 49 ff bc
       -0.062783144 0.101879776 0.060337175 -0.031162975
000290 c5 4b 30 3c e4 df e6 bd ed 25 f4 3c 54 61 80 3c
       0.010760252 -0.112731725 0.02980324 0.01567141
0002a0 81 75 de bc 45 cd 00 3d 34 7c b2 3d 28 8d 90 bc
       -0.02715564 0.03144576 0.08715096 -0.017645434
0002b0 98 cc 82 3d be 77 ed bc d2 d7 89 bd 17 ab 22 bc
       0.063866794 -0.028987762 -0.067306176 -0.009928486
0002c0 ab e0 ef bd d9 db a4 3d 3f 99 4e 3c 70 de 78 3d
       -0.11712774 0.08049745 0.012609779 0.060759008
0002d0 86 de 2f 3c 86 e2 a5 3d c5 40 79 bd 51 e1 e8 bd
       0.010734206 0.080998465 -0.060852785 -0.11371101
0002e0 d6 cd 0d 3d 68 42 07 be 74 84 a6 3d f7 83 a8 bd
       0.03462013 -0.13208926 0.08130732 -0.08228295
0002f0 87 61 dd 3d b9 01 47 3d ae d6 8c 3d 4c 26 f9 3c
       0.108096175 0.048585627 0.068768844 0.03041377
