try2_simDataset2/30bp_SingleConserved_s5_UnifBG_fullytrainedDisc.pth (torch, 495413 bytes, 20 tensors)

embeddings.weight f4 [6, 16]
000000 ec f1 26 bf 57 14 3e 40 4e a4 93 3e 66 35 fe bf
       -0.65212893 2.9699914 0.28836292 -1.9860046
000010 8c c1 1c 3f 52 06 3d bf 90 65 d8 3e 5b 5b 39 3f
       0.6123283 -0.7383777 0.42264986 0.7240502
000020 45 dd cc 3e 85 76 85 3f 99 99 5d 3f f5 1e 2f 3f
       0.40012565 1.0426794 0.86562496 0.6840661
000030 4d 69 f1 3e d3 db f5 be 00 b1 19 40 ef 9d 1c be
       0.4715065 -0.48019275 2.4014282 -0.15294622
000040 b5 72 8b bf c4 d2 21 3f 0e 0e 82 be a7 7d 43 3f
       -1.0894381 0.6321223 -0.25401348 0.76363605
000050 23 60 98 3e 4a 35 ff be cd 3e 8a 3f 0b e9 80 3f
       0.29760846 -0.49845344 1.0800415 1.0071119
000060 1c ef 38 3e 2f 95 e6 be 7c 7a 99 bf 23 f5 66 3f
       0.18059963 -0.45035693 -1.1990504 0.902178
000070 3b a2 20 bf 44 08 46 3f 59 46 c4 3f bf 0f 49 3f
       -0.62747544 0.7735636 1.5333968 0.7853965
000080 d3 93 49 3f 84 21 80 3f 45 b7 29 3f bb 79 dd 3e
       0.78741187 1.0010228 0.6629527 0.43256935
000090 3f 09 de 3d 29 b8 00 3f 44 d1 05 40 ab a2 78 3f
       0.10841607 0.50281006 2.0908976 0.9712321
0000a0 20 fe 06 c0 d1 f3 b8 3f 52 81 a0 bf c7 c6 b8 bf
       -2.1092606 1.4449407 -1.2539465 -1.4435662
0000b0 98 17 21 bd 3b 52 0b 3f 63 24 c2 bf 47 a3 a2 be
       -0.03932914 0.5442235 -1.5167354 -0.31765196
0000c0 9c 96 5b 3f f1 31 c1 be 8b 29 14 bf ec 7d a9 3f
       0.85776687 -0.37733415 -0.5787589 1.3241553
0000d0 78 5e 55 bf 6b 14 c3 bf 6f c5 c8 be 19 86 38 3f
       -0.8334727 -1.5240606 -0.3921313 0.72079617
0000e0 ef f1 98 3f 9b 74 ae bf af 53 87 3e fb 09 9e 3f
       1.1948832 -1.3629335 0.26431033 1.2346796
0000f0 07 f1 1e c0 e1 3d 42 3f 55 fa 93 bf 48 b6 4f bf
       -2.4834611 0.7587567 -1.156077 -0.81137514
000100 3c 3b 0e 3f 77 69 1e be b0 43 2c 3f c8 18 c2 3f
       0.55559134 -0.15469919 0.6729078 1.5163813
000110 5b 0a 97 3f 5f 98 db 3f 13 99 8d 3f ad f8 cc be
       1.1800035 1.7155875 1.106234 -0.40033475
000120 d5 de 37 3f 57 75 8c 3e 9a 78 a9 3f c6 29 36 3e
       0.7182439 0.27433273 1.323993 0.17789373
000130 25 b4 53 3f 97 eb dd be a5 ee 0b bf eb 1d 02 3f
       0.82696754 -0.43343803 -0.5466102 0.508269
000140 62 81 a8 3e 93 ed d5 3f c3 ec 07 3f 90 37 be bf
       0.3291121 1.6713127 0.53095645 -1.4860706
000150 83 38 b8 3d 65 4f 3c 3f 4d c2 5c 3e c5 5c 88 bf
       0.08995154 0.73558646 0.21558495 -1.0653311
000160 e3 f7 8d bf 53 89 66 bf 4b 49 99 3f b2 11 02 3f
       -1.1091274 -0.9005329 1.1975492 0.5080825
000170 77 b1 20 bf 80 0e 8c 3d 71 4b a3 3f cc 02 39 3d
       -0.6277079 0.06838703 1.2757398 0.045168683

gru.weight_ih_l0 f4 [192, 16]
000000 86 18 64 bd da 1c 99 3d 78 f1 21 3e e5 d8 34 bd
       -0.05568745 0.07476206 0.1581477 -0.04415216
000010 78 ab 0d 3e 4b 11 e4 3d f2 94 57 bd 8b 5a 0f bc
       0.13834941 0.11136111 -0.05263228 -0.0087496145
000020 c1 92 cd bc 73 a4 22 3e 75 25 a9 3d d4 ca ca 3c
       -0.025094392 0.15883045 0.082590975 0.02475492
000030 d5 dc 8b 3d fb 74 55 bb 19 cf b1 bd 1a 59 1a 3e
       0.0682923 -0.0032570946 -0.08682079 0.15073052
000040 46 3d 95 3d 03 fd 26 bd 53 09 69 3e ee 22 36 3e
       0.072870776 -0.040768635 0.22757463 0.17786762
000050 43 be 76 3e 23 67 58 3e fb 0c 85 3e e3 6e 53 3d
       0.24096017 0.21133094 0.25986466 0.05161942
000060 85 63 13 be 0a 67 0b 3e 8d 7d 36 bd df 58 39 be
       -0.14393432 0.13613525 -0.04455333 -0.18100308
000070 0d 1c 27 3e 13 f8 24 bd c2 32 d3 bd b2 fe 8e 3d
       0.16319294 -0.040275645 -0.10312416 0.06982173
000080 50 45 a2 bd d5 a8 36 3e 76 bd cc 3d 4a f2 00 bd
       -0.079233766 0.17837842 0.09997074 -0.031481065
000090 87 42 9d 3d 3a d6 27 3e 8a 0a 75 3d 37 c2 3c be
       0.07678705 0.16390315 0.059824504 -0.18433462
0000a0 05 37 6a 3b 70 96 ff 3b b8 5c 03 bd 60 9d 39 bd
       0.003573836 0.007799916 -0.032070845 -0.0453161
0000b0 43 5d 20 3e ee 4f e3 bd 0b d1 1d 3e 1d e7 88 3e
       0.15660577 -0.1109923 0.15411775 0.26738825
0000c0 ad 64 7a 3d 0b b2 c3 b8 26 f6 c2 3d e6 40 31 be
       0.06113117 -9.331488e-05 0.09519605 -0.17309913
0000d0 f5 50 46 3e c4 47 f2 3d c0 83 22 3e 63 e1 3e be
       0.1936682 0.118300945 0.15870571 -0.18640666
0000e0 0b a9 9f bd af 93 af bc 2e ac ce 3d 05 e5 de bc
       -0.07795914 -0.021432726 0.100914344 -0.027208814
0000f0 6a ac 0e 3e 44 77 6c 3c be f9 0f bd 84 e7 9e 3c
       0.13932958 0.014432732 -0.035150282 0.019397505
000100 64 2e 6c bd 93 c3 48 3e 12 90 19 3e d9 55 0f be
       -0.05766143 0.19605856 0.14996365 -0.13997592
000110 c0 62 9f 3d ef c2 b5 3d ec 96 e1 3c 0d 7b f2 3b
       0.07782507 0.08875071 0.027537785 0.0073999227
000120 54 82 ca 3b a7 3b d8 3d 06 2b 8b 3d ec 30 03 be
       0.006180087 0.10558253 0.067953154 -0.12811631
000130 e4 69 99 bd 3d 26 89 3d 42 b4 90 bd aa b4 28 bd
       -0.074909 0.066967465 -0.070656314 -0.04118792
000140 b7 cb f6 bd e4 d0 0f bc 0d 4e c2 3d 1d 35 f2 3d
       -0.12050574 -0.008777831 0.09487543 0.11826537
000150 e9 e8 c3 3c f0 e3 7d 3d 10 de e1 3d 91 65 b6 3d
       0.023914771 0.061984956 0.11028683 0.08906091
000160 8a 88 89 bd 71 42 6f 3e f2 03 4a b9 f6 09 3a 3c
       -0.06715496 0.23365189 -0.00019265691 0.011354914
000170 ce bb 17 3e 6c 52 ee 3c 84 04 0e be 05 45 2d 3d
       0.14817736 0.029092036 -0.1386891 0.04230215
000180 c7 61 c0 bd 98 53 a7 bd 8c 8c d6 bc 4e 30 02 be
       -0.093936495 -0.08170241 -0.026190065 -0.1271374
000190 77 5a 98 bd 97 c8 9f bd b9 8d ae 3d 4a 60 2e bd
       -0.0743913 -0.07801931 0.08523125 -0.042572297
0001a0 af 9f cd bd 60 35 df bd 11 b8 d3 3d aa 98 52 bc
       -0.10040223 -0.10898852 0.10337842 -0.012853781
0001b0 93 94 87 bd 32 ac 41 bd f8 fd ea 3d 98 5e 6b 3d
       -0.06620135 -0.04728336 0.11474222 0.05746326
0001c0 8e c8 76 bd 45 ef b6 bd aa b1 cf bc da 73 05 3e
       -0.060249858 -0.08932356 -0.025353272 0.13032475
0001d0 5b 8e 84 bd 66 43 83 bd eb d2 78 3d 28 31 25 3c
       -0.06472465 -0.064093396 0.060748022 0.010082521
0001e0 cc 04 c1 3d 9f 80 c2 3d 38 c8 a4 3c d5 29 cd bd
       0.09424743 0.09497189 0.020115003 -0.100177445
0001f0 6c 02 e4 3c a4 9e c0 bd c2 3b de bd 3f 2f be 3d
       0.027833186 -0.09405258 -0.10851242 0.09286355
000200 45 2e ce 3c b9 ca 48 3d 08 db 35 bc 1a d1 a7 bd
       0.025168547 0.049021456 -0.011099584 -0.0819418
000210 b6 0b 7b bd 69 0d 64 3d ad 8a 42 3d c0 c0 ca bd
       -0.061290465 0.05567685 0.047495533 -0.099000454
000220 bf ec e0 3c 78 75 c9 bd eb 72 01 be 78 10 f4 3b
       0.02745664 -0.098368585 -0.12641494 0.0074482523
000230 a3 b7 a9 bd 4c 56 0f bc e3 97 2d 3d 84 9e d1 bd
       -0.08286979 -0.008748602 0.04238118 -0.102353126
000240 83 52 5a 3d 17 65 f4 3d 6c cf 33 bd ab 4b 8a 3d
       0.053301346 0.11933344 -0.043898985 0.06752714
000250 fc 71 bf bd 4d 6b e7 bd b9 86 1d 3e 02 f8 07 bc
       -0.09347913 -0.11299763 0.15383424 -0.008298876
000260 57 d5 21 be 7a ab a8 3c 7c 02 51 be 1d 9d 3f be
       -0.15804039 0.020589579 -0.20411104 -0.18712278
000270 05 11 e2 3c 30 27 a3 3d 9e 97 08 be 28 1c 15 be
       0.027596006 0.07966459 -0.13339087 -0.14561522
000280 ff 63 55 bb be 7d 7f bd 69 f1 42 3e 99 b7 e9 3d
       -0.0032560823 -0.062375776 0.19037403 0.114119716
000290 73 5a 3c 3d c8 97 1f 3e 7a 69 5f 3d d8 79 f7 3d
       0.045984697 0.15585244 0.05454395 0.12083787
0002a0 a2 11 a8 bd 79 55 48 3e b8 a8 6c 3d cd 74 82 bd
       -0.08206488 0.19563855 0.05777809 -0.06369934
0002b0 8d f8 c5 bd cf 8b 7f bc 98 6b 38 be 35 bb db 3d
       -0.09666548 -0.015597298 -0.18009794 0.10729066
0002c0 d7 c7 bd bd 46 22 1b 3e 78 3e 6e 3e bf eb 01 3d
       -0.09266632 0.15149793 0.23266017 0.031718966
0002d0 1d eb 9d 3c e2 1f 2a 3e 84 cd 57 bc f3 39 44 be
       0.01927715 0.16613725 -0.013171557 -0.19162731
0002e0 6f db 3a be bf 1a 1e 3d a4 f0 8a 3d 31 6a 80 3d
       -0.1824777 0.038599726 0.0678418 0.062702544
0002f0 36 a6 3c 3d 59 4e cf bd 18 08 d8 3d 22 43 1a 3e
       0.04605695 -0.101223655 0.10548419 0.15064672
000300 73 33 f6 3c d3 82 39 bd 47 6e 83 3c 65 b2 aa 3d
       0.03005383 -0.04529078 0.016043795 0.08334807
000310 1e ae 50 3e 29 6e 02 3e e0 ad b1 bc a7 46 c6 bd
       0.2037892 0.12737335 -0.021689355 -0.096814446
000320 bb 6e 43 be 3e b3 11 3e 48 ce d2 3d 84 a6 3b bd
       -0.19085209 0.14228532 0.10293251 -0.0458131
000330 cf 54 09 3e 54 9f 63 3d 0c b0 90 bc d9 66 4d 3d
       0.13411258 0.05557187 -0.01766207 0.05014691
000340 40 cc b5 3d 7c 6f b7 bc b2 c9 91 3d 7d 16 35 3e
       0.08876848 -0.022392027 0.071185485 0.1768436
000350 17 a6 b7 3d 96 34 bd 3d 05 0e c8 3d 0d 3c 6e 3d
       0.08967226 0.092385456 0.09768299 0.058162738
000360 28 e9 d6 3d 8d 0c 9c 3b 9e b5 f7 3c b8 f2 89 bd
       0.1049369 0.0047622384 0.030237969 -0.06735748
000370 96 25 98 bd 25 27 c6 3d 4e d7 b7 bb 0e ef 62 bd
       -0.07429044 0.09675435 -0.005610383 -0.05540376
000380 15 1e a7 3d c4 a2 89 bd b6 7a 41 3e c8 1b 09 bd
       0.081600346 -0.06720498 0.18894467 -0.03347376
000390 c5 5f bc 3d d9 24 bf 3d 2a 88 d9 3d 82 79 a3 bd
       0.09197954 0.093332 0.10621674 -0.0798216
0003a0 7c 05 a8 3d 47 9f f9 bc d6 eb 2b 3e 75 14 bf bc
       0.08204171 -0.030471457 0.16789183 -0.023325184
0003b0 05 c1 f1 3a b1 13 80 bd df 6c 06 3b e6 a4 b6 3c
       0.0018444365 -0.06253756 0.002051167 0.022295427
0003c0 bb 93 58 3c 5f 33 b3 3d 3b e0 4f 3c f0 ee d2 bc
       0.013218815 0.08750033 0.012687738 -0.0257487
0003d0 ca 9d d7 3d 0f 83 d8 bb a2 26 1e 3e 17 29 51 3d
       0.10528143 -0.0066074203 0.15444425 0.051064577
0003e0 d6 1f f7 bd f6 0c 78 bc 4a 46 80 3d dd 45 4c bd
       -0.12066619 -0.015139809 0.062634066 -0.049871314
0003f0 51 35 d3 3c e2 c2 26 be 7e e2 ef 3d 3c d6 d3 3d
       0.02578226 -0.1628528 0.11713122 0.10343596

gru.weight_hh_l0 f4 [192, 64]
000000 52 98 6d 3a 38 19 c6 bc cc 04 ed bd 7d 50 75 bd
       0.000906353 -0.024181947 -0.115731806 -0.059891213
000010 93 36 01 bc 22 cb ae bd 47 42 ab 3d 8e e4 2a be
       -0.007886547 -0.08534838 0.08362251 -0.16688749
000020 02 35 00 be 5e d6 82 3d 93 97 d2 3d 26 83 eb 3c
       -0.12520221 0.063885435 0.10282817 0.02874906
000030 f0 d3 f5 3d 60 92 0f 3e 9f 42 63 3d da 0e 07 3c
       0.120033145 0.14020681 0.055483457 0.008243287
000040 af 1e 9c be c3 b0 5d 3e 07 5e eb bc 12 89 c7 ba
       -0.3049216 0.2164946 -0.02873136 -0.0015223345
000050 bb 39 e5 3d cb 71 b6 3d 1c 21 47 3e ab 17 10 3d
       0.11192652 0.08908423 0.19446224 0.03517882
000060 c3 03 4c bd f1 32 84 bc 5a 05 96 3d 38 37 c1 bc
       -0.049808275 -0.016137572 0.073252395 -0.0235859
000070 79 89 74 bd 66 77 8e 3d 5e a9 7a 3c 75 1e 18 bd
       -0.059701417 0.06956367 0.015299169 -0.03713842
000080 a8 cc ab bd f2 f0 cb bd 87 36 26 be d1 ef c7 3d
       -0.083886445 -0.09958066 -0.16231738 0.09762538
000090 a3 35 a7 3d 73 41 01 3e f5 25 24 3e e1 7e 80 3d
       0.08164527 0.12622623 0.16030104 0.062742
0000a0 6e 19 c2 bd 07 4c af bd 4e 7a 54 3c 95 4e 03 be
       -0.094775066 -0.08559423 0.012968613 -0.12822945
0000b0 03 15 01 be 6e 53 ed 3d bc 79 c2 3d bf 91 79 bc
       -0.12605672 0.115881786 0.09495875 -0.0152325025
0000c0 fa bd 04 be 07 ee 9f 3d 66 9c 22 bc f9 2d 89 bd
       -0.12963095 0.07809072 -0.009924984 -0.06698222
0000d0 60 37 84 bd 00 9e 82 bd 56 3c 1e be 9a 9c 89 3d
       -0.064558744 -0.06377792 -0.15452704 0.067193225
0000e0 1a 59 fb 3d 65 8c 8b 3d 05 36 36 3d 3c 0f 09 3e
       0.12272854 0.068138875 0.04448511 0.13384718
0000f0 2d 78 6c bb b6 7f 01 bb e2 1a 7c 3d 54 67 ff bb
       -0.0036082373 -0.001975996 0.061549075 -0.0077943
000100 84 a9 a8 bd ec 61 85 3d f2 2c 9a 3c 4c 05 7a bd
       -0.082354575 0.06512818 0.01882026 -0.061040208
000110 ca 86 75 3d 63 8f 0a bc 3a 03 87 bd 9c b0 fb bc
       0.059942998 -0.008457038 -0.06592412 -0.030723862
000120 12 c2 ae bc 1f 1e 25 be a1 06 ee 3c bc 01 85 3d
       -0.021332774 -0.16124772 0.029055895 0.064944714
000130 23 75 15 bd e2 8e 40 bc 56 18 8a 3d 81 2e 80 bd
       -0.036488663 -0.011752816 0.06742923 -0.0625887
000140 a5 00 08 3e 04 cf b2 3c cb 96 8b bd 67 25 31 3d
       0.13281496 0.021827228 -0.06815871 0.04324856
000150 d8 16 98 bd f7 45 4d 3d fb 39 16 be d4 0d 12 bd
       -0.07426232 0.05011555 -0.14670555 -0.03565772
000160 88 40 27 3e 49 30 7b bd 1b 7c 82 3d 7d 47 d7 bc
       0.1633321 -0.061325345 0.063713275 -0.026279205
000170 e0 02 aa bd 8a 21 6c 3d a8 c5 90 bd 74 37 3e 3e
       -0.083013296 0.057649173 -0.0706895 0.18575841
000180 68 96 09 bb e3 5f 92 bd e4 91 6c 3c 1e 05 3a 3d
       -0.002099419 -0.07147195 0.01443908 0.045415036
000190 cb 99 4b 3d 0c 5d 45 bd d5 89 ef 3d 10 9a c0 bd
       0.049707215 -0.04818444 0.11696211 -0.09404385
0001a0 84 80 2c bd aa 97 3e 3c f7 05 13 3e c4 89 4b bd
       -0.04211475 0.011632839 0.14357744 -0.04969193
0001b0 b4 45 be 3d 4c 1c c9 bc a8 fc 02 be bb c3 b6 3d
       0.092906386 -0.024549626 -0.12791693 0.089240514
0001c0 cc 50 2e bd a6 52 de 3d 94 78 de 3d fb 42 aa bc
       -0.042557523 0.10855608 0.10862842 -0.020783892
0001d0 73 2c d4 3d a7 a5 eb 3d bc 58 9a bc ed c6 0a 3e
       0.103600405 0.11506205 -0.01884114 0.13552447
0001e0 2d 70 18 3d 34 67 cf 3d c8 20 bc bc 19 0e 25 3e
       0.037216354 0.10127106 -0.02296485 0.16118659
0001f0 d5 a2 1a 3c 8d ad 28 be 42 23 f0 3c 65 d7 25 3e
       0.009438236 -0.16472454 0.029313687 0.16195448
000200 ef 3b 02 3d 9b 3b 50 bd 66 ca ee bd 75 31 45 3b
       0.03179544 -0.050838094 -0.11659698 0.0030089293
000210 4c f1 9f bd e5 4f ef bd 72 c8 7e bb 00 5e 83 bd
       -0.078096956 -0.116851605 -0.00388768 -0.064144135
000220 e5 b8 0b 3e d5 9d 08 be 32 b3 2c 3d e9 08 88 bc
       0.1364475 -0.13341458 0.04216308 -0.016605811
000230 69 34 62 bc 8c ae 5c 3d fc 70 34 ba 1b c3 a2 3d
       -0.013806441 0.0538774 -0.0006883291 0.0794737
000240 80 3a 21 3e f2 a7 04 be 4f a2 62 bc 58 97 2a 3e
       0.15744972 -0.12954691 -0.013832643 0.16659296
000250 46 7b fd bc 6f 1a 5f be a2 12 35 be fa 32 12 3d
       -0.03094257 -0.21787427 -0.17682889 0.035693146
000260 36 22 85 3d 54 60 03 bc bb b0 c1 3d 12 21 e6 bd
       0.06500666 -0.008018572 0.09457537 -0.112367764
000270 c5 5a ad 3c 64 d7 bd 3c 26 05 32 3d b1 6a cb bc
       0.021161446 0.023173995 0.04346194 -0.024831148
000280 43 16 d8 bd 47 da d4 bd e6 01 9e 3d 65 2a 32 bc
       -0.10551121 -0.103931956 0.07715206 -0.010874365
000290 70 3e 67 3c ed 3b 28 3d e8 c0 d5 3c 86 14 1f 3e
       0.014114007 0.041072775 0.026092961 0.15535173
0002a0 ca cd 97 3d 5b fc 36 3c ad b6 1f 3e 8d 1f 08 3c
       0.07412298 0.011168565 0.15597029 0.008308304
0002b0 82 46 09 be 5a 4f 79 3d 29 89 9a 3b 73 83 df bc
       -0.13405803 0.06086669 0.004716058 -0.02728436
0002c0 fe 9c d3 bd f0 13 dc 3c 7f 44 3d 3d 52 30 b4 3d
       -0.10332678 0.026864976 0.0462079 0.08798279
0002d0 6f c9 59 3d 55 8f 0e be 3c d1 14 3b a6 f8 39 bd
       0.053170618 -0.13921864 0.0022707721 -0.045403145
0002e0 7d db 3d 3d 25 ca 53 bd 9c 4b 24 3e 7e d5 0b 3e
       0.0463519 -0.051706452 0.16044468 0.1365566
0002f0 a7 92 01 be 47 9b 15 3d aa 1d 47 3d 85 98 18 bd
       -0.126536 0.036525037 0.048612274 -0.03725483
000300 60 a8 55 ba 0e a4 d6 3d d1 12 4f 39 96 7e 34 3d
       -0.0008150395 0.1048051 0.00019748068 0.044066034
000310 7b 36 b2 3d e6 7c 2c bd eb 5e aa 3b 64 27 fb bd
       0.087017976 -0.0421113 0.0051993034 -0.122633725
000320 4d 75 dd 3c e1 24 17 3d 2b b1 d2 3d d0 6e f6 bd
       0.027033472 0.036900405 0.10287698 -0.120328546
000330 bc 70 87 3d 30 45 87 3d fd 1d cb bc bc ff 91 3d
       0.06613299 0.06604993 -0.024794573 0.071288556
000340 c5 a5 a7 bd b4 f8 12 3d 3e 3d 8a bd 8e ec dc bd
       -0.08185915 0.035881713 -0.06749962 -0.10787307
000350 01 f3 94 3a 23 4d 83 bd 70 b7 0e 3e 14 aa b9 bd
       0.0011363925 -0.06411197 0.13937163 -0.09065643
000360 dd 73 54 3c 1c 59 97 bd 63 a5 63 bc ee 6b d2 3c
       0.012967077 -0.07390043 -0.013894412 0.02568623
000370 1e 05 a9 3c 6c 6d 68 3c 04 59 4f bd 4b 0b 10 3d
       0.020632323 0.014186244 -0.050622 0.03516702
000380 dc 53 11 bd f2 40 03 be 97 c5 13 be bf f5 9c bd
       -0.035480365 -0.12817743 -0.14430843 -0.0766406
000390 34 5d 89 3b ef ca 6b 3c 0f 01 d1 3d 94 70 4a 3e
       0.004192019 0.014391645 0.1020528 0.19769508
0003a0 36 ef 81 bd 78 b1 8d bb 81 a6 48 3d 45 ac 0a be
       -0.06344454 -0.0043241344 0.048986915 -0.13542278
0003b0 e1 41 af 3d 07 bf 26 3e e1 7b 70 3c b7 a7 15 be
       0.08557487 0.16283809 0.0146779725 -0.1461476
0003c0 96 3e 0b ba 58 38 b6 3d c5 99 e2 3d b5 94 aa 3d
       -0.0005311755 0.088974655 0.110644855 0.08329145
0003d0 92 f8 0e be 2d 3d f5 bc 69 cb ff 3c 1d 42 ad 3d
       -0.1396201 -0.029936397 0.031224923 0.08459876
0003e0 af e2 d4 bb 8f 98 32 bd f8 33 f0 bc 49 d7 ef 3c
       -0.0064967494 -0.043602522 -0.029321656 0.02927746
0003f0 59 fb 3e 3d 42 23 01 3e 17 13 e4 bd f2 fe fa bc
       0.046626423 0.12611106 -0.111364536 -0.030639146

gru.bias_ih_l0 f4 [192]
000000 2b b6 ad 3d 13 ab c1 3d 57 42 ce ba 45 18 ba bd
       0.084820114 0.09456458 -0.0015736324 -0.0908666
000010 af 03 13 3c d1 b0 c2 bd b3 7b 87 bd c6 8a 07 3e
       0.008973046 -0.09506381 -0.06615391 0.13236532
000020 49 98 49 bd 81 3a d2 3d b4 20 d5 3d 8f 29 44 bc
       -0.049217496 0.10265065 0.10406628 -0.011972799
000030 ab 72 37 bd 23 53 a0 3c 30 10 3f bc 1a 39 33 3d
       -0.04478709 0.019570893 -0.011661574 0.04375563
000040 ad d7 97 bc d2 77 06 be 61 64 95 bc ef 17 95 bd
       -0.01853546 -0.13131645 -0.018236341 -0.072799556
000050 4b 22 63 3d 90 ea 30 3d 9c 93 3c 3e 92 81 04 3e
       0.055452626 0.043192446 0.18415684 0.12940052
000060 64 c5 2c bc aa c3 47 3c 59 2e 44 bd 0d 6f e0 3c
       -0.0105451085 0.012192646 -0.047895763 0.027396703
000070 a6 c3 9a bc e8 8a 02 3c a5 e3 6f bd c8 17 f8 bc
       -0.01889212 0.007967688 -0.058566708 -0.030284777
000080 a8 36 d9 3d 81 96 9d 3d 77 e1 af bc 2a f7 41 3c
       0.10606128 0.07694722 -0.021469815 0.011838714
000090 f8 48 24 3c c9 b4 ac bd 9c 49 19 3e eb a9 1b 3e
       0.010027163 -0.084329195 0.14969486 0.15201537
0000a0 d1 75 e6 3d 47 0c f1 3c 84 1d 95 3d 6b 6b e0 bc
       0.112529404 0.0294248 0.0728102 -0.02739497
0000b0 b9 46 54 bd 73 76 99 3d 85 9b 02 3e 09 d4 6e 3d
       -0.05182526 0.074932955 0.12754638 0.05830768
0000c0 e6 f4 3e 3d 4c 7e 4a bd e5 32 d4 3d 51 69 06 bd
       0.046620272 -0.049436852 0.1036127 -0.03281528
0000d0 59 70 02 3d ca 16 6d bc b1 9c dc bc 5a d2 b3 3c
       0.031845424 -0.014470765 -0.026930185 0.02195089
0000e0 49 a5 6d 3c a3 a2 8a bc 96 79 77 3d 90 1f 8e bd
       0.014504739 -0.016923254 0.060418688 -0.06939614
0000f0 12 0c 12 3e f7 b3 82 bc 83 47 23 3d 6e 2d 7e bd
       0.14262417 -0.015954955 0.03986312 -0.062055044
000100 9c 9f 29 bd ce 39 72 bd 2b 47 c9 3c 33 f3 b9 3b
       -0.04141198 -0.059137158 0.024570068 0.0056747436
000110 9e 91 f1 3d b9 eb 14 3e e6 c2 aa bd c9 38 06 bd
       0.117953524 0.14543046 -0.08337955 -0.032769
000120 e3 93 85 3d 90 d7 4e be b6 bf e6 3b dd 51 d2 bc
       0.06522348 -0.20199418 0.0070418967 -0.025673801
000130 40 29 04 bd 82 b8 71 3d 78 24 62 be 18 cf 98 3c
       -0.0322659 0.05901385 -0.22084224 0.018653437
000140 19 19 1b 3e 51 f5 0c 3e 30 44 0a 3d a9 71 3a bd
       0.15146293 0.13765456 0.033756435 -0.04551855
000150 fc 83 02 be 82 19 e5 3c ef 3f 5b 3c f8 72 b3 3c
       -0.1274566 0.027966265 0.013381942 0.021905407
000160 0a 09 32 bd d1 93 94 3c 0b 8e a9 3d 13 5f 36 bc
       -0.04346565 0.01813689 0.08279046 -0.011131066
000170 e7 43 02 bd 96 43 49 be 1d 75 dd bd 76 f2 57 be
       -0.031803038 -0.19654688 -0.10813353 -0.21088585
000180 44 52 9d be de 57 43 be b6 f0 86 bd 54 71 ce bd
       -0.30726826 -0.19076487 -0.06588881 -0.100802094
000190 76 f9 15 be be d8 98 3c 90 42 0d 3e 37 8e 8a 3d
       -0.14645943 0.018658038 0.13794923 0.067654066
0001a0 42 32 7c be ff 88 28 bd 97 cd 09 be 31 2d 7c 3d
       -0.24628547 -0.041146275 -0.13457333 0.061566535
0001b0 89 f7 dc bc bb 70 47 bc 9f a3 24 be f1 0f 94 3d
       -0.026973503 -0.012172873 -0.16078041 0.07229603
0001c0 e1 13 f4 bd bc c6 b0 bc 35 0e 4d 3c 8f 9d 61 bd
       -0.11917854 -0.021579139 0.012515594 -0.0550819
0001d0 8f a3 c7 bd 54 6b 49 be b7 44 07 3d 6d 4b a4 3d
       -0.09747993 -0.19669849 0.033024516 0.08022199
0001e0 a2 29 84 3d af 44 42 bd 8c 45 46 3e 03 3a 9f 3d
       0.06453253 -0.047428783 0.19362468 0.07774737
0001f0 82 af c7 3d 75 b7 cf bc 0e b2 63 be 3f a6 8b 3d
       0.09750272 -0.025356034 -0.22235891 0.06818818
000200 e6 5d 81 bc 10 90 f7 3d 66 9b cd bc d4 9f ee 3d
       -0.015791845 0.120880246 -0.025098514 0.116515785
000210 0b 93 a6 3d 80 40 b5 3d 3b df 4d bd 5a 3a fc 3b
       0.08133515 0.08850193 -0.050261717 0.0076973857
000220 e1 13 bd bc a4 22 a4 3d e3 02 b8 bd f5 8b bd bd
       -0.023080768 0.0801442 -0.089849256 -0.0925521
000230 c6 78 8b bd bd 01 10 3d d8 9e 9e bd cb b6 b3 bd
       -0.06810145 0.035157908 -0.07745141 -0.08775099
000240 92 d7 6e bd f0 f5 b5 3c b4 5d c0 bd 06 81 9b 3d
       -0.058311053 0.022211999 -0.093928725 0.07592969
000250 50 91 b1 3d 84 9f 59 3d ce 04 d3 bd e5 5c ba 3c
       0.08670294 0.05313064 -0.10303651 0.022749374
000260 b8 94 a7 3d ec cf 99 3d 2a c3 0b 3e 33 bf 4e bd
       0.08182663 0.07510361 0.13648668 -0.05047531
000270 58 53 d1 3d 23 6e 27 3c c5 27 c1 bd 42 c1 3e 3d
       0.10220975 0.01021913 -0.094314136 0.046571024
000280 d7 2b b1 3d 06 c2 d0 3d 12 62 f7 bc c8 7a d0 3d
       0.0865094 0.10193257 -0.03019813 0.10179669
000290 bf 4d a7 3c 2c 6a 4d bd b4 b2 02 be 39 16 3d bd
       0.020422814 -0.05015008 -0.12763482 -0.04616377
0002a0 14 f4 ae bd a3 d6 78 bd 44 2a 55 3c 51 95 02 3d
       -0.08542648 -0.06075157 0.013010565 0.03188068
0002b0 f4 c9 1a 3d 95 f4 a9 bd 5a f3 e2 bc 91 f4 52 3d
       0.037790254 -0.082986034 -0.02770393 0.051502768
0002c0 a7 21 2f 3d bf 33 37 bc 21 93 02 3e be 6b 7e 3c
       0.042756703 -0.011181771 0.12751438 0.015528617
0002d0 f9 f2 64 3d ca e2 f8 3c b9 9e 80 ba a7 51 41 3d
       0.05589578 0.030381579 -0.0009812928 0.04719701
0002e0 21 94 95 3d 00 b3 f7 3c d7 4d 97 3d 45 2e 89 3d
       0.07303644 0.030236721 0.07387894 0.06698278
0002f0 ec 80 3f bd b0 09 bc bd 43 b8 4f bd 60 d2 ca bc
       -0.04675381 -0.09181535 -0.050712835 -0.024758518

gru.bias_hh_l0 f4 [192]
000000 51 ba e7 bd ea 45 11 3e 9e fd e0 3d 08 4c bf bc
       -0.11314834 0.14186826 0.10985874 -0.023351684
000010 11 ea 0d 3e 0f d2 1c 3b 5f af 97 bd 11 7e 3f bd
       0.1385882 0.0023928916 -0.07406496 -0.046751086
000020 c5 4e e0 3d ac 27 99 3c 18 cf 6c bd 17 7b 43 bd
       0.10952524 0.018695675 -0.057814687 -0.04772481
000030 f0 50 25 3c 1e 76 3c bd 8e 7a 75 bd 36 69 d9 3d
       0.010090098 -0.046011083 -0.05993133 0.106157705
000040 6d 56 d6 3d c1 fb 25 bd e1 57 d0 bd 30 2b 16 bd
       0.10465703 -0.040523294 -0.101730116 -0.03666228
000050 8c b4 be 3d 70 94 2c 3d 18 c4 32 bd 30 e4 85 3d
       0.0931178 0.04213375 -0.04364404 0.06537664
000060 d9 c4 23 3d 72 16 9d 3d e3 79 a3 ba 26 4b 12 3e
       0.03998265 0.07670297 -0.0012472238 0.1428648
000070 a9 46 56 3e 81 b2 2f 3d cf 43 ab 3d 4f cc 0f 3e
       0.20925392 0.042894844 0.08362543 0.14042781
000080 02 7f f1 bd 56 02 3b 3e 37 a9 02 3e a3 5a ac 3d
       -0.11791803 0.1826261 0.12759863 0.08415725
000090 88 a7 04 3e 03 69 b4 bd b6 89 fa 3b 19 a2 85 3d
       0.12954533 -0.08809092 0.007645811 0.06525058
0000a0 45 f9 b6 3d 5d 86 9d bb 20 c0 0a 3e 2e e9 73 3d
       0.08934263 -0.004807277 0.13549852 0.05954855
0000b0 20 8f 98 3d 6f 41 b0 3d 8b 0c a4 bd 72 2d a1 bd
       0.07449174 0.086062305 -0.08010205 -0.07869996
0000c0 d1 9b 9f 3d 0f db 08 3e 9f d8 21 3d a2 dd 85 bd
       0.077933915 0.13364814 0.039513227 -0.06536414
0000d0 e1 a5 33 bd c9 f9 b0 bc dc b4 65 bd 6d 1d 8a 3c
       -0.043859366 -0.021603482 -0.056080684 0.016859734
0000e0 98 84 c1 3d ea fc 72 bc dc 5f 0c bb 14 4a 44 bd
       0.094491184 -0.014830807 -0.0021419441 -0.04792221
0000f0 1d 82 67 bd ee e5 7a bd 1c 24 0e 3e 55 69 c3 bb
       -0.05652057 -0.061254434 0.13880962 -0.0059634843
000100 2e 02 94 bd a4 60 45 3d 07 a3 da bd 4f a3 71 3d
       -0.07226978 0.048187867 -0.10675626 0.058993634
000110 49 25 51 bd d2 af de 3c 96 ae 58 bd a2 19 21 3e
       -0.05106095 0.027183447 -0.052900873 0.15732434
000120 8b d0 f7 3d c0 19 ee bd f1 11 c8 3d c8 23 e7 3d
       0.12100323 -0.11626005 0.09769047 0.112861216
000130 f9 04 41 be e4 8a 15 3d 7d 59 b6 bd 5e da c8 3c
       -0.18849553 0.03650941 -0.08903787 0.024518188
000140 46 1a ae bc b0 6b 9c 3e 94 51 19 bd ac 11 8e 3b
       -0.021252763 0.3055091 -0.037431315 0.0043356027
000150 64 fe 19 3d 19 d3 95 3c 9c 0f 03 3e c5 86 16 be
       0.03759612 0.018289136 0.12798923 -0.14699848
000160 3a 20 69 bd 46 10 2b be 75 79 93 3d 41 6f 31 3c
       -0.0569155 -0.16705427 0.072009005 0.010829748
000170 83 f1 ce bd 0c 93 23 be 71 24 3f 3d e0 6b 0f be
       -0.101046585 -0.15974063 0.046665613 -0.14005995
000180 68 d6 39 be 4d 50 a7 bd 4c ed 26 be 65 58 1a be
       -0.18148196 -0.08169613 -0.16301459 -0.15072782
000190 e7 ec 90 bd 05 31 ca 3d 7f de 48 3d 9d bd 88 3d
       -0.070764355 0.09872631 0.049040314 0.06676791
0001a0 87 66 ea bd 4d 92 83 3c 35 8d 46 be 44 ee b3 bd
       -0.11445337 0.016060973 -0.19389804 -0.0878568
0001b0 79 e8 4d 3d e7 9b 2a be e9 44 24 bd 7a fe 84 bc
       0.05027053 -0.16661035 -0.04010478 -0.016234625
0001c0 c4 31 40 bd b5 b4 1f 3e b1 05 9f bd c4 cd 09 be
       -0.04692246 0.15596278 -0.077647574 -0.134574
0001d0 54 99 d8 3a 3c 77 27 be cb df 2a 3d db 4e dd 3d
       0.0016525188 -0.16354078 0.04171733 0.10806056
0001e0 15 f8 16 3d 7b 08 86 3d 52 f8 55 3d 45 41 0a 3e
       0.036857683 0.06544586 0.05223877 0.13501461
0001f0 c6 0f 3c 3d f5 e6 56 3d 3d e3 d1 bb 5b 74 1a bd
       0.04591348 0.05246635 -0.0064052627 -0.03770862
000200 7f bb e7 3c df 93 09 3c 4c dd 92 3b 5c 7c e4 3d
       0.028287647 0.008397072 0.004481947 0.11156532
000210 ca 5d 03 be 78 b2 80 3c 3d 26 96 bc 16 ea f3 3c
       -0.12828746 0.0157101 -0.01832878 0.029774707
000220 72 3b a1 3d e4 d0 f9 3d 1f 62 a9 3d 62 4b 7c 3d
       0.078726664 0.12198046 0.08270668 0.06159533
000230 fc c3 10 bc dd 27 82 bd 04 97 a5 bd 1b 13 c3 3d
       -0.008835789 -0.063552596 -0.080854446 0.095251285
000240 88 58 92 3d 6a 34 02 3d cc 76 09 3c aa eb d5 3b
       0.07145792 0.031788267 0.00839014 0.0065283375
000250 5c a5 97 3d e6 21 50 3d ff b1 62 3d 5e 1e c8 bc
       0.07404587 0.050813578 0.05534553 -0.024428543
000260 2c 83 2b bc cb b5 17 3d ee 69 9a 3d 2c 3d a8 3d
       -0.0104682855 0.037038606 0.07539736 0.082147926
000270 0a a8 99 bd df 68 d2 bd f4 4b 10 bc 19 d6 41 3d
       -0.07502754 -0.10273909 -0.008807171 0.04732332
000280 1a 19 38 3c cc ed b1 bd 66 73 3f 3d 46 55 9c 3d
       0.011236453 -0.08687934 0.046740912 0.07633452
000290 bb d5 00 be 03 cc 99 bd 2b 79 c1 bd 1d a3 12 bd
       -0.12581532 -0.07509615 -0.09446939 -0.03580009
0002a0 be 56 9c 3d 5a b9 61 bd 7d 26 6c 3d 36 1c d4 3d
       0.07633732 -0.055108406 0.057653893 0.10356943
0002b0 39 dd eb bc 35 15 9d 3c d8 34 be 3d fd c3 08 3e
       -0.02879201 0.019175151 0.09287423 0.13356014
0002c0 c7 3b e2 3c 36 37 47 bd 31 0b fb 3d aa f8 15 be
       0.027616395 -0.048636638 0.12257994 -0.14645639
0002d0 8c 86 cc bd 93 9c d7 bd 3b e3 c7 3d 95 46 91 bc
       -0.099866 -0.10527911 0.09760138 -0.017733851
0002e0 8a 62 9c bd fe 77 13 3d 7e bf 7d bc 2c 6a b2 bd
       -0.07635982 0.036003105 -0.01548755 -0.08711657
0002f0 02 9a 0a bc a0 15 ed bd de 4c be bc 22 8f 15 bd
       -0.00845957 -0.1157639 -0.023230013 -0.036513455

gru.weight_ih_l0_reverse f4 [192, 16]
000000 15 ae 0c 3e ea 40 24 3d 3a 84 af 3d 3c 55 04 3e
       0.13738282 0.04010097 0.08570142 0.1292314
000010 bc ee 1e be 88 ad 1a bc 6f 2c fb bd 24 54 cd 3d
       -0.15520757 -0.009440787 -0.122643344 0.10025814
000020 ce e2 9e 3d 0e 7a 06 bd 56 9a 0f 3e 87 35 db 3d
       0.07758103 -0.032831244 0.14023718 0.10703569
000030 2d 18 a3 bd 03 d7 99 3d 5d 45 7c bd c3 1d d2 bd
       -0.079635955 0.07511713 -0.061589587 -0.10259583
000040 25 1c ee bd a0 e8 0a 3e d1 fa c9 3d 8c 0d 0e bd
       -0.11626462 0.13565302 0.098622926 -0.034680888
000050 a6 3c a6 3e 70 71 e1 3d ef d5 9e 3d 94 96 ab 3c
       0.32468146 0.110079646 0.07755648 0.020945825
000060 19 9f 06 3d d2 aa 0c 3d c3 0b 47 bc 33 9b 9c 3b
       0.03286657 0.034342594 -0.0121488 0.0047792434
000070 72 89 d3 3d 8d eb 3f be 04 94 85 3c 85 b9 d8 3d
       0.1032895 -0.18742199 0.01630593 0.1058226
000080 d4 5a fa 3d 56 b8 e0 bc 08 12 12 3d 12 94 dc bc
       0.12224355 -0.027431648 0.035661727 -0.026926074
000090 c8 6f ba 3d ce 4d ad 3d 48 c4 2d 3e 41 d3 1f be
       0.09103352 0.08462106 0.16969407 -0.1560793
0000a0 f0 fa 5f be b5 3d 9d 3d e2 8d 97 3d c8 39 38 be
       -0.21873069 0.07677785 0.07400109 -0.17990792
0000b0 3f 54 87 3d 02 1f e6 bd 08 67 0d bd ad 49 24 3e
       0.066078655 -0.11236383 -0.034522086 0.1604373
0000c0 17 5d f0 3b 69 69 27 3e fe 9d 19 bc 7e 60 c9 bd
       0.007335316 0.16348805 -0.009376047 -0.098328575
0000d0 8a 9f b8 bc b9 00 a5 bc 0e 18 cc 3d 88 f2 f0 bd
       -0.022537012 -0.020141946 0.099655256 -0.11765009
0000e0 78 e9 b7 3c 63 a7 82 3d 80 91 ba bc 75 bc de bc
       0.022450194 0.06379583 -0.022774458 -0.027189473
0000f0 e5 28 e6 bc 44 17 04 be 3e d5 cb bc 88 95 f3 bd
       -0.028095672 -0.128995 -0.024881955 -0.11893755
000100 86 8d 93 3d 44 21 94 bd 84 77 48 3e e4 00 5a bd
       0.07204728 -0.072329074 0.19576842 -0.053223506
000110 6a 9b f6 3c 68 ea dc 3d 48 36 60 3d d4 8f 4c 3d
       0.030103404 0.10786897 0.054739267 0.049941853
000120 b7 bc 0c be b3 4e 13 bd 6d 61 9c bd 78 14 da 3b
       -0.13743864 -0.035963725 -0.0763577 0.006655272
000130 79 0a 17 3d a2 ab 14 3e a8 a4 32 be 24 8a 38 3d
       0.036875222 0.14518598 -0.17445624 0.045053616
000140 44 45 ba 3d f2 ed c2 bc 29 ef d8 3d c2 fe b8 3d
       0.090952426 -0.023795102 0.10592491 0.09032966
000150 47 81 21 be ab 73 0f 3a 63 31 dd 3d cc 3c 91 3d
       -0.15771972 0.0005472253 0.108004354 0.07091674
000160 9b f9 85 bd 39 6b ad bb 1c b9 17 3d 47 d5 5e 3b
       -0.06541749 -0.005292323 0.03704177 0.0034001635
000170 e4 e6 2e bd a2 28 11 3e 31 41 de bd f8 8c 87 bd
       -0.042700663 0.14175656 -0.10852278 -0.066186845
000180 5d 64 13 bd 1b c6 c9 bd 71 2a 0c 3e b0 c3 ed 3d
       -0.035984386 -0.09852239 0.13688065 0.1160959
000190 b9 b7 27 3e f7 73 84 3d 8e fe a3 bc 8f 3c 90 bd
       0.16378678 0.06467431 -0.020018842 -0.07042801
0001a0 4c 45 0a 3e 1a 12 18 3e af cc ee bd f7 87 4f be
       0.13502997 0.14850655 -0.11660134 -0.2026671
0001b0 6a 29 24 3e 4f ce 17 be 34 63 1d bd f3 34 09 3e
       0.16031423 -0.14824794 -0.038424686 0.13399105
0001c0 06 f1 b4 3d a7 33 77 bd cc 6b 1d 3e a5 07 17 3e
       0.08835034 -0.060351994 0.15373152 0.1474901
0001d0 54 59 80 3e 69 f1 91 3e 9e f8 be 3b ed 2a 58 be
       0.25068152 0.28504494 0.0058279773 -0.21110125
0001e0 dd 79 de bc 98 e6 0d 3e 46 95 2e 3e 7e 9a 18 3d
       -0.027157718 0.13857496 0.17049131 0.03725671
0001f0 12 bc 01 3d 4e c6 41 be b3 30 87 bd 17 c9 32 3e
       0.0316735 -0.18923303 -0.066010855 0.17459522
000200 88 2d 5c bd f0 5d cc 3c da 9c 9c 3d b8 cd c7 bd
       -0.05375436 0.024947137 0.076471046 -0.097560346
000210 fa f9 05 3e a1 33 d1 3d b8 65 fe 3d c4 f3 85 bd
       0.1308364 0.102149256 0.12421745 -0.06540635
000220 d9 a6 13 bb 61 4e ee 3d 00 e7 52 3d eb e5 d0 bc
       -0.002252987 0.11636043 0.05148983 -0.025500258
000230 49 60 d2 bd ff ef 1d bd 5c 9e 18 3e 07 a2 16 bd
       -0.10272271 -0.038558956 0.1490416 -0.036775615
000240 8a ed fa 3d eb 50 ea 3d 27 3f 1a 3d cd e6 87 3d
       0.12252338 0.11441215 0.037657883 0.06635819
000250 e3 eb 9f bd 1a 96 aa bd b6 a9 57 bd 9b db c2 bd
       -0.07808664 -0.08329411 -0.052652083 -0.09514543
000260 64 63 1b be 29 66 0e be d9 b7 c3 3c 0e 43 c1 bc
       -0.15174633 -0.13906159 0.023891376 -0.023591544
000270 f6 29 07 be 3f 14 23 3e 28 7d bd bc 12 6d 01 be
       -0.131996 0.15925692 -0.023130968 -0.12639263
000280 f5 9c 99 bd 0f 18 83 3c 5a 33 61 3d f6 68 4f 3e
       -0.0750064 0.016002683 0.054980613 0.20254883
000290 4e 12 90 bd 92 20 03 bb 97 d4 9f 3d 70 5a 0d bd
       -0.07034741 -0.0020008427 0.0780422 -0.034510076
0002a0 1a 69 ce 3c f4 7f ca 3c 7e ce b4 bc 24 14 05 be
       0.0251966 0.024719216 -0.02207112 -0.12995964
0002b0 89 57 c4 bd 64 46 22 3d ca ed 07 be ca 6f 03 be
       -0.095870085 0.03961791 -0.13274303 -0.12835613
0002c0 f3 fe 58 bd 2f 4e 95 bd 87 cc 0f 3d 1b ed f1 bc
       -0.052977514 -0.07290303 0.03510716 -0.029532006
0002d0 40 68 38 bd c9 81 cd 3d 85 88 1d 3e 23 9b 1b 3e
       -0.045021296 0.1003452 0.1538411 0.15195899
0002e0 23 09 7b be de 15 9d 3c 20 2d 92 bd 4d d3 48 be
       -0.24515204 0.019175466 -0.07137513 -0.19611855
0002f0 f5 c0 74 bd 29 5e 61 3e 0e 42 e2 bd a5 ae 62 bd
       -0.05975433 0.22008575 -0.11047755 -0.055342335
000300 1e 33 e1 bd ff b3 83 3d e9 d2 1c 3e a0 90 5a 3d
       -0.10996078 0.06430816 0.15314831 0.05336058
000310 f8 04 17 3e 54 d5 4b 3e fa 4c 84 3c 2b 0b 03 be
       0.14747989 0.19905597 0.016149987 -0.12797229
000320 61 f3 14 3c 25 9d fc 3d 0d 98 ca bd 77 bc 3f bc
       0.009091229 0.123346604 -0.09892283 -0.011702648
000330 35 cd ec 3d 36 56 d2 bd 06 68 a8 3d 90 73 51 bd
       0.11562578 -0.1027035 0.08222966 -0.0511356
000340 46 62 de bd a3 1b 32 3e 53 b0 cc 3b 37 0b 40 be
       -0.10858588 0.17393355 0.0062466054 -0.18754278
000350 c2 a9 64 3e 5d 89 93 3d e5 f4 30 3d d0 06 08 be
       0.22330382 0.07203934 0.0432023 -0.13283849
000360 4a 1b 02 3e 14 cb 86 bc da 9b 84 3e 5d e4 6b 3d
       0.12705722 -0.016454257 0.25900155 0.05759083
000370 9b 39 83 3a 9e 50 2b be 79 f6 50 3d 97 ab b1 bc
       0.0010011675 -0.16729972 0.051016305 -0.021688266
000380 37 4b 8b 3d f4 d9 00 be cb 97 80 3c 1f 0f 93 bd
       0.068014555 -0.12583143 0.01569738 -0.071806185
000390 04 1c 80 3e b3 44 8a 3e f8 05 11 3e 33 c6 20 39
       0.25021374 0.27005538 0.14162433 0.00015332624
0003a0 da 15 e8 bd d8 33 43 bd 75 57 31 bd 3b a1 93 bd
       -0.11332293 -0.047656864 -0.043296296 -0.07208487
0003b0 4f e5 0d 3e 29 c2 fa bd a1 d8 dc 3d 85 0b 93 3d
       0.13857006 -0.12244064 0.10783506 0.071799316
0003c0 33 3e 86 3d 28 f2 31 bd e5 27 c9 bd 8d 2f 1a be
       0.06554832 -0.04344383 -0.098220624 -0.15057202
0003d0 0d ff c5 3d 31 79 bb 3b cc e0 f3 bb 05 cc 8a bd
       0.09667788 0.0057212343 -0.0074425694 -0.06777195
0003e0 f2 58 94 3c 59 a5 3a be ee 44 31 3e 1d 23 0d 3d
       0.018108819 -0.18227138 0.17311451 0.034457315
0003f0 cc d3 97 3d b5 68 16 bd 7d b4 c7 3a d4 29 00 ba
       0.07413444 -0.03672095 0.0015236285 -0.00048890454

gru.weight_hh_l0_reverse f4 [192, 64]
000000 f5 ff 40 bc 9e 70 0a 3e bb 4f 3b 3d b3 50 06 be
       -0.011779775 0.13519523 0.045730334 -0.13116722
000010 58 a9 c8 3d aa e1 07 3e a8 43 0a bd dc e7 f7 3d
       0.09797925 0.13269678 -0.03375593 0.121047705
000020 9b a5 36 3d 60 f3 02 3c 86 d4 d3 bd cf 11 51 3d
       0.044591527 0.007992595 -0.1034327 0.051042374
000030 53 ae b8 bd 72 f8 b8 3d 69 2a ad bc 0d 13 eb 3d
       -0.09017625 0.09031762 -0.021138387 0.11478243
000040 52 92 d1 3d df 37 ea bd bb 67 c7 3d 7d 17 d3 bd
       0.102329865 -0.11436438 0.09736582 -0.103072144
000050 36 05 6a 3d e5 fa a4 bd b9 c0 8c bd 97 4c f6 3d
       0.057133876 -0.08055667 -0.068726964 0.12026327
000060 d2 2f 48 bd ca 29 85 bd b3 7b 26 bd b6 48 29 be
       -0.04887373 -0.06502111 -0.040645313 -0.16531643
000070 fe 53 b9 3d 91 94 ef bc c5 09 1e be 05 4f 07 be
       0.09049223 -0.029245647 -0.15433414 -0.13213737
000080 58 34 0c 3e 84 10 be 3d ed bf 8e bd af b2 57 3d
       0.13691843 0.09280494 -0.06970201 0.05266064
000090 c6 65 e9 bc 8b 53 99 bd 06 40 34 3e 1b 73 b7 bd
       -0.028490912 -0.07486638 0.17602548 -0.089575015
0000a0 dd 23 26 bd 82 f4 c6 3d ca d6 4e bd 9f 3e 4f 3b
       -0.040561546 0.09714605 -0.050497808 0.0031623018
0000b0 a3 70 30 3d ae 2a ad 3d d0 74 f5 bc eb 05 72 bc
       0.04307617 0.08455406 -0.029962927 -0.014771919
0000c0 35 a2 0c 3d bc a5 c2 bd 39 3b 02 be 66 4f 3a bd
       0.03433438 -0.095042676 -0.12717904 -0.045485877
0000d0 2f 99 89 3c 3a ce 1f 3e f9 db bf 3d 1c ea ad 3d
       0.016796676 0.15606013 0.09368128 0.084919184
0000e0 26 6a 2c bd c2 66 40 bc 30 3f a2 bc a6 14 34 3d
       -0.04209342 -0.011743249 -0.01980552 0.043965004
0000f0 f3 73 77 3d 1e 78 92 3d 95 a7 90 3d e2 4f 40 bc
       0.060413312 0.07151817 0.07063214 -0.011737796
000100 9e ec b4 3d 6f 81 f8 bb fd 17 58 bc a9 83 c3 3d
       0.08834194 -0.007583789 -0.013189313 0.095465966
000110 cc 84 74 bb c5 f7 ae bc 1c 29 d3 3d 1a b4 df bd
       -0.0037310598 -0.02135838 0.10310575 -0.109230235
000120 9a aa d5 3b f8 3a 26 3e 63 c5 c9 bc 04 18 e6 3d
       0.0065205814 0.16233432 -0.024630254 0.11235049
000130 a5 68 fa bc 32 15 31 bd 89 bf 44 bd 92 d1 18 be
       -0.030567477 -0.043233104 -0.048034225 -0.14923695
000140 2d 20 05 3d f4 e3 ae bc e3 03 f3 bd 19 c0 1f 3d
       0.03250139 -0.02134893 -0.11865976 0.039001558
000150 3e f5 c2 bd 3d 4e d5 3d 27 b5 09 bd 9b ae 80 3c
       -0.095194325 0.104153134 -0.033620026 0.015708258
000160 ac 9e 7d bd fe 4e 68 3d e1 26 92 bd 81 f3 c2 3d
       -0.0619189 0.056715958 -0.07136322 0.09519101
000170 89 73 68 3d 7a 48 0b bc 3b b2 05 3e 84 84 95 bd
       0.056750808 -0.0085011665 0.13056271 -0.07300666
000180 86 70 53 3d b0 13 61 3d 68 14 ce 3d 91 40 2a be
       0.051620983 0.054950416 0.10062486 -0.16626193
000190 b7 7e bb 3c e3 8c 0c 3d fb f2 bc bd ba 66 54 3d
       0.02288757 0.034314048 -0.09226032 0.05185578
0001a0 69 4a 89 bd 79 75 02 bd 82 2d af bd 1d f8 05 be
       -0.06703646 -0.031850312 -0.08553602 -0.13082929
0001b0 01 c2 e9 bc a3 8f 53 bd cb f6 34 bc 84 52 a3 bc
       -0.028534891 -0.051650655 -0.011045168 -0.019936807
0001c0 95 62 73 3d 86 39 65 3d 2f a3 f4 3d 73 2b 59 3b
       0.059420187 0.05596306 0.11945187 0.003313747
0001d0 c9 03 11 be 87 0a 59 3d d9 bd b5 bc 15 71 e9 3d
       -0.141616 0.052988555 -0.022185253 0.11398522
0001e0 0b 72 af 3d a5 ee cb bb 74 e9 0f bd 36 17 88 bd
       0.08566674 -0.006223517 -0.035134748 -0.06645052
0001f0 6d 37 b9 3d e5 b8 2e bd 50 d2 4a 3d e8 32 25 3d
       0.09043775 -0.042656798 0.049516976 0.04033175
000200 50 9d c5 3c 61 cd e5 bc cb fa b5 3d 71 e9 91 3b
       0.024122864 -0.028052034 0.088857256 0.004452877
000210 12 f2 5f bd cf d4 38 be 07 e4 af bb 0d 80 9f bd
       -0.054674216 -0.1804993 -0.005367759 -0.077880956
000220 5a 0d f8 3d 7f d1 fb bd 5a b8 dc 3d 97 3f 09 3e
       0.121119216 -0.122958176 0.1077735 0.13403164
000230 a2 51 80 bc f8 d3 ed bc 5e e2 19 be a8 d6 79 3d
       -0.015663926 -0.029031739 -0.15027758 0.060995728
000240 5b af ad 3d 2c ef 23 3e 2e 37 39 3e 4a 26 7a bc
       0.08480712 0.16009206 0.18087456 -0.015267918
000250 26 d2 67 3d 8b 69 97 bc 27 87 6e bd 6a 18 13 3d
       0.056596898 -0.018482944 -0.05823436 0.035911955
000260 47 d5 99 3d f2 06 81 3c 8d 42 fb bd 94 c2 cf bd
       0.075113826 0.015750382 -0.12268553 -0.10144535
000270 0c b4 ba bd 1a d7 54 bd a3 ea 2e 3b 1c e0 ef 3d
       -0.091163725 -0.05196295 0.0026690147 0.11712667
000280 46 88 99 3d 78 ad 8e 3d 74 c3 54 bc 98 c5 2c bd
       0.07496695 0.0696668 -0.012986053 -0.042180628
000290 ed 95 38 3d b6 8f 05 3e ec 50 cb bd 06 c8 a9 3d
       0.045064855 0.13043103 -0.09927544 0.082901046
0002a0 2b f6 ff bd 6b ed d4 bc 92 e6 f8 3d 15 92 a9 3d
       -0.12498125 -0.025992116 0.12153353 0.08279816
0002b0 52 5a e3 bd 30 12 25 be fc 73 84 3d 83 a8 59 bc
       -0.111012116 -0.16120219 0.06467435 -0.013284805
0002c0 dd c7 b0 bd 06 8d ac 3d 58 e4 e3 3c 0d 7f aa 3d
       -0.08631871 0.084253356 0.027818844 0.08325014
0002d0 49 3a 47 3d ea 52 eb 3c d4 9d c3 3c 1b c9 b0 bd
       0.04863957 0.02872606 0.02387897 -0.08632108
0002e0 27 f8 96 bd db f8 f8 bd fe 7a b8 bc 85 bb 1c be
       -0.0737155 -0.121568404 -0.022519585 -0.15305908
0002f0 88 35 e7 3c 88 d1 06 3b 35 0b c1 3c d2 6d e9 3d
       0.028223768 0.0020571668 0.023564914 0.113979
000300 fb 7f c7 bb e0 13 ea 3d c9 52 2e 3e 03 43 14 be
       -0.0060882545 0.11429572 0.17023768 -0.14478688
000310 36 79 10 3e e8 cc b5 3d eb f4 8a bd d9 8b 43 3d
       0.14108738 0.088769734 -0.06784996 0.04774079
000320 8c 69 0f 3d a1 ae d4 bd 41 7b 5e 3d 33 95 fa 3d
       0.035012767 -0.1038487 0.054316763 0.12235489
000330 43 df 8a bd 11 9e 00 3d 2e 5d 1d be 79 d3 16 bc
       -0.06780865 0.031400744 -0.15367576 -0.009205692
000340 60 7e b9 3d 34 7d 4b 3d a5 65 8e bd ff 1d 64 bd
       0.09057307 0.04967995 -0.06952981 -0.05569267
000350 64 c6 56 3d 33 80 3d 3d d1 a3 ea 3d 5c b3 b7 3d
       0.052435294 0.04626484 0.11457027 0.08969757
000360 e9 ac 59 bb b1 8a 0b bb 0a d5 77 3d 71 a2 49 3c
       -0.0033214635 -0.0021292383 0.060505904 0.012306795
000370 29 e8 04 be 00 94 28 be 8c a4 fe 3c 54 6a b3 3d
       -0.12979187 -0.16462708 0.031084321 0.08760515
000380 f6 1f a9 bd d7 b3 85 bd fe ec 7e bc 25 b2 2c 3d
       -0.08258049 -0.06528442 -0.015559433 0.04216208
000390 1e d5 30 be 98 06 a1 3c 29 9d 85 bd c2 80 c9 bd
       -0.17268798 0.019656464 -0.065241165 -0.09839012
0003a0 e5 f9 8e bc 49 62 25 3d d3 95 b1 3d 42 2a d9 bb
       -0.017453143 0.040376935 0.08671155 -0.006627352
0003b0 e4 59 03 3d db 79 72 bd 7c 0b 44 3c 3f 07 9b bb
       0.03206815 -0.05919824 0.011965629 -0.0047310884
0003c0 fb 4f 8c 3d 1d 63 21 3e d5 fe a0 3c d4 17 73 3d
       0.068511926 0.15760465 0.019652763 0.059348896
0003d0 8b 7e 10 3e e7 ff 79 bc da 3e 33 3e a4 31 a9 3d
       0.14110772 -0.015258766 0.17504445 0.08261421
0003e0 9d 3b 50 3d d3 99 7c bd a0 13 72 bc 8d bb b7 3d
       0.0508381 -0.061670136 -0.014775187 0.08971319
0003f0 62 58 44 3d a4 e6 f4 bb 6c 24 1a be 95 37 ca 3c
       0.04793585 -0.0074737836 -0.15052956 0.024684707

gru.bias_ih_l0_reverse f4 [192]
000000 67 cb 2e bd 88 05 df 3d d2 8e f0 3d 9e 37 13 3d
       -0.04267445 0.10889727 0.11745991 0.035941713
000010 fb 95 b1 bd a6 b0 fd bc 8a 9d 9c 3d 5b d4 96 bd
       -0.08671185 -0.030968022 0.07647236 -0.07364722
000020 39 d1 d1 bd ed c5 70 bc 27 d0 c7 3d ad 4c 21 3e
       -0.10244984 -0.014695627 0.09756499 0.15751906
000030 37 9a 4b bb 50 9a 89 3d 50 90 8e bd bc 26 37 3d
       -0.003106726 0.06718886 -0.06961119 0.044714674
000040 13 d1 1e 3d 28 e9 fc 3d dd a8 07 3d 5e 5a 79 3d
       0.038773607 0.123491585 0.033120025 0.060877196
000050 54 ed 0c bd b7 a5 45 3c 47 23 07 3e d4 d1 9e bd
       -0.03440602 0.012063435 0.13197051 -0.07754865
000060 a2 d4 aa bd f8 a1 89 bd 16 b9 2d 3e 8b b4 e5 bd
       -0.08341338 -0.06720346 0.16965136 -0.112160765
000070 24 37 ba 3d 98 b5 1c 3d b2 b3 17 bd f2 0f 03 bd
       0.090925485 0.03825912 -0.037036605 -0.03199763
000080 d3 04 de 3d 50 33 19 3e 0e 68 36 3e df 64 2d bd
       0.10840764 0.1496098 0.17813131 -0.042332526
000090 12 a8 0b 3e 26 29 ba bc a4 09 46 3d dd fb ed bd
       0.13638332 -0.0227247 0.048349038 -0.11620305
0000a0 01 25 8c bb 60 c5 01 3e a3 d2 19 be c1 d0 88 bd
       -0.004276872 0.12672949 -0.15021758 -0.06680442
0000b0 03 de bf bc 4e b2 ce bc 8d d2 c0 bc 77 9e f0 bc
       -0.023421293 -0.025231507 -0.023537898 -0.029372437
0000c0 d5 d1 94 bd 24 51 aa bc bf 1c d8 bc 49 e9 f4 bd
       -0.07266585 -0.020790644 -0.026380895 -0.11958558
0000d0 80 c6 a2 3d 1e 8a eb bd cf c5 5c 3d d7 4c 24 bd
       0.07948017 -0.11500953 0.053899582 -0.040112343
0000e0 eb 51 01 3d 5e c8 64 bd 60 e0 0d 3e 4f cc 0b 3d
       0.031572264 -0.055855148 0.13855124 0.03413039
0000f0 58 61 0b 3e 02 62 f0 3d bf 52 24 be 45 e6 44 3d
       0.13611352 0.117374435 -0.1604719 0.048071165
000100 6e 2e 18 3d a1 87 94 3d f2 3c 6c 3d 0d 81 28 3b
       0.037153654 0.07252432 0.05767531 0.0025711686
000110 2f 0f 9d 3d 1d 3e 12 bd 63 10 bf 3c 7d f1 db 3c
       0.07668912 -0.035703767 0.023323243 0.026848549
000120 ed 83 c9 bd 2b 8c 15 be d4 55 fe 3d 48 c9 e3 bc
       -0.09839616 -0.14604251 0.12418714 -0.02780594
000130 68 40 3f 3d 47 45 69 3d ed e3 c1 bd 1c e1 0c 3e
       0.046692282 0.056950834 -0.094673015 0.13757747
000140 7b b2 53 3e 67 dc 00 3e 7f 8e e2 3d e1 fa 04 bd
       0.20673554 0.12584077 0.11062335 -0.03246582
000150 8b 7a 07 bd 87 cc 8e bd 1c 55 de 3c 36 c3 dd 3d
       -0.03307585 -0.06972604 0.027140193 0.10828249
000160 66 70 cc 3b 06 3a 11 bd ed 57 1f be e0 1b bb bd
       0.006238985 -0.035455726 -0.15560885 -0.09136176
000170 ea 0a c3 bd 45 3a 17 bb 77 89 af 3d db 2c 28 bd
       -0.09523566 -0.0023075503 0.08571141 -0.041058403
000180 ae 82 7e 3d 51 4f 9b bd 5a 83 bf 3d c2 c9 bb bb
       0.062136345 -0.07583488 0.09351225 -0.0057308385
000190 7c 28 c9 bb c7 ac f2 3b 48 f7 2d bd 4f ee 4b 3e
       -0.0061388593 0.0074058506 -0.042472154 0.19915126
0001a0 73 57 52 3d fc 95 27 3e dc 8c 7a bd 14 61 46 3e
       0.05135293 0.16365808 -0.06116949 0.1937297
0001b0 30 ad dc bd ca 24 22 bd 8a a5 26 3e 2c 78 66 bc
       -0.107752204 -0.039585866 0.16274086 -0.014066737
0001c0 7b a4 90 3d ba de 2e bd 33 9c 61 bc c7 64 58 3e
       0.07062622 -0.042692877 -0.013770151 0.21132194
0001d0 bd 7f 00 3d 99 e4 f8 bc cb f3 48 be 17 18 a2 3d
       0.03137182 -0.030382441 -0.1962425 0.07914751
0001e0 db 2e ad 3d b3 63 66 3d 9d 9b 52 3e ca 9a 09 3d
       0.084562026 0.056247424 0.20567174 0.033594884
0001f0 b0 bd 04 be a9 3b 2e 3c da 9f 78 3d 2c 12 43 bd
       -0.12962985 0.010634341 0.06069932 -0.047624752
000200 f3 19 81 3d 40 e1 8c 3d 80 14 d9 3d 2a 98 df bd
       0.063037775 0.068789005 0.10599613 -0.10917695
000210 ef d5 e6 3d b2 bf c7 3d e2 bb ba bd e2 cf 0f bd
       0.11271273 0.0975336 -0.09117867 -0.035110362
000220 2d 90 47 bc d7 d9 ad 3c b9 20 40 bd c7 fe 74 bd
       -0.01218037 0.021222038 -0.046906207 -0.059813287
000230 77 d8 86 3c 58 05 a2 bd e4 4b 8c bd 66 53 8e 3d
       0.01646064 -0.079111755 -0.068504125 0.06949501
000240 b8 9d b2 3d 34 5b f3 bd 85 57 bf bd 5f d8 d6 bd
       0.08721489 -0.1188263 -0.09342865 -0.10490488
000250 46 cf d1 bc 26 60 1f 3d 50 d1 cf bd 8b 70 15 3d
       -0.025611531 0.038910054 -0.10147345 0.036484282
000260 37 3f 9c 3d 1a 0a cd bc 4e 2d 05 3e a1 66 33 bd
       0.07629245 -0.02502923 0.13005564 -0.043799046
000270 18 df 60 bd b0 1b 88 3c 60 9c 83 bd d4 d9 3a 3d
       -0.05490026 0.016614765 -0.064263105 0.045617893
000280 ad 0e 92 bd 7f 4c fa 3d b5 a1 8e 3d 81 fc 3e bc
       -0.071317054 0.12221622 0.06964437 -0.011656881
000290 76 17 a4 3c bc 2b e1 bd e2 15 46 3d dd 19 62 bb
       0.020030718 -0.1099467 0.048360713 -0.003450028
0002a0 0d ec 05 bc 94 7b 50 3d 8b bf 9c 3d 5f 0c a3 bc
       -0.008173955 0.050899103 0.076537214 -0.01990336
0002b0 18 96 50 3d 7a 1a 85 bb 1c 85 42 bd 49 98 50 bb
       0.05092439 -0.004061994 -0.047490224 -0.003182905
0002c0 98 b6 dc bd 20 f8 a7 3d 97 c2 be 3c b3 ff 94 3d
       -0.107770145 0.08201623 0.023286147 0.07275333
0002d0 43 08 ae bb d2 11 ba 3d a3 b3 89 bd b5 a0 e1 bd
       -0.0053110435 0.0908543 -0.06723716 -0.110169806
0002e0 05 52 24 3d 37 3d d6 bd 7d 7e 8e 3d 3c 31 c1 bd
       0.040117282 -0.104608946 0.069577195 -0.09433219
0002f0 4c b7 d7 3d 7b ec 11 3d 6f 25 bb 3d cb 7d dd 3c
       0.10533008 0.035625916 0.09137999 0.027037522
