1_positive_trim100_fullytrainedOracle.pth (torch, 23369 bytes, 7 tensors)

embeddings.weight f4 [5, 16]
00000000: 1cda f63f 88e7 fdbf 684a c9bf 992a 97bf
00000010: fa1d 5ebf 3c9d a53f 6522 68bf 578b f9bf
00000020: 34c9 7abf ff53 c3be df24 c5bf 96d3 c1be
00000030: bd2c ffbf 0216 d03e 9817 403f 4bfc 6ebf
00000040: 69af 863f 1853 0abc ac1e 893f 6cbb b6be
00000050: 9009 b33f 3dc2 2bbf a16b 8f3f cdac 9c3f
00000060: 1c75 f8bf 1252 b53f 7253 8fbf 9b2d e33f
00000070: a746 5f3f 2e08 19bf 11aa 44bf d518 22bd
00000080: 2dc9 4bbe f2b5 72bf 7be8 c33f 193c 693f
00000090: 16ff adbf 15aa 23bf 49ba a13e 94db 803f
000000a0: 492c 82bf 24e2 ac3f bf5e c4bf f96e c5bf
000000b0: bf30 b03e 84aa 563f 9569 f5bf f0c9 243e
000000c0: b9cc 4e3f 878c 8cbf 3696 b23f cc41 4dbe
000000d0: 7c0d 0abf dc33 a1bf f039 55bf 3f18 753f
000000e0: 957c b7bc 11d8 33bf 852e bf3f 7622 febe
000000f0: b53f 85bf c512 1cc0 a1ca 11bf a3f1 1ebd
00000100: 35f9 413f b46c 353f f9e6 f83e e9ba 6ebf
00000110: c1be 01c0 2a68 22bf db73 6abd 0154 3bbf
00000120: 3872 9b3f f7df acbe 16e5 3dbf 5ccc 8f3c
00000130: 7250 f83c 3945 a9be 6731 4ebf 1a0e aebf
1.9285312 -1.9836283 -1.5725832 -1.1809875 -0.8676449 1.2938609 -0.9067748 -1.9495648
-0.9796326 -0.3815002 -1.5401877 -0.3785674 -1.9935528 0.4064179 0.75036 -0.9335372
1.0522281 -0.008442663 1.0712485 -0.35689867 1.3987293 -0.6709326 1.1204721 1.2240235
-1.9410739 1.4165671 -1.119734 1.7748293 0.8721718 -0.59778106 -0.76822 -0.039574463
-0.19900961 -0.94808877 1.5305322 0.91107327 -1.3593471 -0.639314 0.31587437 1.006701
-1.0169765 1.3506513 -1.5341414 -1.5424491 0.3441219 0.83853936 -1.9172846 0.16092658
0.8078113 -1.0980386 1.3952091 -0.20044631 -0.53926826 -1.2593951 -0.8329153 0.9574012
-0.022398273 -0.70251566 1.4936072 -0.49635667 -1.0410067 -2.4386456 -0.5694981 -0.03880466
0.75770885 0.7086899 0.48613718 -0.9325395 -2.0272677 -0.6344019 -0.057239395 -0.73175055
1.2144232 -0.33764622 -0.7417768 0.0175535 0.030311797 -0.33060625 -0.8054413 -1.3598053

gru.weight_ih_l0 f4 [96, 16]
00000000: 1f85 afbb f595 c3bc 3226 e73d 2030 ca3d
00000010: cc4e 41bd dde5 8ebe 5e5a b339 5495 35bc
00000020: f396 a4be 164b 183e 400b f2bd 9c7b 8ebd
00000030: 1550 403c adba 59be c499 4bbd da0b 69bd
00000040: 8302 b23e 816d 8a3d 0f28 8bbd a44d aebe
00000050: a8c7 743e 0553 2abe cbe3 773d bc62 ef3d
00000060: 600f 883d 3ced 33be bd10 173e c1ca 853e
00000070: be2d cf3a 5d3e 81bd 5cb0 223e 7d19 e3be
00000080: 2976 833e b8f0 b7be 4865 3b3d c2ea 953d
00000090: c4b0 763d 1d59 88be f343 49bc f2bc 6e3d
000000a0: a4d9 15be d9dd f53d 5a22 083e 7dd3 17bd
000000b0: a5c7 39be 333f c5bd f017 d3bd 9f5b 893d
000000c0: 99f6 893d 511c 41be 232d bd3d 4364 bfbd
000000d0: 3b3e 50be b694 7f3d 2cf2 9c3e 269c 26be
000000e0: 64e7 5f3d 35af b03e c9a5 6bbe 157c 3a3e
000000f0: 899d cf3d af01 bf3d db30 76bd b8d8 39be
00000100: a7c4 903e 384f 4cbd 67a9 843d 275c 22be
00000110: 7d9a 883e d657 afbd 7641 e23e 0a2b 733e
00000120: 7de7 07be ff4f 21bd 5f8c 963c cd18 1e3f
00000130: 433a bf3e f328 b6bd 7de0 f3bc 1717 5e3d
00000140: edd2 a53d 1d2c 833d e781 3c3d 4f1b 853e
00000150: 6b6b 223e b1c5 e0bd 1b49 183e f58c 9d3e
00000160: 3a7d 91be d2fc c13e ab46 e9bd 28af 803e
00000170: a816 ac3e 9d5c a33d e2c2 d13c 7dbc 703e
00000180: 33c2 22be cefa bdbd 91a6 c8bd 7407 bd3e
00000190: 37c6 84bc 83e8 643d 6e35 333f 4c12 503d
000001a0: f259 1fbd 85b6 573e 27b6 53be ea70 9fbc
000001b0: 24bf 2d3f 934f adbd 49bb 67bd 3c7d 403e
000001c0: 9888 573d f4c0 d5bd e887 2bbd 3f70 b13e
000001d0: 723e 2f3e 7d9a 3dbe e413 4ebd 115b 9b3e
000001e0: 3e00 5ebd 565f 313e 9175 ab3e d148 d7bd
000001f0: e165 903c 408a adbd e40e 11bd 9d04 a03e
00000200: 30cb 0e3e e1b2 a7be 7e43 953e ae01 923d
00000210: 4133 fb3d 3ace 8abe 77c5 46be 5175 433e
00000220: a4bd 84be 227d 8c3b 5d7d b23e d764 57be
00000230: b055 a5be 8819 71be 4cd3 54be ecf4 d43d
00000240: 7a98 263e af20 8f3d 14cc 6f3e 023c dabd
00000250: 0ff5 d83c 88e2 9e3d c112 103c ef12 c4bd
00000260: ba29 50bd a7ec efbd a579 713e b142 8abb
00000270: 27a7 81be bb4f 30be c11b 25bd c357 0abe
00000280: 4c79 17be bd6c c63d f103 8cbd 2065 373b
00000290: 73f1 9dbd 66d1 3c3e 4e56 ec3d 6dc2 25be
000002a0: b7fb 873e 0d17 51bd 3c6e 3abe 2387 b0bd
000002b0: cc05 293e 8de9 ba3e d83f 02be 784e 85be
000002c0: 4fa4 363d 7935 e8bd 0133 27bd a5bb 83be
000002d0: 845f 0bbe 0988 55be 6d9c 06bb cc66 253e
000002e0: ee98 01be b733 cc3c 80b0 03be 003b e5bd
000002f0: 1c9c 7fbe bbe2 1dbe 9e40 55be 48c0 593c
00000300: ac71 1d3e 96c4 12be 89e2 39bd 22f0 053e
00000310: e2d5 8bba 2eee 06be 3639 adbe 5b58 a53e
00000320: 8489 6fbe 31ce 873d e988 b83e 07ca 2ebe
00000330: 0db5 94be 798c a53d b6ea 7dbe c193 0f3e
00000340: e053 3b3e b601 bcbd fff9 913c 47ef 0e3e
00000350: 0c96 d9bc 69c9 0d3b 7c8a 683e 62fd bb3d
00000360: 8327 f9bd 956d b0bd fb1f a5bd 1d55 2c3d
00000370: 28f0 16be 929c 4abe bca6 05bd 8f86 0d3e
00000380: b20a 973d 07c5 b7be e654 783e 079c 6d3e
00000390: 7e66 fbbd 7776 aa3c 990b 12bf eb50 943e
000003a0: 2a37 7abe c237 46bd 777f b93e cb85 68be
000003b0: a906 fcbe 2aa4 83be 9e09 42be c68d 833e
000003c0: 694b 2f3e 5a10 7bbe 3282 503e 9c06 763e
000003d0: eb69 3d3e 3c99 47be 4dcf fd3d 59d4 3b3e
000003e0: 1715 f8be 4b37 003e 1002 fb3c 053e 463d
000003f0: 6865 87bb a974 aabc 3902 44be c682 c83e
-0.0053564454 -0.023875216 0.11286582 0.0987246 -0.047194287 -0.27909747 0.0003420887 -0.011082966
-0.32146415 0.14872393 -0.11818552 -0.0695717 0.011737843 -0.21262617 -0.04970719 -0.05689607
0.3476754 0.067591675 -0.0679475 -0.3404361 0.23904288 -0.16633232 0.060519975 0.11688754
0.066435575 -0.17570966 0.14752479 0.2613125 0.0015806479 -0.06310723 0.15887588 -0.44355384
0.25676087 -0.3592584 0.045750886 0.07320167 0.06022717 -0.26630488 -0.012284267 0.05828566
-0.14633805 0.12005205 0.13294354 -0.037066925 -0.18142565 -0.09631195 -0.103073 0.067069285
0.06736488 -0.18858458 0.09237125 -0.09345295 -0.20336239 0.06239768 0.30653512 -0.16270503
0.05466403 0.34508672 -0.23012461 0.18211396 0.10137469 0.09326493 -0.060105186 -0.18149078
0.28275034 -0.049880236 0.064776234 -0.15855466 0.26680365 -0.08561675 0.44190568 0.23746887
-0.132719 -0.03938293 0.018377481 0.61756593 0.37349138 -0.08894529 -0.02977013 0.05422124
0.080968715 0.06404898 0.046022322 0.25997397 0.15861289 -0.10975207 0.14871638 0.30771604
-0.28415853 0.378882 -0.11390432 0.25133634 0.33611035 0.07976649 0.025605623 0.23509403
-0.15894394 -0.09276353 -0.09797395 0.3691975 -0.016207797 0.055885803 0.700034 0.0507987
-0.038904138 0.2106572 -0.20674954 -0.019463021 0.6786978 -0.08462443 -0.056575093 0.18797773
0.0526205 -0.104371935 -0.041877657 0.3465595 0.17113665 -0.18515964 -0.050311938 0.30342916
-0.05419945 0.17321524 0.33488134 -0.105119355 0.017626705 -0.08473635 -0.03541459 0.3125352
0.13944697 -0.3275366 0.29153055 0.071292266 0.12265635 -0.27110463 -0.19411264 0.19087721
-0.25925934 0.004287378 0.3486127 -0.21034561 -0.32291937 -0.23544896 -0.20783728 0.10398278
0.16269103 0.06988656 0.23417693 -0.10655977 0.02648404 0.07758051 0.008793534 -0.09573924
-0.050821044 -0.1171506 0.2358156 -0.004219376 -0.2532284 -0.17217915 -0.04030967 -0.13510041
-0.14792365 0.09688709 -0.06836689 0.002798386 -0.077120684 0.18439254 0.11539899 -0.16187449
0.2655923 -0.051047374 -0.18206114 -0.08619525 0.16506118 0.3650631 -0.12719667 -0.2603643
0.04459029 -0.11338324 -0.040820125 -0.257291 -0.13610655 -0.20852675 -0.0020540014 0.16152495
-0.12655994 0.024927003 -0.12860298 -0.11192894 -0.24961895 -0.15418522 -0.20825431 0.013290472
0.15375394 -0.14332804 -0.045382056 0.13079885 -0.00106686 -0.13176796 -0.3383271 0.32293972
-0.23392302 0.06631125 0.36041954 -0.17069255 -0.2904438 0.08083434 -0.24796566 0.14021207
0.18293715 -0.09180014 0.017819403 0.13958465 -0.026560806 0.0021634942 0.22709078 0.09179188
-0.121657394 -0.08614651 -0.080627404 0.042073358 -0.1474005 -0.1978629 -0.032629713 0.13820861
0.07375087 -0.35892507 0.24251136 0.23204051 -0.12275408 0.020808442 -0.57048947 0.28967986
-0.24435106 -0.04839302 0.3623006 -0.22707288 -0.4922383 -0.25711185 -0.18948981 0.25694102
0.1711861 -0.24517956 0.20362166 0.24025959 0.18497436 -0.19492048 0.12393055 0.18342723
-0.4845359 0.12521093 0.030640632 0.04839899 -0.0041319616 -0.020807581 -0.19141473 0.39162272

gru.weight_hh_l0 f4 [96, 32]
00000000: e5c8 49be 5e2a 683e ac43 4fbe 320e 973c
00000010: 2c11 fb3d f9a7 863e b9d5 323e 3d01 423d
00000020: 7274 34be 43bf b4bd 11db cf3c 8c0e b2be
00000030: 7c57 6dbe d012 f0bd fd1c 29be 4d71 aa3e
00000040: aff4 b93e 3ffd 2e3d 84e2 8f3e 1bea ec3d
00000050: 6a56 d1bd 4495 063e 25b7 94be 16f3 abbd
00000060: 267b 26be a223 30bd a654 efbd e18f 5e3e
00000070: 6dc7 4dbe 9092 40be 454a c73e f3af ebbd
00000080: 3500 0d3e 1f7e b13d 15d9 aebd 7061 ac3e
00000090: 9a77 f1be 38ea 2a3e e84d cf3d e993 30bc
000000a0: 3c6c b23e 5155 14be e197 f4be 594c 6f3c
000000b0: abe3 81be 4e11 5ebd cfd5 cebe 44ee a1bd
000000c0: 8f99 b7be eb79 81be 8917 443e 9094 6f3d
000000d0: 647b 363f 7229 5fbd 74f8 56be 48b1 2ebe
000000e0: b073 ce3e 5ddf 7d3e 2787 17bf 945c 85be
000000f0: 482e b8be 82a3 603e 1fe0 efbd f81a 9a3e
00000100: 1449 00be bc28 ff3c 5bf0 64bc e2a1 103e
00000110: e0c8 1a3e 2e56 573e 0439 b33d 1387 743c
00000120: 37a5 10be d3d9 ab3e 6eef 4a3e 5d29 703b
00000130: b376 49bc a436 21be dc58 c13d 098d 793e
00000140: 0627 9d3e aae8 b4be c692 c83d ef41 ac3e
00000150: 050e 9e3e a528 a93e b4fe 41bc 4b08 01bd
00000160: a22a d9bd b786 cfbc 83ac 353d 812f 1b3e
00000170: 0b5d 77be d4e4 16bd 8839 05be 7b0a 97be
00000180: dd4a fb3a 656d 1f3f ac1c 263e 1623 593e
00000190: c5d3 eabd 43e1 563e fd54 2d3e e230 053e
000001a0: ff64 8f3d 9762 883e bac5 8e3f 535d f6bd
000001b0: 9fb7 313e 985a 2a3e 34c4 913c 9438 aebe
000001c0: bc6f 8dbd b889 ed3d 680c 903e 8406 2ebe
000001d0: 4577 15bd d263 d83c 51d6 febd ecd3 12bf
000001e0: 3242 da3d 066b 02bd acad 52bd ec3c a4be
000001f0: 33f2 793d 8218 ae3e 6c14 ad3e bc0c 2d3c
00000200: 8b97 063e f7e7 023e 77d8 1d3c 7604 8abd
00000210: d96e abbe 040c 573e 9268 023e 95e5 0a3e
00000220: 6945 8bbd 39fa 9cbe 5a68 143e 9186 3c3d
00000230: f68c 52be 3c43 0a3e 00e1 93bd ca91 7b3e
00000240: 095e 6d3e 3f02 fcbc a0ea 98be 9082 8c3d
00000250: 31a9 1b3e 0bae b33b 050a 83be 0534 cdbc
00000260: 1c49 7a3d 6543 713d 9f3f 2dbe 1751 67bc
00000270: 8d4e 8ebe e824 493e da79 b03e 082a b63d
00000280: cb79 71be e7c4 b53c bf8a b4bd 9ac5 1abe
00000290: 5840 b53d bb13 773e 99fb adbc fa83 c3be
000002a0: d38b fabd fddd 243e 0ece b2be 184b d33c
000002b0: d732 833d aa12 573e 5464 0cbf 0679 3e3e
000002c0: 09e6 f83d f726 633d 1ec8 9f3e b9b5 433d
000002d0: 57f1 30be b203 143e e2c6 84bd b663 363a
000002e0: b20b 1f3c 4b65 71be cd54 87bc c6f0 3dbe
000002f0: 773a bbbd eeb0 86bd b328 333e f26f 703d
00000300: 49be 81bd b96e 3b3e 2492 2c3d b9f3 1e3e
00000310: 3c55 773e 303e 153e 628f e03d 3fc5 0dbf
00000320: 4f58 593e c32a 2cbe 04e5 8c3e 5bc9 98be
00000330: 055f 843c 4397 81bc 735b 6dbe 7269 26be
00000340: 7bf3 9b3d e7fa c7bd 20dd 203c 2d9d 85bc
00000350: c55d 8b3e f031 cfbd 1eae 89be 6707 fa3d
00000360: b7a9 03be 4bfa 67be 3fed 583d bcd4 643e
00000370: 91a9 b03d d602 253e 084e 15be 882c 80be
00000380: 4495 0f3f 2f80 4f3c cbdb 023e 21e4 00be
00000390: 0598 0a3e 9b4a 553e c7aa d33d 4306 873e
000003a0: aec5 a83e 065e c5be 0f99 4a3e de0f 0dbe
000003b0: 9d50 febd 314b 3e3d 7136 153c 4738 173c
000003c0: d8dd 793e 0743 1bbe 3107 f93d f5ce 183d
000003d0: 722d d5bc e3fc 5e3d 7db7 52be a8dc c13d
000003e0: fdb2 883d 43cf 5abe dd4d 0cbe 298d 203e
000003f0: 3cdd 443d a58b c43d 835b 78bf c352 bbbe
-0.19705541 0.22672412 -0.20240659 0.018439386 0.12259135 0.26300028 0.17464341 0.047364462
-0.17622545 -0.08825543 0.025373014 -0.34776723 -0.23177904 -0.11722338 -0.16514964 0.33289567
0.3631949 0.042721983 0.28102505 0.115680896 -0.1022156 0.13142878 -0.29045978 -0.08395974
-0.16257915 -0.043002732 -0.11686067 0.21734573 -0.20095606 -0.18805909 0.3892385 -0.11508169
0.1376961 0.08666634 -0.08537499 0.3366809 -0.4716156 0.1669091 0.10122281 -0.010777452
0.348482 -0.1448567 -0.47772124 0.014605605 -0.2536901 -0.05421572 -0.40397498 -0.07906774
-0.35859343 -0.2528833 0.19149603 0.05849129 0.7128203 -0.054482885 -0.20993215 -0.17059815
0.40322638 0.24792238 -0.591906 -0.26047194 -0.3597281 0.21937373 -0.117126696 0.300987
-0.12527877 0.031147353 -0.013973321 0.14124253 0.1511569 0.21028969 0.08751109 0.014924782
-0.14125524 0.33564624 0.19817898 0.0036645748 -0.0122963665 -0.157435 0.09440777 0.24370207
0.30693835 -0.3533376 0.0979362 0.33644053 0.3087007 0.33038822 -0.011840511 -0.03150205
-0.10603835 -0.025332792 0.044353973 0.1515484 -0.24156587 -0.03683932 -0.13010228 -0.29500183
0.0019172091 0.622763 0.16221875 0.2120479 -0.11466173 0.20984368 0.16926952 0.13006929
0.07001685 0.26637718 1.1154091 -0.12029519 0.17355202 0.16636121 0.017793752 -0.3402754
-0.06906077 0.115985334 0.28134465 -0.16994673 -0.036490697 0.026414786 -0.12443221 -0.5735462
0.10657157 -0.031840347 -0.051435158 -0.3207773 0.061021995 0.34003073 0.33804643 0.010562118
0.13143747 0.127838 0.009634129 -0.06739132 -0.33483008 0.21000677 0.12735203 0.13564141
-0.06800348 -0.30659655 0.14492932 0.04602677 -0.20561585 0.1350221 -0.0722065 0.24567333
0.23180403 -0.03076279 -0.29866505 0.0686084 0.1520126 0.005483394 -0.25593582 -0.025049219
0.06110488 0.058902163 -0.16918801 -0.014118454 -0.27794304 0.19642985 0.34467965 0.088947356
-0.23581617 0.022188617 -0.08815526 -0.15114442 0.08850163 0.2412862 -0.021238135 -0.38186628
-0.122337006 0.16100307 -0.34922832 0.025792643 0.06406181 0.21003214 -0.5484059 0.18600854
0.12153251 0.05545708 0.31207365 0.047780726 -0.17279564 0.14454535 -0.064832464 0.0006957607
0.009707378 -0.23573796 -0.016519928 -0.18548879 -0.09142011 -0.065767154 0.17495994 0.05870051
-0.06335122 0.18303956 0.042131558 0.1552266 0.24153608 0.14574504 0.10964848 -0.553791
0.21225093 -0.16813187 0.27518475 -0.29841122 0.01615859 -0.015819198 -0.23179416 -0.16251162
0.076147996 -0.09764653 0.009818345 -0.016310299 0.27219978 -0.10116947 -0.26890653 0.12208443
-0.1285771 -0.22654073 0.05296063 0.22346777 0.08626092 0.16114363 -0.14580548 -0.25033975
0.56087136 0.012664839 0.12779157 -0.12587024 0.13534553 0.20829241 0.103353076 0.26371965
0.32963318 -0.38548297 0.1978495 -0.13775584 -0.124177195 0.046458427 0.009107218 0.009229726
0.24401033 -0.15162288 0.12159575 0.037306745 -0.026022647 0.05444039 -0.20577808 0.09465915
0.06674764 -0.21368127 -0.13701577 0.15678848 0.048062548 0.095969476 -0.97014636 -0.3658658

gru.bias_ih_l0 f4 [96]
00000000: 55e1 d93c fd6f 91bb 6202 243e 97aa f73a
00000010: 0732 533e a35f ccbd 91e4 0ebe f1db 443e
00000020: 475f 683d ee77 d33d 4cde 333d 4680 673e
00000030: cfa1 253d 4b8d f63b 923e 3bbc 91a7 1e3e
00000040: 7645 83bd 86e7 ae3d 40d5 123c 34ce dbb9
00000050: bb44 d63b 49e8 023d 3271 513e 10ca 38bd
00000060: 2ff0 723e bc30 283d a4a7 113e 0937 98bd
00000070: a474 333e d983 01be 5273 0c3e 8b5a aa3e
00000080: 5894 9c3e 3a06 98be 08f5 56be d0b0 b5be
00000090: 9d2e 2f3d cd33 303d b20c 183d f998 eabc
000000a0: 0243 b83e 3033 2abe a0fd cdbe 5efa 40be
000000b0: fb99 163d cea7 3f3e 86cd f23c c613 e6bd
000000c0: 81a1 48be 7887 85be 3fde c7bd a6f1 c7be
000000d0: e9a5 f7be a298 adbd 703e c3be b6b5 f8bd
000000e0: 074b 6bbe 10be c0be bf7e a7bd 8df5 1dbe
000000f0: a626 83bd 6792 c4bd c734 6f3d fd9b ee3b
00000100: 7dcb 01be b8d6 e33d 5cec 95ba 8083 c43d
00000110: f6bf b13d 8096 0b3e bc7a 0dbe 2383 85bd
00000120: 5ed3 11be 1333 773d 46b0 87bd 9d01 d5bd
00000130: f30d 963d 1cce 35be 6a06 5bbd d98f c93d
00000140: 621b c43d 7466 3bbe 89a4 8ebd 43c7 463e
00000150: cbf5 df3c fa6d 383e 4c07 7bbe ad2f a6ba
00000160: 7f4a 733d 19f6 e1bd 9834 6f3d 1f32 0b3e
00000170: c3e6 76bd 82bf 89bd 5424 d7bd e420 2bbe
0.026596704 -0.004438399 0.16016534 0.0018895444 0.20624553 -0.09979179 -0.13954379 0.19224526
0.05673149 0.10325609 0.04391317 0.22607526 0.040437516 0.0075241677 -0.011428492 0.15493609
-0.06409733 0.08540253 0.008961976 -0.00041924568 0.006538955 0.031959806 0.20453337 -0.045114577
0.23724435 0.0410621 0.14224106 -0.07432372 0.17524964 -0.12647952 0.13715866 0.33272204
0.30581927 -0.2969225 -0.2099191 -0.3548646 0.042769063 0.04301815 0.037121482 -0.028637396
0.35988623 -0.16621089 -0.40232563 -0.18845508 0.03676794 0.18716356 0.029639017 -0.1123424
-0.19592859 -0.26079917 -0.09759187 -0.3905155 -0.48368767 -0.08476378 -0.38133574 -0.121440336
-0.2297784 -0.37645006 -0.08178472 -0.15425701 -0.06403856 -0.095982365 0.05839994 0.007281779
-0.12675281 0.11124939 -0.0011438238 0.09595394 0.08679192 0.1363163 -0.1381635 -0.06519153
-0.14240786 0.060351443 -0.06625418 -0.10400698 0.07326879 -0.17754406 -0.053472914 0.0984189
0.09575535 -0.18300802 -0.06964976 0.1941195 0.027338883 0.18010703 -0.24514502 -0.0012679003
0.059397217 -0.110332675 0.058399767 0.13593338 -0.060278665 -0.0672598 -0.10504976 -0.16711766

gru.bias_hh_l0 f4 [96]
00000000: 2347 fd3d 23f9 64bd 4351 273e a273 bf3d
00000010: c1a7 dd3c 84d0 98bd 2094 02be 99c6 433e
00000020: b629 a23d 0ed9 abbd 1208 07be da44 093d
00000030: 878a f23d d237 293e b874 0a3e 553d 203e
00000040: 8f2c 3a3e abf2 553d 696f 8f3d 3c7d 2abe
00000050: 8ebf 1a3e e05d c4bd 26b8 683e 925e 2f3e
00000060: 2291 5a3e 22c6 273e f948 ad3d 0a6c cfbc
00000070: 712f 433d 3620 ab3d b833 9c3e 1d15 8a3e
00000080: 8c7f 343e d8c1 f4bd 1f5b 2cbe 8f3c 3fbe
00000090: aec8 12be fea5 92bc f47c 0d3e 29b4 adbc
000000a0: 0f9f d43d 596c ffbd f769 50be 3986 9ebe
000000b0: 3b18 36be 32c2 e33c 1d1c a93d de25 b4be
000000c0: 6fa5 e7bd cfee 77be 50e3 19be 71f8 c3be
000000d0: c25c f1be d7cf 05be 0179 12be 4f5b 52be
000000e0: 5896 af3c 7478 06bf b529 923d 71f7 f5be
000000f0: d84e 163d 7218 95be 27d4 373e ce19 22be
00000100: 7145 833c b7cc 3f3d 3ec9 64be fabd a13e
00000110: 6f96 1c3e 1861 91bd 4202 8fbd 9a52 253c
00000120: 7d83 c2bd 28f7 ab3d 3e40 423e e993 12be
00000130: 66dd a1bd 0a9b 883a 4ffb 28bc 4569 b7ba
00000140: 0643 9b3e 72c7 2ebe eb6c 043c e7de 03bd
00000150: cf48 edbc 2fe4 243e 2973 e5bd ca9d 29be
00000160: 7db0 72be a202 64bc 9491 093e 59a0 2b3e
00000170: f302 8dbc 6213 47bd 71f5 c43d 40b9 42be
0.12367084 -0.055901658 0.16339593 0.09348227 0.02705753 -0.07461646 -0.12751818 0.19118728
0.07918112 -0.08391009 -0.13186672 0.033512928 0.11842828 0.165252 0.13521087 0.15648396
0.1818106 0.05223338 0.07003672 -0.16649336 0.15112135 -0.09588218 0.22726497 0.1712592
0.21344426 0.16384175 0.08461184 -0.025320072 0.047652666 0.08355753 0.30508208 0.26969233
0.1762678 -0.11951035 -0.16831635 -0.18675445 -0.14334366 -0.017901417 0.13817197 -0.021204071
0.103819005 -0.124718376 -0.20352922 -0.3096178 -0.1778268 0.02780256 0.08257315 -0.3518514
-0.11310851 -0.24212192 -0.15028119 -0.38275483 -0.4714108 -0.13067566 -0.14303972 -0.20542644
0.021433994 -0.52527547 0.07136861 -0.48040345 0.036696285 -0.29120213 0.17952023 -0.15830156
0.016024323 0.04682609 -0.22342393 0.31590253 0.15291761 -0.07098597 -0.069828525 0.0100904945
-0.09497736 0.08396751 0.18969819 -0.14314236 -0.079035565 0.0010422182 -0.010313823 -0.0013993165
0.30324572 -0.1706827 0.008082609 -0.032194998 -0.028965382 0.1610267 -0.11203606 -0.16564098
-0.23700137 -0.013916643 0.1343444 0.16760387 -0.01721332 -0.04860247 0.09617127 -0.1901598

gru2out.weight f4 [5, 32]
00000000: 1f64 323e 6b16 bcbe 1a2a cf3e 084c a1be
00000010: efbb b9be 307d c6be 82bc c5be 22e1 253e
00000020: 0e70 303d 6d97 71be ef0b cfbd f624 f43e
00000030: 8229 8f3e 6979 7b3e dcc2 8e3e 815c 70be
00000040: c44b 96bd 281c cc3d 1eec d1be 9d09 54be
00000050: 7ade 1cbe d140 85be 3062 de3e 8413 103d
00000060: f1fe 923e ca1f 013f d122 00be 12e8 0cbf
00000070: dfdf d33e 3b6a 653f de35 f4bd 191d fe3e
00000080: 4d52 823e 28dc 3abe 19da ed3e c70b 223e
00000090: 2712 2b3f 2d3a 8e3e c4ab 13bc 5c3d 7a3e
000000a0: bea3 0dbd 148e 87bd 3d95 08bf 61a9 2bbe
000000b0: b7a9 cf3d a256 59be 414c 273e 50a4 903e
000000c0: 01db 9e3e 6192 d1bd 4bad 03bf 5405 12be
000000d0: dfd2 d2be 715c bd3d d93e 09be 52c2 473f
000000e0: 339c 4fbe 0dee 2ebe 84e4 bebe 2707 d83e
000000f0: 2455 a0be 00f3 7cbd c958 59ba 5eab 61be
00000100: 81c8 e3be 42e3 6bbd 30d3 7bbe 4365 d93e
00000110: df6f e0be fbff 8c3e 3a61 3c3e db17 2e3e
00000120: 223f f9bd 92e0 823e 76fe 67bf 1af3 60be
00000130: a19f 8fbc 4585 56be 3ce9 d1be 26dc cf3d
00000140: d037 4a3e ed5d 00be 2956 a13e 788d 0b3f
00000150: 88ca 343f 5f3c b23d 1bdf 57be 7dc0 0bbf
00000160: 436e e63d 1d59 243d 913f babe aebd 833e
00000170: e9a9 053e 066e e8be ada8 76be d5af 153f
00000180: 26ab aabe 8ec3 013f 5893 31be c712 a0bd
00000190: cff6 91bd 2a08 3c3d a9b3 3d3e b322 14bf
000001a0: 7b37 aabe 6381 80be 1abc 723f 7777 0dbe
000001b0: c6c2 34be 3d43 cabd 6a9e c6bd 79d7 2d3e
000001c0: 9550 873c f3c3 9dbe 8acc b33e fee3 c5be
000001d0: 4c1c cdbe 8963 c83e bb11 08be 55c7 bebe
000001e0: c76e a0be 8dbe 82be 8089 063e 6779 07bf
000001f0: 90cf 42be 2957 fc3e a9d3 023f a560 c1be
00000200: 96f0 a9bc b3db 9dbe cf53 87bd 6cfd 00be
00000210: d81d 253e 4bee 85bd e25d 8b3d f9dd b43d
00000220: 5f12 503e 8898 633d d000 c1bd f69d 90bc
00000230: 5cea 41bc ef22 e9bd 1ba7 743e ffbb 453d
00000240: a8c1 883e a7e1 3dbe 21a3 063e 6020 323e
00000250: 0b0b 62bd 2b16 63be da6a 063d 9c27 5b3e
00000260: 3d59 03be fac1 31be 8c06 be3e 57e6 833e
00000270: 2d32 db3c 382c b5be 3955 57bd 7926 3bbe
0.17421006 -0.36735854 0.40461808 -0.3150332 -0.36276194 -0.38767385 -0.38620383 0.16199163
0.043075614 -0.2359292 -0.10109698 0.4768445 0.27961355 0.24558033 0.2788304 -0.23472787
-0.0733867 0.09966308 -0.41000456 -0.20706792 -0.15319243 -0.26026013 0.43434286 0.03517486
0.2871013 0.5043913 -0.12513281 -0.5504161 0.41381738 0.8961522 -0.11924337 0.49631575
0.25453416 -0.18248045 0.46455458 0.15824805 0.66824573 0.2777876 -0.00901312 0.24437469
-0.034579985 -0.06618896 -0.5335272 -0.16763832 0.101397924 -0.21224454 0.16337682 0.2825036
0.31026462 -0.10232998 -0.514363 -0.14259845 -0.41176507 0.092461474 -0.1340288 0.78030884
-0.20274429 -0.17082997 -0.3728372 0.42192957 -0.31314957 -0.06175518 -0.0008291123 -0.22038028
-0.4448891 -0.057589777 -0.2459228 0.4246007 -0.4383535 0.27539048 0.18396464 0.17001288
-0.12170245 0.2556196 -0.9062265 -0.21967736 -0.017532172 -0.20949276 -0.40998256 0.10149412
0.19747853 -0.1253583 0.31511047 0.5451274 0.7062154 0.08702921 -0.21081202 -0.5459059
0.112514995 0.040124048 -0.36376622 0.25730652 0.13053097 -0.4539644 -0.24087782 0.58471423
-0.333337 0.5068902 -0.17341363 -0.078160815 -0.07127153 0.045906223 0.18525566 -0.57865447
-0.33245453 -0.25098714 0.9481827 -0.13815103 -0.17652425 -0.09876106 -0.09698184 0.16976728
0.016517917 -0.3081356 0.35116988 -0.38650507 -0.4006065 0.3913844 -0.13288014 -0.37261453
-0.31334516 -0.25536004 0.1313839 -0.5291962 -0.19024491 0.49285248 0.5110422 -0.37769046
-0.020744603 -0.3083168 -0.06607782 -0.12596673 0.16124666 -0.065395914 0.06805016 0.088314004
0.20319508 0.055565387 -0.09423983 -0.017653447 -0.011835661 -0.11383616 0.2389187 0.04827499
0.26710248 -0.18543111 0.13148166 0.17395163 -0.055186313 -0.22176425 0.032816745 0.21401829
-0.1282701 -0.17359152 0.3711437 0.25761673 0.026757324 -0.353853 -0.05257151 -0.18276395

gru2out.bias f4 [5]
00000000: d893 a8bd bc6f 6d3e c02c 803e 8ca5 af3d
00000010: e11e cfbd
-0.08231324 0.23187155 0.25034142 0.085764974 -0.101133116
