1_positive_trim30_fullytrainedOracle.pth (torch, 23203 bytes, 7 tensors)

embeddings.weight f4 [6, 16]
00000000: 8d7d 4f3f 3422 b8be 5e5d 923f 4c7e 97bd
00000010: f34c 643e 1240 1bbf 0f95 f73e 9242 a93f
00000020: d03a 853e a631 cfbf 2e01 5c3e a02b 2040
00000030: 164c d5be c278 ad3f 372e 8ebf 42d4 85bf
00000040: 0734 283f 884a c7bf f25b 1abf acf7 eebe
00000050: 3945 7f3f 6409 323e 92f2 a13e cc1e c73f
00000060: 93d9 b73f 9911 e9be dca2 77bf 4cf5 08be
00000070: a2c2 8c3f 69d7 9dbe 4842 86bf e3d9 64bf
00000080: 8a8a a6bf 0a61 be3f 28a4 26bf c43c a9bf
00000090: bf23 b53f 918e 71bf 6456 14c0 e780 463f
000000a0: 449b ca3f 9b80 46be d793 0e40 8786 8a3f
000000b0: 9629 63bf 67e4 3ebf 50ae 71be 2e4b 5a3f
000000c0: 7b37 83bf 07d6 8b3f d359 7bbe 617e 8a3e
000000d0: 32b2 03c0 0fca 0bc0 11d6 37bf 668b c43f
000000e0: e1ca 45bf 5561 a7bf 3bef 2abf 5ba7 4e3f
000000f0: 0983 9a3d a91e 30bf d810 dcbf 7358 aebf
00000100: 84e3 313f c33d 59bf 69ff 0c3d 9d1c 96bf
00000110: 4ffe ba3f ff65 4cbd 584b c43e 70cd 85be
00000120: 7c39 4b3f 2102 77bf a183 6d3e d53b 1dbf
00000130: 8d77 f13e fcdf 1c3e df5a 43bd a2a0 2dbf
00000140: 91c8 503e 69cd c6be c0ad cf3e 207f 6cbd
00000150: deb1 1ec0 2c82 933e b915 1ac0 71ff f4be
00000160: 439a 5d3f 7361 40be 3864 f23f 4a83 a63e
00000170: 2d48 a6bf 24ee 953e 70b2 bdbd e828 01bf
0.8105095 -0.35963595 1.1434743 -0.07397136 0.22294979 -0.6064464 0.4835591 1.3223441
0.26021433 -1.6187027 0.21484825 2.5026627 -0.4165961 1.3552477 -1.1107854 -1.0455401
0.6570439 -1.556962 -0.6029655 -0.46673334 0.99715 0.17386395 0.3163038 1.5556273
1.4363273 -0.45521238 -0.9673288 -0.13374823 1.0996897 -0.30828407 -1.0488977 -0.8939497
-1.3011029 1.4873364 -0.6509423 -1.3221669 1.4151534 -0.94358164 -2.3177729 0.7754044
1.5828633 -0.19384997 2.2277734 1.0822304 -0.8873533 -0.74567264 -0.23601651 0.85270965
-1.0251306 1.0924691 -0.24545984 0.27049544 -2.0577512 -2.1842077 -0.71811014 1.5355041
-0.77262694 -1.3076578 -0.66771287 0.80724114 0.07544524 -0.68796784 -1.719264 -1.3620743
0.69487786 -0.84859866 0.034423266 -1.1727482 1.4608859 -0.04990196 0.38338733 -0.261333
0.7938459 -0.96487623 0.23194744 -0.6141942 0.47161523 0.15319818 -0.047694083 -0.6782323
0.2038901 -0.3882859 0.40562248 -0.057738423 -2.4796062 0.2881025 -2.4075758 -0.47851136
0.8656351 -0.18787174 1.8936834 0.3252204 -1.2990776 0.2928325 -0.0926255 -0.50453043

gru.weight_ih_l0 f4 [96, 16]
00000000: 118b a3bd 78dd f5bd fef2 3f3d 2c33 bb3d
00000010: 99e5 12be 716e 27be 2940 853d 9ef4 273d
00000020: 25d7 65bd 7611 0bbd 276b 41be 12a4 973d
00000030: 010f d13d 5e8d 083e ec08 9bbe af30 7ebe
00000040: 5d40 30be 3681 7c3e 86cc ac3d 1eac 2bbe
00000050: 3f31 cabd 1d80 953c afc9 033d 1673 fb3d
00000060: 6ea2 25bd 87d8 84bd 357f 0d3c 582a 7c3e
00000070: 0ecd 2b3c a4bc 58bd aa10 0fbd d138 55be
00000080: 33fc 8d3e e01f bebe 107e 293e 6b61 01be
00000090: 03c8 333e c63c 3a3e ac80 a13e 821e 0bbe
000000a0: 2846 78bc f870 acbd b7d9 4f3e ffe1 00be
000000b0: bd63 663e 2757 693d 6ad0 8b3e 756b a93c
000000c0: b60b c83c 014c 4dbe 9f56 01be 489a 9e3d
000000d0: ba15 0b3e c1fc b6bd 1da6 6d3d 8f30 443e
000000e0: 6a76 7b3e dc1a 3ebd 338c 703e 2dfb ad3d
000000f0: 1f48 fc3d 47b8 07be 845b 483d 4707 17be
00000100: 218a 8b3d e6b1 22bd 75d7 673d 1113 62be
00000110: a597 6c3e d7c2 2c3e fdf4 693c 7a03 b7bd
00000120: 6615 c4bc f485 22be 53e0 2ebd 787d 49be
00000130: 6d2a 49bd 0e8d 15be 2a7d d0bd 3b13 60bd
00000140: 3062 d7be e16c c33e 3d13 63be cf72 67bc
00000150: a4bc 2bbe be7e e5be 4196 0abf 3ceb c23e
00000160: c5fe 61bd d92a 00be a582 593e 7538 ee3e
00000170: aa38 3bbe 49e0 babe 5000 84be 2e34 1d3e
00000180: bc12 7cbe 1ff0 c63e 889d ffbe e893 a9be
00000190: 271a 9b3e f288 61be a87e ed3c 46e3 643e
000001a0: c09a 4e3e 4ae3 3dbe cd02 9d3e 7550 243e
000001b0: 5656 883d 5a34 53be ad0b e1bd da14 b63c
000001c0: 06b7 9d3e 96d8 7bbe 01b8 08be 887d a7be
000001d0: 3bb1 ed3e af6f 143e 6d0e 913e 8da2 33be
000001e0: ff43 833e d5a2 823d 2697 423e 0f46 95be
000001f0: b931 273e b8e7 b13e dd42 2e3e 476a a43e
00000200: df07 9f3e e415 3fbe 0b81 8b3d 2738 6bbe
00000210: 55f3 d53d df6b f9bd caeb 2c3e baca 48bd
00000220: 99aa c73d fa55 1abe bf01 8cbd 109b 9ebd
00000230: 3369 4a3e 985d 0abe fd26 eb3c f107 a1be
00000240: ccad fe3d 59cc 63be 45ef 6c3e d1d1 b53c
00000250: c3e1 97be 9495 9abd 1f0a d93d 7399 1fbd
00000260: 1b31 3ebe add4 a1be fe08 493b dcb3 1a3e
00000270: 764e 0c3e d65b 1f3b e681 22be 1792 1cbe
00000280: 49af 2c3e dac8 443d d759 a3bd 4748 7ebe
00000290: 6a62 613e 94d4 e6bd 9de4 483d d36b 073e
000002a0: e2cb 173d 444d 90be 9185 4dbe b9df 423c
000002b0: 173d e9bc a582 26bb a78a 99bd fc8c 61be
000002c0: 0b5a e1bd 91d7 50be c4a1 0cbe 3e91 553b
000002d0: 80dd 023d ecb9 0abe e423 ea3d df54 193e
000002e0: e036 3b3e 7c5f 70be 6f6e 4c3e fbb0 43be
000002f0: fb91 b93d d79c 8fbe c7ce 2bbe fef9 adbd
00000300: bfdf 283e adb4 b8be fc53 cbbd 15ab 17bd
00000310: b8d0 033e 2d28 523e 0b99 17b9 1191 1e3c
00000320: 41b8 513e 5866 623d f90a 653e 8de2 7ebd
00000330: 682a 76bd 8b65 4f3e a7e7 2d3e b6eb 0f3e
00000340: 03f1 48be edb4 3c3e 849d 123e eebd bcbd
00000350: 05bf 31be f30c b5be 088f 08be 1e52 963d
00000360: 2adc 5b3e 0d16 fdbd 6f24 7c3e f33a 813e
00000370: 838c 49bd 8c80 62be 1c89 ffbd 27c4 98be
00000380: 4949 893e a07e 6fbe ef98 d2bd 8fd9 abbe
00000390: 46e0 8d3e 376b b93c 3af0 b43c 4a86 cf3d
000003a0: 3234 ca3e 3388 4cbe e975 2b3d c488 35bd
000003b0: 6eee 5a3e 723b 423d 945a 0dbe 91ab 5cbe
000003c0: 6306 1bbd 7465 583d 755c 00bd 8df8 5dbe
000003d0: ee07 703d 3962 3ebd eac6 98bd 8c6a ecbc
000003e0: b700 b73d 5675 723d 58f4 163e f412 febd
000003f0: cfb0 613d 8d64 1ebd 3922 5abe 22a4 55be
-0.07985509 -0.120051324 0.046862595 0.0914062 -0.14345397 -0.16350724 0.06506378 0.04100477
-0.05611338 -0.0339522 -0.18888532 0.07404341 0.1020794 0.13335177 -0.30280244 -0.24823259
-0.17212053 0.24658665 0.08437447 -0.16764876 -0.09872674 0.018249566 0.032174762 0.1227781
-0.04043811 -0.06486612 0.008636286 0.24625528 0.010485901 -0.052914277 -0.034928 -0.20822455
0.27731475 -0.37133694 0.16551995 -0.12634818 0.17556767 0.18187246 0.3154348 -0.13585857
-0.015153445 -0.084199846 0.20297895 -0.1258621 0.22498985 0.05696788 0.27307445 0.020681122
0.024419647 -0.20048524 -0.126307 0.077442706 0.13582507 -0.08934928 0.058019746 0.19159149
0.2455689 -0.046412334 0.23490982 0.084951736 0.123184435 -0.1325389 0.0489154 -0.1474887
0.068134554 -0.03972044 0.05660196 -0.22077586 0.23104723 0.168712 0.014279601 -0.0893621
-0.023935985 -0.15871412 -0.0426944 -0.19676769 -0.049112726 -0.1460459 -0.10180123 -0.05470584
-0.420671 0.38169006 -0.22175308 -0.014126494 -0.1677118 -0.4482326 -0.5413552 0.38070095
-0.055174608 -0.12516345 0.21241243 0.46527448 -0.18283334 -0.3649924 -0.25781488 0.15351936
-0.24616522 0.38855073 -0.49924874 -0.33120656 0.3029339 -0.22024897 0.028991058 0.22352323
0.2017622 -0.18543735 0.306662 0.16046317 0.06657092 -0.2062544 -0.10988555 0.02222674
0.30803698 -0.2459434 -0.13351442 -0.3271296 0.4642428 0.14495729 0.28331318 -0.17542477
0.25637814 0.06378714 0.19002971 -0.29155013 0.16327561 0.347471 0.17017694 0.32112333
0.31060693 -0.18660694 0.06811722 -0.22970639 0.104468025 -0.12178778 0.16886821 -0.04902146
0.09749336 -0.1507186 -0.068362705 -0.077444196 0.19766693 -0.13512266 0.028705114 -0.3145137
0.12435493 -0.22245921 0.23138149 0.022194775 -0.2966443 -0.07548061 0.105976336 -0.0389647
-0.1857342 -0.3160757 0.0030675526 0.15107673 0.13701805 0.0024316213 -0.15869865 -0.15290104
0.16863741 0.04804311 -0.0797612 -0.24832259 0.22010198 -0.11271015 0.049046148 0.13224725
0.037059672 -0.2818395 -0.20070483 0.01189416 -0.028471513 -0.002540746 -0.07497149 -0.22026438
-0.110035025 -0.20394732 -0.13733584 0.0032587792 0.03194952 -0.13547486 0.11432627 0.14973782
0.18282652 -0.23473924 0.19964002 -0.19110481 0.09061047 -0.28049347 -0.16778098 -0.08494948
0.16491602 -0.36075345 -0.09928128 -0.03702839 0.12872589 0.20523138 -0.00014457495 0.009678141
0.20480444 0.055273384 0.22367467 -0.062227774 -0.060099036 0.2025358 0.169829 0.1405476
-0.19623189 0.18428393 0.143179 -0.09215914 -0.17358024 -0.35361442 -0.13335812 0.07339881
0.21470705 -0.123577215 0.24623273 0.25240287 -0.049206268 -0.22119349 -0.124773234 -0.29837152
0.26813725 -0.23388147 -0.10283076 -0.33564422 0.2771017 0.022634132 0.022087205 0.101330355
0.39492947 -0.19973831 0.041860495 -0.044319883 0.21380016 0.047419973 -0.13804084 -0.21549822
-0.037847888 0.05283113 -0.031338174 -0.21676846 0.058601312 -0.04648039 -0.07459815 -0.0288594
0.08935683 0.05919393 0.14741647 -0.12405959 0.05510026 -0.03867011 -0.21302117 -0.20863393

gru.weight_hh_l0 f4 [96, 32]
00000000: 6f24 d1be 7abd 623e 73c2 e73b 738f 043e
00000010: a128 b0bd 0023 683e 3c21 6fbe 0d46 cdbd
00000020: dd16 a3bc b54f ec3e cbb4 9e3e 75c6 393d
00000030: 25fe 7cbe ba23 a23d 121c 773e 6647 903d
00000040: 3a90 36be bf28 67bb 2722 8ebe 2e87 37bd
00000050: e0c3 36bd b1b0 ecbc 9643 903e bb2c bfbd
00000060: b3b5 cbbd 250a 87bd b8b2 583e 2bb3 6ebe
00000070: 9aed b7bd 9702 4c3e 636e d03d 41d8 753e
00000080: 4050 ea3a a467 6c3d 04cf b4be a519 733c
00000090: b960 233e 2af1 863d db3d 1e3c aa6b 8cbd
000000a0: 7b49 3fbd 8e03 293d d22e d3be 14ba ff3c
000000b0: 97b6 13be 9309 593d c63e c43d aaf1 b53d
000000c0: b95c 6b3d 6e28 7ebe aaa4 a03d 7c38 003d
000000d0: dbab 62bc ac2a 9d3d 5084 6f3e 3374 d63d
000000e0: dd14 883e b56a ea3c 1887 2abd 79a8 463d
000000f0: ae09 9cbe 7e77 913e ff50 01be ad00 3b3e
00000100: b100 d8bd 4b05 ebbc 2d71 46bd d23a 433e
00000110: bcdb 6f3e 3753 523e dd42 88be c61e 0b3e
00000120: c593 8abd 5a74 e63c 5688 ba3d 0eab b93d
00000130: 18fa a63e 0450 7cbe 8a0a e53d f4da 083e
00000140: a3c4 083e 2154 98be 59d3 3bbe e12d 603d
00000150: 907f 8e3e df30 a73d a80e 813d f19e d7bc
00000160: ac19 973e c767 66be 168d 043e e256 a33d
00000170: a9d0 ab3e aff9 273e aa9a fcbd 17db 4cbd
00000180: 68b0 76bd d91d 843e 0862 05be 714c eebc
00000190: e3cb fcbc 9c67 303e a979 3abe 8afb 023e
000001a0: dc93 b73d 660d 283e d1a8 cabe d070 6dbe
000001b0: b115 9bbe 8d65 a2bd 768a 103e e6e6 903e
000001c0: 6969 863e 039e 01bd 02be 353d cff7 443c
000001d0: 27c0 53bd eb59 b73e f81d c03c 2d18 153e
000001e0: 7692 f23d 3b81 ba3d 8e53 6c3d 6a7e 47be
000001f0: 8943 4ebe 33ad 2e3e 117a 47be ade9 17bd
00000200: 8232 e7bd cfdc 37be 8735 12be 9d0c 08be
00000210: 5a03 2abd 6c19 1bbe 070f 7abe d638 8a3e
00000220: 79b1 d93d 1ad2 18be 34a9 ac3c b817 cebd
00000230: a295 d63c 0570 87bd 4fe7 0bbc 17b2 05be
00000240: c807 493c 11c3 b23c 4486 fbbc 3d43 bc3d
00000250: b6ea b13e 0cc3 293d 41db 023d df41 8e3e
00000260: 0d01 e1bd d6a9 98be 14cf 0d3e 5d07 143e
00000270: 44f8 063c 25de 9e3d 124b 1ebd c796 c23d
00000280: 03a4 3c3d 16f9 813d 54b1 22be 29bc b5bb
00000290: 39f4 73be fa66 ee3e 567f d4bd e643 8b3e
000002a0: 2f50 a43d 67b4 c3bc 8647 3cbe b78a e2be
000002b0: 1f0a 813d 6d4e 86be 8e56 093e 0e3a a3bd
000002c0: dfe0 b53e ca0b cabe ecd1 2d3e 3cfd 4b3e
000002d0: 0c31 093f b44c bfbb 4d28 0c3e 39ba 6d3d
000002e0: 6b12 063e 8edb 55be 7708 763e 7f85 75be
000002f0: 4c5b d83e 590e 5d3d 2dc3 bdbe b7d3 843e
00000300: 5781 c93d ad97 9dbb 90ab 153d 8e37 2a3a
00000310: 013f d2be db23 933e 8e93 86be 0074 ae3d
00000320: 38e4 3abb 46db e43b 28e0 0b3d d469 86be
00000330: 7198 c0be 1026 80bd 5243 d4bd 0465 c03d
00000340: 5f1a f83e 895d f7bd 5a8b 183d 1f46 bebc
00000350: 6544 e93e adcb 6fbd 2d0e 0f3d f802 c83d
00000360: c1a9 f53d 8183 88be 30f8 513e 8e41 2cbd
00000370: 30fd 703d 5eab 0e3e c5ca 25bd 6b33 e83d
00000380: d48f 50be c05b 49bd 6878 ed3d 1bbb 8d3b
00000390: 2d8c d43d 76c2 3ebd 8502 abbe cd42 a3be
000003a0: 23e2 413e 604a 04bf 3353 b73e 7e33 d9be
000003b0: 0a39 85be b91b 8fbc bec1 c73d 6fac 92bd
000003c0: 077e a93e 5030 413e fa40 6bbe 5505 b13e
000003d0: 86f8 973d 4948 61be 91b5 203e 2837 343e
000003e0: b420 6f3e 12fc a1be 24ce 76bd 535f efbc
000003f0: 5658 233e f744 193e 4efe 11bf 155b a0bd
-0.4084811 0.22142592 0.0070727407 0.12945347 -0.08601499 0.22669601 -0.23352522 -0.10023127
-0.019908363 0.46154562 0.3099731 0.04535528 -0.24706323 0.079169706 0.24131802 0.07044868
-0.17828456 -0.003527209 -0.2776043 -0.04480665 -0.044620395 -0.028892847 0.28176564 -0.093347035
-0.09946766 -0.06593732 0.21161926 -0.23310535 -0.08980866 0.19922863 0.101773046 0.24008276
0.00178767 0.057716027 -0.3531419 0.014837657 0.15954866 0.06588967 0.009658302 -0.06856473
-0.046700936 0.041263156 -0.4124666 0.031216659 -0.14425121 0.052987646 0.095822856 0.088839844
0.057461474 -0.2482011 0.07843907 0.031303868 -0.013834919 0.07674155 0.23390317 0.10471382
0.26578417 0.028615335 -0.04163274 0.04850051 -0.30476135 0.28411478 -0.12628554 0.18261977
-0.10547007 -0.028689047 -0.048447777 0.19065407 0.23423666 0.20539556 -0.26613513 0.13585958
-0.06766466 0.028131653 0.09108035 0.09065829 0.3261268 -0.24639899 0.11183651 0.13364774
0.13356261 -0.29751685 -0.18342341 0.054731254 0.27831697 0.08163618 0.063016236 -0.026320906
0.29511774 -0.22500525 0.12944445 0.07975556 0.33557633 0.1640384 -0.12334187 -0.050013628
-0.060226828 0.25804022 -0.13025677 -0.029089184 -0.03085894 0.17227024 -0.18210472 0.12791267
0.08963749 0.16411361 -0.39581922 -0.23187566 -0.30289987 -0.079295255 0.14115319 0.28301162
0.26252297 -0.031644832 0.04437066 0.012021973 -0.051696923 0.3581079 0.02345179 0.14560004
0.118443415 0.0910668 0.05769687 -0.19481817 -0.2014295 0.17058258 -0.19480158 -0.037088085
-0.112889305 -0.17955326 -0.14278232 -0.13286062 -0.041507103 -0.15146416 -0.24419795 0.26996487
0.10629553 -0.14923897 0.021076776 -0.10063118 0.026194397 -0.06613163 -0.008539035 -0.13056217
0.012269922 0.02182153 -0.030703671 0.09192512 0.34749383 0.041445777 0.031947378 0.2778463
-0.109865285 -0.29817075 0.13848525 0.14455934 0.008237902 0.077572145 -0.03864581 0.09501415
0.04605485 0.063463375 -0.15887958 -0.005546112 -0.23823632 0.4656294 -0.1037585 0.2720024
0.08023106 -0.023889733 -0.18386659 -0.44246456 0.063007586 -0.2623171 0.13411924 -0.079700574
0.35523126 -0.3946212 0.1697461 0.1992082 0.53590465 -0.005838001 0.13687249 0.058038924
0.13092963 -0.20884535 0.24026667 -0.23976706 0.42257154 0.05396876 -0.3706297 0.25942776
0.09839123 -0.004809341 0.036540568 0.00064932636 -0.41063693 0.28738293 -0.2628445 0.08518219
-0.0028517377 0.0069841472 0.03414932 -0.26252615 -0.37616304 -0.0625726 -0.10364403 0.09394267
0.4845762 -0.12078387 0.03724227 -0.023226796 0.45559993 -0.05854385 0.03492563 0.09766191
0.119952686 -0.2666283 0.20504832 -0.042054705 0.05883521 0.13932559 -0.04047658 0.11337932
-0.20367366 -0.049159765 0.11595231 0.004325283 0.10378299 -0.04657217 -0.3340036 -0.31886902
0.1893392 -0.5167599 0.35805663 -0.42422098 -0.2602008 -0.017469274 0.0975375 -0.07161795
0.33103964 0.18866086 -0.22974005 0.3457438 0.07420449 -0.22000231 0.15694262 0.17599165
0.23352319 -0.31637627 -0.060255185 -0.029220259 0.15951666 0.14967714 -0.57028663 -0.078298725

gru.bias_ih_l0 f4 [96]
00000000: abb6 57bc 534c 88ba f9f6 d4bc 03a8 3e3e
00000010: 80a9 503e ba03 c53d c21b a43d fc8f b43d
00000020: 7f24 6e3d ae7a 2c3c b1ad 973d 5072 003d
00000030: 5a3b 913e 78c2 fc3d 8876 443e 08e1 993d
00000040: 48e0 423d f978 1d3d 9a4c 6d3d cb4a 213d
00000050: 1998 093e c4ce 4a3e 3935 023e 5af5 5cbd
00000060: 16ce c5bb ac4c ba3d aa3b 1e3e d79d 653e
00000070: 073d 1a3e 51fe 2b3e bebe 3f3e 21af bc3c
00000080: 6d5a b4bd ddfc cbbd ab50 4f3b 517a b2be
00000090: 0c11 d73b 92f1 91be 75f3 e93d 0e94 bbbe
000000a0: 1612 4dbc d311 48be 8bd1 26be 1745 62be
000000b0: e2fe a6be cee1 f6be dbf7 85bd fa50 15bc
000000c0: 8792 11be 6f3f 97be 437c aebd 1356 c7bd
000000d0: c4c2 953d 5087 dbbe 8f9c 01be 1bab 9abc
000000e0: 4cea ddbb 4e33 fcbd 7b92 17be 5ab1 02be
000000f0: f416 6bbe f174 61be 68da 25be a1bb a1be
00000100: 5e62 72be 46c8 95bd 21c4 37be 36dc 183b
00000110: 834a 9ebd 89a3 443e f679 d4bd beab 71be
00000120: 0cc4 57be 8daa 393c 7af8 b7bd 3fb0 38be
00000130: bde4 973d b906 eb3d 97dd e03d 8fd0 b93d
00000140: 8504 2c3d 6aa5 b9bd 8c0a 4cbe 0bf1 4d3e
00000150: b61d 19be aa38 54bd d55c da3d b6b1 b23d
00000160: d191 22bd 4b4a 313d 4aa8 213e a1bd d3bd
00000170: 3f9b aabc d6c2 d0bb f886 2dbe 3a95 2d3e
-0.01316611 -0.0010398723 -0.025996672 0.18618779 0.20377159 0.096198514 0.08013107 0.08816525
0.058140274 0.010527296 0.07406176 0.031359017 0.28365594 0.123417795 0.19185841 0.075136244
0.047577173 0.038445447 0.05793438 0.03937797 0.13436927 0.19805437 0.12715615 -0.053944923
-0.0060365302 0.09096655 0.15452448 0.22423492 0.15062343 0.16796233 0.18725106 0.023032727
-0.0880631 -0.09960339 0.0031633775 -0.34858945 0.0065633114 -0.28504616 0.11423389 -0.36636394
-0.012516519 -0.1953805 -0.16290872 -0.22096668 -0.32616335 -0.4821915 -0.06541415 -0.009113545
-0.14216052 -0.29540583 -0.08519795 -0.09733214 0.07312539 -0.42876673 -0.12657379 -0.018880418
-0.006772315 -0.12314473 -0.14801972 -0.12762967 -0.22957975 -0.22017266 -0.16196597 -0.31588462
-0.23670337 -0.0731359 -0.17945911 0.0023324615 -0.07729056 0.19203009 -0.10374825 -0.2360067
-0.2107088 0.011332166 -0.0898294 -0.18035983 0.07416675 0.114758916 0.10979765 0.090729825
0.041996498 -0.09064753 -0.19925898 0.20111482 -0.1495274 -0.05181185 0.106622376 0.08725302
-0.039689843 0.043283742 0.15786853 -0.10338903 -0.02082598 -0.0063708825 -0.16946018 0.16951457

gru.bias_hh_l0 f4 [96]
00000000: 53ba c83d 248c d43d a140 783d 60c7 ad3d
00000010: bbd4 13be 6552 de3d a8bf a7bc 366b 6c3d
00000020: 5776 133d 231d 383e 02ce 883e 9a16 c83b
00000030: d29e bf3d 6fa5 5c3e 18fa 803d c998 873d
00000040: 56b2 973c 83a1 e83d d405 da3d 0806 893d
00000050: c93b 1f3e ff6e 463e 1f72 133e 9691 8d3d
00000060: ed3c f7bc c941 de3c 9bbf 9c3c ffc3 0f3e
00000070: 5435 3d3e 87c2 143e feae af3d 1b82 cdbd
00000080: 9c89 56be 28d2 bc3d 0f66 57be eaca 97be
00000090: ef7e f4bc 671d b7bd 7b77 22be 52ac 69be
000000a0: c46b 99be 6839 95be 8ead 1bbe 0225 9abd
000000b0: d972 eabe c965 00bf a429 0abe 6a5b 1ebe
000000c0: 3036 91bd b717 56be 37ac 2dbe eca1 78be
000000d0: 690c e3bd 1489 15be 2438 093b 9317 133e
000000e0: 46ac 793d 4907 d73b 09ff 733d 4d14 23be
000000f0: b983 60be 6434 b3be da1e dbbd a24e 05bd
00000100: 2ec6 b5bd 76d4 7d3e 1336 18bd 6538 d43d
00000110: f75f 35bb 3f1c 173e 98c9 bc3d 1302 ae3b
00000120: 6997 9cbc 997f b93e de47 2fbe 51e0 6f3d
00000130: 9b7a 00be 5c7b 4c3e 4c48 943e 52a0 3a3e
00000140: 599e 393e d04d 9abd f8e3 7d3d 2d56 9cbc
00000150: fa17 84be 4225 7abc 54a0 aabd 17ce 443d
00000160: e042 163e c156 053e a45c efbc 1fda 90bd
00000170: aacc 31bd 241b 273e da84 013e 8758 433d
0.098011635 0.10378292 0.06060851 0.084852934 -0.14436619 0.10855559 -0.020477131 0.05771943
0.03600153 0.17979865 0.2671967 0.00610621 0.093564644 0.21547483 0.062977016 0.06620938
0.018517654 0.11358931 0.10645643 0.066906035 0.1555015 0.19378279 0.14399002 0.06912534
-0.030180419 0.027130978 0.019134333 0.1403961 0.18477374 0.14527331 0.08578299 -0.10034581
-0.20950931 0.092197716 -0.21035026 -0.29647 -0.029845683 -0.08941155 -0.1586589 -0.22819641
-0.2996503 -0.2914536 -0.15202925 -0.0752659 -0.45790747 -0.5015531 -0.13492447 -0.15464559
-0.070904136 -0.20907484 -0.16960226 -0.24280518 -0.110863514 -0.14603072 0.0020938003 0.14364462
0.06095531 0.0065621478 0.059569392 -0.15925713 -0.21925248 -0.35000908 -0.10699244 -0.032545693
-0.088756904 0.24788079 -0.037160944 0.10362319 -0.0027675608 0.14756869 0.092181385 0.005310306
-0.019115167 0.36230162 -0.17117259 0.058563534 -0.1254677 0.19968933 0.28961408 0.1822522
0.18126811 -0.07534373 0.061984986 -0.01908406 -0.25799543 -0.015267672 -0.083313614 0.048048105
0.14673948 0.13021375 -0.02921898 -0.07072853 -0.043408073 0.16318947 0.12648335 0.047691848

gru2out.weight f4 [6, 32]
00000000: 0ff1 153e 1afd 84be 9a1a 013e 19f9 e7bd
00000010: 48ad 233e a45f b6bd 7730 f5bd 9a69 0d3e
00000020: f6f7 b03e 77ce e6bd 64c0 0a3d edeb 213d
00000030: 266f 8f3e b6c7 15be 92a2 90be e988 b0be
00000040: e977 7cbd 15b0 473e 4091 873e 1e49 3abe
00000050: 724a 48bd d7ea aebe 8dda 9dbe b6d8 c8bd
00000060: 484c 4f3d b142 633e 8512 5abe aa80 883d
00000070: bdf7 313e 69f7 a4be cad6 dcbc bbfa 73be
00000080: 2a49 9c3e 84fd d6bd f182 8e3c a8d8 34be
00000090: 4274 d6bd f11c f1bc 85b8 223e 40b3 b1bd
000000a0: 3cc1 9f3e 39c7 a5be 3019 8f3e f2de 773e
000000b0: f391 c13d 866b c1bd b3e2 c6bd d5a6 3cbe
000000c0: d3e8 2ebe 4320 443e 7d0f 1e3e de66 d13b
000000d0: 3f8a d9ba 41be a2be a541 8bbe ea9f e03c
000000e0: 7f5c 82be c061 113e ee31 96bd 6a2a 753e
000000f0: 1b1d 233e e7c6 8bbe 8534 a3bd 46df 95be
00000100: 053e b43d 83f0 bd3d d103 72be 7231 453e
00000110: a322 6e3e 6a53 1fbe a57c c73e 4624 033e
00000120: c0ac 5c3d 0bc5 943e 1ec7 d4be e0e0 b13e
00000130: 83ca 9cbe faf9 b13e d174 ddbe 727d 51bd
00000140: 5652 2d3e 881d 023e 4307 a2bc 15c1 413e
00000150: 2861 243d aa9e 16be 6970 d3bb b379 803e
00000160: c961 0e3e 525b b73e b6e2 f3bc 0d3f cebd
00000170: 507f febe 3af3 853e 4106 18be 8541 2f3e
00000180: 8a6c c8be 8477 933e a469 963e d3dc 88bd
00000190: b441 683c 2455 b73d 1be5 a53e 055d e3be
000001a0: 3487 e5be aac1 cebe 97da ac3e 7ff9 32bd
000001b0: 616c 04bf 43bd d03e 04d8 c83e c251 723e
000001c0: 9cdf 933e 4166 323e f500 8cbe 43af ce3d
000001d0: 8a25 efbe a8cb f6be b5d4 cb3e 6667 bebd
000001e0: 7891 3d3d 87c5 51bd e0a0 773e aaaa aebe
000001f0: 4e3f be3d 2917 403e 974a 913d e92a babd
00000200: 9203 1fbc bfc9 d23e 51c7 b1be 703a d23e
00000210: bbf2 53be 1460 a53e fc02 ccbe 0db4 713d
00000220: b5f6 833e ec3b bf3e 65c0 493d f249 86be
00000230: 02e3 2f3e b16b 94be dd5d 8e3e 90bb 693e
00000240: 3e0e 043e e5eb 8cbe 8fa8 7bbd 75ad 533e
00000250: ad44 b23e 8509 f73e 9b51 ea3d d0d7 9c3e
00000260: 87b9 843e 1e3a babe 4ead 8d3e 07f4 003c
00000270: a6e9 ec3e 3b31 953e 0ee3 6abe 459e 103e
00000280: a1b8 f63d 793e 98bd 968c 10bd 4039 aabc
00000290: 9ec6 2e3e c683 5cbd d17a 3e3e 70a6 f83d
000002a0: 4b50 4fbe ca85 043d cb32 4ebe 20df 30be
000002b0: 4218 65be cc9c b83d f5ba de3d a03a 2abc
000002c0: 76c2 01be 5e46 f0bd f4bd 3fbe 1794 b43d
000002d0: ec9c 9bbe bb01 983e 35f0 16bd 5f5f 09be
000002e0: be87 23bd 0762 a33d b24c 6bbd 62de e53c
000002f0: 36e4 89be 82a2 37bd 4588 3f3e 0cc0 33bd
0.14642738 -0.2597435 0.12607804 -0.113268085 0.1598407 -0.08904961 -0.119721346 0.13809815
0.3456418 -0.11269849 0.033874884 0.039531637 0.28014487 -0.14626965 -0.2824903 -0.34479454
-0.061637793 0.19500764 0.26478004 -0.18191954 -0.04889912 -0.34163544 -0.30830804 -0.09806959
0.050609857 0.2219341 -0.21296127 0.06665166 0.17379661 -0.3222001 -0.026957888 -0.23826115
0.3052457 -0.10497573 0.017396422 -0.17660773 -0.10471393 -0.029432746 0.15890701 -0.08676767
0.31202114 -0.32378557 0.27948904 0.2420614 0.09451666 -0.094443366 -0.09711208 -0.18423016
-0.17081003 0.19152932 0.15435596 0.0063904366 -0.0016596987 -0.31785777 -0.2719852 0.027420003
-0.25461194 0.14197445 -0.07333742 0.23941961 0.15929072 -0.27300188 -0.07969002 -0.29271907
0.08800892 0.092743896 -0.23634268 0.19257143 0.232554 -0.15559164 0.38962284 0.12806806
0.053875685 0.29056582 -0.41558164 0.34741879 -0.30623254 0.3476103 -0.43253186 -0.051145025
0.1692594 0.12706578 -0.019778853 0.18921311 0.040131718 -0.14708963 -0.0064526093 0.2509285
0.1390449 0.3581186 -0.02977119 -0.1007062 -0.49706507 0.2616213 -0.14846136 0.17114837
-0.3914531 0.2880212 0.29377472 -0.06682744 0.014175821 0.08951786 0.32401356 -0.44406906
-0.44829714 -0.4038213 0.3376052 -0.04369497 -0.51727873 0.40769395 0.39227307 0.23664
0.28881538 0.1742182 -0.2734448 0.10092022 -0.46708328 -0.48202252 0.3981072 -0.092970654
0.046281308 -0.051213767 0.24182463 -0.3411458 0.09289418 0.18758835 0.07094305 -0.09090216
-0.009705441 0.41169545 -0.3472238 0.4106021 -0.20698063 0.32299864 -0.39846027 0.0590096
0.2577416 0.37350404 0.049255747 -0.2622829 0.1717644 -0.28988412 0.27805987 0.22825456
0.12896058 -0.27523723 -0.061440047 0.20671637 0.3481802 0.4824945 0.11441346 0.30633402
0.25922796 -0.36372465 0.27671283 0.007870681 0.4627201 0.29139122 -0.22938177 0.14122875
0.12046934 -0.07433791 -0.035290323 -0.020779252 0.17067954 -0.053836606 0.18601538 0.121411204
-0.20245473 0.032354154 -0.20136563 -0.17272615 -0.22372535 0.09014282 0.10875503 -0.010389954
-0.12671837 -0.117321715 -0.18724805 0.088173084 -0.3039316 0.2968882 -0.036850173 -0.13415287
-0.039924376 0.079776816 -0.05744619 0.028060142 -0.26931924 -0.044832714 0.18704326 -0.043884322

gru2out.bias f4 [6]
00000000: e470 39bd 2f5e 2f3d 39a0 1e3c 3a48 b7bd
00000010: f46b b9bd 848a 8b3c
-0.045273677 0.04281443 0.009681755 -0.08949323 -0.090537935 0.017033823
