SingleConserved_s5_UnifBG_fullytrainedOracle.pth (torch, 23203 bytes, 7 tensors)

embeddings.weight f4 [6, 16]
0.43063396 3.3075392 1.0599835 0.6086346 -0.38439342 0.9158431 -1.2599171 -0.8508885
1.0545171 0.5729563 0.6695205 -1.7146168 -0.3534662 0.8728931 1.2017254 -0.6525931
-0.25141567 1.2536336 0.46218643 1.9863214 0.17645647 -0.7083573 -0.036607463 0.5066951
-1.7076914 -0.40179315 -0.19204421 -0.8413051 0.06403626 -0.18812338 -0.95580494 0.42306715
0.0933252 0.32559222 1.25533 -1.3265855 0.40685692 1.6480527 -0.23924899 -0.59195983
0.6599366 0.36752725 0.40014586 1.792856 -0.9537096 -0.11849163 2.063235 1.1074787
-0.14506939 1.062094 0.36021754 -0.9299213 0.14670493 0.08147036 -0.5999265 -0.12817913
-0.8698721 0.14391021 2.5059216 -2.137086 0.18916528 1.0806583 -1.55082 0.57031435
-0.048207995 1.2331935 -1.5072833 2.4928267 0.6650924 0.12744199 -1.1323282 1.6291695
-0.4821692 2.3395858 -2.0896866 -0.10200243 0.7891692 1.329054 0.46504602 0.5922586
-2.2321877 -2.0821264 -0.6050405 0.53313464 0.23820907 -0.22028236 -0.42097002 -1.2436606
1.5299861 -0.084416784 -1.200904 0.84735614 0.85661113 1.591632 -0.7269193 -2.0992467
00000000: 0e7c dc3e b9ae 5340 8aad 873f 7acf 1b3f
00000010: 37cf c4be b274 6a3f f744 a1bf d4d3 59bf
00000020: 6bfa 863f 44ad 123f b265 2b3f 9078 dbbf
00000030: 86f9 b4be ec75 5f3f 23d2 993f 5710 27bf
00000040: 8eb9 80be 1177 a03f b3a3 ec3e c83f fe3f
00000050: 01b1 343e e756 35bf b5f1 15bd c5b6 013f
00000060: a295 dabf d5b7 cdbe 3da7 44be c55f 57bf
00000070: 7125 833d 6aa3 40be a2af 74bf 429c d83e
00000080: 4821 bf3d 06b4 a63e a7ae a03f 8ecd a9bf
00000090: 8d4f d03e 64f3 d23f b0fd 74be ae8a 17bf
000000a0: 9bf1 283f 882c bc3e ebdf cc3e 4e7c e53f
000000b0: 5026 74bf bdab f2bd 0b0c 0440 ddc1 8d3f
000000c0: 128d 14be b2f2 873f 6f6e b83e 530f 6ebf
000000d0: d139 163e efd9 a63d c894 19bf 6441 03be
000000e0: f0af 5ebf 335d 133e 0561 2040 04c6 08c0
000000f0: 8bb4 413e 0353 8a3f 4581 c6bf 1f00 123f
00000100: bf75 45bd 49d9 9d3f a9ee c0bf 798a 1f40
00000110: 7f43 2a3f 2780 023e 21f0 90bf a088 d03f
00000120: e2de f6be c6bb 1540 6dbd 05c0 a6e6 d0bd
00000130: fe06 4a3f 711e aa3f 831a ee3e 429e 173f
00000140: 2adc 0ec0 8f41 05c0 efe3 1abf 837b 083f
00000150: 14ed 733e b391 61be 6289 d7be 4530 9fbf
00000160: 96d6 c33f b5e2 acbd 39b7 99bf 55ec 583f
00000170: de4a 5b3f 99ba cb3f 6217 3abf 0f5a 06c0

gru.weight_ih_l0 f4 [96, 16]
-0.24054538 0.14080317 -0.13400029 0.0007848055 0.1732926 0.094418995 -0.17794287 -0.074909516
0.04784985 -0.015560319 -0.14554384 0.21967785 0.06010351 0.08143697 0.22156876 -0.24406064
0.22954114 0.23808846 0.2889956 -0.058192704 0.22775386 0.38408002 -0.21591397 -0.44907644
0.29019016 0.09006643 -0.035558764 0.25124714 -0.39280543 0.014581236 0.23194736 0.09035709
0.28970927 -0.08175505 0.60860986 -0.37426296 0.023953106 0.60644466 0.20549084 -0.3188253
0.4674138 -0.11538318 0.100899324 0.39623484 -0.6245712 -0.0824762 0.24992947 0.38360447
-0.2584892 -0.13041027 -0.22497281 0.015808778 -0.08557446 -0.031526826 -0.31495392 -0.33072606
0.1839798 0.014608216 0.4566817 -0.20160201 0.09674496 0.36533898 -0.12324719 -0.06369917
-0.247311 -0.2990961 0.32967883 -0.38104334 -0.19416434 0.1612303 0.18686254 -0.22449371
0.28814858 -0.4580024 0.14552608 0.35749447 -0.39220273 -0.36226588 0.14455074 -0.15966634
0.22085093 0.16917321 0.010534661 0.024114482 0.12298683 -0.124364555 0.029476408 0.15719618
-0.0069452664 -0.1923669 -0.1980552 0.15349238 0.17780836 -0.143757 0.1281222 -0.021820234
-0.14779876 0.042979673 0.19267082 -0.19432938 0.06435997 -0.012653063 0.08343227 -0.17427522
-0.101677135 -0.05591016 0.39034098 -0.16441424 -0.21574415 0.0074647935 -0.40592644 0.12260831
0.094603434 0.24776846 0.022172442 0.021400573 0.1529783 0.048284065 0.123469636 -0.030827805
0.04482605 0.0112969205 -0.026114324 -0.12992446 -0.12932245 0.0035407895 0.08321421 0.10476757
0.25643098 0.28022262 -0.12931992 0.11684701 0.43123096 0.26938677 -0.4991095 0.3264784
-0.11744573 0.7386813 -0.20722668 -0.0079685785 -0.0021099534 0.2247958 0.27851748 0.18546124
-0.18790458 0.1134083 -0.027792305 -0.045287248 0.30676964 0.25010085 -0.24086359 -0.12825105
0.11162738 0.22416352 -0.027853675 0.085856654 0.12355453 0.11322353 0.14778514 -0.20570616
0.11105676 -0.34575137 -0.32437822 0.16062634 0.1566248 0.018666476 0.06982827 -0.057720676
-0.0013790875 0.021688944 -0.2139572 0.012592067 0.14694218 -0.17613336 -0.12258099 -0.062194273
-0.16683464 0.3933399 0.0795047 -0.09413364 0.1431876 -0.20701788 -0.32363078 -0.100625545
-0.15452021 -0.13627627 0.50113225 -0.4340071 0.10590293 0.26084146 -0.30616322 -0.041641187
-0.5380002 -0.28678465 -0.4764401 0.18474148 0.43808904 -0.22515325 -0.06833116 -0.31172508
0.04415173 0.010907559 -0.08498083 0.07421882 0.28018096 0.115286425 -0.36652094 -0.15070836
-0.2751432 0.025144486 0.3124089 -0.3998322 0.015480259 0.4603964 -0.18697365 -0.35769057
0.3923563 0.10157231 0.26491797 0.42197815 -0.08676787 0.14687435 0.16183136 0.027242787
0.10882435 0.0037580745 -0.056331072 -0.21029846 0.09526594 -0.13712157 0.07711703 -0.06819094
0.16549206 -0.072914064 0.28040227 0.14693475 -0.13881865 0.023574673 -0.15090321 0.11466818
-0.029339831 -0.49033058 -0.01623264 -0.13511834 0.09099339 0.2868341 -0.07268236 -0.17968307
0.58608615 -0.041224398 -0.29130906 0.8608459 -0.3167608 -0.16606568 0.40460724 -0.20940821
00000000: 8751 76be b52e 103e 5f37 09be 68bb 4d3a
00000010: 9e73 313e bf5e c13d a836 36be 296a 99bd
00000020: 34fe 433d b5f0 7ebc 7209 15be 3bf3 603e
00000030: 192f 763d 6dc8 a63d ece2 623e 08eb 79be
00000040: d50c 6b3e 76cd 733e 3bf7 933e 795b 6ebd
00000050: 4f38 693e 23a6 c43e 8d18 5dbe 59ed e5be
00000060: ce93 943e c074 b83d 11a6 11bd 77a3 803e
00000070: cb1d c9be 23e6 6e3c 9c83 6d3e 230d b93d
00000080: c654 943e 316f a7bd dbcd 1b3f 659f bfbe
00000090: 4e39 c43c f53f 1b3f 316c 523e 123d a3be
000000a0: dd50 ef3e 044e ecbd 4ea4 ce3d 4bdf ca3e
000000b0: e6e3 1fbf 48e9 a8bd 83ed 7f3e ce67 c43e
000000c0: b258 84be 458a 05be 465f 66be 6981 813c
000000d0: aa41 afbd 4622 01bd a441 a1be ed54 a9be
000000e0: 3365 3c3e 4c57 6f3c 2fd2 e93e c270 4ebe
000000f0: 3922 c63d b60d bb3e 0669 fcbd b674 82bd
00000100: 183f 7dbe 2023 99be aacb a83e 1d18 c3be
00000110: 04d3 46be 8e19 253e e558 3f3e aee1 65be
00000120: 3688 933e 4a7f eabe ca04 153e 8409 b73e
00000130: ccce c8be ea7a b9be 1c05 143e 937f 23be
00000140: bf26 623e be3b 2d3e 9299 2c3c bc8b c53c
00000150: 85e0 fb3d d8b2 febd 8278 f13c 09f8 203e
00000160: 1e95 e3bb d4fb 44be fbce 4abe 1b2d 1d3e
00000170: 6513 363e 0935 13be 7732 033e 59c0 b2bc
00000180: 8f58 17be 740b 303d 804b 453e 48fe 46be
00000190: 29cf 833d cb4e 4fbc 8ade aa3d 3475 32be
000001a0: 1a3c d0bd 0d02 65bd c6da c73e 355c 28be
000001b0: 09ec 5cbe 3a9b f43b 97d5 cfbe 111a fb3d
000001c0: 72bf c13d 04b7 7d3e fba2 b53c 4150 af3c
000001d0: 58a6 1c3e 83c5 453d a6dd fc3d 988a fcbc
000001e0: 859b 373d b816 393c b5ed d5bc eb0a 05be
000001f0: 1b6d 04be 970c 683b 366c aa3d 6190 d63d
00000200: ec4a 833e 5779 8f3e 716c 04be 7c4d ef3d
00000210: 4eca dc3e 10ed 893e 488b ffbe 2d28 a73e
00000220: 6387 f0bd 381a 3d3f 3b33 54be a48e 02bc
00000230: 2547 0abb df30 663e d899 8e3e 8de9 3d3e
00000240: 0f6a 40be 9c42 e83d b0ac e3bc 1f7f 39bd
00000250: e910 9d3e 380d 803e f2a4 76be 3e54 03be
00000260: e59c e43d 1f8b 653e 642d e4bc 9dd5 af3d
00000270: 280a fd3d bde1 e73d fd54 173e a3a4 52be
00000280: ba71 e33d 5306 b1be e714 a6be 3b7b 243e
00000290: 4062 203e 70ea 983c 2002 8f3d 846c 6cbd
000002a0: 7fc2 b4ba 03ad b13c 9917 5bbe f54e 4e3c
000002b0: 0378 163e 4e5c 34be be0b fbbd 6cbf 7ebd
000002c0: b3d6 2abe d963 c93e 5cd3 a23d 23c9 c0bd
000002d0: c59f 123e 7ffc 53be efb2 a5be c414 cebd
000002e0: 8c3a 1ebe 028c 0bbe 344a 003f 2e36 debe
000002f0: a3e3 d83d 038d 853e 6dc1 9cbe f38f 2abd
00000300: 62ba 09bf 70d5 92be f5ef f3be df2c 3d3e
00000310: 354d e03e 938e 66be 35f1 8bbd 6e9a 9fbe
00000320: 72d8 343d 9eb5 323c 6e0a aebd 0900 983d
00000330: e173 8f3e 4a1b ec3d a2a8 bbbe 4b53 1abe
00000340: 92df 8cbe cffb cd3c 0ff4 9f3e ceb6 ccbe
00000350: eaa0 7d3c 14b9 eb3e 0576 3fbe 3823 b7be
00000360: ede2 c83e 2505 d03d 54a3 873e 850d d83e
00000370: 5ab3 b1bd 3b66 163e 1fb7 253e 442c df3c
00000380: 4ddf de3d 074a 763b 69bb 66bd 7b58 57be
00000390: ca1a c33d 9969 0cbe 89ef 9d3d b1a7 8bbd
000003a0: c076 293e f853 95bd e390 8f3e 1076 163e
000003b0: 7a26 0ebe ac1f c13c 5f86 1abe 27d7 ea3d
000003c0: 165a f0bc 9c0c fbbe 50fa 84bc 765c 0abe
000003d0: be5a ba3d ebdb 923e 7dda 94bd d7fe 37be
000003e0: be09 163f eada 28bd 7626 95be 6660 5c3f
000003f0: 792e a2be 1f0d 2abe ae28 cf3e 1b6f 56be

gru.weight_hh_l0 f4 [96, 32]
0.15263408 0.20603114 0.26278353 0.29780185 0.19022518 -0.6900501 -0.18527533 0.6489411
0.019784838 -0.050220992 -0.18802042 0.21861656 -0.09435448 -0.38655478 -0.41990784 -0.04573764
-0.38980094 -0.06887025 -0.041383874 -0.108387694 0.4218681 0.49605712 0.00320286 -0.13681039
-0.15442076 -0.03364585 0.050777324 -0.26171538 0.12905794 -0.20058502 -0.81444883 -0.4796593
0.20435964 -0.060469393 -0.17681971 0.24589844 0.2766939 -0.07969541 -0.5670924 -0.284801
-0.88413006 0.017718906 0.19583154 0.14171907 0.15961954 0.13321424 -0.35083008 0.44692335
-0.107961416 0.63383573 0.16512288 0.58925796 0.6585425 -0.054973003 -0.08583207 -0.8605766
0.04241774 -0.19611306 -0.41137415 0.18297286 0.0072673117 -0.0027494184 0.11461129 0.11085608
-0.03656758 -0.32119355 0.22070469 -0.15589061 -0.16951406 0.7894821 -0.088943936 -0.7077132
0.33829835 -0.125671 -0.11431185 -0.3720277 -0.1706727 0.35659665 0.83297825 0.698262
0.73965186 0.24223869 0.13509335 -0.098103106 0.01661079 -0.12408666 0.09360193 0.03346431
-0.301712 -0.08413927 -0.1306331 -0.042790376 -0.11411013 0.2789111 -0.29926214 -0.40953052
0.44767845 0.30695096 -0.011591238 -0.025931023 -0.14209643 -0.1719666 0.62925225 0.44473428
-0.32895166 -0.18513267 -0.2910092 -0.45517105 0.3492215 -0.08323139 -0.15830262 -0.03879984
0.20597735 -0.41135886 -0.012111835 -0.34424233 -0.1218963 -0.0039969073 -0.59985626 -0.101556815
-0.6395663 -0.05653665 -0.326544 -0.60284597 0.06657954 0.24244581 -0.31908813 -0.0121848285
0.049820628 -0.43449697 -0.7429174 0.061067864 0.506331 0.14518577 0.61428314 0.78454024
-0.34136724 0.24722046 -0.15433279 0.4923801 0.07126142 0.066150635 -1.2634121 0.7414534
-0.31270987 -0.16857435 -0.21046475 -0.098977014 -1.1537281 -0.14827536 0.32855952 -0.09685129
0.6315228 0.1704343 -0.04032561 -0.11896688 -0.121810675 -0.48264503 0.18948539 0.5423922
0.19910182 0.2073967 0.00017381765 -0.037190497 -0.473765 -0.14467737 0.08224235 0.55634344
0.41816947 -0.10063835 -0.012725606 -0.038607914 0.027393142 -0.082960114 -0.32599565 -0.083099335
-0.046471264 -0.21337458 0.16962653 -0.16458955 -0.7630913 0.12053685 0.13464914 0.11035349
-0.16803724 -0.35163397 -0.02690131 -0.13218054 0.10407444 -0.41598636 -0.07909944 -0.10290378
-0.3444675 0.36591864 0.4171202 0.05111121 -0.40204552 -0.15510774 -0.6378915 0.44311568
-0.03652066 -0.003667044 -0.01044315 0.23496936 0.11051676 -0.3010751 -0.45102856 -0.16096252
0.21400644 0.15000099 0.009481997 0.37921464 0.23108068 0.043726724 0.5528259 0.13832341
0.50888246 -0.117363304 0.74637175 0.52576655 -0.2855525 -8.861373e-05 -0.4811519 -0.63572806
0.094671145 -0.6383943 -0.48947427 0.12804158 -0.33769602 -0.08470818 -0.24750696 1.0898492
0.07965661 -0.07049857 0.33711237 0.2531721 0.10066648 0.0053222855 -2.7482166 0.17790115
-0.5277199 -0.50117385 0.058407776 0.019927286 -0.5048652 0.0819048 0.06425062 0.17949618
0.24145749 0.035871748 0.16908422 0.22930953 -0.14940132 -0.028409868 0.29611927 0.022182547
00000000: 1c4c 1c3e d4f9 523e 908b 863e 7c79 983e
00000010: 64ca 423e 20a7 30bf d1b8 3dbe 0121 263f
00000020: d013 a23c 87b4 4dbd 6d88 40be 05dd 5f3e
00000030: ec3c c1bd 82ea c5be 29fe d6be 6457 3bbd
00000040: fd93 c7be d80b 8dbd 2382 29bd 5efa ddbd
00000050: 18ff d73e 33fb fd3e 13e7 513b 0618 0cbe
00000060: 7a20 1ebe 3bd0 09bd e2fb 4f3d 8fff 85be
00000070: c427 043e 2966 4dbe b87f 50bf e795 f5be
00000080: a743 513e c1ae 77bd 3a10 35be cdcc 7b3e
00000090: d3aa 8d3e 5937 a3bd f82c 11bf 70d1 91be
000000a0: 5956 62bf 3d27 913c 1088 483e ce1e 113e
000000b0: 4e73 233e 5069 083e 00a0 b3be 23d3 e43e
000000c0: e01a ddbd 0f43 223f f915 293e 9cd9 163f
000000d0: 3e96 283f 5f2b 61bd b9c8 afbd c04e 5cbf
000000e0: 39be 2d3d ddd1 48be a29f d2be 3d5d 3b3e
000000f0: a122 ee3b 962f 34bb 53b9 ea3d 8308 e33d
00000100: e3c7 15bd 7b73 a4be 6900 623e caa1 1fbe
00000110: 1895 2dbe 801b 4a3f 3d28 b6bd b12c 35bf
00000120: 7135 ad3e e6af 00be 551c eabd 6a7a bebe
00000130: d3c4 2ebe d693 b63e 103e 553f 4cc1 323f
00000140: d359 3d3f 6b0d 783e e955 0a3e 48ea c8bd
00000150: 5a13 883c 2621 febd 5eb2 bf3d df11 093d
00000160: ff79 9abe 3651 acbd afc4 05be f644 2fbd
00000170: 92b2 e9bd 70cd 8e3e e338 99be fcad d1be
00000180: 1c36 e53e ad28 9d3e 2de9 3dbc 4c6d d4bc
00000190: ba81 11be 0318 30be ad16 213f 36b4 e33e
000001a0: 5a6c a8be 6b93 3dbe 28ff 94be 2e0c e9be
000001b0: 29cd b23e 3875 aabd 151a 22be 95ec 1ebd
000001c0: baeb 523e a19d d2be b870 46bc 8840 b0be
000001d0: c4a4 f9bd 7df8 82bb 2e90 19bf 05fd cfbd
000001e0: 9eba 23bf f992 67bd c630 a7be 1d54 1abf
000001f0: db5a 883d b743 783e 855f a3be e0a2 47bc
00000200: b710 4c3d 6376 debe d62f 3ebf 4c22 7a3d
00000210: e99e 013f 94ab 143e a941 1d3f a1d7 483f
00000220: b0c7 aebe 5c27 7d3e 6a09 1ebe 3f19 fc3e
00000230: 82f1 913d fc79 873d 7db7 a1bf e4cf 3d3f
00000240: 821b a0be c19e 2cbe 1284 57be 76b4 cabd
00000250: 5dad 93bf 7fd5 17be f438 a83e f859 c6bd
00000260: 7aab 213f 5486 2e3e 782c 25bd e8a4 f3bd
00000270: e077 f9bd 401d f7be 7508 423e 37da 0a3f
00000280: 59e1 4b3e cd5f 543e d242 3639 1055 18bd
00000290: 5391 f2be 4e26 14be ad6e a83d 866c 0e3f
000002a0: 4f1a d63e 7b1b cebd 0f7f 50bc 5523 1ebd
000002b0: 9567 e03c fee6 a9bd e7e8 a6be fc2f aabd
000002c0: a758 3ebd de7e 5abe 94b2 2d3e 2a8a 28be
000002d0: f459 43bf 06dc f63d 77e1 093e 0301 e23d
000002e0: f411 2cbe 5e09 b4be 2360 dcbc 565a 07be
000002f0: fb24 d53d 2afc d4be e3fe a1bd 38bf d2bd
00000300: 0b5e b0be b059 bb3e c790 d53e fd59 513d
00000310: e9d8 cdbe 90d4 1ebe db4c 23bf 0fe0 e23e
00000320: b096 15bd ca52 70bb bf19 2bbc cf9b 703e
00000330: 9c56 e23d 8426 9abe 37ed e6be 5cd3 24be
00000340: 8124 5b3e dc99 193e 615a 1b3c 6c28 c23e
00000350: 6aa0 6c3e cb1a 333d 0086 0d3f a7a4 0d3e
00000360: 1f46 023f 2c5c f0bd 3812 3f3f a398 063f
00000370: f033 92be 22d6 b9b8 8b59 f6be 13bf 22bf
00000380: f2e2 c13d cf6d 23bf 5f9c fabe 551d 033e
00000390: 7ee6 acbe 7b7b adbd 7772 7dbe 2e80 8b3f
000003a0: 0123 a33d 8e61 90bd fe99 ac3e c69f 813e
000003b0: 3a2a ce3d 9166 ae3b c8e2 2fc0 b82b 363e
000003c0: a718 07bf ee4c 00bf fe3c 6f3d 8c3e a33c
000003d0: d93e 01bf b4bd a73d d495 833d d9cd 373e
000003e0: a240 773e 41ee 123d 6a24 2d3e 1ed0 6a3e
000003f0: a9fc 18be d0bb e8bc f29c 973e 2cb8 b53c

gru.bias_ih_l0 f4 [96]
-0.052974075 0.06050335 0.045663577 0.13668019 -0.16265284 -0.081014074 0.2493778 0.02123651
0.31335127 0.2773298 0.05183072 0.09466208 0.1017565 0.22058065 -0.11264119 -0.051144317
-0.0847498 0.014432428 0.043690413 0.2691412 0.0748828 0.27163988 0.29787093 0.2148186
0.36115497 0.26252213 0.17021304 0.41243282 0.15620065 0.13273607 0.27466527 0.258184
-0.32740834 -0.09565947 -0.53805363 0.008305447 0.006122778 -0.4983097 -0.23622899 -0.09318588
-0.39322647 -0.14007467 -0.2777232 -0.06499369 -0.11494349 -0.20062618 0.09352374 -0.17539811
-0.15287122 -0.25352588 -0.04747886 -0.08987712 0.17901745 -0.024996988 -0.22597496 -0.66507536
-0.0780515 -0.2306863 -0.30428678 -0.15944412 -0.5711026 -0.1873492 -0.16480164 -0.2947201
-0.11598664 0.22613093 0.24144271 0.021495368 0.006324215 -0.018963655 -0.12819725 -0.18686776
0.08841807 0.122290686 -0.1820262 0.018071782 -0.10051137 -0.033706896 0.11377731 0.18798578
-0.112021826 0.03430144 0.1249296 0.1399885 0.0060688774 -0.042707782 -0.25269765 -0.34596762
0.23903193 0.027261103 -0.2767369 -0.10935241 0.30699173 -0.2561506 -0.11904726 0.029860547
00000000: 58fb 58bd 5cd2 773d bb09 3b3d e4f5 0b3e
00000010: 778e 26be b5ea a5bd e55c 7f3e 30f8 ad3c
00000020: 946f a03e 2cfe 8d3e 734c 543d 31de c13d
00000030: b665 d03d e5df 613e 6db0 e6bd b47c 51bd
00000040: 4e91 adbd fe75 6c3c b8f4 323d e0cc 893e
00000050: 275c 993d 6214 8b3e 8a82 983e 68f9 5b3e
00000060: 4ee9 b83e 4d69 863e 544c 2e3e 652a d33e
00000070: 10f3 1f3e f7eb 073e eda0 8c3e b130 843e
00000080: 11a2 a7be 1de9 c3bd e2bd 09bf 9213 083c
00000090: 96a1 c83b 7322 ffbe 03e6 71be 3dd8 bebd
000000a0: fb54 c9be bc6f 0fbe bc31 8ebe 691b 85bd
000000b0: 7e67 ebbd f370 4dbe 6089 bf3d 909b 33be
000000c0: 468a 1cbe 25ce 81be 3179 42bd 7f11 b8bd
000000d0: 5a50 373e 7cc6 ccbc fb65 67be 6142 2abf
000000e0: 77d9 9fbd 0839 6cbe 7acb 9bbe 5245 23be
000000f0: c833 12bf 78d8 3fbe c3c1 28be 8ee5 96be
00000100: 678a edbd de8e 673e c23c 773e 0e17 b03c
00000110: 5c3b cf3b ab59 9bbc 2446 03be 435a 3fbe
00000120: 8814 b53d 8a73 fa3d 1465 3abe 460b 943c
00000130: e8d8 cdbd 3e10 0abd 1404 e93d 587f 403e
00000140: b36b e5bd ab7f 0c3d 17db ff3d 2559 0f3e
00000150: 6fdd c63b 5bee 2ebd 9661 81be ab22 b1be
00000160: c9c4 743e ad52 df3c 75b0 8dbe 28f4 dfbd
00000170: 052e 9d3e 2c26 83be 0dcf f3bd 1b9e f43c

gru.bias_hh_l0 f4 [96]
0.22837973 0.14149182 0.17992072 0.21343215 -0.038067833 -0.104242206 0.2620863 -0.117696665
0.20495512 0.15112847 -0.07883196 0.027555315 0.19764216 0.04930338 0.058439568 0.17737843
0.035157226 0.2516169 0.11817702 0.19735856 0.034655105 0.22831684 0.25484902 0.16152197
0.28900015 0.28529388 0.24040361 0.23952697 0.0022228274 0.23936139 0.033283472 0.24607538
-0.14078228 0.1345024 -0.4294581 -0.00047199352 0.0491712 -0.51081115 -0.051720094 -0.26214248
-0.24617526 -0.2031548 -0.25001997 -0.1926969 0.123738796 -0.28231248 0.009359632 -0.3360564
0.1444732 -0.30468342 0.028523525 -0.259637 0.0965664 -0.0320527 -0.33087218 -0.3809868
0.04356112 -0.3462241 -0.22621073 -0.29786235 -0.33643278 -0.16454694 -0.015927613 -0.35907415
0.17084834 0.2972248 0.13839336 -0.049285628 0.30809852 -0.005673462 0.4099236 0.18650872
-0.66349006 -0.33138907 0.16166285 -0.2672796 -0.08721573 -0.1548232 -0.097278446 0.05481839
0.030719953 -0.29703194 0.21282688 0.058167167 -0.037026577 0.14173613 -0.33544394 -0.35704094
-0.14255269 -0.29699543 -0.35941035 -0.3536957 0.2990664 -0.21361564 -0.30924708 -0.12585624
00000000: 60dc 693e 3be3 103e 233d 383e f58d 5a3e
00000010: 04ed 1bbd f07c d5bd 2d30 863e f30a f1bd
00000020: c1df 513e 6cc1 1a3e a772 a1bd afbb e13c
00000030: b562 4a3e 57f2 493d 545e 6f3d b1a2 353e
00000040: 0601 103d eed3 803e cb06 f23d 5d18 4a3e
00000050: 83f2 0d3d e4cb 693e 927b 823e 0466 253e
00000060: d4f7 933e 0a12 923e 5d2c 763e 8f46 753e
00000070: dbac 113b 271b 753e 4054 083d 2ffb 7b3e
00000080: 3b29 10be ffba 093e efe1 dbbe e675 f7b9
00000090: bd67 493d 85c4 02bf 73d8 53bd 8a37 86be
000000a0: 5e15 7cbe d007 50be 9e02 80be 5652 45be
000000b0: c46a fd3d 438b 90be 2459 193c 960f acbe
000000c0: c8f0 133e 77ff 9bbe 2baa e93c 24ef 84be
000000d0: 9bc4 c53d b149 03bd 1468 a9be b410 c3be
000000e0: 256d 323d 4944 b1be c9a3 67be 6a81 98be
000000f0: eb40 acbe fe7e 28be a07a 82bc 91d8 b7be
00000100: def2 2e3e d92d 983e fdb6 0d3e badf 49bd
00000110: 17bf 9d3e 73e8 b9bb 82e1 d13e 24fc 3e3e
00000120: 7cda 29bf d4ab a9be f28a 253e dfd8 88be
00000130: 299e b2bd f989 1ebe ec39 c7bd 4089 603d
00000140: 69a8 fb3c 9214 98be 4aef 593e b240 6e3d
00000150: 2ea9 17bd 4723 113e 4fbf abbe 12ce b6be
00000160: 55f9 11be c90f 98be a204 b8be 9a17 b5be
00000170: 3b1f 993e 0fbe 5abe a255 9ebe 75e0 00be

gru2out.weight f4 [6, 32]
-0.33908388 -0.9495931 -0.7147766 -0.37418774 -2.6697423 0.19376276 -0.17701998 0.89836574
1.0268563 0.93150854 -0.19161205 1.0742959 0.56659746 1.0998527 0.07811519 -0.0059113544
0.36099207 0.80122447 -0.60434264 -0.6977327 0.42748883 -0.9174221 0.4620221 0.6195429
0.08909492 0.66621697 0.73326445 0.53869635 -0.35517997 0.71268684 1.02982 0.5933546
-0.20697857 -0.98485416 -0.8004445 -0.3090773 -2.7115824 0.2801124 -0.21755058 0.96337724
1.0394526 0.76514024 -0.22337969 0.85831803 0.598883 1.0489086 0.024264244 0.2146149
0.4499209 0.8048452 -0.6013996 -0.39681077 0.23060185 -0.87780637 0.5916911 0.7619053
0.035196897 0.4121596 1.1434311 0.5808741 -0.515527 0.7295502 0.9065378 0.4533792
0.16145541 0.32439184 0.4051331 -0.016775168 -0.78495586 -0.29221037 0.8713172 -0.62131387
0.95471114 -0.22807236 0.043257568 -0.20677127 -0.6089156 -0.3908722 0.15937166 0.012718148
0.33529592 -0.40243274 0.022069061 -0.6416943 -0.5595972 0.16779946 -0.5663986 0.09179339
0.1826659 0.40353978 0.17712536 0.063032225 0.46596155 -0.3922792 -0.6316006 -0.024149965
0.25117713 -0.7297649 -0.59779346 0.25140628 0.32758582 0.3425024 0.24599166 -0.6286959
-0.65550494 -0.41409945 0.05170963 -0.12551144 -0.3100514 0.32199472 -0.14607775 0.6232944
-0.2885421 -0.20396827 0.23890756 0.13455246 0.30993477 0.29403898 -0.3374261 -0.4839754
-0.28347898 -0.2093549 -0.31745765 -0.2995203 0.42008042 0.20824866 0.8623576 0.2491141
0.21004613 0.2574033 0.29645038 0.31742972 0.9392015 -0.6840873 -0.22225825 0.77638996
-0.66409296 -0.3044479 0.3850331 -0.16697851 0.38457882 -0.26383528 -0.3482525 -0.28604782
-0.66409165 -0.46781635 0.27068672 0.44959363 0.45501104 0.2999642 0.4880241 -0.09367797
0.329027 -0.76471776 0.32552892 0.5791792 -0.23129714 -0.60271937 -0.56956613 0.11211083
0.002037355 0.37639663 0.67164475 0.29709578 -0.8634117 0.66269475 -0.5261525 0.15708457
-0.53419137 -0.12500757 0.10892244 0.14491948 -0.4516534 -0.40193215 -0.1347475 0.06347983
0.2958487 0.7219213 -0.06188526 0.9164148 -0.55789757 0.14423984 0.04714851 -0.23854105
-0.0654047 0.32618797 -0.65574753 -0.7847413 -0.3131786 1.2661952 -0.5678453 -0.8929791
00000000: 679c adbe 8918 73bf 99fb 36bf 8995 bfbe
00000010: 0fdd 2ac0 bf69 463e ba44 35be 4cfb 653f
00000020: 0770 833f 5877 6e3f f335 44be 8782 893f
00000030: 880c 113f f9c7 8c3f dbfa 9f3d 09b4 c1bb
00000040: f4d3 b83e 0c1d 4d3f 33b6 1abf 9c9e 32bf
00000050: d1df da3e 2ddc 6abf 298e ec3e 5d9a 1e3f
00000060: 6677 b63d 328d 2a3f 38b7 3b3f 01e8 093f
00000070: 26da b5be a572 363f 24d1 833f 16e6 173f
00000080: 31f2 53be 671f 7cbf eee9 4cbf 613f 9ebe
00000090: 918a 2dc0 e46a 8f3e 94c5 5ebe e49f 763f
000000a0: c80c 853f 3be0 433f a5bd 64be bbba 5b3f
000000b0: 6550 193f a342 863f cfc5 c63c 02c4 5b3e
000000c0: 085c e63e 560a 4e3f 53f5 19bf c82a cbbe
000000d0: e422 6c3e ebb7 60bf 1179 173f 3a0c 433f
000000e0: 9f2a 103d 9506 d33e f35b 923f 2ab4 143f
000000f0: 94f9 03bf cdc3 3a3f dc12 683f 5221 e83e
00000100: 9154 253e b016 a63e 9b6d cf3e 146c 89bc
00000110: def2 48bf 999c 95be a50e 5f3f 6d0e 1fbf
00000120: f367 743f cd8b 69be d92e 313d d9bb 53be
00000130: e5e1 1bbf 6720 c8be 5332 233e c75f 503c
00000140: e8ab ab3e aa0b cebe 2dca b43c 1446 24bf
00000150: c341 0fbf 9fd3 2b3e 80ff 10bf 2cfe bb3d
00000160: c50c 3b3e c49c ce3e 5a60 353e 0a17 813d
00000170: 8392 ee3e d2d8 c8be 94b0 21bf 26d6 c5bc
00000180: 4a9a 803e dfd1 3abf fe08 19bf 53b8 803e
00000190: 54b9 a73e 795c af3e 3de5 7b3e 37f2 20bf
000001a0: 2ccf 27bf d804 d4be 7acd 533d 1286 00be
000001b0: 0fbf 9ebe 7edc a43e 6895 15be 3990 1f3f
000001c0: cabb 93be 0fdd 50be 2fa4 743e 1fc8 093e
000001d0: c5af 9e3e 478c 963e 1dc3 acbe a0cb f7be
000001e0: 2824 91be 2261 56be cf89 a2be ba5a 99be
000001f0: c814 d73e 233f 553e 78c3 5c3f c417 7f3e
00000200: 5516 573e 5eca 833e 58c8 973e 2686 a23e
00000210: 826f 703f 5820 2fbf ab97 63be 7ec1 463f
00000220: ff01 2abf 98e0 9bbe 0f23 c53e 6afc 2abe
00000230: 84e7 c43e 6b15 87be 274e b2be dc74 92be
00000240: e901 2abf a085 efbe 7397 8a3e 2331 e63e
00000250: 35f7 e83e e894 993e 4bde f93e 3cda bfbd
00000260: 3a76 a83e 8bc4 43bf baab a63e 1745 143f
00000270: 28d9 6cbe d14b 1abf 16cf 11bf 5d9a e53d
00000280: 2585 053b 0fb7 c03e e9f0 2b3f f01c 983e
00000290: 8d08 5dbf 5da6 293f eeb1 06bf c7da 203e
000002a0: c4c0 08bf fc01 00be ba12 df3d c665 143e
000002b0: 1d3f e7be 0dca cdbe 40fb 09be b701 823d
000002c0: 7b79 973e d6cf 383f 667b 7dbd 299a 6a3f
000002d0: 60d2 0ebf 9cb3 133e cc1e 413d 1b44 74be
000002e0: e6f2 85bd 1c02 a73e 12df 27bf cee4 48bf
000002f0: f258 a0be af12 a23f 4f5e 11bf 479a 64bf

gru2out.bias f4 [6]
-0.3646443 -0.26030293 0.089982964 0.0069502965 -0.01176732 -0.060214378
00000000: a8b2 babe 6d46 85be fd48 b83d 50bf e33b
00000010: b8cb 40bc 5aa3 76bd
