SingleConserved_s0_UnifBG_fullytrainedOracle.pth (torch, 23724 bytes, 7 tensors)

embeddings.weight f4 [6, 16]
00000000: 2eb8 91be bf8a 9a3f c68b ebbe b554 5f3f
00000010: ab3b 8c3d 126c c93f eaf1 a03f f279 b83f
00000020: 7ae7 41c0 41ac d03f 1e75 22c0 4da1 b03e
00000030: f66b acbd f8cf e93f 6e89 e5bf fa17 42bf
00000040: 39cf 1fbc 8a52 2340 4b5e bbbe 5e5f 06bd
00000050: d175 4f3f dd86 323e 6ae9 873e 3ca3 dd3e
00000060: 0d08 873c 3c76 a7be 9cdc c13f f460 8fbe
00000070: 0e0f 05be 6880 a63f f9a6 72bf baa5 a6bf
00000080: cc83 8ebf 7b96 9dbe 707c 9cbf 01f4 a6bd
00000090: 5894 2cbf 4276 f9bf c8a8 2abe cc39 fa3e
000000a0: 26f8 86be 107c fdbe 8dd2 ab3e f423 41c0
000000b0: 6013 acbf db0d 243f f89c 37be 3c5d 1cbf
000000c0: aafd 99bf 4d66 babf 2848 2abe 46cc d13f
000000d0: b18e dcbe 70c1 2bbe 62fc 85bf 68e1 16bf
000000e0: 26e0 7ebf 6794 68bf ee59 bd3f 2533 1e3f
000000f0: 82b4 563f 830b 3f3f bc4e 9abf 67b4 f73e
00000100: bcbe 4fc0 266e a4bf ed51 78bf 0659 5c3f
00000110: a57a a3bf 3b49 a1bd ae96 413f d642 8abe
00000120: 961e edbe 9860 333f 257f 89bf b28b 6bbf
00000130: 6378 de3e e426 55bf 5d16 fc3e 7d30 bf3f
00000140: 66a1 e6be 04d5 a4bf b60c b83f 84e9 783e
00000150: ec49 7bbf dade 063f 1fa3 5a3f 6bca c93f
00000160: 43ce fabe 1242 06c0 83cf 9bbf cb74 bc3f
00000170: 5d36 04c0 df9b 1d3e efa1 79bf d003 a7bd
-0.2846083 1.2073592 -0.46005076 0.8723863 0.06847318 1.5736105 1.2573826 1.4412215
-3.0297532 1.6302568 -2.5383983 0.34498063 -0.084190294 1.8266592 -1.7932565 -0.75817835
-0.009753996 2.5519128 -0.36595377 -0.032805793 0.8103915 0.17434259 0.26545268 0.432886
0.016483331 -0.32707393 1.514545 -0.28003657 -0.12994024 1.3007936 -0.9478603 -1.3019326
-1.1133971 -0.3077887 -1.2225475 -0.08152009 -0.67413855 -1.9489214 -0.16665947 0.4887222
-0.26361197 -0.49508715 0.33559075 -3.0178194 -1.3443413 0.6408364 -0.17930973 -0.61079764
-1.2030537 -1.456247 -0.16629088 1.6390464 -0.43077615 -0.1677301 -1.0467646 -0.5893769
-0.99560773 -0.90851444 1.4793069 0.6179679 0.83869183 0.7462694 -1.2055278 0.48379824
-3.2460165 -1.2846115 -0.9700001 0.8607334 -1.2771803 -0.07875296 0.75620544 -0.27004117
-0.46312398 0.70069265 -1.0741926 -0.92010033 0.43451223 -0.8326247 0.49235812 1.4936672
-0.45045012 -1.2877507 1.4378879 0.24307829 -0.9815967 0.52683794 0.85405153 1.5764898
-0.4898549 -2.0977826 -1.2172703 1.4723142 -2.065818 0.15391491 -0.97512716 -0.08155024

gru.weight_ih_l0 f4 [96, 16]
00000000: dcbf 7c3d 445a 523e 6872 a7be 11c8 e1bd
00000010: 9bb8 fdbd 64df f3be 4a8d 5c3d 14be d43e
00000020: 0948 a43d a779 6dbe d13b 403b 3f09 d1be
00000030: e0fc 95be 494c 143e c54f d6bd 6df2 76be
00000040: 9bd7 bbbe d6c8 87be a072 23bf 67b7 1dbe
00000050: 48ae d6be ca7e 91be d4c2 873d 9f4a f03e
00000060: 8faf 2ebe bb1b 2cbc 206a 22be e5d2 8abe
00000070: 900d 00bf 3c72 83bc 09ac b93d e3b4 23be
00000080: 98cb 273e 806a de3d 3dbe 88bd cbbc ffbc
00000090: ceb0 093e fa10 37be dac2 223d 2ebe 623e
000000a0: b4bf b7be 82e2 443d e123 973d 78d7 86be
000000b0: 461e 9c3d da1d 133e 3391 66bd 1055 e2be
000000c0: f99e 2abe de44 73bc 2cf4 983e d396 7f3e
000000d0: b2c4 0f3e c4f5 ebbd 418c bdbd 023c ddbc
000000e0: af26 5abe 04de 05be a52f 173d 8c58 0f3d
000000f0: cea6 6e3e 76ea 103d a9ec 7bbe 1a95 e93d
00000100: 69cf 58bd c113 77be 24db e3bd f688 053d
00000110: ff87 37be ce66 c73b 9f2a a43e c481 0f3e
00000120: dfb3 a8bd 2e9b 16be 98b7 a4be 9df7 0abe
00000130: 61f8 b7bd 8d91 23bc 8923 29be cad1 8abe
00000140: 540a 113e 89d4 61be 7056 c43d 6659 df3d
00000150: 58cb 15bc 0a4a cebe 3fa4 16bd f021 6a3e
00000160: 633f 0fbe 5960 c0be d14b 9f3d c3ad 14be
00000170: 8ea9 afbe 3d33 1d3f 88e5 45bd 0a8a 61be
00000180: 7e7d d0bb 8451 28bd 2ffd 073f 424a 2dbe
00000190: 304d 75be 96d9 9e3e deb5 b73e bf11 a23e
000001a0: ef3a e9bd 75cd 97bd 6638 d3be ae1e f43e
000001b0: 9631 96be dc9a 5cbe f468 853d cc3d a63d
000001c0: 1942 7ebe 262e 09be 9bb1 88be 5bcc 21be
000001d0: b191 6bbe 2491 c0be e834 893e 758a 273f
000001e0: 0fb5 0e3e 035b 83bd 79d4 24be bf86 07bf
000001f0: 2050 25bf 6c6d 453e 7a95 a83d 6898 d8be
00000200: 2bf0 e0be 92f2 9bbc a942 64be ca0e 23be
00000210: fdd1 1cbe d2a7 13be f037 2d3f 7f26 fe3d
00000220: 1422 7a3e c8d2 213f 355b 02bf 6724 67be
00000230: f98d 5b3c e5b9 16bf e738 2e3f f882 c63e
00000240: 095e 6f3c 310c 26be 660f dfbd e747 ba3a
00000250: 870e 80be 7ac4 3cbe 56fd dfbd d9b7 f13d
00000260: fb1e 58be b374 30bd d6d8 273e 5e0e d1bd
00000270: 7bf9 203d d8ef 113e 5720 95be 0f4d b6be
00000280: be63 93be aefe bcbe 2907 fcbc 265a 963d
00000290: 6e2b 47be d9de 72be 6c75 9f3d 3b07 2cbd
000002a0: 28c1 dc3d 33fd acbe b6d8 d03d 5162 9cbe
000002b0: 8182 e4be 1a46 edbd 4990 22bb 8c8b 9c3e
000002c0: d269 0fbd c310 b8bd e790 913d 21a3 d4be
000002d0: f10e bdbe 6714 36be a1eb e23e 65ea 933e
000002e0: 6414 c53e 1592 1a3d 7cf4 c7be f9df a8be
000002f0: 9c04 e0be 2985 9dbe 8299 4f3e 2f9a fd3c
00000300: 6b1c 6f3d 1c17 a9bb 21d1 63bd bcf6 e8bd
00000310: 0c8d 5abe 3010 3bbe bb92 583c 122e 943e
00000320: 1833 53be c069 a1be 4b88 82be 31ab e4bd
00000330: 2703 8cbe 16dd ba3e f15d bfbe 031c d0be
00000340: ec65 9dbd 377d 8fbe e051 afbe b9aa d43e
00000350: 8860 bdbd ad1a fb3c 25d4 d5be 84aa 713d
00000360: d3cd 86be a6d8 50be 9c99 083e a60d d1bd
00000370: 9c79 55be f7b2 833e 4741 a4be 5097 d93d
00000380: d821 18bf 98e2 b9be 4361 04bf 9699 21bd
00000390: 4782 f8be 3512 a93c 4180 883e 995a 44bd
000003a0: 6a76 24be 5c9d c73e 2e58 06bf f08a c8be
000003b0: 3f3d 83bd bea6 32be a8a7 a83e a63c 4c3f
000003c0: 405e 18be 89ba dbbd 3a27 13be 4b59 b23e
000003d0: 91a6 0dbe adc7 b3be fc51 5bbe 7fc5 33be
000003e0: 3ec6 25be a499 2dbe 83b4 483d e2f3 e1bd
000003f0: ae72 813d 37f4 473e 39fa 4ebd 158b babd
0.06170641 0.20542246 -0.32704473 -0.11024488 -0.12388726 -0.4763137 0.05384568 0.41551268
0.08021552 -0.23190938 0.0029332528 -0.40827367 -0.2929449 0.14482225 -0.104644336 -0.24115916
-0.3668793 -0.26520413 -0.6384678 -0.15401994 -0.4192984 -0.28417045 0.066289574 0.4693193
-0.17059158 -0.010504658 -0.15860796 -0.27114025 -0.50020695 -0.016045682 0.09066016 -0.15986972
0.16386259 0.10860157 -0.0667691 -0.031217953 0.13446352 -0.1787757 0.039736606 0.2214286
-0.35888445 0.048067577 0.0737989 -0.26336265 0.07622962 0.14366856 -0.056290817 -0.44205523
-0.16662206 -0.014847962 0.29873788 0.24959879 0.14039877 -0.115214854 -0.09255267 -0.027006153
-0.21303819 -0.13072973 0.03691067 0.034996554 0.23305818 0.03537985 -0.24601997 0.11405392
-0.052932177 -0.2412863 -0.11125782 0.03260132 -0.17922972 0.0060852533 0.32063767 0.14014345
-0.08237433 -0.14707634 -0.3217132 -0.1357102 -0.089829214 -0.0099834325 -0.16517462 -0.2711318
0.14164096 -0.22053732 0.09586799 0.10905723 -0.009142719 -0.40290862 -0.03677773 0.22864509
-0.13989024 -0.37573507 0.07778133 -0.1451941 -0.34309047 0.6140631 -0.0483146 -0.22025314
-0.006362616 -0.041093364 0.531207 -0.16922858 -0.23955226 0.3102538 0.3588094 0.31654164
-0.11388194 -0.07412235 -0.41253966 0.47679657 -0.29334706 -0.21543449 0.06514159 0.081172556
-0.24829902 -0.1339651 -0.26698002 -0.15800612 -0.23004796 -0.37610734 0.26798177 0.65445644
0.13936256 -0.064138435 -0.16096677 -0.5293998 -0.64575386 0.19280022 0.082316354 -0.42303777
-0.43933234 -0.019036565 -0.22291054 -0.1592361 -0.15314479 -0.14419487 0.6766348 0.12409686
0.24427062 0.6321225 -0.5092042 -0.2257248 0.013400548 -0.588774 0.68055576 0.38771796
0.014609822 -0.16215588 -0.10891609 0.0014212102 -0.25011083 -0.18434325 -0.10936992 0.11802644
-0.21105568 -0.043080043 0.1639131 -0.102078184 0.039300423 0.1425165 -0.29126236 -0.35605666
-0.28787035 -0.36913055 -0.030765133 0.07341413 -0.19450161 -0.23717822 0.07786068 -0.041999083
0.10779029 -0.33786926 0.10197584 -0.3054376 -0.44630817 -0.115856364 -0.002480524 0.30575216
-0.035013027 -0.08987572 0.07107716 -0.41530707 -0.36925462 -0.1778122 0.44320396 0.28889766
0.3849212 0.03773697 -0.39053714 -0.32983378 -0.43753517 -0.30765656 0.20273402 0.03095731
0.05837671 -0.0051602256 -0.055619363 -0.11375186 -0.21342868 -0.18267894 0.013218577 0.289414
-0.2062496 -0.31525993 -0.25494608 -0.11165465 -0.27346155 0.364968 -0.3737636 -0.4064637
-0.07685456 -0.2802522 -0.34242153 0.415365 -0.092469275 0.030652368 -0.41763416 0.059000507
-0.26328906 -0.20395145 0.13339847 -0.10207681 -0.20847172 0.25722477 -0.32081053 0.10624564
-0.5942664 -0.3630569 -0.5171091 -0.03945311 -0.48536894 0.020638565 0.2666035 -0.047937963
-0.16060796 0.38987243 -0.524783 -0.391685 -0.06408166 -0.1744642 0.32940412 0.7978004
-0.14879704 -0.10728938 -0.14370432 0.3483375 -0.13833071 -0.35113278 -0.21417993 -0.17555808
-0.16188905 -0.1695314 0.049000274 -0.11032845 0.063207015 0.19526754 -0.0505316 -0.09108559

gru.weight_hh_l0 f4 [96, 32]
00000000: 4589 b8bf a6c5 563e c27b ea3e 6cd9 c5bd
00000010: 62fc 413f a882 8cbe bf08 2ebe c4f2 5e3f
00000020: e090 b4be c1cc 113f fb84 c8be 5a09 e33c
00000030: 1c30 b6be f1a4 16bf 84c3 04bf 7065 83be
00000040: 5a7d acbe 687b 2fbe 67a6 263d 04f0 b03e
00000050: e196 b23e 6452 743f 0b23 913f 3e2d ec3e
00000060: 2f89 0a3f e396 53be 7ae8 37bf 0876 723f
00000070: 8574 58bf 36dc 96bf a72b 51bd 65d4 29bf
00000080: 9ba3 cebe 87e5 473c 2aa0 3a3e 7221 183d
00000090: f765 b1bd be78 0c3f b867 2ebe e795 d23e
000000a0: 7cd1 00bf d5c6 43be ee9c 643d 6321 103e
000000b0: b267 b4be f2b1 b7be d99c 0dbf 0e06 413e
000000c0: d523 513e 2e84 de3e b52d c7be e83d 843e
000000d0: 4440 9e3d de95 973e 8d4e 003f 73d5 3f3e
000000e0: 710c c23e 94c1 d83c 1c24 2e3f 57e6 1d3e
000000f0: 8f2f afbe 05af 58be 63a3 793e 622c 04be
00000100: 7e11 12bd aa52 763e 9478 483e 04ff 03bf
00000110: b513 d93d 18da 063f adfe 02bc e3fd 693e
00000120: 7c5c 4cbf 9c7f 6f3e 4c2d d33d 5b80 c03d
00000130: de42 0dbf b323 f4be e1b8 69bf 7fc8 30be
00000140: dcc7 16bd 2241 f9bd 64b4 a6be 2c30 1e3f
00000150: 6929 87be d7e2 743e e0ad 023f 2e9d 893e
00000160: 38c4 353f ab44 85be 1a25 ce3e f6a1 8c3e
00000170: 12c4 66bf f7b5 22bf b37d 35be e180 bebe
00000180: 28f1 b63d baaa ddbd eaf4 efbe 2a4e 3a3e
00000190: 2d4f a5be d85e b9bd 35cf 3ebf af27 26bd
000001a0: 7dd9 37bf 9944 733d beed c03e 5c2e 063e
000001b0: 88cb c3bd 3cc3 c2bc ee88 34bf 9bc0 a33e
000001c0: 25ed 033f 8b1c 963d 9bca 55bf 1088 3a3d
000001d0: b5cd 0abe 75ed 46bd 0043 7bbd 2309 69be
000001e0: 4919 2f3f 29d6 ec3d a522 4f3e 72a0 213e
000001f0: 09e4 51be 8e69 ffbd eb89 283e b63c 3fbf
00000200: 8a39 b9bd b131 afbd ea3a bd3e 9ffb 643d
00000210: 7f64 8dbe 2917 a53d 64bf 9ebe 147b d1bd
00000220: 7f94 1abe d3f1 15be 45d8 373e 625b 7b3e
00000230: 7e1b aabe 8a3b 61be 9323 d1be f0ad 6dbd
00000240: 6b48 cb3e 792b bc3c 7349 54be bd6f b13e
00000250: 0093 823e 8966 ad3d 05e1 0f3e 1877 56bd
00000260: 487a 283e d0cd 8e3e baa4 ac3e 7621 0d3e
00000270: 0a1c 013e 5c64 383d 1f7d 8b3d a1c1 acbe
00000280: 2a77 a0be 1978 a0bd 8585 db3e 825c 7bbd
00000290: 0235 0bbe 556d 393d 2b47 63be cf36 3e3e
000002a0: f987 47bd 4c80 c2bd 9892 123e 445a fa3d
000002b0: bd25 903c 7201 fd3c 5501 f4bc 5b9e 0bbe
000002c0: 6c4f 383e 1f15 c3bc 98c5 883d 58bd ae3d
000002d0: 7db9 5f3d f9c3 ee3d a8e2 7dbd 27e4 993e
000002e0: e9bd 3abe 83c2 243d a8b7 263e 6f67 073e
000002f0: b7f3 8dbe da54 c6bd 596a 863d dc56 30bd
00000300: 6bcb 9b3e 30a4 0dbe d33a 0dbf e024 973f
00000310: 5061 59bf c1c7 563e 358b abbc 8de2 323e
00000320: 552a 18be d9ee 72be 682e 473d f54f 3cbf
00000330: 3f2f 66bd 6d8f 083d a75c 32be 7b41 9c3f
00000340: aac6 8b3f 8791 7e3d 97de 57bf 0348 873d
00000350: 6eb5 1fbf 6a09 443e 1cc8 cabe e02c 13bf
00000360: 8372 543e 4eb1 a13e c039 373e c000 313f
00000370: 70e7 e2be ae85 9d3e 2242 ebbe 4374 31bd
00000380: fe36 9abe e395 fbbd 7ed2 203f f0ca 14bd
00000390: b55e af3e 4025 f53e 1123 15be 49c0 263f
000003a0: 84a2 2dbe 9dab 94bd 8320 edbd 5d1e bc3c
000003b0: 0e30 79be fa0a 3dbe 8449 f7be d27a 893a
000003c0: 40bc 8d3e b86f 28bd 75b6 a43c 03ea cc3e
000003d0: 1bd4 193c f5cd 263f a387 143f 8542 5b3d
000003e0: 5abd c13e e8a4 ea3e dc8d a2bd df8f a83e
000003f0: 21da b1be 7ddf 0ebf dd9d c23d 7dc6 a5be
-1.4416891 0.20973834 0.45797545 -0.096606106 0.7577573 -0.27443433 -0.16995524 0.8708918
-0.3526678 0.56953055 -0.39163956 0.02771442 -0.3558358 -0.5884543 -0.51860833 -0.25663328
-0.33689386 -0.1713692 0.040686037 0.34558117 0.34880736 0.9543822 1.1338819 0.46128267
0.54115576 -0.20663027 -0.71839106 0.9471135 -0.84552795 -1.1785953 -0.05106702 -0.66339713
-0.40359196 0.01220072 0.1822516 0.03714127 -0.086620264 0.5487174 -0.17031753 0.4112999
-0.5031965 -0.19118817 0.055813722 0.14075236 -0.35235363 -0.3587795 -0.55317456 0.18849966
0.20423825 0.4346022 -0.3890206 0.2582848 0.077271014 0.29606527 0.5011986 0.18733768
0.37900117 0.026459493 0.6802385 0.15419899 -0.34215972 -0.21160515 0.24378733 -0.12907556
-0.035661213 0.24054971 0.19577247 -0.51561 0.10599462 0.52676535 -0.00799529 0.22850756
-0.7982862 0.23388523 0.10311374 0.09399482 -0.55180156 -0.47683486 -0.9129773 -0.17263983
-0.036811695 -0.12170626 -0.32559502 0.61792254 -0.2639878 0.23914658 0.5104656 0.2687773
0.7100253 -0.26028952 0.4026268 0.27467316 -0.9014293 -0.63558906 -0.17723732 -0.37207702
0.08932716 -0.10823579 -0.46866542 0.1819388 -0.3228697 -0.09051293 -0.7453492 -0.04056519
-0.71816236 0.05939159 0.37681383 0.13103622 -0.09560305 -0.023774736 -0.7052144 0.31982884
0.5153373 0.07329663 -0.83512276 0.045539916 -0.13555034 -0.0485663 -0.061343193 -0.22757392
0.6839796 0.11564285 0.2022806 0.15783861 -0.20497145 -0.12471305 0.16458862 -0.7470201
-0.09044178 -0.085544 0.3695901 0.055904027 -0.27615735 0.08061058 -0.31005394 -0.102285534
-0.1509571 -0.1464303 0.17953594 0.24546579 -0.332241 -0.21995369 -0.40847453 -0.058027208
0.39703688 0.022969948 -0.20731144 0.34655562 0.25502777 0.08466823 0.14050682 -0.05235967
0.16452897 0.27891397 0.33719426 0.13782296 0.12608352 0.045017585 0.06810974 -0.33741477
-0.31340915 -0.07835407 0.42875305 -0.06136752 -0.1359444 0.045270283 -0.22195117 0.18575595
-0.048713658 -0.09497127 0.14313734 0.12224248 0.01759612 0.030884478 -0.029785791 -0.13634627
0.17999047 -0.023813782 0.06678313 0.08532208 0.054620255 0.116584726 -0.061983734 0.3005688
-0.18236507 0.040224563 0.16280997 0.1322305 -0.27725002 -0.09684153 0.06563253 -0.043051586
0.30428633 -0.13832164 -0.55167884 1.1808128 -0.8491411 0.20974638 -0.020940403 0.17469235
-0.14859898 -0.23723926 0.04862824 -0.73559505 -0.0561974 0.033339906 -0.17418157 1.2207483
1.0920002 0.062150504 -0.8432402 0.06605532 -0.62386215 0.19144216 -0.39605796 -0.5749035
0.20746808 0.31580585 0.17893124 0.6914177 -0.44317198 0.30766052 -0.45948893 -0.043323766
-0.3012008 -0.12284448 0.62821186 -0.03632635 0.34251943 0.47879982 -0.14564158 0.65137154
-0.16956526 -0.07259295 -0.11578467 0.022963697 -0.24334738 -0.18461218 -0.48298275 0.0010488874
0.27682686 -0.04112217 0.020106534 0.40022287 0.009388949 0.65158015 0.58019465 0.053530235
0.37839776 0.45828938 -0.07937214 0.32922265 -0.34736732 -0.55809766 0.09502766 -0.32377997

gru.bias_ih_l0 f4 [96]
00000000: d985 cfbb d3a5 753e 31a2 db3d 588e 363d
00000010: 1cce e13d 3cdb 84bd 3422 303e 749e e33d
00000020: 3229 c03d bd90 91bd bcdc d13d 95aa ff3d
00000030: 8198 6f3e b2e2 f43d 942c 173e 4c9d c33d
00000040: fea5 763e b566 b43e b06f 363e 9f18 613e
00000050: 4f68 bfbd 28ce f13d bd1d c3bd a464 593e
00000060: 32d4 96bb 2bba 423e 14bf 903e 7c29 393e
00000070: 8ce5 653e 71db 663e 4a00 ff3d 7618 643e
00000080: 6302 b4be 015b a0be ebf3 adbe 7bae 33be
00000090: 3689 913b de85 d0bc 3e43 e4be 7a1f 4abe
000000a0: fd60 bdbe 21ee 79be 1a79 8dbe 8de5 04bd
000000b0: 9952 a7be e3f8 e1be d0f1 cabe 8c54 7cbe
000000c0: 1e93 59be 7254 87be 0598 01be d2c6 bebe
000000d0: e68d 33be a7a7 dabe acfa b4be 0596 1bbd
000000e0: fe57 aebe 8465 7abe d40d cfbd 55f7 dcbe
000000f0: 7c8c 08bf 1c11 04bf 97d6 96be 831c a2be
00000100: bd7f d33c 8de8 13bd ca79 29be 510d d93c
00000110: 55b9 3bbe ce56 5e3e 5217 0f3e 6142 f8bd
00000120: 19e2 463d 191f 553e fce3 20be 0236 c4be
00000130: 8b07 d93d 60ae 04be b3d8 6e3b e399 8d3e
00000140: b979 0f3e 2c5d 62bd 4b72 4d3e 73b5 31be
00000150: 4a92 b93d 271c a8be 8bf7 033e 8c99 6f3c
00000160: c41b 42be e843 c73d 5f6f 59bb f517 6bbe
00000170: d610 3d3d 60ed 173d eb69 823e 99d3 553d
-0.0063330946 0.23989038 0.10724295 0.044569343 0.1102564 -0.06487128 0.17200547 0.11114207
0.093828574 -0.07107685 0.1024718 0.12483708 0.2339802 0.11957301 0.14763099 0.095514864
0.24086758 0.3523461 0.17816043 0.21982048 -0.09346067 0.11806899 -0.095271565 0.21229798
-0.0046029324 0.1901633 0.2827078 0.18082231 0.22450846 0.22544648 0.12451227 0.22274956
-0.3515807 -0.3131943 -0.33975157 -0.17547028 0.0044414056 -0.025454458 -0.44582552 -0.1973857
-0.3698806 -0.24407245 -0.27631456 -0.03244548 -0.32680205 -0.44135198 -0.39637613 -0.24641627
-0.21247527 -0.26431614 -0.12655647 -0.37261063 -0.17534599 -0.42706034 -0.35347497 -0.037984867
-0.34051508 -0.24452788 -0.101100594 -0.4315745 -0.5333936 -0.51588607 -0.29460594 -0.31662378
0.025817746 -0.03611045 -0.16550365 0.026495608 -0.18332417 0.21712801 0.1397374 -0.12122036
0.048555467 0.20812644 -0.15711969 -0.38322455 0.10597142 -0.12957144 0.003644508 0.2765647
0.14011277 -0.055264637 0.2006313 -0.17354374 0.090611055 -0.3283398 0.12887399 0.014624011
-0.18955904 0.09729749 -0.0033177955 -0.22958358 0.046158634 0.037091613 0.25471434 0.05220375

gru.bias_hh_l0 f4 [96]
00000000: 351f e9bc 9c19 ec3d 4398 0dbe c5c2 973c
00000010: 14f0 363e 0a14 d13d 5a97 98bd e9c6 103e
00000020: 7b35 803c 787f 823e cb1a e93c 777f f13d
00000030: ab30 343e e8c4 703e 2821 6d3e 3713 5e3e
00000040: 47ca e33d 7405 893e 2876 d23e 29c4 ac3d
00000050: abb0 f93d b260 453e 6369 70bd 26ca 193e
00000060: 69dd d93d ffaa 123e 914a a33e d94e b13d
00000070: 16dc 6f3e ca25 8e3e 935d c13e 5d36 96bd
00000080: dc6d 98be 97f7 eabe 3b9e 2dbe 6dec 1bbe
00000090: ace3 6c3d 1eb6 5d3e 6041 abbe 9829 b1be
000000a0: 502d fcbe 47ca 23be 6d4a fabd b4af 8bbe
000000b0: ecda ffbe cb7f acbe 960d e1be a490 7abe
000000c0: 6997 a7be 06e7 6fbe 6a74 15be f0ec aebe
000000d0: 6c37 d23c dbba 0ebe 58fa 83be 7a08 493e
000000e0: 974e fbbe 24e0 00bf fb75 d0be a860 27bf
000000f0: 93fe 52be fa27 b1be 8a08 81be 6c43 8ebe
00000100: 0aa1 853d 07dd cfbd a264 56be d3fc 3c3e
00000110: 846e 6b3d 8299 fb3c 3540 a4be be40 6bbd
00000120: c1a8 17be 9409 3d3d 044d 133e ad86 ab3c
00000130: 69d5 f9be 3bb4 fcbd 7b09 23bd 8d9d 9d3d
00000140: b54d 323e ea42 0e3e 9b64 c3be fab0 413e
00000150: bf5b 8f3e a911 093e 5f04 a03e f462 40be
00000160: 67ab 0c3d 743f fd3d 4bd2 0abd 5bc4 083e
00000170: 035c 2f3d 087e 17be 6117 713e 6bf1 1abe
-0.028457263 0.11528322 -0.13827614 0.01852549 0.1786502 0.102089 -0.07450743 0.14138378
0.015650501 0.25487876 0.028455159 0.1179189 0.1759669 0.23512614 0.2315718 0.21687017
0.11122566 0.26761973 0.4110577 0.08435852 0.121919 0.19275168 -0.058694255 0.1501852
0.10637934 0.14323042 0.31892827 0.08657617 0.234238 0.27763206 0.37766704 -0.07334588
-0.29771316 -0.4589202 -0.16954891 -0.15226908 0.057834312 0.21651503 -0.33448315 -0.34602046
-0.4925332 -0.15995131 -0.12221227 -0.27282488 -0.49971712 -0.33691248 -0.43955678 -0.24469239
-0.32732704 -0.23427972 -0.1459519 -0.34165144 0.025661193 -0.13938467 -0.25776935 0.1963214
-0.49083397 -0.5034201 -0.40715012 -0.6538186 -0.20604925 -0.34600812 -0.25201827 -0.27785814
0.065248564 -0.101495795 -0.20936826 0.1845582 0.057478443 0.030712847 -0.32080236 -0.05743479
-0.14810468 0.046151713 0.14384848 0.020938242 -0.48795632 -0.12339064 -0.039803963 0.07696066
0.17412455 0.13892713 -0.38162693 0.18915167 0.27999684 0.13385643 0.31253335 -0.18787748
0.03434315 0.12365618 -0.033891957 0.13356154 0.04281236 -0.14794171 0.23544075 -0.15131156

gru2out.weight f4 [6, 32]
00000000: fbb7 1e3f 70cf 053f dca8 443d 2e1a 9cbf
00000010: 0447 ff3d 04f7 2dbf f927 2b3d 6b2d 34bf
00000020: d690 f43e cc46 f13e acdc 56bd b5e6 173f
00000030: 1e7c 403f 535d 4f3f a189 783f d1ce 50bf
00000040: ef13 e8be 8dd6 97be b74f 0b3f 8dd6 a8be
00000050: aa44 ffbe d547 e0be 2a72 ddbe 7a25 f13d
00000060: 1201 c6be 644a f2bd dff4 aabe 007d b9bf
00000070: 88b5 3a3f 418d e83e ca72 91bf d8bc ad3e
00000080: 1750 263f af54 163f 87f0 10be 2296 cabf
00000090: 4114 0d3e bfff 31bf f0ee 863e 413c 33bf
000000a0: a347 173f 91a3 013f c805 a8bd 8d8b d93e
000000b0: 25c3 463f 791b 603f c431 723f 65ff 56bf
000000c0: 5a93 0abf 7169 a4be 10da 063f 6623 f5be
000000d0: 25b8 0ebf 01ba c2be 31ff fabe 07bc c4bd
000000e0: 64b7 15bf 80dc 07bd f485 9abe c006 a6bf
000000f0: ca10 183f dae3 b43e c693 85bf 2518 9f3d
00000100: dae6 3ebf a4fd 4c3e a7e7 1a3f 0387 b3bb
00000110: b740 353e aa36 4c3e 2759 283f 4214 363f
00000120: 2896 00bf 43cb 0d3d 175e f33d c2c6 00be
00000130: bc86 19bf 8bde e8be 59d3 a4be 1a1a 313f
00000140: 842b d23e aaa4 4cbf c9c9 d7be 02d9 783d
00000150: 4aa7 04bf cad6 8b3e 9760 1a3f 0d08 693e
00000160: 6392 1f3f 7bef 31bf 5101 4cbe fbf8 0d3f
00000170: 57a9 34bf 64c6 75be 83d2 50bf 11a2 cdbe
00000180: dce2 3d3f a19b 20bf dfff 12bf eeff 70be
00000190: fecb f5be 7f76 d2bc b185 3abf a50c b2be
000001a0: b3a4 5ebf 2c42 27bf 087e 033f 3aa3 6d3f
000001b0: eb84 03bf 6737 c1be 2cff dabe d424 79bf
000001c0: c889 e5bc f4a3 223f 9f53 9b3e e4cf 063f
000001d0: da2f b0be fcf7 b6be 021b 2dbf ca95 bf3c
000001e0: 9512 513f 9a38 833e df55 013f 98a8 3ebf
000001f0: 85b3 da3d 8999 783e bfd7 013f e18d e3be
00000200: 8d24 a4be 4d24 183f bde8 39be 2c5f 7abe
00000210: 492f e53e e803 413d a69c 923f 4a2f 13bd
00000220: f7b6 d13e dffe 233e 9f6e 8e3e 1219 1cbf
00000230: 4e52 02bf 5304 05bf 420c 9f3f f51e db3e
00000240: 068f 47be 62ff 0a3f e81a e3bd d350 5d3f
00000250: 200b 733f 0516 123f 4c99 063f dc4b f13d
00000260: 07b3 51bf 9edf 6d3f 7ae6 8d3e 0eba 2d3f
00000270: 7cd4 f63d f865 12bf 7cfb 0b3f d08e b63e
00000280: 4654 07bf b958 debe 96ef 053f 385c 8f3e
00000290: 3972 f8bd d5f7 8b3e adf0 27bf c576 ee3e
000002a0: e084 283f 3a51 183e b7b0 3cbe 5b53 1cbf
000002b0: 5533 a03f e861 083f 93af 7bbf 21b2 d53d
000002c0: 1946 103d 4f0c b73e 5305 e3be d6a2 49bf
000002d0: 01a9 403f 806c ff3e 6339 b13e d59e bd3e
000002e0: 0b45 e4be 0a70 1dbd ac35 783d a698 053f
000002f0: 1d81 99bd a936 9abe 0570 263f 2946 10bc
0.6199948 0.5226965 0.0480126 -1.219549 0.12464717 -0.6795504 0.041786168 -0.703818
0.4776675 0.47124326 -0.052456543 0.59336406 0.7518939 0.81001776 0.97085005 -0.81565577
-0.45327708 -0.29655877 0.5441851 -0.3297619 -0.49857074 -0.43804803 -0.43251163 0.11774726
-0.38672692 -0.11830595 -0.33389947 -1.4491272 0.72933245 0.45420268 -1.1363156 0.3393314
0.6496596 0.58722967 -0.14154254 -1.5827067 0.13777258 -0.6953086 0.2635417 -0.70013815
0.59093684 0.5064021 -0.08204228 0.4248928 0.77641517 0.8754192 0.94607186 -0.8398345
-0.5413109 -0.32111695 0.52676487 -0.4787857 -0.5574973 -0.38032535 -0.4902282 -0.09606176
-0.58482957 -0.03316927 -0.30180323 -1.297081 0.5940062 0.35330087 -1.0435722 0.07768277
-0.74571 0.20018631 0.60509723 -0.005478741 0.17700468 0.19942728 0.65761036 0.7112466
-0.5022912 0.034617674 0.118831806 -0.1257582 -0.59971213 -0.45482287 -0.32192495 0.6918045
0.41048825 -0.7993876 -0.42146137 0.06075383 -0.5181776 0.2731231 0.60303634 0.22756977
0.62332743 -0.69506043 -0.19922377 0.5545804 -0.7057089 -0.24001461 -0.81571215 -0.4016271
0.74174285 -0.6273747 -0.5742168 -0.2353513 -0.48007196 -0.025691269 -0.72860247 -0.34775272
-0.8697006 -0.65335345 0.51364183 0.9282719 -0.5137469 -0.3773758 -0.42772806 -0.9732182
-0.0280198 0.6353142 0.30337235 0.52660966 -0.34411508 -0.35736072 -0.67619336 0.023386855
0.8166898 0.2562912 0.50521654 -0.74476004 0.10678772 0.24277319 0.5071983 -0.44444183
-0.32059136 0.5943039 -0.18155189 -0.24450368 0.44762638 0.047122866 1.1454055 -0.03593377
0.40959904 0.16015194 0.27818772 -0.60975754 -0.50906837 -0.51959723 1.2425616 0.42797056
-0.19488153 0.54295933 -0.11089116 0.8645145 0.9493885 0.5706485 0.5257766 0.11782047
-0.819138 0.9291934 0.27714902 0.6786202 0.12052247 -0.5718684 0.5468061 0.35655832
-0.52862966 -0.43427065 0.52318704 0.28000045 -0.12131161 0.27337518 -0.6560162 0.4657499
0.6582775 0.14874735 -0.18426786 -0.6106469 1.2515665 0.53274393 -0.9831478 0.10434366
0.0352231 0.35751578 -0.4434 -0.7876409 0.7525788 0.49887466 0.34614095 0.37035242
-0.44583926 -0.038436927 0.06059806 0.5218605 -0.074953295 -0.30119827 0.6501468 -0.00880579

gru2out.bias f4 [6]
00000000: 45f9 81be 13d1 8cbe 138e 0dbd 55af 92bb
00000010: 10df c93d aeea 213e
-0.2538549 -0.2750326 -0.03455932 -0.0044764676 0.09856999 0.1581218
