try6_realCTCFtrimmed2/100bp_1_positive_trim100_noimplant_pretrainedGen.pth (torch, 67895 bytes, 7 tensors)

embeddings.weight f4 [5, 16]
-0.07751984 2.212724 0.47564638 1.1612676 -0.6376224 0.07190515 -0.6714055 -0.41870308
0.6133947 -1.5469061 0.11623585 0.40721935 -0.58420414 -0.75106543 0.6276046 1.9549906
-0.18062656 0.91530895 0.14495832 -1.566635 0.6464755 0.056016967 0.37385058 0.578173
-0.008081841 -0.4734865 -0.651968 0.20523855 0.39688694 0.24001175 -0.23374969 -0.27105862
-0.15447864 0.025987485 1.2470379 -0.21541554 0.03543699 -0.07916645 0.09334168 -0.6111755
0.03815458 0.5398278 0.8874542 -1.7000867 -1.6957269 -0.15965948 0.3367589 -0.011236685
0.056900777 0.2077306 -1.0487355 1.5388998 0.34315515 -0.08612788 0.7520172 -0.17375493
-0.452 0.68554205 0.09038656 -0.2738809 0.89003813 0.37555224 0.6208623 -0.011327573
-0.8299552 -1.310688 -2.3101141 0.0035062868 -0.57221496 0.00016662566 -0.59406215 -0.04693233
1.5150921 0.29282948 -1.231723 -0.33240235 -0.38867778 -0.01080488 -0.77902323 -0.27551812
00000000: b9c2 9ebd 459d 0d40 ec87 f33e 6ba4 943f
00000010: 393b 23bf 0243 933d 3be1 2bbf 4060 d6be
00000020: 6f07 1d3f 0501 c6bf 100d ee3d 0e7f d03e
00000030: 678e 15bf d345 40bf b2aa 203f 223d fa3f
00000040: 2bf6 38be b051 6a3f f46f 143e 7f87 c8bf
00000050: 6b7f 253f 0c72 653d 5869 bf3e 2503 143f
00000060: b369 04bc d36c f2be 60e7 26bf 0e2a 523e
00000070: c434 cb3e a4c5 753e 145c 6fbe 32c8 8abe
00000080: a62f 1ebe b5e3 d43c f09e 9f3f e495 5cbe
00000090: 6126 113d 0522 a2bd ec29 bf3d ff75 1cbf
000000a0: fa47 1c3d 2832 0a3f 3330 633f 719c d9bf
000000b0: 940d d9bf c67d 23be aa6b ac3e 131a 38bc
000000c0: ca10 693d 55b7 543e f73c 86bf abfa c43f
000000d0: 08b2 af3e d063 b0bd 3384 403f d0ec 31be
000000e0: 8b6c e7be af7f 2f3f 971c b93d 1e3a 8cbe
000000f0: 8ad9 633f 6248 c03e d5f0 1e3f 4997 39bc
00000100: f277 54bf a0c4 a7bf e9d8 13c0 bbc9 653b
00000110: ae7c 12bf 3cb8 2e39 7514 18bf 1d3c 40bd
00000120: 8aee c13f bfed 953e 19a9 9dbf a430 aabe
00000130: c600 c7be f406 31bc 116e 47bf b610 8dbe

gru.weight_ih_l0 f4 [192, 16]
-0.12775183 -0.1276542 -0.38622445 0.7903725 -0.2921776 -0.043773886 0.00025779454 -0.088506155
0.26078713 -0.030913074 0.08352432 0.16611525 0.22495171 0.12692663 0.36797562 -0.056618836
-0.3628948 0.05082883 -0.3476812 0.10383548 0.05744473 -0.005067405 0.0081962235 -0.1858447
0.8955954 0.107118204 -0.24774972 -0.18709168 -0.07480789 0.10138529 -0.15495503 -0.17649385
-0.13727215 -0.110240005 0.44760787 -0.44546777 -0.14314449 0.064497605 -0.17738804 -0.2580421
0.2822691 0.010151974 0.23209703 -0.07340363 -0.42687008 -0.11662647 0.02810809 -0.060500156
0.07092565 -0.022391228 0.16439366 -0.54750675 0.16089253 0.03491224 -0.13209726 0.1997946
0.014796293 0.070734516 -0.18503115 -0.037493974 -0.31548837 0.1446764 -0.28389266 -0.1410478
-0.13763304 0.70582503 -0.051562894 0.10015587 0.09604177 -0.06479521 0.07701649 -0.095414
0.021204617 0.022557069 -0.11956963 -0.06879049 0.038694154 0.23517779 0.23418528 0.031013165
0.2948035 0.65322524 -0.4937334 0.37688947 0.25538245 0.16828321 0.092371225 0.58932114
-0.25877655 -0.5487731 -0.6096358 0.672107 0.87599415 0.47421834 -0.0032282993 0.35196427
-0.005996528 0.2954201 -0.107905224 0.17710018 0.28838304 0.014750227 0.27074817 0.36927325
0.0156231355 -0.10586011 -0.13485332 0.26014915 0.6627099 0.31930456 0.2766158 0.08312742
0.12070375 0.37840635 0.49017736 -0.36058405 0.32489085 -0.143204 0.4934066 0.1090034
-0.35203612 -0.1570325 0.32043824 -0.5170947 -0.17626186 0.070718914 0.35167187 -0.28727967
0.3561386 0.71737206 -0.05388168 -0.06747473 0.2717219 0.21740963 0.15259616 0.54099536
-0.42945305 -0.32226792 -0.28566515 0.48733443 0.62717944 0.19956912 0.015411036 0.12386458
0.14756687 -0.22887309 0.004279552 0.6095394 -0.17171036 -0.16004854 0.013629925 -0.5289002
-0.16737628 0.15979257 0.5034746 -0.14414091 -0.10121588 -0.01690105 0.11966331 0.42298394
-0.03724453 0.056922067 -0.18417947 -0.13720754 0.2748346 0.06494407 0.39541024 0.31607324
-0.14553659 0.08197801 -0.080002256 0.17991579 0.42134097 0.2742246 0.05898065 -0.19912836
-0.30299208 0.019310223 0.15906338 0.6880949 -0.4391746 -0.15942062 -0.17201415 -0.27257508
0.7835919 0.10746362 0.36108017 -0.098866865 -0.2240907 -0.3856046 0.36404464 0.33256662
-0.022183208 0.4111773 -0.311903 0.21639025 0.26004463 0.04015739 0.20037675 0.12555408
0.07195881 -0.088865675 -0.3694944 0.08518145 0.28310245 0.38021755 0.036540598 -0.2852089
-0.14728206 0.3082625 0.31039718 -0.29590872 0.27002704 -0.19679148 0.20822951 -0.12200901
0.0320548 0.1698497 0.28152144 -0.20928305 -0.14001071 -0.14475681 0.18654248 -0.16784738
-0.06960543 0.50545096 0.30936652 -0.41196615 0.24694145 0.15870498 -0.13863698 0.1283818
0.07511716 -0.11995267 0.1299421 -0.19693463 -0.4723044 -0.06679696 -0.038755935 0.09189015
0.025293622 0.19170603 0.44894874 -0.09224752 0.10526253 -0.24361959 0.09695785 -0.30425572
-0.34486824 0.21950929 0.54616296 -0.27981842 -0.40250683 -0.35783058 0.22661725 0.2702171
00000000: 60d1 02be c8b7 02be 36bf c5be da55 4a3f
00000010: 4d98 95be 3f4c 33bd 9928 8739 b742 b5bd
00000020: e485 853e 6a3d fdbc cc0e ab3d 1e1a 2a3e
00000030: be59 663e 0ef9 013e 4d67 bc3e 27e9 67bd
00000040: 59cd b9be e431 503d 4503 b2be b2a7 d43d
00000050: 2a4b 6b3d 790c a6bb 7449 063c 134e 3ebe
00000060: bd45 653f ca60 db3d 1ab2 7dbe f694 3fbe
00000070: e134 99bd 17a3 cf3d 88ac 1ebe ceba 34be
00000080: 1291 0cbe 83c5 e1bd dc2c e53e 5a14 e4be
00000090: 7894 12be 5217 843d 36a5 35be 181e 84be
000000a0: 9385 903e 7754 263c d8aa 6d3e a454 96bd
000000b0: b78e dabe dcd9 eebd f042 e63c 03cf 77bd
000000c0: 7841 913d cf6d b7bc d056 283e 6729 0cbf
000000d0: 03c1 243e 2300 0f3d 8144 07be f596 4c3e
000000e0: 276c 723c 42dd 903d ce78 3dbe 4893 19bd
000000f0: b187 a1be 0d26 143e 615a 91be d66e 10be
00000100: adef 0cbe f3b0 343f 9d33 53bd 851e cd3d
00000110: 8cb1 c43d 5ab3 84bd d2ba 9d3d 6a68 c3bd
00000120: 4eb5 ad3c 9ac9 b83c ece0 f4bd 07e2 8cbd
00000130: c37d 1e3d 72d2 703e 44ce 6f3e 520f fe3c
00000140: 7cf0 963e c539 273f a0ca fcbe a8f7 c03e
00000150: 7dc1 823e 6f52 2c3e 202d bd3d c0dd 163f
00000160: 5c7e 84be 657c 0cbf 1711 1cbf 340f 2c3f
00000170: 2741 603f bfcc f23e e091 53bb a934 b43e
00000180: 867e c4bb 4e41 973e 6afd dcbd c059 353e
00000190: f1a6 933e f0aa 713c 819f 8a3e 6211 bd3e
000001a0: 2ef8 7f3c 2fcd d8bd fd16 0abe 4532 853e
000001b0: 5ba7 293f e37b a33e 96a0 8d3e b53e aa3d
000001c0: 8733 f73d 7abe c13e 87f8 fa3e 799e b8be
000001d0: 1858 a63e 12a4 12be ca9f fc3e 2d3d df3d
000001e0: 143e b4be 21cd 20be 7b10 a43e 5160 04bf
000001f0: fd7d 34be 14d5 903d 560e b43e 5216 93be
00000200: cc57 b63e b2a5 373f 09b3 5cbd 3130 8abd
00000210: 221f 8b3e a1a0 5e3e 2b42 1c3e ac7e 0a3f
00000220: 45e1 dbbe 4d00 a5be b442 92be e683 f93e
00000230: d58e 203f d95b 4c3e 927e 7c3c b7ac fd3d
00000240: c51b 173e b55d 6abe 7c3b 8c3b c60a 1c3f
00000250: d7d4 2fbe c4e3 23be 0d50 5f3c 0166 07bf
00000260: b064 2bbe aaa0 233e b6e3 003f ad99 13be
00000270: 454a cfbd 1274 8abc 0a12 f53d 5a91 d83e
00000280: b88d 18bd 1d27 693d 8b99 3cbe 2280 0cbe
00000290: 1fb7 8c3e 6601 853d 3673 ca3e 5ad4 a13e
000002a0: 8b07 15be 16e4 a73d 39d8 a3bd d83b 383e
000002b0: 01ba d73e 2b67 8c3e b295 713d 4ee8 4bbe
000002c0: c721 9bbe 7930 9e3c 83e1 223e fd26 303f
000002d0: 7edb e0be 293f 23be 7a24 30be f68e 8bbe
000002e0: 7b99 483f e315 dc3d 80df b83e b67a cabd
000002f0: 0878 65be f76d c5be 0f64 ba3e 2c46 aa3e
00000300: 8fb9 b5bc d585 d23e c0b1 9fbe 6895 5d3e
00000310: 9224 853e 137c 243d 902f 4d3e 4091 003e
00000320: 245f 933d 35ff b5bd 5f2e bdbe 9d73 ae3d
00000330: cef2 903e e0ab c23e 98ab 153d e706 92be
00000340: 1cd1 16be 95d4 9d3e 61ec 9e3e 5981 97be
00000350: fc40 8a3e b583 49be 1e3a 553e dcdf f9bd
00000360: e54b 033d 14ed 2d3e 9423 903e 4c4e 56be
00000370: f85e 0fbe 213b 14be fe04 3f3e 2fe0 2bbe
00000380: 4b8d 8ebd 3c65 013f 4a65 9e3e 3aed d2be
00000390: 38de 7c3e 8f83 223e daf6 0dbe 8576 033e
000003a0: 07d7 993d bfa9 f5bd 8b0f 053e 3ba9 49be
000003b0: e2d1 f1be d8cc 88bd 8bbe 1ebd e730 bc3d
000003c0: 9234 cf3c 964e 443e 9cdc e53e 45ec bcbd
000003d0: e293 d73d 6a77 79be d691 c63d 68c7 9bbe
000003e0: 9292 b0be 0bc7 603e 56d1 0b3f 5c44 8fbe
000003f0: 6015 cebe 9235 b7be 5a0e 683e e559 8a3e

gru.weight_hh_l0 f4 [192, 64]
0.57708204 -0.055602435 -0.22110212 0.06113891 0.123251535 -0.6618043 -0.18798238 -0.22489895
0.024198033 -0.16412663 -0.1219676 -0.13233097 0.37946582 0.3936462 -0.19007567 -0.4606946
0.009954544 -0.28076681 0.0010450722 -0.14081076 -0.1417013 0.43690974 -0.24549252 -0.51099855
0.113363124 0.1446008 0.8490189 0.12562375 0.7354526 0.314949 0.30419433 0.42375237
0.14993125 -0.76374257 -0.34804454 -0.058798693 -0.022416653 0.012352173 0.12812416 0.613834
0.06472361 -0.21229757 -0.06941043 -0.46860322 -0.16859372 -0.08873122 0.29351926 0.01492066
0.21055624 0.5852877 0.13673903 -0.08940825 -0.013124772 -0.10595557 -0.0922927 0.2850902
-0.28314653 -0.079313226 -0.035039637 -0.017838981 -0.17039636 -0.08565148 -0.15147778 -1.5876558
0.037551332 0.1832147 -0.31029603 -0.00160143 -0.5303166 -0.32054585 0.12372826 -0.74189544
0.16675156 0.05307558 -0.9318088 -0.5848422 -0.17450485 0.25952685 0.25541848 0.573297
-0.54774976 0.54887354 -0.23301828 -0.56908166 0.24296336 -0.013201933 0.18099886 -0.10182185
-0.060221206 0.17660381 0.7026752 -0.008423305 -0.54767734 -1.8753347 -0.06455785 0.3720926
0.88103765 1.1250392 -0.08936605 -0.18240266 0.47829995 -0.28264204 0.093101315 -0.95298314
0.18991753 -0.25158 0.4860606 1.6881735 1.1214664 -0.5593543 0.1427883 1.0106207
-0.08509336 0.42363054 0.23316656 0.02164951 0.31314084 0.50553447 0.5376774 0.08384522
-0.06864104 -0.44697186 0.052625507 0.31388196 0.0028411073 0.25939268 -0.40323478 -0.26394066
0.015022319 -0.0024816787 0.22270137 0.07206902 0.38250697 0.22230744 -0.30634683 -0.04689999
0.14965452 0.040477816 -0.7709799 0.495896 0.6142746 -0.26035196 -0.044492636 -0.23529296
0.24915412 0.3988935 0.42095912 1.2072041 0.13032164 -0.8415398 -0.19683862 0.41538674
0.07221599 0.07827816 -0.22930145 0.04605562 0.08975909 0.22201322 0.127999 0.021957634
-0.38807482 0.37862253 -0.016620578 -0.27067974 -0.0684572 -0.055313498 0.03593613 0.14340602
0.32429662 -0.21732257 0.25718194 -0.30426642 -0.13754255 -0.5694726 0.19192716 0.41625133
0.1261073 -0.15668954 -0.21688133 -0.13702384 -0.10531897 -0.036092635 0.14701343 0.12586026
-0.13787071 0.105455264 0.02975461 0.0020723005 0.043980386 0.44760486 -0.8204188 -0.883084
-0.04975752 0.03295915 0.04417487 0.17158839 -0.10345001 0.16799314 -0.13554531 -0.076980844
0.03081734 0.19925983 0.030479966 -0.03178897 -0.04749167 -0.30552834 -0.03508074 0.06461847
0.11553087 0.13073513 0.121657625 -0.36361858 0.010217041 0.18568382 0.27696466 0.42979154
0.20600651 0.0709282 0.023366738 -0.28502584 0.32003412 0.43371892 -0.060085405 0.039103895
-0.3045653 -0.33604836 0.17865789 -0.019633329 -0.16107409 0.058728904 -0.052269742 -0.06469402
-0.05902981 0.03129767 -0.33959648 -0.5589681 -0.21769933 0.14394902 -0.17205945 -0.16911107
0.12920225 0.0068189353 0.23782176 -0.08275995 0.19346273 0.12924443 0.045274425 0.0048755826
0.16115217 0.010218028 0.0640374 0.054164324 -0.13523234 0.113576904 0.37172192 1.0121149
00000000: a6bb 133f 61bf 63bd 9868 62be cb6c 7a3d
00000010: 4d6b fc3d 026c 29bf 747e 40be e94b 66be
00000020: f43a c63c d010 28be 26ca f9bd c581 07be
00000030: 5849 c23e ff8b c93e 32a3 42be 2ae0 ebbe
00000040: 6218 233c abc0 8fbe cefa 883a b230 10be
00000050: 251a 11be a2b2 df3e 6462 7bbe cdd0 02bf
00000060: ed2a e83d 3b12 143e 4d59 593f 83a3 003e
00000070: 9f46 3c3f ff40 a13e 5cbf 9b3e 12f6 d83e
00000080: 9487 193e a284 43bf e532 b2be e6d6 70bd
00000090: 21a3 b7bc c560 4a3c fb32 033e 3a24 1d3f
000000a0: d08d 843d 8964 59be 0e27 8ebd c3ec efbe
000000b0: d5a3 2cbe b7b8 b5bd 2848 963e c975 743c
000000c0: 0e9c 573e 6ad5 153f 5105 0c3e ac1b b7bd
000000d0: 4909 57bc 3cff d8bd f503 bdbd 58f7 913e
000000e0: 95f8 90be f96e a2bd b985 0fbd 0e23 92bc
000000f0: 627c 2ebe 0b6a afbd fe1c 1bbe 4e38 cbbf
00000100: 6dcf 193d a29c 3b3e 1fdf 9ebe 13e7 d1ba
00000110: d4c2 07bf 961e a4be 3e65 fd3d dcec 3dbf
00000120: ecc0 2a3e c865 593d 068b 6ebf 38b8 15bf
00000130: 66b1 32be b4e0 843e 36c6 823e 98c3 123f
00000140: 5439 0cbf fa82 0c3f 589c 6ebe 56af 11bf
00000150: 63cb 783e ec4c 58bc c457 393e f987 d0bd
00000160: 83aa 76bd a1d7 343e 86e2 333f e701 0abc
00000170: 9534 0cbf f80a f0bf e836 84bd ec82 be3e
00000180: af8b 613f 4901 903f 8c05 b7bd c3c7 3abe
00000190: bbe3 f43e 75b6 90be e7ab be3d b4f6 73bf
000001a0: be79 423e 18cf 80be efdc f83e 1216 d83f
000001b0: 368c 8f3f d831 0fbf 1937 123e 055c 813f
000001c0: 6d45 aebd 1ae6 d83e 37c3 6e3e 505a b13c
000001d0: ff53 a03e b56a 013f 3aa5 093f 0bb7 ab3d
000001e0: ac93 8cbd 7fd9 e4be d88d 573d 23b5 a03e
000001f0: df31 3a3b 1ecf 843e ca74 cebe 3b23 87be
00000200: 2c20 763c a9a3 22bb d40b 643e ec98 933d
00000210: f4d7 c33e 90a4 633e 7ed9 9cbe 341a 40bd
00000220: 093f 193e 11cc 253d f05e 45bf 15e6 fd3e
00000230: 1a41 1d3f da4c 85be e93d 36bd a3f0 70be
00000240: 4222 7f3e c53b cc3e f487 d73e aa85 9a3f
00000250: 0973 053e 276f 57bf 1090 49be 92ad d43e
00000260: fae5 933d 4d50 a03d 00ce 6abe d1a4 3c3d
00000270: 9dd3 b73d 6f57 633e 2b12 033e 7fe0 b33c
00000280: beb1 c6be d0da c13e e127 88bc 8996 8abe
00000290: 4a33 8cbd 6890 62bd c331 133d 07d9 123e
000002a0: 350a a63e cf89 5ebe 5aad 833e cfc8 9bbe
000002b0: f4d7 0cbe f5c8 11bf 8e88 443e e51e d53e
000002c0: 4622 013e 3973 20be 2416 5ebe fa4f 0cbe
000002d0: 79b1 d7bd dfd5 13bd b08a 163e 83e1 003e
000002e0: fb2d 0dbe eef8 d73d f1bf f33c 6fcf 073b
000002f0: c724 343d 772c e53e f706 52bf cb11 62bf
00000300: 8bce 4bbd 2c00 073d b5f0 343d deb4 2f3e
00000310: 99dd d3bd 6506 2c3e 64cc 0abe 22a8 9dbd
00000320: a574 fc3c c50a 4c3e 1fb1 f93c 2735 02bd
00000330: a086 42bd 366e 9cbe d2b0 0fbd b056 843d
00000340: 739b ec3d 6edf 053e a227 f93d 372c babe
00000350: 6065 273c e623 3e3e 50ce 8d3e a30d dc3e
00000360: 5ff3 523e ce42 913d 9a6b bf3c e8ee 91be
00000370: 83db a33e 6810 de3e 1d1c 76bd 682b 203d
00000380: fcef 9bbe 880e acbe 18f2 363e 13d6 a0bc
00000390: 9bf0 24be b88d 703d cc18 56bd 4c7e 84bd
000003a0: 3ec9 71bd fc31 003d 97df adbe 8918 0fbf
000003b0: 93ec 5ebe 5f67 133e 5a30 30be 742b 2dbe
000003c0: 984d 043e 6071 df3b 8c87 733e 0c7e a9bd
000003d0: 181b 463e a758 043e ad71 393d 5ac3 9f3b
000003e0: 1305 253e 8469 273c 0a26 833d 69db 5d3d
000003f0: 597a 0abe 029b e83d 5652 be3e fb8c 813f

gru.bias_ih_l0 f4 [192]
-0.020520816 0.44781858 0.04903098 -0.07804511 0.22535911 0.04392613 0.15813363 0.089139804
-0.07772262 0.02801659 -0.0992609 0.34620965 0.22390823 0.15755466 0.04144721 -0.15565817
0.064636014 -0.11088505 0.07326316 -0.0036906344 0.19165929 -0.12913376 0.10494394 0.0011507204
0.10970596 0.31736225 -0.19267951 0.31780368 -0.24088554 -0.0717533 0.27392158 0.3753911
0.3530584 0.016183397 0.071137875 0.014490196 0.1673588 0.10056734 0.11090604 0.042432796
0.19795989 0.29533026 -0.30014724 -0.08741078 -0.078419246 0.20584482 0.1570076 -0.048364922
0.17375234 0.052381754 -0.13549161 0.020360386 0.16975595 0.006072879 0.44932562 -0.03866231
0.098734334 0.09779222 0.3254241 -0.13346185 -0.0076742065 0.18687314 0.043765962 -0.13800377
-0.432968 -0.34229025 -0.03147027 0.2522748 -0.5257086 -0.17371438 -0.16884743 -0.47704893
-0.24352027 0.08977454 0.18619907 0.11130369 -0.61235446 -0.32070026 -0.5014114 0.09687987
0.2184748 0.1125068 -0.06816646 -0.6977017 -0.41892162 -0.06562216 -0.6777811 -0.34746015
-0.48585072 -0.19996692 -0.28541496 -0.13747582 -0.13685432 -0.096755914 -0.24251829 -0.20169999
-0.003606387 -0.5567043 -0.32266214 0.08552442 0.34322894 0.20560183 0.15426347 0.1268847
-0.10347494 0.15199071 -0.39269063 -0.40892556 0.3387817 -0.35912928 0.008296325 -0.05931733
0.21186902 -0.028232945 -0.33585295 -0.34489653 -0.31654513 0.15333384 -0.21745785 0.32673034
0.22141474 -0.4248294 -0.017159848 -0.28713906 -0.114666685 -0.20262308 0.022243954 0.515953
-0.06347564 0.15614419 0.0065103313 -0.051999543 -0.17810485 -0.101102166 0.14814547 -0.18247825
0.0032776303 -0.08953626 -0.14110476 0.09327446 0.04969892 0.121868 0.26858076 0.19431046
-0.15592813 -0.12309911 -0.035737686 -0.20601447 -0.16695395 -0.025907548 0.024642285 -0.14574064
0.2064049 -0.08463903 0.05205793 -0.12602554 0.16478424 -0.16178472 0.1248499 0.22950506
0.032745637 -0.3189196 -0.17840323 -0.2442443 0.0746677 -0.22004282 0.13592845 -0.057661112
-0.3190042 -0.14888632 0.261687 -0.2531791 -0.050687768 -0.13949369 -0.067336455 0.11989139
0.06356237 -0.11858829 0.060024686 0.10181376 0.062369376 0.018846301 -0.043551344 -0.081257716
-0.18402573 -0.14220656 0.17124256 0.010270132 0.00560299 -0.047084633 0.040532295 -0.01381542
00000000: 451b a8bc 7a48 e53e b5d4 483d 1dd6 9fbd
00000010: 8ac4 663e e3eb 333d c8ed 213e ee8e b63d
00000020: 092d 9fbd 0c83 e53c 4c49 cbbd 6442 b13e
00000030: 3348 653e 0256 213e 8dc4 293d db64 1fbe
00000040: e35f 843d b317 e3bd ff0a 963d 92de 71bb
00000050: 5542 443e a43b 04be d9ec d63d c5d3 963a
00000060: 85ad e03d 4e7d a23e c74d 45be 2ab7 a23e
00000070: b3aa 76be 65f3 92bd 733f 8c3e 4333 c03e
00000080: 12c4 b43e 0b93 843c bcb0 913d 4968 6d3c
00000090: 1b60 2b3e 40f6 cd3d b522 e33d 03ce 2d3d
000000a0: ffb5 4a3e 8735 973e e6ac 99be 6c04 b3bd
000000b0: 459a a0bd fcc8 523e 9ac6 203e 4c1a 46bd
000000c0: 22ec 313e 408e 563d 50be 0abe d3ca a63c
000000d0: 81d4 2d3e 00ff c63b 020e e63e 5f5c 1ebd
000000e0: 3a35 ca3d 4a47 c83d fd9d a63e 39aa 08be
000000f0: e977 fbbb ac5b 3f3e f043 333d dc50 0dbe
00000100: fbad ddbe ab40 afbe f8e6 00bd 2a2a 813e
00000110: d794 06bf 2fe2 31be 57e6 2cbe c23f f4be
00000120: 615d 79be b7db b73d f8aa 3e3e 30f3 e33d
00000130: 43c3 1cbf d332 a4be 7f5c 00bf f468 c63d
00000140: dcb7 5f3e f769 e63d db9a 8bbd 949c 32bf
00000150: e57c d6be e964 86bd 1083 2dbf 4ce6 b1be
00000160: 6dc1 f8be 21c4 4cbe e921 92be 76c6 0cbe
00000170: 8a23 0cbe f727 c6bd b756 78be 718a 4ebe
00000180: 2259 6cbb 2c84 0ebf f933 a5be 6d27 af3d
00000190: b4bb af3e 4989 523e 3ef7 1d3e 10ee 013e
000001a0: abea d3bd 74a3 1b3e bf0e c9be b15e d1be
000001b0: cc74 ad3e cbdf b7be 4fed 073c bbf6 72bd
000001c0: 31f4 583e c748 e7bc ebf4 abbe 4796 b0be
000001d0: 3412 a2be 8c03 1d3e 45ad 5ebe 3349 a73e
000001e0: 8cba 623e 3d83 d9be cf92 8cbc e403 93be
000001f0: 5ed6 eabd 6d7c 4fbe f438 b63c 7f15 043f
00000200: 84ff 81bd 43e4 1f3e 9e54 d53b 79fd 54bd
00000210: 1e61 36be a70e cfbd 72b3 173e 94db 3abe
00000220: 83cd 563b c95e b7bd c47d 10be ae06 bf3d
00000230: 1891 4b3d ee95 f93d 6b83 893e 52f9 463e
00000240: a0ab 1fbe 631b fcbd ae61 12bd 75f5 52be
00000250: faf5 2abe 113c d4bc 9ede c93c 093d 15be
00000260: ce5b 533e 3a57 adbd b23a 553d d70c 01be
00000270: 33bd 283e e5aa 25be 4eb1 ff3d 6003 6b3e
00000280: 4a20 063d 6e49 a3be 56af 36be 2e1b 7abe
00000290: 61eb 983d e852 61be d430 0b3e 0f2e 6cbd
000002a0: 8554 a3be a875 18be d7fb 853e b1a0 81be
000002b0: fa9d 4fbd 6fd7 0ebe b2e7 89bd 9e89 f53d
000002c0: fd2c 823d 6bde f2bd 72dc 753d bc83 d03d
000002d0: 0877 7f3d 8f63 9a3c e562 32bd 726a a6bd
000002e0: 3e71 3cbe 999e 11be 365a 2f3e 0e44 283c
000002f0: 4999 b73b d1db 40bd 3105 263d 125a 62bc

gru.bias_hh_l0 f4 [192]
0.13712603 0.28128988 0.14913708 -0.059038483 0.026135562 -0.08878953 0.26408356 0.32148084
-0.021085424 0.035151973 0.092115715 0.32139385 0.15484385 0.15589751 0.12512597 -0.029617425
-0.041616276 -0.12782829 0.17928933 0.0038797583 0.19857149 -0.0031369282 0.08080097 -0.018269813
0.33735806 0.31878904 -0.28107432 0.22932452 -0.11769754 -0.09498928 0.2412537 0.16756517
0.37337288 0.063851416 0.15449978 0.078322016 0.06686666 0.19411643 0.13016653 -0.032047767
0.29336748 0.17952362 -0.12395055 -0.11544889 -0.15032442 0.15539822 0.09918555 -0.028334046
0.10160579 -0.11429897 0.054236483 0.1349309 0.1252681 -0.102575436 0.30212316 -0.19273856
-0.08895344 0.054928217 0.47174907 -0.04410799 -0.0031767613 0.15597987 -0.019746264 -0.23206887
-0.3438064 -0.1884216 -0.15870295 0.4928149 -0.61367023 -0.058966603 -0.26820847 -0.28448182
-0.15192978 0.05485638 0.040320106 0.10082219 -0.6292638 -0.26089865 -0.6980122 -0.105355784
0.22047141 0.12640116 0.040794298 -0.65185887 -0.44472355 -0.04690168 -0.61962587 -0.5244542
-0.34834653 -0.30572692 -0.29804432 -0.18273829 -0.10932686 -0.085163735 -0.24069156 -0.2173093
0.06262852 -0.6715591 -0.33134055 -0.007883852 0.33053336 0.24369687 0.29402226 0.007105207
-0.2052083 0.11135775 -0.22875546 -0.19981393 0.3206317 -0.21978897 0.19172478 -0.0110444045
0.10786931 0.07982642 -0.46845 -0.18102251 -0.34560108 0.03076108 -0.07706091 0.41056535
0.04903119 -0.4409196 0.15491903 -0.10336897 -0.23730779 -0.1149752 -0.024579741 0.40597233
0.0732284 -0.37915546 0.13308804 0.013590187 -0.16437097 -0.010001699 0.36528957 -0.25693223
0.11221244 -0.09645085 -0.15630713 0.22168526 0.3434983 -0.31463343 0.16137351 0.056607578
0.07410347 0.17670774 0.1337372 -0.09388289 0.10016162 -0.27742046 0.14576803 0.06462779
0.22861385 0.04970297 0.3126129 -0.25515798 0.04077151 0.08301775 0.1402184 0.2469598
0.01616278 0.12662992 -0.24132656 -0.2072836 -0.107629806 -0.1910067 0.1321763 0.18977357
-0.37270066 -0.30732873 -0.018192522 0.09856 0.012596141 -0.121684015 0.23842779 0.13678193
0.1943626 -0.18770154 -0.19130985 0.16305582 0.08560954 -0.050110716 -0.26530868 0.021120667
0.11519206 -0.3569062 0.13151267 -0.1751593 0.18442342 -0.10235296 0.064431675 0.08126615
00000000: c46a 0c3e 3a05 903e 64b7 183e 56d2 71bd
00000010: 3f1a d63c 49d7 b5bd f635 873e 2399 a43e
00000020: 57bb acbc 84fb 0f3d 2aa7 bc3d bc8d a43e
00000030: 638f 1e3e 99a3 1f3e 0621 003e 3ea0 f2bc
00000040: d475 2abd 6be5 02be 9f97 373e 8b43 7e3b
00000050: 5356 4b3e ec94 4dbb fb7a a53d 93aa 95bc
00000060: 32ba ac3e 5138 a33e f9e8 8fbe 0cd4 6a3e
00000070: 680b f1bd bd89 c2bd 360b 773e 3496 2b3e
00000080: bb2a bf3e 88c4 823d 3135 1e3e 4b67 a03d
00000090: 63f1 883d 75c6 463e 604a 053e 8544 03bd
000000a0: 4334 963e 0ad5 373e c9d9 fdbd 7870 ecbd
000000b0: a5ee 19be b620 1f3e cb21 cb3d cd1c e8bc
000000c0: b216 d03d 9415 eabd 1327 5e3d 532b 0a3e
000000d0: 4846 003e 1213 d2bd e3af 9a3e 425d 45be
000000e0: 392d b6bd 69fc 603d 1889 f13e 94aa 34bd
000000f0: 3631 50bb 30b9 1f3e ebc2 a1bc 76a3 6dbe
00000100: 6407 b0be 98f1 40be 0783 22be 3c52 fc3e
00000110: 7e19 1dbf f786 71bd 9f52 89be 9aa7 91be
00000120: 7b93 1bbe 15b1 603d b226 253d dd7b ce3d
00000130: 6f17 21bf 8294 85be edb0 32bf c6c4 d7bd
00000140: 42c3 613e 4e6f 013e ec17 273d 39e0 26bf
00000150: ceb2 e3be fa1b 40bd cd9f 1ebf a142 06bf
00000160: 7a5a b2be 3d88 9cbe 4499 98be bf1f 3bbe
00000170: c3e6 dfbd 536a aebd d977 76be 5486 5ebe
00000180: 6243 803d 4ceb 2bbf 78a5 a9be 462b 01bc
00000190: ab3b a93e ac8b 793e 168a 963e ccd2 e83b
000001a0: 2022 52be 880f e43d df3e 6abe 069c 4cbe
000001b0: d729 a43e 5c10 61be 8053 443e 97f3 34bc
000001c0: 96ea dc3d 097c a33d aed8 efbe f75d 39be
000001d0: a0f2 b0be a9fe fb3c 1cd2 9dbd 9f35 d23e
000001e0: eed4 483d 37c0 e1be 18a3 1e3e 1cb3 d3bd
000001f0: d000 73be 1e78 ebbd 745b c9bc 9bdb cf3e
00000200: c5f8 953d aa20 c2be 3b48 083e 60a9 5e3c
00000210: dd50 28be 2bde 23bc 3c07 bb3e 9f8c 83be
00000220: a3cf e53d 0688 c5bd fa0e 20be 7601 633e
00000230: 02df af3e a217 a1be 193f 253e 59dd 673d
00000240: 8fc3 973d e0f2 343e 68f2 083e ac45 c0bd
00000250: 8921 cd3d 0e0a 8ebe 3744 153e 935b 843d
00000260: c019 6a3e 5795 4b3d cc0e a03e 11a4 82be
00000270: 0700 273d 3605 aa3d 6a95 0f3e 08e3 7c3e
00000280: ce67 843c 46ab 013e 4f1e 77be 2742 54be
00000290: 046d dcbd 4397 43be 3959 073e 0154 423e
000002a0: 9fd2 bebe 315a 9dbe 7c08 95bc d3d9 c93d
000002b0: 0b60 4e3c 7835 f9bd 6a26 743e 9010 0c3e
000002c0: fd06 473e d534 40be bbe6 43be 1bf8 263e
000002d0: 0e54 af3d e540 4dbd 8ad6 87be 4005 ad3c
000002e0: d1e9 eb3d 69bc b6be 42ab 063e f65c 33be
000002f0: 7ed9 3c3e 6e9e d1bd c1f4 833d de6e a63d

gru2out.weight f4 [5, 64]
-0.42055798 0.48120975 0.013139269 -0.19370489 0.3672106 -0.25170562 -0.3278027 0.29754233
0.12037658 0.22782311 0.22656512 -0.23953219 -0.79847956 0.54357576 -0.338418 -0.4110151
-0.059554268 0.21769549 -0.50624794 -0.10032405 -0.7261772 0.18108302 -0.52738476 0.09476606
-0.5232066 -0.7513444 -0.12133983 1.0278968 -0.036657825 -0.04555442 -0.54895216 -0.42103103
-0.100252934 -0.36959746 0.26788375 0.7137623 -0.007632305 0.55283976 -0.42685658 -0.5886875
0.24376315 0.37005857 0.03168276 -0.020785201 0.17040151 0.5335261 -0.097580135 0.03947634
-0.58280075 0.39404112 0.3049918 -0.442967 0.22175498 0.116478935 0.72473586 -0.51796675
-0.047130294 0.32638168 -0.4771898 0.14456917 0.08035024 0.6566082 0.15604468 -0.19083038
0.017262349 -0.02364849 -0.08018539 0.029075697 -0.33541143 0.14789262 -0.07920779 0.027318057
0.14348452 0.021756643 0.02098997 0.0034311842 -0.111644365 -0.020198906 -0.038688395 -0.17163096
0.12904426 -0.15419382 0.1427451 0.063267045 0.010476851 -0.04845341 0.13460377 -0.010472479
0.15201068 0.11728265 -0.057140976 0.050519243 -0.01156086 -0.120979145 0.021341298 -0.112445205
-0.051910304 0.17762002 0.13534394 -0.16695346 -0.15581442 0.040014222 -0.007657801 0.06349149
0.07094838 -0.055693552 -0.012524265 0.019981097 0.0047503808 -0.1614415 -0.030878494 -0.040065866
0.0007020808 -0.0272516 -0.14429064 0.14890246 -0.20644261 0.081293255 -0.07808681 0.0011101018
0.09102354 -0.25659272 -0.129995 -0.042810347 -0.0141815245 -0.18354993 0.14745326 0.14516573
0.28729153 0.0366013 0.134838 0.020746281 -0.2567562 0.1243524 0.11401685 -0.25840557
-0.13726866 -0.10366134 -0.0683665 0.053246982 -0.08660032 -0.15631062 0.088640556 -0.0043257605
-0.2515899 0.11880255 0.13935187 0.0010413391 0.0642571 -0.23867759 -0.004798671 -0.1148271
-0.17007373 0.10719298 0.13656874 -0.06275383 0.26153785 0.19963022 0.11586347 -0.03537789
-0.04364543 0.1237913 -0.18664202 -0.046136815 0.17101331 0.04798869 0.18880546 0.1488433
0.042531464 0.15392011 0.15461981 -0.01545199 -0.091720134 -0.009137694 -0.06148892 0.04469172
-0.011226624 -0.06962973 -0.028351108 0.079596534 0.13247739 -0.06563791 0.02937147 0.20629103
0.151886 0.026062058 0.12911633 0.16400108 0.03341108 -0.16349414 0.029500335 -0.024716415
-0.13767125 -0.13807398 -0.110417 0.07782241 -0.10355448 -0.006278128 -0.09848611 0.09687628
-0.0630914 -0.076435596 -0.057520747 0.039995752 0.2531578 -0.22254038 -0.047900513 0.25753698
0.030317377 -0.20654695 0.02078034 0.02375099 -0.082551695 0.28046924 0.16939525 -0.024378346
0.198459 0.026613476 0.15411735 -0.050526027 0.01656273 -0.017005773 -0.10611471 0.16880806
0.1726226 0.04067253 0.043500017 0.15363038 0.11586765 -0.14838798 0.11716234 0.035805058
-0.16501926 -0.23250593 -0.29956272 0.15927336 -0.015888983 0.02414763 0.029841242 -0.07754074
0.2173016 -0.1695352 0.07083822 -0.22633898 -0.19272482 -0.028936528 -0.17699923 0.076842844
0.09016687 0.031154478 0.13220358 0.05135854 0.2365589 0.19550593 -0.13504083 0.0913064
00000000: 6053 d7be 2061 f63e 1746 573c 935a 46be
00000010: 0703 bc3e 8fdf 80be c1d5 a7be 7857 983e
00000020: ff87 f63d 764a 693e b000 683e ed47 75be
00000030: 2869 4cbf c827 0b3f 2045 adbe 9270 d2be
00000040: 2def 73bd 91eb 5e3e 7799 01bf b276 cdbd
00000050: c0e6 39bf d46d 393e b002 07bf b514 c23d
00000060: def0 05bf 1b58 40bf 0481 f8bd 1f92 833f
00000070: 8426 16bd 4697 3abd 2188 0cbf 6191 d7be
00000080: 6951 cdbd e13b bdbe 0f28 893e 20b9 363f
00000090: 6a18 fabb e886 0d3f f28c dabe 39b4 16bf
000000a0: 0c9d 793e 5178 bd3e c8c5 013d ba45 aabc
000000b0: bc7d 2e3e 2b95 083f 18d8 c7bd f1b1 213d
000000c0: 6e32 15bf c2bf c93e e327 9c3e 92cc e2be
000000d0: bd13 633e 828c ee3d 4a88 393f 7899 04bf
000000e0: b20b 41bd 801b a73e 3952 f4be f109 143e
000000f0: ab8e a43d 7a17 283f 2dca 1f3e 0a69 43be
00000100: c569 8d3c 7aba c1bc 3d38 a4bd 2830 ee3c
00000110: 0cbb abbe 2a71 173e b237 a2bd 1eca df3c
00000120: 9bed 123e fd3a b23c 28f3 ab3c b8dd 603b
00000130: cda5 e4bd 2d78 a5bc b977 1ebd 07c0 2fbe
00000140: 2e24 043e fce4 1dbe c62b 123e 2792 813d
00000150: 19a7 2b3c 1577 46bd 92d5 093e c394 2bbc
00000160: b0a8 1b3e e331 f03d a80c 6abd 44ed 4e3d
00000170: c369 3dbc eac3 f7bd f2d3 ae3c ac49 e6bd
00000180: e69f 54bd 06e2 353e 9a97 0a3e d9f5 2abe
00000190: d18d 1fbe f4e5 233d 4aee fabb d407 823d
000001a0: 624d 913d ec1e 64bd 9332 4dbc 66af a33c
000001b0: 15a9 9b3b ec50 25be e5f4 fcbc 1b1c 24bd
000001c0: d80b 383a bf3e dfbc edc0 13be e379 183e
000001d0: b165 53be 147d a63d faeb 9fbd d680 913a
000001e0: 8d6a ba3d 1f60 83be 691d 05be e759 2fbd
000001f0: a059 68bc 83f4 3bbe fdfd 163e 53a6 143e
00000200: e017 933e 3feb 153d f912 0a3e 1bf4 a93c
00000210: 8c75 83be 79ac fe3d ab81 e93d bc4d 84be
00000220: 2890 0cbe 664c d4bd bc03 8cbd 8219 5a3d
00000230: 825b b1bd e40f 20be 2e89 b53d 1cbf 8dbb
00000240: 64d0 80be c04e f33d 42b2 0e3e 8b7d 883a
00000250: 3a99 833d e667 74be 2c3e 9dbb 782a ebbd
00000260: cf27 2ebe fe87 db3d add8 0b3e 1485 80bd
00000270: 4ae8 853e dd6b 4c3e d449 ed3d 68e8 10bd
00000280: 8dc5 32bd 4b86 fd3d 161f 3fbe f5f9 3cbd
00000290: 1d1e 2f3e ca8f 443d 3856 413e 616a 183e
000002a0: 7935 2e3d 3c9d 1d3e a854 1e3e 582a 7dbc
000002b0: c4d7 bbbd 44b6 15bc cedb 7bbd aa0e 373d
000002c0: e0ef 37bc 089a 8ebd 9540 e8bc 8203 a33d
000002d0: 27a8 073e 2b6d 86bd 709c f03c f53d 533e
000002e0: 0188 1b3e 1980 d53c 1237 043e e6ef 273e
000002f0: 0eda 083d 026b 27be b0aa f13c 147a cabc
00000300: b1f9 0cbe 4463 0dbe 4f22 e2bd 5b61 9f3d
00000310: 5f14 d4bd c1b8 cdbb 16b3 c9bd 1267 c63d
00000320: 1036 81bd 448a 9cbd e09a 6bbd 96d2 233d
00000330: e69d 813e a0e1 63be 5433 44bd e3db 833e
00000340: 265c f83c 0b81 53be 883b aa3c 7091 c23c
00000350: dd10 a9bd aa99 8f3e f375 2d3e 19b5 c7bc
00000360: d638 4b3e 8104 da3c f0d0 1d3e 61f4 4ebd
00000370: 90ae 873c b14f 8bbc ab52 d9bd 05dc 2c3e
00000380: fbc3 303e 3d98 263d 132d 323d 4851 1d3e
00000390: 054c ed3d 05f3 17be cff2 ef3d 53a8 123d
000003a0: cffa 28be 0916 6ebe 4960 99be 8e18 233e
000003b0: 9d29 82bc 40d1 c53c 9f75 f43c aecd 9ebd
000003c0: 5084 5e3e a39a 2dbe a113 913d 68c5 67be
000003d0: a859 45be 4c0c edbc 493f 35be c85f 9d3d
000003e0: 68a9 b83d ad37 ff3c 6060 073e 555d 523d
000003f0: 7f3c 723e b532 483e 2548 0abe dafe ba3d

gru2out.bias f4 [5]
-0.19698611 -0.029951103 0.07286383 0.15836602 0.024223387
00000000: bab6 49be 045c f5bc a239 953d b42a 223e
00000010: 2070 c63c
