try6_realCTCFtrimmed2/100bp_1_positive_trim100_noimplant_fullytrainedDisc.pth (torch, 495397 bytes, 20 tensors)

embeddings.weight f4 [5, 16]
000000 43 60 37 bf 7c c6 b9 3f fd b1 c9 bf f8 e5 1e 3f
       -0.7163126 1.4513698 -1.5757443 0.62069654
000010 a5 fa fe 3c ba 0e 13 40 4d 31 a0 3f a5 56 b6 bf
       0.031125376 2.2977738 1.2515045 -1.4245192
000020 44 b0 88 3d 79 2f bf bf c0 37 ef bf 92 8b 0e 3f
       0.06674245 -1.4936363 -1.8688889 0.5568172
000030 bf cf bd bd b9 ac 96 bf 29 fb 27 bf 58 c8 45 3f
       -0.0926814 -1.1771461 -0.65617615 0.77258825
000040 7a df 31 bf 59 4b 25 3f 09 e0 f8 3f 98 53 46 bf
       -0.69481623 0.64568096 1.944337 -0.77471304
000050 2a a9 84 be 7e 46 08 40 b3 76 9b bf 7a 7a 6b 3f
       -0.25910312 2.1293025 -1.2145599 0.9198376
000060 4d 7e c5 3d 24 42 a1 3e f9 38 38 3e f5 7f dd 3f
       0.096432306 0.31495774 0.17990483 1.7304674
000070 f7 ed 30 3f 82 0e a8 bd 3f a7 fb 3f 47 ee 04 3e
       0.69113106 -0.08205892 1.9660414 0.1298152
000080 2f 3f 54 3e 17 1b 22 be f2 c6 03 bf c2 7a 38 c0
       0.20727228 -0.15830646 -0.5147544 -2.8824925
000090 1f 9e de be db a3 44 bf ba d5 13 bf 04 9b 8a 3f
       -0.43480012 -0.76812524 -0.57747996 1.0828557
0000a0 14 bb 0d 40 1c b5 fa 3e 1f fc ed 3e 59 f4 6b 3d
       2.2145433 0.489663 0.46481416 0.057606075
0000b0 bc 2e 0c bf 6f f5 49 3f 31 e3 5a 3f 5a 78 29 3f
       -0.5475881 0.78890127 0.85502917 0.66199267
0000c0 84 aa 1c 3f c4 5a 1b 3f 53 40 84 3f 10 f4 a9 3e
       0.61197686 0.6068537 1.033213 0.33194017
0000d0 7e 2a a9 3d 1b ab 48 3f 23 25 88 3f 02 10 73 bd
       0.08260058 0.78386086 1.0636333 -0.059341438
0000e0 92 28 56 3e e5 b0 84 3f cc ea 98 bf e0 b4 01 3d
       0.20913914 1.0366484 -1.1946654 0.031666636
0000f0 8f b0 f1 3e 4c c3 8f bf 99 19 6e bf 86 d0 6d 3e
       0.47205016 -1.1231475 -0.9300781 0.23224077
000100 6f 38 c0 bd be 3e 5e 3f bd 3c 99 bf 5b 8f 4b bf
       -0.09385764 0.86814487 -1.1971661 -0.7951562
000110 2b 31 32 3f 6b 0c 9d 3d 52 09 5a bf 52 66 03 bf
       0.69606274 0.07668384 -0.8517047 -0.51328003
000120 11 61 5e 3d af 57 c1 be 81 4a 11 3f 6d 9a e6 bf
       0.05429179 -0.3776221 0.5675431 -1.8015877
000130 b0 bf 9a 3d 88 fb f9 be 4e 7a 09 3f 8c 07 3a bf
       0.07556093 -0.48824716 0.5370225 -0.72667766

gru.weight_ih_l0 f4 [192, 16]
000000 b1 f1 49 bb 88 2a bb bc d4 a3 ce 3d 5a be c7 bc
       -0.0030814225 -0.022847429 0.100898415 -0.024382759
000010 e9 a8 2e 3e ca d8 2f 3e 4e 4b 11 3e 79 23 d9 3c
       0.17056622 0.17172542 0.14188883 0.026506172
000020 05 f0 e1 bc fb bb 29 3e aa 68 3d be b0 5a b4 3d
       -0.02758027 0.16575615 -0.18496957 0.0880636
000030 d2 41 45 3e 03 0e b7 bd eb c6 15 3d ee 4a 3b 3d
       0.1926339 -0.089382194 0.036566656 0.045725755
000040 1e 08 5a bd b8 e3 8a 3c 0c a9 e5 bd 72 94 3c be
       -0.053230397 0.016954288 -0.11213884 -0.18416002
000050 30 f7 b0 3d 83 3a c9 bb 61 bf e1 be 85 49 11 3e
       0.08640897 -0.0061410083 -0.44091323 0.14188202
000060 07 f4 9a 3d b1 ce 33 bd c1 8f 7d 3e 57 59 0a bc
       0.07566076 -0.04389829 0.24761869 -0.008444152
000070 f6 c3 24 be d3 af 62 3e 3e 5c cf 3e 6e 62 ed bd
       -0.16090378 0.22137384 0.40500063 -0.115910396
000080 7f 09 bd 3d ed 8c 8f 3d f0 ef 3b bd 07 52 93 3c
       0.09230327 0.07009301 -0.04588312 0.01798345
000090 ae a9 0d bd df a1 bd bd a4 98 ee bd ea 13 c1 bc
       -0.034585647 -0.0925939 -0.11650208 -0.023569066
0000a0 54 85 08 3e 55 1a bd bb ee 80 cf 3a cb 32 c7 bd
       0.1333211 -0.0057709613 0.0015831271 -0.09726485
0000b0 a5 54 d0 bd 5c 50 cc 3c 9f 9d 2c 3d bd 1d 28 be
       -0.10172395 0.024940662 0.042142507 -0.16417594
0000c0 9a 41 9c 3d fd db bd 3d 3e 39 ae 3e 5e 13 2a 3e
       0.076297 0.09270475 0.34028047 0.1660895
0000d0 5d a4 b0 bd e5 24 8c 3e 61 f9 f7 3d 01 0c ac 3d
       -0.086251 0.27371898 0.12108112 0.08400727
0000e0 96 db af bd fb a9 1e 3d a1 c6 84 be 80 33 9b 3e
       -0.085868046 0.038736325 -0.25932792 0.3031273
0000f0 d0 af bd 3e 68 62 b1 bd 42 70 4c 3d d2 5c 12 3c
       0.37048197 -0.08661348 0.049911745 0.008933263
000100 6e b5 d0 3d b0 bb c3 36 34 e6 b8 3c 63 8b 11 be
       0.10190855 5.8333026e-06 0.022570707 -0.14213328
000110 a7 0b c9 3d 43 b5 76 bd 56 b3 bd bd 9d a6 b1 3c
       0.09816676 -0.06023146 -0.09262721 0.021685893
000120 76 07 06 3e a9 f1 55 3d d4 bf 8a 3d d8 49 02 be
       0.13088784 0.05223242 0.067748696 -0.12723482
000130 08 77 3a 3d f0 5e c0 bd 3f 6f 8c bd 97 a1 e2 bd
       0.045523673 -0.09393108 -0.06857156 -0.11065977
000140 dd f0 93 3b 59 b0 ef bd fa da dc bd bf 77 74 bd
       0.004514797 -0.117035575 -0.10783954 -0.05968451
000150 7f 11 3f be cf 05 d3 3b a9 12 c0 3a 47 8a ec 3d
       -0.18659018 0.0064399014 0.0014653999 0.11549812
000160 51 de a0 3b 5f 6d be 3d ea 5e 0e bd 58 56 ea 3c
       0.0049093147 0.09298205 -0.034758486 0.028605625
000170 fc f6 60 bd 91 13 ec 3d 62 3f dc 3d 45 48 53 3e
       -0.054923043 0.115271695 0.10754277 0.20633037
000180 c1 d1 59 bd 24 3b 45 bd af db 35 3e 9f 68 90 be
       -0.053178553 -0.048152104 0.17759584 -0.2820482
000190 cd 37 32 be b5 c1 67 3d c6 bc 9c bd e4 24 57 3e
       -0.17404099 0.056581218 -0.07653193 0.21010166
0001a0 dc 8f a1 3d f2 10 46 3e 2d f5 e0 bc 37 04 98 3c
       0.07888767 0.19342402 -0.027460659 0.018556697
0001b0 c5 67 7c bc 69 4c 09 3e 2c 83 09 3e 67 b2 55 3e
       -0.0154056 0.13408054 0.13428944 0.20868836
0001c0 64 a9 ad 3d 5c 27 f8 bd 44 23 a1 be bd 7b 45 bd
       0.08479574 -0.12116882 -0.31472218 -0.04821371
0001d0 53 06 11 3e 56 57 c4 be 37 21 5c bd c4 a9 34 bd
       0.14162569 -0.38347882 -0.053742614 -0.044107214
0001e0 3e d9 21 3e cd 74 ca bc 61 d7 9e 3e 58 81 83 be
       0.15805528 -0.024713898 0.31023696 -0.2568462
0001f0 4b e9 8e be ce ac 5c 3d 1f d8 e5 bc 56 42 bd 3d
       -0.27912363 0.053875737 -0.028057156 0.09241168
000200 8e 8c 5c bd 90 6a b3 3c 42 cf 22 be fe c3 11 bb
       -0.05384498 0.021901399 -0.15899375 -0.0022242065
000210 1b cc 3c 3e 33 fc a6 3d 10 bc bf 3c 7d 9b cb bd
       0.18437235 0.08153572 0.023405105 -0.099417664
000220 f8 7d 2b be f0 e1 28 be 88 45 9d bd e2 57 5d bd
       -0.16747272 -0.16492438 -0.07679278 -0.05403889
000230 ba 5a cb bd 85 c7 86 3d de 22 ee bd 12 94 24 be
       -0.09929414 0.06581024 -0.11627744 -0.1607211
000240 20 0c a4 3d c7 3f 71 3d 0e b8 1e 3e 70 52 ed bd
       0.08010125 0.058898713 0.15499899 -0.11587989
000250 59 b3 42 bd ba d1 0c 3e 80 0b 39 be ff 09 65 bd
       -0.04753432 0.1375188 -0.18070793 -0.055917736
000260 af f6 c1 3c fd 2b 97 3b ba 58 3d bd 7a a2 cc 3c
       0.023677198 0.004613398 -0.046227194 0.024979819
000270 a1 96 b6 3d 76 d3 10 be dc d0 90 3d 9c 28 f0 bc
       0.08915449 -0.14143166 0.07071087 -0.029316239
000280 71 96 17 bc 0a 54 83 3c 43 86 1a 3e 0b ab 3e bd
       -0.009252177 0.016031284 0.1509028 -0.046549838
000290 85 5f a6 3d 95 ad 8f 3e 9d 48 09 3e 68 d0 c1 3d
       0.08123688 0.2806212 0.13406606 0.094635785
0002a0 a2 c7 83 3d 26 49 77 3d 0b 8b dc bd a0 93 e1 3d
       0.06434561 0.060372494 -0.10768708 0.11014485
0002b0 93 ad 39 3e 83 d9 e6 bd 31 86 9b 3c 7f 47 47 3e
       0.1813262 -0.11271956 0.018984886 0.19460867
0002c0 70 44 85 bd 7c b6 18 3e 9a 8b 98 3b b4 75 45 be
       -0.06507194 0.14913362 0.0046553137 -0.19283181
0002d0 f1 82 3e 3e a2 50 38 3e 43 d1 e3 3b e7 82 49 bd
       0.18604638 0.17999509 0.006952436 -0.049197104
0002e0 4a e9 16 bd 11 d9 56 3e 9b bf 9b bc 5f ef f5 bc
       -0.036843576 0.20981242 -0.019012263 -0.030021368
0002f0 b9 30 f0 3d ee 71 8e be 63 62 5f 3e 01 af 02 be
       0.11728043 -0.27821296 0.21814875 -0.12762071
000300 95 ac 83 bd 27 c8 a1 3d 24 f8 88 3e 56 2b 91 3c
       -0.06429402 0.07899504 0.26751816 0.01772086
000310 71 ee 54 bd b4 da 57 3e 20 e9 af bd 0e fc 9b 3d
       -0.051985208 0.21079522 -0.08589387 0.07616435
000320 b0 ca 26 3e 27 cc 24 3e 40 c4 3e be af 5e 7a 3d
       0.16288257 0.16093503 -0.18629551 0.061125454
000330 7d 3c 6a 3e 04 b1 63 bd 72 2e 18 3e c3 7c 39 3d
       0.22874637 -0.055588737 0.14861467 0.045284998
000340 3e ea 81 bc c4 68 21 3d 39 c0 36 3d dd 8a c6 bc
       -0.015858766 0.039406553 0.04461691 -0.024236137
000350 76 cc c7 bc e2 e5 61 3d 02 04 26 be ce 31 1a bd
       -0.024389487 0.055150874 -0.16212466 -0.037645154
000360 90 ce 3c 3e 1a 5d b8 3d 52 b8 e6 3d 9e e0 43 bd
       0.18438172 0.09002133 0.11265625 -0.047821634
000370 41 ea 8e bc aa ba 01 be 8b 8a 75 3d 64 e0 96 3d
       -0.017445685 -0.12668863 0.059946578 0.07367018
000380 11 68 c7 3a 30 5d 43 3e 14 d4 6e 3e 4e 83 e6 bc
       0.0015213509 0.19078517 0.23323089 -0.028138783
000390 6d df 9b bd c7 88 67 3d 74 76 24 be 41 97 7f 3e
       -0.076109745 0.056526925 -0.16060811 0.24960043
0003a0 fa ec a6 3d dc 03 3c 3e e9 0d 31 3d 98 ef 21 3e
       0.081506684 0.18360847 0.043226156 0.15814054
0003b0 10 c3 21 3e c9 2a db 3d ea 91 82 3d 82 ab 47 3e
       0.15797067 0.1070152 0.06375487 0.19499019
0003c0 dd c9 29 bd a4 24 85 3d db 8a ee bd 61 70 b9 be
       -0.041452277 0.06501129 -0.11647578 -0.3621855
0003d0 5e 34 78 3e 77 68 d5 bd 84 9e a1 be f2 0f 4f 3d
       0.24238726 -0.10420316 -0.3156625 0.050552316
0003e0 76 19 b3 3e 7e 30 4e 3d b5 47 57 3e f9 de 5e be
       0.34980363 0.050339215 0.21023448 -0.21764745
0003f0 2d bf 5b 3d 42 31 09 3e 39 e8 0a 3e 79 02 12 be
       0.053649116 0.13397697 0.13565148 -0.14258756

gru.weight_hh_l0 f4 [192, 64]
000000 d0 16 11 be 42 3b b5 bd 05 76 7c 3e 63 d0 d8 3d
       -0.14168859 -0.08849193 0.24654396 0.105866216
000010 ea 82 c4 3d 21 50 0e 3e d4 e5 4a bd e6 0f 2f 3e
       0.095952824 0.13897754 -0.049535587 0.17095909
000020 f0 1b 8a 3d b1 af 98 bd c2 b2 37 3e 92 ba 46 bc
       0.0674361 -0.074553855 0.17939284 -0.012129443
000030 61 63 85 bd 71 a0 27 3e 5c b8 2d bd d8 8c 30 3e
       -0.06513096 0.16369797 -0.042412147 0.17241228
000040 35 36 c2 3d b6 0a 83 3d ec 08 1d bd 92 28 17 3e
       0.094829954 0.06398527 -0.038338587 0.1476157
000050 5a 81 fe bd 77 0a 01 3e 1c 5a 99 3d 81 bc a0 bd
       -0.124270156 0.12601648 0.0748789 -0.07848454
000060 84 8a 32 3d ca 85 dd 3d a2 04 f9 3d b7 32 8d 3d
       0.04358913 0.10816534 0.12159087 0.06894439
000070 f2 36 6e 3c f4 b1 ca bd 3a 88 3e 3c 23 66 54 bd
       0.014539467 -0.09897223 0.011629159 -0.051855218
000080 e0 f0 2f bd a0 c2 e7 3c 31 72 1c bc 4a 26 34 3e
       -0.042954326 0.028291047 -0.00954871 0.17592731
000090 e7 85 6a 3d af f7 96 bd 23 53 53 bd b0 10 41 3b
       0.057256605 -0.07371461 -0.051592957 0.002945941
0000a0 17 be 99 3d 4c 86 68 bc fa 66 39 bc a7 4a 80 3e
       0.0750696 -0.014192175 -0.011316055 0.25056955
0000b0 0e 08 ed bc b0 eb e5 bd 5e 5c 62 be 40 2b 7a bd
       -0.028934505 -0.112265944 -0.22105548 -0.061076403
0000c0 81 2f 1b 3e eb 64 12 3e 6a 1e 5d be e6 40 12 3e
       0.1515484 0.1429631 -0.21593633 0.1428257
0000d0 3c 83 90 bd 32 34 7e bd 31 39 56 ba 2b ca 1c bd
       -0.07056281 -0.062061496 -0.00081719743 -0.03827874
0000e0 52 6c 21 3e 46 73 95 3d d8 07 92 3d 5b 72 c9 bd
       0.15763977 0.07297377 0.07130402 -0.09836265
0000f0 90 cc 57 3e 33 da c8 bd d3 c2 34 3b df 5e 0c 3b
       0.21074128 -0.09807243 0.0027581945 0.0021418852
000100 0f 1a 80 bc 63 2f 0f be 74 ea d9 bc 99 6f 43 bd
       -0.015637426 -0.1398292 -0.026601054 -0.04771385
000110 3f 1f fe bd 5e af 91 3d 19 f8 b0 3d b5 38 49 3c
       -0.124083035 0.07113527 0.08641071 0.012281586
000120 b8 0d 91 bb b5 59 80 bd e2 55 64 be 46 b2 f8 3d
       -0.004426684 -0.0626711 -0.22298387 0.12143378
000130 4e fc d2 bd 64 7e 24 bd 62 c8 ed bd 72 37 84 3e
       -0.103020296 -0.040159598 -0.116104856 0.2582355
000140 a5 f2 e8 bc 31 8f c3 3d 25 39 cc 3d 1c 41 1c 3e
       -0.028436014 0.09548796 0.09971837 0.15259212
000150 9f af 8d bd 0b 4a 2a bc a6 e2 a8 3d 0f c8 12 be
       -0.06918263 -0.01039363 0.08246355 -0.14334129
000160 75 2e f6 bc 82 cb bc 3d 62 30 7a 3d b1 e9 6a 3d
       -0.03005145 0.092185035 0.061081298 0.05735177
000170 8b a1 70 3d de bb fe bc eb 87 8b 3d 49 f6 94 bc
       0.05874781 -0.031095441 0.06813034 -0.018183844
000180 2b 5b d2 bd df a7 ce 3d 37 15 46 3e 98 e5 3c bd
       -0.10271295 0.100906126 0.1934403 -0.046117395
000190 27 9e e5 bc 99 55 43 3d 46 3b d2 bd f1 37 da bd
       -0.028029514 0.047689054 -0.10265212 -0.10655201
0001a0 6e 6b bf bd f0 98 02 be 55 61 fc bd 0d 55 03 3e
       -0.093466625 -0.12753654 -0.12323252 0.12825413
0001b0 08 ff be 3d f2 ae 50 3d a9 16 00 be 6c 9a 93 3d
       0.09325987 0.05094809 -0.12508644 0.07207188
0001c0 17 cf c1 3c 1f d4 52 3d 2f e3 31 be 22 e9 40 be
       0.023658318 0.051471826 -0.1737182 -0.18838933
0001d0 d6 1d ff bd 99 df dd bb 6b cc a1 bd e3 12 5d 3d
       -0.12456863 -0.0067710397 -0.07900318 0.05397309
0001e0 3e 77 49 3e b6 df 5d 3d 87 0a e7 3d cb 36 a2 bd
       0.19674394 0.054168426 0.11281305 -0.07920607
0001f0 67 1a a1 bd da 1f 47 3c 61 3d bb bd 19 da 83 bd
       -0.07866364 0.01215359 -0.091425665 -0.06438083
000200 36 00 b3 be fe a5 33 3d 20 0f c8 bb 99 43 04 be
       -0.34961098 0.043859474 -0.0061053187 -0.12916411
000210 df b3 88 ba 4b 03 21 be 44 38 b0 bd 1e 9e a5 bd
       -0.0010429582 -0.15723912 -0.08604482 -0.08086799
000220 ad 77 c3 3d 02 1b 38 be 7c 6f 08 3d d4 62 36 be
       0.09544311 -0.17979053 0.033309445 -0.17811137
000230 9c 76 0d 3d 05 f0 80 be 00 8a 89 3d 06 05 49 be
       0.034536943 -0.2518312 0.067157745 -0.19630823
000240 0e 0b 18 3d 28 ba d2 bd 98 66 5e be 01 26 40 be
       0.037119918 -0.10289413 -0.21718824 -0.18764497
000250 1c ac 75 bd 91 d7 1f be 9c df e3 3d ad 9b c9 3b
       -0.05997859 -0.15609576 0.111266345 0.006152591
000260 30 d5 60 3c c1 1f 77 be 69 e3 1c be f6 fd 3b bd
       0.013722703 -0.24133207 -0.15321125 -0.045896493
000270 f1 1c 1c be 00 9b b6 3c 64 31 5b be 3e 20 64 3d
       -0.15245415 0.022290707 -0.2140556 0.05569481
000280 7f 46 93 3e be 17 f0 bd 16 06 6a 3e 85 85 d3 3d
       0.28764722 -0.117232785 0.22853884 0.10328201
000290 48 8f ab bd 47 fe 67 bd fc c2 2f 3e f3 9a 89 bd
       -0.08376938 -0.056638982 0.17164224 -0.06719007
0002a0 ef cf c5 bd 55 ca 1c 3e d7 e5 f9 3d 74 a4 7b bd
       -0.09658801 0.15311559 0.122020416 -0.06143613
0002b0 63 c2 68 bd df 9d 76 bd 88 db dc 3c c0 fa 3e 3e
       -0.056826007 -0.06020915 0.02696015 0.18650341
0002c0 f1 1c 9b bc e5 48 12 be b3 2e 9a be fb 72 5b 3e
       -0.018934699 -0.1428562 -0.30113754 0.2143058
0002d0 ad 84 8e be 53 dc 57 3e aa ab b0 3d e2 06 36 bd
       -0.278356 0.21080141 0.08626492 -0.044440158
0002e0 8f ae dd 3c c6 5a 04 bd 8f e0 84 be 8b 99 58 3d
       0.027060775 -0.03231313 -0.25952575 0.052880805
0002f0 0b 61 1a 3e a1 55 1f be 8b 23 c0 bd 83 1b 3c 3e
       0.15076081 -0.15560009 -0.09381779 0.1836987
000300 57 6b 37 bd fc 75 06 be 9a 16 0e bc 3a a0 34 3e
       -0.0447801 -0.13130945 -0.008672381 0.17639247
000310 05 0a 2b 3e e7 51 95 3d bf 40 14 be f7 f9 7e 3e
       0.16703041 0.07291012 -0.14477824 0.24900042
000320 5a 14 f0 3d dd 4a a2 bd 5e f1 58 be 7d 57 87 bc
       0.11722632 -0.07924435 -0.21185824 -0.01652121
000330 d8 27 a6 3e f4 f9 b5 bd a2 e2 8d 3d 2a 67 d3 3b
       0.32452273 -0.088855654 0.069279924 0.006451507
000340 55 3c 62 3e 7a e6 6e 3d 57 b5 03 3e b7 d1 bf 3d
       0.22093327 0.05832527 0.12862144 0.09366172
000350 37 31 47 3e 5f ea 3c be f1 0e 03 be 84 30 8d be
       0.19452368 -0.1844878 -0.12798668 -0.27576077
000360 1f 27 af 3d 71 06 75 3d 5a f8 2f 3e 8d b9 05 3d
       0.08552384 0.059820596 0.17184582 0.03264766
000370 48 c7 60 3c 58 24 73 3d 75 4e 1f be 0e dc b2 3d
       0.013719387 0.059360832 -0.15557273 0.08733378
000380 fa d8 10 3d 8f 52 b9 bd fd 17 a4 3c 24 37 2b 3e
       0.035363175 -0.0904895 0.02003097 0.16720253
000390 00 e4 38 3d 2b 61 43 be 35 0a ca 3d 71 23 84 3e
       0.045139313 -0.19080035 0.09865228 0.2580829
0003a0 75 d6 c0 bd 2d 2b f3 bb c1 15 cd bd 00 ce 6c 3e
       -0.094159044 -0.0074209184 -0.10013915 0.23125458
0003b0 5b a8 29 be d3 5f b7 be ef f4 55 be 50 18 f7 3d
       -0.16568129 -0.35815296 -0.20894216 0.12065184
0003c0 a2 5b 74 3e 85 23 2f bc 0d 5e 3e bd 78 b2 90 3d
       0.2386308 -0.010689621 -0.046476413 0.0706529
0003d0 14 b7 b2 bd b5 a6 7d be 52 84 6e 3e c2 3e c3 3d
       -0.08726326 -0.24770625 0.23292664 0.095334545
0003e0 50 12 a8 3e 1c 4d 09 3d aa 20 ee 3d 0b 90 c6 bd
       0.3282647 0.033520803 0.11627324 -0.09695443
0003f0 66 02 63 3e 2b e7 3f 3d 71 01 4f 3e 33 6b 9b 3c
       0.22168884 0.04685132 0.20215394 0.018972015

gru.bias_ih_l0 f4 [192]
000000 ac 76 09 bd 2f b7 e0 3d 21 f5 e4 3d f9 56 c2 3c
       -0.03356044 0.109724395 0.11179567 0.023723112
000010 bd 5e 08 3e 7d 4c 0f 3e cc 73 95 3d ea 69 e0 bd
       0.1331739 0.13994022 0.07297477 -0.109577015
000020 31 14 88 bd b0 cc a2 3d e5 53 cc 3c 96 6b e0 3d
       -0.06644476 0.07949197 0.024942348 0.109580204
000030 8f 26 14 3e 61 1c 86 3c 1f 52 59 3e af 56 77 3e
       0.14467834 0.016370954 0.21222733 0.24154161
000040 4d c2 8a 3d 9f 0d 12 3e 14 14 00 3e e1 88 80 3d
       0.06775341 0.14263009 0.12507659 0.062761076
000050 59 ac 2f 3e 7c ee 1a bd c1 b3 09 3d e4 7a 15 3e
       0.17155589 -0.037825093 0.033618692 0.1459766
000060 5b dd 64 3e f2 0c 75 3d 56 c1 5e 3e d8 07 4e 3e
       0.22350065 0.0598268 0.2175344 0.2012018
000070 1a fe 20 3c 7f e8 3f 3e 8b ff 69 3e c0 c9 b8 3d
       0.0098262075 0.18741034 0.22851388 0.09022856
000080 57 0d 2c 3b bd a3 c5 3c 59 f4 80 3e c7 1b ef bd
       0.0026253068 0.024125928 0.25186422 -0.1167522
000090 fe 08 9d 3d 7e 17 68 bd 36 cd c4 bd 0a 59 ce 3d
       0.07667731 -0.05666303 -0.096094534 0.100755766
0000a0 92 97 0d 3e 21 11 3c 3e 98 60 fe 3c a2 fa a3 3e
       0.1382735 0.18365909 0.031051919 0.32027155
0000b0 12 b6 0a 3d 82 d7 52 3d 72 94 e1 bc fc eb e9 3d
       0.033865042 0.051475056 -0.027536605 0.114219636
0000c0 81 f1 a7 bd 13 3f e7 3d 51 3a f1 bc 21 14 1b 3e
       -0.0820036 0.11291327 -0.029446753 0.15144397
0000d0 ac 50 04 3e 4b 47 40 3e 69 bf e8 3b 5f 37 6e 3b
       0.12921399 0.18777196 0.007102896 0.0036348922
0000e0 7c cd 5f bd f9 5f 06 3e da 13 83 3e ba ec c7 bd
       -0.054639325 0.13122548 0.25601083 -0.09761949
0000f0 95 88 d9 3d bd ef 6d bd e2 45 18 bd cb b3 32 3e
       0.10621754 -0.05808996 -0.03717602 0.17451398
000100 6f 7b f6 3b bb 68 d9 3d 97 e5 0b be ad 59 b6 3c
       0.0075220386 0.10615679 -0.136618 0.022259558
000110 d3 c3 24 3d 25 8e 5e be 6b f2 15 be 01 a8 b2 3d
       0.040225815 -0.21733911 -0.14643256 0.087234505
000120 cd 7d fa 3d fb f5 21 3e fb 2a c7 3d bb 84 ba bd
       0.12231026 0.1581649 0.09724995 -0.091073476
000130 88 83 5c bc fb 85 86 bd de 4a 7e be fa 53 96 be
       -0.013459094 -0.065685235 -0.24833247 -0.29360944
000140 d8 d8 89 bd 73 f0 e1 3c 6c 76 8e 3d 02 f6 65 be
       -0.06730813 0.027580475 0.06956181 -0.22457126
000150 db 88 cf bd 37 06 67 bd 30 4e 8d 3c 9b 57 d8 bc
       -0.10133525 -0.05640241 0.017249197 -0.026408961
000160 5d 5e 03 be b4 c1 77 be 28 e5 06 be 66 8d 0a be
       -0.12828965 -0.24194986 -0.13173354 -0.13530502
000170 b7 6a cc bc 43 69 8f bd 91 b2 0f be 13 fe d7 3c
       -0.02495323 -0.07002499 -0.14032961 0.02636627
000180 31 14 dd 3a e7 2f c9 bd 74 a5 ae 3b 0e a0 16 3c
       0.001686698 -0.0982359 0.005329782 0.009193433
000190 18 66 d6 bd 6d d6 61 bd 71 73 0f bb b1 24 15 3d
       -0.104686916 -0.055136133 -0.0021888877 0.036411945
0001a0 22 bc 22 bd 49 91 19 3d 0a 68 1a 3d 65 08 3c be
       -0.0397302 0.03749207 0.037696876 -0.18362577
0001b0 03 46 8e bc 6c c2 b9 bd 65 b4 f6 bc b5 db 71 3e
       -0.017367369 -0.09070286 -0.030115316 0.23618968
0001c0 c6 14 53 bd 18 1c 9c be b3 28 df 3e 99 56 39 bd
       -0.051533483 -0.30490184 0.4358574 -0.0452486
0001d0 4c b3 98 be 17 12 a3 bc 20 7b 44 bd c3 89 8a 3d
       -0.29824293 -0.019906087 -0.047968984 0.06764557
0001e0 8c 58 d5 bc 0f 86 a6 bb 60 95 8c bd c3 d8 23 bd
       -0.026043199 -0.005081899 -0.068644285 -0.040001642
0001f0 d1 d3 2a be cf 52 cb 3d 2c 50 39 be 65 1e cd be
       -0.16682364 0.09927904 -0.1809699 -0.40062252
000200 30 8f 48 bd 62 24 02 be 01 21 b5 bd 09 7c 80 3c
       -0.04896468 -0.12709191 -0.088441856 0.015684145
000210 fa b9 06 3d 1c a4 12 3e 33 80 54 3d 92 2a a4 bc
       0.032892205 0.14320415 0.051880073 -0.02003983
000220 82 fa 5e 3d ef 6d c6 bd b6 a6 db bb 4f 97 15 3e
       0.05443812 -0.09688937 -0.006703223 0.14608501
000230 49 19 97 bd ae 2a 08 3e 08 54 04 be c2 2f 4f 3b
       -0.0737787 0.13297531 -0.1292268 0.003161416
000240 b8 42 f1 3d 50 4c d3 3d a5 cc a2 bd 53 99 10 3d
       0.11780304 0.1031729 -0.07949189 0.03530247
000250 ec f9 13 3e 3b d1 8c bc 35 e7 9a bd 3a 87 6f 3d
       0.14450806 -0.017189613 -0.075636305 0.05847857
000260 3d 99 f0 3c af 78 25 3d 03 cf 70 bd d0 00 39 3d
       0.029369945 0.040398296 -0.05879117 0.04516679
000270 14 22 31 bd 11 28 38 3d 02 d3 18 bd d3 a0 ab 3d
       -0.04324539 0.044960085 -0.037310608 0.08380284
000280 d8 8d 06 be 02 54 e5 3d bd 85 cd 3d 7d 3b db 3d
       -0.13140047 0.11197664 0.10035274 0.10704706
000290 31 15 e1 bd ef ec 46 3d 03 73 f8 bb 8f 1a d6 bd
       -0.1099037 0.0485658 -0.00758207 -0.104542844
0002a0 90 e4 a6 3d fc b3 23 ba d9 c6 20 bb 47 ea 2f bc
       0.081490636 -0.00062447763 -0.0024532585 -0.010737008
0002b0 4c fb 0f 3d 63 cf 09 be 70 5a e1 bd 4b e1 fa 3c
       0.035151765 -0.13458018 -0.11003578 0.030625006
0002c0 7f 7f 25 bd 84 22 37 bd aa b2 97 3d 2c d6 26 bd
       -0.040404793 -0.04471065 0.07407124 -0.040731594
0002d0 63 ea ae bd fc 41 ef 3c 55 6e d9 bd 7d a3 8e bd
       -0.085407995 0.029206268 -0.10616747 -0.06964777
0002e0 d9 99 0f 3d ff 04 53 bd a4 8c af 3d c0 28 54 bd
       0.03505883 -0.051518437 0.08571747 -0.051796675
0002f0 fb 55 72 bd f8 b8 f4 bd dc 72 c2 3d f7 3d 1c bd
       -0.05916403 -0.119493425 0.09494564 -0.03814503

gru.bias_hh_l0 f4 [192]
000000 e0 ec 65 bd 89 3f 8b bd 9f 48 2f bd 44 e5 1f 3e
       -0.056134105 -0.06799228 -0.042793866 0.15614802
000010 a6 12 dd 3d 0f d7 8e 3c 24 74 96 3d ae b3 aa 3d
       0.107945725 0.017436532 0.07346371 0.083350524
000020 93 62 a2 3d 00 88 29 3c ea 5c d9 3d f6 62 59 3d
       0.07928958 0.010347366 0.10613425 0.053072892
000030 51 8b 5e 3d f6 4a 69 3e e5 1e 3c 3e a4 b1 85 3e
       0.05433208 0.22782502 0.1837116 0.26112092
000040 14 76 92 3c 60 d7 81 3d 94 6c ed 3d 79 46 f3 3b
       0.01787857 0.06339908 0.11592975 0.0074241725
000050 f9 28 25 3e bf cb e2 3b ae 54 b4 3c c4 0b 26 3d
       0.16128911 0.006921261 0.022013035 0.040538564
000060 2a 71 80 3e 13 00 f2 3d 2f 42 05 3e 0f 0f 71 3d
       0.25086337 0.118164204 0.13013528 0.05885225
000070 37 54 cc 3d ac 1e 84 3c 59 ae ec 3d 67 17 0b 3e
       0.09977 0.016127907 0.11556692 0.13583146
000080 16 fe 5b 3d e0 a7 89 bd 9b 71 53 3e 53 2c a4 bd
       0.053709112 -0.06721473 0.20648806 -0.08016267
000090 9c b2 4d 3d 0e ea bb 3d 52 6e 41 3d c8 c6 4d 3e
       0.050219163 0.09175502 0.04722435 0.2009536
0000a0 27 27 82 3e b6 16 da 3d e2 41 ed 3d da a2 94 3e
       0.25420496 0.10648863 0.11584832 0.29030496
0000b0 3c 29 32 3d 3d 32 c5 3d df 9c be 3d 8a 56 29 3d
       0.043496355 0.09628723 0.093072645 0.041342296
0000c0 39 b4 70 bb 14 3d 4d 3e ca cb 83 3d 37 78 40 3d
       -0.0036728515 0.2004283 0.06435354 0.046989646
0000d0 5a a6 50 3e 99 36 93 3d ed fa b3 bb 5e c9 0e be
       0.20375958 0.07188148 -0.005492559 -0.13944003
0000e0 09 cb f9 bc c3 68 18 3e da 90 6f 3e d3 d0 82 3d
       -0.030492323 0.14883713 0.233951 0.06387486
0000f0 c5 27 ff 3c b2 70 fc 3c 34 73 a4 3b 5b 04 28 3e
       0.031146893 0.030815456 0.005018616 0.16407911
000100 4d fd c5 3d e1 bc c4 3d d3 d4 59 be 35 ab 8b 39
       0.09667454 0.09606338 -0.21272592 0.00026639705
000110 73 aa d1 bc c9 a9 73 bd a1 4c 1d bd 80 0d 76 3c
       -0.025593972 -0.05948809 -0.038403157 0.015017867
000120 3b 4a 46 3e 16 a1 81 3e 85 be e0 3c ea 3c 44 be
       0.19364254 0.2531821 0.027434597 -0.19163862
000130 93 19 cb bd 04 02 65 bd ee 2c 3c be fa 1e 8a be
       -0.09916987 -0.055910125 -0.18376514 -0.26976758
000140 fa 78 8c bd fa ab 71 bd 9f 56 27 3e 5d a0 ca bc
       -0.06859012 -0.0590019 0.16341637 -0.02473467
000150 be 7f 52 be 07 d1 85 3d 98 83 14 3d cf 89 b0 bc
       -0.20556542 0.065340094 0.03625831 -0.021550087
000160 17 7c b1 bd d4 10 76 bd da 46 06 be 32 ba 60 bc
       -0.086662464 -0.060074642 -0.13112965 -0.013716267
000170 95 74 13 3e 95 b9 ee 3c 83 a3 37 be e9 a9 9c 3d
       0.14399941 0.029141227 -0.17933469 0.07649595
000180 eb f3 0e bd 9a 3c d1 bc e5 e3 22 be ce 76 b6 3d
       -0.034900587 -0.025541592 -0.15907247 0.08909379
000190 eb b9 52 3d ff cf 37 3d c5 b7 13 3d dc 45 01 3e
       0.051446836 0.044876095 0.03606393 0.12624305
0001a0 aa 8e 84 be 7a 7a 8f 3d 3a f0 a5 3d 23 59 3e be
       -0.25890094 0.070057824 0.0810246 -0.1858869
0001b0 93 8b 9c bd c0 22 d1 bd 7a 83 f8 bd 99 6a 29 3e
       -0.07643809 -0.10211706 -0.12134452 0.1654457
0001c0 d1 d0 f4 bc fe 7c 9a be 4b 4c be 3e aa dc bb ba
       -0.029884728 -0.30173486 0.37167582 -0.0014332731
0001d0 b8 78 d4 bd 22 cd 2d be 51 cf 0b be b7 d4 9d bd
       -0.10374588 -0.16972783 -0.13653304 -0.07706588
0001e0 bb 20 6d bc 30 dd 7a 3c 09 00 99 be 00 d0 90 bd
       -0.014473136 0.015311524 -0.2988284 -0.07070923
0001f0 23 54 2c be 27 ab ce bd 37 08 38 bd 39 a3 85 be
       -0.1682897 -0.100912385 -0.04492971 -0.26101092
000200 3d 0f 70 bb a0 0e aa 3d 92 87 eb 3c e9 64 f7 bd
       -0.0036630176 0.08303571 0.028751168 -0.12079794
000210 16 fe a9 bd 04 01 3b 3d 26 46 54 bd 85 2f e0 bc
       -0.08300416 0.045655265 -0.05182471 -0.02736641
000220 36 89 4e 3d 13 b8 a1 3d 1c 8a c4 bd 2c 6c 37 3b
       0.050423823 0.078964375 -0.09596655 0.002798806
000230 0c ee 9a 3d 6e 4a 76 bc 6e a7 4c bd 30 c3 95 3c
       0.07564935 -0.015032394 -0.04996436 0.01828155
000240 32 87 13 3e 02 cb 44 bd 9d d9 30 bd 53 68 a4 bd
       0.14407042 -0.048045166 -0.043176282 -0.08027711
000250 10 c1 a4 3d 63 04 52 3d 57 cd 94 3c 86 2f e1 bb
       0.08044636 0.051273715 0.01816432 -0.0068721203
000260 d1 d8 33 bd 0b b7 51 bb 12 fe 35 3d 39 05 bd 3d
       -0.043907944 -0.0031999971 0.044431753 0.09229512
000270 aa 48 d9 3d 57 0c a1 3c 72 e7 06 3a 9e 13 88 bd
       0.10609563 0.019659204 0.00051461824 -0.06644367
000280 b6 00 59 3d 1a 18 00 bc ec b3 34 bd 38 12 94 3d
       0.052979194 -0.007818246 -0.0441169 0.072300375
000290 b2 f1 0c be 65 1a 40 bd b8 c7 e3 3d 76 81 57 3d
       -0.13764074 -0.04690017 0.11122078 0.052613698
0002a0 b4 56 c2 bc 43 d3 88 bd 63 b8 30 3d 4b b6 0b 3e
       -0.023722984 -0.0668092 0.043144595 0.13643758
0002b0 c8 b3 ed 3a a2 07 5c 3c 66 20 75 bd 9a 62 11 be
       0.0018135244 0.013429554 -0.05984535 -0.1419777
0002c0 37 63 2a 3b de 5d 3b 3c 38 5e df bd ef 08 ee bc
       0.0025999078 0.011435954 -0.10906643 -0.029056994
0002d0 bf e6 ab bd df 8e 33 3c fb 2f ee 3d a9 f7 f5 bc
       -0.08393621 0.010959356 0.11630245 -0.03002532
0002e0 d1 ff 86 bc fc 1c c0 3d 87 e5 c9 3d 94 0f d7 3d
       -0.016479405 0.09380528 0.09858232 0.10501018
0002f0 17 e8 ae 3d 40 72 80 3d 21 b6 27 bc 3e 93 91 3c
       0.085403614 0.062717915 -0.010236294 0.017770406

gru.weight_ih_l0_reverse f4 [192, 16]
000000 71 74 c2 3d 74 00 0f 3d f6 8e b3 bd 05 98 86 be
       0.09494866 0.03491254 -0.08767502 -0.26287857
000010 d9 a2 30 be b6 fd dc bd 11 b1 8d 3c eb a5 78 3e
       -0.17249621 -0.10790579 0.017296346 0.24282043
000020 21 b4 df 3d cd 07 af 3d f4 9e 04 3e d5 8e b5 3c
       0.10923029 0.0854641 0.12951261 0.022162834
000030 31 87 aa bd f4 26 fa 3c a9 12 5a 3c bc 7e 90 3d
       -0.08326567 0.030536152 0.013310113 0.07055423
000040 48 18 a0 bd 2e 30 ea bc f0 fb 4d 3d f5 1c 43 be
       -0.07817131 -0.028587427 0.050289094 -0.19054015
000050 06 b5 37 be c1 5d 6e 3e 2d 01 32 3d 87 2a 0b bd
       -0.17940149 0.23277952 0.043458153 -0.033976104
000060 49 58 6f 3c 6c 4e 25 3e e5 bb 92 bd 8f d4 77 3d
       0.014608451 0.16143197 -0.07164744 0.060505446
000070 dc 15 22 3e 91 61 9c bc 1b f2 89 bb 12 b6 e0 bc
       0.15828651 -0.019089492 -0.0042097694 -0.027430568
000080 0f 03 24 3d c6 79 24 bd df 38 8d 3d 2d 90 45 bd
       0.04004198 -0.040155195 0.06895613 -0.0482332
000090 2a bc 4d bd 9e 08 22 3e 56 a4 a3 bc 46 94 1f 3e
       -0.050228275 0.158236 -0.019975822 0.15583906
0000a0 23 a6 ef 3c b2 63 2d 3e 60 3f 8c bd 74 0b 5f 3e
       0.029254025 0.16932562 -0.06848025 0.21781713
0000b0 8f 4c ed bb 8e 66 ca bb 15 e4 e3 3c 88 34 30 3e
       -0.0072417925 -0.0061767763 0.027818719 0.17207539
0000c0 03 e1 3f 3e fa 08 7c bd ff c3 e1 3d 0b 33 09 bd
       0.18738179 -0.061532 0.110237114 -0.033495944
0000d0 81 2f 89 3c 79 e4 35 3d 77 d4 d6 3d a2 2d 40 3e
       0.016746284 0.04440734 0.10489743 0.18767408
0000e0 8c 03 be 3c d3 6b 24 3e f2 ea 80 3c 6f cc a2 bd
       0.02319505 0.16056757 0.01573703 -0.07949149
0000f0 ac 58 25 3d f9 ba cc 3d 8e fa 35 bd 2a 5a 0b 3e
       0.040367767 0.099966 -0.0444284 0.13608614
000100 e1 82 e9 3d 96 48 b1 3d bf 41 31 3e 42 dc 46 be
       0.11401916 0.08656423 0.17310236 -0.19419959
000110 62 aa 61 bd d6 fa fa 3d 6b 1e 43 3d 20 d8 84 3e
       -0.05509413 0.122548744 0.04763643 0.2594614
000120 cf e6 3c 3e 79 ec 3f 3e 45 77 e9 bc 99 73 8e 3d
       0.18447421 0.18742551 -0.028499255 0.06955642
000130 ca f4 b7 bc 78 9f 63 3d 0b da c5 3c fb f9 26 3e
       -0.022455592 0.055572003 0.024151823 0.16306297
000140 47 d5 cc 3d 60 16 81 3d 6e 5d 03 bc b6 56 4d be
       0.10001617 0.06303096 -0.008017881 -0.20052609
000150 66 17 45 be b4 da 32 be 62 20 5e bd 60 52 a9 3d
       -0.19247207 -0.17466241 -0.0542301 0.08267665
000160 c9 1e 81 3e cf 13 a5 3d 79 04 c9 3c da 51 bd bb
       0.252188 0.08060419 0.024538266 -0.0057775797
000170 79 a6 6a be 19 3e 84 3e f8 e7 b8 3d 84 2d ea 3c
       -0.22915067 0.25828627 0.090286195 0.028586157
000180 bd ba c7 ba e1 f9 c0 bd 0f 35 83 3e ac a7 42 3d
       -0.0015238147 -0.094226606 0.25626418 0.047523186
000190 a6 1d 20 be fb 78 b9 3b 4d e4 c7 3b a2 a5 54 3e
       -0.1563631 0.005660174 0.0061002136 0.20766309
0001a0 d4 52 08 bd 2b 94 15 3d ce 38 ee 3d 31 e2 0f 3e
       -0.033282116 0.036518257 0.116319284 0.14051129
0001b0 08 cc 56 3d e8 a4 39 3d 92 a8 94 3b 16 f2 b9 3d
       0.052440673 0.045323282 0.0045366967 0.09079377
0001c0 98 06 f7 bc 31 22 eb 3c 97 04 56 3e f6 bc 4e bd
       -0.030154511 0.028702827 0.20900188 -0.050473176
0001d0 5b 6f c4 3d f4 a4 6b 3e 77 ab d5 3d 6d d8 25 3d
       0.09591552 0.23012143 0.10433095 0.040489603
0001e0 f5 6f a1 bd be 8a 8a bd 59 1a 88 bd e4 e4 4e 3e
       -0.07882682 -0.06764744 -0.066456504 0.20204502
0001f0 92 01 2f 3e e5 42 08 be 35 02 69 bd 03 b9 19 bc
       0.17090443 -0.13306768 -0.05688687 -0.009382489
000200 a4 ea a0 3d f5 02 8d 3d c1 fb 81 3d f1 18 b8 3c
       0.07857254 0.0688533 0.06346846 0.02247283
000210 38 86 18 3e d6 59 ab bd 9a 9b be 3d a0 6a a9 bd
       0.1489495 -0.08366744 0.093070224 -0.0827229
000220 8d eb ef 3d 42 34 10 3d 9b 68 0d be 34 d5 bc bd
       0.117148496 0.035206087 -0.13809435 -0.09220353
000230 d3 f0 f3 3c b8 36 a4 3b 73 b6 92 bd 0f e4 7e 3d
       0.02977792 0.005011406 -0.07163706 0.062229212
000240 ca b5 92 3b 18 09 07 3e 2c 54 48 3e b6 fe 0c bc
       0.0044772374 0.13187063 0.19563359 -0.00860565
000250 09 5e 20 3e c1 7b 45 bd de 84 2f bd 8b 01 0c be
       0.15660872 -0.048213724 -0.04285132 -0.13672464
000260 88 73 13 3d 70 f2 02 bd 7d 34 f4 bc 85 e6 a7 3d
       0.03599885 -0.031969488 -0.029810185 0.08198265
000270 5d ed f7 3d 04 6e 8e bd 1e 12 11 be d7 ad b0 3d
       0.1210582 -0.069545776 -0.14167067 0.08626907
000280 3c 88 08 3e 0b e2 55 3e a2 cc 1f bd 18 35 22 3e
       0.1333322 0.2088701 -0.039013512 0.15840566
000290 0a fa ba 3d dd fe 2e bc b7 53 2a 3e 5e c6 33 3d
       0.091297224 -0.010680881 0.16633497 0.04389035
0002a0 30 79 98 bd 03 ec 1d 3d 30 d2 77 be 12 87 27 bd
       -0.0744499 0.038555156 -0.24201274 -0.040900297
0002b0 72 69 d9 3d e6 a7 35 be 46 7b a2 be 7c 6e 5a 3c
       0.10615815 -0.1773983 -0.31734675 0.013332006
0002c0 f9 dd 0c 3e a4 e3 a7 3d 7b d7 8a 3c de d7 3c bd
       0.13756551 0.08197716 0.016948452 -0.046104304
0002d0 d8 a4 45 bd c2 e7 09 be 0e a5 0d 3d 27 07 53 3d
       -0.04825291 -0.13467315 0.034581237 0.051520493
0002e0 66 ba 65 3e 2b cf 52 3d e5 52 b9 3d 65 f2 1b 3c
       0.22434387 0.051467102 0.09049014 0.009518241
0002f0 b9 f7 f1 bb c5 aa 67 bd 1d 8c 66 3d a6 8c 8c bc
       -0.007384267 -0.056559343 0.056285966 -0.01715691
000300 b3 e1 84 3e 23 8b 53 3d ec 8f 01 3e a3 ba 52 3d
       0.25953445 0.051646363 0.12652558 0.051447522
000310 8d 44 63 3e 77 8b 7a 3d 2c cb 8c 3e eb 17 ac bd
       0.22194119 0.06116816 0.27498758 -0.084029995
000320 b2 ab cd bd 80 2b b1 3c 73 e2 57 be b7 0d 79 bd
       -0.10042514 0.021627188 -0.21082477 -0.060804095
000330 c4 0c 9d 3e f1 67 5b be 64 5f ab be 33 af d8 3d
       0.30673802 -0.21426369 -0.33471215 0.105802916
000340 49 95 1e 3e 88 81 2b 3d 02 1a b7 bd ff cc 67 3c
       0.15486635 0.041871578 -0.089405075 0.014147996
000350 b3 18 b8 3d 77 bf 7e bd 9c eb 33 3e 85 9f 1f bd
       0.08989086 -0.062194314 0.17570347 -0.03897049
000360 0f f3 94 3d bb 7b d9 3d 0e cd 9c bc 2d 94 36 be
       0.07272922 0.10619303 -0.019140746 -0.17829962
000370 b0 9e c0 3d 7b 2d 23 be 5f e6 5a be cb ee d7 bd
       0.09405267 -0.15935318 -0.21376942 -0.10543593
000380 e5 41 93 3e 4f 59 19 3d 80 f0 06 3e dc 9e 98 3e
       0.2876121 0.037438687 0.13177681 0.298087
000390 6a 5c 2b 3e 55 86 d4 3d 23 fb b3 3e b5 1b 59 bd
       0.16734472 0.10377184 0.3515254 -0.05300494
0003a0 09 89 10 3d 88 66 d8 3d ec 1c 9c be 27 bc 00 3d
       0.035286937 0.10566431 -0.30490816 0.031429436
0003b0 f1 22 c6 3d 66 0b 0e be 0a 79 b1 be 21 9a ca bc
       0.09674633 -0.13871536 -0.34662658 -0.024731698
0003c0 20 d0 c8 3d 72 aa 92 bd 82 2e 4e 3e 39 58 04 be
       0.09805322 -0.07161416 0.20134929 -0.1292428
0003d0 88 96 11 be a5 da ff 3d 0f a3 d2 bd c7 d5 fb 3d
       -0.1421758 0.12492875 -0.10285007 0.12296634
0003e0 b8 bf 9c 3d 6a d8 c1 3d a1 13 96 bd 1a 8d 92 3e
       0.07653755 0.09465106 -0.07327963 0.28623277
0003f0 0f 32 ad bd a2 65 94 3d 06 69 30 3e d8 12 6c 3d
       -0.084568135 0.072459474 0.17227563 0.05763516

gru.weight_hh_l0_reverse f4 [192, 64]
000000 a1 6a 0b 3e 82 94 85 bd 37 d2 96 bd c6 5b f1 bd
       0.13614894 -0.06522466 -0.07364314 -0.117850825
000010 77 7f 00 be ef 8f 57 bd 2a ef f9 bc 70 2b 45 bd
       -0.12548624 -0.0526275 -0.03050955 -0.04813713
000020 ff 73 c4 bc c7 31 41 be 17 dd cb bd 64 9c 1c 3d
       -0.023981092 -0.18866645 -0.09954279 0.038235083
000030 1c af 4c 3c ef 53 d7 bb 6c 9f 60 3d 8b 30 80 3d
       0.012492921 -0.006571285 0.054839537 0.06259259
000040 9b 6e 87 3d 1d a1 66 3c e9 7d 6c 3d fa a0 b1 3c
       0.06612893 0.014076498 0.057737265 0.021683205
000050 a9 b1 2d 3e c8 58 70 39 9c 7f b7 bc 37 ee 51 3c
       0.16962303 0.00022921257 -0.022399716 0.0128131425
000060 ba fe e1 bd 7f fd f3 bd 33 9e d3 bd ca c1 f7 bc
       -0.11034913 -0.11913585 -0.103329085 -0.030243773
000070 3e 54 e5 bc e9 89 c2 bc 0f eb 8f 3d 2a b5 82 bd
       -0.027994271 -0.023747401 0.07027256 -0.063822106
000080 18 d9 ac 3d a2 55 09 bd 39 2a 17 3d 92 b8 36 be
       0.08439845 -0.03352893 0.0369055 -0.17843845
000090 99 06 1c 3d 68 9b 25 bd f6 d3 6c 3d c1 a7 ad bd
       0.03809223 -0.04043141 0.05781933 -0.08479262
0000a0 95 8d c8 3d 5d 0c 8c bc 01 db 82 3e 76 9d 2a be
       0.0979263 -0.017095739 0.25557712 -0.16661629
0000b0 2e b0 9b 3d 44 70 95 bd 80 e7 ff 3d 59 58 14 3e
       0.07601963 -0.072968036 0.12495327 0.14486827
0000c0 e5 84 ab bd e8 1f fb bd 13 b7 b8 bb ce 19 7f bd
       -0.08374957 -0.12261945 -0.0056370585 -0.06228047
0000d0 e5 a0 d7 bd 81 62 a8 bd 28 ac 3a 3d 36 d0 c3 bd
       -0.10528735 -0.08221913 0.045574337 -0.095611975
0000e0 99 54 b3 bd b1 85 cd 3d 7b 9c 12 3d 74 6e 8d 3d
       -0.0875637 0.10035265 0.035793763 0.06905833
0000f0 05 74 0b 3e 35 df 09 3e c1 ac b9 bc b0 cf d4 bd
       0.13618477 0.13464053 -0.022665383 -0.10391176
000100 44 1d a2 bd 54 cb 02 3d 94 e7 3e bd dc 1c 20 be
       -0.07915738 0.03193219 -0.04660757 -0.15636009
000110 f8 b2 47 3d 30 19 a8 3c 79 af 42 bd b7 8f 64 3e
       0.048754662 0.020519823 -0.047530625 0.22320448
000120 e7 7d 05 3e 34 fb 12 be 2a 44 8d bd b5 36 e9 3b
       0.13036309 -0.14353639 -0.06897767 0.0071171173
000130 d1 db 11 3e 1d de 07 3e ce b9 d2 bd 47 dd ab 3c
       0.1424401 0.13268323 -0.10289346 0.020979537
000140 c9 c2 d6 bd 64 7f 7a bd d2 33 34 bd 51 c0 0d 3e
       -0.10486371 -0.061156645 -0.043994732 0.13842894
000150 19 b2 f5 3d 23 97 1c be 80 e3 4a bc be c4 95 3d
       0.1199686 -0.15292029 -0.012383342 0.07312916
000160 d6 e8 fb 3d c7 67 67 3c fc db 12 bd 37 3c 7e bd
       0.12300269 0.014123864 -0.035854325 -0.062069144
000170 2b 2d c5 3c b7 53 c6 bc 78 f4 0d 3d 8d ae 18 bd
       0.02406939 -0.02420984 0.03465697 -0.03727584
000180 fc 63 e6 3d e3 5f d9 bc 58 b2 4c bd f6 26 8f bd
       0.11249539 -0.02653498 -0.04997477 -0.06989853
000190 90 d5 e2 3d b3 ae 2c be 67 9c 21 bd 5e 30 13 3d
       0.1107589 -0.16863517 -0.039455798 0.0359348
0001a0 20 ce 7d bd 5d 2e ba bc 02 26 02 3e b8 5c 6e bd
       -0.061964154 -0.022727186 0.12709811 -0.058193892
0001b0 8b fb 43 bc a8 36 e6 bc ef d4 81 bd ad 52 f8 bd
       -0.011961828 -0.028102234 -0.06339442 -0.12125144
0001c0 2b 36 4b 3d 1b 91 b0 3d 56 2c c9 3c 7f d7 78 bb
       0.049612205 0.08621427 0.024557274 -0.0037970243
0001d0 91 cc b5 3a 72 2f 0d be c5 34 0f 3e 71 f6 1e 3e
       0.001387017 -0.1378763 0.13984974 0.15523697
0001e0 7d a1 86 3d 48 fa 59 3e 2c dc 2d 3d 82 1b 9b 3d
       0.0657377 0.21286881 0.0424463 0.07573606
0001f0 6d 06 fc 3d b5 f2 63 3c c9 ba 81 bd 6c ca 58 bd
       0.12305913 0.013912846 -0.063344546 -0.05292742
000200 8d 67 cf bd 32 3e 13 bd ff 88 90 bd 2f a1 9a 3d
       -0.101271726 -0.035947986 -0.0705738 0.075502746
000210 53 89 69 3b d9 6d b4 bd 20 8f 51 bb eb 38 2f 3e
       0.003563483 -0.08810014 -0.0031976178 0.17111556
000220 d5 dc d2 bd 65 e3 97 3d fb 03 54 bc aa 5a e3 3d
       -0.102960266 0.07416419 -0.012940402 0.11101277
000230 11 55 83 bb 08 0a 99 3c 6f 3a 78 3b f7 1e bd 3d
       -0.0040079434 0.018681541 0.0037876626 0.09234422
000240 a1 ce a8 3d 69 08 c6 bd 29 2d aa 3d 1e 88 91 bc
       0.08242536 -0.09669573 0.08309395 -0.017765101
000250 b5 20 3b 3e 32 6c 73 3d 86 e7 ed 3d d5 52 22 bc
       0.18274195 0.059429355 0.11616425 -0.009907444
000260 df 03 cd bd f9 df 0a 3e 0d 10 66 bc 2b 91 06 3e
       -0.10010504 0.13562001 -0.014041913 0.13141315
000270 9a cb 5d bd 1b e6 ee bd 98 be bc bc d8 51 7f 3d
       -0.054149248 -0.11664983 -0.023040101 0.06233391
000280 d4 ab b3 bd 29 30 91 bc a7 6a ed 3d 50 a8 d3 b9
       -0.08773008 -0.01772316 0.11592608 -0.0004037046
000290 fc 85 a8 3d a0 73 09 bd 81 d9 03 be d1 4d 53 be
       0.082286805 -0.033557534 -0.1287594 -0.20635153
0002a0 2d 56 ea bd 82 23 9f bd 6a b1 51 bd e4 f9 c7 3d
       -0.11442218 -0.077704445 -0.051194586 0.0976446
0002b0 04 b3 b7 bc 0e 27 99 3d fb b4 90 bd 2d 00 12 bc
       -0.022424228 0.07478152 -0.07065769 -0.008911175
0002c0 75 1e 6d 3d 00 6b 32 3d 12 0b 35 3d d9 ac fb bd
       0.057890374 0.043559074 0.04420001 -0.122888274
0002d0 50 de e0 3c 43 0c 60 3b 8b 14 d4 3d 57 02 b8 bd
       0.027449757 0.0034186996 0.10355481 -0.08984821
0002e0 78 c7 05 3e 3c 28 e0 bd ff 40 1b 3e c3 59 e7 3c
       0.13064373 -0.10945174 0.15161513 0.028241044
0002f0 ee e4 ed bc 91 1a 9d bd 5b 4a 99 3c 55 cb 19 3d
       -0.029039826 -0.07671083 0.018712213 0.03754743
000300 6f 3c 3e bc b8 22 6c ba d1 6a 4e 3d 3c 02 00 bd
       -0.011611088 -0.0009007859 0.050394837 -0.03125213
000310 8c cc 14 ba 93 ed b6 bd 51 b4 98 bd 05 84 1c 3e
       -0.0005676232 -0.089320324 -0.074562676 0.15284736
000320 fe 64 11 bd 4c 42 05 be 17 a1 58 3d a1 06 74 bd
       -0.035496704 -0.13013572 0.052888002 -0.059576634
000330 10 e4 81 bd d5 90 8e 3d 13 8f 14 3e 37 b7 84 3e
       -0.063423276 0.06961218 0.14507703 0.25921032
000340 70 53 05 be 04 a4 86 bd 5e 86 cb 3d 31 39 f6 3b
       -0.1302011 -0.06574252 0.09937738 0.007514142
000350 a1 e2 c3 3d 59 55 b2 bd 88 36 66 bd 52 11 88 3d
       0.095647104 -0.08707685 -0.05620435 0.066439286
000360 ac 47 39 bc c8 4c e4 bc 6d 3f c3 bd 84 eb ce 3c
       -0.011308592 -0.027868643 -0.09533582 0.025258787
000370 7a 17 60 3d 93 36 1e 3d 6e 3d 50 bd 80 15 ae bd
       0.05470989 0.038626265 -0.050839834 -0.085001945
000380 b8 a5 96 3d 57 25 0b 3e f3 22 22 bc 6d 75 04 bd
       0.07355827 0.13588463 -0.009896028 -0.03233855
000390 d0 03 d0 3d f1 b1 eb bd c0 92 6c 3d 17 21 dc bc
       0.10156977 -0.11508549 0.05775714 -0.026871247
0003a0 7c 74 44 3e 74 bb 21 3d 13 8e df 3d 4a a5 bc 3d
       0.1918506 0.03948541 0.109157704 0.09211214
0003b0 63 c5 c1 bd 5f 28 ba bd f6 2c 07 3e e7 f9 81 bd
       -0.09461477 -0.090897314 0.13200745 -0.06346493
0003c0 1f 47 1e bc d8 a9 04 3d 0a 43 b3 3b 99 a5 40 be
       -0.009660511 0.032388538 0.005470638 -0.1881317
0003d0 6f ac da 3d fd 72 37 be 3a 75 14 3d 13 46 d5 bb
       0.1067742 -0.17914958 0.03624461 -0.0065085976
0003e0 96 ba 2c 3b 67 00 3d 3e ec 06 94 3d 82 71 07 3d
       0.002635633 0.18457185 0.07227883 0.033067234
0003f0 94 25 39 3d 17 ee 1a 3d 01 20 a6 3d 23 95 82 3c
       0.045201853 0.037824716 0.08111573 0.015940255

gru.bias_ih_l0_reverse f4 [192]
000000 20 c3 76 3d 89 83 63 bc 6a a2 e4 3d 68 5b db ba
       0.06024468 -0.013886341 0.111637905 -0.0016735615
000010 81 6b 06 3e 9b 41 07 3e 17 5b d2 3c 14 19 8a bd
       0.13126947 0.1320862 0.0256782 -0.067430645
000020 52 ea 6b 3c 39 c5 1d 3e df 70 05 ba 07 59 2b 3e
       0.014399128 0.15407266 -0.00050903665 0.1673318
000030 3c e7 8c bd 5a 06 e5 3c 96 f4 6c bc 63 f2 be 3d
       -0.06880042 0.02795713 -0.014462611 0.09323575
000040 a7 72 f9 3d 4a eb f7 3c bd 5b 0d 3e de 49 ab 3d
       0.12180071 0.030263562 0.13804527 0.083636984
000050 54 60 46 bc 99 b0 55 3d 95 63 a0 3b 3e 87 a1 3d
       -0.012107927 0.05217037 0.0048946836 0.078871235
000060 5e 79 09 3c 56 07 dc 3d 67 40 48 3d 9a e5 4d 3c
       0.008390753 0.10743587 0.048889544 0.012566948
000070 25 d5 be 3c ed 2f 8c 3d f1 d6 f4 3c 16 2b 5f 3d
       0.023294995 0.068450786 0.029887648 0.05448445
000080 e2 5a 2c 3d f5 47 27 3e e0 cc 9b bb 73 ff dd bd
       0.04207886 0.16336043 -0.0047546476 -0.10839739
000090 b0 52 4a 3e 8b 88 0b 3e 4b 9e e9 bb b2 f2 08 3e
       0.19758105 0.13626306 -0.0071294657 0.13373831
0000a0 ba ad 02 3e b7 4a 86 bd dd 48 5b 3d 18 f2 37 3e
       0.12761584 -0.065572195 0.053536285 0.17963445
0000b0 23 0b 25 3d c7 9f 8d 3d 45 74 87 3e 1d 4f 45 3e
       0.040293824 0.06915241 0.26455894 0.1926846
0000c0 29 c2 54 3d f0 04 08 3e d1 65 00 3c 0e 04 3f 3d
       0.051942978 0.13283134 0.007836775 0.046634726
0000d0 d6 f8 22 3e 2c ac 2b 3e 12 23 09 3e 8a c7 9b 3e
       0.15915236 0.16764897 0.13392285 0.30425674
0000e0 11 53 bf 3d 38 a1 04 3e 9d bf 1c 3e c5 da ac 3d
       0.093420155 0.12952125 0.1530747 0.084401645
0000f0 c1 16 0a be 7c 91 4a 3d 8d d4 9c bd f3 0c 06 3e
       -0.13485242 0.04945515 -0.07657728 0.13090877
000100 31 cf fb bd 47 b5 62 3e b0 e4 56 3e 37 83 99 3d
       -0.12295378 0.22139464 0.20985675 0.0749573
000110 0a 58 72 bc 8a 14 34 bc ea b5 1b bc c9 1e 24 bd
       -0.014791498 -0.010991225 -0.009503821 -0.04006842
000120 a0 8e a1 3d 9a c5 44 bd 67 4a 85 be 72 b4 ca 3d
       0.07888532 -0.04804001 -0.26033327 0.098976985
000130 f7 c9 9f bd 5e e2 83 bd 7f e6 40 be ab 85 95 bd
       -0.078021936 -0.064396605 -0.18837927 -0.07300886
000140 1c f2 c9 3d 50 0f 7e be 58 19 d7 bd c7 d1 c4 bd
       0.09860632 -0.24810529 -0.10502881 -0.09610324
000150 67 0e 12 be d4 7c 1d be 18 0d 85 bd de fa 14 3e
       -0.14263307 -0.1537965 -0.06496638 0.14548823
000160 79 69 cb 3d 35 e1 aa 3d 10 a4 e1 bd b9 e0 e2 bd
       0.09932227 0.08343736 -0.110176206 -0.11078019
000170 b1 b1 00 be a8 a7 0a be bd 89 a2 3e f3 3c 87 bb
       -0.12567784 -0.13540518 0.3174571 -0.0041271388
000180 6b 01 15 be 55 3d fe 3d e4 33 8e 3c f3 d4 2f be
       -0.14551322 0.12414042 0.017358728 -0.17171077
000190 98 09 87 bd a9 71 b2 bd ec 38 dc 3d 5f 69 87 be
       -0.06593627 -0.08713085 0.107530445 -0.2644758
0001a0 28 a7 93 be 2c 72 5d 3d 98 bb bf 3c 12 a4 b3 bd
       -0.28838468 0.05406396 0.023404881 -0.08771528
0001b0 2b 1f 27 3e f2 69 e8 3e f8 e8 0c be e9 2c 8a 3d
       0.16320483 0.4539333 -0.13760746 0.06746847
0001c0 34 58 6d bd 81 ce fb 3d a3 83 0e be 4c 3c c0 be
       -0.057945445 0.12295247 -0.13917403 -0.37546003
0001d0 32 25 5d 3e 60 f6 c1 bd 92 b7 9f 3d 45 35 b7 be
       0.2159622 -0.094708204 0.07798685 -0.3578283
0001e0 ec 7e 03 3e 1c 3c ea bd f9 58 12 be ad 79 83 be
       0.12841386 -0.11437246 -0.14291753 -0.2567877
0001f0 50 d1 a0 bd 40 be bc 3d 41 be 64 3e d0 66 f1 3c
       -0.07852423 0.09215975 0.22338201 0.02946797
000200 b3 14 08 bd 5b 10 a9 bd 2f 58 6a 3d 99 52 da bd
       -0.033222865 -0.08255073 0.057213005 -0.106602855
000210 57 1c 00 be df 14 d6 3d 7a 63 ee 3d 20 c3 2c 3d
       -0.12510811 0.104531996 0.116400674 0.042178273
000220 1b 01 3d 3c 17 01 95 3b 09 4d b6 ba 1b 03 e8 3d
       0.011535908 0.004547249 -0.0013908456 0.11328717
000230 b9 31 00 3e 78 43 63 bd 81 e8 06 bd 88 a6 f6 bd
       0.12518968 -0.055484265 -0.032936577 -0.12043482
000240 c6 c5 ef 3c 24 37 d1 3c dc 5d d6 bd 9f 6d 0c 3d
       0.02926911 0.025538988 -0.10467121 0.03428423
000250 39 c0 b7 3b a7 13 9e bd b6 1f e3 bd 27 35 9f 3d
       0.0056076315 -0.07718592 -0.11090033 0.0777381
000260 73 5b b6 3d 6a a7 98 3d 94 fd 86 3c 23 42 ab bd
       0.08904161 0.07453807 0.016478337 -0.08362224
000270 7c f2 f3 3d e5 3a e7 3d 7b f9 83 bd 8c 77 57 3d
       0.119114846 0.1129053 -0.06444069 0.052604243
000280 dd cd d2 3d 21 a7 05 be 2f 3f df 3d 29 d4 32 bc
       0.102931716 -0.13052036 0.10900723 -0.010914841
000290 50 7a 53 3d 8a 32 df bc 4e 0e 1e bd 84 c8 b3 bd
       0.05163032 -0.027245779 -0.03858786 -0.0877848
0002a0 0d 0c dd bd c8 94 11 3d 29 2f 81 bd ba ed c6 bd
       -0.10793314 0.03554228 -0.06307823 -0.097133115
0002b0 0c 06 8e bc e9 c3 59 bd bc 0d be 3d bb bb a9 bb
       -0.017336868 -0.05316535 0.092799634 -0.00517985
0002c0 ad 2b 4b 3d 17 c4 b7 3c f6 12 6e bd fb 4c 13 bd
       0.0496022 0.02243237 -0.05812355 -0.035962086
0002d0 92 67 be 3d 65 c3 e9 bc e7 19 99 bd 40 94 92 3d
       0.09297098 -0.028535554 -0.074756436 0.07157183
0002e0 42 28 da 3c 11 bf 9f 3d 77 aa 77 3c 23 20 c5 bd
       0.026630525 0.07800115 0.015116326 -0.0962527
0002f0 8d 6c 58 bd 27 86 6d bd be b0 9d 3c bd 4e 40 3d
       -0.052837897 -0.057989266 0.019249316 0.04695009
