try6_realCTCFtrimmed2/100bp_1_positive_trim100_noimplant_fullytrainedGen.pth (torch, 67915 bytes, 7 tensors)

embeddings.weight f4 [5, 16]
0	0xbe70603e	-0.23474213
1	0x3ffeb780	1.989975
2	0x3f3bd650	0.7337389
3	0x3f95803b	1.1679758
4	0xbf3c9d91	-0.7367793
5	0x3c2aea86	0.010431891
6	0xbf3c0b57	-0.73454803
7	0xbf05c21a	-0.522493
8	0x3f1a032d	0.60161096
9	0xbf9ed8bf	-1.2409896
10	0x3e98ac9f	0.298192
11	0x3e410ae5	0.18851812
12	0xbf5e8fd8	-0.8693824
13	0xbf441c25	-0.76605445
14	0x3f3438ad	0.7039898
15	0x3ff95037	1.9477605
16	0xbe54366d	-0.20723887
17	0x3f392c7c	0.723335
18	0x3e944552	0.28959137
19	0xbfc01a03	-1.5007938
20	0x3f06c5f3	0.52645797
21	0xbd48a7f6	-0.048988305
22	0x3e8caf09	0.2747729
23	0x3ea9085f	0.330142
24	0x3d954854	0.07289186
25	0xbec6b911	-0.3881307
26	0xbecb0d50	-0.39658594
27	0x3e12a9d4	0.14322597
28	0x3e0fb885	0.14035232
29	0xbcfa5293	-0.030556953
30	0xbe56ddac	-0.20982999
31	0xbe83bf4a	-0.2573188
32	0xbc6f0a3d	-0.014589843
33	0xbe826a76	-0.25471848
34	0x3f995d15	1.1981531
35	0xbdb551cc	-0.08853492
36	0xbe097dda	-0.13426915
37	0x3d642b10	0.05570513
38	0xbd3325f0	-0.043737352
39	0xbed62e35	-0.41832128
40	0x3e26ee89	0.16301931
41	0x3f05e5bd	0.5230368
42	0x3f4ec30c	0.8076637
43	0xbfbef0f2	-1.4917281
44	0xbfcbe8be	-1.5930402
45	0xbe1e9dc8	-0.15489876
46	0x3e418ba1	0.1890092
47	0xbd6b4ed9	-0.05744824
48	0x3e71a52a	0.23598161
49	0x3e866596	0.2624938
50	0xbf5bc013	-0.85839957
51	0x3fc8d75a	1.569072
52	0x3f0991ba	0.53737986
53	0xbda3a895	-0.07991139
54	0x3f5dd50c	0.8665321
55	0xbe8eb981	-0.27875903
56	0xbf314a91	-0.69254404
57	0x3f593d87	0.8485951
58	0x3e89460c	0.26811254
59	0xbedc2bf2	-0.43002278
60	0x3f6403ac	0.890681
61	0x3eee98ea	0.4660104
62	0x3f46c5e9	0.77645737
63	0xba65ee27	-0.0008771144
64	0xbf4a3d7a	-0.79000056
65	0xbfa35a43	-1.2761921
66	0xc00fc0a5	-2.246133
67	0xbec3e8d7	-0.3826358
68	0xbf0d145d	-0.55109197
69	0x3d643463	0.055714022
70	0xbf12dd23	-0.5736868
71	0x3decb3ec	0.11557755
72	0x3fb3ced7	1.4047498
73	0x3d23efc2	0.040023573
74	0xbfa77191	-1.3081533
75	0xbe60abdb	-0.21940558
76	0xbeb6af37	-0.35680553
77	0x3c728cf0	0.01480411
78	0xbf65d410	-0.89776707
79	0xbf146a67	-0.5797486

gru.weight_ih_l0 f4 [192, 16]
0	0xbe9decab	-0.30844626
1	0xbda1a803	-0.07893374
2	0xbf00fca3	-0.50385493
3	0x3f1a6f6a	0.60326254
4	0xbea0dd51	-0.3141885
5	0xbc059e98	-0.0081554875
6	0xbe1aa40a	-0.15101638
7	0x3c29ede5	0.01037166
8	0x3f080d2d	0.53145105
9	0xbe53de47	-0.20690261
10	0xbdc89dea	-0.09795745
11	0x3e7c8002	0.24658206
12	0x3e90a4da	0.28250772
13	0x3ddd73d6	0.108131096
14	0x3e398980	0.18118858
15	0xbe241646	-0.16024122
16	0xbf08a572	-0.5337745
17	0xbd8c1993	-0.068408154
18	0xbecbcbda	-0.39803964
19	0x3db8f50e	0.090311155
20	0xbd005078	-0.03132674
21	0x3bc7cf7f	0.0060977335
22	0xbe1ac7b1	-0.15115239
23	0xbe7b69ca	-0.24552074
24	0x3fd48b5a	1.6605027
25	0x3e14be84	0.14525801
26	0xbe835419	-0.256501
27	0xbe9b925c	-0.303851
28	0xbe8477b5	-0.2587258
29	0xbaf3c1c9	-0.0018597181
30	0xbe99b192	-0.30018288
31	0xbe802aeb	-0.25032744
32	0xbe5a9e86	-0.21349534
33	0xbf08496a	-0.5323702
34	0x3f0f06e7	0.5586991
35	0xbf0da66e	-0.55332077
36	0xbec21ccc	-0.37912595
37	0x3dbc3bbc	0.09191081
38	0xbebe6fda	-0.3719471
39	0xbea55a32	-0.32295376
40	0x3ef44a7f	0.47713086
41	0x3cf04759	0.029330896
42	0x3e99bf69	0.30028847
43	0xbe4f35ef	-0.20235418
44	0xbf3ebebf	-0.74509805
45	0xbe87013d	-0.26368132
46	0xbe122cd5	-0.14274915
47	0xbe9cdd94	-0.306378
48	0xbd06f23e	-0.032945864
49	0xbe8581ef	-0.26075694
50	0x3e210771	0.15725495
51	0xbf582e33	-0.84445494
52	0x3dad634e	0.084662065
53	0x3dbee4cc	0.09320983
54	0xbe9de7d4	-0.30840933
55	0x3ebe0988	0.37116647
56	0x3e45ab1f	0.19303559
57	0x39a653f1	0.00031724529
58	0xbeb449f4	-0.35212672
59	0xbda40672	-0.08009042
60	0xbefef644	-0.4979726
61	0x3e074c8d	0.13212796
62	0xbf1d729b	-0.61503
63	0xbee14874	-0.4400059
64	0x3e032f19	0.12810935
65	0x3f9cb56e	1.2242868
66	0x3f101581	0.5628281
67	0xbea4d1b7	-0.3219125
68	0x3e9ecda3	0.31016263
69	0xbcd93763	-0.026515668
70	0x3da27b46	0.07933669
71	0xbde71a1f	-0.11284279
72	0xbe957dd8	-0.29197574
73	0xbea710c4	-0.3262998
74	0x3e92bfe8	0.28662038
75	0xbdb8f954	-0.090319306
76	0xbe992658	-0.29912066
77	0xbe62396b	-0.22092216
78	0x3edb5c00	0.42843628
79	0x3ee40532	0.44535214
80	0x3eef39e9	0.4672387
81	0x3f2a73a3	0.665827
82	0xbe931141	-0.287241
83	0x3ef8e0f8	0.48609138
84	0x3efc4de7	0.49278185
85	0x3e10e1fe	0.14148709
86	0x3ed001ba	0.40626317
87	0x3e931e09	0.28733853
88	0xbee8f181	-0.45496753
89	0xbe16f8ee	-0.14743397
90	0xbe9c6b99	-0.3055084
91	0x3e836720	0.25664616
92	0x3f25cbd9	0.6476417
93	0x3f2e43a4	0.6807196
94	0x3e7d492f	0.24734949
95	0x3e8423fe	0.2580871
96	0x3d8b4588	0.068003714
97	0x3e9cb882	0.30609518
98	0xbdf51bc7	-0.11968189
99	0x3ee3597f	0.44404218
100	0x3eabeaaf	0.33577487
101	0xbd30b5b8	-0.04314205
102	0x3eda8cff	0.42685696
103	0x3e28fa54	0.16501743
104	0xbdd57526	-0.10422735
105	0x3dda3bb5	0.106559195
106	0x3c4a1fc6	0.012336677
107	0x3ddf5304	0.10904506
108	0x3f30a35b	0.6899926
109	0x3ed47ea0	0.41502857
110	0x3ef6293d	0.48078337
111	0x3e65638a	0.22401252
112	0x3e9af639	0.30265978
113	0x3f16fa93	0.58976096
114	0x3e5c4e01	0.21514131
115	0xbe636576	-0.22206673
116	0x3f27ba96	0.6551908
117	0xbe749ea8	-0.23888648
118	0x3f4903d1	0.7852145
119	0x3ef97f60	0.48729992
120	0xbf292a54	-0.6608021
121	0xbe690db1	-0.22759129
122	0x3dd8dfd1	0.105895646
123	0xbb6494c1	-0.0034878703
124	0x3ee0d215	0.4391028
125	0x3ee8c49c	0.454625
126	0x3ee21755	0.44158426
127	0xbeb31c7f	-0.34982678
128	0x3f116277	0.5679087
129	0x3f4eb90c	0.8075111
130	0xbe092080	-0.13391304
131	0x3d00451c	0.031315908
132	0x3f085267	0.53250736
133	0x3dd7d882	0.105393425
134	0x3ecf7d96	0.40525502
135	0x3ef9d17a	0.4879263
136	0xbf4390f6	-0.7639307
137	0xbde73eb8	-0.112912595
138	0xbe0f1cb8	-0.13975799
139	0x3e90570e	0.28191417
140	0x3f50a256	0.81497705
141	0x3ee1dc11	0.4411321
142	0x3e5cd2a1	0.21564724
143	0xbe375eae	-0.17907211
144	0x3d1cd4e2	0.03828896
145	0xbec54781	-0.38531116
146	0xbe279a8f	-0.16367553
147	0x3ef2a186	0.47388858
148	0xbea738b5	-0.32660452
149	0xbe19903c	-0.14996427
150	0xbe4f3398	-0.20234525
151	0xbea60100	-0.32422638
152	0xbcf9ae8e	-0.030478742
153	0x3d65263f	0.055944677
154	0x3e8ab10b	0.27088198
155	0x3cef5794	0.029216565
156	0xbd9f6e53	-0.077847145
157	0xbcfb4332	-0.03067169
158	0xbe0d0b76	-0.13773903
159	0x3e8f629c	0.2800492
160	0xbe412559	-0.18861903
161	0xbe509060	-0.20367575
162	0xbeb569b8	-0.3543222
163	0xbe72df84	-0.23718077
164	0xbd818605	-0.0632439
165	0x3ea105ce	0.3144974
166	0x3dc6d3fd	0.09708402
167	0x3ebcf973	0.36909065
168	0x3dc95097	0.098298244
169	0x3cfc053f	0.03076422
170	0xbe90b80d	-0.2826542
171	0x3e2047be	0.15652367
172	0x3e318da8	0.17339194
173	0x3e18964d	0.14901085
174	0xbe570647	-0.20998488
175	0xbe92765a	-0.2860592
176	0xbf0d40aa	-0.55176795
177	0xbdce43eb	-0.10071548
178	0x3e91de5c	0.2848996
179	0x3eb158ac	0.34637964
180	0xbf1969b6	-0.5992693
181	0xbe25c773	-0.16189365
182	0xbeb5fadf	-0.35542962
183	0xbeb5fd64	-0.35544884
184	0x3f9b2435	1.2120425
185	0x3e021f38	0.12707222
186	0x3ec8bfc3	0.39208803
187	0xbe7930db	-0.24335043
188	0xbeddf04b	-0.4334739
189	0xbf2b4030	-0.6689482
190	0x3e89c001	0.269043
191	0x3dfe1ae5	0.124074735
192	0xbd3aefda	-0.045638897
193	0x3e69cc39	0.22831811
194	0xbe60773c	-0.21920484
195	0x3dd12dfe	0.102138504
196	0x3ddd787c	0.10813996
197	0x3d304f1a	0.043044187
198	0x3dc3d945	0.09562925
199	0x3d8431c0	0.064548016
200	0x3ea9bc91	0.33151677
201	0xbd496fa7	-0.049178746
202	0xbe985de7	-0.29759142
203	0x3c100318	0.0087898
204	0x3e356df4	0.17717725
205	0x3e817431	0.2528396
206	0x3d60d653	0.054891896
207	0xbe3589f3	-0.17728405
208	0xbdbf94a0	-0.0935452
209	0x3ebc700b	0.36804232
210	0x3dbc7722	0.0920241
211	0xbe9ac300	-0.30226898
212	0x3e806904	0.2508012
213	0xbe0cf588	-0.13765538
214	0x3dfe094d	0.12404118
215	0x3dae2612	0.08503355
216	0x3d5c254c	0.053746507
217	0xbc8c0cd0	-0.017095953
218	0x3d4b4e85	0.04963543
219	0x3ce157c0	0.027507663
220	0x3de52c15	0.111900486
221	0xbd73a039	-0.059478972
222	0x3c66d92b	0.014089863
223	0xbe40d98d	-0.18832989
224	0x3da00f6b	0.07815441
225	0x3f1dd13e	0.61647403
226	0x3ec9de78	0.39427543
227	0xbe479aa7	-0.19492589
228	0x3d61935a	0.055072166
229	0x3e90955c	0.28238952
230	0xbe918252	-0.2841974
231	0x3d25833e	0.040408365
232	0x3cbc07ab	0.022952875
233	0xbe797929	-0.24362625
234	0x3e7a6da4	0.24455887
235	0xbe1143a4	-0.14185959
236	0xbefdc8e4	-0.4956733
237	0xbe58be89	-0.21166433
238	0x3dbbbbf2	0.09166707
239	0x3f085824	0.5325949
240	0xbe7c0dca	-0.24614635
241	0x3dd9c090	0.106324315
242	0x3eea5195	0.45765367
243	0xbed4858c	-0.41508138
244	0xbbbc87d6	-0.0057534976
245	0xbe27b6c8	-0.1637832
246	0xbe03489d	-0.12820669
247	0xbdc10aa9	-0.094258614
248	0xbc1cba6a	-0.009565929
249	0xbc3b3f31	-0.01142864
250	0x3e8661a6	0.26246375
251	0xbe3f1952	-0.18662003
252	0xbf124bde	-0.57147014
253	0xbf113360	-0.5671902
254	0xbde87461	-0.113503225
255	0xbd85c0d2	-0.06530918

gru.weight_hh_l0 f4 [192, 64]
0	0x3ee278ec	0.4423288
1	0xbc2a56f3	-0.010396707
2	0xbeaffeb4	-0.3437401
3	0x3da76aac	0.08174643
4	0x3f021362	0.50810826
5	0xbf81dd9e	-1.0145757
6	0xbea9f103	-0.3319169
7	0x3e408ee9	0.18804516
8	0x3ef45c82	0.47726828
9	0xbd948886	-0.07252602
10	0x3e0bf0d6	0.1366609
11	0xbd11680d	-0.03549962
12	0x3e3269aa	0.1742312
13	0xba1fdb7a	-0.0006098073
14	0x3d7fc384	0.062442318
15	0xbf8fbc83	-1.1229404
16	0xbf3fcbff	-0.7492065
17	0xbe5e0e39	-0.21685113
18	0xbeb27c4d	-0.3486046
19	0x3e6a740c	0.22895831
20	0xbd829338	-0.06375736
21	0x3f273e10	0.65329075
22	0xbe002e4f	-0.12517665
23	0xbf1f3f57	-0.62206024
24	0x3e0ec016	0.13940462
25	0x3efa85a7	0.48930094
26	0x3f87ebd7	1.0618848
27	0x3d680009	0.05664066
28	0x3f391f83	0.7231371
29	0xbe25599d	-0.16147466
30	0x3dacc9a9	0.08436901
31	0x3e4aae62	0.19793084
32	0xbed2ab20	-0.41146183
33	0xbf7aa15a	-0.9790245
34	0xbefbcade	-0.49178213
35	0xbd9842fd	-0.07434652
36	0xbe97551e	-0.29557127
37	0x3e1ddd2b	0.154164
38	0xbc88ff13	-0.016723191
39	0x3f274e67	0.6535401
40	0x3e2b3716	0.16720232
41	0xbeac7ab1	-0.33687356
42	0xbf1f131c	-0.62138534
43	0xbece57b3	-0.40301284
44	0x3f29036e	0.6602086
45	0xbec97773	-0.39348945
46	0x3e2e8e63	0.17046504
47	0x3e401410	0.18757653
48	0x3edbfbeb	0.42965636
49	0x3f1a25e1	0.6021405
50	0x3ea18a8d	0.31551018
51	0xbeb48992	-0.35261208
52	0xbeee1522	-0.46500498
53	0x3ddd95f6	0.108196184
54	0x3e960e88	0.2930796
55	0x3ee997e1	0.45623687
56	0xbe56aab7	-0.2096356
57	0xbe4827f5	-0.19546492
58	0xbe43d576	-0.19124398
59	0xbec56a93	-0.38557872
60	0xbf3bd428	-0.733706
61	0x3e4f8b2e	0.20267937
62	0xbbebab74	-0.0071920697
63	0xbfa66f21	-1.3002664
64	0x3cbdc1cb	0.023163697
65	0x3e25c519	0.16188468
66	0xbe71aecb	-0.23601834
67	0x3d2d8e74	0.042372182
68	0xbeeedc4d	-0.4665245
69	0xbed4d802	-0.4157105
70	0x3dd81f5a	0.10552855
71	0xbf170ab8	-0.5900073
72	0x3d2f49d7	0.04279503
73	0x3d0cb175	0.034348924
74	0xbf8af2e0	-1.085537
75	0xbf132af7	-0.57487434
76	0xbe8496d8	-0.25896335
77	0x3ea036a9	0.31291702
78	0x3f2b9dcf	0.6703767
79	0x3f07c270	0.53031063
80	0xbf23d27f	-0.63993067
81	0x3f01527a	0.50516474
82	0xbe8fd2ae	-0.28090423
83	0xbf3beb07	-0.734055
84	0xbdb9340f	-0.090431325
85	0xbe93a957	-0.28840134
86	0x3e8b7101	0.27234653
87	0xbd3db76a	-0.046317495
88	0xbd72efaf	-0.05931061
89	0x3edbc18b	0.429211
90	0x3f727884	0.9471514
91	0xbccf8981	-0.025334122
92	0xbf0fcf8b	-0.5617606
93	0xbfec03bc	-1.843864
94	0xbdf0b0ea	-0.11752494
95	0x3e9f8348	0.31154847
96	0x3f63c50e	0.88972557
97	0x3f8e6511	1.1124593
98	0xbe37f5fe	-0.17964932
99	0xbe20196b	-0.15634696
100	0x3f181acd	0.59415895
101	0xbe88a5c4	-0.2668897
102	0xbd3d3fdc	-0.04620348
103	0xbf70ba23	-0.9403402
104	0x3e187f0b	0.14892213
105	0xbe7742fe	-0.24146649
106	0x3ed82c1f	0.42221162
107	0x3fd0d7c6	1.6315849
108	0x3f900f9a	1.1254761
109	0xbf4634e6	-0.77424467
110	0x3e3d3335	0.18476565
111	0x3f6d32e6	0.9265579
112	0xbd9372b2	-0.07199611
113	0x3e1ba1f5	0.151985
114	0x3e0ee68c	0.13955134
115	0xbdaad0e3	-0.08340623
116	0x3eb76986	0.35822695
117	0x3eadba2a	0.33931094
118	0x3f29672a	0.6617304
119	0x3e38b176	0.18036446
120	0xbdd504f4	-0.10401335
121	0xbf41fd11	-0.75776774
122	0x3dd43a0d	0.10362635
123	0x3e2c2c99	0.16813888
124	0xbe140ec4	-0.14458758
125	0x3edf7f99	0.43652037
126	0xbeb3f31e	-0.3514642
127	0xbd2f7bdd	-0.042842735
128	0x3d98f4e2	0.07468583
129	0xbd6d96b9	-0.05800507
130	0x3d848e8a	0.064725
131	0x3df2cd69	0.11855585
132	0x3efcb82a	0.49359256
133	0x3e78e303	0.24305348
134	0xbebe7b95	-0.3720366
135	0xbca30ba6	-0.019903015
136	0xbe079d17	-0.13243519
137	0x3cbcaaa3	0.023030585
138	0xbf43d451	-0.76495844
139	0x3f2031e2	0.62576115
140	0x3ebf65fc	0.37382495
141	0xbe5e1e4f	-0.2169125
142	0xbeb73aff	-0.35787198
143	0xbe46a73b	-0.19399731
144	0x3e843c61	0.25827315
145	0x3f41751a	0.7556931
146	0x3dc7af20	0.09750199
147	0x3fb2b319	1.3960906
148	0x3ed37aa0	0.41304493
149	0xbefbf6ec	-0.49211824
150	0xbb5dde61	-0.0033854472
151	0x3f4a6d73	0.79073256
152	0xbda6fa85	-0.081532516
153	0x3ccfd823	0.025371617
154	0xbea75001	-0.32678226
155	0xbc624c97	-0.013812206
156	0x3d3ca7df	0.04605853
157	0x3e33a142	0.17541984
158	0x3dcd8545	0.10035185
159	0x3c0f4e0a	0.008746633
160	0xbeec57ae	-0.46160644
161	0x3db0280e	0.0860139
162	0x3c03eb0e	0.008051647
163	0xbe8cc6e6	-0.27495497
164	0xbe05ac5f	-0.13054036
165	0x3d68267c	0.056677327
166	0xba1bfddc	-0.0005950609
167	0x3e19005e	0.14941546
168	0x3ee58072	0.44824558
169	0xbce7c958	-0.02829425
170	0x3e575729	0.21029343
171	0xbe9cf6c6	-0.30657023
172	0xbed1db6f	-0.40987727
173	0xbebe9038	-0.37219405
174	0x3e2ff447	0.17183028
175	0x3ed5391a	0.41645128
176	0xbcffe889	-0.031238811
177	0x3dd99670	0.10624397
178	0x3cd7d8ff	0.026348589
179	0xbeb0b71d	-0.34514704
180	0xbd834f7a	-0.06411643
181	0x3e3966d4	0.18105632
182	0x3e871f4e	0.2639107
183	0x3e33f2b0	0.17573047
184	0xbd2a258d	-0.041539717
185	0x3e2dd2a5	0.16974886
186	0xbe0fb412	-0.14033535
187	0x3e02ad86	0.12761506
188	0x3cbf1d47	0.02332939
189	0x3ee09347	0.43862364
190	0xbf75d592	-0.9602901
191	0xbf245d6a	-0.6420504
192	0x3e139231	0.14411236
193	0x3c8064eb	0.015673121
194	0x3e8fd6e3	0.28093633
195	0x3d06a07b	0.03286789
196	0xbd09afb3	-0.033614825
197	0xbd433d38	-0.047665805
198	0x3d2b5bf0	0.041835725
199	0xbde4a070	-0.111634135
200	0x3cff5757	0.031169577
201	0x3e387bcf	0.18015979
202	0xbeafe8e4	-0.3435737
203	0xbe29f355	-0.1659673
204	0xbf1a1767	-0.6019196
205	0xbec66f55	-0.38756815
206	0x3e9ddd59	0.30832937
207	0xbd82cce5	-0.06386737
208	0x3de7f6fa	0.11326404
209	0xbda11ee3	-0.07867219
210	0xbe1eb762	-0.15499642
211	0xbeafae05	-0.34312454
212	0xbd007338	-0.03135988
213	0x3e1a6837	0.15078817
214	0x3ef45ea3	0.47728452
215	0x3e933c9e	0.28757185
216	0xbcedac4c	-0.029012822
217	0x3e73f70a	0.23824707
218	0xbd72ad2c	-0.05924718
219	0xbebb87a1	-0.36626914
220	0x3e68835c	0.2270636
221	0x3f1dfa71	0.6171027
222	0xbea6fcd9	-0.32614782
223	0xbe0d64de	-0.13808009
224	0xbef15973	-0.47138557
225	0xbf055701	-0.5208588
226	0x3e89801c	0.26855552
227	0x3cc5f182	0.024163011
228	0xbe6c010c	-0.23047274
229	0x3de8124f	0.11331617
230	0xbec1cfc7	-0.37853834
231	0xbdfaec35	-0.12252084
232	0x3d4d4551	0.050114933
233	0xbd52fe55	-0.05151208
234	0xbe9c89c1	-0.30573848
235	0xbeb48c1c	-0.35263145
236	0x3d714e0c	0.058912322
237	0x3eab85c1	0.33500484
238	0xbe1ddab0	-0.15415454
239	0xbea2dcbe	-0.31809038
240	0x3ea381e9	0.3193505
241	0xbcd81dac	-0.026381336
242	0x3e833701	0.25627902
243	0x3ddb3349	0.10703141
244	0x3cb4fd85	0.022093544
245	0x3e455040	0.19268894
246	0xbc4f03e0	-0.012635201
247	0xbe03d1d0	-0.12873006
248	0x3e6da58c	0.23207682
249	0xbdfe243d	-0.12409256
250	0x3cb89bf4	0.022535302
251	0xbe5b77e0	-0.21432447
252	0xbec39c29	-0.38205078
253	0xbde81081	-0.11331273
254	0x3c539066	0.012912845
255	0x3fac38f0	1.3454876

gru.bias_ih_l0 f4 [192]
0	0xbcb2486c	-0.021763049
1	0x3eee3106	0.46521777
2	0xbe06ab3b	-0.13151257
3	0xbe1bc667	-0.15212403
4	0xbd282902	-0.041054733
5	0x3d97071d	0.073744036
6	0x3e805eef	0.2507243
7	0xbdbb231c	-0.09137556
8	0x3e078e2f	0.13237832
9	0xbd5bf3b0	-0.053699195
10	0xbdc8d1bc	-0.09805629
11	0x3f10690e	0.564103
12	0x3e99775b	0.29973873
13	0xbda00e8f	-0.07815277
14	0xbe060c23	-0.13090567
15	0xbe28711d	-0.164494
16	0x3e2ec258	0.17066324
17	0xbe9166d7	-0.28398773
18	0x3ea1dfee	0.31616157
19	0x3e2c9c40	0.1685648
20	0x3ea4a6cf	0.32158515
21	0xbebce70b	-0.36895022
22	0x3ea01668	0.31267095
23	0xbe740f2c	-0.23833913
24	0x3e73f0a4	0.23822266
25	0x3eb67e5d	0.35643283
26	0xbeac1f2d	-0.33617535
27	0xbe13c352	-0.14429978
28	0xbec91dcd	-0.3928055
29	0xbde80ce3	-0.11330583
30	0x3c546abe	0.012964902
31	0x3c12bf11	0.008956687
32	0x3f1305b5	0.57430583
33	0x3e7b2d68	0.2452904
34	0x3e808bb7	0.25106594
35	0xbeac5537	-0.33658764
36	0x3ca5647a	0.020189513
37	0x3e83cef4	0.2574383
38	0xbe1f5af1	-0.15562035
39	0x3dc8597d	0.097826935
40	0x3e7064c8	0.23475945
41	0xbd50ab92	-0.050944872
42	0xbe8f60fa	-0.28003675
43	0x3e6b94ef	0.23006032
44	0xbe771d41	-0.24132253
45	0x3e8dbf8a	0.27685195
46	0x3dba49d1	0.090961106
47	0xbdfceede	-0.12350248
48	0xbde469c8	-0.11152989
49	0xbd86283f	-0.06550645
50	0x3d232d78	0.039838284
51	0x3e822fe7	0.25427172
52	0xbdb56660	-0.08857417
53	0x3d019a95	0.03164156
54	0x3e827c2b	0.25485358
55	0xbe4a3f6b	-0.19750755
56	0x3e9638ab	0.2934011
57	0x3dfa7963	0.12230184
58	0x3e6b0099	0.22949447
59	0x3e2e4bdc	0.17021126
60	0xbe143a7b	-0.14475434
61	0x3f08fefb	0.5351407
62	0xbd853985	-0.065051116
63	0x3da022a7	0.078191094
64	0xbe4f5073	-0.20245533
65	0xbed41b9d	-0.41427317
66	0xbd8575b5	-0.065165915
67	0x3e9af4b4	0.3026482
68	0xbec8a661	-0.39189437
69	0xbe8ef1a2	-0.27918726
70	0xbead8629	-0.3389142
71	0xbeaddb8f	-0.33956572
72	0xbe37e172	-0.17957094
73	0xbd8a7de4	-0.06762293
74	0x3dbb603b	0.09149214
75	0xbd6a3173	-0.057176065
76	0xbefc6fd3	-0.49304065
77	0xbe416594	-0.18886405
78	0xbf3d86ce	-0.7403382
79	0xbe1a1f78	-0.15051067
80	0x3e5821db	0.21106665
81	0x3e49fe7d	0.19725986
82	0xbdd3866c	-0.10328373
83	0xbf56c8e4	-0.83900285
84	0xbf1362b4	-0.57572484
85	0xbdf2ac8f	-0.11849319
86	0xbf37941c	-0.7171037
87	0xbf1a7a37	-0.60342735
88	0x3e972602	0.29521185
89	0xbe98a2bc	-0.29811656
90	0xbee58099	-0.44824675
91	0x3eba9991	0.36445287
92	0xbd0b76f1	-0.03404898
93	0xbd90928a	-0.070592
94	0xbeefc239	-0.46827868
95	0xbcd81e04	-0.0263815
96	0xbe21db96	-0.15806422
97	0xbed9e559	-0.4255779
98	0xbe81eee8	-0.25377584
99	0x3e397846	0.18112287
100	0x3ea60bb3	0.324308
101	0x3e801149	0.25013188
102	0x3dd73c16	0.10509507
103	0x3e18b973	0.14914493
104	0x3e9bf066	0.30456847
105	0x3e80a868	0.25128484
106	0xbf16d2f6	-0.5891565
107	0xbf39c96b	-0.72572964
108	0x3e8943cc	0.26809537
109	0xbef90b27	-0.4864132
110	0x3db5bd9b	0.08874055
111	0x3e5e766e	0.21724865
112	0x3e0ed4a9	0.13948311
113	0x3c29e875	0.0103703635
114	0xbe6af428	-0.229447
115	0x3d9f53a0	0.07779622
116	0xbee28702	-0.44243628
117	0xbd05d1e8	-0.032670885
118	0xbe18de97	-0.14928661
119	0x3d7402f7	0.05957314
120	0xbebbf9c6	-0.36714
121	0x3e736c55	0.23771794
122	0x3e7e85d5	0.2485574
123	0xbf156240	-0.5835304
124	0x3d17e77a	0.037085988
125	0xbed2cf37	-0.41173717
126	0xbe013bdc	-0.12620491
127	0x3ed971fd	0.4246978
128	0xbc15127c	-0.009098645
129	0xbbc05f7c	-0.0058707576
130	0x3abb29fa	0.0014279478
131	0xbda32ac9	-0.07967145
132	0xbecfcdff	-0.4058685
133	0xbdda689b	-0.10664483
134	0x3d9430ec	0.072358936
135	0xbeb9b1ed	-0.3626856
136	0x3e1740b7	0.1477078
137	0xbe53279f	-0.20620583
138	0xbdeda83f	-0.11604356
139	0x3db02c5a	0.086022094
140	0x3e1d6563	0.15370707
141	0x3dd43b10	0.10362828
142	0x3e8e0217	0.2773597
143	0x3d3f3c1a	0.046688177
144	0xbe8de3ca	-0.27712852
145	0xbdbe9849	-0.0930639
146	0xbda38b65	-0.07985572
147	0xbe97439c	-0.2954377
148	0xbe21fe50	-0.15819669
149	0xbb837c4d	-0.0040126205
150	0x3d2d3e82	0.04229594
151	0xbf0755f4	-0.5286553
152	0x3e091eb4	0.13390619
153	0xbd1df409	-0.03856281
154	0xbd4b07a1	-0.049567822
155	0xbe2f354f	-0.1711018
156	0x3e1b0b42	0.15141013
157	0xbe799f34	-0.24377137
158	0x3d7e5d3e	0.06210064
159	0x3e6f5c09	0.23374952
160	0x3dcb948d	0.09940443
161	0xbe236838	-0.15957725
162	0xbe0ba4fb	-0.13637154
163	0xbe587ed9	-0.21142139
164	0x3eb8ef8f	0.3612027
165	0xbeae38bd	-0.34027663
166	0x3e07d0bd	0.13263221
167	0x3c38fdba	0.011290962
168	0xbe904357	-0.28176376
169	0xbd87aa06	-0.06624226
170	0x3e6768ec	0.22598618
171	0xbea2786f	-0.3173251
172	0xbe28ed31	-0.16496731
173	0xbdc2b744	-0.095076114
174	0xbdb01276	-0.08597271
175	0x3c952ed9	0.018210815
176	0x3d36801d	0.044555772
177	0xbab38e2b	-0.0013698986
178	0x3d3adb0f	0.045619067
179	0x3e88c12d	0.2670988
180	0x3e136ee9	0.14397778
181	0x3c7e8ef3	0.015537011
182	0xbd1a11b3	-0.037614536
183	0xbdce16d9	-0.100629516
184	0xbe4f1e3c	-0.20226377
185	0xbb11362f	-0.002215754
186	0x3d71619e	0.058930986
187	0x3e9ffc1d	0.31247035
188	0xbd959cc9	-0.07305295
189	0xbd801522	-0.06254031
190	0xbd8e8ea1	-0.06960798
191	0xbdd0f9cd	-0.10203896

gru.bias_hh_l0 f4 [192]
0	0x3e0b252c	0.13588399
1	0x3e98edc7	0.2986891
2	0xbd00a41f	-0.031406518
3	0xbe084ff2	-0.13311747
4	0xbe760b8c	-0.24027842
5	0xbd718c32	-0.05897159
6	0x3eb69dfd	0.3566741
7	0x3e10594d	0.14096566
8	0x3e418d4b	0.18901555
9	0xbd3eb9af	-0.0465638
10	0x3dbf1ec7	0.09332042
11	0x3f0a0eba	0.5392872
12	0x3e6c35de	0.23067424
13	0xbda37362	-0.07980992
14	0xbd4170ff	-0.047226902
15	0xbd1d8155	-0.03845342
16	0x3d83e9dd	0.0644109
17	0xbe9a13a2	-0.30093104
18	0x3ed828f5	0.42218748
19	0x3e345ccb	0.17613523
20	0x3ea830cc	0.3284973
21	0xbe78c8c2	-0.24295333
22	0x3e93b9ef	0.28852794
23	0xbe83f915	-0.25775972
24	0x3eee871a	0.4658745
25	0x3eb73961	0.35785964
26	0xbed96142	-0.42457014
27	0xbe6e5d81	-0.23277856
28	0xbe8a0b53	-0.26961765
29	0xbe0bd19e	-0.13654181
30	0xbca16824	-0.019702978
31	0xbe4ba45f	-0.19886921
32	0x3f18390a	0.59462035
33	0x3e95fea9	0.29295853
34	0x3eab3a24	0.33442795
35	0xbe8ba6a4	-0.27275574
36	0xbda475c6	-0.08030276
37	0x3eb3b4a6	0.3509876
38	0xbe0ba1ec	-0.13635987
39	0x3cbf40bb	0.023346296
40	0x3ea90bbe	0.3301677
41	0xbe2ac0ee	-0.1667516
42	0xbdd4aa43	-0.10384037
43	0x3e4edee9	0.20202221
44	0xbea05f6f	-0.3132281
45	0x3e67d6cd	0.22640534
46	0x3d07bcb6	0.033138953
47	0xbdd3e8d5	-0.103471436
48	0xbe3c15b2	-0.18367651
49	0xbe6dc273	-0.23218708
50	0x3e6b1363	0.22956614
51	0x3ebcd8e6	0.3688423
52	0xbe084166	-0.13306198
53	0xbd9db5c1	-0.077006824
54	0x3ddc7851	0.10765136
55	0xbeb402c0	-0.35158348
56	0x3dd8804d	0.105713464
57	0x3da2b06a	0.079438046
58	0x3ec06b65	0.37581936
59	0x3e84e5b7	0.2595651
60	0xbe0f9f80	-0.14025688
61	0x3f01165c	0.5042474
62	0xbe03a61b	-0.12856333
63	0xbc820a1a	-0.015873957
64	0xbde8069b	-0.11329385
65	0xbe8553b8	-0.26040435
66	0xbe450417	-0.19239841
67	0x3f0b0e62	0.5431882
68	0xbef5afac	-0.4798559
69	0xbe2862a9	-0.16443886
70	0xbee0659b	-0.4382752
71	0xbe1686e2	-0.14699891
72	0xbdb42eeb	-0.087980114
73	0xbdd2011d	-0.102541186
74	0xbd5ec497	-0.0543867
75	0xbd8a900c	-0.06765756
76	0xbf028c1a	-0.5099503
77	0xbe0428f1	-0.12906243
78	0xbf6fdb3c	-0.936939
79	0xbeb49b2e	-0.35274643
80	0x3e5a2d40	0.21306324
81	0x3e5838d8	0.21115434
82	0x3bba0789	0.005677168
83	0xbf4b0c89	-0.79316
84	0xbf19fdac	-0.601527
85	0xbdcc5596	-0.09977262
86	0xbf28b0db	-0.6589486
87	0xbf47c9b2	-0.7804214
88	0x3edd8cea	0.4327157
89	0xbecec8de	-0.40387625
90	0xbeebf7f3	-0.46087608
91	0x3ea36cea	0.31919032
92	0xbbd5b2f8	-0.006521579
93	0xbd71a9c2	-0.058999784
94	0xbeeed2ca	-0.46645194
95	0xbd2bfe7d	-0.041990746
96	0xbdbc110f	-0.09182941
97	0xbf0a59d2	-0.54043305
98	0xbe866062	-0.2624541
99	0x3db3a3cf	0.087714784
100	0x3e9f8baa	0.31161243
101	0x3e939278	0.28822684
102	0x3e7abadd	0.24485345
103	0x3cf08f8c	0.029365323
104	0x3e4fb403	0.20283513
105	0x3e57b510	0.21065164
106	0xbed9b69a	-0.42522126
107	0xbf044116	-0.51661813
108	0x3e7ff1af	0.24994539
109	0xbeb1b38c	-0.34707296
110	0x3e8b59bd	0.27216902
111	0x3e87f275	0.26552168
112	0x3d115751	0.035483662
113	0x3df28b48	0.11842972
114	0xbeb95ddf	-0.3620443
115	0x3e777865	0.2416702
116	0xbef16760	-0.4714918
117	0xbe1ef82d	-0.15524359
118	0xbc11a6d3	-0.008889872
119	0x3e12d9af	0.14340852
120	0xbf0a1e35	-0.5395234
121	0x3e62f260	0.22162771
122	0x3ed75d96	0.42063588
123	0xbeccad58	-0.39976
124	0xbdaf3796	-0.08555524
125	0xbea5ef06	-0.32408923
126	0xbe312e72	-0.17302874
127	0x3ea122a6	0.31471747
128	0xbc017eed	-0.007903797
129	0xbefa3a8c	-0.48872793
130	0x3e1160f3	0.1419714
131	0xbd2f92d0	-0.04286462
132	0xbea36a7d	-0.31917182
133	0xbd052a1a	-0.032510854
134	0x3eb9fbf6	0.36325043
135	0xbea8dfa4	-0.32983124
136	0x3e852211	0.26002553
137	0xbdb8df2b	-0.09026941
138	0xbe2ac6a7	-0.16677342
139	0x3e53076e	0.20608303
140	0x3ef7f5d0	0.48429728
141	0xbeab378d	-0.3344082
142	0x3e4d4199	0.20044555
143	0xbe341d21	-0.17589237
144	0x3c8fb4ab	0.017542204
145	0x3dc4a6e9	0.09602148
146	0x3dbf4144	0.0933862
147	0xbd142081	-0.03616381
148	0x3dce37ca	0.10069235
149	0xbe54bd8b	-0.2077543
150	0x3d8a5e52	0.067562714
151	0xbe3b4d36	-0.18291172
152	0x3e26f4a4	0.1630426
153	0x3d0cf26c	0.03441088
154	0x3e9e04d3	0.30863056
155	0xbe819e8a	-0.25316268
156	0x3e27b4d5	0.16377576
157	0x3d1e1149	0.038590703
158	0x3cd79004	0.02631379
159	0x3e705535	0.23470004
160	0x3d414284	0.047182575
161	0x3e7562f9	0.23963536
162	0xbe6a3976	-0.22873482
163	0xbec12c02	-0.37728888
164	0xbd36ca65	-0.044626612
165	0xbeb9cfbc	-0.362913
166	0x3e1d7ef2	0.15380457
167	0x3e9ae0f4	0.3024975
168	0xbebf6b19	-0.37386397
169	0xbead6d2a	-0.33872348
170	0xbdf8cd06	-0.1214848
171	0x3cc13077	0.02358268
172	0x3deac7b8	0.114638746
173	0xbe4c0f97	-0.19927822
174	0x3e1c596e	0.1526849
175	0x3dc1345a	0.094338134
176	0x3e5e9817	0.21737705
177	0xbd72453f	-0.05914807
178	0xbe4b73c2	-0.19868377
179	0x3ea0ed2d	0.3143095
180	0x3e5f46ad	0.21804304
181	0xbd4395ea	-0.04775039
182	0xbe92226d	-0.2854189
183	0x3d01420b	0.031557124
184	0x3da0eaeb	0.07857307
185	0xbe6538e9	-0.22384991
186	0x3ddeaf66	0.10873298
187	0x3e478093	0.19482641
188	0x3e86db3a	0.26339132
189	0xbd8d759a	-0.06907196
190	0xbcde334d	-0.027124071
191	0xbcc0d2fa	-0.023538101

gru2out.weight f4 [5, 64]
0	0xbeed60fb	-0.46363053
1	0x3f154c38	0.58319426
2	0xbd8faed3	-0.07015767
3	0xbd7faf81	-0.062423233
4	0x3eff974f	0.49920127
5	0xbe3fef9f	-0.18743752
6	0xbee73a85	-0.45161834
7	0x3ea6f987	0.3261225
8	0x3d3eaf2c	0.046553776
9	0x3e83b6e0	0.2572546
10	0x3e4989a4	0.19681412
11	0xbeb2e1d4	-0.34937918
12	0xbf93177a	-1.149154
13	0x3ec6280b	0.38702425
14	0xbee572fa	-0.44814283
15	0xbe837a39	-0.25679186
16	0x3e4fe649	0.2030269
17	0x3e31c565	0.17360456
18	0xbf0134a8	-0.5047097
19	0xbe610a33	-0.21976547
20	0xbebbf696	-0.36711568
21	0x3e757939	0.23972024
22	0xbec19e8a	-0.37816268
23	0x3e604ee2	0.21905091
24	0xbf393d36	-0.72359025
25	0xbf534ca4	-0.8253882
26	0xbdecdc70	-0.115654826
27	0x3f7434a1	0.95392805
28	0xbc922e18	-0.017844245
29	0xbe479425	-0.19490106
30	0xbeb13c04	-0.346161
31	0xbee50e49	-0.4473746
32	0xbe3684b0	-0.17824054
33	0xbea0647b	-0.3132666
34	0x3ead9975	0.3390614
35	0x3f695682	0.91147625
36	0xbd9df979	-0.07713599
37	0x3f410ede	0.7541331
38	0xbef330d1	-0.4749818
39	0xbf1bb92f	-0.6082944
40	0x3ea93118	0.33045268
41	0x3edd2f8c	0.43200338
42	0xbb5ea5c5	-0.0033973318
43	0xbe308c4e	-0.17241022
44	0x3ddb5092	0.10708727
45	0x3f2521bd	0.64504606
46	0xba8a2ef0	-0.0010542553
47	0x3e1b5a69	0.15171207
48	0xbf1db5ed	-0.6160572
49	0x3ec154da	0.3776005
50	0x3ec087e5	0.3760368
51	0xbf35a74a	-0.7095839
52	0x3e271f7e	0.16320607
53	0x3e04b549	0.1295978
54	0x3f29ad0c	0.66279674
55	0xbf1573ba	-0.5837971
56	0x3cb86025	0.022506783
57	0x3ed42ccb	0.41440424
58	0xbf10d60c	-0.5657661
59	0x3dd25ffd	0.102722146
60	0x3cc871a7	0.024468256
61	0x3eeed824	0.46649277
62	0x3e2abfd8	0.16674745
63	0x3cacd36a	0.021096904
64	0xbd4be130	-0.049775302
65	0x3a89e0cd	0.0010519266
66	0xbb706861	-0.0036683308
67	0x3d77192b	0.060326736
68	0xbeae8567	-0.34086153
69	0x3dd75ead	0.10516105
70	0xbbe7e2d7	-0.007076602
71	0x3c9dbd86	0.01925541
72	0x3e3133d4	0.17304927
73	0xbd45d22d	-0.048296142
74	0x3d7cd989	0.061730895
75	0x3d908bca	0.07057913
76	0xbdfbcb7e	-0.122946724
77	0xbcdeae39	-0.027182685
78	0x3cd0642e	0.025438394
79	0xbdb76ad2	-0.08955921
80	0x3e37a080	0.1793232
81	0xbe220dbf	-0.15825556
82	0x3e0fd0bc	0.1404447
83	0x3d4ad00d	0.04951482
84	0x3bac1aad	0.0052522034
85	0xbd3feae2	-0.04685486
86	0x3e0d4ac5	0.13798054
87	0xbd57980f	-0.05263525
88	0x3e270bb7	0.16313063
89	0x3d329341	0.043597464
90	0xbd8818ba	-0.06645341
91	0x3bd60858	0.0065317564
92	0xbcf421f9	-0.029801356
93	0xbbf7e973	-0.007565671
94	0xbc37c9ed	-0.011217576
95	0xbda716e3	-0.08158662
96	0xbe3dd762	-0.18539193
97	0x3db295af	0.08719956
98	0x3dfb5264	0.12271574
99	0xbdf59b68	-0.11992532
100	0xbd1dcb2a	-0.03852383
101	0x3d3fca4d	0.04682379
102	0x3bfa28e6	0.00763427
103	0x3c106401	0.008812905
104	0x3d72ac0d	0.05924611
105	0xbda08631	-0.07838095
106	0x3d2976d1	0.041373078
107	0xbd913b01	-0.07091332
108	0x3cd62681	0.026141407
109	0xbe1b5e6c	-0.15172738
110	0xbdbb116c	-0.09134182
111	0x3ce80ee9	0.028327422
112	0x3c8916f8	0.016734585
113	0xbd8ed1e8	-0.0697363
114	0xbd35c38b	-0.044375937
115	0x3e31fa9a	0.17380753
116	0xbd34aae6	-0.044108294
117	0xbd040c0c	-0.03223805
118	0xbd08183a	-0.03322623
119	0x3e0573e4	0.1303249
120	0x3c57cb69	0.013171055
121	0xbe392b80	-0.18083
122	0xbd9ee17b	-0.07757851
123	0x3c9b5605	0.018961916
124	0xbdad1c1e	-0.084526286
125	0xbe01b9e0	-0.12668562
126	0x3d70b7f2	0.058769174
127	0x3e144d7b	0.14482681
128	0x3df6fdd4	0.120601326
129	0xbc0f6e97	-0.008754394
130	0x3e1bcab6	0.15214047
131	0xbd3c7514	-0.046010092
132	0xbe7a6234	-0.24451524
133	0xbac1a005	-0.0014772421
134	0x3cf37754	0.029719986
135	0xbe40a247	-0.18811904
136	0xbdbcb94d	-0.09215031
137	0xbc00c9de	-0.007860629
138	0xbd3d2c94	-0.04618509
139	0x3c43bb89	0.011946567
140	0xbda10e41	-0.07864047
141	0xbdd7ede7	-0.10543423
142	0x3de414b0	0.11136758
143	0xbccd8371	-0.02508709
144	0xbe1aa3a2	-0.15101483
145	0x3d882f80	0.06649685
146	0x3e0447c2	0.12917998
147	0xbbfd4fdf	-0.0077304686
148	0x3d76cda8	0.060254723
149	0xbe1a461e	-0.1506581
150	0x3cbc500e	0.022987392
151	0xbd12ab9b	-0.035808187
152	0xbddbf1e6	-0.10739498
153	0x3e0d3914	0.13791305
154	0x3e26a663	0.16274409
155	0xbd7fa4f6	-0.06241318
156	0x3e523df9	0.20531453
157	0x3c36ed4a	0.011164973
158	0x3d7d69eb	0.06186859
159	0x3d765b50	0.060145676
160	0x3cf9f318	0.030511424
161	0x3e45bd06	0.19310388
162	0xbe269595	-0.16267999
163	0xbcdd4943	-0.027012473
164	0x3caed899	0.021343516
165	0x3d15fbbc	0.036617026
166	0x3e3d212a	0.18469682
167	0x3e16f4b1	0.1474178
168	0x3d987432	0.074440375
169	0x3df7db95	0.12102429
170	0x3d73884c	0.059456155
171	0x3dd23527	0.10264044
172	0xbdbc0c62	-0.09182049
173	0xbd555878	-0.052086323
174	0xbd084001	-0.033264164
175	0x3dd76c32	0.105186835
176	0x3dc8cf84	0.098052055
177	0xbdfd79cd	-0.12376747
178	0xbd908f08	-0.07058531
179	0x3d1efa6b	0.038813036
180	0xbaafc643	-0.0013410527
181	0xbe0e8a39	-0.13919915
182	0xbc7a83f5	-0.01529025
183	0x3e24f325	0.16108377
184	0x3e7446b8	0.23855102
185	0x3cd3e599	0.025866317
186	0x3d5c9d70	0.05386108
187	0x3d8a6b0f	0.06758701
188	0x3ce7fd92	0.028319154
189	0xbdcde2b1	-0.100530036
190	0xbca6bac9	-0.020352738
191	0x3bbe4a22	0.005807177
192	0xbbeca8ac	-0.0072222557
193	0xbda1af3f	-0.07894754
194	0xbe16d35e	-0.14729068
195	0x3e49073f	0.1963167
196	0xbd798389	-0.060916457
197	0x3cdfe4a8	0.027330711
198	0xbce1df56	-0.027572315
199	0x3d8dad5f	0.069178335
200	0xbdda056f	-0.106455676
201	0xbda10501	-0.078622825
202	0x3d221c4a	0.03957776
203	0x3d77f4db	0.060536247
204	0x3e68d007	0.22735606
205	0xbe687052	-0.22699097
206	0xbe0dba18	-0.1384052
207	0x3e26163c	0.16219419
208	0xbe65c968	-0.22440112
209	0xbd852ddd	-0.06502888
210	0x3d519401	0.05116654
211	0x3d9af660	0.075665236
212	0x3d1dadce	0.03849583
213	0x3e69002a	0.22753969
214	0x3e1b5b48	0.1517154
215	0xbd32c291	-0.043642584
216	0x3df745b5	0.120738424
217	0x3da2e472	0.07953729
218	0x3e47ee1b	0.19524424
219	0xbd0bbd4d	-0.03411608
220	0xbd07489b	-0.033028226
221	0xbb81a6cb	-0.003956651
222	0xbd2e3d95	-0.042539198
223	0x3d51b7a0	0.05120051
224	0x3e79df0c	0.24401492
225	0x3d95522b	0.07291063
226	0xbd12593d	-0.035729636
227	0x3d6e9570	0.058247983
228	0x3e01263d	0.12612243
229	0xbe0951ec	-0.13410157
230	0x3da18543	0.07886746
231	0x3d68600f	0.056732234
232	0xbe0d4041	-0.13794042
233	0xbe51d037	-0.20489584
234	0xbe34549f	-0.17610405
235	0x3d34e2c8	0.044161588
236	0x3ccff73b	0.025386443
237	0x3d846ba9	0.06465847
238	0x3d40fb59	0.047114704
239	0xbd9ef373	-0.07761278
240	0x3dfc5df0	0.12322605
241	0xbd57241a	-0.052524664
242	0x3db627d5	0.08894316
243	0xbe1d6976	-0.15372261
244	0xbe1f2b0e	-0.15543768
245	0x3d705af6	0.058680497
246	0xbe2ae881	-0.16690256
247	0xbd9ba78a	-0.07600315
248	0x3ce9117f	0.028450726
249	0xbd8213ba	-0.06351419
250	0x3df2502b	0.11831697
251	0x3bcc7882	0.0062399516
252	0x3e9f4a6e	0.31111473
253	0x3d24a086	0.04019215
254	0xbc311c4f	-0.010809972
255	0x3dab02c9	0.083501406

gru2out.bias f4 [5]
0	0xbe8830f9	-0.26599863
1	0xbd26638c	-0.04062228
2	0x3dcd0f70	0.1001271
3	0x3e0d1f3b	0.13781445
4	0x3d49c0cd	0.049256135
