try7_simData4_nonconserved/30bp_SingleNonconserved_s3_UnifBG_fullytrainedGen.pth (torch, 67905 bytes, 7 tensors)

embeddings.weight f4 [5, 16]
0	0x3e70820d	0.2348711
1	0xbf0bbd7c	-0.54586005
2	0x3f8f5011	1.1196309
3	0x3dcd06d2	0.100110665
4	0x3f844a51	1.033518
5	0xbf50b02b	-0.8151881
6	0x3ff14218	1.8848295
7	0xbe9501c8	-0.2910292
8	0x3fd71c3c	1.6805491
9	0x3fb54753	1.4162391
10	0x3efaf6fc	0.4901656
11	0xbe6a4465	-0.22877653
12	0x3fef5a92	1.8699515
13	0xbed89d0a	-0.4230731
14	0xbf8fb4ca	-1.1227047
15	0x3f890946	1.0705955
16	0x3f977883	1.1833652
17	0x3eec8255	0.46193185
18	0xbf71d082	-0.9445878
19	0xbf8cbff6	-1.0996082
20	0xc007abe4	-2.1198664
21	0xbfcfbdfc	-1.6229854
22	0xbe361532	-0.17781523
23	0xbe6d22a9	-0.23157753
24	0x3f66b47a	0.90119135
25	0x3ea4a57f	0.32157513
26	0x405f27fb	3.4868152
27	0xbf859877	-1.0437154
28	0xbed28ec6	-0.41124552
29	0x3f5b1d6a	0.8559176
30	0x3d35c047	0.044372823
31	0x3feb795a	1.8396409
32	0xbd22b4d4	-0.039723232
33	0xbfc3261a	-1.5246003
34	0x3f72bfe3	0.94824046
35	0x3fbafc49	1.4608241
36	0x3f712b3b	0.9420659
37	0x3ee53358	0.44765735
38	0x3f7c73af	0.9861402
39	0x3eda65cb	0.42655787
40	0x3e9fb80b	0.311951
41	0xbefd84a3	-0.49515256
42	0xbe4edfd4	-0.20202571
43	0x3ebe0b7f	0.37118146
44	0xbf62142e	-0.8831204
45	0xbf34a2d2	-0.70560944
46	0x3de19fe9	0.110168286
47	0x3ec15f3f	0.3776798
48	0xbeeae9b8	-0.45881438
49	0x3f867a0d	1.0505997
50	0x3f10624d	0.56399995
51	0x3f200803	0.62512225
52	0x3b6c031b	0.0036012593
53	0xbdf5703f	-0.119843
54	0xbdb0c5d6	-0.08631484
55	0xbfab68a1	-1.3391305
56	0xbe94fc45	-0.29098716
57	0xbf9a11f5	-1.203673
58	0xbf102bc2	-0.5631677
59	0x3e758289	0.23975576
60	0x3f993ff9	1.1972648
61	0x3fedb470	1.857069
62	0x3fc0ff50	1.5077915
63	0xbed975cb	-0.4247268
64	0x4011de80	2.2792053
65	0x39024fdd	0.00012427518
66	0xbefd15c1	-0.4943066
67	0xbe5f627b	-0.21814911
68	0xbedf17e9	-0.4357293
69	0x3f193d8a	0.59859526
70	0x3f284954	0.6573689
71	0xbe89e244	-0.2693044
72	0x3e8e7fca	0.2783187
73	0x3f6ffc6f	0.9374456
74	0xbf9ea599	-1.2394286
75	0xbf905ddc	-1.1278644
76	0x3f53720c	0.82595897
77	0xbf61322f	-0.879672
78	0x3f815ea2	1.0107005
79	0xbf02193e	-0.50819767

gru.weight_ih_l0 f4 [192, 16]
0	0x3cc7af52	0.024375591
1	0x3e25ed69	0.16203846
2	0xbc97a026	-0.018508982
3	0xbe5e2ee8	-0.21697581
4	0xbe6ef1cd	-0.23334427
5	0xbe97060f	-0.2949681
6	0x3e26c1b9	0.16284837
7	0xbe44917b	-0.19196121
8	0x3e15b3b2	0.1461933
9	0x3e974a05	0.2954866
10	0x3eb20930	0.34772635
11	0xbde3769f	-0.111066096
12	0x3e18816c	0.1489312
13	0x3d48f4c8	0.049061567
14	0xbe110af7	-0.14164339
15	0x3e9fc8dd	0.31207934
16	0x3ecdcbdd	0.40194598
17	0x3ec5b268	0.38612676
18	0xbebeeba9	-0.3728917
19	0xbec4bd0f	-0.3842549
20	0xbec6029e	-0.38673872
21	0xbea0d98c	-0.31415975
22	0x3db01d0a	0.08599289
23	0xbefb8955	-0.49128214
24	0x3e60dafc	0.21958536
25	0x3ec062f4	0.37575495
26	0x3e9b46be	0.3032741
27	0xbe8d3ce5	-0.2758552
28	0x3ef4d301	0.47817233
29	0x3eb12e39	0.34605578
30	0x3e764b33	0.24052124
31	0x3e2bd616	0.16780886
32	0xbe609ac1	-0.21934034
33	0x3f49c256	0.7881216
34	0x3e4eedea	0.20207945
35	0x3be2bc39	0.0069194105
36	0xbe7029e1	-0.23453476
37	0xbf22a6a0	-0.635355
38	0xbe76f207	-0.24115764
39	0xbeee1e71	-0.465076
40	0x3e6093aa	0.2193133
41	0xbea56027	-0.3229992
42	0x3ea464c3	0.32108125
43	0xbd760af1	-0.06006903
44	0x3e5bca81	0.21463968
45	0x3f43704f	0.76343244
46	0x3df18305	0.11792568
47	0x3ec529ed	0.3850855
48	0x3e47eba0	0.19523478
49	0xbd365d0a	-0.044522323
50	0xbe16216e	-0.1466119
51	0x3e89c396	0.26907033
52	0xbdf9f689	-0.12205226
53	0x3c595a7d	0.013266203
54	0x3ec66f29	0.38756683
55	0x3b9023a9	0.0043987823
56	0x3ebe0b21	0.37117866
57	0xbc9cfbaf	-0.01916298
58	0xbd074e06	-0.033033393
59	0xbe412468	-0.18861544
60	0xbd227bdf	-0.039668914
61	0x3c4bba3c	0.012434538
62	0x3e3e61f3	0.18592052
63	0x3e01aa27	0.12662564
64	0x3b865177	0.004099067
65	0x3eaec373	0.3413349
66	0xbe0b4712	-0.1360133
67	0xbe5586f6	-0.20852265
68	0xbe0ea25d	-0.13929124
69	0xbdbe6292	-0.092961445
70	0x3e109a0b	0.14121263
71	0xbe533b7b	-0.20628159
72	0x3e8f1c71	0.27951387
73	0x3e72f420	0.23725939
74	0xbced41b1	-0.028961988
75	0xbe0416ab	-0.12899272
76	0x3e06f3e0	0.13178968
77	0xbd51754a	-0.051137246
78	0x3e00d222	0.1258016
79	0x3e038293	0.12842779
80	0x3f24806f	0.64258474
81	0xbd51dcc6	-0.051235937
82	0xbe38a0b6	-0.18030056
83	0xbe677865	-0.2260452
84	0xbde3c3da	-0.1112134
85	0xbd51fa00	-0.05126381
86	0x3ec3a693	0.38213024
87	0xbd81a6a9	-0.06330616
88	0x3e74e74c	0.23916358
89	0x3ebe52f8	0.37172675
90	0xbe1e1c72	-0.15440539
91	0xbf1b1572	-0.605796
92	0x3ed1110e	0.40833324
93	0xbeb760bf	-0.35816
94	0xbbe0471e	-0.0068444153
95	0x3ddf61f0	0.10907352
96	0xbe4f281e	-0.20230147
97	0xbf6dcac1	-0.928875
98	0x3f00d0ee	0.503188
99	0x3f7404c1	0.95319754
100	0x3f217a68	0.630774
101	0x3f010f63	0.50414103
102	0x3e0a0104	0.1347695
103	0x3dc03745	0.09385542
104	0xbf0bd53d	-0.5462225
105	0xbedf873a	-0.43657857
106	0xbf02832b	-0.50981396
107	0x3eeadd88	0.4587214
108	0xbe258d36	-0.16167149
109	0xbe46287a	-0.19351378
110	0x3e18d888	0.1492635
111	0xbecc2334	-0.39870608
112	0x3fb96472	1.4483778
113	0xbebdb07d	-0.37048712
114	0xbf306c1e	-0.68914974
115	0xbef84604	-0.48490918
116	0xbf380a9b	-0.7189118
117	0xbe37847d	-0.17921634
118	0x3ebeaa30	0.37239218
119	0xbda421f7	-0.08014291
120	0x3f6b11af	0.9182386
121	0x3f4c3ed9	0.797834
122	0x3e5f7ee6	0.21825752
123	0xbfb07116	-1.3784511
124	0x3e9e858d	0.30961266
125	0xbf407e84	-0.7519305
126	0xbe0343a9	-0.12818779
127	0x3f08473a	0.53233683
128	0x3e7ffdc9	0.24999155
129	0x3e22f3f1	0.15913369
130	0xbe2f413f	-0.17114733
131	0xbd93ba39	-0.072132535
132	0xbe3bfe72	-0.18358782
133	0x3e1ccde8	0.15312922
134	0xbe4fedbd	-0.20305534
135	0xbe465142	-0.19366935
136	0x3d222a02	0.039590843
137	0xbd1bacf5	-0.03800674
138	0xbe08fa70	-0.13376784
139	0xbe78782b	-0.2426459
140	0x3e12c01b	0.14331095
141	0x3e0c590b	0.13705842
142	0x3d9d8c33	0.076927565
143	0xbcca8625	-0.024722168
144	0xbf158546	-0.58406484
145	0xbc48cbcc	-0.01225562
146	0x3f41586d	0.7552555
147	0x3f11f49a	0.5701386
148	0x3ee3592c	0.4440397
149	0xbf30e040	-0.6909218
150	0xbea84c61	-0.32870772
151	0x3e08c074	0.13354665
152	0xbd754c8f	-0.059887465
153	0xbf0593d0	-0.5217867
154	0x3f619de8	0.8813157
155	0x3ef79fb0	0.4836402
156	0xbecd1ae1	-0.4005957
157	0x3f68b7b7	0.90905327
158	0xbece3e93	-0.40282115
159	0x3f36fe04	0.7148135
160	0x3e2e90d5	0.17047437
161	0xbe57b82d	-0.21066351
162	0x3e5fc178	0.21851146
163	0x3f0c00b0	0.5468855
164	0x3ebafedc	0.36522567
165	0x3ef22b34	0.47298586
166	0x3eb5137d	0.3536643
167	0xbea4f9d3	-0.3222185
168	0xbe81551d	-0.2526025
169	0xbcdd87fa	-0.027042378
170	0xbf249a94	-0.6429837
171	0x3a055fd6	0.0005087828
172	0x3eefe561	0.4685469
173	0xbec41e35	-0.38304296
174	0x3f072a78	0.5279918
175	0xbf1287c4	-0.5723841
176	0x3e35f0ea	0.17767683
177	0xbf5c2980	-0.86000824
178	0x3cd710e6	0.026253175
179	0x3e591616	0.21199831
180	0x3f186b13	0.5953838
181	0x3f0b0613	0.54306144
182	0x3f1e9ad0	0.61954975
183	0x3f1d115e	0.61354625
184	0x3f04e372	0.51909554
185	0x3f2548e2	0.64564335
186	0xbe96c958	-0.29450488
187	0xbe68fdc8	-0.2275306
188	0xbda25037	-0.07925456
189	0xbfb2524e	-1.3931367
190	0xbe02b3a1	-0.12763835
191	0x3e11b350	0.14228559
192	0x3f27b226	0.6550621
193	0xbe99a7a5	-0.30010715
194	0xbe485d34	-0.19566804
195	0x3c9f03bf	0.019410966
196	0xbdd343ad	-0.103156425
197	0x3e679f7d	0.22619434
198	0x3f5a848f	0.8535852
199	0x3dab9027	0.08377104
200	0x3f069ea2	0.52585804
201	0x3e819a2a	0.2531293
202	0x3c98895f	0.018620191
203	0xbe8fe9f0	-0.28108168
204	0xbe225fee	-0.15856907
205	0xbea287a5	-0.31744114
206	0x3dcfcfdf	0.1014707
207	0x3eea2e5b	0.4573849
208	0xbefd840d	-0.4951481
209	0xbf4e4d5a	-0.8058678
210	0x3f4d1907	0.80116314
211	0x3f0d525d	0.552038
212	0x3f493dfe	0.7861022
213	0x3e6d3bae	0.23167297
214	0x3ddc89d2	0.10768475
215	0x3ea185fb	0.3154753
216	0xbe33dcf1	-0.17564751
217	0xbec7a344	-0.3899175
218	0xbe742c95	-0.23845132
219	0x3f1cbabc	0.61222434
220	0xbef063fe	-0.46951288
221	0xbef8bbbd	-0.48580733
222	0xbe9dd0f9	-0.30823496
223	0x3d78514f	0.060624417
224	0xbd41b828	-0.047294766
225	0x3f116617	0.567964
226	0xbe698001	-0.22802736
227	0xbeb5c8c0	-0.35504723
228	0xbe5cf6c3	-0.21578507
229	0xbe6f23b2	-0.2335346
230	0xbe9d0af9	-0.30672434
231	0xbea0993c	-0.3136691
232	0xbdbf435c	-0.0933902
233	0xbd1b7c8e	-0.03796058
234	0x3df1cbe6	0.11806469
235	0xbd6df54b	-0.058095258
236	0xbbfa6993	-0.00764198
237	0x3e9fef02	0.31237036
238	0x3e2df0e3	0.16986422
239	0x3bf1b147	0.0073758694
240	0x3e698f7f	0.22808646
241	0x3f725b41	0.9467049
242	0xbf067620	-0.52523994
243	0xbf807e5d	-1.0038563
244	0xbf34d2dc	-0.70634246
245	0xbf31a191	-0.69387156
246	0xbd7e20f7	-0.062043156
247	0xbf05722e	-0.5212735
248	0x3e02d247	0.12775527
249	0x3f13945f	0.5764827
250	0x3efa58af	0.48895785
251	0xbf0deaca	-0.55436385
252	0x3ecece8a	0.40391952
253	0x3e6f74d5	0.23384412
254	0x3b818524	0.003952639
255	0x3e577bc4	0.21043307

gru.weight_hh_l0 f4 [192, 64]
0	0xbe898423	-0.26858625
1	0x3ee62c2f	0.44955584
2	0xbee802ce	-0.4531464
3	0x3ecb7154	0.397349
4	0x3f0855c8	0.5325589
5	0xbe25fe50	-0.16210294
6	0x3e8e1b2a	0.277551
7	0x3c5ef4a1	0.013608129
8	0x3eb58cf3	0.35459098
9	0x3c7e18bb	0.015508826
10	0x3e713221	0.23554279
11	0x3e9ada29	0.30244568
12	0x3e619faf	0.2203357
13	0x3dc78366	0.09741859
14	0xbe1b81ae	-0.15186188
15	0x3ea1a90b	0.31574282
16	0x3f771e7c	0.9653089
17	0x3f22e172	0.6362525
18	0x3eb9603e	0.3620624
19	0xbf232719	-0.63731533
20	0xbfae30a3	-1.3608593
21	0xbf2eacb8	-0.682323
22	0x3f119d46	0.56880605
23	0xbdd717c6	-0.10502581
24	0x3eaf63ac	0.3425573
25	0x3daad065	0.08340529
26	0x3ea1a235	0.31569067
27	0xbb5564a5	-0.003256121
28	0xbe9437b9	-0.28948763
29	0xbf3cd21d	-0.7375811
30	0xbe81363e	-0.25236696
31	0xbf8851f2	-1.0650008
32	0x3ee10a4f	0.43953177
33	0x3f2d37da	0.6766335
34	0xbfc2a146	-1.5205467
35	0x3dd80cd9	0.105493255
36	0x3d9276c0	0.07151556
37	0xbe16949b	-0.14705126
38	0xbd0cd2a9	-0.03438059
39	0xbeda6c25	-0.42660633
40	0x3e7c72e1	0.24653198
41	0x3f1e7ef4	0.61912465
42	0x3e2f7773	0.1713541
43	0x3ee5967a	0.44841367
44	0x3e063399	0.1310562
45	0xbe176ba6	-0.14787158
46	0x3e085aa4	0.13315827
47	0xbe72ab8e	-0.23698255
48	0xbe1d2cc0	-0.15349102
49	0x3ec6fbf4	0.388641
50	0xbf1b19d4	-0.60586286
51	0xbd470020	-0.048584104
52	0xbdd3a812	-0.10334791
53	0xbf754aae	-0.9581708
54	0xbe79a2d4	-0.2437852
55	0xbf1fe6af	-0.6246137
56	0xbc25f698	-0.010129593
57	0xbe0ee5d2	-0.13954857
58	0xbf1f90e5	-0.62330467
59	0x3f5034eb	0.81330746
60	0xbdf73f49	-0.120726176
61	0x3fb2430a	1.3926709
62	0x3f3e3ff2	0.7431632
63	0x3f7b823b	0.9824559
64	0x3edd8f18	0.43273234
65	0xbe5805c0	-0.21095943
66	0xbe2363ab	-0.15955989
67	0xbdb246fb	-0.08704945
68	0x3ec98646	0.39360255
69	0x3f354e5d	0.708227
70	0x3f0025d9	0.5005775
71	0xbe2b9d06	-0.16759118
72	0xbddc00aa	-0.10742314
73	0x3ec896f1	0.3917766
74	0x3e829f42	0.2551213
75	0x3e92fe8c	0.2870983
76	0xbe9d7202	-0.30751044
77	0x3e1ed19f	0.15509652
78	0xbe84ffbd	-0.25976363
79	0x3f57ad2f	0.8424863
80	0xbe068f89	-0.13140692
81	0x3ee9634c	0.4558357
82	0xbfd2f726	-1.6481674
83	0xbf3e3cc6	-0.7431148
84	0xbebd6b16	-0.36995763
85	0x3e12007f	0.14258002
86	0x3ed61600	0.4181366
87	0x3f350858	0.70715857
88	0x3eea0e6a	0.45714122
89	0xbe991b80	-0.29903793
90	0xbf06f82f	-0.5272245
91	0xbdda092d	-0.106462814
92	0xbf4255d9	-0.75912243
93	0x3e953fa7	0.29150125
94	0x3e9e71ba	0.3094614
95	0xbdb751ea	-0.08951171
96	0x3f0b3fb7	0.54394096
97	0x3f4f23c4	0.8091395
98	0xbf020e2f	-0.5080289
99	0x3ea018db	0.31268963
100	0xbe84fbe6	-0.25973433
101	0xbf5bcbb5	-0.8585771
102	0x3d2f2980	0.042764187
103	0xbf1cdb62	-0.6127225
104	0x3dbf0292	0.09326662
105	0x3f4998db	0.78748864
106	0x3ec0fa0c	0.3769077
107	0xbf13222a	-0.57474005
108	0x3dcb3fe2	0.09924294
109	0xbedcbdae	-0.43113464
110	0xbe6b8490	-0.22999787
111	0xbf34017f	-0.7031478
112	0xbeb15b0f	-0.34639785
113	0x3eabe79a	0.33575135
114	0xbeb005c4	-0.343794
115	0xbf0efa18	-0.5585036
116	0x3e44766e	0.19185802
117	0xbf06dc3a	-0.5267979
118	0xbd9864f5	-0.07441131
119	0x3d6acdfe	0.057325356
120	0x3e1c72f0	0.1527822
121	0x3e16e02d	0.14733954
122	0x3f7d74c4	0.99006295
123	0x3f0177b9	0.5057331
124	0x3c28505a	0.010273064
125	0x3f79eeca	0.9762999
126	0x3e4145d1	0.18874289
127	0xbeabcead	-0.3355612
128	0x3d587d0e	0.052853636
129	0xbf53773c	-0.8260381
130	0x3f0f9921	0.5609303
131	0x3eba3172	0.3636585
132	0x3e46c906	0.19412622
133	0xbd97b39d	-0.074073054
134	0x3f726bf9	0.94696003
135	0xbdb0e0c4	-0.08636621
136	0xbea20bbe	-0.31649584
137	0x3e1115ae	0.14168426
138	0xbe465eea	-0.19372144
139	0xbf47c070	-0.7802801
140	0xbe9ef9e4	-0.31050026
141	0x3ea9d963	0.33173665
142	0xbedb728a	-0.42860824
143	0x3f09d0db	0.53834313
144	0xbf12c6d2	-0.57334626
145	0xbe00fe92	-0.12597111
146	0xbe806505	-0.25077072
147	0x3f0eb7b2	0.55749047
148	0xbf1b1b92	-0.60588944
149	0x3e9c4af7	0.30525944
150	0x3dd444da	0.10364695
151	0xbf649006	-0.8928226
152	0xbe88128f	-0.2657666
153	0xbf176f0c	-0.5915382
154	0xbf19eb75	-0.60124904
155	0xbf0bda5f	-0.5463008
156	0x3eae5a9a	0.34053499
157	0x3f2938df	0.66102403
158	0xbf334850	-0.70032215
159	0x3de37b6b	0.111075245
160	0x3ecb8412	0.397492
161	0xbe5e8d3b	-0.21733563
162	0xbdeb8e1f	-0.11501717
163	0xbcf1cbe7	-0.029516174
164	0xbda62260	-0.08112025
165	0x3e86560b	0.2623752
166	0xbf2073cf	-0.6267671
167	0xbf20a19b	-0.6274659
168	0x3f278aa3	0.6544592
169	0xbed2c525	-0.41166034
170	0x3e0e395f	0.13889073
171	0xbee5151f	-0.44742677
172	0xbf049289	-0.51786095
173	0xbe54e73f	-0.20791338
174	0x3cd371d0	0.025811106
175	0xbf145fce	-0.57958686
176	0x3e1b64c3	0.15175156
177	0xbf08f280	-0.53495026
178	0x3c103389	0.008801349
179	0x3eb0a154	0.34498084
180	0xbe057395	-0.13032372
181	0x3df39b77	0.11894887
182	0xbe06f949	-0.13181032
183	0x3de5bcad	0.11217628
184	0xbf082d7d	-0.5319441
185	0x3e82bcde	0.2553472
186	0xbf0fa0ce	-0.56104743
187	0xbe08ca35	-0.13358386
188	0xbe20fe5b	-0.15722029
189	0x3e23696e	0.15958187
190	0x3e877c50	0.2646203
191	0xbe9a49f7	-0.30134556
192	0x3e8a178c	0.2697109
193	0x3f64bfae	0.8935498
194	0x3cb0b88b	0.021572372
195	0xbe0511a0	-0.12995005
196	0x3e409f32	0.18810728
197	0x3dea612c	0.11444315
198	0x3f4dee3a	0.8044163
199	0xbf4f715d	-0.81032354
200	0xbebcec98	-0.36899257
201	0x3e92f36f	0.2870135
202	0xbe8453bb	-0.2584513
203	0xbf9db798	-1.2321653
204	0xbc81df31	-0.015853496
205	0x3dc01d93	0.09380641
206	0xbe0a7fdc	-0.13525337
207	0x3e6c7393	0.23090963
208	0xbe233637	-0.1593865
209	0x3e61dd09	0.22056974
210	0x3f4c38d1	0.79774195
211	0x3ed0d11c	0.40784538
212	0xbe78712f	-0.24261926
213	0x3ee76e13	0.45201167
214	0x3e22717f	0.15863608
215	0x3d542c8d	0.0518003
216	0xbf3293f2	-0.69756997
217	0xbf1671bf	-0.5876731
218	0xbe8162d7	-0.2527072
219	0xbf0e8a07	-0.55679363
220	0x3f02fdee	0.51168716
221	0x3f093067	0.5358948
222	0x3d8072ae	0.062718734
223	0x3e2aa9e7	0.16666375
224	0x3f130616	0.5743116
225	0xbdffe463	-0.12494733
226	0x3f14a673	0.5806648
227	0xbd2b76de	-0.041861407
228	0xbe2df98f	-0.1698973
229	0xbe894b8b	-0.26815447
230	0xbece265a	-0.40263635
231	0xbf4ee306	-0.8081516
232	0x3f0371fc	0.513458
233	0xbee9912e	-0.45618576
234	0x3e904b95	0.28182665
235	0xbdfea463	-0.12433698
236	0xbc9328c6	-0.017963778
237	0xbed65904	-0.4186479
238	0xbf010bd8	-0.504087
239	0xbf035278	-0.5129771
240	0x3de330b9	0.110932775
241	0xbf077882	-0.52918255
242	0x3ea0acea	0.31381923
243	0xbedab96f	-0.427196
244	0x3de90b53	0.11379113
245	0x3ddc7304	0.10764125
246	0xbe9b87fa	-0.3037718
247	0x3dd3ad83	0.10335829
248	0xbf57d5f7	-0.8431086
249	0x3efcb04f	0.49353263
250	0xbd7955ba	-0.06087277
251	0x3ef39ec5	0.4758207
252	0xbd0f649f	-0.03500807
253	0xbf162ed5	-0.5866521
254	0x3edd720a	0.43251067
255	0x3e817b5b	0.25289425

gru.bias_ih_l0 f4 [192]
0	0x3d90492f	0.07045209
1	0x3e9c50c4	0.3053037
2	0x3e6346c9	0.22194971
3	0x3eddd76f	0.43328425
4	0x3e249208	0.16071332
5	0x3e8c4116	0.27393407
6	0x3c831afa	0.016004074
7	0x3ea65b55	0.32491556
8	0x3d8f9571	0.070109256
9	0xbe4784b3	-0.19484214
10	0x3e8bc795	0.27300707
11	0x3e148a5e	0.14505908
12	0x3e3fc91e	0.18729064
13	0xbe996920	-0.29963017
14	0x3c26b04e	0.01017387
15	0x3e35e632	0.17763594
16	0x3ec183f3	0.37795982
17	0x3ef6c3c9	0.48196247
18	0x3e2f4f99	0.17120208
19	0x3e5ee205	0.21765907
20	0x3d43d273	0.047808122
21	0x3dfd14a7	0.12357455
22	0x3f020299	0.50785214
23	0xbd75e736	-0.060034953
24	0xbddd45d0	-0.10804331
25	0x3da766b8	0.08173889
26	0x3ea72ac5	0.32649818
27	0xbda843f2	-0.082160845
28	0x3ea6bf2b	0.32567725
29	0x3f0e6465	0.5562194
30	0xba2f0b95	-0.0006677446
31	0xbe1e2d11	-0.15446879
32	0xbd9ea264	-0.07745817
33	0xbc92721c	-0.017876677
34	0xbe84eb37	-0.25960705
35	0xbd202b94	-0.03910406
36	0x3ee475e4	0.44621193
37	0x3e918933	0.28424987
38	0x3e4de46b	0.20106666
39	0x3e8aa631	0.2707992
40	0x3e1d5e68	0.15368044
41	0x3ebb241f	0.36550996
42	0x3f00a797	0.5025572
43	0xbe50a30b	-0.20374696
44	0x3ee8baae	0.45454925
45	0x3f037d05	0.5136264
46	0x3f1bcd81	0.6086045
47	0x3deafc56	0.114739105
48	0xbe2f03c4	-0.1709128
49	0x3e63f4a2	0.22261289
50	0x3ef4ac81	0.4778786
51	0x3e3893c0	0.18025112
52	0x3e123a19	0.14279975
53	0x3e4be8ae	0.19912979
54	0x3def8cd2	0.11696781
55	0x3e84ebea	0.25961238
56	0xbe569b38	-0.20957649
57	0xbe54a1a0	-0.2076478
58	0x3ebbe562	0.36698443
59	0xbf129b44	-0.57268167
60	0x3f126f04	0.57200646
61	0x3e27c8a3	0.1638513
62	0x3eee07cb	0.4649032
63	0x3d8d28f2	0.06892575
64	0xbe6e0959	-0.23245753
65	0x3e255e8b	0.16149347
66	0xbea80eea	-0.3282388
67	0xbea23c40	-0.31686592
68	0x3cb0da50	0.021588475
69	0xbe196372	-0.14979342
70	0xbe19bc7c	-0.15013307
71	0xbdbb5cd4	-0.09148565
72	0xbe2d5943	-0.16928582
73	0x3e637060	0.22210836
74	0xbd5eda78	-0.054407567
75	0xbeb77d9e	-0.35838026
76	0xbe96230b	-0.2932361
77	0xbe27bad6	-0.16379866
78	0xbd15066d	-0.03638308
79	0xbf5938b1	-0.8485213
80	0xbee211c8	-0.4415419
81	0xbed8b1c3	-0.4232312
82	0xbe05838c	-0.13038462
83	0xbf1f6af3	-0.62272567
84	0xbe93f6e8	-0.28899312
85	0xbf43c7de	-0.7647685
86	0xbda9f525	-0.08298711
87	0xbefd3e0f	-0.4946141
88	0xbf055bf4	-0.52093434
89	0xbefda2e9	-0.49538353
90	0xbe5e4908	-0.21707547
91	0xbe365ba0	-0.1780839
92	0xbf2f025b	-0.6836297
93	0xbf556ad2	-0.8336612
94	0xbe8f7ecb	-0.28026423
95	0xbeaa640c	-0.33279455
96	0x3f0037c5	0.500851
97	0xbe914e53	-0.2838007
98	0xbe24a2f9	-0.16077794
99	0xbe92fc95	-0.2870833
100	0xbeb09549	-0.34488896
101	0xbd8f4380	-0.069952965
102	0xbe1e5e26	-0.15465602
103	0xbc9b00e7	-0.018921329
104	0xbe12269b	-0.1427254
105	0x3aed4102	0.0018101039
106	0x3ca8a8c1	0.02058828
107	0xbe801b74	-0.25020945
108	0xbe60d86b	-0.21957557
109	0x3ebbce8e	0.36681026
110	0xbe4c8dfb	-0.19976036
111	0x3f09816a	0.53713095
112	0xbea47b97	-0.32125542
113	0x3e8e9e4e	0.27855152
114	0x3ddb4405	0.10706333
115	0xbe805527	-0.25064966
116	0xbd09f7d8	-0.033683628
117	0x3dbac366	0.091193005
118	0xbecc6550	-0.39921045
119	0xbefaca45	-0.48982444
120	0xbeb08b36	-0.3448121
121	0xbf04dace	-0.5189637
122	0xbf0393ea	-0.51397574
123	0x3e1417fd	0.14462276
124	0xbf7a3b04	-0.977463
125	0xbd0826a5	-0.03323998
126	0xbe9ec380	-0.3100853
127	0xbed46ce2	-0.4148932
128	0x3e3ea3d1	0.18617178
129	0xbe2455b7	-0.16048323
130	0x3de4fe89	0.11181361
131	0x3e3cde0c	0.18444079
132	0x3d28cd62	0.041211493
133	0xbacef5a1	-0.0015789756
134	0x3e6ebfe4	0.23315388
135	0xbe3bbfda	-0.18334904
136	0xbd273a0f	-0.040826853
137	0x3d795ad0	0.06087762
138	0xbe1e9933	-0.15488128
139	0xbe4e9b77	-0.20176493
140	0x3e7ff463	0.2499557
141	0xbe09372c	-0.13399953
142	0x3db6213f	0.0889306
143	0x3bba5ffa	0.005687711
144	0x3ed395af	0.41325137
145	0x3e088f1b	0.1333584
146	0x3e1521ab	0.14563625
147	0x3e8b7402	0.27236944
148	0xbe24913b	-0.16071026
149	0x3d83a815	0.064285435
150	0x3e582296	0.21106943
151	0x3e2e24cb	0.17006223
152	0x3de35911	0.111009724
153	0x3cd326f3	0.025775408
154	0x3d330464	0.04370536
155	0xbddaba60	-0.106800795
156	0xbe3b733d	-0.18305679
157	0x3e5eef4e	0.21770975
158	0x3df76415	0.12079636
159	0xbdc08952	-0.09401192
160	0x3e25b5e3	0.16182666
161	0x3d7bc3e1	0.0614661
162	0xbd15b633	-0.03655071
163	0xbe28f8a8	-0.16501105
164	0xbe1b9679	-0.1519412
165	0xbe0c5b7c	-0.13706774
166	0xbdf28240	-0.118412495
167	0x3c9cafd4	0.01912681
168	0x3d8a3053	0.06747498
169	0xbdd7050a	-0.10499008
170	0x3e8282cb	0.25490412
171	0x3d8aede0	0.06783652
172	0xbed40335	-0.41408697
173	0xbd92a60b	-0.071605764
174	0x3e8bd275	0.27309003
175	0xbe34fb8a	-0.1767408
176	0xbd5ca113	-0.05386455
177	0xbdc5aa60	-0.09651637
178	0x3bd98395	0.0066380003
179	0x3e3e548a	0.18586937
180	0x3c85983c	0.016307943
181	0xbd5d763a	-0.054067828
182	0xbf19aba0	-0.60027504
183	0x3d910981	0.07081891
184	0x3e4d411a	0.20044366
185	0xbd71405c	-0.05889927
186	0x3e20ea7e	0.15714452
187	0x3e13a7b7	0.14419447
188	0x3d3ffa54	0.04686959
189	0x3dbae21f	0.091251604
190	0xbe826fce	-0.25475925
191	0x3cb0d939	0.021587955

gru.bias_hh_l0 f4 [192]
0	0x3dacbab8	0.08434051
1	0x3ea0a927	0.31379053
2	0x3e2d7673	0.16939716
3	0x3eaf5ae1	0.34249023
4	0x3e93b64d	0.28850022
5	0x3e885582	0.26627737
6	0x3b4138b8	0.002948327
7	0x3ed4b33b	0.41542992
8	0x3d254851	0.04035217
9	0xbe54697e	-0.20743367
10	0x3d8d1980	0.06889629
11	0x3e5dab4d	0.21647377
12	0x3e1f4aae	0.15555832
13	0xbe8e2a2a	-0.27766544
14	0x3de39f8d	0.11114416
15	0x3e3ca12f	0.18420862
16	0x3ed5bc8e	0.41745418
17	0x3ea2c4f3	0.31790885
18	0x3e5a0f33	0.2129486
19	0x3e028435	0.12745745
20	0x3e40aa4b	0.18814962
21	0x3e73d7ec	0.23812836
22	0x3ef93d23	0.48679456
23	0xbcc1e897	-0.023670478
24	0xbe0df36a	-0.13862386
25	0x3e384e77	0.17998682
26	0x3ece5efd	0.40306845
27	0xbe72ac36	-0.23698506
28	0x3e8bd296	0.27309102
29	0x3f217a7f	0.6307754
30	0xbe5bb78c	-0.21456736
31	0xbdb9c231	-0.09070242
32	0xbe4faf93	-0.2028182
33	0x3dbd8e02	0.092556015
34	0xbedaaa25	-0.42707935
35	0xbdb17c81	-0.08666325
36	0x3ee50a4b	0.44734415
37	0x3e66f2c7	0.2255355
38	0x3edc38a1	0.43011954
39	0x3e8e859f	0.2783632
40	0x3de4b6af	0.11167657
41	0x3eb0a1ec	0.34498537
42	0x3e9cc4f1	0.30619004
43	0xbea02228	-0.3127606
44	0x3ec90652	0.39262635
45	0x3edffdb1	0.4374824
46	0x3f4fd966	0.811911
47	0x3e03fca5	0.12889345
48	0xbe57a75d	-0.21059938
49	0x3e1290ad	0.14313002
50	0x3f1d0a06	0.6134342
51	0x3ea7d3c0	0.3277874
52	0x3e0ea7a5	0.13931139
53	0x3eabd9e5	0.33564678
54	0x3db8d8fc	0.090257615
55	0x3e7d7d7a	0.24754897
56	0xbea114b4	-0.31461108
57	0xbe159e4b	-0.14611165
58	0x3f045f04	0.5170748
59	0xbf21e1ea	-0.6323534
60	0x3ec59f05	0.38597885
61	0x3e238ae3	0.1597095
62	0x3ec6ce01	0.38829044
63	0x3dd1dbbf	0.10246991
64	0xbde5c2d7	-0.112188034
65	0x3e015c1f	0.12632798
66	0xbee3e49e	-0.4451036
67	0xbe5402c2	-0.20704177
68	0xbbc91cd9	-0.006137472
69	0xbe30eac7	-0.1727706
70	0xbdcb5699	-0.099286266
71	0xbe041c80	-0.12901497
72	0xbdc601f9	-0.09668345
73	0x3e9db473	0.30801734
74	0xbd61cd5f	-0.055127498
75	0xbeae7f76	-0.3408162
76	0xbecd37f7	-0.4008176
77	0xbe441655	-0.19149144
78	0xbd81b5e9	-0.06333525
79	0xbf4cd232	-0.8000823
80	0xbed05b27	-0.40694544
81	0xbe52f4c3	-0.20601182
82	0x3bb47fd9	0.0055084047
83	0xbf23ccce	-0.6398438
84	0xbe9daba3	-0.3079501
85	0xbf295f4b	-0.6616103
86	0xbd900771	-0.07032669
87	0xbeae133c	-0.3399905
88	0xbef9fb79	-0.4882467
89	0xbf1d7930	-0.6151304
90	0xbe10ca87	-0.14139758
91	0xbe295adc	-0.16538566
92	0xbf462ba3	-0.77410334
93	0xbf7fdb6e	-0.999442
94	0xbe554e05	-0.20830543
95	0xbe3d1393	-0.18464498
96	0x3f006d81	0.5016709
97	0xbe905edf	-0.2819738
98	0xbe572c6b	-0.21013038
99	0xbe1b88ad	-0.15188856
100	0xbe86b3e8	-0.26309133
101	0xbd3dc229	-0.046327744
102	0xbd8e1e53	-0.06939378
103	0x3aef82be	0.0018273217
104	0xbe18758c	-0.1488859
105	0xbe1bf058	-0.15228403
106	0xbdb8582b	-0.09001192
107	0xbcbaefa4	-0.022819348
108	0xbe0cc765	-0.13747938
109	0x3ea63bfe	0.32467645
110	0xbe65c05a	-0.22436658
111	0x3ee1b9a1	0.44086936
112	0xbe809183	-0.25111017
113	0x3e853af1	0.2602153
114	0xbdc4a3cf	-0.096015565
115	0xbe6f42ac	-0.23365277
116	0x3e2d0e77	0.16900049
117	0x3ddc61a6	0.107608125
118	0xbe9b838d	-0.30373803
119	0xbef7133c	-0.48256862
120	0xbe8ae916	-0.27130955
121	0xbeeb29f2	-0.4593044
122	0xbf0c79af	-0.54873174
123	0xbcd4c17f	-0.025971172
124	0xbf7d96e6	-0.9905838
125	0x3d9a6a41	0.075397976
126	0xbe214db0	-0.15752292
127	0xbeb7f8fe	-0.35932153
128	0x3d354079	0.04425094
129	0xbc80d1a8	-0.015724972
130	0x3dcd13e8	0.100135624
131	0x3e97d886	0.29657382
132	0x3e5b36c5	0.21407612
133	0x3cc95a7a	0.024579275
134	0x3cb96e17	0.022635503
135	0x3d60649b	0.054783445
136	0xbe5402fa	-0.2070426
137	0x3d92022b	0.0712932
138	0xbefc54a4	-0.49283326
139	0xbd3de77d	-0.046363343
140	0x3e16aa9c	0.1471352
141	0xbeb8c093	-0.36084422
142	0xbd847cfc	-0.064691514
143	0xbe1637e1	-0.14669754
144	0x3e23bdb0	0.15990329
145	0x3e3c4b14	0.18388015
146	0x3ee04c16	0.4380805
147	0x3e54c90a	0.20779815
148	0x3c9bf6cc	0.01903858
149	0x3ebfea89	0.37483624
150	0x3e01efe9	0.12689175
151	0x3e0e2489	0.13881125
152	0xbe9b14be	-0.30289263
153	0x3d8de4ae	0.06928383
154	0x3e38c463	0.18043666
155	0xbd788c16	-0.06068047
156	0xbeaed39c	-0.3414582
157	0x3e62cce6	0.22148475
158	0xbdae0420	-0.084968805
159	0xbea5074c	-0.3223213
160	0x3e8fc621	0.28080848
161	0xbd88e088	-0.06683451
162	0xbd623253	-0.055223774
163	0x3ca417b7	0.02003084
164	0x3d4b4f5b	0.049636226
165	0xbe156374	-0.1458872
166	0xbe8a19ec	-0.26972902
167	0xbde676ed	-0.11253152
168	0x3e3d3f14	0.18481094
169	0xbdc1922a	-0.09451707
170	0x3e312b74	0.17301732
171	0xbe678884	-0.2261067
172	0xbefd5e39	-0.4948595
173	0xbea7fa50	-0.3280816
174	0x3d9b9065	0.075959004
175	0xbe42b3bf	-0.1901388
176	0xbcf622df	-0.030045925
177	0xbea3e206	-0.3200838
178	0x3d6a01fc	0.0571308
179	0x3e541ba4	0.20713669
180	0xbd20b5f4	-0.039236024
181	0xbe67617c	-0.22595781
182	0xbf0eafbb	-0.55736893
183	0x3e51a2b9	0.2047223
184	0xbe141e8c	-0.14464778
185	0x3e509d10	0.20372415
186	0x3e363748	0.17794526
187	0x3e327749	0.17428316
188	0xbebb5d06	-0.3659441
189	0x3ca5e465	0.020250509
190	0xbe619ac6	-0.22031698
191	0x3db0540a	0.08609779

gru2out.weight f4 [5, 64]
0	0xbeea6339	-0.45778826
1	0xbead376c	-0.33831346
2	0xbf7a2f8b	-0.97728795
3	0xbe61453c	-0.21999067
4	0xbdc2a4ed	-0.09504113
5	0xbef5380a	-0.47894317
6	0xbf1d2fa0	-0.61400795
7	0x3f18fc5b	0.59760064
8	0x3e51429a	0.20435563
9	0xbe68fd58	-0.22752893
10	0x3e438ff0	0.19097877
11	0x3e8c3086	0.2738077
12	0xbee6ba87	-0.45064184
13	0xbe293e03	-0.16527562
14	0xbd47435f	-0.048648234
15	0xbdb704cd	-0.089364626
16	0xbf67362b	-0.9031703
17	0xbdfb016a	-0.12256129
18	0x3e60e2ce	0.21961519
19	0xbf13cb7e	-0.5773238
20	0x3e600257	0.21875893
21	0xbe69f4aa	-0.22847238
22	0xbe947587	-0.28995916
23	0x3ddf9827	0.10917693
24	0x3dd9913e	0.10623406
25	0x3ed23742	0.41057783
26	0x3e5e668f	0.2171881
27	0x3ed6e27b	0.41969666
28	0x3e9c6e30	0.30552816
29	0xbf09cf55	-0.5383199
30	0xbec8a119	-0.39185408
31	0x3c022c80	0.00794518
32	0xbf14cf45	-0.5812877
33	0x3eb00de9	0.34385613
34	0x3e2f7b7e	0.17136952
35	0x3d87d84a	0.06633051
36	0x3dc106ea	0.09425147
37	0x3db7f409	0.08982093
38	0x3eac4ecc	0.33653867
39	0x3f7c7717	0.98619217
40	0x3d7d1944	0.061791673
41	0xbe9ca986	-0.30598086
42	0xbf2d3c5a	-0.67670214
43	0x3e947c00	0.29000854
44	0x3edbb95d	0.42914858
45	0x3f4eb80b	0.8074958
46	0x3e9cf26f	0.30653712
47	0x3ece042a	0.40237552
48	0x3f02ecf8	0.51142836
49	0x3e812686	0.25224704
50	0xbda2efa9	-0.07955868
51	0xbd59de6e	-0.05319064
52	0xbf623b2d	-0.88371545
53	0x3d0eaaaa	0.034830727
54	0x3f053781	0.5203782
55	0xbd605e79	-0.054777596
56	0xbe87a0b3	-0.2648979
57	0xbb46fd9f	-0.0030363572
58	0xbe16a2f0	-0.14710593
59	0xbe7786fd	-0.24172588
60	0x3f503cb4	0.81342626
61	0xbe108fb5	-0.1411732
62	0x3eb000c5	0.34375587
63	0xbef5c9b2	-0.48005444
64	0x3cd6d148	0.02622284
65	0xbc464b6f	-0.012102946
66	0x3e3296a8	0.17440283
67	0x3e5fab1e	0.2184262
68	0x3e986f3d	0.29772368
69	0x3e92c7b3	0.28667983
70	0x3e227c3d	0.15867706
71	0xbd98640e	-0.07440959
72	0x3dea3707	0.11436277
73	0x3da9ba2e	0.08287464
74	0x3d842a2c	0.06453356
75	0xbe2ce813	-0.16885404
76	0xbe8adf15	-0.27123323
77	0xbe5ea7ec	-0.21743745
78	0xbdb22ad4	-0.08699575
79	0x3e0d48c5	0.1379729
80	0x3b07b000	0.002070427
81	0xbd2ce8fd	-0.042214382
82	0x3e30f69c	0.17281574
83	0x3e42926b	0.19001167
84	0xbeb61a11	-0.35566762
85	0x3d9270a4	0.07150391
86	0xbd734dd8	-0.05940041
87	0xbee43304	-0.44570172
88	0x3edeed0c	0.43540227
89	0xbe3fa258	-0.18714273
90	0xbe7a8c6f	-0.24467634
91	0x3d8b9bd2	0.0681683
92	0xbac8cda3	-0.0015320074
93	0x3e81e7e7	0.2537224
94	0xbe3b29ea	-0.18277708
95	0xbe23770f	-0.15963386
96	0xbdb51255	-0.08841387
97	0xbde41803	-0.11137392
98	0xbe1d66ae	-0.153712
99	0x3d0d2fd8	0.034469455
100	0x3d571602	0.052511223
101	0xba84d055	-0.0010132889
102	0xbd2d4bc8	-0.0423086
103	0xbcb3e5d4	-0.021960177
104	0x3ead27bf	0.33819386
105	0xbe3ead28	-0.18620741
106	0x3e3c93d0	0.18415761
107	0xbe36e5be	-0.17861077
108	0xbe076b8b	-0.13224618
109	0xbbd0ac84	-0.0063682217
110	0x3d6f0987	0.058358695
111	0xbe7f62cb	-0.2494003
112	0x3d3ec82d	0.04657762
113	0xbe30e8d4	-0.17276317
114	0x3e9d4fe4	0.30725014
115	0x3ee1f562	0.44132525
116	0xbdab81c0	-0.08374357
117	0xbe9f4acb	-0.3111175
118	0xbe59c192	-0.21265247
119	0x3e687558	0.22701013
120	0xb9e1c4b0	-0.00043061888
121	0xbf1c39ce	-0.610257
122	0xbe9daccb	-0.30795893
123	0xbde64859	-0.11244268
124	0xbe61f834	-0.22067338
125	0x3deca223	0.115543626
126	0xbe6fdddc	-0.23424476
127	0xbeb5ad51	-0.35483792
128	0xbc285db6	-0.010276249
129	0xbe5552f2	-0.20832422
130	0xbed591d2	-0.41712815
131	0xbe580182	-0.21094325
132	0xbd8f3760	-0.06992984
133	0xbd80a349	-0.06281144
134	0xbc979fc7	-0.018508805
135	0xbe12a0c0	-0.14319134
136	0x3d239274	0.03993459
137	0x3d09950b	0.033589404
138	0x3e1e2e39	0.1544732
139	0xbe94ff3a	-0.29100972
140	0x3e290c49	0.16508593
141	0x3e055d01	0.1302376
142	0x3e1aa204	0.15100867
143	0xbdfd5c6f	-0.12371146
144	0x3ebaeeb0	0.3651023
145	0x3d3d7206	0.04625132
146	0xbe850f21	-0.25988105
147	0x3e913457	0.28360245
148	0xbe21b2fa	-0.1579093
149	0xbd8d3cf7	-0.06896394
150	0x3e5384ef	0.20656179
151	0x3e0a78f2	0.135227
152	0xbe6c3d39	-0.2307023
153	0xbd675f45	-0.05648734
154	0xbdd91191	-0.10599054
155	0x3debbd6c	0.11510739
156	0x3ec5a1cc	0.38600004
157	0x3d3a13b4	0.045428947
158	0x3e1858b7	0.14877592
159	0x3f0597f0	0.52184963
160	0x3e02abea	0.12760893
161	0xbe9952f2	-0.29946095
162	0x3d00020e	0.03125196
163	0x3dbafa8e	0.09129821
164	0x3e11ae1f	0.14226578
165	0xba71365d	-0.0009201521
166	0x3e1ee2c0	0.15516186
167	0x3e041f42	0.12902549
168	0xbda9d18a	-0.082919195
169	0xbe2d6c5f	-0.16935872
170	0x3e4dc306	0.20093927
171	0x3de5fc52	0.11229767
172	0xbea011dc	-0.31263626
173	0xbbf05d37	-0.007335331
174	0xbe2ea5d3	-0.17055444
175	0xbe5c9b5e	-0.21543643
176	0xbcc01be0	-0.023450792
177	0x3e0d2281	0.13782693
178	0xbd99e6e6	-0.075147435
179	0xbda0a262	-0.07843472
180	0x3ea3fbf0	0.3202815
181	0x3f0c3f01	0.54783636
182	0x3e06f45d	0.13179155
183	0x3e2f493a	0.17117777
184	0xbc58e13e	-0.013237296
185	0x3ebc8161	0.36817458
186	0xbd7d5834	-0.061851695
187	0x3e247cfb	0.16063301
188	0x3dc34f53	0.09536614
189	0x3e2f7df1	0.17137887
190	0x3e43f9c2	0.19138244
191	0x3e480e56	0.19536719
192	0x3e3c6cb0	0.18400836
193	0xba81bbd4	-0.0009897896
194	0x3ec6093d	0.38678923
195	0x3e12c92e	0.14334556
196	0xbe430bf9	-0.19047536
197	0xbe285219	-0.16437568
198	0xbe250e64	-0.16118771
199	0x3e6668a9	0.22500862
200	0xbe09f741	-0.13473226
201	0xbcb8332d	-0.02248534
202	0x3de21782	0.1103964
203	0xbe8c35cf	-0.27384803
204	0x3e54cb61	0.20780708
205	0xbd05d139	-0.032670233
206	0x3cb67279	0.022271382
207	0xbd4e6948	-0.050393373
208	0x3e186c2f	0.14885019
209	0x3d5041da	0.05084405
210	0x3e9b2ee5	0.30309215
211	0x3e02352d	0.12715597
212	0xbda32e4f	-0.07967817
213	0x3e4da819	0.20083655
214	0x3e02d029	0.1277472
215	0x3d6435ee	0.055715494
216	0xbe1518c9	-0.14560236
217	0x3d570441	0.05249429
218	0x3db70970	0.08937347
219	0xbe748751	-0.23879744
220	0xbe944014	-0.28955138
221	0xbdfbf32a	-0.12302239
222	0x3b836099	0.004009318
223	0xbd0a64d7	-0.033787575
224	0x3d594d4e	0.05305224
225	0xbdf0f552	-0.11765541
226	0xbd234e70	-0.039869726
227	0xbca6414e	-0.020294812
228	0x3cb39e2b	0.021926006
229	0xbe3ce119	-0.18445243
230	0xbe493c2c	-0.1965186
231	0x3d9f0373	0.0776433
232	0xbc8956bd	-0.016764993
233	0xbe2d0819	-0.1689762
234	0xbe47a525	-0.19496591
235	0x3e69eb94	0.22843772
236	0xbdf0e074	-0.11761561
237	0xbe048304	-0.12940603
238	0x3dcd8e8a	0.10036953
239	0x3dd64356	0.10462062
240	0x3c9a3266	0.01882286
241	0xbe43aabb	-0.19108097
242	0xbe95ce62	-0.2925902
243	0xbe419405	-0.18904121
244	0xbea2fd03	-0.31833658
245	0x3dcccfdf	0.10000586
246	0xbdb5a05e	-0.08868478
247	0x3c23465e	0.009965507
248	0xbde9181d	-0.11381552
249	0x3c8f5abe	0.017499324
250	0x3b3a3de0	0.0028418228
251	0x3bf92f3f	0.007604509
252	0xbe1a9ee8	-0.1509968
253	0xbe0332ec	-0.12812394
254	0xbe65cdd5	-0.224418
255	0x3d566399	0.052341077

gru2out.bias f4 [5]
0	0xbe48352b	-0.19551532
1	0x3db9901d	0.090606906
2	0xbbc6c4ad	-0.006065926
3	0x3e406d3b	0.18791668
4	0x3d5d51db	0.05403314
