try7_simData4_nonconserved/30bp_SingleNonconserved_s3_UnifBG_pretrainedDisc.pth (torch, 495361 bytes, 20 tensors)

embeddings.weight f4 [5, 16]
000000 d1 b9 82 3d 4f 9f c2 bf db e5 5d 3f c0 df 47 bd
       0.06383098 -1.5204867 0.86678857 -0.04879737
000010 31 58 ab 3b 32 e2 90 bf ab af 9e 3f 8a e9 26 3e
       0.005229019 -1.1319029 1.239736 0.16300026
000020 0b 54 f8 be cb 6d f7 bf b9 a6 a2 3f 3d 0e ca bf
       -0.4850162 -1.9330381 1.270713 -1.5785595
000030 6b 33 58 bb 83 e0 b2 3e db 59 43 3f b2 85 94 3e
       -0.0032989632 0.34936914 0.76308984 0.2900825
000040 8b 85 7b bc 11 82 17 3e ae c9 46 3f ee 31 c1 3f
       -0.015351663 0.1479571 0.7765149 1.5093362
000050 3a 45 cd 3e f4 19 6d 3e 28 45 8c 3e 3c c6 71 3f
       0.40091878 0.23154432 0.27396512 0.94443107
000060 aa 38 7d bf bc 41 24 3f 39 e0 f0 be db 65 4e be
       -0.9891459 0.641628 -0.47046068 -0.20156042
000070 c2 ea 85 3e 0c 2c 0e be e0 68 3c bf 80 17 4e 3f
       0.26155668 -0.1388399 -0.73597527 0.8050461
000080 40 44 fc 3f 65 da 4b 3e 37 dd 95 bf 0e 13 2f 3f
       1.9708328 0.1990753 -1.1708134 0.6838845
000090 61 04 d8 be 13 b0 b5 bf d3 53 a1 bf df 4d 93 3f
       -0.4219084 -1.4194359 -1.2603706 1.1508139
0000a0 76 b6 c3 3e 1b 5f 85 3f b2 5d 84 3e bc b6 b5 b9
       0.38225144 1.0419649 0.25852734 -0.00034659158
0000b0 e0 2b 19 3f a6 7e 24 3f fb 75 19 bd f1 bc 23 40
       0.5983257 0.6425575 -0.03746603 2.558407
0000c0 e2 d6 a1 be f7 bb 63 bf dd 16 9a 3d ff 3f de bf
       -0.31609255 -0.88958687 0.07523892 -1.736328
0000d0 c4 e1 38 bf cb d2 2a bf 86 b8 01 3f f8 7e 06 3e
       -0.7221949 -0.66727895 0.50672185 0.13134372
0000e0 ee 7d c7 bf cb c2 eb 3f 68 01 ef 3d 5e 49 c0 bf
       -1.5585306 1.8418821 0.1167019 -1.502239
0000f0 64 1b b2 3f 97 f0 b3 be a2 3f 14 bf 09 dd 10 40
       1.3914609 -0.35144493 -0.57909596 2.263491
000100 e5 f8 a6 be 59 34 99 bf 5a 1e b3 bf cc c0 40 3f
       -0.32611766 -1.19691 -1.3993638 0.75294185
000110 fc d0 30 3e 7f a1 03 40 cc cc c6 3f cd 72 53 be
       0.17267221 2.056732 1.5531249 -0.20649262
000120 2e bf 99 bf 11 8f 8e bf cb b6 c5 bf 3b 0a b2 3f
       -1.2011468 -1.113741 -1.5446409 1.3909372
000130 c0 35 a9 3f 47 ec fb be e7 ad ef bf fd 80 73 3f
       1.3219528 -0.49203703 -1.8724946 0.95118695

gru.weight_ih_l0 f4 [192, 16]
000000 89 d8 d7 bd e4 1d cc 3d 95 8c 04 bd fa 3b 89 3d
       -0.10539348 0.09966639 -0.032360632 0.06700893
000010 08 d0 1f 3d 71 54 ea 3d bb 21 25 3e cb 1c 5c 3d
       0.039016753 0.11441887 0.16126148 0.053738397
000020 8a 2f d8 3c a8 06 f4 bd 98 46 c0 bd 6b 56 cd bc
       0.026389856 -0.11915332 -0.09388465 -0.025065621
000030 ee 47 61 3d ed fd aa 3d 82 ab fc bd cb 48 b7 3d
       0.055000238 0.08349214 -0.123374 0.08949431
000040 06 c4 f7 3c 3f 0e 39 be 1d ee 08 3c f6 ce 25 be
       0.030244838 -0.1807184 0.008357552 -0.1619223
000050 29 ae 0a bc 6e 1f 0c 3e e6 55 66 3e 6c 60 6d 3d
       -0.008464375 0.13683864 0.22493705 0.057953283
000060 43 0e 2c be 87 d2 64 3d 46 83 39 bd ff 82 23 bd
       -0.16802315 0.055864837 -0.045291208 -0.03991985
000070 8e d4 db 3d 99 26 29 be cd 01 a5 bc 49 dd 6c bd
       0.10733901 -0.1651863 -0.02014246 -0.05782822
000080 03 f6 42 3d a7 82 4c 3d 78 e7 9b bd e0 4f f8 bb
       0.047597896 0.049929287 -0.076125085 -0.007577881
000090 9c b6 52 bd a0 a2 7e 39 13 c8 cf bd 7f a3 04 3d
       -0.05144368 0.0002428391 -0.10145583 0.032382485
0000a0 c7 65 96 ba a4 bf a3 3d 92 d1 b8 3c a9 85 e3 bd
       -0.0011474424 0.07995537 0.022560868 -0.11109478
0000b0 0c 87 f1 bd 44 24 a9 3d b8 cc ac bb 13 44 a0 3c
       -0.11793336 0.0825887 -0.005273428 0.01956371
0000c0 90 2a 17 bb 4e 54 6c bd 7e b1 ad 3d 66 ec 9d 3d
       -0.002306614 -0.057697587 0.084811196 0.07711105
0000d0 e9 3d 89 bd 26 97 65 3d 78 bb 01 3d a1 60 ed 3d
       -0.067012616 0.05605235 0.031672925 0.11590696
0000e0 df 07 cf bd d1 67 ad 3d a0 fc af 3d af 6e 42 bd
       -0.10108923 0.08467067 0.08593106 -0.047468837
0000f0 78 85 b7 3d e9 44 be bb fc 5a 4d 3c a7 55 6f 3d
       0.08961004 -0.0058065546 0.012533899 0.058431294
000100 4b d5 73 bd 4b 91 a5 bd 7a a2 88 3d c8 85 ab bd
       -0.059529584 -0.08084353 0.06671615 -0.08375126
000110 16 06 c1 3c c2 a6 92 3d 3b b7 02 3d 33 51 66 bd
       0.023562472 0.07160713 0.031913023 -0.05622978
000120 4b 50 96 bd fc f8 a8 3d 8a eb 85 bd b9 d7 85 bd
       -0.073395334 0.08250615 -0.06539066 -0.065352865
000130 c4 a4 52 3d 65 1e 94 bd f4 96 16 bd c4 c1 d1 b9
       0.051426664 -0.0723236 -0.036765054 -0.00040007953
000140 42 bc ab bc 26 ed d4 bd c3 89 07 3d a0 18 e2 bb
       -0.020963792 -0.10396795 0.033090364 -0.006899908
000150 df b9 9b bd 0e 10 1e 3e a3 c9 46 3e 79 99 df bc
       -0.076038115 0.15435812 0.19412856 -0.027294861
000160 04 fd 29 be 1e cc ee bd 9d 9f f6 bd e3 ac d7 3b
       -0.16600424 -0.11660026 -0.120421626 0.006581889
000170 dd e2 4a 3c ae a0 de bd 41 38 08 bd db 43 b8 bd
       0.01238319 -0.10870491 -0.033256773 -0.089973174
000180 6e 3a a3 3d 0c ea 12 be 36 dd a8 bd e1 ef f6 3d
       0.07970129 -0.14347094 -0.08245318 0.12057472
000190 84 d9 33 bd 08 c7 b1 3d af d4 87 3d 65 41 30 3d
       -0.04390861 0.0868054 0.06632363 0.043031115
0001a0 f9 cd 04 be 19 3c 08 3c b2 a5 7f 3d e7 f3 33 bc
       -0.12969197 0.00831511 0.06241388 -0.010983444
0001b0 61 b6 45 bd 85 d0 d6 3a 74 0e 7e 3d 0b 24 11 3d
       -0.048269633 0.0016389048 0.062025502 0.035434764
0001c0 82 eb 14 3d f5 00 e8 bd 2b 04 01 be 26 63 e4 bd
       0.03635741 -0.113283075 -0.12599246 -0.111517236
0001d0 f2 fa 2e 3d 3e 0f 8e bd 36 df 94 bc 68 80 9d 3d
       0.04271979 -0.06936501 -0.018172842 0.07690507
0001e0 e1 fe 88 3a 9e 44 c8 3d b8 7e 8f 3d 20 02 0f bd
       0.0010451936 0.09778713 0.070065916 -0.034914136
0001f0 7e c5 3e 3c 0d 4b 67 bd d9 fe ed bd 4b bd 94 bc
       0.0116437655 -0.05646806 -0.11620874 -0.018156668
000200 20 61 c9 3c 77 3b 62 3d 69 36 c5 bc 75 0e cb 3c
       0.024582446 0.05523249 -0.024073796 0.024787167
000210 b4 62 3d 3d 5c 7e b4 3d 09 57 a4 3d 4b cd 75 bd
       0.04623671 0.08813164 0.08024413 -0.060010236
000220 25 33 2f 3d 44 b6 99 bd 12 d4 19 be 79 59 20 bd
       0.042773385 -0.075054675 -0.15022305 -0.039147828
000230 0f 89 b8 3d 76 39 c8 bc 75 0b 7d 3d b1 ab 6a 3c
       0.09010517 -0.024441462 0.061778504 0.014323161
000240 fc ad d2 3c e8 22 e5 bd ac e1 04 3e 35 b5 f7 bc
       0.025717728 -0.111882985 0.12976712 -0.030237773
000250 17 65 6b bc ea d3 d5 3c 55 94 7b bb a4 f8 c3 bd
       -0.014367363 0.026102025 -0.0038387973 -0.09568909
000260 3e 9f d1 bd 76 b4 ed bd d5 57 5c bd b8 1e 95 3c
       -0.10235451 -0.11606686 -0.0537947 0.018203124
000270 19 c1 9d bd 8a 66 41 be 5e a2 f9 3d 3a d4 6c bd
       -0.07702846 -0.18886772 0.12189172 -0.057819583
000280 54 29 f0 bc 0b 73 bb bc d2 7f 7d 3d 70 0d 08 3e
       -0.029316582 -0.022882005 0.061889477 0.13286376
000290 cb d6 91 bd a5 69 9f 3d 58 f9 17 3e e7 77 0a 3e
       -0.07121047 0.07783822 0.14841211 0.13522302
0002a0 3b 36 41 bd d0 42 8c bb 11 4f 54 3d 1b 29 99 3d
       -0.04717086 -0.0042804256 0.051833216 0.07478543
0002b0 10 d3 61 3d 3e 71 b2 bd 0a 17 36 bd d2 ad bb 3d
       0.055132926 -0.087130055 -0.044455566 0.09164013
0002c0 6c 65 62 bc 27 9a c6 bd a3 69 0f 3e 6f 36 bd 3c
       -0.013818126 -0.09697371 0.14005141 0.023097245
0002d0 76 4d cd bd a4 42 30 3b fc 24 bf 3c 59 20 82 bd
       -0.1002454 0.002689519 0.023333065 -0.06353826
0002e0 48 35 e5 bd ce f3 40 bd 71 c7 6a 3d e2 a6 3d bd
       -0.11191803 -0.04710751 0.05731911 -0.04630173
0002f0 98 5b e3 3d 57 1a 8a bc 0d e1 bc bd f1 0a ff bb
       0.111014545 -0.016858263 -0.092226125 -0.0077832867
000300 4e f6 17 be 9b 27 01 bc 71 a5 3e 3d 65 ec 4c 3c
       -0.14840052 -0.007882978 0.046544496 0.012507533
000310 de 23 b5 bc 29 e4 0c 3d b7 1f ed bc 29 eb 6e bc
       -0.02211183 0.034397278 -0.028945787 -0.014582434
000320 91 7e 16 be 67 de ad 3d b4 3d f8 bd 1f 09 d4 bd
       -0.14696719 0.084896855 -0.12121144 -0.10353302
000330 55 ef 50 bd 73 7e 03 be 3b 3e 25 bd df 1c a6 3d
       -0.051009495 -0.12841205 -0.04034255 0.081109755
000340 1f 1f f7 bc c1 29 3c 3c 47 62 03 3d 0b c6 31 bd
       -0.030166207 0.011484564 0.032076146 -0.04340176
000350 03 f7 a0 bd 43 e9 35 3d de bd bd 3d 7b 30 10 bd
       -0.07859614 0.04441191 0.0926473 -0.035202485
000360 e0 c4 10 be a8 ce 7b bd 2d 3c 19 be cb d0 ae bd
       -0.14137602 -0.06147638 -0.14964361 -0.08535918
000370 86 78 5e 3d b6 e8 26 be 95 5b 8d 3d 25 c5 00 3e
       0.05431416 -0.1629971 0.069022335 0.12575205
000380 30 95 b6 3d c3 0c c4 3d 16 ba ca 3d 0d f4 b4 3d
       0.08915174 0.095727466 0.09898774 0.088356115
000390 af 88 02 3c 40 5c b2 bd 2a a6 a8 bd 78 fc cc bd
       0.007967158 -0.087090015 -0.08234818 -0.10009092
0003a0 66 5c b4 3d ec 6a ea bd 73 fd f1 bd 57 c0 d6 3c
       0.08806686 -0.11446175 -0.1181592 0.026214762
0003b0 e8 74 eb 3d dd 8e 2b bd 0c e8 f5 bb 0c c9 91 bc
       0.114969075 -0.041884292 -0.007504469 -0.017796062
0003c0 77 d1 a5 3c eb 49 9d bd 4b fb 77 3d ba 8a 45 3d
       0.020241482 -0.07680114 0.060542386 0.048228003
0003d0 09 48 dc 3c 2e 04 c3 3d 43 4a 59 3e 6d ad 96 bc
       0.026889818 0.095222816 0.21219735 -0.018393243
0003e0 24 dd 09 3d b0 0a b1 bc 99 b1 22 be 23 96 10 3b
       0.03365816 -0.021611542 -0.1588806 0.0022062145
0003f0 98 91 f1 3d b0 e5 45 be 4f 98 27 3d 11 15 b1 bd
       0.11795348 -0.193259 0.040916737 -0.08646596

gru.weight_hh_l0 f4 [192, 64]
000000 4e f3 e5 bd 9a 18 e0 3d 9f 8c c3 bd d6 5e 57 bd
       -0.11228047 0.109421924 -0.09548306 -0.052580677
000010 d5 28 03 3e 2e 82 e7 3c c1 6b 16 bd d1 81 e9 bd
       0.12808545 0.028260317 -0.036723856 -0.11401714
000020 c6 92 92 bd 9e 0f b5 3d 1b 7d 0e 3d 10 d5 94 bd
       -0.07156901 0.08840869 0.03478728 -0.07267201
000030 d9 63 01 be 69 28 0f 3d d3 36 ed 3d fb 20 78 bd
       -0.12635745 0.034950648 0.115827225 -0.060578328
000040 3e 5c 76 bb bb 46 c3 bd 1b 9b f9 3c aa 8e b8 bd
       -0.0037591602 -0.09534975 0.030469468 -0.09011586
000050 26 1f 8c 3d 8b 39 71 bd d0 39 33 bd e6 27 0b 3e
       0.068418786 -0.058892768 -0.043756306 0.13589439
000060 61 0f 84 3d 57 cf c0 3c 07 5f eb bd d6 67 aa 3c
       0.06448246 0.023536367 -0.114927344 0.020801466
000070 5d 45 df 3d 2e 74 07 3c 5f 0d 9a bd d4 e4 02 3e
       0.10901902 0.0082674455 -0.075220816 0.12782604
000080 dc 9e b8 bd 45 58 84 3d c9 d2 de bd f6 db e9 bd
       -0.09014675 0.064621486 -0.10880048 -0.11418907
000090 94 b7 0c bd 30 70 bf b9 9b 9a a6 bd 4a 14 00 be
       -0.03435476 -0.00036513945 -0.081349574 -0.1250774
0000a0 1f 96 f6 3d 56 56 f4 bb 93 33 87 3d 97 73 80 bb
       0.12040352 -0.007456581 0.06601634 -0.0039200294
0000b0 27 80 51 bd 30 d5 1a bc 7d 18 ec bd 1a b8 d5 3d
       -0.051147606 -0.009450242 -0.11528108 0.10435505
0000c0 6b 02 f3 bd 3d 7c 9a 3d 35 28 09 3c bd 6f 09 39
       -0.118656956 0.07543228 0.0083714025 0.00013106964
0000d0 82 de ba 3d f4 3c 15 bd 1c 2f ae 3c f6 16 2c bc
       0.09124471 -0.036435083 0.021262698 -0.010503521
0000e0 8b 8b df 3d 3b 00 e9 bc 34 6c 84 bc de 23 49 3d
       0.109152876 -0.028442493 -0.016164877 0.04910647
0000f0 32 d2 05 3e ae bb e6 3d be a6 ab bc 19 ec 62 3d
       0.13068464 0.11266266 -0.020953532 0.05540094
000100 b5 8e e0 3d 91 6e 4e bd e1 97 59 3d 55 53 b2 3d
       0.10964719 -0.050398413 0.05312336 0.087073006
000110 d1 65 b1 bd c7 b5 2d 3d 7e 71 3b 3d ab 48 06 be
       -0.08661998 0.042409685 0.04576253 -0.13113658
000120 2b 07 cd bc ff c5 b4 3b f8 ec ee 3d 2b 4f b5 bd
       -0.025027832 0.005516767 0.11666292 -0.08852991
000130 44 1f 40 bb d6 0e 68 bd 70 cf 9a 3c f2 0f e7 bd
       -0.002931551 -0.056654774 0.018897742 -0.11282338
000140 26 47 83 bd 6d 60 d6 3c 26 ef 89 bd 01 da ec 3d
       -0.06410055 0.026169026 -0.06735067 0.115650184
000150 f5 ea 8b 3d 44 4b a6 bc 29 6b d7 bc fe 67 1c be
       0.06831924 -0.020299561 -0.026296215 -0.15274045
000160 78 ee 6f bd ed 3c 92 bc 70 f2 9d 3c 00 e2 ea bd
       -0.05857703 -0.017851317 0.019280642 -0.11468887
000170 07 ef 82 bd 05 92 ac 3d 7b 4e 12 bd c1 b0 5f bd
       -0.06393247 0.084262885 -0.035719376 -0.054611925
000180 5e 56 42 3e b2 62 ed bd 64 ef 18 3d 2e 10 a3 bc
       0.18978259 -0.1159109 0.037337676 -0.019905176
000190 2f e0 18 be e0 f1 c1 bd da d7 0b 3d a4 48 e2 bc
       -0.14929269 -0.09469962 0.0341414 -0.027622528
0001a0 47 34 18 3d 25 31 db 3d 7a 6e b3 bd be d9 18 bc
       0.03715923 0.10702733 -0.08761306 -0.0093292575
0001b0 ec ad cd bd b0 59 bd bd 6c 57 17 3d 3a a3 58 bd
       -0.100429386 -0.09245622 0.036948606 -0.05289004
0001c0 7e 40 a3 ba 43 59 87 3d 5b 77 b6 bc 84 e8 32 3d
       -0.0012455133 0.06608822 -0.02227371 0.043678775
0001d0 6c 65 1c 3e c6 9a 7f 3d 24 62 0d 3e f4 18 5f 3d
       0.15273064 0.062403463 0.13806969 0.054467157
0001e0 0e 83 d6 3d 0f 58 aa bd da 46 9c bc 80 fa 05 bd
       0.104742154 -0.08317577 -0.019076753 -0.0327096
0001f0 3b 04 da bd cb cb 62 3d c3 8d f5 3d 24 2b 90 3d
       -0.10645338 0.055370133 0.119899295 0.070394784
000200 ac cb d5 3c cd 9f 8b bd da 32 57 bd e3 c5 50 3c
       0.026098095 -0.06817589 -0.05253873 0.012742492
000210 2c 91 b4 3d 54 08 9c bb 82 12 c2 bd 4d f5 cb bc
       0.08816752 -0.004761735 -0.09476186 -0.024897242
000220 ef 20 02 3e 9a 14 11 bd a4 cf e3 bd 28 a7 06 bd
       0.12707876 -0.035420038 -0.11123589 -0.032874256
000230 34 37 12 3d 6c 94 6f bd 0a 9b 58 3d 3a 44 b2 bc
       0.035697177 -0.058491156 0.05288223 -0.021761049
000240 0a d1 eb bd e9 66 84 bd d7 f8 e7 3c 94 c0 af 3d
       -0.115144804 -0.06464941 0.028316898 0.08581653
000250 af 46 32 bd dd 7e 71 3c e2 3c 14 3d 09 a7 68 bd
       -0.04352444 0.014739719 0.036190875 -0.056799922
000260 48 f2 f0 3d 1d 32 ed 3d bc 82 1f be 0a a2 99 bd
       0.117649615 0.11581824 -0.15577215 -0.075016096
000270 61 5e 2e bd 46 4c 78 bb 03 55 80 bd d3 ae a9 3a
       -0.042570475 -0.003788726 -0.06266215 0.0012945778
000280 1f 95 e4 3c 4f 80 a1 3d 45 57 0e 3d 88 06 f5 bd
       0.027903138 0.07885801 0.034751195 -0.11964136
000290 25 7c 04 3e 02 21 a0 bd eb 94 10 bd 0f 5a 23 3c
       0.12937982 -0.07818796 -0.03529827 0.009970202
0002a0 ff 5d 59 3c eb ff db 3b be 46 14 be 2b e0 68 bd
       0.013267039 0.0067138574 -0.14480111 -0.05685441
0002b0 ad 6b 1a bd 1e fd 53 bd 83 74 85 bd ac d9 dc bd
       -0.037700344 -0.051755063 -0.065163635 -0.10783705
0002c0 d8 62 6f bc 52 16 97 3d c6 64 dc 3d 27 9f f8 3d
       -0.0146109685 0.07377304 0.107614085 0.12139731
0002d0 33 47 eb 3d 05 39 57 bc 86 9e a6 bd 9a 9a 73 3d
       0.114881895 -0.013136153 -0.08135705 0.05947361
0002e0 c9 2e 9a bb 02 83 43 bd 1c 93 60 3d 5a e9 77 3d
       -0.0047052843 -0.04773236 0.054827794 0.060525276
0002f0 6c b9 e7 3d a7 f4 25 3d 7b 83 53 bd 76 56 07 be
       0.11314663 0.04051652 -0.05163906 -0.13216576
000300 9f 28 cb 3d 70 c3 e0 3d f8 82 1f 3d 91 de 36 bd
       0.09919857 0.10974777 0.03894326 -0.04464585
000310 dd 90 e5 3b 22 ad b3 bd 20 ec 1e be 87 bf 87 bd
       0.0070057944 -0.08773257 -0.15519762 -0.06628328
000320 8c 40 8f 3d 40 5d 17 3b 4d 1c f3 3d 51 5b 14 3e
       0.06994733 0.0023096353 0.11870632 0.1448796
000330 4a 09 c6 3a 0c ca b0 bd 07 10 a1 3d b7 70 d0 3d
       0.001510897 -0.086322874 0.07864385 0.10177749
000340 2e 77 f6 3d cb 45 26 bd 6d 52 e0 3b f0 f8 dc bd
       0.120344505 -0.040593904 0.0068457634 -0.107896686
000350 68 13 05 be 2e 44 80 3d 43 a7 3c 3d 73 d6 ba 3d
       -0.12995684 0.06263004 0.04605795 0.09122934
000360 ab 5c e6 3d 28 dc fd bd ef b4 ea 3d 9f 40 0b 3c
       0.11248144 -0.12395507 0.114602916 0.008499294
000370 8a 8a 1b 3e 17 a1 c8 bd 8e 98 c6 bd a3 9b fb bd
       0.15189567 -0.097963504 -0.09697066 -0.12285545
000380 76 fd 9b 3d cd 63 56 bd 0f 09 90 bd 4d 87 00 3e
       0.07616703 -0.05234127 -0.07032978 0.12551613
000390 ec 98 88 3d 56 9f ce 3d 55 a3 e3 bc 82 c5 b6 3d
       0.066697925 0.10088985 -0.027787844 0.089243904
0003a0 9d a0 f7 3c d7 79 b4 3b 4e 1b b9 3d 75 a6 4a 3d
       0.030227954 0.0055076885 0.09038411 0.049475152
0003b0 2f ff d5 bc 7a d2 9d 3c fb cd c0 3c c4 25 fa 3c
       -0.026122658 0.019265402 0.02353572 0.030535586
0003c0 48 0b 9f bd fd 2a 89 bc f2 ef 09 3d 15 6e bf 3d
       -0.077658236 -0.016744131 0.033676095 0.09347168
0003d0 03 29 9e 3c 49 b9 f6 3d 7d ca e6 3d a0 63 a5 bd
       0.019306665 0.12047059 0.1126909 -0.080756426
0003e0 ea 26 06 bb a8 57 6d bc bb 9a bc 3d 1c c3 d6 bb
       -0.0020469972 -0.014486231 0.092092 -0.0065540206
0003f0 02 e5 db bd f2 af 41 3d 18 61 2c 3e b9 58 a0 bd
       -0.10737039 0.047286935 0.16833913 -0.078294225

gru.bias_ih_l0 f4 [192]
000000 3d a3 71 bd 53 76 19 bb 16 7d 71 bd 6e f6 0c 3e
       -0.058993567 -0.0023416474 -0.058957182 0.1376588
000010 12 bc c3 3d 04 03 fe 3d 0e 04 5b 3d 1a 7e e2 3c
       0.09557356 0.12402919 0.053470664 0.02764802
000020 64 1a d1 bd 37 ac c6 3d 67 fb 18 3e 7e 5f 77 3d
       -0.10210112 0.09700816 0.14939652 0.060393803
000030 c4 78 82 bd 2f 8f fb 3d f4 86 15 3d 98 47 1c bc
       -0.063706905 0.122831695 0.036505654 -0.009538554
000040 2d 8b d0 3d 2e 23 8c 3d 6e e1 2d 3c 92 c2 2a 3d
       0.10182796 0.068426475 0.010612829 0.041689463
000050 92 e6 c9 3c c0 47 b8 3b 09 1b c8 bd 18 74 37 bd
       0.024646077 0.0056237876 -0.097707815 -0.04478845
000060 05 ab 2a bd bd d8 e6 3d d9 a5 32 bd 38 b4 f6 3d
       -0.041667003 0.11271808 -0.043615196 0.12046093
000070 35 02 96 3d 54 d1 7b bd 07 c6 00 3e b8 48 96 bd
       0.0732464 -0.061478928 0.12575541 -0.07338089
000080 f6 49 19 3d 3d 0f 19 bd b8 47 36 bd 08 2a da 3d
       0.03742405 -0.037368048 -0.04450199 0.10652548
000090 c5 d0 d5 3d 80 4f 47 bd 80 3f 16 3e ca d9 df ba
       0.1044021 -0.0486598 0.14672661 -0.0017078456
0000a0 6a 2a 1c bd 17 5f 9f 3d 8e ef f0 3d c8 e3 b7 bc
       -0.038126387 0.07781809 0.117644414 -0.022447482
0000b0 98 dc 63 bc 37 95 0c be eb 20 a2 bd 3e 4e d4 bc
       -0.013907574 -0.13728796 -0.07916435 -0.025916215
0000c0 20 a6 e4 3d d0 40 c2 bb b7 31 b0 bd b3 3c c6 bd
       0.11164498 -0.0059281364 -0.08603232 -0.09679546
0000d0 5b b5 8a 3c a9 61 56 3d e0 d6 8f 3d 1f 4d 2b 3d
       0.01693218 0.05233923 0.07023406 0.041821595
0000e0 65 f7 0e 3c 8c 71 7a bc 7f 6c 8b bd 47 a3 97 bd
       0.008725976 -0.015285861 -0.06807803 -0.074041896
0000f0 81 39 78 3c 4a da 8d 3d 00 48 62 3d a4 40 03 3e
       0.015150429 0.06926401 0.055244446 0.12817627
000100 52 34 d1 bc 65 82 2a bd 79 44 7c bd 17 de 71 bd
       -0.025537644 -0.04162826 -0.061588738 -0.059049692
000110 14 0a f6 bd 6f f5 bb bc da 2a 3f 3d 63 04 2f 3b
       -0.12013641 -0.02294418 0.046671726 0.0026705496
000120 53 f3 21 bd 43 9a 36 be ff 7b 8d bd 53 ce 99 3d
       -0.039538693 -0.17832284 -0.06908416 0.07510056
000130 b1 32 bb bd 67 27 37 3d ed 6e 5f bd d4 d3 67 bd
       -0.09140528 0.04471531 -0.054549146 -0.0565985
000140 8e cb 5c 3d 13 d8 f5 bd 1c f6 92 bd 76 6b 0c bd
       0.053905062 -0.120041035 -0.07175848 -0.03428217
000150 a5 61 5b 3d b9 ec 00 3c e6 35 09 3e 5c e6 30 bd
       0.053559918 0.007868939 0.13399467 -0.043188438
000160 33 d4 3d be 0b b4 2c be 09 89 ea bc b4 23 9a bd
       -0.18537979 -0.16865556 -0.028629797 -0.07526341
000170 f0 e1 7e bd ce 89 81 bd b7 6d 1a 3d 51 2a fc bd
       -0.06222719 -0.06325112 0.03770229 -0.12312759
000180 b7 79 b1 bb 77 9d ab bd bf 3b cc bd 76 c5 ae bd
       -0.005416121 -0.083796434 -0.09972333 -0.085337564
000190 8b 13 3d 3d 4f 1c ed 3d d2 fb 4f bd 32 04 dd 3d
       0.046161216 0.11577665 -0.050777264 0.10791816
0001a0 70 f8 e3 3d e0 0a d0 bd 40 aa 58 3d d3 58 8c 3d
       0.1113137 -0.10158324 0.052896738 0.068528794
0001b0 d5 02 ad bd 58 ce e4 bc dd 58 9a 3d c3 91 04 be
       -0.08447806 -0.027930424 0.075364806 -0.12946229
0001c0 0d ad c1 3d bb 73 53 be 01 5f 33 3d 5d 60 d5 3d
       0.09456835 -0.20649616 0.043791775 0.104187705
0001d0 9f b2 bd bd 25 41 fc 3c 40 f1 ab 3c ac 52 80 3c
       -0.09262585 0.030792782 0.02098906 0.015664421
0001e0 a3 10 f4 bd 9e 24 cd bd 61 99 49 3d 2d 4f 1b 3d
       -0.11917236 -0.1001675 0.04921854 0.037917305
0001f0 e9 2a 0c be 0a 2a ac bd da da d9 3b 5d 01 ba bc
       -0.13688244 -0.08406456 0.0066484036 -0.022705728
000200 c6 ce ff 3d 02 9d ba bd 1d 0d 12 bd 82 99 ad bd
       0.12490611 -0.09111978 -0.035657037 -0.08476545
000210 a8 5a 36 3c 6c 88 2b 3d 87 0e 44 3c 49 a5 4b 3d
       0.011130013 0.04187815 0.011966354 0.049718175
000220 e9 6e 80 bd 1a 8a 75 3d f4 40 f0 bd 46 72 ce 3d
       -0.062711544 0.059946157 -0.11731139 0.1008039
000230 5f 0f a0 bd 0d 8e e5 3d c1 6e b2 3c 70 9a c2 3c
       -0.07815432 0.11208735 0.021781327 0.023755282
000240 61 c6 a5 3d 6f c0 2f bd 04 56 b8 3d 83 d2 0b bd
       0.080944784 -0.04290813 0.09000781 -0.034136306
000250 ed a6 ad bc 34 cc cb bc 73 b1 cf 3d ae 70 07 3d
       -0.02119776 -0.024877645 0.10141268 0.033066444
000260 d6 dd 01 bd 64 05 a7 bd f4 f5 ce 3d 88 ca 10 bc
       -0.0317057 -0.08155325 0.101055056 -0.00883735
000270 ac 1b 05 bc a5 ef c9 bd 94 59 cb 3d 3e 13 fc bd
       -0.008124273 -0.09860162 0.09929195 -0.12308358
000280 a1 39 66 3d 04 83 aa bd 73 81 e1 3d 46 13 93 bd
       0.056207303 -0.083257705 0.110110186 -0.071814105
000290 4e 91 50 3c f0 14 8c bd 85 03 22 3d 49 17 d7 3d
       0.012729956 -0.06839931 0.039554138 0.10502488
0002a0 c8 7e 00 be 93 1c 9f bd bc 99 99 3d 46 7d 01 3e
       -0.12548363 -0.07769122 0.07500026 0.12645444
0002b0 6d 07 8b bd b2 a9 2e bd ab af ed bd 90 ce 9e bc
       -0.06788526 -0.042642303 -0.11605772 -0.019385606
0002c0 1a 74 07 3e fc af 02 be 76 06 5d bc 5d 21 45 3b
       0.13227883 -0.12762445 -0.01349031 0.00300797
0002d0 62 88 4e bd f2 9e f0 3c 61 3d 5e 3d 43 7e b8 3d
       -0.050423034 0.029372666 0.054257754 0.090084575
0002e0 38 74 e7 3d 6e 91 ff 3c 20 8f d2 bd 39 ff 48 bd
       0.11301464 0.031197276 -0.10281205 -0.049071524
0002f0 e1 6c 12 bd 57 ad 9e bd e4 da 34 bd 95 9e 88 bd
       -0.035748366 -0.07747906 -0.044154063 -0.06670872

gru.bias_hh_l0 f4 [192]
000000 87 5f 57 3d f8 9e 91 bd 02 a6 02 be c2 74 93 3d
       0.052581336 -0.07110399 -0.1275864 0.07200004
000010 be 88 b8 3d 45 4e 57 bd 76 d4 2a bd f3 3f cf 3d
       0.090104565 -0.052564878 -0.041706525 0.10119619
000020 07 79 86 3d 3e c6 62 3d 65 71 07 3e b9 44 b2 3d
       0.06566053 0.05536484 0.1322685 0.08704514
000030 eb f0 e6 bc af fb f6 3d 78 b5 b7 3d 2c f3 aa bc
       -0.02819105 0.120597236 0.08970159 -0.020867907
000040 63 ab af 3d 02 e2 08 3e ac 57 75 3d 2e 1c ba bc
       0.08577611 0.13367465 0.059898064 -0.022718515
000050 79 29 b4 3d 95 9b a8 3d 3d 75 97 bc 31 b4 bb 3d
       0.08796973 0.082328 -0.01848852 0.09165228
000060 eb 21 aa 3d 7c 5c 52 bd 3b 23 80 3d 9a 20 5a bd
       0.083072506 -0.05135773 0.0625672 -0.053253748
000070 51 bc b7 bd 2a df a9 bc 19 20 f2 3d 3e a9 8d 3d
       -0.089714654 -0.020736296 0.118225284 0.06917046
000080 26 dc a4 bd 1c f3 06 3d 28 8a 37 3d 3c 69 2f bc
       -0.080498025 0.03294669 0.04480949 -0.010706242
000090 91 3f 9a 3d 03 9f f1 bd 8a 86 0b 3e 21 bc 33 3d
       0.075316556 -0.11797907 0.13625541 0.043880586
0000a0 12 b2 b0 bc d2 bd 48 bd ca 1a f2 3d bd cb c6 3d
       -0.021569286 -0.04900915 0.11821516 0.09706829
0000b0 ef da 8d bd 95 7c 8d bc a3 aa 03 be 70 f0 c5 3d
       -0.06926524 -0.01727132 -0.12858061 0.096650004
0000c0 9b ac 7b 3d 00 58 0d 3e bd 1b f0 3d e5 51 a3 bd
       0.061443906 0.138031 0.11724041 -0.079746045
0000d0 4c 9d 49 3d 36 59 be 3b 7c ab 1b bd d6 55 e7 3d
       0.049222276 0.0058089746 -0.038005337 0.11295669
0000e0 ca 9f ac bd d9 71 7b 3d 55 73 16 3d fb fb 27 be
       -0.08428915 0.06138787 0.036731083 -0.16404717
0000f0 da 5a 2a 3e 11 82 d7 3d 89 41 82 3b bf 71 37 3d
       0.1663622 0.10522855 0.0039750976 0.04478621
000100 e2 b6 69 3d 4d 1b bc bc 29 4f c1 bd 28 28 78 3c
       0.057059176 -0.022962237 -0.09438927 0.015146293
000110 44 29 b0 3d d5 a3 14 3c 8a 76 2a bd bc 38 91 3d
       0.08601621 0.009072264 -0.041616954 0.07090899
000120 6a 03 6c bb 59 ed 18 be 60 c7 4b bd d5 b7 a7 bc
       -0.0036012777 -0.14934291 -0.049750686 -0.0204734
000130 ef 76 a3 bd f3 16 73 bd 02 1b c5 bd 4e 27 50 bd
       -0.07981669 -0.059348058 -0.09624292 -0.050818734
000140 d0 9b e5 3d a2 f3 c7 bd b6 be 57 3c 6b 54 c7 3d
       0.112113595 -0.09763266 0.013168028 0.09732898
000150 0f 68 81 bd 06 80 c3 bd 3e 6b 0a 3e 1e 0c a5 3d
       -0.06318676 -0.09545903 0.13517472 0.08058952
000160 e2 2c 9f bd 35 f5 06 be 32 51 f8 bd a4 5a 1d bd
       -0.077722326 -0.13179477 -0.12124862 -0.03841652
000170 72 75 97 3d 49 10 1f bd 15 76 15 bd 34 41 4c bd
       0.07395448 -0.03883389 -0.036489565 -0.04986687
000180 4b e5 30 3d 8c a5 b5 3c 7d 8d 86 bd 32 c9 1b be
       0.04318742 0.022173665 -0.065699555 -0.15213469
000190 60 3d e4 bd c1 76 15 bd 4f 72 c2 3d c1 d6 35 3c
       -0.11144519 -0.036490206 0.09494459 0.011098565
0001a0 ca e6 92 3d a3 11 8e 3d 6e 45 e6 3d b8 b0 97 3c
       0.07172926 0.06936958 0.112437114 0.018516883
0001b0 dd b8 6d bc 9d 01 e0 bd 03 fa a1 3d 05 cb 48 be
       -0.014509407 -0.10937808 0.07909014 -0.19608696
0001c0 7d d9 e3 3c 9d c9 e5 3b fd 04 59 bd f3 5e c6 3d
       0.027813667 0.0070125596 -0.052983273 0.09686079
0001d0 58 d2 6d bb 46 2f 03 bc e5 0e 46 bd 42 88 0a be
       -0.0036288705 -0.008006876 -0.04835405 -0.1352854
0001e0 4e 09 1c 3d 9c 04 42 bd 2e 34 d0 3d 24 2d c8 3c
       0.03809481 -0.047367677 0.101662025 0.024435587
0001f0 16 99 ec bd 94 e6 1f 3e 0c 81 30 bd 7d dc ec bc
       -0.11552636 0.15615302 -0.04309182 -0.02891373
000200 ef 37 a1 bd dc 00 84 bd 56 f0 ea bc fb 57 f5 3d
       -0.078719966 -0.064454764 -0.028679054 0.119796716
000210 56 17 ae 3d 50 01 f4 bc 8c d3 9c bd b6 13 91 3d
       0.08500545 -0.029785782 -0.07657537 0.07083838
000220 63 20 8d 3a 3b af 36 3d a8 ab ae 3d 96 22 3e bd
       0.0010767098 0.044600707 0.085288346 -0.046419702
000230 3a 9a 92 bd 34 f7 a3 3d b3 c7 1d bc f7 d0 9a 3d
       -0.07158323 0.08006135 -0.009630132 0.07559388
000240 b7 41 96 3c 12 21 e4 3d 7d c2 98 3d 8c f0 6a bd
       0.018341882 0.1113912 0.07458971 -0.05735831
000250 c4 21 a6 bd 41 3a 83 bd 99 47 bc 3d ed 83 45 bc
       -0.08111909 -0.064075954 0.09193344 -0.012055379
000260 62 20 a3 3d 68 06 c6 bd 38 8f b1 bd 8a 75 99 bd
       0.07965161 -0.09669191 -0.08669895 -0.07493122
000270 e1 f5 b4 bd 79 9f 86 bd b3 65 67 3d 42 b9 05 be
       -0.0883596 -0.06573386 0.056493472 -0.13058951
000280 8d 21 e8 bc 71 01 b2 bd 89 cb 3f 3d 3c 76 c1 bd
       -0.02833631 -0.08691681 0.046824966 -0.094463795
000290 06 6e 5d bd 65 82 b4 bd 23 7a f3 bc ea 62 e4 bc
       -0.054060005 -0.08813933 -0.029721325 -0.027879197
0002a0 f4 f1 f0 3d 49 da db 3c 41 39 0b 3d e2 dc 67 bd
       0.11764899 0.026837485 0.03399015 -0.056607135
0002b0 4d 97 ab bd 70 7a 4a bd de b5 ab 3c 2f 99 fe 3d
       -0.08378468 -0.04943317 0.020960744 0.12431561
0002c0 83 3b ee bb b6 ef 9c bc 8a 8c 07 3e 95 40 06 3d
       -0.007270278 -0.019157272 0.13237205 0.032776434
0002d0 a2 ec ea 3d 51 b3 c1 3c 4c 07 58 3d 1c dd e7 39
       0.114709154 0.023645075 0.052741334 0.00044224493
0002e0 74 76 10 3c 05 21 2d 3d 6c 01 c2 bd 5f 1b d5 bb
       0.008817304 0.042267818 -0.094729275 -0.006503507
0002f0 8a cc 95 3d 79 77 8b 3b ef 48 e5 3d 11 58 7c bd
       0.07314403 0.0042561856 0.111955516 -0.061607424

gru.weight_ih_l0_reverse f4 [192, 16]
000000 df 61 c0 bd ef d1 06 3e 6f 6e 21 3e 6d 45 be bd
       -0.093936674 0.13166021 0.15764783 -0.09290586
000010 4c f2 80 3d 02 ec 95 3a 7d 25 ac bd 1c 59 e2 3d
       0.062962145 0.0011438134 -0.08405588 0.110521525
000020 56 2a d5 3d 0d 5d 97 bd 8f 9b 39 3d 97 30 af bd
       0.104084656 -0.07390795 0.045314368 -0.0855419
000030 83 ae 23 bd 38 9a 94 bd 89 30 bb 3d 62 b2 d2 3d
       -0.03996135 -0.072559774 0.09140117 0.1028793
000040 c9 33 0f 3d 08 3a 07 3a 0a b4 92 3c 40 3e e2 ba
       0.034961496 0.00051584886 0.017908115 -0.0017260984
000050 4d 56 d9 bd 0d 6e c0 bd 9b 96 c8 bd 68 3c 99 3c
       -0.10612164 -0.093959905 -0.09794351 0.018705562
000060 45 0e 21 3e ac 06 ec 3d ad b4 ee bd b7 c3 74 bd
       0.157281 0.1152471 -0.11655555 -0.05975696
000070 8c 1c 0a be d2 ea 92 3d 31 54 cf 3c 5b ad 73 3d
       -0.13487452 0.07173695 0.0253087 0.059491497
000080 f5 04 9b bd a4 5a 60 bd d8 17 c1 3d 87 2d da bd
       -0.07569305 -0.05477394 0.09428376 -0.10653215
000090 04 34 03 3e b8 5d c9 bd 8e 8d 67 3d 5a 7e 32 3d
       0.12812811 -0.098323286 0.05653148 0.04357753
0000a0 eb 9c ea 3d 97 69 cc 3d 31 7d 5d 3d 20 c2 d6 bd
       0.11455711 0.09981077 0.05407447 -0.10486245
0000b0 5c c9 42 3d 2a f3 99 3d b1 dd aa bd 08 87 e4 bd
       0.047555313 0.07517083 -0.083430655 -0.11158568
0000c0 4b aa 73 bd 0f 85 05 bc 7d 75 cb bd be e7 82 bd
       -0.059488576 -0.008149399 -0.099345185 -0.063918576
0000d0 3f b4 3e bc 2e df 2a 3d 66 32 c5 3d 64 1b 76 3c
       -0.011639654 0.041716747 0.09628753 0.015021179
0000e0 ec 35 d9 bd 91 c1 bc 3d 35 f1 1b 3d fd e3 c3 bd
       -0.10605988 0.09216607 0.03807183 -0.0956497
0000f0 fc 94 a1 bd ba ed bb bd 29 52 ee 3d 6d 1f f4 3a
       -0.07889745 -0.09176202 0.116367646 0.0018625088
000100 7b 2f f3 bd 42 02 8c 3c b8 a5 97 bd 65 e4 e8 3d
       -0.118742906 0.01709092 -0.07404655 0.11371688
000110 ac 02 33 3d 34 19 4c 3d cc a9 dc 3c 7d bd be bd
       0.04370372 0.049828723 0.026936434 -0.09313486
000120 a0 0a c9 3d bc c7 93 3d 72 d9 1b 3c ad d7 b0 bc
       0.0981648 0.07215831 0.009512292 -0.021587217
000130 59 f8 f3 ba ba 5d 5c bd 1a a4 e6 3b 48 db c7 bd
       -0.0018613442 -0.053800322 0.0070386054 -0.097586215
000140 ce a2 dc 3d f3 86 c2 3d 20 c8 13 3e a4 66 f4 3d
       0.1077324 0.09498396 0.1443181 0.1193364
000150 8d 10 e7 3c 7a 02 f7 bc c6 f9 dc 3c df a6 49 3d
       0.028206134 -0.030152548 0.02697457 0.049231406
000160 6c fc 00 3e d5 d4 d0 3d 57 7a d9 3d 8c c3 9c bd
       0.12596291 0.101968445 0.106190376 -0.07654485
000170 0d a8 67 3d 6f 58 6f 3d e6 74 71 3d 8c 04 8d 3d
       0.05655675 0.058433946 0.058949374 0.06885633
000180 00 ce 46 bd 2c 38 eb bd 06 6d 27 3e d9 47 1c 3c
       -0.0485363 -0.11485323 0.16350183 0.009538614
000190 6e 70 08 3c 82 df 12 be 42 1d de 3a db 41 95 3d
       0.008327587 -0.14343074 0.0016945975 0.072879516
0001a0 63 7e bc 3d e2 a3 b2 bd aa cf fa 3c bd 61 85 3d
       0.09203794 -0.087226644 0.0306166 0.06512783
0001b0 d4 59 d6 3d 11 df da bc 03 4c bf bd 71 a6 06 3d
       0.10466352 -0.026717694 -0.0934067 0.032873575
0001c0 33 13 a7 3c 48 ca c3 bd ac 5b bb 3d e4 15 75 3d
       0.020394897 -0.095600665 0.091483444 0.05983533
0001d0 df d3 0b 3e 7b 06 8b 3d 9a ed 15 3e c6 21 36 3d
       0.13655041 0.067883454 0.14641419 0.044465803
0001e0 e9 6f 89 bd 4a b5 5b bd d8 7f cf bd 03 0a a7 3c
       -0.06710798 -0.053639688 -0.10131806 0.020390516
0001f0 23 68 bf 3d b9 41 9c 3d 53 12 8c bd 3c d6 60 bd
       0.093460344 0.07629723 -0.068394326 -0.05489181
000200 d3 da 03 be b6 65 44 bd d8 03 36 bd ee 5f 3d bc
       -0.12876444 -0.04794856 -0.04443726 -0.011558516
000210 19 63 86 bd d5 d1 fb 3d bd 13 c5 bd 63 b3 b6 bd
       -0.0656187 0.12295882 -0.096229054 -0.08920934
000220 92 84 c6 3d ee f9 2c bd 33 63 10 be 3a 41 8d bd
       0.096932545 -0.04223054 -0.14100341 -0.068972066
000230 91 ed ff bd 39 d7 ff bd d5 af ea bd 3d 4f 2b 3d
       -0.12496484 -0.12492222 -0.114593185 0.041823614
000240 ef e8 b0 bb c7 50 9d 3c 4c b1 68 3d b4 52 0c 3e
       -0.0053988616 0.019203557 0.05680971 0.13703424
000250 3b 51 22 3e 0c c0 5d 3d 5f f5 a3 3a f5 5e ce bd
       0.158513 0.05413823 0.0012509039 -0.10076705
000260 98 0d 89 3c 12 11 4e bd 8b 75 c8 bd 18 db a2 3c
       0.016730115 -0.05030925 -0.097880445 0.019879863
000270 d7 b6 8e bd f6 dd 77 3d 2d 50 d0 3c b6 3c 0c be
       -0.06968468 0.060514413 0.025428856 -0.13695034
000280 d1 8a 19 bd ba dd e1 bb b2 18 55 bd 9d 45 a1 bd
       -0.0374859 -0.006892887 -0.052025504 -0.07874606
000290 2f df 94 bd 67 84 8f bd 35 1a 77 bd 44 2b 03 bd
       -0.072691314 -0.070076756 -0.060327727 -0.032023683
0002a0 eb 91 5d 3d 27 00 84 3d 20 64 40 3d d2 2f 4e bd
       0.054094236 0.064453416 0.046970487 -0.050338574
0002b0 38 79 80 3d 78 69 49 3d 77 a5 25 3d bd 77 87 bd
       0.06273121 0.04917285 0.040441003 -0.06614635
0002c0 52 75 f2 3d 63 fb 4d 3c 4d 43 88 bc 39 cf 45 bd
       0.11838783 0.012572142 -0.016633654 -0.048293326
0002d0 75 bc e1 3c 52 c3 53 bd 0f 7a 82 bd 5d 12 e6 bc
       0.027555684 -0.051699944 -0.06370937 -0.028084928
0002e0 d8 40 64 3d 1a b1 ff 3d 4d a1 de 3d e4 42 e9 3d
       0.055725902 0.12484951 0.108706094 0.113897115
0002f0 b6 3c 8e bd 7c 22 1e bd c8 b9 c5 bc a9 de a8 3c
       -0.069451734 -0.038607106 -0.024136439 0.020613985
000300 94 b3 f2 3d 4b e5 6f 3d 54 43 a9 bd 76 65 57 3d
       0.11850658 0.05856828 -0.08264795 0.052586995
000310 97 07 e7 bd a3 44 b8 3d b8 62 46 bd 04 80 bd 3d
       -0.112807445 0.089974664 -0.04843399 0.09252933
000320 03 0f 01 bd ef 2e 62 3d 79 7d 10 3b ba 7e a2 bd
       -0.031508457 0.05522054 0.0022047444 -0.079343274
000330 03 ae 80 3d 87 af c9 bd 95 0f 80 bd 35 c0 f5 bb
       0.0628319 -0.09847932 -0.06252972 -0.0074997195
000340 63 09 6c bc d0 c2 3e 3d da 2d 33 3d eb aa 35 3d
       -0.014406535 0.046572506 0.0437449 0.044352453
000350 a5 5a db bc b2 ba da bc aa 11 14 3d 9e 75 aa bd
       -0.026776621 -0.026700351 0.03614966 -0.08323215
000360 b4 c3 26 3d 28 79 93 3d 68 80 7b 3d 03 97 8c bd
       0.04071398 0.07200843 0.061401755 -0.06864741
000370 54 a2 91 bd 2a 66 ee 3d 71 8b 13 3d bc 56 b8 bd
       -0.0711104 0.1164058 0.036021654 -0.09000918
000380 00 3f 08 be c9 96 42 3d 6e 92 44 3c 4e fc 93 3d
       -0.13305283 0.04750708 0.011997802 0.07225858
000390 17 80 59 bd d4 a6 ee bd 72 10 41 3d 33 93 dd 3d
       -0.05310067 -0.11652914 0.047134824 0.10819092
0003a0 47 59 f7 bd ea 80 56 3b e2 9e 9c bd ad 78 05 bd
       -0.12077575 0.0032730647 -0.07647492 -0.03258579
0003b0 e8 38 e5 bd 81 cc ee bd fb 5c c1 bd bb f0 b4 bd
       -0.11192495 -0.116601 -0.09441563 -0.08834978
0003c0 b4 97 67 bd 4d 97 65 3d 7d 56 cd 3c 52 6d ee 3b
       -0.05654116 0.056052495 0.025065655 0.0072762156
0003d0 c7 8c d7 3d ed 6b db bc 95 81 d3 bd 36 dc c2 bd
       0.10524898 -0.026784861 -0.1032745 -0.09514658
0003e0 26 c9 82 3b 12 c5 be bd 2f 0f 00 3d 1e c0 6b 3d
       0.003991264 -0.09314932 0.03126448 0.057556264
0003f0 01 8c 36 3d 87 45 2b bd 2d 17 11 3e 00 9e 96 bd
       0.044567112 -0.041814353 0.14168997 -0.07354355

gru.weight_hh_l0_reverse f4 [192, 64]
000000 5e 2b ee 38 8d 43 ab bd 41 31 89 3d bc f5 c3 bc
       0.00011356802 -0.08362494 0.066988476 -0.023920886
000010 e2 c5 64 bd 53 c8 df 3c e1 3a e0 3a 99 f9 b5 bc
       -0.05585278 0.027317202 0.0017107391 -0.022213744
000020 1d ba fe 3d 76 5b d9 bc 0d 19 8a bd c5 65 ad bd
       0.12437842 -0.02653287 -0.06743059 -0.084666766
000030 77 03 8b bd 14 9d 3f 3d 1b 8c cd bc f8 1e 33 3d
       -0.0678777 0.04678066 -0.025091222 0.043730706
000040 39 3e 0a bc f0 6e 04 3e 4b df 3a bd 3a ae 9c bd
       -0.008437687 0.12932944 -0.045623105 -0.076504186
000050 ee 38 e7 bd 76 8d e0 ba eb 40 3c bb 5a 46 49 3d
       -0.11290155 -0.0017132002 -0.0028725218 0.049139358
000060 51 87 29 bd 53 c3 bc bd ed 5a 9e bd bb f6 04 be
       -0.041388813 -0.09216943 -0.077321865 -0.12984745
000070 39 72 f3 3d 48 87 14 bd dd 41 93 3d 21 6a 03 be
       0.118870206 -0.036261827 0.07190297 -0.12833454
000080 c6 79 1c bc 7f 34 ea bd 74 37 5a bd 4a 3b 5e 3c
       -0.009550517 -0.11435794 -0.05327554 0.01356394
000090 61 17 aa bd fa bc 78 bd 25 01 dd bc 1c ca 73 bd
       -0.083052404 -0.060727097 -0.026978085 -0.05951892
0000a0 1d ab 61 3d 93 d1 b9 bd 5e 23 a0 3d 96 85 21 3c
       0.055094827 -0.09073176 0.07819246 0.0098585095
0000b0 44 e2 c3 3d 38 20 d7 3c 63 68 a1 bd e1 6a 37 3d
       0.09564641 0.02626048 -0.07881238 0.044779662
0000c0 6a b3 c2 3b 80 ad dc 3d 6c 9f be bc 89 c8 05 be
       0.005941798 0.1077528 -0.023269378 -0.1306478
0000d0 93 c9 b1 3d 2b f2 9b bc 01 0f 37 3c e1 68 e7 3c
       0.08681025 -0.019036373 0.011173011 0.028248252
0000e0 5b 32 f4 3d 3c 76 62 3d fd dd b3 bd 5b 3d f9 bd
       0.11923667 0.05528854 -0.08782575 -0.12169906
0000f0 79 33 c0 bd 2d fd 1f 3d 35 b9 a4 3d 92 c1 45 bd
       -0.09384818 0.039059807 0.08043138 -0.048280306
000100 3b 98 b1 bd a2 d2 87 bc 04 8f a7 bd 02 87 9c bd
       -0.08671614 -0.01657993 -0.08181575 -0.07642938
000110 a8 dc 92 bc ef 2e b7 3d 9e d4 f2 3d 78 bd 13 3e
       -0.017927483 0.08944499 0.1185696 0.14427745
000120 76 5b 3a bd eb c2 a8 3c 66 65 89 bd 50 b9 1c 3b
       -0.04549738 0.020600757 -0.06708793 0.0023914166
000130 55 19 f2 3d 43 55 c9 3d 8f 4d 6c 3c 76 42 98 bd
       0.11821238 0.098307155 0.014422788 -0.074345514
000140 d5 41 aa bc e3 a2 45 3d 74 f3 40 3c 04 ca 48 3c
       -0.020783344 0.048251044 0.011776794 0.0122551955
000150 04 72 32 3d b4 e9 d2 bd cb b6 34 ba f7 e6 cb bd
       0.043565765 -0.102984816 -0.00068936934 -0.099561624
000160 23 b1 ab 3d f9 06 07 bd d2 33 93 bc 60 0a 8f bc
       0.083833955 -0.032965634 -0.017969046 -0.017461002
000170 7a 13 ff bc 79 2e 46 3d 0f 19 e1 bc 07 29 a7 bd
       -0.031137217 0.048384164 -0.02747777 -0.08162122
000180 7e 78 0f 3d 07 e4 d7 bd 62 22 c4 bd 03 b5 19 bd
       0.03502702 -0.1054154 -0.095768705 -0.03752614
000190 18 20 2c bc ef 23 98 bd 3b e2 da 3c 0d e7 ef 3c
       -0.010505699 -0.07428729 0.026719203 0.029284978
0001a0 2a 02 80 3b 9e 13 34 bd ae fd be 3a dc 25 b6 bd
       0.003906508 -0.04396402 0.0014571452 -0.0889394
0001b0 ef 2a bf bd 58 19 d2 bc 18 0f 95 3d c8 54 df 3c
       -0.09334361 -0.02564685 0.072782695 0.027262107
0001c0 80 0e a6 3c d5 df e5 bc 8b ca af 3d d2 68 4a 3c
       0.020270586 -0.028060833 0.08583554 0.012354093
0001d0 03 96 d8 bc ba 4a 65 3d 80 ca 10 3d 4a 86 82 bc
       -0.026438719 0.055979468 0.03534937 -0.015933175
0001e0 f7 ab 97 bd 85 59 00 be ea 13 c1 3d ae 30 53 bd
       -0.074058466 -0.12534149 0.094276264 -0.051560096
0001f0 69 5a dc bb 3e 40 ec bc 9a 0f be 3d b8 16 82 3d
       -0.006724645 -0.028839227 0.092803195 0.063519895
000200 8d 5a 3f bd bf 3b bf bd b8 4c bf 3c ae bf c0 3d
       -0.046717215 -0.093375675 0.023352012 0.0941156
000210 54 64 82 ba 8d 90 3a 3d 8f 0e a0 bc fe 5c c9 3d
       -0.0009948113 0.04554801 -0.019538192 0.0983219
000220 f2 66 d1 bd e2 09 bb bc 37 d4 ff 3d 35 e3 02 3e
       -0.102247134 -0.02283186 0.12491649 0.12781985
000230 b0 d2 82 3d 36 71 53 3d 6a ad 4c bd a7 97 ac 3d
       0.06387842 0.05162164 -0.049970068 0.08427363
000240 eb 69 9b bd 81 8d f2 bc 36 6a 9f 3c 9e 23 1a 3c
       -0.075885616 -0.02960849 0.019459825 0.009407906
000250 4b 35 d0 3d 2c cc d4 bd df 55 9f bb 18 48 06 3c
       0.10166415 -0.10390505 -0.0048625316 0.008195899
000260 95 20 ea 3d 95 4d a8 3c 6a bd c3 3d 3d 23 e3 bd
       0.11431996 0.020544806 0.09557612 -0.110907055
000270 6d 41 a8 bd d2 d2 4b 3c 5f 18 d3 bd be 49 2a bc
       -0.08215604 0.0124404 -0.10307383 -0.010393558
000280 e1 19 f9 3d 90 5e eb 3d cd 05 b6 3d d9 6d be ba
       0.12163139 0.11492646 0.08887825 -0.0014528587
000290 11 d9 90 3d d4 23 78 bd 66 14 c4 3d c2 88 ac bb
       0.07072652 -0.060581043 0.09574203 -0.0052653262
0002a0 d6 48 98 3d 27 43 0b bd b7 5e 8c 3d 51 58 95 3c
       0.07435767 -0.03399959 0.06854003 0.01823059
0002b0 c3 02 17 3e 3e 91 bc 3d 85 0b 07 3e 65 b0 bd 3c
       0.14747147 0.0920739 0.13187988 0.0231554
0002c0 55 0b 14 bd 9d 02 0f 3d 88 55 82 bd 81 81 84 bd
       -0.03614362 0.0349146 -0.0636397 -0.064700134
0002d0 d3 bb a6 bc f6 f9 9d 3d 88 aa 91 bc 78 f0 64 ba
       -0.020353233 0.07713692 -0.017781511 -0.00087333424
0002e0 dc 7f 1b 3e 07 dd cf 3c 5c f3 03 3b ba 2b b6 bd
       0.15185493 0.025373949 0.0020134067 -0.08895059
0002f0 50 0f bd bd 60 2a a5 3d ae 8d b7 3d db b4 15 be
       -0.09231436 0.08064723 0.0896257 -0.14619772
000300 e8 43 20 bd bb 40 72 bd ec 82 1a bd c8 d8 55 3d
       -0.03912726 -0.059143763 -0.037722513 0.05220869
000310 9c 5e a6 bd 07 c4 71 bd 0f 4d 06 3d f9 20 bb bd
       -0.08123514 -0.059024837 0.032788333 -0.091371484
000320 85 6c 4c bb 73 98 0b be f7 94 57 3d 70 8e 06 be
       -0.0031192612 -0.13632374 0.0526323 -0.13140273
000330 be 11 ed 3d 6e eb 33 3d 58 4a 8b 3d b4 1d df bd
       0.1157565 0.043925695 0.06801289 -0.10894337
000340 eb c1 88 bc 4d 7e bb 3d 5d 9f 5e bd 26 68 e3 bd
       -0.01669403 0.09154949 -0.0543512 -0.11103849
000350 c4 ab 11 3e 15 b7 63 bd 11 14 c0 bd ee a8 c1 bd
       0.1422568 -0.055594523 -0.09378827 -0.09456049
000360 b4 62 c9 bd b3 16 64 3d 13 bc dd bd a7 6f ab bd
       -0.09833279 0.05568571 -0.10826888 -0.08370905
000370 2a 1a 95 3c 5f 2a e1 3d 44 b7 7d 3d 9d 64 82 bd
       0.018200953 0.1099441 0.061942354 -0.06366847
000380 1f cd c7 3d 07 9e 01 bb 87 70 c6 bd 19 a2 c6 3d
       0.097559206 -0.001977803 -0.09689432 0.096988864
000390 ed 96 a3 3d c2 03 bc bd ba 9b d7 bd 24 46 db 3d
       0.07987771 -0.09180404 -0.10527749 0.10706738
0003a0 aa 99 86 3d 02 85 c6 bd 0a b3 9f 3d c6 07 51 3b
       0.06572278 -0.09693338 0.07797821 0.0031895502
0003b0 35 c6 cd bc e1 d1 5d 3d cb ce d7 bd a5 3c ca 3c
       -0.025118927 0.054155234 -0.105374895 0.02468712
0003c0 2b 75 61 3d ce ab 40 3d 9b ec f6 3d f3 17 08 be
       0.05504338 0.047038846 0.12056848 -0.13290386
0003d0 e4 f6 ec 3d 9e 2f 23 bd a4 cb be bc e6 f4 2e 3d
       0.11570528 -0.039840333 -0.023290463 0.042714022
0003e0 49 34 bc 3c 35 96 b2 bd 2a 72 2b bb ee 7d 9b bd
       0.02297415 -0.08720056 -0.0026160576 -0.075923786
0003f0 46 2a b4 3d ea 0e b2 3c a4 88 9a bd ca 8c 4b bd
       0.087971255 0.021735627 -0.075455934 -0.049694814

gru.bias_ih_l0_reverse f4 [192]
000000 cc 44 b7 bc c9 ed 58 3d 1a 5b a0 3d c6 1e 34 bc
       -0.022371672 0.052961145 0.07829876 -0.010993665
000010 72 47 24 3d a7 10 ab 3d 6e e6 91 bd 9b 78 00 3d
       0.040107198 0.083527856 -0.07124029 0.03136502
000020 00 2b fa 3c d9 85 bd 3c af 0e 2f 3c fc 40 c7 bd
       0.030538082 0.023135113 0.010684653 -0.09729192
000030 7c 13 4f bd 83 d7 36 bd e6 1c 45 3d 9e 1d 0e bc
       -0.05055569 -0.04463912 0.048123263 -0.0086740535
000040 4f a0 aa bd 37 7e b9 bc e2 cf 88 bd dd 3d 87 39
       -0.08331358 -0.022643192 -0.066802755 0.00025795298
000050 01 46 00 bd f8 9d cb bc 7c 5f b6 3d 9d 13 0a 3d
       -0.03131676 -0.024855599 0.08904931 0.03371011
000060 9f 92 a0 3d 31 01 d9 39 43 c6 74 3d 83 02 0e 3c
       0.07840466 0.00041390353 0.05975939 0.008667591
000070 c4 46 41 3d e7 58 cb bd 39 12 0f bc 5e 89 1b 3d
       0.047186628 -0.09929066 -0.008732372 0.0379728
000080 5f ce dc bc 20 26 9b 3c e3 db f0 bc a6 20 9a bd
       -0.026953874 0.018939078 -0.029401725 -0.075257584
000090 7c 9d a5 3d 92 01 d0 3d f0 98 a3 bc eb fb e4 bd
       0.080866784 0.101565495 -0.019970387 -0.11180862
0000a0 25 70 dd bb f8 bc 3e bd 6a da 7d 3d de 4b 78 3d
       -0.0067577534 -0.046566933 0.061975874 0.060619228
0000b0 92 1e 37 bd 24 43 d8 bc 59 c1 bb bd 94 d1 42 3d
       -0.04470689 -0.026399203 -0.091677375 0.04756315
0000c0 73 b4 5b 3d 7c eb 83 3d 23 c8 00 bc ec d9 cb bd
       0.053638887 0.064413995 -0.007860216 -0.09953675
0000d0 57 fc 87 bd f8 b9 3b bc ac 87 bd 3d 0a 5e d0 3d
       -0.06639927 -0.011457913 0.09254393 0.101741865
0000e0 ac 37 64 3d 98 87 25 bd b8 4c 09 3e 70 68 73 3d
       0.055717155 -0.040412515 0.13408172 0.05942577
0000f0 af 72 94 3d b4 6f 3c 3d d9 b4 7b bd 2a 6e ac bd
       0.07248437 0.046004966 -0.061451767 -0.084194496
000100 bd 07 f8 3c f4 79 06 bd c3 39 02 bd af 49 e7 3d
       0.030277127 -0.032831147 -0.031793367 0.11293351
000110 ec 47 d4 3a a5 7b ff 3c 68 5a c0 3d d5 63 cc bd
       0.0016195751 0.031186888 0.093922436 -0.09979979
000120 de 1a db bc 8d 6e ea bd 98 56 b0 bd 32 0c 06 bd
       -0.02674621 -0.11446867 -0.086102664 -0.032726474
000130 c4 fc 27 bc 56 7c e0 bd 07 55 00 3e fa a3 01 be
       -0.010253135 -0.10961215 0.12532435 -0.12660208
000140 5a 78 96 bd e1 b8 d7 bd 5b e6 a3 3d 3b 0b b6 3d
       -0.07347174 -0.1053331 0.08002921 0.08888861
000150 e9 47 7c 3d 7f 9e e6 3d f8 46 87 3d 64 ac b7 3d
       0.061592016 0.112606995 0.06605333 0.08968428
000160 c3 48 a9 3d 3e b4 a6 3c a5 1e ce bd 3e c7 c9 bc
       0.08265831 0.020349618 -0.10064439 -0.024631139
000170 3b b1 0e 3d 7b db a6 3d 7b 86 d3 3d a1 c0 06 3e
       0.03483699 0.08147331 0.103283845 0.1315942
000180 47 ea b8 3d 79 f7 db 3d d4 86 31 3a 43 49 ee bd
       0.0902906 0.10740561 0.0006772105 -0.11635067
000190 0f 96 e6 bd 65 26 00 3e 53 65 18 3d 34 e6 a7 bd
       -0.1125909 0.12514646 0.037206005 -0.08198205
0001a0 ea 87 a7 bc 17 74 87 3d f4 97 b8 bd 52 58 02 be
       -0.020450551 0.06613939 -0.09013358 -0.12729004
0001b0 14 9d 5e 3d 5b 20 a6 bd 94 3f b5 3d 84 36 3a bd
       0.05434902 -0.0811164 0.08850017 -0.045462146
0001c0 67 d9 97 3d 8d 20 59 bd 68 58 f7 3d 5f 88 d4 bb
       0.07414513 -0.05300956 0.12077409 -0.0064859833
0001d0 33 f6 24 3d fc c1 ec bd 6b 9a c0 3c ee 37 2f bd
       0.040273856 -0.11560437 0.023511132 -0.042777948
0001e0 e6 02 41 3d 2f e5 f9 3d d7 47 29 3d a1 0b ab bd
       0.047121905 0.122019164 0.041328277 -0.083518274
0001f0 6c 3c d8 bd 9b 85 e6 3d 51 55 9a bd 91 19 03 3e
       -0.105583996 0.11255952 -0.07535804 0.12802722
000200 4b 61 06 be ff 62 90 bd 23 4a 0c 3d 62 63 c5 3d
       -0.13123052 -0.07050132 0.03425039 0.096380964
000210 df 52 ad 3d b0 b7 8f bd 4f 46 d2 3d 62 26 ea bd
       0.08463072 -0.070174575 0.102673166 -0.11433102
000220 2a 36 86 3d 5b 53 8a bd 2e f1 01 3d 3b e6 0d be
       0.065533 -0.0675418 0.031724147 -0.13857357
000230 93 0b 73 3d 71 9a 7a 3d 7b fc ca 3d ce 52 21 3d
       0.05933721 0.061182443 0.09911438 0.03938561
000240 e6 1f a9 3d af 80 8a 3d 99 d6 7d bd c9 ed 51 3d
       0.08258037 0.06762826 -0.061972234 0.05125216
000250 55 96 3c 3d 40 91 ed bc af eb a8 bd 02 4d a3 3b
       0.046041805 -0.028999925 -0.08248078 0.0049835453
000260 4a c4 95 3c 86 d0 25 bd 7a 2c ae 3d 87 16 08 3e
       0.018282074 -0.040482067 0.08504577 0.13289843
000270 ea 3f f4 bd d0 ae ac 3d 4e 02 76 3d e5 7d 89 bd
       -0.11926253 0.0843178 0.06006079 -0.067134656
000280 d0 c5 f5 bd 38 33 e7 bc fa 35 9b 3d db a8 b6 3d
       -0.1200062 -0.028222665 0.075786546 0.089189254
000290 d2 04 a9 bd 12 5a 63 bd 05 77 db 3d ce bb aa 3d
       -0.082528725 -0.05550582 0.107160605 0.08336602
0002a0 f5 40 aa 3d 58 f3 0b 3e ec 2a b7 bd 32 38 ce bd
       0.08313171 0.13667047 -0.089437336 -0.10069312
0002b0 54 97 fa bd 37 8d b2 3d 7c 38 e7 bd 90 de f4 bd
       -0.12235895 0.08718341 -0.112900704 -0.11956513
0002c0 9c b3 86 3d 83 58 16 3d f8 99 20 bd 2b 33 a3 bd
       0.065772265 0.036705505 -0.039209336 -0.07968744
0002d0 2a b7 16 bd e3 31 40 bd 55 44 0b 3e 44 8e 7f bc
       -0.036795773 -0.046922576 0.13600285 -0.015597884
0002e0 52 88 9a bd b1 c4 ab bb e8 d4 de bd fc 01 bb 3d
       -0.07545532 -0.0052419533 -0.108804524 0.09131238
0002f0 c7 d2 0c bd 0f d3 7c 3d bc 34 dc bd 7b 6f 13 bc
       -0.0343807 0.06172472 -0.10752246 -0.008998747
