try7_simData4_nonconserved/30bp_SingleNonconserved_s3_UnifBG_pretrainedGen.pth (torch, 67885 bytes, 7 tensors)

embeddings.weight f4 [5, 16]
000000 71 85 90 bd f8 68 a3 be ae da a9 3f cd b9 74 be
       -0.07056702 -0.31916022 1.3269861 -0.23899002
000010 ce be a3 3f 65 f2 86 bf fc e2 e1 3f 98 dd d2 be
       1.2792604 -1.0542723 1.7647395 -0.41184688
000020 db 22 df 3f 2e 5c d1 3f f7 03 8d 3e 0e 80 79 3b
       1.7432512 1.6356256 0.27542087 0.0038070711
000030 89 28 03 40 04 0e 10 bf c2 02 b9 bf c2 00 64 3f
       2.049349 -0.56271386 -1.4453967 0.89063656
000040 07 32 85 3f a2 6f 02 3f 1b 08 46 bf fd e8 88 bf
       1.0405892 0.5095159 -0.7735612 -1.0696102
000050 61 48 03 c0 f4 17 d6 bf e5 46 87 be 1a ac 83 be
       -2.0512927 -1.672606 -0.26421276 -0.2571724
000060 a7 0b 55 3f b6 b7 7f 3e 26 ee 5f 40 6e 70 65 bf
       0.83220905 0.24972424 3.4989104 -0.8962468
000070 66 87 c0 be 8f b9 67 3f 40 c3 cb 3d 79 4a f1 3f
       -0.376033 0.90517515 0.0994935 1.8850852
000080 9d dd 5a be 4f 9a e1 bf 8f 49 74 3f d7 c4 c6 3f
       -0.21373601 -1.7625216 0.9542474 1.5528821
000090 38 23 72 3f 9d ca c0 3e 9b 63 6a 3f 18 40 21 3f
       0.9458499 0.37654582 0.91558236 0.62988424
0000a0 60 76 b7 3e 74 6d 2e bf da c3 c7 bb 11 23 e6 3e
       0.358325 -0.6813576 -0.0060963454 0.4494863
0000b0 82 d9 8b bf bf f0 27 bf ea 96 25 3d 08 63 10 3f
       -1.0925753 -0.65601724 0.040427126 0.5640111
0000c0 d4 36 bf be 78 8f 6e 3f 81 6f 02 3f 9d 84 3e 3f
       -0.37346518 0.93187666 0.5095139 0.744211
0000d0 80 27 97 bd 73 15 31 bd 44 54 5a be c9 82 9f bf
       -0.07380581 -0.043233346 -0.21321207 -1.2461787
0000e0 40 18 e4 be 30 4e a7 bf 8e ee dc be 12 69 80 3e
       -0.4454975 -1.3070736 -0.43150753 0.25080162
0000f0 e1 d6 88 3f 83 29 ea 3f 32 2f d2 3f 08 00 bc be
       1.0690576 1.8293918 1.6420653 -0.36718774
000100 08 c4 17 40 6a 0b 03 3c c6 be 14 bf 74 47 43 be
       2.3713398 0.007998327 -0.581036 -0.19070226
000110 df 6b ef be cd 9a 22 3f 2a f1 12 3f 71 63 56 be
       -0.46761987 0.6351746 0.5739924 -0.20936371
000120 0c 52 15 3e 35 24 69 3f 0f ff 9f bf a7 a5 90 bf
       0.1458208 0.9107087 -1.2499713 -1.1300553
000130 4e f3 55 3f cd b2 5a bf 51 f0 96 3f 90 70 15 bf
       0.8357438 -0.8542908 1.1792089 -0.5837488

gru.weight_ih_l0 f4 [192, 16]
000000 ff 4a 0e bc 8f b5 df 3e b4 28 21 bd 12 c3 89 be
       -0.008684873 0.43693206 -0.03934546 -0.2690664
000010 18 7f af be 83 ac c0 be ff 04 aa 3c 2d 5e a0 be
       -0.34276652 -0.37631616 0.020754335 -0.3132185
000020 42 47 02 bd cf a1 64 3e 32 a8 c7 3e 14 87 ba bd
       -0.031806238 0.2232735 0.3899551 -0.09107795
000030 1f 74 68 3e c7 45 4f 3e 91 91 cf bd 70 84 93 3e
       0.22700547 0.20241462 -0.101351865 0.2881198
000040 1b b1 96 3d 5e 0b d2 3e 7c 55 59 be 25 1a bf be
       0.07357999 0.41024297 -0.21224016 -0.37324634
000050 81 9a 71 be 61 b8 c6 be 34 b0 1a be 7b 00 c1 be
       -0.23594095 -0.38812545 -0.15106279 -0.3769568
000060 91 89 10 3d c5 5f 41 3e 53 c7 bb 3e 59 41 f1 3c
       0.035287444 0.1888419 0.3667551 0.029450106
000070 1f 0a 9c 3e 97 e4 ec 3e ff 46 3c bd 5e dc 3d 3e
       0.30476472 0.4626815 -0.045966145 0.18541095
000080 d1 c9 d8 be d6 79 fd 3e b5 d9 f1 3e fc 21 56 3e
       -0.42341474 0.49507016 0.4723641 0.20911402
000090 38 40 83 3c 74 62 23 bf d9 6a 8d be 49 7f 88 be
       0.016021833 -0.638221 -0.2762058 -0.2665961
0000a0 94 a3 13 3e 96 c4 ec be 47 d1 aa 3e 9f d5 2a 3e
       0.14417869 -0.46243733 0.3336279 0.16683052
0000b0 c2 0d 01 3d 37 3f 42 3f a0 f3 b2 bd 6f f6 d4 3e
       0.03150726 0.7587771 -0.08737874 0.41594264
0000c0 fe bf 8b 3d d2 8d 96 3d c4 63 a4 bd a1 98 8a 3e
       0.06823729 0.07351269 -0.08026841 0.27069572
0000d0 92 71 c3 bd 63 86 e5 bd ee 1d 73 3e 16 1e 44 bd
       -0.09543146 -0.11207273 0.23741886 -0.047880255
0000e0 e5 a1 7b 3e 0f 8c 0d be b3 94 a2 3d 5a 6c a0 bd
       0.24573477 -0.1382296 0.079385184 -0.078331664
0000f0 70 da 40 bd 40 77 24 3e b1 3b 12 3e 27 83 3b 3e
       -0.04708332 0.16061115 0.14280583 0.1831175
000100 55 08 67 3d 2b e9 d6 3e 17 b0 85 be 44 08 a2 be
       0.05640443 0.41974768 -0.26110908 -0.3164693
000110 88 4e 70 be d4 2d 1c be 88 de dc 3c 87 f6 86 be
       -0.23467457 -0.15251857 0.02696158 -0.2635996
000120 d8 34 13 3e 10 14 c7 3e 69 13 ac bd 29 a4 73 be
       0.14375627 0.38882494 -0.0840214 -0.23793091
000130 6f ac 5f 3e 56 c0 03 bb ce 38 d4 3d dd 6a 16 bc
       0.21843122 -0.0020103655 0.10362397 -0.009180752
000140 5f 64 00 3f 94 e8 b0 bd 1d 2c 14 bd 1b 39 ca bd
       0.50153154 -0.08638111 -0.036174882 -0.09874173
000150 49 6c b9 3c a8 79 94 bb 9c cc de 3e b0 40 95 bd
       0.022634642 -0.004531104 0.4351548 -0.07287729
000160 08 55 51 3e 14 0d 7a 3e 94 c7 83 be f1 db e1 be
       0.20442593 0.24419051 -0.25738204 -0.44113114
000170 87 94 cd 3e 5e 2b ac be 92 df 1f 3d a5 bb ca 3d
       0.4015238 -0.33626837 0.039031573 0.098990716
000180 97 cf 11 be aa b0 83 bf 0c 63 03 3f 6a 83 75 3f
       -0.14239345 -1.0288289 0.5132301 0.95903647
000190 31 dc 23 3f 77 be 06 3f 48 ab 87 3e 38 dd 8c 3d
       0.6400786 0.52634376 0.26497865 0.06878132
0001a0 39 99 c9 be f9 0c ae be 52 d3 0c bf 18 08 ce 3e
       -0.39374712 -0.33994272 -0.5500995 0.4024055
0001b0 9c ce 9a bd c7 23 8d be c9 86 37 3e d4 ca d2 be
       -0.07558939 -0.27566358 0.1792251 -0.4117037
0001c0 1c f7 64 3f f3 db 15 bf 52 9f 90 be 43 72 d6 bd
       0.8943956 -0.5853874 -0.28246552 -0.104710124
0001d0 a1 1f d2 bd d0 11 ad 3e 4d 60 01 3f 05 aa bf 3c
       -0.10259939 0.33802652 0.5053757 0.023396501
0001e0 90 3a 08 3f 5d c7 25 3f 8a df 84 be 9c 54 40 bf
       0.5321436 0.6475733 -0.25951797 -0.75129104
0001f0 99 35 6f 3e 11 8b 5a bf 70 70 36 be d2 df c4 3d
       0.2336029 -0.8536845 -0.17816329 0.09613003
000200 c1 4d ab 3e 29 10 20 3d b1 2e 54 bd 8a ad ab 3d
       0.3345776 0.03907791 -0.05180234 0.08382709
000210 8e 9d 2a bd 2b 55 a7 3e f3 ee b0 3d 72 ad 39 be
       -0.041654162 0.32682166 0.08639326 -0.1813257
000220 d5 c0 19 3d da 59 8e 3b 8f ab 9c be 65 93 7f be
       0.037537415 0.0043442072 -0.3059964 -0.2495857
000230 af cb 58 3e 1e 12 da 3c a5 bb 11 3e 2b 5a 15 be
       0.21171449 0.026619967 0.14231737 -0.14585178
000240 27 be 9a be d0 44 8b 3e bf bf e2 3e ff ab 8f 3e
       -0.302232 0.27200937 0.44286916 0.2806091
000250 2c 76 0f 3e 87 32 d0 be 03 25 d1 bd 71 66 c3 bd
       0.14009923 -0.4066355 -0.102121376 -0.095410235
000260 d0 87 a8 3d d0 54 7d be ff c1 15 3f a8 40 52 3e
       0.08229029 -0.24739385 0.5849914 0.20532477
000270 ff 75 1b be 74 fc 1c 3f a2 2b eb bd 07 4e cf 3e
       -0.1518173 0.6132271 -0.11482932 0.40489218
000280 e4 11 40 3e 12 0b 90 be 7b 36 9d 3b 21 0b 89 3e
       0.18756825 -0.28133446 0.0047977543 0.26766303
000290 33 ed 56 3e 8e 47 96 3e c7 35 67 3e 5b b3 cc bd
       0.20988922 0.29351467 0.22579108 -0.09995147
0002a0 bf e9 d0 bc 42 5d 1a 3e c7 1d dc be ed 6a b6 bd
       -0.025502084 0.15074638 -0.42991468 -0.08907113
0002b0 74 6f 39 3e 25 67 dc be d8 07 98 3e dd 68 b6 be
       0.18108922 -0.43047443 0.29693484 -0.3562688
0002c0 8f 42 00 3d b7 82 2a bf 12 41 90 3d f2 1c 07 3e
       0.031313475 -0.66605705 0.07043661 0.13194636
0002d0 e7 73 0a 3f 4e e4 b4 3e ec d1 cf 3e 0d 71 13 3f
       0.540831 0.35330433 0.40589845 0.57594377
0002e0 b9 f7 e0 3e ae 66 ed 3e 6e e6 d4 bd f1 e1 ea bd
       0.43938997 0.463674 -0.103955135 -0.11468876
0002f0 b5 62 2a be 59 65 8e bf 24 35 6c be 14 aa 92 3e
       -0.16639216 -1.1124679 -0.23067147 0.28645384
000300 0f 76 0f 3f d2 a3 bd bc 66 fe 3f be a5 71 ac 3c
       0.5603952 -0.023149405 -0.18749389 0.021050284
000310 d7 c9 41 be e5 cb 6a 3e d5 b1 03 3f c1 c2 9f bd
       -0.18924652 0.22929342 0.51443225 -0.07800818
000320 ac 59 9d 3e 70 b4 10 3e 90 09 cf bd be 0b 86 be
       0.30732477 0.14131331 -0.10109246 -0.26180834
000330 ac ea 77 3d 07 ab 1d be 9e 94 76 3e 7c 71 7d 3e
       0.060526535 -0.15397273 0.2408013 0.24750322
000340 ff ef b6 be a8 20 bb be 90 0b 2b 3f 4b e5 03 3f
       -0.35729977 -0.36548352 0.6681452 0.5152175
000350 f4 90 1a 3f 63 7d 83 3e d5 87 41 3d c5 c6 a1 bc
       0.6037743 0.256816 0.04724868 -0.019748101
000360 25 c6 9b be 6f e2 e7 be 73 58 a8 be af 55 ed 3e
       -0.3042461 -0.45289943 -0.3287998 0.46354434
000370 83 a5 2b be 41 a1 53 be 7b a3 00 bd 0f e2 b2 bd
       -0.16762356 -0.20666982 -0.031405907 -0.087345235
000380 e8 4a e9 bd 0f 01 7a 3e 58 62 2a 3d 34 0a 2a bd
       -0.1139124 0.24414466 0.041597694 -0.041513637
000390 27 80 fb 3d 9e 37 c2 bd 71 51 f9 bd fd 58 5c be
       0.122803025 -0.094832644 -0.12173737 -0.21518321
0003a0 67 8f 86 bd ff 77 8c bd bf 82 b5 bc ce 85 46 3d
       -0.065703206 -0.06858825 -0.022157071 0.04846745
0003b0 35 0d 15 bd 18 76 3e 3e 46 b1 dd 3d 0e d6 64 bd
       -0.03638955 0.18599737 0.10824828 -0.0558682
0003c0 e7 96 f8 3d 83 05 18 3f 86 77 cd be 7e a8 84 bf
       0.12138157 0.5938341 -0.40130252 -1.036392
0003d0 76 be 0c bf 2a 1b 5e bf 41 77 0c bd 96 e5 6e be
       -0.5497812 -0.867602 -0.034293417 -0.23329768
0003e0 53 65 c7 3e 95 eb 17 3f b8 ec 31 3f a0 58 e5 be
       0.38944492 0.59343845 0.6950183 -0.44794178
0003f0 50 29 48 3e d4 28 19 3e 99 e9 6d be 30 63 fb 3e
       0.1954701 0.14956981 -0.23233642 0.49099112

gru.weight_hh_l0 f4 [192, 64]
000000 07 08 90 be 4d 77 f4 3e fd 00 47 be 8b a0 5e 3e
       -0.28131124 0.4774727 -0.19433971 0.2174093
000010 ab 66 d4 3e 43 94 84 3e ef bc 2d 3f c1 94 ca bd
       0.4148458 0.25894365 0.67866415 -0.09891654
000020 7d 3b 6b 3e 5e b3 8a be 5d 1c 27 3e 49 5d 01 3d
       0.22971912 -0.2708997 0.16319413 0.031583104
000030 45 ba 51 3e 4a 31 97 3e 51 1f a1 be f7 dd ac 3d
       0.20481212 0.29529792 -0.31469205 0.08440774
000040 02 75 2b 3f 54 c6 b6 3e a9 6c 73 3e 2b 4a d3 be
       0.66975415 0.35698187 0.2377192 -0.41267523
000050 c1 ce d0 bf d1 92 a5 be 53 72 f5 3e de b2 3f be
       -1.6313096 -0.32338575 0.47938785 -0.18720576
000060 e1 5d c2 3c f7 4a d0 bd c7 a9 c0 3d 2b 37 92 bd
       0.023726406 -0.101705484 0.094073825 -0.07139429
000070 d1 04 9b bd 43 0f 2e bf 6c 80 40 be 29 14 62 bf
       -0.07569278 -0.6799204 -0.18798989 -0.8831201
000080 38 5b d8 3e 76 1a 1e 3f aa 4c 8e bf d2 6f 3d be
       0.42257094 0.61759126 -1.1117146 -0.18499687
000090 b0 68 e5 3d e1 ff 14 3d cf 68 13 3e 56 68 2d bf
       0.11201608 0.036376838 0.1439545 -0.6773733
0000a0 b6 c3 c2 3d 4c 25 ee 3e 54 0f 94 3e 90 86 aa 3e
       0.09509985 0.4651283 0.28917944 0.33305788
0000b0 62 35 04 3e 6a f2 df bd 53 4a 86 be 1b b3 b0 be
       0.12910989 -0.10934909 -0.2622858 -0.34511647
0000c0 15 a4 69 be 64 b2 79 3e b5 33 19 bf bf b3 30 be
       -0.22816499 0.24384457 -0.59844524 -0.17256068
0000d0 7a b1 04 be 6e 67 9f bf d0 db 1e be 52 f1 1b bf
       -0.12958327 -1.2453439 -0.1551354 -0.609151
0000e0 9f 63 f8 be 71 67 43 3d 7c d6 06 bf af 9a 01 3f
       -0.48513505 0.04770607 -0.5267103 0.50626653
0000f0 fd 40 67 bc c1 27 a4 3f 29 e8 3e 3f 4d a2 50 3f
       -0.0141146155 1.2824632 0.74573 0.8149765
000100 9a dd 7a 3e 1d a7 60 be df 13 c2 be c7 fc 05 3e
       0.24498597 -0.21938749 -0.37905785 0.13084708
000110 c9 69 97 3e f4 b3 2d 3f a9 49 cc 3e 83 b5 39 bc
       0.29572895 0.6785271 0.39899948 -0.01133478
000120 be 4b 95 3d 33 c3 6a 3e 8c aa a0 3e ed 02 c1 3e
       0.07289837 0.22926025 0.31380117 0.37697545
000130 3c 8f 8c be 0e d3 50 3e 90 cd b7 be f8 1a 20 3f
       -0.2745303 0.20393011 -0.3589902 0.6254115
000140 e8 06 ac bd 56 c5 08 3f ad 99 e7 bf d2 73 4f bf
       -0.08399755 0.5342611 -1.8093773 -0.810361
000150 d8 86 1f be 03 17 08 bd 57 5e 0e 3e f8 b5 26 3f
       -0.15578783 -0.03322507 0.13903175 0.6512141
000160 f0 37 80 3e 3a 4e e6 bd 6d ed b3 be ca 6a 16 3e
       0.25042677 -0.11245389 -0.3514208 0.14689174
000170 3a 24 63 bf 35 75 31 3e 24 7d 01 3f ef b0 74 be
       -0.8872715 0.17329867 0.50581574 -0.2389562
000180 ae b6 97 3e e4 45 f4 3e 44 d3 e8 be 8d 46 b7 3d
       0.2963156 0.47709572 -0.45473683 0.08949003
000190 2d 59 15 3d 01 3d 10 bf 0c 73 b3 3e be 41 0b bf
       0.036461998 -0.56343085 0.3504871 -0.5439719
0001a0 1e be b7 bc d9 41 33 3f 2f 75 3b 3e be a6 4e bf
       -0.022429522 0.7002235 0.1830642 -0.8072318
0001b0 f2 23 88 3e ca cb 25 be 41 5e a8 be 32 f6 c2 be
       0.26589924 -0.1619102 -0.3288441 -0.38078457
0001c0 3e cd 50 be 27 4f 0d 3f f2 96 7c be 57 2b 3e bf
       -0.20390794 0.551989 -0.24666956 -0.7428488
0001d0 c3 c9 03 3e 5d c6 ef be 46 a8 2f 3e 19 84 8a be
       0.12869935 -0.46831027 0.17154035 -0.27053908
0001e0 50 0e db 3e 12 62 78 3e 62 37 36 3f 58 6b 1d 3f
       0.42784357 0.24256161 0.7117826 0.6149192
0001f0 73 27 03 3e dc fb 45 3f 0e 94 d9 bc c1 8e 8e bd
       0.12808017 0.7733743 -0.026559856 -0.06960822
000200 ed 55 37 bd 83 03 32 bf 67 2b fd 3d cb 11 4f 3e
       -0.04475968 -0.6953661 0.12361794 0.20221631
000210 b9 22 87 3e 72 35 ab be 90 8f 4f 3f ac 39 4f 3e
       0.2639368 -0.33439213 0.81078434 0.20236844
000220 fd 76 d5 bd ab 84 93 3e dd 0f 58 3d 64 44 fa be
       -0.10423086 0.28812155 0.052749503 -0.48880303
000230 72 fa 01 bf 75 21 f1 3e 60 e2 07 bf f1 1b 29 3e
       -0.50772774 0.47095838 -0.53079796 0.16514565
000240 de dc a2 be 23 c8 1c ba 0d 15 12 be 35 1d 71 3e
       -0.31809133 -0.00059807504 -0.14265843 0.23546298
000250 bf be 7b be 9d 36 0b be 72 e9 32 be 29 6c 3a bf
       -0.24584483 -0.13595052 -0.17471865 -0.7282129
000260 84 56 f7 bd e4 70 25 bf 7c 7b b7 be ca 49 11 be
       -0.120770484 -0.6462538 -0.358364 -0.14188305
000270 d0 e2 76 3d 92 77 1c 3f f3 97 f8 be 00 39 cf 3d
       0.0602749 0.6111995 -0.48553428 0.10118294
000280 d1 b6 57 3d 49 32 ac be 43 58 bd be 0f 57 0b be
       0.05266458 -0.33632115 -0.369814 -0.13607429
000290 80 ff 33 bd 84 c6 94 3e 8f d9 bc be 5e 51 24 bf
       -0.043944836 0.29057705 -0.36884734 -0.64186656
0002a0 0d 9e 0a 3f 74 2e 67 be b5 3e b3 3c f9 de 2d bf
       0.54147416 -0.22576314 0.021880487 -0.67918354
0002b0 b0 cb eb bd 2a 14 09 bc b2 d6 7b 3e f3 c0 d7 be
       -0.1151346 -0.008366624 0.24593619 -0.42139396
0002c0 d4 27 48 3e 94 2c 2c be 92 db b8 3d 93 c4 4f 3d
       0.19546443 -0.1681388 0.09026255 0.050724577
0002d0 39 cd 91 be 00 c2 00 3e 19 9f b2 3d f7 ae b3 bd
       -0.28476885 0.12574005 0.08721752 -0.08773606
0002e0 fd d8 ff be 6b 5b c0 3e 53 6b 25 bf c9 0a 7e 3e
       -0.49970236 0.37569746 -0.6461689 0.24808802
0002f0 b6 04 ff 3d 59 72 49 3e 61 fa 86 3e 43 cf 22 bd
       0.124520704 0.19672526 0.263629 -0.03974844
000300 5f 08 d1 3d cb 14 12 3f a7 fb 0a 3d 49 9c af be
       0.10206675 0.5706298 0.0339314 -0.34298924
000310 3a bf 4f 3e 1c 30 63 bc ec e2 20 3f 79 26 02 bf
       0.20287791 -0.013866451 0.62846255 -0.50839955
000320 29 42 f6 be 74 43 02 bd 06 23 58 be 7d 56 81 bf
       -0.4809735 -0.03180261 -0.2110711 -1.0104519
000330 19 9d 85 3d 5f a3 63 3e d1 99 e0 3d a4 f6 b3 3d
       0.065241046 0.2223029 0.10966838 0.08787277
000340 9e b9 b0 be 57 b1 2c 3e 0e df 14 3f 90 10 a0 3e
       -0.34516615 0.16864525 0.58152854 0.31262636
000350 e1 e9 ee be c0 00 ea 3e 3b c8 8d 3d 53 e7 c3 3d
       -0.4666281 0.45703697 0.069229566 0.09565606
000360 e9 da e4 be ff 3f 06 bf db 3e 23 bf 2a 93 8d be
       -0.44698265 -0.524414 -0.63767785 -0.2765134
000370 83 ac b5 3e 76 05 00 3e 62 eb 69 3e ff bf 9e 3e
       0.35483178 0.12502083 0.22843698 0.31005856
000380 a4 57 e3 3e a8 1a 86 be 3d f9 ad 3e 01 92 a6 bd
       0.44402802 -0.26192212 0.33979216 -0.08133317
000390 81 4b 80 bd 3f dc 49 be 95 cb 77 be 99 9b 6a bf
       -0.06264401 -0.19712923 -0.24198754 -0.91643673
0003a0 c9 bd d0 3e d7 5e d3 be 2c 4e 90 3e b9 ed 8b be
       0.40769795 -0.41283295 0.2818464 -0.27329805
0003b0 c8 c2 cd 3d 74 c1 a7 be 11 bc 12 bf 53 7b e7 be
       0.10046917 -0.3276478 -0.57318217 -0.45211276
0003c0 4b 79 f6 3d 08 f7 8d be 23 5b 84 3e 2d b7 06 bf
       0.120348535 -0.27727532 0.25850782 -0.52623254
0003d0 ec d8 b4 3c 3d d9 0b be 1d a5 03 be 09 1d 02 be
       0.022076093 -0.13657089 -0.12855954 -0.12706389
0003e0 9e eb 80 bf df 32 f5 3e 1f d8 b0 3d ac bd cb 3e
       -1.0071905 0.47890374 0.08634972 0.39793146
0003f0 96 fd 15 bd ae be 13 bf e0 bb 9e 3e 0f f7 fb 3e
       -0.03661879 -0.5771283 0.31002712 0.49211928

gru.bias_ih_l0 f4 [192]
000000 25 d9 5c 3d 21 a8 91 bc da 10 af 3c 97 5e ad 3e
       0.053918023 -0.017780365 0.02137034 0.3386123
000010 5a 24 25 3c a8 ca b5 3e e4 28 f8 3d 59 4f 70 3d
       0.010079468 0.35506177 0.12117174 0.05866942
000020 7d af 17 3e 59 06 99 3d ce 5a 50 3e 92 b0 b2 3c
       0.14813037 0.07471914 0.20347139 0.02181271
000030 38 38 69 3e 8a f6 ef bd fd 89 8e 3b 72 62 8a 3d
       0.22775352 -0.117169455 0.0043499456 0.06757058
000040 16 30 23 3e b9 2d b6 3e 42 3f 4b be e8 d3 b8 3e
       0.15936312 0.3558176 -0.1984835 0.36099172
000050 26 44 6f 3e 71 fc 05 3e e6 fc ed 3e 47 60 56 3e
       0.2336584 0.1308458 0.4648201 0.20935164
000060 59 55 18 3e ad 74 2c 3e c3 f3 25 3e 62 db 8f 3e
       0.14876308 0.16841383 0.16206269 0.28097063
000070 ba 0b ee 3d fc 69 a2 3e 38 0d d5 3c 07 e4 e1 bd
       0.116233304 0.31721485 0.02600728 -0.11029821
000080 f2 ab 59 3e 43 e4 2d 3e 29 fe 86 3d c1 25 0f 3d
       0.21256998 0.16981606 0.06591446 0.034948114
000090 5c 64 7f 3e 4c 56 b7 3d cd 1f 7b 3d 3b cc f1 3d
       0.24940628 0.08952007 0.061309624 0.11806532
0000a0 b3 45 f9 3d 6b a0 73 3e d7 8b ab 3e a9 df 57 be
       0.12171497 0.23791663 0.33505127 -0.21081413
0000b0 84 73 83 3e f7 64 aa 3e b2 16 af 3e ac 53 b6 bc
       0.2567407 0.33280155 0.34197003 -0.022256695
0000c0 40 1a 04 be 07 e3 8e 3e 44 44 21 3e 48 36 6d bd
       -0.12900639 0.27907583 0.15748698 -0.057913095
0000d0 79 5c 01 3e c8 9b c1 bd 24 44 89 3e b8 1d 3b 3e
       0.12632932 -0.09453541 0.268098 0.18273056
0000e0 3c 4a 5e 3e a3 a6 1d 3d 3e 07 1c 3e 7c 99 6e be
       0.21708006 0.038488995 0.15237138 -0.23300737
0000f0 6c f3 ba 3e fc 69 36 3e 90 0a 82 3e a5 a6 b6 bd
       0.3651384 0.17813867 0.25398684 -0.08918504
000100 e6 9c 87 bd 08 4c 04 bf 6e d2 30 be 14 96 99 bd
       -0.06621723 -0.51678514 -0.17267773 -0.07499328
000110 42 4a 7b 3d a0 0f 5d be 09 4c e6 bd 32 cd 4b 3c
       0.061350115 -0.21587992 -0.11244971 0.012439059
000120 d2 f5 c0 bc 67 58 39 3e 35 21 c0 bd 14 1b e2 be
       -0.023554716 0.18100129 -0.09381334 -0.44161284
000130 66 bc b9 3a 44 a3 9a be b2 da 82 bc 4e 79 b9 be
       0.0014170527 -0.30202687 -0.015973423 -0.3622536
000140 bc 04 f9 be 13 08 f3 be c4 a3 da be 19 e7 11 bf
       -0.48636425 -0.47467098 -0.42703068 -0.5699325
000150 48 1c ac be fd ed fa be 0d 3f 61 bd b6 24 80 be
       -0.33615327 -0.49009696 -0.05499177 -0.25028008
000160 c5 5b f6 be 1a 19 5d be 27 bb dd bd 0f 4e 5d 3d
       -0.4811689 -0.21591607 -0.10826712 0.05402952
000170 f7 b3 1a bf ac 90 07 bf 13 75 66 bd 11 8f a0 be
       -0.60430855 -0.52955127 -0.056263994 -0.3135915
000180 57 0c 92 3e a0 73 dc be 82 bd c5 bd 2b 5c 3d be
       0.2852504 -0.43056965 -0.09655286 -0.1849219
000190 0c f3 a5 be ef 25 e9 3c 9b 08 14 be 50 3c 28 3d
       -0.32411993 0.028460471 -0.14456408 0.041073143
0001a0 df a8 2d 3e 54 8a f4 bd a1 d6 dd 3b 70 dc d9 bd
       0.1695895 -0.119404465 0.0067699705 -0.10637748
0001b0 4a 0b c3 be 34 98 c8 3e 72 9b 28 be b8 be d3 3e
       -0.3809455 0.39178622 -0.16465548 0.41356444
0001c0 67 ad 92 bd bf a5 38 bd 66 dc 89 3e f7 af cc bd
       -0.0716198 -0.045079943 0.26925963 -0.099945
0001d0 96 85 c2 be c8 e1 af bb 0f b9 86 be cc 5e d5 be
       -0.37992543 -0.0053674914 -0.26313064 -0.41673887
0001e0 3c 29 8a be 01 cc db be df 1f 81 be 83 e2 01 3e
       -0.26984584 -0.4292908 -0.25219628 0.12684064
0001f0 5d 32 08 bf 0c bf 91 be f6 84 62 be 81 d2 b6 be
       -0.5320185 -0.2846607 -0.22121033 -0.35707477
000200 dd 45 44 3d fa b7 32 3b b1 ca 84 3d 19 bf 2c 3e
       0.04791819 0.0027270303 0.06483973 0.16869773
000210 d6 25 86 bd f5 e6 bb 3c f6 1c 34 3e 6b f9 67 be
       -0.065501854 0.022937277 0.17589173 -0.22653739
000220 23 a2 dc 3d 29 ca 4a 3d 57 81 9a 3d 83 19 5d be
       0.107731126 0.0495092 0.07544201 -0.21591763
000230 e9 fd 79 3e 18 34 0b 3d e4 3e 0d bd d3 48 0f 3e
       0.24413265 0.033985227 -0.034483805 0.13992624
000240 12 63 2f 3e 57 b0 40 bb e6 cb a1 3c 4c b3 39 3e
       0.17127636 -0.0029401982 0.019750547 0.18134803
000250 3b 10 c4 bd 7c 28 01 3c 6d d6 24 3e eb ba 0e 3e
       -0.09573408 0.007883187 0.16097422 0.13938491
000260 e1 46 4e be cb f5 22 bb 21 fc c4 bc cf 88 12 be
       -0.20144226 -0.0024865742 -0.024046006 -0.14310001
000270 f8 f2 35 3d 19 40 be 3d df 49 20 3e 6f da 87 3d
       0.044421166 0.092895694 0.1565318 0.0663346
000280 8a c6 bf 3d 8d 60 22 bb 8d ee 82 bd 8c e6 20 be
       0.0936404 -0.0024776787 -0.06393156 -0.15712947
000290 bc d1 eb 3c a2 ad 1a bd 6c 16 ea bb 39 31 59 bc
       0.028786533 -0.037763245 -0.007143786 -0.0132563645
0002a0 b1 a5 02 3d ad 88 77 be ff 29 74 3e 22 3f 67 3d
       0.031896297 -0.24173231 0.23844145 0.056456693
0002b0 88 4d 1e be 9c 32 a7 bb 30 e4 0a 3e a7 e2 0d be
       -0.15459263 -0.0051024687 0.13563609 -0.13855992
0002c0 89 e9 b7 bd 9a f9 8e bd 9a c0 25 bd 0d b3 c1 3d
       -0.0898009 -0.069812015 -0.040466882 0.09457979
0002d0 dd 2c 08 3e b3 4d 55 3d 91 be 51 be 97 cb fa 3c
       0.13298364 0.052076053 -0.20482852 0.030614657
0002e0 97 f1 b3 3d fd 16 0f 3d 98 f5 07 3c 4c 48 e7 3d
       0.08786314 0.034934033 0.0082983 0.112930864
0002f0 3b e5 ae 3d 15 76 ae 3d 26 60 be bd 04 d5 d4 3d
       0.08539816 0.08518616 -0.092956826 0.10392192

gru.bias_hh_l0 f4 [192]
000000 1a de 8a 3d d5 43 18 bc f2 71 ff bc 0f c4 7d 3e
       0.06780644 -0.009293516 -0.031182263 0.24781822
000010 c7 2c 0d 3e 16 df b1 3e e5 6b dd 3d a1 c3 18 3e
       0.13786612 0.34740514 0.10811595 0.14918377
000020 9e 6d f2 3d 89 79 7e 3d 30 b1 27 ba 03 ee be 3d
       0.11837314 0.062127624 -0.00063969474 0.09322741
000030 d1 b9 48 3e b1 fa c2 bd 25 b2 d7 3d 6d d8 97 3d
       0.19602133 -0.09520472 0.10532025 0.07414327
000040 4a a1 4b 3e c8 5d 44 3e a7 7f 20 be fa a4 8a 3e
       0.19885746 0.191764 -0.15673696 0.27078992
000050 e1 7c bf 3e f5 49 7b 3e fb 34 e3 3e fe 9c 7b 3e
       0.37399963 0.24539931 0.44376358 0.24571607
000060 b4 09 f2 3d e8 87 88 3e 36 5c 74 3e 79 2c 01 3e
       0.11818257 0.26666188 0.238633 0.12614621
000070 60 59 82 3d 30 96 c8 3e c4 66 40 be 29 98 3e bd
       0.06364703 0.39177084 -0.18789202 -0.04653183
000080 07 9b b2 3d c3 7c 8f 3e 9a fd cf bd 13 9e 4e bc
       0.08720975 0.28024873 -0.101557925 -0.01261093
000090 95 46 80 3e e4 5a fc 3c 5f aa 94 3e f6 a4 00 3e
       0.2505385 0.030805059 0.29036233 0.12562928
0000a0 6a 3f a3 3d 02 9c 5e 3e 36 03 0e 3e 81 c0 a3 be
       0.0797108 0.217392 0.13868412 -0.31982806
0000b0 50 7e 47 3e 98 68 83 3e 40 97 0b 3f 96 bf 04 bc
       0.19481778 0.25665736 0.54527664 -0.008102318
0000c0 d9 bd 2c be 16 62 4c 3e cf 09 96 3e ba 8c b7 3d
       -0.16869296 0.19959292 0.29304358 0.08962388
0000d0 0a 94 fb 3d dc f5 2b 3d 5f 2e 77 3e 6a c3 2e 3e
       0.122840956 0.041982517 0.24138783 0.17066732
0000e0 1b 78 e5 3d fc d9 cc 3d 59 dc 9a 3e 0b da 95 be
       0.11204549 0.10002515 0.30246237 -0.29267916
0000f0 a7 68 37 3e 3c 2c 32 3e 8b a1 35 3e a7 e7 63 bd
       0.17911015 0.17399687 0.17737405 -0.055640843
000100 fd 65 5d 3d a2 4c 0d bf e7 3e 94 be d9 aa 0e 3d
       0.05405234 -0.5519506 -0.2895424 0.0348309
000110 7b b9 09 3d f6 96 74 be fa 52 7c bd 35 8a cd bc
       0.033624154 -0.23885712 -0.06160257 -0.025090316
000120 25 e6 48 3d 94 a8 88 3e a9 9a c1 bd ef 1c d9 be
       0.049047608 0.26691115 -0.09453327 -0.42404887
000130 c8 6c d9 bd 01 d1 a8 be c0 d2 2f bd 4f ac a0 be
       -0.106164515 -0.32971957 -0.042925596 -0.3138146
000140 23 4e e7 be ae d0 83 be 06 10 95 be f4 48 16 bf
       -0.451768 -0.25745147 -0.29113787 -0.5870507
000150 03 d1 b5 be d6 1c c6 be 90 63 2d bd 7b e7 c3 bd
       -0.35511026 -0.38693875 -0.04233128 -0.09565636
000160 39 9f e5 be 2f dc ab be 39 7c 05 bd 8d a8 88 3d
       -0.4484804 -0.33566424 -0.03258917 0.066727735
000170 3f dd 31 bf 4c 01 32 bf ba 90 80 3c bb 69 29 be
       -0.6947822 -0.6953323 0.015694011 -0.16544239
000180 c8 77 92 3e 2c 84 db be 32 68 15 be 22 af 4b bd
       0.2860701 -0.42874277 -0.14590529 -0.049727567
000190 5b 23 78 be c2 57 55 3d 6c e6 72 bd d1 38 7d 3d
       -0.24232237 0.052085645 -0.05930178 0.061821762
0001a0 ee 59 27 3e fa 07 8c be e4 a4 d4 bd 7c d5 f7 3d
       0.16342899 -0.27349836 -0.10383013 0.12101266
0001b0 c9 02 99 be a6 05 b3 3e d0 cd 41 be 68 75 a2 3e
       -0.29884937 0.34965247 -0.18926167 0.317302
0001c0 7c 44 c1 ba 59 e0 81 bd bc 89 87 3d a2 e0 a9 bd
       -0.0014745141 -0.06341619 0.066180676 -0.082947984
0001d0 b2 7e 35 be 1a 01 35 3c a4 ae 2b be c2 a7 d1 be
       -0.17724112 0.011047626 -0.16765839 -0.40948302
0001e0 36 0e 49 be 4e 40 bd be 67 eb 92 be 66 36 33 bd
       -0.19634327 -0.36963123 -0.28695223 -0.04375305
0001f0 40 8e 0b bf 4f 3f 34 be 18 97 8c bd 9d 5e 9a be
       -0.5451393 -0.17602275 -0.06864756 -0.3015031
000200 e7 70 26 3e 9b 79 e8 3d 8c e3 20 3e eb e3 68 3e
       0.16254006 0.113513194 0.15711802 0.22743194
000210 74 4f 94 3d 4a 64 0e 3d 38 eb 8d 3d 49 39 38 bd
       0.07241717 0.03476361 0.0692963 -0.044976506
000220 40 6a 99 bd 84 4b 16 bc e0 49 87 be b9 4a 57 bd
       -0.07490969 -0.009173278 -0.2642355 -0.052561495
000230 e7 31 dc 3d c9 38 12 be e9 9b ec bc 12 95 d3 3d
       0.107517056 -0.14279474 -0.028882938 0.10331167
000240 fa 36 c5 bd ba 8e 96 3d 39 e7 24 3e 70 91 cd 3d
       -0.096296266 0.07351442 0.1610383 0.100375056
000250 5a ef 3a bd e4 31 ae 3e 5e bf d7 3d b4 cf e7 3d
       -0.04563842 0.3402244 0.10534547 0.11318913
000260 c8 42 7d be f1 c3 a7 3b 23 06 00 3e da 4b cd bd
       -0.24732506 0.0051197936 0.12502341 -0.10024233
000270 f3 d2 f6 bc 5e d4 a9 3d 02 e3 f5 bc 2f a0 1f be
       -0.030129885 0.08292459 -0.030015472 -0.15588449
000280 46 88 49 3e 93 21 21 be 1d ff 03 3d ff ee de 3b
       0.1968089 -0.15735464 0.032225717 0.006803393
000290 84 2d 34 3e 55 79 b4 bd 55 ed b1 bd 82 d5 0f be
       0.17595488 -0.08812205 -0.086878456 -0.1404629
0002a0 3d 79 00 3e 32 8b 3b be 5d 07 56 3e 89 61 46 be
       0.12546249 -0.18314818 0.20901246 -0.19373144
0002b0 7e 7a 68 be 92 be 77 be af 4d f9 bd f4 d2 0c be
       -0.22702977 -0.2419379 -0.1217302 -0.13752347
0002c0 d1 65 bc bd 6c ac 97 be bc 50 92 3b 4b e7 16 3e
       -0.091991074 -0.29623735 0.0044651907 0.14736669
0002d0 72 b5 0e 3e 85 51 0b be 30 ee 3c be 7f 25 01 3e
       0.13936403 -0.13605316 -0.18450236 0.1261196
0002e0 a5 df b7 bd 09 4a 28 3e 69 02 04 3e 0f c7 02 3e
       -0.08978204 0.16434492 0.12891544 0.12771247
0002f0 1f 94 ab be c3 17 d0 3a 7a c9 4b bd 8b 83 2f 3e
       -0.33511445 0.0015876222 -0.04975269 0.17140023

gru2out.weight f4 [5, 64]
000000 7f c6 7b be dd 0c f2 bd 7f 7c 4c bf 7d b1 57 be
       -0.24587439 -0.1181886 -0.79877466 -0.210638
000010 fd 79 3d be 9a 01 c4 be 83 8a 89 3c 2f d4 fc 3e
       -0.18503566 -0.38282472 0.01678968 0.49380633
000020 9e 92 f1 3e 84 c6 31 be 37 a9 23 3e 77 ff cc 3e
       0.47182173 -0.17360884 0.15982519 0.40038654
000030 36 61 31 be aa 44 c0 3d bc e0 37 bf e3 16 ab be
       -0.1732224 0.09388097 -0.7182729 -0.334159
000040 27 4a 61 be f8 d4 06 bf ee e4 30 be c7 43 d5 be
       -0.22000943 -0.52668715 -0.1727483 -0.41653273
000050 f1 20 c4 3e f2 ac 02 bf f5 1a 30 bf 50 f3 9c be
       0.38306382 -0.51045144 -0.68791133 -0.30654383
000060 e6 11 69 3e f4 0d 87 3e 4d 4d 74 3e 57 78 3e 3f
       0.22760734 0.26377833 0.23857613 0.74402374
000070 06 8f 3d be aa a5 ec be 4d 04 3b bd 3b 6e 08 3d
       -0.1851159 -0.46220142 -0.0456584 0.03330825
000080 40 9f 30 bf f0 16 18 3e 35 93 2a be 3f 09 71 be
       -0.68992996 0.148525 -0.16657718 -0.23538683
000090 7a bc 04 bf 10 1b cd 3e 82 c9 f5 3e d6 89 de 3e
       -0.5185009 0.4005971 0.480053 0.43464535
0000a0 75 2d 87 be 4a 4d 99 bb f1 08 dc be af 9c 52 3e
       -0.26401868 -0.004678403 -0.42975572 0.20567583
0000b0 87 c8 b1 3e cd aa 5e 3f cc a4 87 3e b9 b5 c0 3e
       0.34723303 0.8697937 0.26492918 0.37638643
0000c0 95 4d ab 3e fb 91 a4 3e 85 86 fe bc 55 f2 f0 3d
       0.33457628 0.32142624 -0.031070003 0.11764971
0000d0 3b e2 33 bf b8 c0 13 bc 50 05 eb 3e a2 5b b4 be
       -0.70267075 -0.009018116 0.4590249 -0.3522616
0000e0 19 3f 5b 3e 79 84 78 3e 4f 72 85 3e 20 d6 bb bd
       0.21410789 0.24269284 0.26063773 -0.091717005
0000f0 0e ff e1 3e e8 dd 10 be 17 d6 4d 3d c7 93 49 3e
       0.44139904 -0.1414715 0.050253 0.19685279
000100 62 ef 02 3d 86 aa 7b 3c e0 13 31 3e 50 f7 46 3e
       0.031966574 0.01536048 0.17292738 0.1943028
000110 50 03 6d 3e db f3 a6 3e 9c 8a 26 3e 38 5a 37 bd
       0.23145795 0.32607922 0.16263813 -0.044763774
000120 82 a3 5b 3e 29 57 49 3e 9e 8b 2c 3e f5 1c 1e be
       0.21449092 0.19662155 0.16850135 -0.15440734
000130 29 57 6e be 0a 23 ca 3b 61 f3 fb bd cd e4 63 3e
       -0.23275436 0.0061687278 -0.1230228 0.2225525
000140 0b 09 30 bd b0 7f 15 bc 34 aa bd 3d e2 36 c2 3d
       -0.042977374 -0.009124681 0.09260979 0.09483124
000150 ca cc d1 be 72 92 b2 bc e4 4b 22 be 68 0c c7 be
       -0.40976554 -0.021798346 -0.15849262 -0.38876653
000160 d9 ff a4 3e 38 13 5f be e0 d0 86 be f3 4a 61 3d
       0.32226446 -0.21784675 -0.26331234 0.055003118
000170 78 9a 30 bd f7 fa 76 3e 7d 64 d6 bd c8 1b ce bc
       -0.043116063 0.24119173 -0.10468385 -0.025159732
000180 12 d7 1f be 4a f7 57 be 59 6d 65 be 2c 24 06 3c
       -0.15609387 -0.21090427 -0.22404994 0.008187335
000190 7d 12 ea 3d 80 79 00 3e be 0e aa 3c 27 e1 15 be
       0.114293076 0.12546349 0.020758983 -0.1463667
0001a0 d1 27 86 3e 90 8d d6 bd d2 00 f6 3d 6f 83 50 bd
       0.26202253 -0.1047622 0.12011875 -0.050906595
0001b0 35 49 d0 bc 15 77 bf 3d 5a fa 1d bd 8a 20 04 be
       -0.025425533 0.09348885 -0.038568832 -0.12903038
0001c0 ed 1f cd 3d 31 92 b9 bd a7 60 65 3e 94 27 97 3e
       0.10015855 -0.09061087 0.22400151 0.29522383
0001d0 8c d8 01 be b9 9b 4f be 04 5a 1b be 0c 4f 20 3e
       -0.12680262 -0.20274247 -0.15171057 0.15655154
0001e0 92 ef c9 bb e6 4a 0f bf 97 e9 17 be 8c af 89 bc
       -0.006162592 -0.5597366 -0.14835201 -0.01680734
0001f0 e0 48 36 be 71 2c 14 3e 29 3a 48 be c5 a1 49 be
       -0.17801237 0.14470078 -0.19553436 -0.19690616
000200 f2 5d 1f bc 04 3d 5f be 8c 1e ec be 3e b5 0c be
       -0.009726988 -0.2180062 -0.46117055 -0.13741013
000210 04 78 96 bd 86 77 ad bd ac d6 e4 bd 23 46 f8 bd
       -0.0734711 -0.08470063 -0.11173758 -0.121227525
000220 70 d6 82 bb 00 58 83 bc a5 ae 91 3d 0d 87 9d be
       -0.003992848 -0.016033173 0.07113389 -0.30767098
000230 e2 69 fc 3d a2 fc 14 3d dc ab 0f 3e ac f3 e7 bd
       0.12324883 0.036373742 0.14030403 -0.113257736
000240 a3 b1 ca 3e 19 e2 cc 3d 46 88 f7 bd e6 0b 89 3e
       0.3958865 0.10004062 -0.12086539 0.2676689
000250 07 31 90 bd f1 17 0b bd d5 e6 75 3e ca 21 30 3e
       -0.07040601 -0.03395838 0.24013837 0.1720039
000260 11 5a 3b be 47 ed cc bc 8d 98 96 bd 44 33 ff 3d
       -0.18296076 -0.025015486 -0.073533155 0.1246095
000270 b1 6f e4 3e 87 43 e2 bb 46 83 08 3e 35 21 de 3e
       0.44616464 -0.0069050225 0.13331327 0.4338471
000280 16 d7 1b 3e 84 9b 79 be b0 14 43 bd 9a 61 0e 3e
       0.15218768 -0.24375731 -0.04762715 0.1390442
000290 87 2f 04 3e ad c4 80 bd e7 30 e8 3d 9a 86 93 3e
       0.12908755 -0.06287513 0.113374524 0.2881363
0002a0 56 34 4e bd 2d 5c 5e be 92 f7 3b 3e 95 e9 0e 3d
       -0.05034288 -0.2171485 0.1835616 0.03489073
0002b0 4a c2 a3 be 97 5c 3d bd f6 1a 9c bd a9 7d 65 be
       -0.31984168 -0.04623088 -0.0762233 -0.22411217
0002c0 73 93 30 3c 42 3f e4 3d 23 cc c5 3c 6d 73 12 be
       0.010777342 0.11144878 0.024145192 -0.14301844
0002d0 d8 5f af 3e 8a 03 fe 3e 4c 71 ec 3d 75 55 3f 3e
       0.3425281 0.49612075 0.11545047 0.18684943
0002e0 55 83 80 bc 47 18 87 3e 84 ee 05 be 0a c4 1c 3e
       -0.015687624 0.2638571 -0.13079268 0.15309158
0002f0 0a 1b 84 3d 91 26 0f 3d 97 0b 51 3e 9e 4d 85 ba
       0.0645047 0.03494889 0.20414577 -0.0010170226
000300 57 44 b8 3d e4 88 87 3c 95 67 ba 3e 7a 6e 0b 3e
       0.0899741 0.016544767 0.36407152 0.13616362
000310 9d 8e 49 be 5f d4 30 be 17 ae 4d be 52 7c 4c 3e
       -0.19683309 -0.17268513 -0.20085941 0.199693
000320 07 7e ce bd 88 9e 98 bd b4 a7 9f 3d 1c 63 86 be
       -0.100826316 -0.074521124 0.07795659 -0.2624749
000330 b7 27 2a 3e 73 e1 d2 bd 60 70 26 3d 55 db 63 bd
       0.16616713 -0.10296907 0.040634513 -0.055629093
000340 4a dd 14 3e 2d 48 90 bd 92 91 a5 3e 9a a2 42 3e
       0.1453754 -0.070450164 0.32337624 0.1900734
000350 83 c4 f9 bd 7a da 5e 3e cd ee e1 3d 37 b3 c3 3b
       -0.12195685 0.2176303 0.11031876 0.005972292
000360 10 8b 08 be 37 97 e3 3d 3e 12 c5 3c 20 ae 3b be
       -0.13334298 0.11112826 0.02405655 -0.18328142
000370 bd 27 fd bd e7 a2 0b be 22 8a 33 bd 3a 9c 8a bd
       -0.12361095 -0.13636361 -0.043832906 -0.06768079
000380 f0 cd 5f 3d b2 da d9 bd 0f d4 39 bc 15 c4 27 bd
       0.054639757 -0.10637416 -0.011342063 -0.040958483
000390 ac a3 62 bb a1 20 0e be 7f b2 1a be f7 ab ba 3d
       -0.003458242 -0.13879634 -0.15107153 0.09114831
0003a0 a8 3c 41 bc ad 43 62 be 56 9d 4b be 15 6c 31 3e
       -0.011794247 -0.22096129 -0.19884238 0.17326386
0003b0 ce a5 1e be fb d9 bc bd 6c 8a 4f 3d ac 0b eb 3d
       -0.15492937 -0.09221264 0.05066912 0.114768356
0003c0 ed 57 84 3d be bf 23 be 8d 02 9a be 48 99 b7 3d
       0.06462083 -0.15991113 -0.3008007 0.08964783
0003d0 95 b0 aa be 25 c6 27 bd 4f 0e 78 bc 9f 9a 8d 3c
       -0.33337846 -0.04096045 -0.01514013 0.017285643
0003e0 26 08 d7 bd 54 dc b2 3c 56 df 14 be 32 07 7b 3b
       -0.10499601 0.021833576 -0.14538321 0.003830385
0003f0 cb e9 09 be 63 14 46 3d dd 97 49 be 34 c1 08 3d
       -0.13468091 0.048359286 -0.19686837 0.033387378

gru2out.bias f4 [5]
000000 a7 80 d6 bd 35 1e 45 bc 68 ed 67 39 05 23 1c 3e
       -0.10473757 -0.012031128 0.00022118317 0.15247734
000010 4d e2 f0 3d
       0.117619134
