try7_simData4_nonconserved/30bp_SingleNonconserved_s3_UnifBG_fullytrainedDisc.pth (torch, 495385 bytes, 20 tensors)

embeddings.weight f4 [5, 16]
000000 8e 82 8d bc 82 82 d4 bf 08 ef 65 3f c0 f7 ab bd
       -0.017274167 -1.6602328 0.8981786 -0.08396864
000010 48 7c dc 3d 82 73 8c bf 2b 00 ad 3f 93 43 34 3d
       0.10765892 -1.097275 1.3515676 0.044009756
000020 be 17 ee be 08 b5 06 c0 e7 f6 b0 3f e2 33 d0 bf
       -0.4650249 -2.1047993 1.3825349 -1.6265833
000030 ba 3c f2 bd 81 ea c4 3e 61 5d 60 3f 3d ba 15 3e
       -0.11827989 0.38460162 0.87642485 0.14621826
000040 dd 23 b6 bc 9a 86 2c 3e 1c d0 54 3f 82 2b be 3f
       -0.022233898 0.16848221 0.8313005 1.4857028
000050 d0 1e d4 3e 61 63 49 3e 88 fe 90 3e d6 cf 74 3f
       0.41429758 0.19666816 0.28319192 0.9562963
000060 14 a4 84 bf d0 6c 2f 3f 67 9a 02 bf 2e 48 77 be
       -1.0362573 0.6852541 -0.5101685 -0.24148628
000070 82 91 75 3e b2 96 21 be 1c 93 42 bf 03 bc 47 3f
       0.23981288 -0.15780142 -0.7600572 0.7802126
000080 fe 85 00 40 82 52 62 3e 8c 33 97 bf 30 db 2d 3f
       2.0081782 0.22101787 -1.1812606 0.6791258
000090 5b f6 e3 be 3a ed b7 bf d5 72 a4 bf 97 a0 94 3f
       -0.44523892 -1.4369271 -1.2847544 1.1611508
0000a0 87 90 cf 3e e7 62 85 3f 58 80 94 3e 30 95 80 3c
       0.40539953 1.0420808 0.2900417 0.015696138
0000b0 d2 0c 15 3f f0 ef 2d 3f be 25 57 bc 40 c5 25 40
       0.5822269 0.6794424 -0.013131557 2.5901642
0000c0 dc d7 a2 be 2a 55 63 bf f0 cc 83 3d ab 86 e3 bf
       -0.31805313 -0.88801825 0.06435573 -1.7775472
0000d0 ff 71 3f bf 76 b8 2b bf f0 99 f4 3e 62 d8 f6 3d
       -0.7478332 -0.6707834 0.47773695 0.120529905
0000e0 3e 5a c5 bf fe 5a ed 3f f8 05 e4 3d cc 32 bd bf
       -1.5418165 1.8543394 0.11133951 -1.4781127
0000f0 19 ff b4 3f f4 53 b1 be 8a af 18 bf 78 c9 12 40
       1.414035 -0.34634364 -0.5964285 2.2935467
000100 ee 5a a3 be c7 6c 97 bf 64 fb b7 bf f2 28 47 3f
       -0.3190531 -1.1830071 -1.4373593 0.7779685
000110 c2 a9 39 3e 56 1d 04 40 f0 09 c0 3f ba a6 70 be
       0.18131164 2.0642905 1.5003033 -0.23501101
000120 bc cc 92 bf 92 e3 92 bf 10 31 c7 bf c8 43 b8 3f
       -1.146873 -1.1475699 -1.5561848 1.4395685
000130 59 4a a7 3f 6e 6d ea be 57 44 f1 bf fd e9 6f 3f
       1.3069564 -0.45786613 -1.8848981 0.9371641

gru.weight_ih_l0 f4 [192, 16]
000000 55 2d 25 be 24 64 c1 3d 64 de eb bb 68 15 67 3a
       -0.16130574 0.094429284 -0.007198142 0.00088151405
000010 39 55 03 3c d2 0e d2 3d aa 19 2b 3e 98 fb e6 3c
       0.008015924 0.10256733 0.16709009 0.028196141
000020 34 c0 e6 3c 58 8b d3 bd 87 df 62 bd 75 e0 9c bd
       0.028167821 -0.10329312 -0.055388954 -0.07659999
000030 68 f7 26 3d 1b 20 85 3d 79 e6 c1 bd 74 13 93 3d
       0.04076329 0.06500264 -0.09467787 0.07181445
000040 9f 4e ec 3c 9d e8 cd bd 34 93 e7 3c c9 0e 2a be
       0.028846083 -0.10054133 0.028268434 -0.16607203
000050 63 74 03 bb 36 b3 00 3e c0 e2 56 3e bb 72 6e 3d
       -0.0020058386 0.12568364 0.20984936 0.058214884
000060 51 bd 24 be fb d6 80 3d 6a 39 86 bc 12 a8 a0 bd
       -0.16087843 0.06291004 -0.016384799 -0.07844557
000070 d4 fa bb 3d e3 3a 25 be 0b 53 d5 38 54 5e 84 bd
       0.09178701 -0.16135745 0.000101720994 -0.06463304
000080 a7 8b f6 3b 7e 8e 89 3d 71 04 f6 3c 68 a6 47 3d
       0.007523972 0.06716631 0.030031415 0.04874268
000090 04 9b 79 3c 7e d6 2f bc 33 ee b3 bd 97 bc 93 3d
       0.0152347125 -0.010732291 -0.08785667 0.07213705
0000a0 c0 fc bd bc 47 7e c1 3d 78 4e c8 3c 03 74 26 be
       -0.02319181 0.094479136 0.02445148 -0.16255192
0000b0 73 b3 fc bd 7d 2b 62 3d e2 4e 2e bc c8 63 90 3c
       -0.12338915 0.055217255 -0.010638924 0.017625704
0000c0 e9 26 36 bd f7 7c 0c bd 8b e7 09 3e 97 f2 00 3d
       -0.0444707 -0.034298863 0.13467233 0.03148135
0000d0 6f 0f 75 bd a6 16 58 3d cf 03 46 3d ef 86 c4 3d
       -0.05982917 0.052755974 0.048343476 0.09596049
0000e0 fb 98 db bd fe 3b c6 3d 30 6f d8 3d e7 fa f4 bd
       -0.10722538 0.09679411 0.10568082 -0.11961918
0000f0 2a af 87 3d ff 46 42 bd 1e 96 0f 3d d7 f8 0f 3d
       0.06625207 -0.04743099 0.035055272 0.03514942
000100 ce 05 ab bd 6d 71 f2 bc f4 df 02 3e 2a 2f 05 be
       -0.083507165 -0.029595101 0.12780744 -0.13006273
000110 56 6e 1a 3d ca 1e 0a 3d dd 69 c0 3b fe ac a4 bd
       0.03770288 0.03372077 0.005871995 -0.08040808
000120 1a 8b 2c bd ee 7a 9e 3d fe 17 76 3c 72 a7 30 be
       -0.042124845 0.07738291 0.015020369 -0.17251375
000130 fc fc f2 3b 8b 2b 78 bd 3b 25 b2 3c be d2 09 bd
       0.007415412 -0.0605884 0.021746268 -0.033648245
000140 68 1d d7 bb 8e 63 e7 bd b8 af 5d 3c 4a 37 40 3c
       -0.006564785 -0.112982854 0.013530664 0.011731932
000150 a1 a9 8d bd fa a6 37 3e e4 30 53 3e a4 30 b5 bc
       -0.0691712 0.1793479 0.20624119 -0.02211792
000160 3e d2 3d be 96 b9 f7 bd cc 9a 20 be 13 32 be 3c
       -0.18537232 -0.120959446 -0.1568405 0.023217237
000170 0d 82 91 3c f0 1c e7 bd d5 67 5b bd 9d 2b b3 bd
       0.017762208 -0.11284816 -0.05356582 -0.08748553
000180 0b b2 5c 3d 74 f1 89 bd fd 6c 62 3c a0 4f e3 3d
       0.053880733 -0.06735507 0.01381993 0.11099172
000190 91 6a 8f bb ff cf c6 3c d0 1b 99 3c 15 4c 6c 3d
       -0.0043767174 0.024269102 0.01869002 0.057689745
0001a0 b8 a6 de bd 20 57 84 3d 91 2c 02 3e 89 06 e7 bd
       -0.10871643 0.0646193 0.12712313 -0.11280543
0001b0 8d f2 ca bd 94 2c a3 3c a8 40 e9 3d 36 de 38 3b
       -0.09909544 0.019918717 0.11389285 0.002820862
0001c0 10 56 28 3c 4e 4b cb bd ee aa b2 bd e1 6b 2e be
       0.010274425 -0.099264726 -0.087240085 -0.1703334
0001d0 ed d7 17 3d 69 ec c1 bd c4 dd d8 bb ad 37 52 3d
       0.037071157 -0.0946892 -0.0066182334 0.051322628
0001e0 82 67 ee 3b 09 d5 b7 3d 67 65 d6 3d 75 7e b1 bd
       0.0072755227 0.0897618 0.1046856 -0.08666698
0001f0 8a d6 6b bc 49 bc 91 bd ba 9f b1 bd b3 0b 26 bd
       -0.014394412 -0.07115991 -0.086730435 -0.0405385
000200 37 57 01 bd 72 c4 98 3d d4 cd 28 3d 2f 07 21 3d
       -0.031577315 0.07459344 0.041211918 0.03931349
000210 6d 9b be 3d 89 7d 0d 3e ae f7 e9 3d 35 b9 8d bd
       0.09306989 0.13817419 0.11424194 -0.06920091
000220 29 3a 36 3d 29 de b9 bd b3 83 1b be 05 a4 71 bd
       0.04448906 -0.09075577 -0.15186958 -0.05899431
000230 1d ba 80 3d 2f 20 65 bd 04 d0 98 3d 76 ed 71 bc
       0.06285498 -0.055938896 0.07461551 -0.014766088
000240 2e ed 70 bd bf 5f 3b be 8d b4 01 3e 21 40 0f bc
       -0.058819942 -0.18298243 0.12666531 -0.008743317
000250 b1 34 13 3d 87 05 1d 3e 1f 25 e2 3d 3d 44 e4 bd
       0.035938922 0.1533414 0.110422365 -0.11145828
000260 89 22 1c be d5 10 29 be 7a 26 08 be f4 29 85 3d
       -0.15247549 -0.16510327 -0.13295928 0.065021425
000270 df e9 2f bd 60 85 99 be 28 1b 82 3d 12 7d 60 bd
       -0.042947646 -0.2998457 0.06352836 -0.054806776
000280 5f ca ca b9 79 07 c4 bc 16 20 3d 3d eb 09 cb 3d
       -0.0003867922 -0.023929344 0.046173178 0.09914001
000290 43 fd f7 bd c1 96 b4 3c cf e2 f0 3d a4 87 1d 3e
       -0.12108853 0.022044541 0.1176201 0.15383774
0002a0 45 44 4c bd f9 47 08 3d fb 95 bf 3d a9 34 4e 3c
       -0.049869794 0.033271763 0.093547784 0.012585797
0002b0 0c fe 85 3d b0 4c 61 bd eb bc e7 bc e2 33 eb 3d
       0.06542596 -0.055004776 -0.028288325 0.11484505
0002c0 e4 07 b7 3c 6a c8 c5 bd 4a 64 04 3e ea 3e 19 3d
       0.02234263 -0.096573666 0.12928882 0.037413515
0002d0 f0 ca fa bd 76 74 4e bd 91 19 b7 bb a6 be 19 bd
       -0.122457385 -0.050404035 -0.0055877646 -0.037535332
0002e0 fe 0e e4 bd e8 40 19 bd b7 c4 ef 3d 87 a7 d1 bd
       -0.11135672 -0.037415415 0.11707442 -0.102370314
0002f0 39 15 ef 3d 19 a5 11 3d 8d e6 9d bd b2 33 22 3c
       0.1167397 0.03555784 -0.0770999 0.00990002
000300 36 06 35 be d1 e0 a0 3c 62 99 bb 3d d2 15 53 3c
       -0.1767815 0.01963845 0.09160115 0.01288362
000310 a8 9b 23 3c 5e 7c 3f 3d 2c 63 e5 ba 59 70 b0 bc
       0.009985842 0.046749465 -0.0017500869 -0.021537947
000320 c2 48 26 be bf 16 9e 3d f7 de df bd 89 4b 29 be
       -0.16238692 0.07719182 -0.10931199 -0.1653272
000330 9f bb 91 bd e3 d3 1f be 2b 2b d9 bc 0c 02 82 3d
       -0.07115864 -0.15608172 -0.026509842 0.06348047
000340 b7 04 91 3a 10 41 a2 3d 13 6e 1b 3d 81 b2 f9 3b
       0.0011064027 0.07922566 0.03794677 0.0076201563
000350 46 fb 58 bd 4c 23 a3 3c 56 8f 50 3d 5a b8 04 bb
       -0.052974008 0.019914292 0.050917946 -0.0020251484
000360 9d 48 0a be 4f c7 2f bd 49 33 1d be 19 00 94 bd
       -0.13504262 -0.042914685 -0.15351595 -0.07226581
000370 64 59 53 3d 1e 17 f9 bd c6 4f 84 3d c8 12 0f 3e
       0.05159892 -0.121626124 0.06460528 0.13972008
000380 7b c8 ae 3d 27 4a e3 3d 9b 87 30 3e 24 52 e1 3d
       0.08534332 0.11098128 0.1723923 0.11001995
000390 fb 2a 59 3d f6 8a df bd 16 ce 85 bd bf 54 60 bd
       0.053019505 -0.109151766 -0.065334484 -0.05476832
0003a0 e4 00 67 3d 7b b6 b2 bd 4f 1a d1 bd 72 26 12 bd
       0.056397334 -0.08726212 -0.10210096 -0.035681196
0003b0 3e b2 e0 3d 81 a0 5e bd be e2 ce bb 0a 42 30 bc
       0.10971497 -0.054352287 -0.006313651 -0.010757932
0003c0 27 ca 84 3c 9f bf b1 bd 22 0f 78 3d 2f 8b 74 3d
       0.016209675 -0.08679127 0.060561307 0.05970305
0003d0 04 34 14 3d 6f b5 e1 3d 30 0d 70 3e 84 33 77 bc
       0.03618242 0.11020934 0.2344253 -0.015087966
0003e0 83 0d d6 3c b2 a6 f7 bc 61 8e 27 be 1b 68 b9 3b
       0.02612949 -0.030230854 -0.16362907 0.0056581623
0003f0 4d 0d fa 3d 56 0c 53 be a9 a1 11 3d 59 82 af bd
       0.12209568 -0.20610175 0.03555456 -0.08569784

gru.weight_hh_l0 f4 [192, 64]
000000 e9 21 ff bd 28 d3 be 3d a8 8a 25 be b2 14 28 bd
       -0.1245764 0.093176186 -0.16166174 -0.04103536
000010 af 13 0f 3e b8 cc 22 3d 9e 1b d0 bc 66 6d 0f be
       0.13972352 0.039746016 -0.025403794 -0.14006576
000020 77 f7 c7 bd 9c 15 0b 3e e8 75 7d 3d 1f f7 a8 bd
       -0.09763997 0.13582462 0.061880022 -0.082502596
000030 8a 41 20 be 2a a1 7c 3c fb 60 8f 3d 19 56 c9 bc
       -0.15650001 0.015419284 0.070009194 -0.024577187
000040 04 27 b9 bb 59 c3 9b bd 9b f7 4a 3d 65 2a a3 bd
       -0.005650403 -0.07605619 0.04955254 -0.079670705
000050 86 8d 12 3e 35 f3 bf bd 1a e2 61 bd 34 29 e8 3d
       0.143118 -0.0937256 -0.055147268 0.11335984
000060 48 14 e4 3c 54 3f 39 3d b2 8f e6 bd 14 cb 08 3d
       0.027841702 0.04522641 -0.112578765 0.033396795
000070 5b 07 53 3e 96 9c 11 3c 93 15 a7 bd 80 d3 ac 3d
       0.20608275 0.008887431 -0.08158412 0.08438778
000080 47 e6 10 bd e0 43 b1 3d 26 26 07 be 1e 4e f9 bd
       -0.03537586 0.08655524 -0.13198146 -0.12173103
000090 54 e6 b1 bd 51 23 84 bd 17 8f 5e bd 6f 39 c1 bd
       -0.0868651 -0.064520486 -0.05433568 -0.09434783
0000a0 ee 9e 37 3d 04 e2 c7 bc 13 28 d3 3d ec 20 e7 3c
       0.0448293 -0.024399765 0.10310378 0.02821394
0000b0 6f e0 7e bd bb e3 90 3c 34 8d ef bc 02 1a 53 3d
       -0.062225755 0.017686715 -0.029242136 0.051538475
0000c0 b5 bf 20 be f2 71 d4 3d 47 d8 66 3d af 1f 02 bd
       -0.1569813 0.10373296 0.056358602 -0.031768497
0000d0 2a 3e 23 3e be 14 87 bd 06 6f 34 3d f1 48 4a bd
       0.15941682 -0.06595753 0.044051193 -0.04938597
0000e0 12 49 b6 3d f8 1c 7e bc 48 95 96 bc 9f d1 49 3c
       0.08900656 -0.015509836 -0.01838173 0.012318044
0000f0 8a 14 df 3d d6 53 9a 3d ac e1 39 bd 8a 44 92 3d
       0.108925894 0.07535522 -0.045381233 0.07141979
000100 6a 5d dd 3d e9 b4 24 bd 54 0f e0 bb 24 b2 d1 3d
       0.10808833 -0.040211592 -0.0068377648 0.10239056
000110 ee 4f c0 bd cf 8e 96 3c 34 d8 51 3d 7b 24 fd bd
       -0.093902454 0.018378643 0.051231578 -0.12360474
000120 db 46 43 bd 97 65 e6 bc 8e 15 eb 3d f6 4b bc bd
       -0.047674995 -0.028124614 0.114787206 -0.09194176
000130 9a cf 84 ba c8 c2 7f bd d6 a6 04 3d d8 fe ce bd
       -0.0010132671 -0.062441617 0.03238567 -0.10107201
000140 a6 d1 9a bd 49 e3 0e 3b d7 4c 73 bd d9 eb ce 3d
       -0.075595185 0.0021802953 -0.059399452 0.10103578
000150 1d 3c a4 3c 83 e3 f7 bc e0 22 93 bc f2 f7 11 be
       0.020048195 -0.030259853 -0.017960966 -0.1425474
000160 23 39 a4 bd 4d 06 04 bd 0e 22 3f 3c 18 6e c5 bd
       -0.080187105 -0.03223257 0.011665834 -0.09640139
000170 ef dc a7 bd 7f f7 a1 3d 0d e4 3d bd de 78 1e bd
       -0.081964366 0.07908534 -0.046360064 -0.038689487
000180 0e 2c 2f 3e 6b 70 0e be 74 ba 19 3d bf fc 0b bc
       0.1710665 -0.13910072 0.03753133 -0.008544146
000190 02 ea b5 bd 60 ad 8e bd 41 95 aa 3c b4 25 4e bd
       -0.08882524 -0.069666624 0.020823123 -0.050328925
0001a0 d0 95 86 3d 61 5c f3 3d 89 6b d6 bd b8 c1 02 bc
       0.06571543 0.11882854 -0.104697295 -0.007980756
0001b0 37 f6 b5 bd 78 aa a4 bd 6f e6 6a bc 0d 25 d1 bc
       -0.088848524 -0.08040327 -0.014337166 -0.025530363
0001c0 49 58 5d bc 45 40 a8 3d 7c 39 28 bd 37 de 59 3d
       -0.013509818 0.082153834 -0.041070446 0.053190436
0001d0 e8 95 36 3e a8 56 62 3d 50 b5 e3 3d 8a 7b ac 3d
       0.17830622 0.055258423 0.11118567 0.08422001
0001e0 80 40 cc 3d b6 8b 37 bd 9e ab 3c bc 02 b1 22 bd
       0.0997324 -0.044810973 -0.011515526 -0.03971959
0001f0 f7 ca f7 bd b0 31 8d 3d af 50 ec 3d 2c 44 71 3d
       -0.12099259 0.06894243 0.11538827 0.058902904
000200 5a 10 f7 bb 48 41 b8 bd 2d 66 0f be 6f dc 78 3d
       -0.007539791 -0.089968264 -0.1400382 0.060757097
000210 63 be 0b 3e 7b 73 a1 3c 55 e8 15 be 23 02 75 bd
       0.13646846 0.019708386 -0.14639409 -0.05981649
000220 e8 d3 8d 3d 6d c1 f6 3c 33 51 c4 bd f7 a4 77 bc
       0.069251835 0.03012153 -0.095858 -0.015115014
000230 1c 3d 5a bc 1a 6a 25 bd d2 af fe 3c a1 ce 0d bd
       -0.013320234 -0.04038439 0.031089697 -0.034620885
000240 0f f4 b4 bd 16 9b 5f bd e5 9f 3b 3d 91 7c df 3d
       -0.08835613 -0.05459126 0.045806784 0.10912431
000250 43 79 ce bc dd 29 f8 3c dc 10 bb 3b 26 56 c3 bd
       -0.025204306 0.0302934 0.005708797 -0.09537916
000260 4c d4 b0 3c 61 94 29 3e 8a 79 07 be a5 23 c2 bd
       0.021585606 0.16560508 -0.13229957 -0.09479455
000270 94 83 43 bd 45 6a ae bc f0 c6 d9 bc 9b 66 97 3c
       -0.047732905 -0.021290908 -0.026584119 0.018481543
000280 19 33 89 3d b5 7b 89 3d d9 ae 7f 3d 49 a2 a2 bd
       0.06699199 0.06713048 0.062422607 -0.0794111
000290 ee 14 fc 3d 4d 3a ee bd 6c b3 bb bb 28 59 10 3d
       0.123086795 -0.11632214 -0.005728176 0.035241276
0002a0 6a 66 b5 3c 22 60 bd bc 65 c7 01 be f2 e9 d6 bc
       0.022143561 -0.023117129 -0.12673719 -0.0262346
0002b0 25 d6 44 bd 3c c0 82 bd 28 15 fc bd a3 ee 91 bd
       -0.048055787 -0.06384322 -0.12308723 -0.071255945
0002c0 f2 6c 4c 3d 85 67 e1 3d b9 38 11 3e d4 a9 3d 3d
       0.049908586 0.11006073 0.14181794 0.04630454
0002d0 d3 89 38 3e 93 52 1e 3c 06 fd 77 bd 5d 3e 9c 3c
       0.18021326 0.009663242 -0.060544036 0.019072706
0002e0 79 e4 35 3c ef bd f1 3c b7 66 d0 3d 86 56 51 bc
       0.011101835 0.029509513 0.10175841 -0.012776976
0002f0 f1 63 4d 3d e6 c8 02 3d 03 2b c1 bd 03 5c b7 bd
       0.05014414 0.031929873 -0.09432032 -0.08953097
000300 7f 74 e4 3d 12 4d 07 3e b2 4b f6 bc c4 7b 54 bd
       0.11155032 0.13212994 -0.030065391 -0.051875845
000310 ad f6 f8 bb ee 94 c6 bd ac 81 38 be d2 a4 47 bd
       -0.0075977654 -0.09696375 -0.18018216 -0.04874117
000320 68 1f 17 3d 99 41 08 bd 01 67 df 3d 2d f2 f2 3d
       0.036895186 -0.033265684 0.10908318 0.118625976
000330 42 87 61 3c f9 d9 e2 bd 0d cf 6e 3d 98 e3 21 3e
       0.013765158 -0.11076731 0.058302928 0.15809476
000340 05 9d e9 3d c5 be 9d bd 51 22 fc bc d0 6b 15 be
       0.11406902 -0.07702402 -0.030778082 -0.14591908
000350 bc b1 e1 bd f9 16 0f 3d 38 f7 a0 3d 4f bc dc 3d
       -0.11020228 0.034934018 0.07859653 0.107781045
000360 40 31 c3 3d 24 8e 0a be 26 29 5b 3d 81 5b 02 3d
       0.09530878 -0.13530785 0.05350604 0.031825546
000370 1d 69 23 3e a2 27 9e bd 37 4a d4 bd 2e 3e 94 bd
       0.15958066 -0.07722403 -0.10365718 -0.07238422
000380 f1 7a 9f 3d bd a9 92 bb 07 29 d6 bd c4 6d c8 3d
       0.07787121 -0.004475801 -0.10457044 0.09786561
000390 12 8c bf 3d 40 e3 d0 3d e6 e6 4a bd 66 80 9c 3d
       0.09352888 0.101995945 -0.04953661 0.076416776
0003a0 67 3e 5d 3d 3a 98 cb 3c 28 b6 90 3d c4 29 3c 3b
       0.05401459 0.02485286 0.070659935 0.0028711418
0003b0 99 09 3d 3c 54 76 56 3d b2 75 05 bc 2a 73 24 3d
       0.011537933 0.05235894 -0.0081457365 0.04014889
0003c0 d2 3a 35 bd a4 6d 81 bc 6a 01 c3 3c 96 9d c8 3d
       -0.04424555 -0.015799351 0.023804385 0.09795682
0003d0 c3 3c a6 3d a9 2e d9 3d 1b ff c3 3d 99 29 88 bd
       0.08117058 0.10604603 0.09570142 -0.06648559
0003e0 51 5a 5f bc 8c 20 b4 3b e9 7e 83 3d 75 a9 29 bd
       -0.013632373 0.005497044 0.064206906 -0.041421372
0003f0 9d 3c 85 bd 1f 1c ba 3d a4 be 47 3e 95 a7 90 bd
       -0.06505702 0.09087395 0.19506317 -0.07063214

gru.bias_ih_l0 f4 [192]
000000 c0 cc a2 bd 86 60 31 bc 83 2f 37 bd 25 d1 eb 3d
       -0.07949209 -0.010826236 -0.044723045 0.115145005
000010 0f 00 78 3d 98 cb 04 3e 98 99 cf 3c 63 9d 43 3b
       0.06054693 0.1296829 0.025341794 0.0029848448
000020 15 35 f0 bd 1c f2 fa 3d 02 9e 25 3e 53 a1 9f 3d
       -0.117288746 0.1225321 0.16173556 0.07794442
000030 b4 c4 95 bd dc e8 0d 3e 4a 6b 6f 3d bb 7e 56 bb
       -0.07312909 0.1385836 0.05845193 -0.0032729346
000040 10 2a 21 3e f4 7b 21 3d d1 82 85 3a e0 ba 04 3d
       0.15738702 0.03942485 0.0010186081 0.03240478
000050 48 f3 62 3c d3 a2 11 3d e0 22 04 be 9c 76 96 bd
       0.013851948 0.035555672 -0.12903929 -0.07346842
000060 f8 11 23 bd 74 a4 c1 3d 13 10 12 bd 5e 01 d2 3d
       -0.03981206 0.09455195 -0.03565986 0.10254167
000070 de 9c b3 3d 5a a2 2a bd b7 86 0e 3e 38 cd 9e bd
       0.087701544 -0.041658737 0.13918577 -0.07753986
000080 7a 43 cf 3c 04 02 5f bc 06 60 ce bc 12 c6 e5 3d
       0.02530073 -0.01361132 -0.025192272 0.112194195
000090 ff 53 ca 3d c8 90 74 bd 34 3c 0f 3e bf ae a7 bc
       0.09879302 -0.059708387 0.1398781 -0.020469068
0000a0 29 7a 00 bd 91 31 98 3d bc 0f d5 3d 99 5d 38 3d
       -0.0313665 0.07431329 0.10403392 0.045011137
0000b0 5a 3a 79 3c 00 3f f8 bd 39 31 92 bd 2b 9c 59 bd
       0.015211666 -0.12121391 -0.07138295 -0.05312745
0000c0 d6 76 00 3e 8c 0a 76 3c 4f 63 b6 bd 35 f1 c6 bd
       0.12545332 0.015017163 -0.0890566 -0.09713975
0000d0 a7 ba 70 3d 53 6f be 3d df 32 9c 3d 42 0a 21 3d
       0.058771756 0.09298577 0.076268904 0.039316423
0000e0 f0 12 e2 bb 03 42 ef ba 3b d5 a0 bd 4b ba f2 bd
       -0.00689923 -0.0018253926 -0.078531705 -0.11851939
0000f0 92 ba 87 3d 23 71 53 3d 13 93 a0 3d d2 6e ec 3d
       0.06627382 0.051621567 0.07840552 0.11544575
000100 e7 46 ad bc 13 58 62 3d a5 cd bb bc 09 a9 48 bd
       -0.021151973 0.055259775 -0.022925207 -0.04898933
000110 66 24 f0 bd ee 35 dd bc e4 39 89 3d 13 4f 35 3d
       -0.117256925 -0.027003255 0.06700495 0.044264864
000120 8c bd 6b bd 3f e5 38 be 60 e6 9f bd 62 63 1c 3e
       -0.057553813 -0.180562 -0.078076124 0.15272287
000130 7f 2d d0 bb 37 b2 a7 3d 7d e4 05 be f5 f9 a5 bd
       -0.00635308 0.08188289 -0.13075443 -0.08104316
000140 b4 fa 25 3d 20 44 d2 bd 2a 28 09 bd 00 57 07 3d
       0.040522292 -0.102669 -0.03348557 0.033041954
000150 10 6c 7c 3d 81 9a 73 3c aa da 5a 3e ce 77 84 bd
       0.061626494 0.01486838 0.21372476 -0.064681634
000160 ce b9 59 be 22 68 17 be a0 ba 8d bd b3 02 fc bd
       -0.21262285 -0.14785817 -0.069203615 -0.12305202
000170 e1 c3 b7 bd 63 72 c0 3c b2 6f 38 3d c3 74 28 be
       -0.08972908 0.023492044 0.045028396 -0.16450791
000180 b8 cf b4 bc e1 57 af bd 5f 0b 71 bd d6 fe 4f bd
       -0.022071704 -0.085616834 -0.058848735 -0.05078014
000190 cc 3f d4 3d 6f c4 e6 3d fe f7 b4 bc af 66 f4 3d
       0.10363731 0.112679355 -0.022090908 0.11933648
0001a0 60 02 b5 3d ab b0 ab bd c5 e9 1c 3e e2 ae 4b 3d
       0.088383436 -0.08383306 0.15323551 0.049727328
0001b0 23 6e a1 bc 8e 38 64 bd 6d 3f 19 3d 8c 1d d7 bd
       -0.019705838 -0.055717997 0.037414003 -0.105036825
0001c0 85 60 69 3c 11 15 2f be a3 c2 08 3d 32 99 17 3d
       0.014244203 -0.1709788 0.033388745 0.037011333
0001d0 18 a0 f5 bd de 73 c8 3d df 47 a4 bb bc 61 47 bb
       -0.11993426 0.09787725 -0.0050134505 -0.0030423244
0001e0 a5 70 b6 bd fd 07 c1 bd 37 66 94 3d af d9 0c bd
       -0.08908204 -0.09425352 0.072460584 -0.034387287
0001f0 e4 dd 28 be 9b 3f d7 3c 82 13 c1 3d 50 f5 f7 bc
       -0.16490895 0.026275447 0.09427549 -0.030268341
000200 44 30 ec 3d 41 db ac bd 46 10 1a bd ed 20 c7 bd
       0.115326434 -0.08440257 -0.037613176 -0.09723077
000210 51 d7 11 3b 5b a6 b9 3c b7 e4 94 3c 48 0e 70 3d
       0.0022253583 0.022662332 0.018175466 0.05860737
000220 74 52 8e bd 89 f0 58 3d ae 60 ff bd c9 aa be 3d
       -0.069493204 0.052963767 -0.12469612 0.093099184
000230 ea 44 84 bd 96 03 e7 3d d5 61 e4 3c 09 90 02 3d
       -0.06458457 0.11279981 0.027878681 0.031875644
000240 c5 a3 5d 3d a6 0b 65 bd f1 35 a0 3d d2 b3 22 bd
       0.05411126 -0.055919312 0.078227885 -0.03972227
000250 a5 e3 80 bc c0 37 d8 bc 1a 27 f1 3d ab 11 43 3d
       -0.01573355 -0.026393771 0.11775036 0.04762427
000260 2b 54 0b bd 46 e1 ba bd f1 86 a9 3d 9e 16 d7 3a
       -0.034015816 -0.09124999 0.08277691 0.0016409939
000270 51 c4 df bc d8 9a ae bd 3e 9a bd 3d 76 78 c8 bd
       -0.02731529 -0.08525628 0.09257935 -0.09788601
000280 a4 1a 3f 3d 0d e7 a3 bd 41 81 c5 3d 94 bd 9a bd
       0.046656266 -0.08003054 0.09643794 -0.075556904
000290 2b 44 77 3c 51 f9 6a bd ad 4f 1b 3d be 16 cd 3d
       0.015091936 -0.057366673 0.03791778 0.10014103
0002a0 04 2f e7 bd 1d 79 8b bd 71 da 90 3d bd 12 f8 3d
       -0.112882644 -0.0681021 0.070729144 0.12112949
0002b0 ad 80 87 bd 1a 8e 2e bd 8c f9 d6 bd 76 fe bb bc
       -0.0661634 -0.042615987 -0.10496816 -0.022948485
0002c0 fe a3 0a 3e c1 98 0e be 94 20 ac bc 70 0b f1 3b
       0.1353912 -0.13925458 -0.021011628 0.0073561
0002d0 0f 9a 15 bd 1c 1b aa 3c e2 13 2f 3d 7b e6 b0 3d
       -0.036523875 0.02076488 0.04274357 0.08637711
0002e0 c9 b3 c5 3d ca 9c ec 3c 0f 11 e3 bd cb c4 35 bd
       0.09653432 0.028883357 -0.11087238 -0.04437713
0002f0 93 d5 ad bc 82 66 92 bd e8 4e 24 bd 7e 1b a0 bd
       -0.021220004 -0.07148458 -0.040114313 -0.07817744

gru.bias_hh_l0 f4 [192]
000000 f1 67 03 3d 4e ff a2 bd 54 28 e8 bd 30 b2 4a 3d
       0.032081548 -0.07958852 -0.11335817 0.04948634
000010 62 99 61 3d d3 35 40 bd fd 0a 8f bd 46 be 9c 3d
       0.055077918 -0.04692633 -0.06984518 0.07653479
000020 79 be 4e 3d 03 a9 a5 3d fe 13 14 3e 4b 36 d6 3d
       0.050474618 0.08088877 0.14460751 0.10459574
000030 79 14 1a bd 10 9f 0b 3e 9e a4 e4 3d d3 3e 6f bc
       -0.03761718 0.13634896 0.11164211 -0.014602381
000040 1a ba 10 3e 68 62 d6 3d 69 0b 4e 3d d4 15 03 bd
       0.14133492 0.10467988 0.05030385 -0.03200324
000050 59 0e 9e 3d 3b e8 e5 3d e0 14 4c bd 85 f7 80 3d
       0.0771758 0.11225935 -0.049824595 0.062972106
000060 20 f0 ad 3d 88 62 8e bd 3b 6e 90 3d 22 c3 91 bd
       0.08493066 -0.06952387 0.07052275 -0.07117297
000070 ba 21 9a bd 14 0a 70 ba bb d0 06 3e bf 24 85 3d
       -0.07525964 -0.0009156775 0.13165562 0.065011494
000080 cc af bd bd 79 41 68 3d e1 4f 83 3d 9c ce a4 bb
       -0.09262046 0.056703065 0.0641172 -0.0050295126
000090 cb c2 8e 3d 81 1e 04 be 3b 83 04 3e 37 c7 cd 3c
       0.069707476 -0.12902261 0.12940685 0.025119407
0000a0 85 a3 72 bc cf 18 57 bd f8 3a d6 3d f8 77 28 3e
       -0.014809494 -0.052513894 0.10460466 0.16452014
0000b0 21 70 24 bd a9 d0 9c ba 82 65 f7 bd 3c 36 8e 3d
       -0.040145997 -0.0011964041 -0.12079908 0.06943938
0000c0 06 2a 9a 3d c1 c1 22 3e 25 ea e9 3d 67 06 a4 bd
       0.075275466 0.15894224 0.11421613 -0.08009034
0000d0 5d 81 ba 3d a5 47 3e 3d 0d f3 02 bd 76 33 e2 3d
       0.09106705 0.046455044 -0.031970073 0.11044972
0000e0 56 a0 cc bd 18 48 99 3d e6 4a d7 3c ba 8a 55 be
       -0.09991519 0.07484454 0.026280832 -0.20853701
0000f0 40 b8 5e 3e 61 60 b3 3d d0 4d de 3c b3 58 03 3d
       0.21749973 0.08758617 0.027136713 0.032067012
000100 b7 ad 7b 3d 9b 66 97 3d 80 40 64 bd b5 7e ce 3c
       0.061444964 0.07392617 -0.055725574 0.025206903
000110 f2 0e b6 3d df 45 a4 3b d3 5c ae bc b0 68 e6 3d
       0.08889569 0.005013212 -0.021284496 0.11250436
000120 ae 14 b1 bc 53 38 1b be 01 9c 70 bd cf 13 6a 3d
       -0.021616306 -0.15158205 -0.058742527 0.057147797
000130 35 8f ab 3b 84 b3 b5 bc 37 96 30 be ad 23 9a bd
       0.0052355775 -0.022180326 -0.17244802 -0.07526336
000140 2b 33 ca 3d b0 5f a4 bd b7 b3 52 3d bf 99 28 3e
       0.09873041 -0.080260634 0.05144092 0.164649
000150 b0 c5 61 bd 66 2a b5 bd 02 10 5c 3e ee 0d 72 3d
       -0.05512017 -0.088459775 0.21490481 0.059095316
000160 87 f6 d6 bd 95 54 e3 bd a6 b4 25 be 24 8c b0 bd
       -0.1049624 -0.11100117 -0.16182193 -0.0862048
000170 2b 45 3e 3d 2d 3c 44 3d 13 e8 ee bc 93 e0 ba bd
       0.046452682 0.04790895 -0.029163396 -0.091248654
000180 47 59 d9 3c 46 ba a6 3c ad 5d cb bc 98 cc f0 bd
       0.026531829 0.020352494 -0.024824942 -0.11757773
000190 a7 0e 5d bd f6 26 22 bd 48 31 fd 3d b5 79 b8 3c
       -0.05396905 -0.039587937 0.12362915 0.022518972
0001a0 8b e0 47 3d d7 6b b2 3d e5 e1 59 3e 4c 15 95 b9
       0.048798125 0.08711975 0.21277578 -0.00028435362
0001b0 6d e0 4d 3d cd 76 0c be b9 81 28 3d 3c c9 2f be
       0.050262857 -0.13717194 0.04113934 -0.17166609
0001c0 16 15 57 bd 20 44 2e 3d b3 d0 81 bd 07 2d f3 3c
       -0.052510343 0.042545438 -0.06338634 0.029684557
0001d0 97 6d fd bc 5a fb 71 3d 91 48 98 bd 8d b1 1d be
       -0.030936046 0.0590776 -0.07435716 -0.15399761
0001e0 9f a4 8b 3d 87 c8 29 bd 8a cd ff 3d 64 12 44 bd
       0.06818508 -0.041451003 0.12490375 -0.0478691
0001f0 81 ff 12 be 51 6c 88 3e 61 6a 36 3d 40 68 15 bd
       -0.1435528 0.2664514 0.044535045 -0.036476374
000200 1b 65 ba bd dd 99 56 bd 07 27 15 bd ce 12 e7 3d
       -0.091013156 -0.05239283 -0.036414173 0.112828836
000210 ff ef 98 3d 8f 2d 4d bd 0f 20 92 bd 12 72 aa 3d
       0.074676506 -0.050092276 -0.07135021 0.083225384
000220 1b 2e 85 bb e3 b0 3e 3d 22 13 9c 3d e7 cb 74 bd
       -0.004064334 0.04655541 0.07620837 -0.05976477
000230 d4 f1 6a bd 90 8e a4 3d 8c 4a 32 bc ec cb b9 3d
       -0.05735953 0.08035004 -0.010882031 0.09072098
000240 21 9e 0c bc 78 bf c7 3d 98 9e 75 3d aa 9b 88 bd
       -0.008582623 0.09753317 0.0599657 -0.066703156
000250 c7 d3 a1 bd a7 b9 87 bd 7e e8 e1 3d 3a 15 a8 3a
       -0.079017214 -0.06627207 0.110306725 0.0012823709
000260 a2 4d 9f 3d dd c0 db bd 6f 4f e3 bd 67 cb 81 bd
       0.07778479 -0.10730145 -0.11099135 -0.06337624
000270 08 7d d6 bd 68 8e 47 bd ac 24 40 3d d3 a1 c4 bd
       -0.104730666 -0.048719794 0.046909973 -0.09601178
000280 99 6f 26 bd 62 0c ab bd 50 c0 e7 3c 2f 10 cb bd
       -0.04063377 -0.08351971 0.028289944 -0.09915196
000290 bc ad 57 bd 6a 4f b3 bd 89 1f ff bc 80 09 07 bd
       -0.05265592 -0.087553814 -0.031142967 -0.032968044
0002a0 2b b6 01 3e 36 01 11 3d 58 32 df 3c 01 cf 8a bd
       0.12667148 0.035401545 0.027245685 -0.06777764
0002b0 7a 49 a3 bd 6c 5b 53 bd 9b c0 1f 3d 3c 48 e1 3d
       -0.07972999 -0.05160086 0.039002042 0.11000106
0002c0 66 be 84 bb cf a0 ca bc 55 46 02 3e 6c 92 15 3d
       -0.0040510176 -0.024734883 0.12722142 0.036516592
0002d0 8d 56 0b 3e 59 d2 b7 3b 9e a5 29 3d e3 d7 94 bb
       0.13607235 0.005609792 0.04141771 -0.0045423373
0002e0 34 d3 3e bc ca d9 f4 3c db 1f d5 bd de 2b 85 bb
       -0.011647034 0.029889006 -0.104064666 -0.0040640673
0002f0 ba c7 b4 3d f8 4d 56 3c f2 33 f5 3d 18 f1 93 bd
       0.08827157 0.013080113 0.119727984 -0.07223719

gru.weight_ih_l0_reverse f4 [192, 16]
000000 9c 8d a7 bd 48 a8 03 3e 9d 0c 0f 3e 18 04 1e be
       -0.08181307 0.12857163 0.13969655 -0.15431249
000010 52 b4 e0 3c cf ab 55 bc 32 8d d1 bd 37 5c f2 3d
       0.027429733 -0.013041451 -0.10232009 0.11833995
000020 00 01 c2 3d 58 23 25 bd f0 2d 4e 3d a8 e5 d2 bd
       0.09472847 -0.04031691 0.05033678 -0.1029771
000030 fc e0 b3 bc 5d 22 b5 bd 4b a5 b1 3d ec a7 fc 3d
       -0.021957867 -0.08844445 0.08674105 0.12336716
000040 d0 44 21 bd 72 ab 03 be cf 27 23 3d 0a ae 5d bc
       -0.039372265 -0.1285837 0.039832886 -0.013530264
000050 f1 09 f3 bc b8 bf fc bc 9c 88 c2 3c 5c c3 f8 3c
       -0.029667826 -0.030853137 0.023746781 0.030366592
000060 e8 9d 64 3c c8 93 f6 3d 38 98 29 be 42 76 cf bd
       0.013953663 0.12039906 -0.16561973 -0.10129978
000070 5a 68 48 bd 65 b8 48 bd e6 52 85 bd 3a b5 cd 3d
       -0.048927642 -0.049003977 -0.06509952 0.10044332
000080 d8 63 94 3c c9 2a de bd e9 d9 a2 bd 53 db 91 39
       0.018114015 -0.10848004 -0.07951719 0.00027819964
000090 1a 2c 07 3d ed 02 9a bd 5e 02 7a 3d e0 c1 2c 3e
       0.033001043 -0.07520089 0.061037414 0.16870832
0000a0 74 54 3a bc 72 f3 77 3e 28 8d c7 bd d3 94 fb bc
       -0.011372674 0.24213961 -0.0974372 -0.030710613
0000b0 52 5e 5a 3e d2 31 52 3d a0 1e 86 be 99 80 0f 3d
       0.21325043 0.051317044 -0.2619524 0.03503475
0000c0 44 03 03 3e 83 de 4a bd e1 cc 87 be 01 87 43 bd
       0.12794214 -0.04952861 -0.26523498 -0.04773617
0000d0 31 34 23 be 4f 1e a6 bc 38 b9 ba 3c a3 34 bf 3d
       -0.15937878 -0.020278124 0.022793397 0.093362115
0000e0 52 2f ef bd 07 4d 38 3e 46 4a 4c 3c 76 20 8e bd
       -0.116789475 0.17998134 0.01246888 -0.06939785
0000f0 55 89 db 3c b3 e3 a4 3c 45 e7 68 3d 27 78 04 3e
       0.026798883 0.020128107 0.05686118 0.1293646
000100 b8 d6 07 be d1 ec 26 3d 38 73 06 bd ec 3d 24 3e
       -0.13265502 0.04075319 -0.032824725 0.16039246
000110 db cc 8b 3d 5d ea 59 3d 01 8b 9b 3c 1b 85 a3 bd
       0.068261825 0.053202022 0.01898718 -0.07984372
000120 d4 57 c6 3d 5d 0f 9e 3d 6a 28 e8 ba f0 2e bb bc
       0.09684721 0.07717774 -0.001771224 -0.02284953
000130 bb 6f 3e bc 03 ab 4e bd 91 8d f4 3b 0a 63 d3 bd
       -0.011623318 -0.05045606 0.007463165 -0.103216246
000140 07 6d f6 3d 7d 4f bd 3d 54 0a 0e 3e e5 18 c1 3d
       0.12032514 0.09243677 0.13871127 0.094285764
000150 94 bd b3 3a c9 8a 08 bd d1 50 f4 3c a5 23 85 3d
       0.0013713115 -0.03333548 0.029823693 0.06500939
000160 59 ac ed 3d c7 e9 05 3e b1 25 d3 3d 73 48 b8 bd
       0.11605138 0.1307746 0.103099234 -0.089981936
000170 01 d2 8e 3d b2 cb 45 3d 65 02 54 3d 9c 12 b4 3d
       0.06973649 0.048289962 0.051760096 0.08792612
000180 d9 23 cf 3c ac a1 00 be 5a 89 2b 3e ee f9 35 3d
       0.025285648 -0.12561673 0.16751614 0.044427805
000190 3c 7e 0e 3b c5 38 35 be 11 4f c9 bb 08 7e 0e 3e
       0.0021742722 -0.17697437 -0.0061434587 0.13915265
0001a0 71 86 8c 3d 30 0e 38 bd 18 09 1c 3d 00 80 33 3d
       0.0686158 -0.044935405 0.03809461 0.043823242
0001b0 bf b8 01 3e e6 08 cf 3b 3d b9 d8 bd fc ee 9b 3d
       0.12668131 0.0063181994 -0.105822064 0.07613942
0001c0 f7 da 4a 3c 9d d0 a4 bd 30 1b dc 3d f5 97 d7 3d
       0.012381307 -0.08047602 0.10747373 0.105270304
0001d0 c5 65 34 3e 78 a0 9f 3d a4 7b 10 3e 45 2a 87 3d
       0.17616947 0.07794279 0.14109665 0.06599859
0001e0 ce d0 a6 bd 90 3f 07 bd 8f e6 e0 bd 14 eb b9 3c
       -0.08145295 -0.033019602 -0.109814756 0.022695102
0001f0 97 f9 bf 3d 11 41 5e 3d 9f 85 a9 bd d9 7d 5c bd
       0.09373777 0.05426127 -0.08277439 -0.053830955
000200 9f c8 0a be 84 28 a2 bd c0 31 af bd 2e 3d dd bd
       -0.13553093 -0.07917884 -0.08554411 -0.10802685
000210 b5 58 0f be 7f 99 d1 3d 19 d3 cb bd 87 cc a6 bd
       -0.13998683 0.10234355 -0.09952373 -0.08144479
000220 4f 15 60 3d 72 90 96 3c 1c 78 23 be cf 19 fe bd
       0.05470782 0.018379424 -0.15963787 -0.12407266
000230 86 4f 9e bd bc fa 4e be c5 cc 1c be de 9f a4 3d
       -0.07730012 -0.20212835 -0.15312488 0.08038305
000240 fa c1 b9 bb b0 59 13 bd 8a ef 38 3c c6 ae 2b 3e
       -0.0056688758 -0.035974205 0.011287579 0.1676589
000250 34 43 1a 3e 7c 9d a2 3d 02 e2 7b 3d e6 21 a4 bd
       0.15064698 0.07940194 0.061494835 -0.08014278
000260 ed da 42 bd 84 34 50 bd c6 74 1b be f3 bb c4 3c
       -0.047572065 -0.050831333 -0.15181264 0.024015402
000270 e8 40 44 bb e5 51 c7 3c 97 2f 64 bd 7b 01 bf bd
       -0.0029945914 0.024331043 -0.055709448 -0.09326454
000280 f1 2e 9a bd 0c 4c c9 3b 55 40 a3 bc a9 a1 8f bc
       -0.075284846 0.0061430987 -0.019928137 -0.01753314
000290 19 e8 06 bb 97 06 10 bd c4 ef ef bc 12 c2 14 3d
       -0.0020585118 -0.035162535 -0.029289134 0.036317892
0002a0 93 66 21 bc fa 97 13 3e 95 b6 0e bc 5f 4f 56 bd
       -0.009851116 0.14413443 -0.008710523 -0.052321788
0002b0 8a f4 e9 3d 25 a3 b7 bc 47 a2 f9 bc db 57 da bc
       0.11423595 -0.02241666 -0.030472888 -0.02665322
0002c0 6e 5a ca 3c bc 50 2b bd 76 7e 1a bd 3e 00 59 3d
       0.024701323 -0.04182504 -0.03771826 0.052978747
0002d0 9c 6d cf 3d 97 7a db 3d ca 4c 0f 3d 5d 82 d4 bc
       0.10128328 0.107167415 0.03498534 -0.025941068
0002e0 77 0d 01 bd ce 1b 07 3e 18 b8 9b bd c4 fb 28 3e
       -0.03150698 0.131942 -0.076034725 0.16502291
0002f0 86 53 e5 bb 16 61 3d be 0a dd 27 be ea 8d 10 3d
       -0.006998482 -0.18494067 -0.16392913 0.03529159
000300 ea 07 cb 3d 0f 74 94 3d 4e 24 1d bb 14 83 39 3d
       0.09913619 0.07248699 -0.0023977938 0.04529102
000310 56 ad e1 bd 26 d7 27 3d ae c4 6c bd dc 99 ed 3d
       -0.11019389 0.040976666 -0.057804756 0.11601612
000320 e5 df 3c bd 35 0e b0 3d ba e3 f8 3c 16 22 22 be
       -0.04611196 0.0859646 0.030382026 -0.15833315
000330 70 4e 7b 3d 60 2d d1 bd 46 88 65 bd 7e 49 01 bb
       0.0613541 -0.10213733 -0.056038164 -0.0019727643
000340 38 20 dc 3d d1 60 f4 3c d6 dc bc bd fc 92 53 3c
       0.10748333 0.029831322 -0.092218086 0.012913462
000350 d1 0e fb bd 94 0f c8 bd f3 3a 31 3c de e3 32 bd
       -0.122586854 -0.09768596 0.010817277 -0.043674342
000360 0c dc 52 3d 2c 2a 6a 3d 0e 97 8e 3d c0 c8 b0 bd
       0.051479384 0.057169124 0.06962405 -0.0863204
000370 00 5f de bc 61 66 56 3e e0 70 04 3c 7b 48 f9 bc
       -0.027144909 0.20937492 0.008083552 -0.03043007
000380 f1 6b fd bd 40 30 ae 3d b8 91 d4 3c a2 01 4d 3d
       -0.12374104 0.08505297 0.02594839 0.050050385
000390 50 94 b0 bd b2 99 36 be 43 23 c2 bc 92 1c e2 3d
       -0.08622038 -0.17832068 -0.023698455 0.110406056
0003a0 d8 a8 ba bd e3 7b 26 3d 33 19 02 bd 36 66 a9 bd
       -0.09114236 0.04064549 -0.031762313 -0.08271448
0003b0 1e 54 05 be 40 b6 88 bd 71 e3 81 bd 6a 48 c0 bd
       -0.1302037 -0.066753864 -0.06342209 -0.09388812
0003c0 f1 32 3a bd 32 81 bf 3c 18 2f b0 3b 5e 6d 11 3c
       -0.045458738 0.023377035 0.0053767078 0.008876173
0003d0 dd 83 99 3d 40 d2 01 bd a6 87 ab bd e5 5b 81 bd
       0.07495854 -0.03169465 -0.08375482 -0.063163556
0003e0 12 00 ee bc c0 67 69 bd 6c b0 06 3c 78 06 ea 3c
       -0.029052768 -0.05698371 0.008220773 0.028567538
0003f0 ea fa a2 3d b0 ab 65 bd 4b b0 e0 3d 9a 0d 19 bd
       0.07958014 -0.056071937 0.10971125 -0.037366487

gru.weight_hh_l0_reverse f4 [192, 64]
000000 4e 04 2f 3c 1e 18 08 bd 08 c3 22 3d 4a ac 65 bd
       0.010682179 -0.033226125 0.039736778 -0.05607251
000010 87 87 a9 bd b2 98 35 3d ce 78 ad bc b7 b4 84 3b
       -0.08277803 0.044335075 -0.021175768 0.004049863
000020 d3 bc a3 3d 5f 01 ba bd 8f 85 08 be 85 2e fd bd
       0.07995 -0.09082293 -0.13332199 -0.123623885
000030 07 24 a7 bd 01 09 a9 bc d6 51 3f bd eb 68 2a 3d
       -0.081611685 -0.020634176 -0.046708904 0.041603964
000040 14 2a c5 bc 52 8d be 3d 47 63 5a bd ff 70 8e bd
       -0.024067916 0.093042985 -0.053317335 -0.06955146
000050 28 0d 75 bd 2f ad 16 bc 47 23 db 3c 42 b1 f4 3c
       -0.059827 -0.009196564 0.02675022 0.02986968
000060 8d 76 ac bd 0d 99 cf bd af b5 a2 bd 9d 93 1d be
       -0.08421049 -0.10136614 -0.0794481 -0.15388341
000070 16 e7 1b 3e bc 72 42 bd 80 cf a3 3d 46 02 e7 bd
       0.15224871 -0.0474727 0.07998562 -0.112797305
000080 77 25 20 bc 35 ff 14 be ef 84 44 bd 26 52 7c 3b
       -0.009774557 -0.14550479 -0.047978338 0.0038501113
000090 49 8c b9 bd ed 91 3f ba 4c af ca bc 9b ce cc bd
       -0.090599604 -0.00073078164 -0.024741791 -0.10000344
0000a0 36 1c 51 3d e4 5a ec bd 1d f7 b1 3d c5 7e 38 bc
       0.051052295 -0.115407735 0.08689711 -0.011260693
0000b0 72 a9 cf 3d b0 3e af 3c a1 6b 80 bd f0 99 44 3d
       0.10139741 0.021392196 -0.062705286 0.04799837
0000c0 19 63 12 3d dd c2 10 3e cb c4 0d bd f1 22 56 be
       0.03573904 0.14136834 -0.034611505 -0.20911767
0000d0 9f cc e2 3d 14 1b 32 bd 58 19 81 3c 5f 6a 37 3d
       0.110741846 -0.043482855 0.015759155 0.044779178
0000e0 09 0b e7 3d ee 23 6c 3d 72 d0 a6 bd 29 98 06 be
       0.11281402 0.057651453 -0.081452265 -0.13143982
0000f0 3e 05 0f bd 26 e5 3d 3c 5a 93 b2 3d 5a d9 36 bd
       -0.03491711 0.011590278 0.08719511 -0.044640876
000100 3b e1 58 be 6c 70 52 be 72 29 bb bd eb da 54 be
       -0.21179669 -0.20550698 -0.091387644 -0.20786636
000110 b9 7c ae 3d a4 2d 1a bd 2f be 1d 3e aa c7 a5 3d
       0.08519883 -0.037641183 0.1540458 0.080947235
000120 44 f0 11 3e 42 98 77 3e 7e aa 90 bb 0f 2c ed 3c
       0.1425181 0.24179175 -0.0044148555 0.028951673
000130 67 b1 7d 3e f7 50 a2 3d b7 72 16 3e d2 8a cd bd
       0.24774705 0.07925599 0.14692198 -0.100362435
000140 c8 e4 0c 3e 6c bc 4b 3e ca c7 06 3e db be f4 bd
       0.13759148 0.19896096 0.13162151 -0.11950465
000150 01 f8 07 bc 02 51 e2 3b 23 eb 40 be 16 a5 30 bc
       -0.008298875 0.0069066295 -0.18839698 -0.010781547
000160 2c db 8c 3e b9 b9 04 3e 26 4e 6a 3d dc 9e 83 3d
       0.27510965 0.12961473 0.057203434 0.064267844
000170 c2 e2 01 be 25 57 20 3e 33 f3 17 be e4 ca 32 be
       -0.12684157 0.15658243 -0.14838867 -0.17460209
000180 da 91 27 3b a2 64 74 3d 49 b1 c2 bd af e8 96 bc
       0.0025569112 0.059666283 -0.09506471 -0.018421499
000190 f2 a0 c7 3d 7e 8c cd bd 55 2a 97 3c 68 2f 93 3d
       0.09747495 -0.100365624 0.018452803 0.071867764
0001a0 39 18 f0 3d 9c 57 08 bd 92 6b 21 bd 6d 40 a4 bd
       0.1172337 -0.033286676 -0.039409228 -0.08020101
0001b0 bd c3 54 bd 90 b4 54 3c c2 8c c2 bc e5 05 b7 bd
       -0.051944483 0.012982503 -0.02374876 -0.08936671
0001c0 07 82 bb bd 32 7a 44 bc 2e 47 59 3e c0 02 53 bc
       -0.0915566 -0.011992024 0.21218559 -0.012879074
0001d0 fc 81 5b bd c3 f2 1f 3e 2d 78 57 3e 1c cc 57 be
       -0.05359076 0.1561995 0.21041937 -0.21073955
0001e0 9d c6 18 bd 8f 33 8a be ff ba ca bc 47 d8 d7 bc
       -0.037298787 -0.2699246 -0.02474737 -0.026348246
0001f0 de c9 b8 bc 68 7d c5 3d 90 a6 9b 3d ed d5 3f 3e
       -0.022557195 0.0964306 0.07600129 0.1873395
000200 4a 1a 27 be 69 04 83 bd 6c 92 38 3e 04 64 1e bd
       -0.16318622 -0.063973255 0.18024606 -0.0386696
000210 d1 5c 0d 3e 39 ed 34 bd fa 62 08 3e 0e 1b 51 bd
       0.13804938 -0.044171546 0.13319007 -0.051051192
000220 6c 19 aa bd 0e 23 ad 3d a7 70 44 3e d4 ba 70 3d
       -0.0830563 0.08453952 0.19183598 0.058771923
000230 b1 66 03 3e 3d 3d b2 bc 62 79 06 3e fc 84 10 bd
       0.12832142 -0.021757716 0.13132241 -0.035283074
000240 a9 3d 16 3d 28 cf c5 3b f8 72 13 3e 5a 1b e4 bd
       0.036679897 0.006036658 0.14399326 -0.111380294
000250 75 71 86 3d 04 60 81 3d 9d 78 f3 bd b0 dc 06 3d
       0.06564609 0.06317142 -0.118882395 0.032925308
000260 34 40 f7 3d d9 fe 0f 3e 87 52 5f 3e 45 86 52 3d
       0.12072793 0.1406206 0.21808825 0.05139758
000270 0b 5e 58 be 23 d7 7c 3d dc cf 19 be 00 be 32 be
       -0.21129625 0.061728608 -0.15020698 -0.17455292
000280 1e 22 0d bd ce 46 01 3e 77 57 5f 3e de c1 9e 3c
       -0.034456365 0.12624666 0.21810709 0.019379552
000290 6b 1d ac 3d 39 94 4c be 24 44 db 3c 7c 91 04 3e
       0.084040485 -0.19978417 0.02676589 0.12946123
0002a0 0d 97 4e 3e 77 a9 ca 3d 82 96 70 bc c1 80 9d bd
       0.20174809 0.09895604 -0.014684321 -0.076905735
0002b0 a1 4c 48 bc c7 6f 7b 3e be 0e e2 bc 5b e3 b6 bd
       -0.012225301 0.24554358 -0.02759492 -0.08930083
0002c0 72 94 ad bd bc a5 45 3b 64 4a a7 3d 26 cd eb bb
       -0.08475579 0.00301586 0.08168486 -0.0071960865
0002d0 16 32 16 3d 09 0d 26 3e 53 b4 f2 3c 8a 79 9d bd
       0.03666886 0.1621591 0.029627 -0.07689197
0002e0 3a a1 81 3d f7 e8 9c 3d 21 c8 04 be ab b0 82 3d
       0.0632958 0.07661622 -0.12966968 0.06381353
0002f0 c7 89 fc bd 0a 42 88 3d f7 85 3d bc a2 ba 05 bd
       -0.123309664 0.06653221 -0.011567584 -0.03264869
000300 97 b5 e7 bd 4d c3 51 bd 5e 6a bb bb a7 72 b5 3d
       -0.113139324 -0.051211644 -0.005719467 0.08859759
000310 9e 53 a8 bd 70 71 a9 bd 5b f9 f8 3d 36 4b 2a be
       -0.08219074 -0.082735896 0.12156936 -0.16630253
000320 8c af c2 3c 48 ad ce bd e1 90 74 3d 7e 12 2a be
       0.023765348 -0.100916445 0.05970848 -0.16608617
000330 91 67 41 3d ed d3 3c 3d 63 b3 9b 3d 66 bf 3e be
       0.04721791 0.046100546 0.07602575 -0.186277
000340 7f 31 14 bc a9 ad b0 3d 6c 39 2d bc 95 09 28 be
       -0.009045004 0.08626873 -0.0105727725 -0.16409905
000350 6f 94 b3 3d cf 62 bb 3c a2 92 03 be 59 9e 72 bd
       0.08768546 0.022874264 -0.12848905 -0.059233043
000360 65 f8 b9 bd 8e fc bc 3d d8 1a c6 bc 3f e0 ee 3b
       -0.090805806 0.092278585 -0.024182722 0.007289916
000370 65 ab c5 bd 10 d3 83 3e ca f3 70 3d 50 2b 2f bd
       -0.096518315 0.25746965 0.058826245 -0.042765915
000380 20 1d 87 3d 90 93 45 3a 60 52 38 3b 84 1f f5 3a
       0.06597352 0.0007536942 0.0028125271 0.0018701409
000390 6f 5f ad 3d 89 50 57 be 06 da dc bd a0 02 41 3e
       0.08465468 -0.21026815 -0.10783772 0.18848658
0003a0 0e e9 6e 3d e1 1d 54 bc c6 5b b3 3d 47 09 c8 bc
       0.058327727 -0.012946577 0.08757739 -0.024418486
0003b0 fe e9 83 bd 6f ca e5 3d f0 f9 18 be c2 39 34 bc
       -0.06441115 0.11220252 -0.14939094 -0.011000099
0003c0 fa ae 7a 3d 7b ea 1c bd 81 3b 3c 3e ee ef d6 bd
       0.061202027 -0.038309556 0.18382074 -0.10494982
0003d0 a1 fd cc 3c 61 b5 19 bc fc 3a 53 bd 3c e8 f3 3d
       0.025023283 -0.009381623 -0.051569924 0.119095296
0003e0 4f 76 b0 3b 4f ab b9 bd 8a c0 da bc a0 66 24 3d
       0.0053851972 -0.09065878 -0.026703138 0.040136933
0003f0 1a 84 5a 3d 98 2c 8d 3d e4 5a b2 bd 5b 49 b8 bd
       0.053348638 0.06893271 -0.08708742 -0.089983664

gru.bias_ih_l0_reverse f4 [192]
000000 90 77 52 bc 5c 96 06 3e a8 b5 4f 3e 64 a5 71 3d
       -0.012845889 0.13143295 0.2028414 0.05899562
000010 62 89 26 3d 97 3c c3 3d a5 75 f6 bc c8 8f 26 3d
       0.040658362 0.09533041 -0.030085394 0.040664464
000020 df 8d 66 3d bd 27 94 3d 29 dc 6d 3d 45 e4 31 bd
       0.056287643 0.07234142 0.05807129 -0.043430585
000030 a0 19 35 bd 01 67 80 bc 4d 9c 06 3d 0f 0e de 3c
       -0.04421389 -0.015674116 0.032863904 0.027106313
000040 f4 ad ad bd c8 7a 91 3c 45 d6 8b bd 9a c0 12 3c
       -0.084804446 0.017758742 -0.06827978 0.008957053
000050 cf 3e 8d bc 9d 96 d0 bb 54 44 fc 3d d2 4f 97 3b
       -0.017241864 -0.0063656108 0.1231772 0.0046176696
000060 5b 96 df 3d c3 20 7f 3d 84 00 7c 3d 49 5b 4f bb
       0.1091735 0.062287103 0.06152393 -0.0031640104
000070 e3 49 81 3d 21 30 8c bd 1f 01 b9 3b e2 5c fc 3c
       0.06312921 -0.06845117 0.0056458856 0.030806009
000080 a4 32 82 3c ad fc 63 3d 72 c3 c7 bb 02 bd 5a bd
       0.015893288 0.055660892 -0.006096297 -0.05340291
000090 58 cc 1c 3e 93 43 e8 3d 1c 5b ff 3a 89 93 b1 bd
       0.15312326 0.11341014 0.0019482109 -0.08670718
0000a0 82 70 ed bc 34 57 26 bc 3f ce ab 3d f5 2c 58 3d
       -0.028984312 -0.010152627 0.08388948 0.05277725
0000b0 9f f6 f9 3b 37 aa 51 3d 45 c4 ac bd c8 ba 5d 3d
       0.0076282765 0.05118772 -0.08435873 0.054133207
0000c0 cc c9 39 3d 31 e1 a0 3d f7 7c 97 bb b6 4b b2 bd
       0.045358464 0.07855452 -0.0046230513 -0.08705847
0000d0 d8 70 05 bd a6 14 68 3c 2a b0 ca 3d b5 42 eb 3d
       -0.03257832 0.014165079 0.09896882 0.11487333
0000e0 30 2a ba 3d 71 59 ac 3c 1b b7 0e 3e 7b c7 97 3d
       0.09090078 0.021038743 0.13937037 0.07411095
0000f0 b7 41 c6 3d 93 0d 64 3d 13 69 42 3d a2 6c aa bd
       0.09680503 0.055677008 0.047463488 -0.08321501
000100 72 de 02 3d ba 98 b9 bc 15 35 65 3d e9 a1 ac 3d
       0.03195042 -0.022655834 0.055958826 0.084293194
000110 ff c6 b7 3c 2c c3 46 3d 99 fc 03 3e cf 1e f4 bd
       0.022433756 0.048525974 0.12889327 -0.11919939
000120 66 be a0 3c bf ac e8 bd 8c 5e 32 be 23 3a 6c 3d
       0.019622039 -0.11361074 -0.1741888 0.05767263
000130 e8 95 0f be 7b 0f 1f be 18 2a a8 3d 6b 04 3c be
       -0.14022028 -0.15533249 0.08211154 -0.1836106
000140 05 ae c0 bd 90 f8 10 be 3b af e2 3d bd d5 25 bc
       -0.094081916 -0.14157319 0.11068579 -0.01012176
000150 2b 8d d2 3d 2c 5b c6 3d 1e c3 94 3d 03 d2 33 3e
       0.10280832 0.096853584 0.07263778 0.17560582
000160 8a c1 96 bd 7a c1 8d bd 41 c8 54 be 65 fe da bd
       -0.073611334 -0.06921668 -0.20779516 -0.10693053
000170 a0 2a 10 3d 98 31 aa 3c e5 41 c0 3d 74 36 d4 3d
       0.0351969 0.020775601 0.093875684 0.103619486
000180 7e e0 71 3d 84 66 e2 3d 57 30 21 3a a4 55 4a be
       0.059051983 0.110547096 0.0006148866 -0.19759232
000190 34 f7 8a bd 5e 86 8f 3d f4 dd 0e bd 5c e0 50 bd
       -0.067854315 0.070080504 -0.03487964 -0.050995216
0001a0 98 35 91 bd 1a 9f 90 3d 5e 39 e9 bd 7a 7f 08 be
       -0.070903 0.07061596 -0.11387895 -0.13329878
0001b0 0c a9 0c 3e c2 02 0c be f5 25 ca 3d f3 3b ac bd
       0.13736361 -0.13672927 0.09870521 -0.08409872
0001c0 a3 d7 ab 3d 60 71 06 be 38 b6 d8 3d 6a db 27 bc
       0.08390739 -0.13129187 0.105816305 -0.0102451835
0001d0 75 bf 9c 3d 0a 7b 42 be e2 1f 86 bd e2 17 ce bc
       0.07653705 -0.18992248 -0.0654905 -0.025157873
0001e0 b3 f3 18 3c 0f 13 7d 3e 5a cc 8e bb 6d 0e ab bd
       0.009335446 0.24714302 -0.0043578567 -0.08352361
0001f0 22 64 58 be c2 95 0f 3e 97 fd 49 bd 63 1a 44 3d
       -0.21131948 0.14021972 -0.049314108 0.047876727
000200 1f 5d ff bd 0c 53 af bd f0 91 3e 3b c7 36 04 3e
       -0.12468933 -0.08560762 0.0029078685 0.12911521
000210 c3 ff 9d 3d dc 5f 7c bd 51 d4 06 3e a2 ff ef bd
       0.07714798 -0.061614856 0.1316693 -0.1171868
000220 7c 7f 8c 3d e8 23 7a bd b5 aa d2 3c b7 69 ff bd
       0.06860253 -0.0610694 0.025716165 -0.124713354
000230 eb ff 47 3d 46 f9 6d 3d da e0 b6 3d 08 76 e5 3c
       0.048828047 0.058099054 0.08929606 0.028010383
000240 87 92 98 3d 90 a4 97 3d a8 e3 85 bd 67 b4 4e 3d
       0.07449823 0.07404435 -0.065375626 0.050465014
000250 3a 51 2f 3d e1 b1 14 bd f8 ca 9e bd 6a 4e a3 ba
       0.042802073 -0.03630245 -0.07753557 -0.0012459282
000260 ea 95 f4 3c 3f f4 60 bd ec b2 9b 3d ae b5 fb 3d
       0.02985664 -0.05492043 0.07602486 0.12290512
000270 36 db ed bd e3 52 cd 3d fb 6a 8d 3d d3 8b 2f bd
       -0.11614077 0.10025575 0.069051705 -0.042857956
000280 21 87 c3 bd 7f 81 b7 bc 15 07 8e 3d ce 94 d4 3d
       -0.09547258 -0.022400616 0.069349445 0.10379945
000290 6b 3e 83 bd 1a 52 87 bd bc 84 dc 3d 2d 76 a9 3d
       -0.0640839 -0.066074565 0.107675046 0.08274493
0002a0 84 48 9a 3d 37 59 09 3e 7b 3d 9d bd 95 a4 db bd
       0.075333625 0.13412939 -0.07677742 -0.10724751
0002b0 2f 7c c0 bd a4 de 90 3d c2 b0 d8 bd b4 a7 e8 bd
       -0.09398686 0.07073715 -0.10580589 -0.11360112
0002c0 d8 ba 81 3d fd e6 13 3d bc 4a 41 bd d7 99 c2 bd
       0.06334466 0.03610896 -0.047190413 -0.09501999
0002d0 26 57 5d bd 99 e8 39 bd 54 fd b7 3d bb 35 d6 bb
       -0.05403819 -0.045387838 0.089838654 -0.006537167
0002e0 08 52 8a bd d8 db c0 bb c5 5b c4 bd f5 81 ad 3d
       -0.067539275 -0.0058855824 -0.09587816 0.08472053
0002f0 01 7a b8 bc 31 2b 8c 3d 23 75 a4 bd 1f 12 81 bc
       -0.022519113 0.068441756 -0.080301546 -0.015755711
