try3_simDataset3/30bp_SingleNonConserved_s3_UnifBG_pretrainedGen.pth (torch, 68269 bytes, 7 tensors)

embeddings.weight f4 [6, 16]
00000000: 283c b13f 6997 07bf b466 39bf 86bf 54bf
00000010: 2d8d 58bf 5bf5 e0bb 390b f43e f314 55bf
00000020: e56d 10c0 8869 893e b5f1 39bf 3252 e1be
00000030: c354 39bf d21a 5e3f 859b a1bf fe70 f63e
00000040: b2d2 1ebe 83c9 273e 87f8 e73e 5e76 e43f
00000050: 905e 83bf 3b36 f3bf 188b 6c3f d099 7fbf
00000060: 3018 bb3f bb47 8b3f 835a ecbe b521 14be
00000070: 0b19 1abf 920f bc3f 4aa6 5cbf 8122 77bd
00000080: 0949 683d 3d4f 2ebe 4a8b 1840 2ecc 233f
00000090: 8983 50be e0db f93e 4b1c 4a3f 210d 32be
000000a0: f109 423d afa5 b03f 34df 583e 6614 c63f
000000b0: afa0 3940 8c80 b6bf c657 573c a812 04bf
000000c0: a115 8f3f 0e8f 27bf 4d57 3ebe 4e95 84bf
000000d0: 8bde 05be 89a4 2fbf 8bfe 2d3f 9a76 a03f
000000e0: 9853 0d3e f331 7ebf 4827 a63f 9b6d b33f
000000f0: 104c 86bf 08ae 1340 b719 ff3d acad b73f
00000100: fa52 9fbf 7e33 50bf 037f 003f 636e c23e
00000110: f618 713d e0dc a7be f59f 94bf 352b b03f
00000120: 0389 d3be ac2c f9be 2dca 04bf 7839 be3e
00000130: 623a 76bd 1eea 903f 879a 853e 7c45 2bbf
00000140: 3b6c edbd 3072 293f 3c4c afbf 010e ffbe
00000150: f3df c53e 06b4 db3f a241 113f cb27 d63e
00000160: d162 473f 47ba 06bf e978 97bf dc5e fc3e
00000170: 66cd 38bd 191d cfbf 8b8e cebb 62f7 d9be
1.3846483 -0.5296541 -0.7242234 -0.8310474 -0.8459042 -0.006865186 0.47664812 -0.8323509
-2.2567074 0.26838326 -0.7263444 -0.44008023 -0.7239496 0.86759675 -1.2625586 0.4813308
-0.15510061 0.16385464 0.453068 1.7848623 -1.0263233 -1.9000925 0.9239974 -0.99844074
1.4616756 1.0881265 -0.46162805 -0.14465983 -0.6019446 1.4692252 -0.86191237 -0.06033564
0.056710277 -0.17022415 2.3835015 0.6398343 -0.20362677 0.48800564 0.7894942 -0.17387821
0.047372762 1.3800563 0.21178895 1.5474975 2.9004323 -1.4257979 0.013143485 -0.5159097
1.1178476 -0.6545266 -0.1858799 -1.0358064 -0.13073175 -0.68610436 0.67966527 1.2536194
0.1380142 -0.99294966 1.2980738 1.4017824 -1.0491962 2.307497 0.124560766 1.4349875
-1.2447197 -0.8132857 0.50193805 0.37974843 0.058861695 -0.32785702 -1.1611315 1.3763186
-0.4131547 -0.48666894 -0.51870996 0.3715322 -0.060114272 1.1321447 0.26094458 -0.669029
-0.11592909 0.6618986 -1.369514 -0.49815372 0.38647422 1.7164314 0.5674077 0.41827235
0.77885157 -0.52627987 -1.1833774 0.49291122 -0.04511776 -1.6180755 -0.0063036135 -0.4257155

gru.weight_ih_l0 f4 [192, 16]
00000000: d03d 38bf 7453 063e 2b28 0c3d a22f c23e
00000010: 4698 ec3e dd68 403f 875c 37be b2c0 cc3d
00000020: 1613 a83d 0144 dbbc fa73 82bf 6798 a03d
00000030: 8199 1f3e c785 10bf c3ea 7f3d 43aa 7bbf
00000040: 2d71 3dbd bc99 a8be 9cb8 983d 25f3 04be
00000050: 0a57 393e 0d87 b4bd 7a03 af3d 27a0 a33e
00000060: 94b7 613e 8c65 50be e418 e53c 96f1 773e
00000070: 9dee 79bd 0140 ce3d 1116 593e bec3 49bd
00000080: 23bd cf3b 4a6c a13e 804e ed3e bb77 0c3f
00000090: ab29 5f3d 0ce6 1c3e 0c91 c63e a8a4 b7be
000000a0: f3b6 a73d 867f 263f 4460 0cbe d42f ed3d
000000b0: 310a 243f 8e58 1dbf 9b0f 9ebe b35b 12be
000000c0: c3be 503f 2a7d 5a3e ba2c 1fbe 28d7 45bf
000000d0: f869 0abb 42a9 fc3e 7a0c a43f 3f5f dbbd
000000e0: 58b3 7b3d d859 acbb 7570 363c 7cb3 693e
000000f0: 9292 363e 6f61 dbbe a935 56be 0e98 023e
00000100: 3071 99bd a887 06be ba52 8c3d cbb8 81be
00000110: 16be f83d 0f29 013e d4e5 92bc ca11 253e
00000120: ae51 1bbe 0a61 6abe 1301 54bf ae1a 343e
00000130: f1d5 1ebd 89b3 9f3e 6296 973d 4c25 5cbe
00000140: 8363 073e f79b 1d3f 8071 81be a87b b93e
00000150: 88c3 a43d d2cf b93d febe 3a3e 3e75 abbe
00000160: e392 603e 1f48 ea3e e007 b43d 43ab 68be
00000170: 4206 393e 424f ccbe f36c 3abe 2052 5f3d
00000180: a03a 0e3e 999b c43b 7142 a53d dcaa 643e
00000190: 5737 9dbe 5024 eabd 62d7 93be b2d6 2bbe
000001a0: 4fb8 b5be eded 643e 69d4 38be b5ca 92be
000001b0: ad79 7f3c 60c7 6b3d 246a cdbe 4147 843d
000001c0: 76dc c33d eb57 c13d de5b b7bd 8ef5 e3bc
000001d0: 51ae febd 78cd 9abe 83df cbbe 93cb 82be
000001e0: df8b 8bbe 5274 b13c 0a30 8c3e 0c1c 90be
000001f0: 2cde a5be f6b9 b43e 5c6a 6bbc 1cb9 10bc
00000200: 97b0 833e 3684 4ebe 6327 623d 1dda 36be
00000210: bde7 fdbd de27 6c3e 8702 b63e f78c a03d
00000220: 0a07 bcbd a724 5cbe 5a4b 36be 6cc2 893d
00000230: 43d4 1a3e 8efd 9d3c 178b 0cbd 79a7 4fbd
00000240: d7ce acbe c29b b3bd eac0 a7be c119 74be
00000250: d13a 613e 2c10 883d 960b edbe 62f5 783e
00000260: c7dd f4bd c423 c4be daaf cebe aaa7 9fbe
00000270: b7a0 eabe f755 763e c151 8f3d 09c9 58be
00000280: 92f7 03be 7573 03bf a9c3 113f 06f9 a23e
00000290: f827 a2be 290f ccbe f0ef 3cbe d01f b83d
000002a0: e688 56be a1c5 323e 9146 973e 97bc 953e
000002b0: 8ac8 8e3e b17e d03e 4558 bf3d c1c7 183d
000002c0: d909 22bf 4cc5 19bd 0ccb 093f 4a02 363f
000002d0: ccd6 0c3e 2703 8c3d 9b95 37bf 3bd2 8ebd
000002e0: 65d6 f6be b40d 733e 40b7 d8be edbb 7ebe
000002f0: 830a 183f 2210 93bd 511f cdba 8488 30bf
00000300: d1c0 93bc f554 58bd 63ac 1cbf 77f1 c73b
00000310: 51cd 173f edc2 f33d 00a8 ccbc 3faf 043e
00000320: f452 0e3d b985 06be 879d 6ebe ed15 c73c
00000330: 2779 abbd f798 463d 26eb eb3d 0623 eebd
00000340: bec9 cc3d cee4 093e 5546 8d3c b389 143c
00000350: 73f9 5fbd 83d6 a9bb d67b 5abe 0b63 0abd
00000360: e1ae a2be be2c 6abb 5cda 28be cac6 4ebe
00000370: f1d6 74bd 2929 20bc 8134 85bd 70d5 e3bd
00000380: 3f38 d93c f54d d8bd bb8a 88be b371 22bf
00000390: 1d3b 673d 2b36 873e b906 383c ac2b b03e
000003a0: 0c33 52bd 83be 02bf d77e a2be 96f5 e63d
000003b0: 2caa 7abe a565 a83e f24e fe3c 8103 7a3d
000003c0: 500e ba3d 026a 93bd cb3b 36bd 08e8 99be
000003d0: 8ed4 893d eb4b d23d 95ae 483e 8053 323d
000003e0: 2504 5cbe f4f5 45be 0c00 70be a32f 773e
000003f0: f81b 173e 0105 753e 6156 ef3d 0c44 3dbd
-0.7196932 0.13117772 0.034217995 0.37926966 0.46209925 0.7516001 -0.1790639 0.09997691
0.08206765 -0.026765825 -1.0191643 0.078415684 0.15585901 -0.5645413 0.062479746 -0.98306674
-0.04625051 -0.3292979 0.074570864 -0.12983377 0.18099609 -0.088148214 0.08545585 0.31958124
0.22042686 -0.20351237 0.02796597 0.24213251 -0.061018575 0.100708015 0.21199824 -0.04925894
0.0063396855 0.3152793 0.46348953 0.54870194 0.054483097 0.15322131 0.38782537 -0.3586781
0.08189192 0.65038335 -0.13708597 0.11581388 0.6407805 -0.6146325 -0.3087128 -0.14292793
0.8154108 0.21336809 -0.15544406 -0.7728143 -0.0021120291 0.49347883 1.2816308 -0.10711526
0.061450332 -0.0052597336 0.01113521 0.22822374 0.1782935 -0.42847773 -0.20918907 0.12753317
-0.07492292 -0.13137686 0.06851716 -0.25336298 0.12145631 0.12613319 -0.017931856 0.16120067
-0.15167877 -0.2288858 -0.8281414 0.17588302 -0.03877825 0.31191662 0.0740173 -0.21498603
0.13221554 0.6156611 -0.25281906 0.36227155 0.08045107 0.09072842 0.1823692 -0.33487886
0.21931033 0.4575815 0.087905645 -0.22721581 0.18068793 -0.3990422 -0.18205623 0.05452168
0.13889551 0.005999994 0.08069313 0.22330803 -0.30706283 -0.11432707 -0.28875262 -0.16781119
-0.3549218 0.22356386 -0.18049778 -0.28670278 0.015592975 0.057563186 -0.4012004 0.06458903
0.09563534 0.09440597 -0.08953069 -0.02782705 -0.12435592 -0.30234885 -0.39818963 -0.2554594
-0.2725515 0.021661911 0.273804 -0.28146398 -0.32396066 0.35298127 -0.01436862 -0.008833196
0.25720665 -0.20167622 0.055213343 -0.17856641 -0.12397716 0.23062083 0.35548803 0.07839387
-0.0918103 -0.21498357 -0.17802182 0.06726536 0.15120034 0.019285943 -0.034312334 -0.050696824
-0.33751556 -0.08769943 -0.3276437 -0.2383795 0.21995093 0.066437095 -0.46297902 0.24312356
-0.11956363 -0.38308537 -0.4036854 -0.31182605 -0.4582574 0.2405623 0.06998015 -0.21170439
-0.1288741 -0.5134805 0.5693918 0.31830615 -0.3167112 -0.39855316 -0.18450904 0.08990443
-0.2095066 0.17458202 0.29546025 0.29245445 0.27887374 0.40721658 0.09343008 0.037299875
-0.63296276 -0.037541673 0.5382545 0.7109724 0.13753814 0.06836539 -0.71712655 -0.06973692
-0.48210445 0.23735696 -0.4232731 -0.24876375 0.5939104 -0.071808115 -0.0015649592 -0.68958306
-0.018036278 -0.052815396 -0.6120054 0.006101783 0.5929766 0.119024135 -0.024982452 0.12957476
0.03474708 -0.13136949 -0.2330228 0.024302447 -0.08372717 0.048485722 0.115194604 -0.11627774
0.09999417 0.13466188 0.017245451 0.009066033 -0.054681253 -0.0051830425 -0.21336302 -0.03378586
-0.31774047 -0.0035732235 -0.16489547 -0.2019302 -0.059775297 -0.009775438 -0.06504155 -0.11124694
0.026516078 -0.10561744 -0.26668343 -0.6345474 0.05645286 0.26408514 0.011232072 0.3440832
-0.051318213 -0.5107195 -0.31737396 0.112773106 -0.24478978 0.3289005 0.031043503 0.061038498
0.09084761 -0.07197954 -0.044490617 -0.30059838 0.06729995 0.102683865 0.19597848 0.043536663
-0.21485956 -0.19332105 -0.23437518 0.24139266 0.14756763 0.2392769 0.11686397 -0.046207473

gru.weight_hh_l0 f4 [192, 64]
00000000: ba45 3a3e f58e 7a3b e992 9c3e 9618 acbd
00000010: eb03 ecbd 4599 99bf 4d28 0fbf 95f6 afbd
00000020: e418 60be 8c77 bb3d 9f9a bdbe 0223 453c
00000030: 6c3d dabd 0bb5 fcbd 483d 51bd e02c 07be
00000040: 707a 6fbe aa89 5d3e 0f82 30bf 2d87 783d
00000050: e770 d8bd 5f5a ba3d 9602 89bd 162c 03be
00000060: 069c 713e b10f 13be ba58 35be 3cb8 f8bd
00000070: 1180 893e 99cf 11be 3af0 adbd f4dc aabe
00000080: 164d a43d f1cb 84bc f239 df3e 3557 1dbd
00000090: ece5 c4bd 9f11 40be 09f4 b1bc a355 10bf
000000a0: c8fd 16be b854 22be 04b4 6dbe 73a3 103e
000000b0: 6ceb 31be 1a4c 62be f955 0f3f b120 dcbd
000000c0: f500 e03d be9b 38be c2e7 9c3c f11e 1f3b
000000d0: 2a2a 34be dfb4 1c3e 8c2b a6be b816 a3bc
000000e0: 762f 203e c4c9 943d 187a 4abf 881e 3a3f
000000f0: 7816 3abe 466a 74be 21f1 36be 7e2b 193f
00000100: f192 903e 05c5 aebc c811 113f 7c7c dfbe
00000110: 8f57 6abd b2d6 a8be c233 a2bd 5cb7 67bd
00000120: d530 bcbe 43e9 66be 0fbf e33e 83df 8f3d
00000130: 8419 563e 7c43 893e d9d4 b1be ef5c 84bc
00000140: d38b 7dbc 2ec9 483e 1fc7 cdbe 1531 e7bd
00000150: 8742 3dbe 93e3 fdbd 645a 86bd 8525 183e
00000160: 1dd5 083f f795 d3bc 0cc7 d7bd b33d 0ebe
00000170: 3f74 e13d 664c 25bd 0d65 9c3d 98f4 87be
00000180: f6ec 563e 5e77 18bb de5f 163f 4bd8 043f
00000190: 5870 15bf ff7c 1d3e 27a3 b0be 1fee 943e
000001a0: da69 1f3e d85b 97be 94e7 8bbe d20f d13d
000001b0: fe57 c7be 9714 a2be 94e2 b2bd 09da 20bc
000001c0: c67c 773d 603f afbe cf08 b83e cadf b2be
000001d0: 3c95 92be ad2d 113e abfa e2be 80f5 adbe
000001e0: 7cc0 563e 9443 aabe 13ad 84be 8738 c73e
000001f0: b5a1 443e 9feb 2bbe 2c20 4b3e d241 013f
00000200: 8990 133e 59e8 343d f6b1 5ebd 62a4 b4bd
00000210: 4e2b a23d 789c bd3e 69a4 a63e 08be 1b3e
00000220: 756d f33d 5ca8 57bf ff05 3e3e 970e cfbd
00000230: 9401 1f3e 3bbc d8bd 8589 be3c b2f2 32bf
00000240: d60b 24bc 61bb f13e bcdb 6e3f 49c1 0fbf
00000250: f3e0 4e3d ee3b b3bd 603e 173c 8a21 b2be
00000260: cced 43be a1e6 f33e ffd1 ccbd 6672 683e
00000270: 5183 9cbd 31e0 03bf a8eb b5bc 5598 293f
00000280: 9d17 943d 7a94 15bd 19f9 d33e 6c2b 94bd
00000290: f181 24be c567 c0be 37a9 1a3a e735 813f
000002a0: 56db 4dbe e45c 24be d843 e63e 9341 0bbe
000002b0: 8cf9 fd3d eb0b 133e c311 403f a9ca b33d
000002c0: e8d6 0bbc 7dcf 9cbe ffe6 993e b2ce 763e
000002d0: 84dc a1bc 9f87 88ba ff03 e53d a45d 023f
000002e0: c207 cabe 022f e1be 53d1 123f ce6f 46bd
000002f0: 6a17 ed3e f348 0a3b ba59 493e 6398 d6be
00000300: eb3b 103f e893 cebd 0f92 723f 6920 2fbc
00000310: 5931 74be 108d f83c 7c8b 1e3f 068b c53e
00000320: 825b e3be fbe1 cc3d c8cb 3b3f b5c9 0a3e
00000330: bf52 083e 1fb6 023d 5eb4 143d 46b6 983d
00000340: 9762 2e3e e07a 0dbc 264d a2be 275c 64bf
00000350: 2bd7 c6ba 50c9 2ebe 93d8 d3bc f21e 4d3e
00000360: aa8d 3e3e 8b40 183e 8c8d 9e3e d068 7bbe
00000370: 7eb1 983e 5565 a93e 8015 17be 84da 05bf
00000380: 9291 b9bd 7d21 febd ee0c 053f f145 253f
00000390: 4869 42bf 4156 f8bd 0cc9 8bbd 843c 8d3e
000003a0: 3876 9c3e 4a8e cebe 1d2b 3f3e 48a3 183e
000003b0: fd46 c3be da39 2abf 5be3 973e 38f1 b2be
000003c0: 90b3 1a3e e77a 24be 0a61 023f 20be b4bd
000003d0: 1109 063e 45e6 853e 9939 62be d27b 87be
000003e0: f187 893e 1fbd 5bbe 79ed 583e 70b1 c53e
000003f0: 95f0 653f 1886 123e 5dc7 2c3f 18b5 be3e
0.18190661 0.0038232182 0.30580834 -0.08403127 -0.11524185 -1.1999899 -0.5592087 -0.08591954
-0.21884495 0.09153661 -0.3703203 0.012032272 -0.106562465 -0.12339219 -0.051083833 -0.13200712
-0.2338655 0.21634546 -0.68948454 0.06067579 -0.105684094 0.09099268 -0.06689946 -0.12809786
0.23594674 -0.14361455 -0.17709628 -0.12144515 0.2685552 -0.14239348 -0.08493085 -0.333717
0.080225155 -0.016210528 0.43598896 -0.038413245 -0.096141666 -0.18756722 -0.02172281 -0.5638067
-0.14745247 -0.1585263 -0.23213202 0.14124851 -0.17374963 -0.22099343 0.5599056 -0.10748423
0.109376825 -0.18028161 0.01915348 0.0024279917 -0.1759421 0.15303372 -0.324551 -0.019908294
0.15643105 0.07265046 -0.7909255 0.72702837 -0.18172634 -0.23868665 -0.17865421 0.5983199
0.28237107 -0.02133418 0.5666776 -0.43649662 -0.05721241 -0.329763 -0.07920028 -0.05657135
-0.36756006 -0.2254992 0.44481704 0.07025053 0.20908171 0.268093 -0.34732702 -0.016157595
-0.015475231 0.19607994 -0.4019098 -0.112886585 -0.1848241 -0.12396922 -0.065602094 0.14858063
0.53450185 -0.025828345 -0.10536012 -0.13890724 0.110085 -0.040356062 0.076364614 -0.26553798
0.20988831 -0.0023264508 0.5874003 0.51892537 -0.5837455 0.15379713 -0.34499475 0.29087922
0.15567723 -0.2956226 -0.27325118 0.102080956 -0.3893432 -0.31656334 -0.087346226 -0.009817609
0.060421728 -0.3422804 0.3594422 -0.34936363 -0.28629482 0.1417758 -0.4433187 -0.33976364
0.20971864 -0.33254683 -0.25913295 0.38910314 0.19202311 -0.16789101 0.19836491 0.5049106
0.14410605 0.044166896 -0.054368936 -0.08820416 0.07918416 0.3703344 0.3254731 0.1520921
0.11886112 -0.8424127 0.18556975 -0.10110205 0.15527946 -0.10582777 0.023258934 -0.69901574
-0.0100125875 0.4721327 0.9330404 -0.56154305 0.050507497 -0.08751665 0.00923118 -0.34791213
-0.19133681 0.47636893 -0.10000991 0.2269989 -0.07642234 -0.51513964 -0.022207096 0.66248065
0.072310664 -0.03651855 0.41400984 -0.072348446 -0.16065194 -0.3757917 0.0005899849 1.0094575
-0.20103201 -0.1605106 0.44973636 -0.13599233 0.12401113 0.14360015 0.750271 0.08778889
-0.008535124 -0.3062705 0.3005905 0.24102286 -0.01975847 -0.0010416395 0.11182403 0.50924134
-0.39459044 -0.43981177 0.57350653 -0.04844647 0.46306926 0.002110061 0.19663134 -0.41913137
0.5634143 -0.10086805 0.9475412 -0.0106888795 -0.2384695 0.030340701 0.61931586 0.3858263
-0.44405752 0.1000404 0.7335782 0.13553508 0.13312815 0.031911965 0.036304824 0.07456641
0.17029797 -0.008635253 -0.31699485 -0.89203113 -0.0015170326 -0.17068982 -0.025860107 0.20031336
0.18608728 0.14868371 0.30967367 -0.24551702 0.29822916 0.33085123 -0.14754295 -0.52286553
-0.090609685 -0.12408731 0.51972854 0.6455985 -0.75941896 -0.121258266 -0.06825456 0.27585232
0.30558944 -0.40342933 0.1866879 0.14906037 -0.38140097 -0.66494524 0.29665646 -0.3494966
0.1510756 -0.16062509 0.5092932 -0.08825326 0.13089396 0.26152244 -0.22092284 -0.26461655
0.26861528 -0.21458863 0.21184339 0.38611937 0.89820224 0.14308965 0.67491704 0.3724754

gru.bias_ih_l0 f4 [192]
00000000: 4d91 503e 8464 453e a36a ab3b 2521 853e
00000010: 3e3e e93d dee0 91be 8d40 06be 4a3f 01be
00000020: 506a 593d 30c0 073e 7c66 f83d 56d2 3cbd
00000030: 7475 9b3d c4d5 763d 78ec d33e 0cef 2b3e
00000040: 915f 1a3e 4502 013e 82df 623d b6cc 793e
00000050: b3a1 3e3e a9fb 2c3e 3eed ff3e 90d4 8c3e
00000060: 7d5f 5dbe 62ea 823d 5977 cd3e 7d52 5e3d
00000070: af71 50bd 7075 51be 6322 7b3c b148 d13d
00000080: f8ff 1cbe 47d2 a83e 4927 983d ffdb 173e
00000090: fef0 20be ae2a e2bd dcbc af3d c77c 73bd
000000a0: 671e aa3e 4ede 823e d15f 06be 21a0 8e3e
000000b0: ddd0 283d 9144 6a3e f41f 623e 649f 863e
000000c0: 382d 6c3e 1e68 0b3e 6493 333e 9c89 843d
000000d0: ca24 c23d 5810 883e acd2 f8bd 0081 e03d
000000e0: 2a99 093e f92b a6bd 4063 0ebd 8a21 203e
000000f0: 03d0 dcbd a493 ce3c 3702 23be 7945 4f3e
00000100: 92f3 89be 4d6f 0bbe 6740 ccbe d82d d9bd
00000110: 21b9 c7bd d227 b73d f20e 17bf 1c54 30be
00000120: 8341 b4be 9f99 c7be 4a61 383e 8672 16bf
00000130: 37df e1bd b4f0 c2bd 3296 cdbe 2369 d2bd
00000140: 17e6 1abc e91d 763e 0103 f1bd 1aac 94be
00000150: 2ca6 91be 69bd 0dbe f25c 15bf 654b e6bd
00000160: d0a7 7fbe e0f1 06be 5c74 c9be dcd9 ccbe
00000170: a8e3 91be 2376 cbbe 502a ccbd 422f 57be
00000180: f73d 3c3e 8e23 fcbe d38e 1ebe b832 d9bd
00000190: dfa4 3ebe 6969 b7be f5fa 39be 9ee0 a6bd
000001a0: fa2e 0abf e5ac 1e3d 9819 0cbf 68ff ba3d
000001b0: 3309 81be 37d5 843e f25c 9fbe 4cf4 1ebe
000001c0: 40ae 26be f39e 8e3e 22c6 b5be d4d9 97be
000001d0: bc50 ad3d 8e24 4cbe 412c 46be 8ad6 12bf
000001e0: 5991 00be 9af2 38be 92dd acbe 69a3 0bbe
000001f0: 3143 e3be be38 7ebe 0255 26be 845f 6ebe
00000200: aac0 783e 1945 0abe 9661 243d 0d00 b6bd
00000210: 9515 c1bd 6eb5 0bba dcd2 b83d 22e4 93bb
00000220: 831e 4fbe 1370 973d 144d 97bd fc22 55be
00000230: 9438 6bbe 98d0 ee3d 3d57 8bbe 4bd6 76bc
00000240: 08d1 123e 314d 6e3b e89f 2cbc 1003 a9bd
00000250: 85b0 39be a3d1 25be 17f1 99bd 74a5 2bbe
00000260: 6da5 8a3d 6d6a 1cbe 18dc 22bd 35be 49bd
00000270: 9892 70bc 6168 223e cd46 80bd a00c 78be
00000280: ebeb 393d 7bc9 eabb 6c72 093d d4d0 abba
00000290: 04b9 c93b 88f3 333d 129a 80be fa13 643e
000002a0: ec1f c73d ef9c 46bd cd2b 4ebe c4f0 aabc
000002b0: ac90 6cbe 5dc6 01be a40e 8fbc 4ab8 d8bc
000002c0: a908 5d3e 36d0 1bbd 5243 2d3d ce11 403d
000002d0: 2e44 87be b2f2 59bb e6ef b1be cf8f 8dbe
000002e0: 8ee9 db3c 43f5 6dbd 5a5c 433d 347c 343e
000002f0: 3eff df3d 74da 383d 924c 113e ef5a c33d
0.20367928 0.19276625 0.005231218 0.2600185 0.11388825 -0.28491873 -0.13110562 -0.12621799
0.053079903 0.13256907 0.12128922 -0.04609903 0.07590762 0.060262457 0.4139135 0.16790408
0.15075518 0.12598522 0.055388935 0.24394497 0.18616371 0.16892876 0.4998569 0.27505922
-0.21618457 0.06392361 0.40130118 0.054277886 -0.050889667 -0.20454955 0.015328023 0.10218943
-0.1533202 0.3297293 0.07429368 0.14830016 -0.15716931 -0.11043297 0.08580944 -0.05944517
0.3322632 0.2556023 -0.13122489 0.27856544 0.041214813 0.22877719 0.22082502 0.2629348
0.23064125 0.13613936 0.17536694 0.064715594 0.09479673 0.2657497 -0.121495575 0.10962105
0.13437334 -0.08113856 -0.03476262 0.15637794 -0.107818626 0.025216885 -0.15918814 0.20241345
-0.26943642 -0.13616677 -0.39892885 -0.10604447 -0.097521074 0.08943142 -0.5900718 -0.17219585
-0.3520623 -0.3898439 0.18005863 -0.587685 -0.11028903 -0.09518567 -0.40153652 -0.102739595
-0.009454272 0.24034847 -0.11768151 -0.29037553 -0.28447092 -0.13841785 -0.5834495 -0.11244849
-0.24966359 -0.13178205 -0.39346588 -0.40009964 -0.28494 -0.3973857 -0.09969008 -0.21014121
0.18383013 -0.49245876 -0.1548417 -0.10605377 -0.18617581 -0.3582261 -0.18162139 -0.08148311
-0.5397793 0.038739104 -0.5472655 0.09130746 -0.2520233 0.2594392 -0.311256 -0.1552288
-0.16277409 0.27855644 -0.35502726 -0.29658377 0.084626645 -0.1993582 -0.19352819 -0.5735861
-0.12555446 -0.18061295 -0.33762795 -0.13636555 -0.443872 -0.24826333 -0.16243365 -0.23278624
0.24292246 -0.13502921 0.040132128 -0.088867284 -0.094279446 -0.00053294643 0.09024593 -0.0045132795
-0.20226483 0.07394423 -0.07387748 -0.20814127 -0.22970802 0.1166088 -0.27214995 -0.01506574
0.14337552 0.0036361928 -0.0105361715 -0.08252537 -0.18133743 -0.16193251 -0.07516687 -0.16762334
0.06769834 -0.15274973 -0.03976068 -0.04925366 -0.014683388 0.1586013 -0.06263504 -0.24223566
0.045391005 -0.0071651316 0.033556387 -0.00131085 0.006156089 0.04393342 -0.25117546 0.22273245
0.097228855 -0.048489507 -0.20133896 -0.02086676 -0.23102063 -0.12673326 -0.017463036 -0.026455063
0.21585335 -0.038040362 0.04230053 0.04689198 -0.26419204 -0.003325623 -0.3475334 -0.2764878
0.026844766 -0.058095228 0.047695495 0.17625505 0.109373555 0.045130208 0.14189366 0.095388286

gru.bias_hh_l0 f4 [192]
00000000: 731b 983e 6d13 a83e 3f45 4abe e77d c93e
00000010: 46dc 763e 78b1 84be 3408 a13c 3ba3 f2bd
00000020: 003b a43d 70bb 35bd 9d24 b83d 8e5f b53d
00000030: cf66 113e 4137 2abe f4b6 543e b277 243e
00000040: 775e ed3d 90e8 d23d c452 493d 14d5 993e
00000050: 8ba2 993d 7fc7 823e 3628 8c3e 0c9e 403e
00000060: 7980 19be ee43 9cbd 9efc 743e d358 6e3e
00000070: 1890 b83d f81b f5bd 1981 8139 a557 7fbd
00000080: cbf2 8abd 82e7 433e c7ed cebc 5ef9 633e
00000090: 1b88 b9bd 1a30 9cbe 7a95 853e d8fb 3dbe
000000a0: d9d9 953e 4f5e a33e 691c 3cbe c153 853d
000000b0: fd94 373e a4b5 5f3e 502c 593e 519a 093e
000000c0: 7cf2 4a3e de39 563e 6035 ed3d 5328 853e
000000d0: 6c59 e03d 67ba 763e 9027 793c aaeb 2b3e
000000e0: 0702 683e 8b9b 12bc 5419 863c 7aa9 563d
000000f0: bb6d 24be 7a91 76bd 7611 4dbe 2cf9 973d
00000100: 329c 98be 642b 3cbe 9a1f 3fbe caa9 08be
00000110: c4b8 95bb 5e00 863d bb00 23bf ee42 7fbe
00000120: 361d bebe 19f1 68be 4f45 ff3d fc9d 3dbf
00000130: dc9e d7bd 86a5 50be ac38 c1be 6395 86be
00000140: c663 b53d 4d45 673e 5e1e 65be 2e9f a6be
00000150: ad45 9ebd 1dfc 72be 11b4 1cbf ba40 11be
00000160: 9338 b8be f3b7 02bd 8d08 d5be 0e6c afbe
00000170: 6b03 5cbe 0629 f3be 1b95 f9bd a733 bebe
00000180: 25ec c53c f5e1 04bf 6832 ac3c 2423 a13c
00000190: 8cec ccbd baf6 8abe da4b 66be 1345 1bbd
000001a0: 3c4e 28bf 2750 e53d 6ca9 c9be 2032 86ba
000001b0: 8620 5dbe aba1 703e 3fab a3be 088b bcbe
000001c0: 225f fbbd afb5 713e 93dd cebe 6243 d6be
000001d0: 03f7 703d 399d a8be 94d7 8dbe f4dd 23bf
000001e0: bdf8 ecbd 7104 76be f365 0fbf b9eb 92be
000001f0: 7c88 21bf ff3a 66be 9f3c 94be 38f8 90be
00000200: 2672 943e 76c2 25be e351 c03d 2b84 f3bd
00000210: d192 4fbe eb33 aa3c b11f 263d 3119 6fbd
00000220: 01d2 81be 90f8 263e c66c 653c 8837 273e
00000230: 21e7 963e 856a 1e3e f933 a3be af0c d0bd
00000240: 1c8e f5bd e6c7 d53c 9617 b7bb 26b5 debc
00000250: 6ffa f0bd af98 05be da0a 84bd 1e38 a13c
00000260: 74a3 febc 85ae efbb b416 67be 7710 88be
00000270: a9f0 7e3e 310c a6bd e44c a4bd 1fd6 f8bd
00000280: 44e7 833d 6573 00be 642e 5cbd 34f0 cb3d
00000290: 5275 aebc c408 8f3d 4d3f 98be 02bb 923d
000002a0: 9ef8 893e 7a1a 1bbe 02f6 1cbe 8949 3b3e
000002b0: f13a 84be 59c9 dcbd b446 0fbb dd51 cfbd
000002c0: b412 643e 5556 0f3e cd85 b73d 4085 1dbe
000002d0: 4085 93be 130f 7b3e 74dd bebd fe8c 113d
000002e0: 91b6 153c 0edd fd3c c274 70be d693 4a3e
000002f0: 44a7 91bd 0034 cabd 163e 583e 26a8 6b3e
0.29708442 0.3282732 -0.19752978 0.39353868 0.24107465 -0.25916648 0.019657232 -0.1184754
0.08019066 -0.044368207 0.089913584 0.08856116 0.14199375 -0.1662264 0.20772916 0.16061285
0.11590283 0.10298264 0.049151197 0.30045378 0.07501706 0.25542828 0.2737443 0.1881029
-0.14990415 -0.07630144 0.23924491 0.23276071 0.09011859 -0.11968225 0.00024700983 -0.062339444
-0.0678459 0.19131282 -0.025259865 0.22263095 -0.09059163 -0.3050545 0.26090604 -0.18553102
0.29267767 0.3190789 -0.18370213 0.065101154 0.17927928 0.21846634 0.2120831 0.13437773
0.19819063 0.20920512 0.11582446 0.26007327 0.10954556 0.24094544 0.015207186 0.16789117
0.22657023 -0.008948217 0.0163695 0.05240772 -0.16057484 -0.06019733 -0.20026192 0.07420573
-0.29806668 -0.18375927 -0.18664399 -0.1334602 -0.004569145 0.06543039 -0.6367299 -0.24927875
-0.3713166 -0.22748221 0.124643914 -0.7406919 -0.10528347 -0.20375642 -0.3773855 -0.26285848
0.08856921 0.2258503 -0.22374865 -0.3254332 -0.07728133 -0.23728986 -0.6121226 -0.14184847
-0.35980663 -0.03191371 -0.41608086 -0.34262127 -0.21485679 -0.47492236 -0.12186643 -0.37148783
0.024160454 -0.51907283 0.02102013 0.019670077 -0.10006055 -0.27141362 -0.22489873 -0.03790767
-0.65744376 0.111969285 -0.3938707 -0.0010238327 -0.21594438 0.23499171 -0.31966588 -0.36824822
-0.122740045 0.23604463 -0.40403423 -0.41848284 0.05882932 -0.3293245 -0.27703536 -0.6401055
-0.115708806 -0.24025132 -0.5601494 -0.28695467 -0.63098884 -0.22483443 -0.289525 -0.28314376
0.28993338 -0.16187462 0.09390619 -0.118904434 -0.2027085 0.02077671 0.040557567 -0.058373634
-0.25355533 0.16305757 0.014002984 0.16329777 0.29473212 0.15470321 -0.3187559 -0.10158669
-0.11989996 0.026096296 -0.0055875285 -0.027185988 -0.117665164 -0.13046525 -0.06447382 0.01968008
-0.0310838 -0.0073145055 -0.22567254 -0.26575062 0.24896492 -0.08107794 -0.08022478 -0.12150215
0.06440595 -0.1254402 -0.05375518 0.099579245 -0.021296177 0.06984094 -0.29735795 0.07164575
0.26947492 -0.15146819 -0.1532822 0.1828977 -0.2582622 -0.107805915 -0.002186221 -0.10123036
0.2227276 0.13997777 0.08961067 -0.15382862 -0.288126 0.24517469 -0.093195826 0.03553485
0.0091377655 0.030989196 -0.2348204 0.19782957 -0.071119815 -0.098731995 0.21117434 0.23013362

gru2out.weight f4 [6, 64]
00000000: be7c f7be 8f81 cd3e 8aa4 7dbd ffea a33e
00000010: 0f8e f43e 5f97 17be c332 d43e 8afc 9fbe
00000020: 5c55 ba3d fff1 453d 2c8d f43c 56db 47be
00000030: fa0a d9bd d819 8c3e b02c 023e 9063 dd3e
00000040: b6e8 5e3e 9bba 30be be3f b7bd 8a44 a83e
00000050: 99e4 b03e ebac 0f3f b3e4 1f3f 8bc2 4b3d
00000060: 170e 1b3d 4317 3b3e 1695 003f 2cea 073f
00000070: 49ad e8be 0d59 c53e d7ee b93e 0b8c 823d
00000080: d843 4f3d b173 b23e 6cab bfbd 76ab 24be
00000090: 8070 ce3d aecd ccbd a722 aabd ada8 0f3c
000000a0: 40b8 dfbe a32c e13e ad6b 92bd 3e1b d1be
000000b0: 9a63 123e 1404 873e ad77 a3be 43f7 103f
000000c0: 3db3 d4be bbd5 b9bd cae8 aebe a7da 763e
000000d0: 33cd 913e a1c0 ebbe 25d0 3cbe b45b 07bf
000000e0: ecbc fdbe 162a 813e 120c 983d 019d 09bf
000000f0: f04d 1a3e 897c dc3e 0e4e ea3e 6fc6 dd3c
00000100: f1b7 fcbe 5be2 df3d 6b7a d3bd a021 563e
00000110: 4a75 f23e f250 2fbe 2edc e4bd 7f2c 4fbe
00000120: 797d c83e 213e fabd 6588 3bbd f5cd 45be
00000130: b251 68be be2e e4b9 bb29 903e b0b4 3c3e
00000140: 541d 89bd ec80 a6be 67b8 a03d 8b86 4c3e
00000150: 0a25 8f3e 023d 7b3e d525 443e f7dd 28be
00000160: 6985 2c3c 54f9 373e e72a 733d d372 b23e
00000170: d125 a3be 09f6 163e 7dbf 9f3e b019 b53e
00000180: dbf3 95be 9934 2d3e 82ac 8cbd f8d2 46bd
00000190: 8980 943d 627d 36bd c926 b83e b9d2 94be
000001a0: 231f 33be 93e5 e03e e1a5 9a3e 70e6 bdbe
000001b0: 6f5f f43e e474 a23e 9b14 c53c e059 633e
000001c0: 4186 c2be f883 333e b7a6 31be e5c6 de3d
000001d0: 20e8 dc3e 6ff8 87be 39ce 563e c2e6 013e
000001e0: de00 abbe f7bd 7d3e ad55 6f3e aa31 cabe
000001f0: 1356 6cbd 8045 b53e cec7 61bd 8700 5dbe
00000200: 2bd9 533e 74a3 083d ec64 033d a803 12be
00000210: e933 82bd 99f5 023e 1a5b 33be c60b 643d
00000220: 2b77 36be 4803 d8bd 37a4 e43d e7b4 533d
00000230: 6b36 0d3e a9ab 05bd 8891 e4bd 484f 70bd
00000240: 8d85 bebd 06c2 05be e3f5 18be de01 1a3e
00000250: 8256 16be 9cd3 873d a80d 9f3b 2f80 183e
00000260: 7e0f 253e 9541 0b3d 794c 8fbe 11a0 2ebe
00000270: 42f8 a03c 3b63 bcbd 9860 173d 5541 323e
00000280: db56 f23d 32e9 543e 2d26 c2bd 91f0 973d
00000290: 1730 ebbe 4584 253e facb 5fbe 24f7 9d3d
000002a0: 36d1 3b3e ffa4 753c 6990 013f 43f5 6e3d
000002b0: 34c8 ddbd 7842 93bd dea3 b23e 09db 71be
000002c0: 2548 a4bd 69bc 2fbe e0d8 833e eb4b a73d
000002d0: 1532 8d3d 58d2 503d 759c eebd b7bc c4bd
000002e0: e937 643d 4ad9 a2bc 6e6a acbd a43f f13d
000002f0: 28e2 c73e 436f 2abe c50d 24be af4b 403e
00000300: f0f3 d2be 57b2 acbd 1f87 e2bd ee59 863c
00000310: 3039 54bd b273 52be ca50 0bbe 329d 773e
00000320: 5538 2bbe 4c4e f8bd 721e 98be ccbc 0fbe
00000330: 3e19 013f bfe9 d8bc cf13 a83d 241d 0bbe
00000340: 2240 813d d1af 6b3e f4f5 75be bf71 99bd
00000350: 2d8b 59be a619 dfbd 9fd9 d2bd dda2 b9be
00000360: 9ee4 973d 9d0d 66be 0f23 87bd 6baa 25bc
00000370: 021d 493e 456a 82bd 4990 923c bde5 c73c
00000380: dd4b 973d ceeb 7abd 6f5c 003e 7b4e 7cbe
00000390: b8c7 51bd 029b 113e 40dd 293e 6daf c53d
000003a0: 440b 653e 4dee 8abd 355d 43be acc0 9fbd
000003b0: c37d 40be ca59 2bbe 93e0 2fbd ec59 853c
000003c0: ccb4 3e3d e538 833d 9e74 4d3d c2d3 80be
000003d0: 7024 7cbe 181c 793e bccc 983e c776 1ebe
000003e0: e64d 953c b3ab 36be a72f 84be 5b54 2c3d
000003f0: c426 7abe 23ea 863d 50ec 103c 4073 98be
-0.48337358 0.40137908 -0.061924495 0.32015225 0.47764632 -0.14803837 0.41444978 -0.3124736
0.09098312 0.04832649 0.029852472 -0.19517264 -0.10597797 0.27363467 0.1271236 0.43240023
0.2176846 -0.17258684 -0.08947705 0.3286479 0.34549406 0.56123227 0.6245834 0.049746078
0.037855234 0.18270592 0.5022749 0.5309169 -0.45444706 0.38544503 0.36315033 0.06374367
0.05060181 0.3485389 -0.09358868 -0.16081032 0.100800514 -0.10000168 -0.08307391 0.008768243
-0.4369526 0.43979368 -0.07149444 -0.40841097 0.14295807 0.263703 -0.31927243 0.5662729
-0.41542998 -0.09073969 -0.3416198 0.24106847 0.28476867 -0.46045402 -0.18438776 -0.528743
-0.49558198 0.25227422 0.07424177 -0.53755194 0.15068793 0.43063763 0.45762676 0.02707216
-0.49359086 0.10931846 -0.10326084 0.20911264 0.4735511 -0.17120722 -0.111748084 -0.20231818
0.39158228 -0.122188814 -0.045784373 -0.19316848 -0.22687414 -0.00043522374 0.28156838 0.18428302
-0.06695047 -0.32520235 0.07847672 0.19973199 0.27957946 0.24534991 0.19155057 -0.16490923
0.010529854 0.17966205 0.059367087 0.3485323 -0.3186479 0.14742292 0.3120078 0.3537116
-0.2928761 0.16914596 -0.06868841 -0.04854104 0.07251079 -0.044553168 0.3596709 -0.2906702
-0.17492346 0.4392515 0.3020468 -0.37089872 0.4772906 0.31729805 0.024057677 0.22202253
-0.37993053 0.17530811 -0.17348753 0.1087778 0.43145847 -0.26556727 0.20977105 0.12685683
-0.333991 0.24779497 0.23372526 -0.39491016 -0.057699274 0.35404587 -0.05512219 -0.21582232
0.20688312 0.033359006 0.03207867 -0.14259207 -0.06357557 0.12789 -0.17515221 0.05567529
-0.17818896 -0.10547501 0.11164134 0.051686194 0.1379029 -0.03263441 -0.111605704 -0.05866936
-0.093028165 -0.13062295 -0.14937548 0.15039775 -0.14681438 0.06632158 0.004853923 0.14892648
0.16119191 0.03399809 -0.27988032 -0.17053248 0.019649629 -0.09198614 0.036957353 0.17407735
0.118329726 0.20792082 -0.09479938 0.07418931 -0.45935127 0.16163738 -0.21855155 0.07713154
0.18341526 0.014992951 0.5061098 0.05833937 -0.10829201 -0.07190412 0.34890646 -0.23618712
-0.08021573 -0.17161717 0.257514 0.08168777 0.06894318 0.05098185 -0.116509356 -0.09606307
0.055717383 -0.019879002 -0.08418737 0.117797166 0.3903973 -0.16644005 -0.16020878 0.18778871
-0.41201735 -0.08432453 -0.110609286 0.016400304 -0.05181235 -0.20551947 -0.13605037 0.24181059
-0.16720708 -0.12124309 -0.29710728 -0.14036864 0.5042914 -0.026478646 0.08206903 -0.13585335
0.063110605 0.23016287 -0.24019605 -0.074923985 -0.21244498 -0.10893564 -0.10295414 -0.36257067
0.07416652 -0.2246613 -0.06598484 -0.010111432 0.19639972 -0.063679256 0.017891066 0.02440154
0.07387517 -0.061260037 0.1253526 -0.24639313 -0.051215857 0.14219287 0.16588306 0.096526004
0.22367579 -0.067837335 -0.19078524 -0.07800421 -0.18797974 -0.1673347 -0.04293878 0.01627823
0.04655914 0.06407336 0.050160043 -0.25161558 -0.24623275 0.24327123 0.298437 -0.15474997
0.018225621 -0.17838936 -0.25817606 0.042072635 -0.2442885 0.06587627 0.008845404 -0.2977543

gru2out.bias f4 [6]
00000000: 4d9d 4ebc 8255 05be 1c8b b6bb 701c d93c
00000010: 8d84 a53d 9ce3 aa3c
-0.012610746 -0.130209 -0.0055707823 0.026502818 0.08081923 0.020860486
