try3_simDataset3/30bp_SingleNonConserved_s3_UnifBG_pretrainedDisc.pth (torch, 495425 bytes, 20 tensors)

embeddings.weight f4 [6, 16]
0	0x3ff6b174	1.9272904
1	0xc01db620	-2.464241
2	0x3dd846a5	0.105603494
3	0x3f50a5f6	0.81503236
4	0xc008d6d4	-2.138112
5	0x3f1f5a4b	0.6224715
6	0xbef885e9	-0.48539665
7	0x3e7b65ab	0.24550502
8	0x3f30700b	0.68920964
9	0x402fa74d	2.7445862
10	0x3e8d0226	0.27540702
11	0x3e6e772e	0.23287651
12	0x3f3bb8b7	0.7332873
13	0x3e32e809	0.17471327
14	0x3fe1a296	1.7627742
15	0xbead2087	-0.3381388
16	0xbd211978	-0.03933093
17	0x3f22930e	0.6350564
18	0x3ebd1499	0.36929777
19	0x3dd81dc8	0.10552555
20	0xbd842a5d	-0.06453393
21	0x3fd62317	1.6729459
22	0xbe99216c	-0.2990831
23	0xc025daea	-2.5914865
24	0xbce6ba2e	-0.02816495
25	0x3fc3b2c1	1.5288926
26	0x3f538837	0.8262972
27	0x3e7984a6	0.24367008
28	0x3e192343	0.14954858
29	0xbfac43d2	-1.3458197
30	0xbe3b8ec6	-0.18316182
31	0xbfde3bba	-1.7361977
32	0xbfeb1883	-1.8366855
33	0x3f322f5f	0.6960353
34	0xbd4e6bb1	-0.05039567
35	0x3f81c9a4	1.0139661
36	0x3ea07ada	0.31343728
37	0xbf5312d5	-0.8245061
38	0xbe704f29	-0.23467697
39	0x3f8e4f6d	1.1117989
40	0x3e762883	0.24038891
41	0xbe8257d8	-0.25457644
42	0xbeb2b7f9	-0.34905985
43	0xbef75d89	-0.4831355
44	0xbf37897e	-0.7169417
45	0xbed926ff	-0.42412564
46	0xbf6153a7	-0.8801827
47	0xbef6f6f8	-0.48235297
48	0xbe73eb18	-0.2382015
49	0xc0085dbe	-2.1307216
50	0xbe297cfe	-0.16551587
51	0x3e03e0bd	0.128787
52	0xbd0387c6	-0.032111906
53	0x3e95204d	0.29126206
54	0x3f9acf85	1.209458
55	0x3f60cf54	0.8781636
56	0x3c1f7958	0.00973352
57	0xbe250535	-0.16115268
58	0x3e3cf65f	0.18453358
59	0x3dc9e7f9	0.098586984
60	0xbe93f0bb	-0.288946
61	0xbf9715ae	-1.1803491
62	0xbec56d92	-0.38560158
63	0x3f9328bf	1.149681
64	0x3e73f108	0.23822415
65	0xbfe1207b	-1.7588037
66	0x3f307c34	0.6893952
67	0xbee58ea1	-0.4483538
68	0x3f49909a	0.7873627
69	0xc00fad8a	-2.244967
70	0xbee9e578	-0.45682883
71	0xbf1f99f6	-0.623443
72	0xbfbfcaa1	-1.4983712
73	0xbf543b17	-0.82902664
74	0x3fbedbd3	1.4910835
75	0x3e76530f	0.24055122
76	0x3d27ea96	0.040995203
77	0xbf99acb8	-1.2005835
78	0x4001eae9	2.0299628
79	0xbf0efe1f	-0.5585651
80	0x3f0692c2	0.52567685
81	0xbf2a8163	-0.6660368
82	0x3e537ea2	0.20653775
83	0x3f55271f	0.8326282
84	0x3fcf7fb7	1.621085
85	0xbf0cb5c4	-0.5496485
86	0x400959ad	2.1460984
87	0xbe77c787	-0.24197207
88	0xbce9adcc	-0.028525256
89	0xbe0b400a	-0.13598648
90	0xbf157028	-0.5837426
91	0xbf857fb0	-1.0429592
92	0x3fa22dbe	1.267021
93	0xbfc0960d	-1.5045792
94	0xbf1363fd	-0.57574445
95	0x401f0187	2.4844682

gru.weight_ih_l0 f4 [192, 16]
0	0x3d4b5556	0.04964193
1	0x3ce72940	0.028217912
2	0x3cdb3646	0.026759278
3	0xbdf225e7	-0.118236355
4	0xbdb46738	-0.0880875
5	0xbd388f5a	-0.045058586
6	0xbc8a0e01	-0.01685238
7	0x3d43c4cb	0.0477951
8	0xbdc4b829	-0.09605438
9	0x3d896091	0.06707872
10	0xbcd07bdf	-0.025449691
11	0xbda4c923	-0.08046176
12	0xbe050d36	-0.12993321
13	0x3dd2781d	0.10276816
14	0x3dedb910	0.116075635
15	0xbdaaacf8	-0.083337724
16	0xbd9defbf	-0.077117436
17	0xbd9eb0e4	-0.07748583
18	0xbb0796fb	-0.0020689357
19	0xbdb9b741	-0.09068156
20	0xbd29e71a	-0.04148016
21	0x3dc1348f	0.09433853
22	0x3e14029d	0.14454122
23	0x3d91d26e	0.071202144
24	0x3c5ce76b	0.013482909
25	0xbc9f5693	-0.019450461
26	0xbd5decc1	-0.054180864
27	0x3b813184	0.0039426703
28	0x3d5bcbcb	0.05366115
29	0xbd26280f	-0.040565547
30	0xbcbbe4ea	-0.022936303
31	0x3e013c7d	0.1262073
32	0xbc336311	-0.010948912
33	0x3d13d91d	0.036095727
34	0x3e242835	0.16030963
35	0x3d3edaba	0.046595313
36	0x3dcc4852	0.099747315
37	0xbd849a1e	-0.06474708
38	0x3ded5e8c	0.11590299
39	0x3de5e6c3	0.11225655
40	0xbddb80b5	-0.10717908
41	0x3dac006a	0.083985165
42	0x3e180140	0.14844227
43	0x3dfc22a5	0.123112954
44	0xbe11e386	-0.1424695
45	0xbd8086ff	-0.062757485
46	0x3c221d1e	0.009894637
47	0x3d60aa64	0.054849997
48	0x3e2d009f	0.16894768
49	0x3d7426ed	0.059607435
50	0x3bcb59f2	0.0062057907
51	0x3b03fc11	0.0020139257
52	0x3dca5450	0.098793626
53	0x3e0a824c	0.13526267
54	0x3c78fda2	0.0151971895
55	0xbd258bdc	-0.040416583
56	0x3dabf210	0.08395779
57	0x3d4dcc25	0.050243516
58	0x3d7e2b37	0.06205293
59	0x3dc1912c	0.094515175
60	0x3c811526	0.015757155
61	0xbc429fb0	-0.011878893
62	0xbd66e48d	-0.056370307
63	0xbab2b1a6	-0.0013633266
64	0x3da8938f	0.082312696
65	0x3dd7cdea	0.10537322
66	0x3d4a5b53	0.0494035
67	0x3d55d8e4	0.052208796
68	0xbd544bb4	-0.05183001
69	0xbddf7a58	-0.10912007
70	0xbcd94589	-0.026522415
71	0xbce24321	-0.0276199
72	0xbd0886c4	-0.033331648
73	0x3bcdc0f9	0.0062791076
74	0x3d78d324	0.060748234
75	0x3cdd76e9	0.02703424
76	0x3cfb8d52	0.030707035
77	0xbdb69f26	-0.08917074
78	0xbcea6928	-0.028614596
79	0xbdc84a55	-0.09779803
80	0xbdfe0940	-0.12404108
81	0xbcda4013	-0.026641881
82	0x3dc724d1	0.09723819
83	0x3c3093ac	0.010777395
84	0x3d95f9c0	0.07323027
85	0xbdef0631	-0.11671103
86	0xbe0ac040	-0.135499
87	0xbdd7418e	-0.105105504
88	0xbbad4649	-0.0052879197
89	0xbde4c054	-0.11169496
90	0xbe02dbde	-0.12779185
91	0xbdfe9370	-0.12430465
92	0xbdd59cc3	-0.104302905
93	0x3cf0b872	0.029384825
94	0xbdfbb98f	-0.12291252
95	0xbe152b4d	-0.14567299
96	0xbd166140	-0.03671384
97	0x3dd20391	0.102545865
98	0x3deb99f1	0.11503971
99	0x3d7b1fe2	0.061309703
100	0xbba32ef4	-0.0049799625
101	0x3cef7ee9	0.02923532
102	0x3cbcd21f	0.023049412
103	0x3d5eabff	0.054363247
104	0xbd9d7c01	-0.076896675
105	0xbcb63c3d	-0.02224552
106	0x3cbab48b	0.022791168
107	0x3dab45b2	0.08362903
108	0xbd8fd46c	-0.07022938
109	0x3cf8473f	0.03030741
110	0x3bb4d86b	0.005518963
111	0x3d9c10d7	0.076203994
112	0x3c7fa1e7	0.015602565
113	0x3dcd625e	0.10028528
114	0x3a9547e6	0.0011389225
115	0x3d083770	0.033255994
116	0x3dcf82eb	0.101323925
117	0xbc4985b4	-0.012299944
118	0x3d18d60b	0.037313502
119	0x3d27df3e	0.040984385
120	0xbd50a9b1	-0.05094308
121	0xbca77964	-0.020443626
122	0x3dce377b	0.10069176
123	0xbdc686b4	-0.09693661
124	0x3da66697	0.08125036
125	0xbc4a166b	-0.012334446
126	0x3dcd6af1	0.10030163
127	0xbdf839da	-0.12120409
128	0xbdcdf27a	-0.10056014
129	0x3e0b1fe7	0.13586389
130	0x3c747032	0.014919328
131	0xbd8a320b	-0.06747826
132	0x3de09278	0.10965437
133	0xbd59e49d	-0.05319654
134	0x3dcbd5b7	0.09952872
135	0xbe08f02a	-0.13372865
136	0xbd3b2a6f	-0.045694765
137	0x3c62ef3d	0.013850984
138	0xbdb1c5db	-0.08680316
139	0xbd1d195b	-0.03835426
140	0x3d6b3008	0.057418853
141	0x3daebedc	0.08532497
142	0x3c68cae0	0.014208525
143	0x3d92b1b1	0.07162798
144	0xbd2663ea	-0.04062263
145	0xba040ac1	-0.0005037003
146	0xbd8fc7f3	-0.07020559
147	0x3df5672a	0.119825676
148	0xbd8035f3	-0.0626029
149	0xbdebdbb7	-0.11516517
150	0xbd66cdd2	-0.05634863
151	0x3c9b0c9e	0.018926915
152	0xbe0cf3df	-0.13764904
153	0x3c9f9add	0.019483024
154	0x3e0746ec	0.13210648
155	0xbbf40ddb	-0.0074479408
156	0x3e09c53c	0.13454145
157	0x3dd09e95	0.10186497
158	0x3d817340	0.0632081
159	0xbcbf3518	-0.023340747
160	0xbdcca9d3	-0.09993329
161	0xbccc79ef	-0.024960486
162	0x3d348566	0.04407253
163	0x3dca2124	0.09869602
164	0x3dc1dc89	0.09465892
165	0x3de488a8	0.111588776
166	0xbddcb61f	-0.10776924
167	0x3db9669e	0.09052776
168	0xbbe95d2f	-0.007121704
169	0xbd0e72bc	-0.034777388
170	0x3d1977a5	0.037467618
171	0xbd22222d	-0.039583374
172	0x3be7bb68	0.007071901
173	0x3ca5f9d6	0.020260733
174	0xbe10b32c	-0.14130849
175	0xbd20004d	-0.039062787
176	0x3c09e154	0.008415539
177	0x3d936929	0.07197792
178	0x3e1e3cd5	0.15452893
179	0xbd875ea6	-0.0660985
180	0x3d92b30f	0.07163059
181	0xbcd70802	-0.026248936
182	0x3dcd2981	0.10017682
183	0xbe1ff1c5	-0.15619572
184	0xbdad34a4	-0.08457306
185	0x3dd6043e	0.10450028
186	0xbdd90e3b	-0.10598417
187	0x3b59b549	0.0033219627
188	0xbd67a378	-0.05655238
189	0x3d8bbddd	0.06823323
190	0x3de6e16d	0.11273465
191	0xbd98eb9b	-0.07466813
192	0x3d1ea901	0.038735393
193	0x3b2e4379	0.002659051
194	0xbce39cfe	-0.02778482
195	0xbde3759f	-0.11106419
196	0xbd0efc59	-0.034908626
197	0x3d558100	0.052124977
198	0x3dc93839	0.09825177
199	0x3cfc8a1b	0.030827573
200	0x3d33b830	0.043876827
201	0x3d3c43e4	0.045963183
202	0xbd0d94c4	-0.034565702
203	0x3d1e3890	0.03862816
204	0xbddc7371	-0.10764206
205	0xbc8f95db	-0.017527511
206	0xbdec51ae	-0.11539017
207	0xbd18e50a	-0.037327804
208	0x3de86fcd	0.11349449
209	0x3ba08233	0.0048983335
210	0x3d60351c	0.05473815
211	0x3d8489a2	0.06471564
212	0xbd82d1eb	-0.06387695
213	0xbd19dfdc	-0.037567005
214	0x3de3e5aa	0.11127789
215	0x3dcf62f2	0.10126294
216	0x3ce70871	0.028202267
217	0x3d8103e5	0.06299571
218	0xbcb9ce1d	-0.02268129
219	0x3d989540	0.07450342
220	0xbd4f0d0b	-0.050549548
221	0x3d561590	0.052266657
222	0x3cb593cb	0.0221652
223	0x3dc73b0d	0.0972806
224	0x3d5c5901	0.05379582
225	0xbdc16560	-0.09443164
226	0xbddc7b89	-0.1076575
227	0xbd979ac7	-0.07402568
228	0xbdcd7e2b	-0.1003383
229	0xbd34051c	-0.043950185
230	0x3dba4de5	0.090968885
231	0xbe1794a4	-0.14802796
232	0x3c288660	0.010285944
233	0x3ce8dcfe	0.02842569
234	0x3d80ab75	0.06282703
235	0xbda405fd	-0.08008955
236	0x3bab2108	0.0052224435
237	0xbc1713e8	-0.009221055
238	0xbd8a6c93	-0.0675899
239	0x3dbf4308	0.09338957
240	0x3d61f023	0.055160653
241	0x3e01f909	0.12692656
242	0x3d1c5eb8	0.03817627
243	0x3da290c1	0.07937766
244	0xbd58f40e	-0.052967124
245	0xbe1a9665	-0.15096433
246	0xbce5e26b	-0.028062066
247	0xbcb9312b	-0.022606453
248	0xbd659220	-0.05604756
249	0xbb97ba72	-0.0046303803
250	0x3daa2096	0.083069965
251	0x3bbca32e	0.005756757
252	0xbd811b4d	-0.06304035
253	0x3d5bf4b8	0.05370018
254	0x3dd776b4	0.10520688
255	0x3d3e6152	0.04647953

gru.weight_hh_l0 f4 [192, 64]
0	0x3db5ae81	0.088711746
1	0x3d22316c	0.039597914
2	0xbdf33257	-0.11874836
3	0xbc77e6d4	-0.015130717
4	0x3dd1a084	0.10235694
5	0x3ddff828	0.10936004
6	0x3e1e2db5	0.15447123
7	0x3d2e6734	0.04257889
8	0xbd91f7e1	-0.07127357
9	0xbc9a7778	-0.018855795
10	0xbde2edbd	-0.11080501
11	0x3d55beff	0.0521841
12	0xbd5db8bd	-0.05413126
13	0xbdb7c28e	-0.08972655
14	0x3d9045fc	0.070445985
15	0x3d920796	0.07130353
16	0x3d0bc34a	0.03412179
17	0x3d7c191a	0.061547376
18	0x3d7aa110	0.061188757
19	0x3e096ed7	0.13421188
20	0xbdc9ae97	-0.098477535
21	0xbe12293b	-0.1427354
22	0xbd8963dc	-0.067085
23	0x3dc0442d	0.093880035
24	0x3de32983	0.11091902
25	0xbd75f651	-0.06004936
26	0xbcb2cc1a	-0.021825839
27	0xbde79588	-0.11307818
28	0xbe331166	-0.17487106
29	0xbb0f8748	-0.0021900702
30	0x3d513de3	0.05108441
31	0x3da62c72	0.08113946
32	0xbcd9b742	-0.026576642
33	0x3dc849e3	0.09779718
34	0x3de68bcd	0.11257134
35	0x3df8b0bd	0.12143085
36	0xbd8ec578	-0.06971258
37	0xbdfedd66	-0.12444572
38	0x3c746e7b	0.014918919
39	0x3da9885b	0.08277961
40	0x3cafb7e1	0.021449985
41	0x3db1eddc	0.08687946
42	0x3e0677f6	0.13131699
43	0x3d1124fe	0.03543567
44	0x3d8fa0a3	0.07013061
45	0xbe2062ab	-0.15662639
46	0x3c910e14	0.017706908
47	0x3d9dc21f	0.07703041
48	0x3c5eb86a	0.013593772
49	0x3d536b7c	0.051616177
50	0xbda352a1	-0.079747446
51	0xbdc9a670	-0.098461986
52	0xbdfa5519	-0.12223262
53	0x3d44c315	0.048037607
54	0xbda359e8	-0.07976133
55	0xbdc3345d	-0.09531472
56	0x3c9de9d3	0.019276535
57	0x3db1ceb4	0.086820036
58	0xbc81150e	-0.01575711
59	0x3da2d0c9	0.07949979
60	0x3deecca8	0.11660129
61	0xbe14d205	-0.14533241
62	0xbdf0bc2a	-0.117546394
63	0x3db82790	0.08991921
64	0xbd5f4f03	-0.05451871
65	0x3b8d1c2d	0.0043063373
66	0xbe0c471b	-0.13699
67	0x3ccb674e	0.024829533
68	0xbd8c2ece	-0.06844865
69	0xbd8eb4ef	-0.06968104
70	0x3db0414f	0.086062066
71	0x3b948a96	0.0045331223
72	0xbd47a03d	-0.0487368
73	0x3d5df189	0.054185424
74	0x3cb8245c	0.022478275
75	0xbd070405	-0.032962818
76	0x3caad915	0.020855466
77	0xbe0df33d	-0.1386232
78	0xbd9ca6a2	-0.0764897
79	0x3da9d659	0.08292837
80	0x3e1f5f11	0.15563609
81	0x3e08eb6d	0.13371058
82	0xbba9e1d5	-0.005184392
83	0x3d4b6ac5	0.04966237
84	0xbdb6d767	-0.089278035
85	0x3da39fe5	0.07989482
86	0xbd3c0b99	-0.045909498
87	0xbdc20937	-0.09474414
88	0x3dc2af12	0.09506048
89	0xbcc8d882	-0.024517301
90	0x3d74b74b	0.059745114
91	0xbd6dee1f	-0.058088418
92	0xbddc4c56	-0.107567474
93	0xbd3f416e	-0.046693258
94	0x3d50a797	0.050941076
95	0xbdb7e967	-0.08980065
96	0xbe16e48c	-0.14735621
97	0xbd826be3	-0.06368234
98	0xbdfa57a3	-0.12223747
99	0xbcc44f3d	-0.023963565
100	0xbdd06a50	-0.101765275
101	0xbe17fe2a	-0.1484305
102	0x3b5b84df	0.0033495945
103	0xbdd704e3	-0.10498979
104	0xbdcf3c1c	-0.10118887
105	0x3e0dd8ad	0.13852187
106	0x3e2a4be0	0.16630507
107	0x3b655ca5	0.0034997847
108	0xbd9d577b	-0.07682701
109	0xbe007281	-0.1254368
110	0x3ce44d4f	0.027868895
111	0xbda54ba7	-0.0807107
112	0x3e048c6f	0.12944196
113	0x3e0c946f	0.13728498
114	0x3ddcd8e9	0.1078356
115	0x3d8282ba	0.0637259
116	0xbd92a74b	-0.07160815
117	0x3de967b6	0.113967344
118	0xbc9223bf	-0.01783931
119	0xbe06ab1a	-0.13151208
120	0xbe29ee2b	-0.1659476
121	0x3e108dab	0.14116542
122	0x3de0fbce	0.10985528
123	0x3c512c76	0.012766948
124	0xbcfad4a2	-0.03061897
125	0x3cfa89fc	0.030583374
126	0xbd32e6ab	-0.043677013
127	0xbbae0ef7	-0.0053118425
128	0x3d471995	0.04860838
129	0x3da226b3	0.079175375
130	0x3d829ae8	0.06377202
131	0x3da542ae	0.08069359
132	0xbce350d2	-0.027748499
133	0x3dbf9344	0.093542606
134	0x3b5cf953	0.0033717945
135	0x3e174b32	0.14774778
136	0x3da976a9	0.08274586
137	0x3d52ec7f	0.05149507
138	0x3d38f9b0	0.045159996
139	0xbde64150	-0.11242926
140	0x3cf89a71	0.03034708
141	0x3bb45594	0.005503366
142	0x3d177cff	0.03698444
143	0x3e0add83	0.13561063
144	0x3d2134b3	0.0393569
145	0xbc873f8e	-0.016509797
146	0x3dbaedfd	0.09127424
147	0x3dd4c74c	0.10389575
148	0x3bc402f3	0.005981797
149	0xbe0badfd	-0.1364059
150	0x3d131871	0.03591198
151	0x3d9de88c	0.077103704
152	0xbd0e8e18	-0.03480348
153	0xbdaa72aa	-0.08322652
154	0x3d74a9fe	0.05973243
155	0x3c9b938c	0.018991254
156	0x3d12fe6d	0.03588717
157	0xbe159bb2	-0.14610174
158	0xbd52f93e	-0.051507227
159	0xbd38eab2	-0.045145698
160	0xbd2a83c7	-0.04162958
161	0x3ba69517	0.005083691
162	0xbe12917a	-0.14313307
163	0x3d9fa4ee	0.0779513
164	0xbd01a6f7	-0.03165337
165	0x3d0666e9	0.032812987
166	0xbdf79934	-0.12089768
167	0x3cd1ef21	0.02562672
168	0x3d93c6b6	0.072156355
169	0xbce665fa	-0.028124798
170	0x3e46db9d	0.19419713
171	0x3e01a11c	0.12659115
172	0xbc9d61a6	-0.019211601
173	0xbd8146e5	-0.0631235
174	0x3cf230c0	0.029564261
175	0xbcb9b9e9	-0.022671657
176	0x3d7d9d2b	0.061917465
177	0x3d9b6fb6	0.075896665
178	0x3cc208af	0.023685781
179	0x3be4af1a	0.0069788815
180	0x3dc439e3	0.095813535
181	0xbd82af56	-0.06381099
182	0xbd8be9f4	-0.068317324
183	0xbdc6d777	-0.097090654
184	0xbd74cddb	-0.05976663
185	0x3db89e50	0.09014571
186	0x3db5609c	0.088563174
187	0xbd587da5	-0.0528542
188	0x3d3d489c	0.046211824
189	0x3b423a9c	0.0029636985
190	0x3daa6233	0.08319511
191	0x3d9b520a	0.07584007
192	0x3d890d23	0.06691959
193	0xbda53c05	-0.080680884
194	0x3dfa72a0	0.12228894
195	0xbbb53730	-0.0055302605
196	0x3d9ebcf5	0.077508844
197	0x3d63f2e6	0.055651568
198	0x3a156476	0.0005698869
199	0x3e041860	0.12899923
200	0x3d58e783	0.05295516
201	0x3dd265f2	0.10273351
202	0xbc537f52	-0.0129087735
203	0x3d7b8529	0.06140629
204	0xbd18d63d	-0.03731369
205	0xbd9e1942	-0.07719661
206	0x3da5d39f	0.08097004
207	0xbda1da2d	-0.07902942
208	0x3df1abd3	0.11800351
209	0xbd6b5d70	-0.057462156
210	0x3e11c5b0	0.14235568
211	0xbd8a4c86	-0.06752877
212	0x3d31438c	0.04327731
213	0x3d8279ab	0.063708626
214	0x3d18ce56	0.037306152
215	0x3d9a5f1f	0.07537674
216	0x3d9c699c	0.07637331
217	0xbda0ca98	-0.07851142
218	0xbc08d940	-0.008352578
219	0x3c62be9f	0.013839393
220	0xbda0e0c7	-0.07855373
221	0xbde4151e	-0.1113684
222	0x3d970c92	0.073754445
223	0xbcec13bc	-0.028818004
224	0x3def8de7	0.116969876
225	0xbc70c3f7	-0.014695159
226	0x3de22701	0.11042596
227	0xbcf0d8c5	-0.029400239
228	0x3d7edbc4	0.062221304
229	0x3e02c8d8	0.12771928
230	0x3d4421ba	0.047883727
231	0x3d3fa94b	0.04679231
232	0xbabf4fe4	-0.0014595953
233	0xbde12b84	-0.10994628
234	0xbcb37ca3	-0.021910017
235	0x3e0f5918	0.1399883
236	0xbe0055cc	-0.12532729
237	0x3d73ebe3	0.05955113
238	0x3dd905cf	0.10596811
239	0x3e03bdf1	0.12865426
240	0xbd290df5	-0.041273076
241	0xbdf97bcb	-0.12181815
242	0xbdb009b2	-0.08595599
243	0xbdd16a19	-0.10225315
244	0x3d97ac4c	0.0740591
245	0xbc8eab56	-0.017415684
246	0xbd63aa2e	-0.055582218
247	0xbd945a4b	-0.072437845
248	0xbe0c36cb	-0.13692777
249	0xbd6ba615	-0.057531435
250	0xbdcca93b	-0.09993216
251	0x3cc612b7	0.024178846
252	0x3e016901	0.12637712
253	0x3d35eea4	0.04441704
254	0xbe0230e6	-0.12713966
255	0x3d330f9b	0.043716054

gru.bias_ih_l0 f4 [192]
0	0xbd14db54	-0.03634198
1	0xbd8f20e4	-0.06988695
2	0xbd979f47	-0.074034266
3	0x3d5307ce	0.051521115
4	0xbde1d697	-0.11027258
5	0x3dde502b	0.108551346
6	0xbd0f68b3	-0.03501196
7	0x3da2baf3	0.07945814
8	0xbcb00a13	-0.021489179
9	0x3db028a5	0.08601502
10	0xbd516d6c	-0.051129743
11	0xbe0a0148	-0.13477051
12	0x3ddb303c	0.10702559
13	0x3e08e4ea	0.13368574
14	0xbc908ef5	-0.017646292
15	0xbdbf1301	-0.093297966
16	0xbb5f6c0c	-0.00340915
17	0xbd4a9ed9	-0.049467895
18	0x3d1c54a0	0.038166642
19	0x3c0165b4	0.007897783
20	0xbd186999	-0.03721008
21	0xbcb81382	-0.02247024
22	0x3d06af51	0.03288204
23	0x3d303361	0.04301775
24	0x3da0696f	0.0783261
25	0x3daed8c2	0.08537437
26	0x3dbdef95	0.09274212
27	0x3e024c91	0.1272452
28	0x3dab779b	0.08372422
29	0xbdbd62a7	-0.09247332
30	0xbd75b4ce	-0.059986882
31	0xbd41fd58	-0.047360748
32	0xbd55058c	-0.052007243
33	0x3c0db04a	0.008647988
34	0xbe03b58e	-0.12862226
35	0x3d775b40	0.060389757
36	0x3dc590f9	0.09646792
37	0x3d364fa8	0.04450956
38	0xbd4091e2	-0.047014125
39	0x3d0352e3	0.03206147
40	0xbdd77cfe	-0.10521887
41	0x3d661d7d	0.056180466
42	0xbdfb2833	-0.12263527
43	0xbd717683	-0.058950912
44	0xbd3e80a7	-0.04650941
45	0x3dc4d368	0.09610635
46	0x3cb9b18d	0.02266767
47	0xbda992ad	-0.08279929
48	0x3dd1a94c	0.10237369
49	0x3dc73805	0.09727482
50	0xbd920757	-0.07130306
51	0xbd0738aa	-0.033013023
52	0xbda88bd7	-0.08229797
53	0xbe0d9821	-0.13827564
54	0x3de04612	0.10950865
55	0x3d4dc82a	0.05023972
56	0x3d8a1a7a	0.06743331
57	0xbd1342ba	-0.035952307
58	0x3c637e6c	0.013885122
59	0x3c365d44	0.011130635
60	0x3df0c559	0.11756391
61	0x3ddd0124	0.10791233
62	0xbd816070	-0.06317222
63	0xbdb916cb	-0.090375505
64	0x3d6da2bd	0.058016527
65	0x3ca5e3fd	0.020250315
66	0xbde14173	-0.109988116
67	0xbdd1c6d8	-0.102430046
68	0xbdbf9010	-0.093536496
69	0xbd5cd300	-0.053912163
70	0xbc27390f	-0.010206475
71	0xbe0e020e	-0.13867971
72	0xbe289322	-0.16462377
73	0x3c156eea	0.009120682
74	0xbcecc674	-0.028903224
75	0xbd62e5fc	-0.05539511
76	0xbde009e9	-0.1093939
77	0xbc731242	-0.014835896
78	0x3e00f17d	0.1259212
79	0xbbb12a40	-0.005406648
80	0x3cb3255b	0.021868398
81	0x3d9da822	0.076980844
82	0x3dbfaac8	0.09358746
83	0x3cc3ef08	0.02391769
84	0xbdd3f454	-0.10349336
85	0x3dedd45f	0.11612772
86	0xbd19d62e	-0.037557773
87	0x3e0478f5	0.12936766
88	0x3db8c9d8	0.09022874
89	0xbde76b8f	-0.11299812
90	0xbdf9964d	-0.12186871
91	0xbda44f7b	-0.08022972
92	0xbd7569e8	-0.059915453
93	0xbd1757fd	-0.036949147
94	0x3d90ec15	0.07076279
95	0xbd555150	-0.0520795
96	0x3b7365bd	0.0037139498
97	0x3c69cfb4	0.014270712
98	0xbdfeb3cd	-0.12436638
99	0xbe34d5b1	-0.17659642
100	0x3d11cfa6	0.03559842
101	0xbd8f3d90	-0.06994164
102	0x3ccf9ea5	0.025344202
103	0x3d846f2d	0.064665176
104	0xbd16992b	-0.036767166
105	0x3d0cdb2b	0.034388702
106	0xbda4240a	-0.080146864
107	0xbd4ded08	-0.05027488
108	0xbd26209b	-0.04055844
109	0xbe098633	-0.13430099
110	0xbd95bcff	-0.07311439
111	0x3c8cb3be	0.017175552
112	0x3dc3f02e	0.09567295
113	0xbd243bc0	-0.040096045
114	0xbde6ed42	-0.11275722
115	0x3d8ab894	0.06773487
116	0xbd279448	-0.040912896
117	0x3d07bbb3	0.03313799
118	0xbd87d0ec	-0.066316456
119	0xbe010fcb	-0.12603681
120	0xbd106643	-0.035253774
121	0x3ca140c9	0.019684212
122	0xbc9ea246	-0.019364487
123	0x3d8adaa4	0.06779984
124	0xbe2dc985	-0.16971405
125	0xbd961e88	-0.07330042
126	0x3d12abf5	0.035808522
127	0xbd0e4699	-0.034735296
128	0x3dbb8e5f	0.091580145
129	0xbdd8fa82	-0.105946556
130	0xbd77a733	-0.060462188
131	0xbe10d685	-0.14144333
132	0xbdd50f23	-0.10403278
133	0x3de88d05	0.11355022
134	0xbdd94b98	-0.106101215
135	0xbda3cb39	-0.07997746
136	0x3b3d6f3d	0.0028905415
137	0xbdf7cd57	-0.12099712
138	0xbd8facc9	-0.07015378
139	0xbd8892cb	-0.066686235
140	0x3c83d76c	0.016093932
141	0xbcb81c04	-0.022474296
142	0x3dd228c4	0.10261682
143	0x3dcbb774	0.099471
144	0xbc3429df	-0.010996311
145	0xbbed19c4	-0.0072357375
146	0xbdd3db0d	-0.10344515
147	0xbd95cd7f	-0.07314586
148	0xb9bc8be0	-0.0003596237
149	0xbe0a48d5	-0.13504346
150	0xbcba32d6	-0.022729319
151	0xbce29cf8	-0.02766274
152	0x3d894ac1	0.06703711
153	0xbd59c7c6	-0.053169034
154	0xbd0eda22	-0.034875996
155	0x3c59b04b	0.01328666
156	0x3dcf2596	0.10114591
157	0xbd4b9ff9	-0.04971311
158	0xb9617104	-0.00021499774
159	0xbda522bb	-0.08063265
160	0x3de970af	0.11398446
161	0x3d9baa7e	0.07600878
162	0xbe082ac5	-0.13297565
163	0x3d065289	0.032793555
164	0xbc35d855	-0.011098941
165	0xbd5306f9	-0.05152032
166	0x3d97f403	0.074195884
167	0xbdd3c90d	-0.10341082
168	0x3e08418d	0.13306256
169	0x3d8e8db9	0.06960625
170	0xbda3f1b6	-0.08005087
171	0xbd8e654c	-0.069529146
172	0x3d7f70c7	0.062363412
173	0x3d1d88f0	0.038460672
174	0xbd8aaa9e	-0.06770824
175	0xbdcad683	-0.09904196
176	0xbde3d72e	-0.11125027
177	0x3df7674a	0.12080248
178	0x3d8b8fa6	0.06814508
179	0xbc0f3a07	-0.008741862
180	0x3daa7502	0.08323099
181	0x3da5a74c	0.0808855
182	0xbdbd72a8	-0.092503846
183	0x3d9cd6e7	0.07658177
184	0xbd77dfee	-0.06051629
185	0xbce4d3ec	-0.027933083
186	0xbd5fb27b	-0.05461357
187	0xbd134ce8	-0.035962015
188	0xbc8855bd	-0.016642446
189	0x3dd17a8a	0.102284506
190	0xbd5c4181	-0.053773407
191	0xbd98b91a	-0.0745718

gru.bias_hh_l0 f4 [192]
0	0xbcbccef5	-0.023047904
1	0x3ddc0a04	0.10744098
2	0xbdb3f151	-0.08786262
3	0xbde6abca	-0.11263235
4	0xbcb58958	-0.022160217
5	0x3dd31b57	0.10307949
6	0xbd0e509f	-0.034744855
7	0x3c29dd9b	0.010367776
8	0x3c81a2dd	0.01582473
9	0xb9d0aff8	-0.00039803958
10	0xbda3fe63	-0.08007505
11	0x3dc9a839	0.09846539
12	0x3e030064	0.12793118
13	0xbc34af5f	-0.01102814
14	0x3cfa38eb	0.030544719
15	0xbd8a2b6b	-0.067465626
16	0x3df5a0b2	0.11993541
17	0x3d8abff1	0.06774891
18	0x3c0a5ead	0.008445424
19	0xbd96ab22	-0.0735686
20	0x3c177e30	0.009246394
21	0xbcd6a90a	-0.026203651
22	0xbb04b925	-0.0020251956
23	0xbd688187	-0.056764152
24	0x3cbd840f	0.02313426
25	0xbda22a9a	-0.07918282
26	0xbcf48e51	-0.029853018
27	0x3d76f7f9	0.06029508
28	0x3c8f6d24	0.017508097
29	0xbdf546f1	-0.119764216
30	0x3d47c466	0.048771285
31	0x3d54ebd4	0.051982716
32	0xbd816cc0	-0.063195705
33	0x3b4a8945	0.0030904573
34	0xbdefa6fb	-0.11701771
35	0xbdd86ee7	-0.10568028
36	0x3bede10a	0.0072594928
37	0xbd59b58a	-0.053151645
38	0xbe005df9	-0.12535848
39	0x3becd619	0.007227671
40	0x3c97ce22	0.018530909
41	0xbbc1c85a	-0.0059137763
42	0x3dcc9331	0.09989012
43	0x3d96fd48	0.07372528
44	0x3de96c9a	0.11397667
45	0x3dbf8558	0.09351605
46	0x3cc16ac5	0.023610482
47	0x3ac8ef77	0.0015330155
48	0xbd653a98	-0.055964082
49	0xbdee165f	-0.11625361
50	0xbd969e1c	-0.07354376
51	0xbd911233	-0.07083549
52	0x3daf77dd	0.08567784
53	0xbdaf0798	-0.0854637
54	0xbd4bc5e9	-0.04974929
55	0xbcdff6a2	-0.027339283
56	0x3a20ad9c	0.00061293854
57	0xbd56131a	-0.05226431
58	0xbddc4105	-0.10754589
59	0xbe016850	-0.12637448
60	0xbd355bd8	-0.044277042
61	0x3df02ade	0.11726926
62	0x3d7a4bd7	0.061107483
63	0xbda436b3	-0.080182455
64	0xbd6c17af	-0.057639774
65	0xbdc7f435	-0.09763376
66	0x3dadc12b	0.084841095
67	0x3cbe977c	0.023265593
68	0x3db8c9fe	0.09022902
69	0x3cc3a85a	0.023883987
70	0xbde4e9f9	-0.11177439
71	0x3b82f343	0.003996284
72	0xbdc17e40	-0.094479084
73	0x3e02f2ba	0.12787905
74	0xbde4227e	-0.11139391
75	0xbba1f436	-0.0049424423
76	0x3c965ec1	0.018355729
77	0xbc318b16	-0.010836383
78	0x3b87ff69	0.0041503203
79	0x3dbed8d4	0.093187004
80	0x3d3d4def	0.0462169
81	0xbdd6c640	-0.10487032
82	0x3d4243c1	0.047427896
83	0xbc077ec9	-0.008269974
84	0x3cf7a9ca	0.030232329
85	0x3cc57717	0.024104638
86	0xbd048065	-0.03234901
87	0xbd5ab832	-0.05339832
88	0xbc076352	-0.008263426
89	0x3bfd1f77	0.007724698
90	0xbc4126cc	-0.011789035
91	0xbdb6eefb	-0.08932301
92	0xbde80eec	-0.11330971
93	0x3c1bf89b	0.009519721
94	0xbdfb8043	-0.12280323
95	0xbdd0f251	-0.10202468
96	0xbc9aee52	-0.018912468
97	0xbd8a2872	-0.067459956
98	0x3d658207	0.056032207
99	0xbb003f56	-0.0019569
100	0xbbb3e521	-0.005489961
101	0x3d8a80ec	0.06762871
102	0x3b5e13be	0.003388628
103	0xbde1e904	-0.11030772
104	0x3d6fad5d	0.05851494
105	0xbde87c00	-0.11351776
106	0xbdd8f070	-0.10592735
107	0xbde8299d	-0.11336062
108	0x3d922a34	0.07136956
109	0x3d18f251	0.037340466
110	0x3c74bfe2	0.014938327
111	0x3d059534	0.032612994
112	0x3cb43d1e	0.0220018
113	0xbda8761f	-0.08225655
114	0x3d02ff5c	0.03198181
115	0xbddde015	-0.10833756
116	0x3da5f6e7	0.081037335
117	0xbe0e9922	-0.13925603
118	0xbdedd5f0	-0.11613071
119	0xbe083323	-0.13300757
120	0xbdf6b0fd	-0.120454766
121	0xbda63e0b	-0.081173025
122	0xbda2e317	-0.0795347
123	0x3d68cdc1	0.056836847
124	0xbd16f596	-0.036855303
125	0x3dbf3ea6	0.09338121
126	0xbd81db2f	-0.06340634
127	0xbda19cb1	-0.07891215
128	0xbd3635b6	-0.044484816
129	0x3cf7aafa	0.030232895
130	0x3d2cc188	0.042176753
131	0xbde3bc22	-0.11119868
132	0x3c054017	0.008132956
133	0x3d257af2	0.040400453
134	0x3b95fc33	0.0045771836
135	0x3e0495ba	0.12947741
136	0x3dc53abd	0.09630344
137	0xbd91c22b	-0.07117113
138	0xbc7f0f6e	-0.015567644
139	0x3d63fd64	0.055661574
140	0x3cc9068b	0.024539253
141	0xbdc662da	-0.09686823
142	0xbd96cab7	-0.073628835
143	0x3dc94d6c	0.0982922
144	0xbd727f60	-0.059203506
145	0x3de031db	0.10947009
146	0xbd9dac9c	-0.07698938
147	0x3caa6aeb	0.020802936
148	0x3ce3b387	0.027795566
149	0xbdaf4ff3	-0.08560171
150	0xbdd071e9	-0.10177977
151	0xbc8e42c5	-0.017365823
152	0xbd6a8368	-0.057254225
153	0xbd9053af	-0.070472114
154	0xbddccdf0	-0.10781467
155	0xbc479fae	-0.012184067
156	0xbb46b061	-0.0030317532
157	0xbd3166c0	-0.04331088
158	0x3d18f45b	0.03734241
159	0xbde8823f	-0.113529675
160	0x3db055fa	0.08610149
161	0x3d37fba8	0.044917732
162	0x3dd7a2f8	0.10529131
163	0xbe0893d8	-0.13337648
164	0x3d4f6ce6	0.050640963
165	0x3ddd2b41	0.10799266
166	0xbd82e25e	-0.06390832
167	0xbd29a4de	-0.041416995
168	0x3cf3e07d	0.02977013
169	0x3d05127f	0.032488342
170	0x3dc08fe6	0.094024464
171	0xb94dcbde	-0.0001962627
172	0x3d5bb09a	0.053635217
173	0x3b1122f3	0.0022146075
174	0x3d659687	0.056051757
175	0x3dce1f59	0.10064573
176	0x3dd3a70f	0.10334598
177	0x3dbd43c6	0.092414424
178	0xbdf2e5f3	-0.118602656
179	0x3d92ed30	0.07174146
180	0x3c541950	0.012945488
181	0xba50a21b	-0.0007958726
182	0x3dbf6501	0.09345437
183	0x3bbed02f	0.0058231573
184	0xbd659ed3	-0.05605967
185	0xbdca0ecd	-0.09866104
186	0x3c95e40c	0.018297218
187	0x3ddef457	0.10886448
188	0x3d6b3feb	0.057434004
189	0x3cf58bbe	0.02997386
190	0x3dcd9e31	0.10039938
191	0x3de8064f	0.11329328

gru.weight_ih_l0_reverse f4 [192, 16]
0	0xbd316d84	-0.043317333
1	0x3d233ffe	0.03985595
2	0x3d6d02f1	0.057864133
3	0x3ce03638	0.027369604
4	0xbd6d25a4	-0.057897225
5	0x3c2ba908	0.010477312
6	0x3db0c04e	0.08630429
7	0xbdc5f7a5	-0.09666375
8	0x3d808903	0.06276133
9	0x3d7e7b0c	0.062129065
10	0xbd587a30	-0.052850902
11	0x3d33940e	0.043842368
12	0xbd71394f	-0.058892544
13	0xbd6c637b	-0.05771206
14	0x3bc5fb0a	0.006041889
15	0x3d97ffdd	0.07421849
16	0xbd79b693	-0.060965132
17	0xbdb6d46c	-0.08927235
18	0xbc35173b	-0.011052902
19	0x3de8b864	0.11363295
20	0x3c835b3c	0.016034715
21	0x3d7d1545	0.061787862
22	0x3d063a96	0.032770716
23	0x3deb9e19	0.11504764
24	0x3ce9e114	0.028549708
25	0xbc3d3e97	-0.011550567
26	0x3dc3b6bc	0.09556338
27	0xbdc1be40	-0.094601154
28	0x3de4e27a	0.111760095
29	0xbcda4f2b	-0.026649078
30	0x3c89ddf5	0.01682947
31	0xbd20b6d9	-0.039236877
32	0x3ab08856	0.0013468366
33	0x3987491a	0.0002580367
34	0x3cd27b19	0.025693463
35	0x3dc71abf	0.09721898
36	0x3e1b9131	0.15192105
37	0x3b6540fe	0.0034981365
38	0xbc812764	-0.015765853
39	0x3d5e38f0	0.05425352
40	0xbe19b1d9	-0.1500925
41	0xbd1d9b57	-0.03847822
42	0xbddc4687	-0.107556395
43	0x3c7b6931	0.015344904
44	0x3ccaa2b1	0.02473578
45	0x3d277c5f	0.040890094
46	0x3cca8696	0.024722379
47	0x3dde5d6c	0.108576626
48	0x3d614535	0.05499764
49	0x3dec4cf1	0.11538113
50	0xbd994aaf	-0.07484948
51	0xbdb9e3cb	-0.09076651
52	0xbd723a38	-0.059137553
53	0x3dfb53ea	0.12271865
54	0xbdff62fd	-0.124700524
55	0x3d7e71eb	0.06212036
56	0xbd349fce	-0.044097714
57	0xbb61684a	-0.0034394437
58	0x3c878574	0.016543128
59	0x3cde1cb6	0.0271133
60	0xbdc5333d	-0.096289136
61	0x3e00347f	0.12520026
62	0xbdab427d	-0.08362291
63	0xbdd61ee9	-0.104551144
64	0x3dbbfcd5	0.09179083
65	0xbdac1e1d	-0.08404181
66	0x3de151f3	0.11001959
67	0xbdda86b0	-0.10670221
68	0xbda0d58b	-0.0785323
69	0xbd73f859	-0.059563015
70	0x3d754873	0.059883546
71	0x3ddd01ca	0.10791357
72	0xbd78bfe7	-0.060729887
73	0xbde1b081	-0.110199936
74	0xbdeb743d	-0.1149678
75	0x3d00b9ac	0.03142707
76	0xbcc35be0	-0.02384752
77	0x3c1a2136	0.009407332
78	0xbe002559	-0.12514247
79	0xbcd59269	-0.02607079
80	0xbde45a6d	-0.1115006
81	0x3ddc3eec	0.10754189
82	0x3d58e5c7	0.052953508
83	0xbca4c3dc	-0.020112924
84	0xbdb5f8e3	-0.08885362
85	0xbce45dc6	-0.027876746
86	0xbe0fa0e1	-0.14026214
87	0x3d824050	0.06359923
88	0x3d0c50ac	0.034256622
89	0xbe0d3c15	-0.1379245
90	0x3d9364dc	0.07196972
91	0x3d76c729	0.060248528
92	0xbe08a7a0	-0.13345194
93	0x3c4fcbd3	0.012682873
94	0xbdad1a0c	-0.08452234
95	0x3dcdb166	0.10043602
96	0xbe057d09	-0.13035978
97	0x3db2f644	0.08738378
98	0x3df76faa	0.12081845
99	0xbd6f91ba	-0.058488585
100	0xbb2e8dcd	-0.0026634813
101	0x3d969ec4	0.07354501
102	0x3a41a6d8	0.00073872274
103	0xbd27a7d3	-0.040931534
104	0xbcad6b57	-0.021169348
105	0xbc7cfc16	-0.015440961
106	0x3d950549	0.07276399
107	0x3df785da	0.12086077
108	0xbe0ee46e	-0.13954327
109	0xba14e914	-0.00056804833
110	0x3da635d7	0.08115738
111	0x3d257c14	0.040401533
112	0xbd62df33	-0.05538864
113	0x3dc8196d	0.097704746
114	0x3b9e93c4	0.0048393924
115	0x3d1ec788	0.038764507
116	0x3de39267	0.111119084
117	0x3ca1a70d	0.019732976
118	0x3d158077	0.036499467
119	0xbdd12327	-0.10211783
120	0x3db919c6	0.09038119
121	0x3d67fecf	0.05663949
122	0xbc63139a	-0.013859654
123	0x3d197997	0.037469473
124	0x3df8b124	0.12143162
125	0xbdba7f2e	-0.09106289
126	0xbb6ab5f1	-0.0035814012
127	0xbd897f0d	-0.06713686
128	0xbe1b0b71	-0.15141083
129	0x3d38886b	0.045051973
130	0xbb74ca61	-0.0037352073
131	0xbe16b7b5	-0.14718516
132	0x3dae9d88	0.085261405
133	0xbda182b2	-0.07886256
134	0xbc7d1e5a	-0.015449131
135	0xbcc75271	-0.024331303
136	0x3dab5ac3	0.08366921
137	0xbd065c85	-0.032803077
138	0x3d64eecb	0.055891793
139	0x3c4212e7	0.011845327
140	0xbd5e3710	-0.05425173
141	0x3d669297	0.056292143
142	0x3d783393	0.06059606
143	0xbe15b2db	-0.14619009
144	0xbd54316e	-0.051804952
145	0x3dc1993d	0.09453056
146	0xbd2f51ad	-0.0428025
147	0xbcb9541e	-0.022623118
148	0xbd395164	-0.045243636
149	0xbd2cd627	-0.04219642
150	0xbd9cb289	-0.076512404
151	0xbd89aacb	-0.06722029
152	0x3dc6c57a	0.097056344
153	0x3d971cf4	0.07378569
154	0x3db17543	0.08664944
155	0x3d881bf5	0.066459574
156	0xbc8d1b08	-0.017224804
157	0x3cdbe2d4	0.026841559
158	0xbd1baeb4	-0.038008407
159	0x3d83ab5a	0.06429167
160	0x3dcc1aa8	0.09966022
161	0xbe0ffea7	-0.14061986
162	0x3d2f0a35	0.042734344
163	0xbc9a0fcc	-0.01880636
164	0xbe1a08ce	-0.15042421
165	0xbd2c64a6	-0.042088173
166	0xbd076a92	-0.033060618
167	0xbd8c9ae2	-0.06865479
168	0xbccd33c5	-0.0250491
169	0x3d022bf1	0.031780187
170	0x3db62051	0.088928826
171	0x3ddf85e7	0.10914212
172	0xbca4ddbf	-0.020125268
173	0x3d0a5c83	0.033779632
174	0xbdb1c01c	-0.0867922
175	0xbce64af1	-0.028111907
176	0x3d62e41b	0.05539332
177	0x3d2cdfe9	0.042205725
178	0xbd0a27e0	-0.033729434
179	0x3d57895c	0.05262123
180	0xbd87a828	-0.0662387
181	0xbc9b827f	-0.018983124
182	0x3d471def	0.04861253
183	0x3d46a2f1	0.048495237
184	0xbbaea2bf	-0.0053294594
185	0x3dd8e1b7	0.10589927
186	0xbc978db5	-0.018500188
187	0x3d2d948e	0.042378
188	0x3c23fd28	0.010009088
189	0x3d0542b8	0.03253433
190	0x3d807654	0.06272569
191	0xbcc5f5be	-0.02416503
192	0x3e1e3667	0.1545044
193	0xbcaacbf2	-0.020849202
194	0x3cf85ae6	0.030316781
195	0x3de1dcc3	0.11028435
196	0xbd9dc302	-0.077032104
197	0x3d70af33	0.058760833
198	0xbdc70e4f	-0.09719526
199	0xbd9c3003	-0.07626345
200	0x3dc13850	0.09434569
201	0x3db9598e	0.09050284
202	0x3d2609c3	0.040536653
203	0xbd46f810	-0.048576415
204	0x3c631d8d	0.013862026
205	0xbe02af32	-0.12762144
206	0x3dfe66d0	0.12421954
207	0x3cecd4fc	0.028910153
208	0xbd554172	-0.052064367
209	0x3df58b01	0.119894035
210	0xbd29d83e	-0.04146599
211	0x3dbb60c0	0.09149313
212	0xbd4c3d30	-0.04986304
213	0x3bedc053	0.007255593
214	0x3af80fcb	0.0018925605
215	0xbdfdea50	-0.12398207
216	0xbdaf1322	-0.08548571
217	0xbda4518c	-0.08023366
218	0xbde368aa	-0.111039475
219	0xbd40fc86	-0.047115825
220	0x3dc3cca4	0.095605165
221	0x3d9ab0c9	0.0755325
222	0xbda6b92d	-0.08140788
223	0xbdf1ae8a	-0.11800869
224	0x3d5bc167	0.05365124
225	0xbdb21a4e	-0.086964235
226	0xbce89e8d	-0.028395915
227	0xbdddcb85	-0.10829834
228	0xbb652000	-0.00349617
229	0xbd193c08	-0.037410766
230	0x3d5f7798	0.054557413
231	0xbdcace24	-0.099025995
232	0xbdec213e	-0.11529778
233	0xbd83ced4	-0.06435934
234	0x3e019b53	0.12656908
235	0x3d6c368a	0.0576692
236	0x3dd7b4bf	0.105325215
237	0x3daee162	0.08539082
238	0x3d52b97d	0.051446427
239	0xbd28a8c9	-0.04117659
240	0x3d87ce5e	0.06631158
241	0x3dd8c41b	0.10584279
242	0xbc48f33b	-0.012265022
243	0xbd0de2af	-0.03464001
244	0x3d082088	0.03323415
245	0xbdae39d2	-0.08507122
246	0xbc623b35	-0.013808061
247	0x3daa92b5	0.083287634
248	0x3dd345d7	0.10316055
249	0x3cf44b2e	0.029821005
250	0x3d62b43d	0.05534767
251	0x3babe316	0.0052455766
252	0x3dc9533a	0.09830327
253	0xbc94c6cb	-0.018161198
254	0xbd769381	-0.060199264
255	0xbdcf9133	-0.101351164

gru.weight_hh_l0_reverse f4 [192, 64]
0	0x3dd110b3	0.10208263
1	0x3d6f17a8	0.05837217
2	0xbd55c7a9	-0.052192364
3	0x3dbe1052	0.092804566
4	0x3d71dcf2	0.0590486
5	0xbdc3aadd	-0.09554074
6	0xbbca25f0	-0.0061690733
7	0xbda87df1	-0.082271464
8	0xbd1494a7	-0.03627458
9	0x3dfb22c0	0.122624874
10	0xbcc9362a	-0.02456196
11	0x3d8e7c08	0.06957251
12	0xbb024478	-0.0019877236
13	0xbdcedcd9	-0.10100717
14	0x3d18577c	0.037192807
15	0x3ca1b0f3	0.019737696
16	0x3daa2261	0.083073385
17	0xbdc383ea	-0.09546645
18	0xbd1310be	-0.03590464
19	0x3df1f5b8	0.11814445
20	0x3dfc35d5	0.12314955
21	0xbd1e7f07	-0.03869536
22	0x3c43d9c0	0.011953771
23	0x3cd9f788	0.02660729
24	0x3ddc091e	0.107439265
25	0x3d502e9d	0.050825704
26	0x3ddd4ec0	0.10806036
27	0xbc866e45	-0.016410002
28	0x3c96dccd	0.018415833
29	0xbdd7c621	-0.10535837
30	0xbdc5c30b	-0.09656342
31	0xbdd25cfe	-0.10271643
32	0x3e0040e9	0.12524761
33	0x3dc849c2	0.09779693
34	0x3d4fa4ce	0.05069428
35	0x3d114a55	0.03547128
36	0xbd9d553f	-0.07682275
37	0xbd19ff9c	-0.037597284
38	0x3dcb0306	0.09912686
39	0x3caa96ac	0.0208238
40	0x3dc9f7cf	0.09861719
41	0x3c2a771b	0.0104043735
42	0xbd8a6aa1	-0.06758619
43	0xbc3c3086	-0.011486178
44	0xbd15be95	-0.036558706
45	0xbd2e8bcf	-0.0426138
46	0x3dac775f	0.08421206
47	0xbda194fc	-0.07889745
48	0x3d282ef1	0.04106039
49	0xbdd7d3d5	-0.10538451
50	0x3db7ff8a	0.08984287
51	0xbd9cf8d4	-0.07664648
52	0x3c8184b1	0.015810343
53	0x3d5e13b7	0.05421802
54	0xbdb84fca	-0.089995936
55	0xbdefe845	-0.11714224
56	0xbc560a80	-0.013064027
57	0x3db8a39e	0.090155825
58	0x3cfe78f9	0.031063544
59	0xbddb129b	-0.10696908
60	0xbdd35b0c	-0.103201
61	0xbdd45853	-0.10368409
62	0x3cc7a275	0.024369458
63	0x3dfcb019	0.123382755
64	0x3e0f902e	0.14019844
65	0x3e093b20	0.1340146
66	0x3ccbca31	0.024876686
67	0x3de01c88	0.10942942
68	0x3ca1979a	0.01972561
69	0xbbf2cd5a	-0.0074097337
70	0x3dce9a30	0.10088003
71	0x3d4fd556	0.050740562
72	0x3df3b95c	0.11900589
73	0x3d7648cf	0.06012803
74	0xbdf82c89	-0.121178694
75	0xbe065241	-0.13117315
76	0x3da9ac3e	0.08284806
77	0xbdf304f9	-0.11866183
78	0xbd47d0a6	-0.048782967
79	0x3d7cd0e9	0.06172267
80	0xbcbbfe50	-0.022948414
81	0xbd8e5a5e	-0.0695083
82	0xbd7d550d	-0.06184869
83	0x3d9d425e	0.07678674
84	0x3d7b411b	0.061341386
85	0xbd0eb84c	-0.034843728
86	0x3d71bef3	0.059019994
87	0x3e02a4f7	0.12758242
88	0xbd9fe120	-0.07806611
89	0xbd00a01b	-0.03140269
90	0x3da6ebf3	0.081504725
91	0x3d8c3adc	0.06847164
92	0xbd83d4be	-0.06437062
93	0xbd9befdb	-0.07614108
94	0xbb9076f9	-0.004408714
95	0xbcd5e4a1	-0.026109995
96	0xbe0a2c93	-0.13493566
97	0xbdb5994e	-0.08867131
98	0x3d8e0ed4	0.06936422
99	0xbd1578fe	-0.03649234
100	0xbdb9f491	-0.090798505
101	0xbc45e268	-0.012077905
102	0xbd921c0a	-0.07134254
103	0xbdae106b	-0.08499225
104	0xbc3d34da	-0.011548245
105	0x3c8fc7a8	0.017551258
106	0xbdae7923	-0.08519199
107	0xbe02e272	-0.12781695
108	0xbe07a5df	-0.13246869
109	0x3d8632bd	0.06552646
110	0x3e014666	0.12624511
111	0xbd19a8a7	-0.037514355
112	0xbcf8752c	-0.03032931
113	0x3d402b3a	0.046916224
114	0x3cb8b967	0.022549344
115	0x3cbf7d89	0.02337529
116	0xbbde09a2	-0.0067760507
117	0x3d7f9712	0.06239993
118	0x3cbf9e09	0.023390787
119	0x3d7a4a61	0.06110609
120	0x3dee8e17	0.11648195
121	0x3db054a6	0.086098954
122	0xbdf4376f	-0.119246356
123	0xbe14eee6	-0.14544258
124	0xbcb75e83	-0.022383934
125	0xbe13a6b4	-0.14419061
126	0x3db47d49	0.08812959
127	0xbde9f2bd	-0.11423252
128	0x3c8dfb92	0.017331872
129	0x3ce34f71	0.027747842
130	0x3dfefbe8	0.12450391
131	0xbe0657bf	-0.1311941
132	0x3dca7039	0.09884686
133	0xbdbf9f48	-0.09356552
134	0xbd695a42	-0.056970842
135	0x3dbacee5	0.09121493
136	0xbccc6bd5	-0.024953762
137	0xbd9ef867	-0.07762223
138	0xbdc43b2a	-0.09581597
139	0xbdcef9d6	-0.10106246
140	0x3db78abb	0.089620076
141	0xbaa98de1	-0.001293596
142	0x3dadd013	0.08486953
143	0x3de14b02	0.11000635
144	0xbd6898c0	-0.0567863
145	0x3c912b67	0.017720891
146	0x3d8ffcfc	0.07030675
147	0x3d19b469	0.03752557
148	0x3cb8809a	0.02252226
149	0x3c8f8005	0.0175171
150	0xbcd39cc4	-0.025831588
151	0x3dfb2779	0.12263388
152	0x3c88804e	0.016662743
153	0x3dee939f	0.1164925
154	0xbd9b426c	-0.07581028
155	0xbdad6a80	-0.08467579
156	0x3d18e685	0.037329216
157	0xbd653c07	-0.05596545
158	0xbbe8c082	-0.007103027
159	0xbd1675c7	-0.036733415
160	0x3c278b3b	0.010226066
161	0x3d1063f3	0.03525157
162	0x3d52fec4	0.051512495
163	0xbd58088a	-0.05274252
164	0x3db80caa	0.089867905
165	0xbda6b41e	-0.081398234
166	0xbd579559	-0.052632663
167	0xbd230bbc	-0.039806113
168	0xbb87f163	-0.0041486486
169	0x3dc7cb1f	0.09755539
170	0x3c8c5f8a	0.0171354
171	0x3c51229e	0.012764601
172	0xbdd0e0b3	-0.10199108
173	0x3d8e4070	0.06945884
174	0xbd8e6426	-0.069526955
175	0xbdb6c0d2	-0.08923496
176	0xbda54e12	-0.08071531
177	0x3d0dd666	0.034628294
178	0xbdbbc152	-0.09167732
179	0x3cc2fad7	0.02380125
180	0x3cb94433	0.022615528
181	0xbc8492c5	-0.016183266
182	0x3df733d4	0.12070432
183	0x3d89ccae	0.06728493
184	0x3dc3a22d	0.09552417
185	0xbdde2eca	-0.10848768
186	0xbe1c084b	-0.15237539
187	0xbd0cca54	-0.034372643
188	0xbdd59dee	-0.10430513
189	0xbd40368d	-0.046927024
190	0x3de04727	0.10951071
191	0xbddfa2f8	-0.10919756
192	0x3dc2db9b	0.09514543
193	0x3d11c2f3	0.03558631
194	0x3dfaf29d	0.12253306
195	0xbdf4545d	-0.119301535
196	0x3d7c27e5	0.061561484
197	0x3de80e03	0.113307975
198	0x3d93d28e	0.072178945
199	0x3dc36c7b	0.095421754
200	0xbd5f07b6	-0.054450713
201	0x3c89d3e6	0.016824674
202	0xbd9df94b	-0.077135645
203	0xbcaeb9f8	-0.021328911
204	0x3de0b14c	0.10971317
205	0xbdda3c6f	-0.10656058
206	0xbd7f6d5e	-0.06236016
207	0xbcac155b	-0.021006277
208	0x3d5c7f2a	0.05383221
209	0xbe11eaeb	-0.1424977
210	0x3d64bc24	0.055843487
211	0x3daf8537	0.085703306
212	0xbdd49d76	-0.10381596
213	0x3d0c41fa	0.034242608
214	0x3da3ff3f	0.08007669
215	0x3c830a42	0.015996102
216	0x3deb4638	0.114880025
217	0x3ba7117a	0.005098519
218	0xbc290231	-0.010315464
219	0x3d6275d8	0.055288166
220	0x3ddd9469	0.108193226
221	0x3c23c9fa	0.009996885
222	0xbdc404db	-0.095712386
223	0x3da3d09e	0.07998775
224	0xbd35a500	-0.04434681
225	0x3d2280f3	0.039673757
226	0x3d8e35fd	0.06943891
227	0x3cafa370	0.021440238
228	0xbda4529c	-0.08023569
229	0x3d5f55f6	0.054525338
230	0xbe0a1b3b	-0.1348695
231	0x3c660139	0.014038377
232	0xbc8170d9	-0.01580088
233	0x3d44c9c8	0.048043996
234	0x3d9810fc	0.074251145
235	0x3c3edd01	0.011649371
236	0x3ddfa099	0.109193034
237	0xbdcd21ae	-0.100161895
238	0xbdf8bb1e	-0.12145065
239	0x3d614e9e	0.055006616
240	0x3d3ecdfc	0.04658316
241	0x3c562eb3	0.013072657
242	0x3d973d0b	0.0738469
243	0x3db75168	0.08951074
244	0xbcfef675	-0.03112338
245	0x3da54cbe	0.08071278
246	0xbcb1f9de	-0.021725591
247	0x3db24127	0.08703833
248	0x3d8b671f	0.06806778
249	0x3dd977eb	0.10618576
250	0xbdea8b4e	-0.114523515
251	0x3df60c61	0.1201408
252	0x3cab433e	0.020906087
253	0x3e0d223a	0.13782588
254	0x3d76dd2d	0.060269523
255	0x3ce526e9	0.027972655

gru.bias_ih_l0_reverse f4 [192]
0	0x3d09e2d8	0.0336636
1	0xbca073ec	-0.019586526
2	0xbc17f9ad	-0.009275836
3	0x3b618cac	0.0034416122
4	0xbd7237a4	-0.059135094
5	0xbddeb9d3	-0.10875287
6	0x3d8f417e	0.069949135
7	0x3d545680	0.051840305
8	0x3dcb97fd	0.09941099
9	0xbbc227a4	-0.0059251357
10	0xbdaa3efd	-0.08312795
11	0xbd64d172	-0.055863805
12	0xbbb21dc3	-0.005435677
13	0x3cceb9f7	0.02523516
14	0xbdc4a1ff	-0.09601211
15	0x3bc20d6e	0.005922011
16	0x3daaac9a	0.083337024
17	0x3dedfc64	0.11620405
18	0xbc322f81	-0.010875584
19	0xbdb0b070	-0.08627403
20	0x3d3d22ec	0.046175882
21	0x3da78795	0.08180157
22	0x3d71dd93	0.0590492
23	0xbe00dfb5	-0.12585337
24	0xbb4ca375	-0.0031225358
25	0xbd91cc0f	-0.07118999
26	0xbdc598e1	-0.096483
27	0x3da52ea7	0.08065539
28	0x3dc6720c	0.096897215
29	0x3dadb621	0.08482004
30	0xbde50f3b	-0.111845456
31	0x3d7354e8	0.059407145
32	0xbd77d6cf	-0.06050759
33	0x3d351a3a	0.044214465
34	0xbdc2435a	-0.094855025
35	0x3d6d9d7b	0.058011513
36	0x3dfb6f11	0.122770436
37	0xbd247070	-0.04014629
38	0x3d7d9a4c	0.061914727
39	0x3d5242e7	0.051333334
40	0x3d362876	0.04447218
41	0xbd3f1be3	-0.046657454
42	0x3c8c992f	0.017162887
43	0x3de38f9f	0.11111378
44	0x3d535b4e	0.051600747
45	0xbd4d40c4	-0.050110593
46	0xbcb79e95	-0.022414485
47	0x3dcbae09	0.09945304
48	0x3b88a835	0.0041704425
49	0x3d511bf2	0.05105204
50	0x3d5ffdd6	0.054685436
51	0xbd112cfa	-0.035443284
52	0x3df0e567	0.11762505
53	0x3dabd24e	0.08389722
54	0x3d702d08	0.058636695
55	0x3d529de2	0.0514201
56	0xbd6802d8	-0.056643337
57	0xbd4e0402	-0.05029679
58	0x3d86ec4a	0.06588037
59	0xbd62fc58	-0.055416435
60	0xbd5ee214	-0.054414824
61	0xbc661e5c	-0.014045324
62	0xbd8bde04	-0.068294555
63	0xbd711808	-0.05886081
64	0xbdecb860	-0.11558604
65	0xbddfce6d	-0.109280445
66	0x3c3b004c	0.011413645
67	0xbdd7b0c4	-0.10531762
68	0xbde5c5ac	-0.112193435
69	0xbdf66f63	-0.12032964
70	0xbcf7e108	-0.03025867
71	0x3de50a1b	0.11183568
72	0xbd839821	-0.06425501
73	0x3d249b09	0.040186916
74	0xbdfde294	-0.12396732
75	0x3d0d1d65	0.03445186
76	0xbc0cd7bf	-0.00859636
77	0x3d9a4ff1	0.07534779
78	0x3cbf0a7b	0.023320427
79	0xbd40841d	-0.047000993
80	0xbc1a5cc3	-0.00942153
81	0xbdeeb1bf	-0.11654996
82	0xbd9b3336	-0.07578127
83	0xbdf222d0	-0.11823046
84	0xbd886452	-0.066597596
85	0x3d853399	0.06503982
86	0x3d27984c	0.040916726
87	0xbdc2e87a	-0.09516998
88	0xbdb6580d	-0.08903513
89	0xbceba48f	-0.028764991
90	0x3c065958	0.008200012
91	0x3d4bcabd	0.049753893
92	0x3df87c03	0.12133028
93	0x3dc0b00a	0.09408577
94	0xbd8a9ef2	-0.06768598
95	0xbc5cc562	-0.013474794
96	0xbe138a92	-0.14408329
97	0x3ccc3af0	0.024930447
98	0x3db7db02	0.08977319
99	0xbe06a13e	-0.13147447
100	0x3d1255e6	0.03572645
101	0xbc956104	-0.018234737
102	0xbdd7401a	-0.10510273
103	0xbd8a4252	-0.06750931
104	0xbd90d398	-0.07071608
105	0xbe0e7c9e	-0.13914725
106	0xbd12cbdb	-0.035838943
107	0xbd33cc49	-0.043895993
108	0xbd26f604	-0.040761963
109	0xbdda7195	-0.10666195
110	0x3df40bcc	0.119163126
111	0xbd87f81e	-0.066391215
112	0x3da85560	0.08219409
113	0xbe10ccd2	-0.14140633
114	0x3b16a314	0.0022985386
115	0x3d89f5d6	0.067363426
116	0xbd0b3db5	-0.033994395
117	0xbde50df1	-0.111843
118	0xbd4c1078	-0.049820393
119	0xbdbbbe79	-0.09167189
120	0xbd86de5c	-0.065853804
121	0x3d9eaf37	0.07748263
122	0xbdf1b8c6	-0.11802821
123	0xbd4d687c	-0.050148472
124	0xbd730a53	-0.059336018
125	0x3d913bbc	0.070914716
126	0x3d68e7b4	0.056861594
127	0xbdc189b3	-0.09450092
128	0xbdd06306	-0.10175137
129	0x3d13c44c	0.036075875
130	0x3ad6be70	0.0016383659
131	0xbd203587	-0.039113548
132	0xbde1b579	-0.11020941
133	0x3bdad02a	0.006677647
134	0xbd3856c9	-0.04500464
135	0x3cd499d9	0.025952267
136	0x3d6d088e	0.057869487
137	0x3d954f30	0.072904944
138	0x3d9f5f2d	0.07781825
139	0xbd9337ba	-0.071883634
140	0xbe1575f9	-0.14595784
141	0xbe12404b	-0.14282338
142	0x3d8d99cc	0.069141
143	0xbcc74457	-0.02432458
144	0xbd8e43e4	-0.06946543
145	0x3da66ee2	0.08126618
146	0xbde3ca68	-0.1112259
147	0x3c72a5ef	0.014810069
148	0xbd4a2f0a	-0.049361266
149	0xbd6f2fde	-0.05839526
150	0xbd1f516d	-0.038896013
151	0x3db72cbe	0.08944081
152	0xbcce2d8f	-0.025168208
153	0xbdef1934	-0.11674729
154	0xbd8d3b87	-0.068961196
155	0xbd846128	-0.064638436
156	0xbdfa7da5	-0.12230996
157	0xbd911dc6	-0.07085757
158	0x3dfb2a9b	0.12263986
159	0x3e055c56	0.13023505
160	0xbda35f95	-0.07977215
161	0xbd9a94fb	-0.07547947
162	0x3da8819e	0.082278475
163	0x3d662885	0.056190986
164	0x3b7dca37	0.0038725266
165	0xbcc592e6	-0.024117898
166	0x3ccc322c	0.024926268
167	0x3d0a416c	0.033753797
168	0xbdfc7827	-0.12327605
169	0xbde13398	-0.10996169
170	0x3d790614	0.060796812
171	0x3c963d77	0.018339856
172	0xbe0cec70	-0.13762069
173	0x3e0e5263	0.13898616
174	0x3e03a5b7	0.12856184
175	0xbcb674ba	-0.022272456
176	0xbc8fde85	-0.01756216
177	0x3d2e459d	0.042546857
178	0x3e0a1d02	0.13487628
179	0xbbd0f0fb	-0.0063763834
180	0x3de6cf39	0.11269993
181	0x3dde06a5	0.10841111
182	0xbc06fc7a	-0.008238906
183	0x3d13dc79	0.03609893
184	0x3dfdd8e2	0.12394883
185	0x3dd8995b	0.10576125
186	0x3de527ab	0.11189207
187	0xbdb56b1e	-0.088583216
188	0xbd4dc0d0	-0.05023271
189	0xbdacb136	-0.08432238
190	0x3cdd2cd9	0.026998924
191	0xbcce8b74	-0.02521298

gru.bias_hh_l0_reverse f4 [192]
0	0xbc2c41af	-0.010513707
1	0xbc8043a9	-0.015657263
2	0xbd8590d5	-0.06521765
3	0x3dc8c8ad	0.09803901
4	0x3d4d52ec	0.05012791
5	0xbcde63aa	-0.027147133
6	0xbcd24327	-0.025666786
7	0x3d851d13	0.06499686
8	0xbde891db	-0.11355945
9	0x3d487edd	0.04894911
10	0x3dc5507d	0.096344925
11	0xbd768966	-0.060189627
12	0x3d8540a5	0.065064706
13	0xbd2edf00	-0.042693138
14	0x3e09a3af	0.13441347
15	0xbd4b6f07	-0.04966643
16	0xbd20889c	-0.03919278
17	0x3e079c81	0.13243295
18	0x3dd517b5	0.104049124
19	0x3d8e80de	0.06958173
20	0x3dd69e52	0.10479416
21	0xbd4f4915	-0.050606806
22	0x3dd865ae	0.10566269
23	0xbda5beb1	-0.08093012
24	0xbc9c7b78	-0.019101843
25	0xbd8f57bd	-0.069991566
26	0xbd7c40b4	-0.061585143
27	0x3d2d4d60	0.04231012
28	0x3b57ef96	0.00329492
29	0xbdd8e53f	-0.105906
30	0xbd9767eb	-0.07392868
31	0x3de43d41	0.11144496
32	0x3d8198ee	0.06327997
33	0xbb50ab58	-0.003184041
34	0x3d3c2cab	0.045941036
35	0x3d8d1044	0.06887868
36	0x3af48d64	0.001865786
37	0xbdb0a6e1	-0.086255796
38	0x3d7f2430	0.06229037
39	0xbdfd9e59	-0.12383718
40	0xbdc55750	-0.09635794
41	0x3de523ed	0.11188493
42	0xbdc18b0e	-0.09450351
43	0x3e081d1f	0.13292359
44	0x3c2375c5	0.009976809
45	0x3995c0bc	0.00028563093
46	0xbcb12865	-0.021625707
47	0x3d9f367f	0.07774066
48	0xbde7a530	-0.11310804
49	0xbdc393eb	-0.095496975
50	0xbdacb33d	-0.084326245
51	0x39f2d1c8	0.00046314136
52	0xbd99aad7	-0.07503288
53	0x3dcc28ae	0.099686965
54	0x3dc08921	0.09401155
55	0xbba1a0f4	-0.004932517
56	0xbd6e531c	-0.058184728
57	0x3d7a8a74	0.061167195
58	0xbd5f4f60	-0.054519057
59	0xbdf99027	-0.12185698
60	0xbd9ec06c	-0.07751545
61	0x3dba9877	0.091111116
62	0xbd2b7261	-0.041857127
63	0xbdf627dc	-0.12019321
64	0x3ddcb4de	0.10776685
65	0xbd9326a1	-0.07185102
66	0x3d27befd	0.040953625
67	0xbd501a93	-0.050806593
68	0xbe0a19a9	-0.13486351
69	0xbd41d7cd	-0.047324944
70	0x3c4b81ff	0.01242113
71	0xbccec1c2	-0.025238875
72	0xbdaaec4f	-0.083458535
73	0xbdcc53c5	-0.09976915
74	0xbdda062e	-0.1064571
75	0xbd9bb388	-0.07602602
76	0xbd123e61	-0.03570402
77	0x3d243ac9	0.040095124
78	0xbd8fe263	-0.07025602
79	0xbb8384cd	-0.004013634
80	0x3c5a4d8d	0.013324154
81	0x3db584f1	0.08863247
82	0x3dd7f3e8	0.10544568
83	0xbdc27e6c	-0.09496769
84	0xbd67be63	-0.05657805
85	0x3de2a6f5	0.11067001
86	0xbd9f0c49	-0.07766015
87	0xbd9fc594	-0.07801357
88	0xbd17298b	-0.036904853
89	0x3c657845	0.014005725
90	0xbdc1dbed	-0.09465776
91	0xbc49d32d	-0.012318415
92	0x3dc63db1	0.096797355
93	0xbcee71a5	-0.029106924
94	0xbd24d7d6	-0.0402449
95	0xbd18e7b2	-0.037330337
96	0xbe074d50	-0.13213086
97	0xbd4697d8	-0.048484653
98	0x3d4d90e2	0.050187
99	0xbe026c80	-0.12736702
100	0x3d855f82	0.06512357
101	0x3ce4bfe8	0.02792354
102	0xbd308eb8	-0.043104857
103	0xbde0d15c	-0.10977432
104	0xbe0e761a	-0.1391224
105	0xbda27b19	-0.07933635
106	0x3d7c5b32	0.061610408
107	0x3c8f9c50	0.01753059
108	0xbd9f7e21	-0.07787729
109	0xbde19ba7	-0.110160165
110	0x3cbfd0c9	0.023414986
111	0xbd217be8	-0.039424807
112	0xbdb710d2	-0.08938755
113	0xbd8afc1d	-0.06786368
114	0x3b26104f	0.002533931
115	0x3d66cd87	0.05634835
116	0x3d9fb658	0.07798451
117	0xbe07bddd	-0.13256021
118	0x39f05d86	0.00045846048
119	0xbdadad19	-0.084802814
120	0x3d65e45f	0.056125995
121	0xbdb4b963	-0.08824422
122	0xbdbee864	-0.09321669
123	0x3dbf7881	0.09349156
124	0x3d983103	0.07431223
125	0x3d9b5108	0.07583815
126	0x3ce15fbc	0.02751147
127	0xbe143460	-0.14473104
128	0x3e0492f5	0.12946685
129	0x3df20da1	0.11819006
130	0x3d480441	0.04883218
131	0xbdbd31c3	-0.09238007
132	0x3d888be1	0.06667305
133	0xbd9d8f7f	-0.07693385
134	0x3dd60ff7	0.10452264
135	0x3d488e07	0.048963573
136	0xbdf548d7	-0.11976784
137	0xbe0d9c82	-0.13829234
138	0xbaad80ea	-0.0013237272
139	0xbd58e644	-0.052953973
140	0xbe099aa4	-0.13437897
141	0x3ca8b4cc	0.020594023
142	0x3d2b2417	0.041782465
143	0x3d9f7c41	0.077873714
144	0x3d6dae4f	0.05802756
145	0x3d962b09	0.07332427
146	0x3c3f3587	0.011670477
147	0x3d090789	0.03345445
148	0x3cf4186c	0.029796802
149	0xbbc199f3	-0.0059082448
150	0x3cd9a273	0.02656672
151	0x3deacb45	0.11464552
152	0xbdec17a5	-0.11527947
153	0xbda81af2	-0.082082644
154	0xbda017b9	-0.07817025
155	0x3db7b8fb	0.08970829
156	0x3cbef22d	0.023308838
157	0x3d13a588	0.036046535
158	0x3e0022ac	0.12513226
159	0xbcbf2ead	-0.023337686
160	0x3d62da4c	0.055383965
161	0x3d4eb573	0.050466012
162	0x3dc753e0	0.09732795
163	0x3c9090af	0.017647116
164	0x3dd80c47	0.10549217
165	0xbd6f1d30	-0.058377445
166	0x3d7e29fe	0.062051766
167	0x3cdb17a1	0.026744666
168	0x3d1c7d0b	0.038205188
169	0xbdbc7cce	-0.09203492
170	0x3d9a4080	0.07531834
171	0xbdcaac15	-0.09896103
172	0xbdf45cca	-0.119317606
173	0x3dbe4f8c	0.09292516
174	0xbda9e141	-0.08294917
175	0x3d07e5c5	0.03317811
176	0xbd8c15af	-0.06840073
177	0x3d91bc7e	0.0711603
178	0xbdd3c483	-0.10340216
179	0xbd3a5155	-0.04548772
180	0x3d29dbf2	0.04146952
181	0x3d5a94de	0.053364627
182	0xbd94eaf0	-0.07271373
183	0xbdb4aef4	-0.08822432
184	0xbcce089b	-0.025150588
185	0x3cc916ad	0.024546945
186	0xbd4b71c8	-0.049669057
187	0xbdd11d0f	-0.102106206
188	0xbc8ee4e3	-0.017443126
189	0xbd9c8b53	-0.076437615
190	0xbde75874	-0.11296168
191	0x3d9a2fee	0.07528673
