try3_simDataset3/30bp_SingleNonConserved_s3_UnifBG_fullytrainedGen.pth (torch, 68289 bytes, 7 tensors)

embeddings.weight f4 [6, 16]
0	0x3fb50f42	1.4145281
1	0xbe66d26d	-0.22541209
2	0xbf4bf39e	-0.79668605
3	0xbf644a02	-0.89175427
4	0xbf4e932c	-0.80693316
5	0x3e7ae657	0.2450193
6	0x3f137a63	0.5760862
7	0xbf5c719b	-0.8611085
8	0xc00e70b5	-2.225629
9	0x3e94344a	0.28946143
10	0xbf44d4b5	-0.76887065
11	0xbece3410	-0.40274096
12	0xbf3d3a80	-0.7391739
13	0x3f079073	0.52954787
14	0xbfa5c51e	-1.295078
15	0x3f035dca	0.51314986
16	0x3d7d1cae	0.06179493
17	0x3f3f5e56	0.7475332
18	0x3ed310a5	0.41223636
19	0x3fe8df58	1.8193159
20	0xbf9265c0	-1.1437302
21	0xbfd38873	-1.6526016
22	0x3f917b26	1.1365707
23	0xbf893874	-1.0720353
24	0x3fcd05c8	1.6017389
25	0x3fa94d5d	1.3226734
26	0xbf2a5515	-0.66536075
27	0xbec48148	-0.38379884
28	0xbf77a57c	-0.96736884
29	0x3fae0ac1	1.3597032
30	0xbf48d5df	-0.7845134
31	0xbe587f91	-0.21142413
32	0x3e1e4daa	0.15459314
33	0xbe8575fe	-0.26066583
34	0x4018327f	2.378082
35	0x3f3498f9	0.7054592
36	0xbe9c9da8	-0.30589032
37	0x3ec8f51d	0.39249507
38	0x3f574556	0.84090173
39	0xbe594a57	-0.21219765
40	0xbceed663	-0.029154962
41	0x3fb4e13c	1.4131236
42	0x3e2c2b39	0.16813363
43	0x3fb79b49	1.4344264
44	0x402ed72e	2.7318835
45	0xbfafc47b	-1.3731836
46	0xbd1df376	-0.03856226
47	0xbefd9739	-0.49529436
48	0x3fa38ea9	1.2777911
49	0xbebd4022	-0.36962992
50	0xbe5e3e67	-0.21703492
51	0xbf88efdf	-1.0698203
52	0xbe32fcd4	-0.17479259
53	0xbf10a5f7	-0.5650324
54	0x3f77cf4c	0.96800685
55	0x3f923514	1.1422448
56	0x3e25638c	0.16151255
57	0xbf2268cb	-0.6344115
58	0x3faf78ec	1.3708777
59	0x3faf2a5c	1.3684802
60	0xbf7d391d	-0.9891527
61	0x400b1b96	2.1735587
62	0x3ce9d4d5	0.028543869
63	0x3fbafc31	1.4608213
64	0xbf96f2cf	-1.1792849
65	0xbf3c9c06	-0.7367557
66	0x3f227063	0.6345274
67	0x3ea49aee	0.32149452
68	0xbc5ea89f	-0.013590007
69	0xbed274c3	-0.41104707
70	0xbf904d91	-1.1273671
71	0x3f9acbf8	1.2093496
72	0xbedd28cd	-0.4319519
73	0xbeec0e0b	-0.46104464
74	0xbe651aaa	-0.22373453
75	0x3eb658e0	0.3561468
76	0xbd784457	-0.06061205
77	0x3fa14d6d	1.2601753
78	0x3e7f083c	0.24905485
79	0xbef53b69	-0.4789689
80	0xbeb00cc5	-0.34384742
81	0x3f4dda77	0.80411476
82	0xbfbc2609	-1.4699107
83	0xbeb4afbc	-0.35290325
84	0x3f246a6a	0.64224875
85	0x3fe393c0	1.7779465
86	0x3ea47cc8	0.3212645
87	0x3ed72945	0.42023674
88	0x3f5f5888	0.8724446
89	0xbf1ae9ce	-0.6051301
90	0xbfa090ff	-1.2544249
91	0x3eb3aa23	0.35090742
92	0xbdc23d96	-0.09484403
93	0xbfd2cbd4	-1.6468453
94	0x3e2a38b3	0.16623192
95	0xbf2255fe	-0.63412464

gru.weight_ih_l0 f4 [192, 16]
0	0xbf0a1d5e	-0.5395106
1	0xbe5b9fab	-0.21447627
2	0x3e4672f9	0.19379796
3	0x3e63a8ba	0.22232333
4	0x3e5cff4d	0.21581765
5	0x3ee33787	0.44378302
6	0x3d5db04d	0.05412321
7	0x3ef38e7e	0.4756965
8	0x3e8461ca	0.25855857
9	0xbe2b7950	-0.16745496
10	0xbf281982	-0.6566392
11	0x3f03772a	0.51353705
12	0x3e230a0d	0.15921803
13	0xbe6bdd13	-0.23033552
14	0x3e8f15ac	0.27946222
15	0xbf3b65a4	-0.73201966
16	0x3d92934a	0.071569994
17	0xbf3e6dbe	-0.74386203
18	0x3f25e58c	0.64803386
19	0x3e28aec0	0.16472912
20	0xbed550e6	-0.41663283
21	0xbf41e707	-0.75743145
22	0xbf02fb6d	-0.51164895
23	0x3daafdf0	0.08349216
24	0xbea47606	-0.32121295
25	0x3c5f982f	0.013647123
26	0x3efb0fc1	0.49035457
27	0xbe0b88f6	-0.13626465
28	0xbed81657	-0.42204544
29	0x3f1242cb	0.5713317
30	0x3da7f4ee	0.082010135
31	0x3e86891c	0.2627648
32	0xbd0e10be	-0.034683935
33	0x3e633dd1	0.2219155
34	0x3f045d3f	0.5170478
35	0x3f23bec2	0.6396295
36	0xbd967451	-0.07346404
37	0x3d64291d	0.05570327
38	0x3e88439c	0.26614082
39	0xbed29b1c	-0.41133964
40	0xbccc0fc2	-0.024909858
41	0x3f321181	0.6955796
42	0xbdad003b	-0.084473096
43	0xbc770dbf	-0.015078961
44	0x3f0e61d3	0.5561802
45	0xbf03cc1b	-0.51483315
46	0xbee620ce	-0.44946903
47	0xbdcc11cf	-0.09964334
48	0x3f9d86b9	1.2306739
49	0x3eefeec2	0.46861845
50	0xbf1c9636	-0.61166704
51	0xbf8cb055	-1.0991312
52	0x3c890798	0.016727254
53	0x3f2716ac	0.6526897
54	0x3fde875b	1.7385057
55	0xbe6dd318	-0.23225057
56	0x3f02a907	0.51039165
57	0xbd5d0dda	-0.053968288
58	0x3e303be8	0.17210352
59	0x3e80b625	0.25138965
60	0xbcfd2781	-0.030902626
61	0xbf0176d6	-0.50571954
62	0xbeea704c	-0.457888
63	0x3ed3f695	0.41399065
64	0xbee666d3	-0.45000324
65	0xbe87b7de	-0.26507467
66	0x3dee5b4a	0.11638506
67	0xbdaa324a	-0.08310373
68	0x3b571a8f	0.0032822227
69	0x3cc1e96d	0.023670876
70	0xbe9dc387	-0.30813238
71	0x3e3e0190	0.18555284
72	0xbecb2632	-0.39677578
73	0xbe5e6d77	-0.21721445
74	0xbf8ef246	-1.1167686
75	0x3dfed30b	0.12442597
76	0xbd49129d	-0.049090017
77	0x3ec8743d	0.39151183
78	0x3cff25d3	0.031145966
79	0xbec70d83	-0.38877496
80	0x3c6cc925	0.0144522535
81	0x3efd11ba	0.49427587
82	0xbe33b18c	-0.17548198
83	0x3e73d0ce	0.23810121
84	0x3e957eef	0.29198405
85	0x3e17d767	0.14828263
86	0xbc970019	-0.018432664
87	0xbe7078c0	-0.23483562
88	0x3e233997	0.15939938
89	0x3ea541d3	0.32276782
90	0x3e6854c9	0.22688593
91	0xbe37ee91	-0.179621
92	0x3ed5103c	0.41613948
93	0xbee98761	-0.45611098
94	0x3d6617ca	0.05617503
95	0x3d3f35d9	0.046682213
96	0xbad7a9a3	-0.0016453754
97	0x3da49ff4	0.08038321
98	0x3e6d9cdc	0.23204368
99	0x3f0a153a	0.5393864
100	0xbec1401c	-0.37744224
101	0xbe76dbb2	-0.24107245
102	0xbe959ce6	-0.29221267
103	0xbe366424	-0.17811638
104	0xbdf1d012	-0.118072644
105	0x3ea2d962	0.31806475
106	0xbdddbf9a	-0.10827561
107	0xbe9bc926	-0.30426902
108	0x3c9aa1e5	0.018876025
109	0x3ddaa8f2	0.10676755
110	0xbec7c5c7	-0.3901808
111	0x3ca073e0	0.019586504
112	0x3e3d56f6	0.18490204
113	0x3e3fa0a3	0.18713622
114	0xbdef3f08	-0.11681944
115	0x3c19ef38	0.009395413
116	0xbe3c78d9	-0.18405475
117	0xbe7725aa	-0.24135461
118	0xbe87dd9b	-0.2653626
119	0xbec1fd03	-0.37888345
120	0xbe8aad26	-0.27085227
121	0x3e1b8a3f	0.15189455
122	0x3e826d1f	0.25473878
123	0xbeb75fb3	-0.358152
124	0xbe705367	-0.23469315
125	0x3e725386	0.23664674
126	0xbdd38ac8	-0.10329205
127	0xbcac9bdb	-0.021070411
128	0x3f013110	0.5046549
129	0xbc548394	-0.012970824
130	0xbe00229f	-0.12513207
131	0xbed1fbfa	-0.41012555
132	0x3e12955c	0.14314789
133	0x3eede644	0.4646474
134	0x3f074225	0.52835304
135	0xbd99ea10	-0.07515347
136	0xbd6536a8	-0.055960327
137	0xbe0e7e81	-0.13915445
138	0x3d9cd676	0.07658093
139	0xbb945cb2	-0.0045276517
140	0x3ef53f4f	0.47899863
141	0xbf29d6ee	-0.6634358
142	0xbb4e81a7	-0.0031510384
143	0x3d8b623f	0.06805848
144	0xbda318b2	-0.07963695
145	0xbd10211c	-0.035187826
146	0xbed3af09	-0.4134448
147	0xbede15e7	-0.43376085
148	0x3df9fa0b	0.12205895
149	0x3d1ed7df	0.03878009
150	0xbe4f1f92	-0.20226887
151	0x3e6a4df2	0.22881296
152	0xbd0cdd18	-0.03439054
153	0xbecc4a35	-0.39900365
154	0xbe8e540a	-0.27798492
155	0xbe5cc257	-0.2155851
156	0xbf229520	-0.63508797
157	0x3e9af5d9	0.30265692
158	0xbe14027d	-0.14454074
159	0xbc0c87e6	-0.008577323
160	0xbe1b1032	-0.15142897
161	0xbeef31f9	-0.46717814
162	0x3e92e84a	0.28692847
163	0x3e0fc4b3	0.14039879
164	0xbe85df46	-0.26146907
165	0xbf014a5b	-0.5050408
166	0xbf014ae4	-0.505049
167	0xbc66b0e0	-0.014080256
168	0xbe8c0ee6	-0.27355117
169	0xbdfebfc1	-0.12438918
170	0x3e9c7f9f	0.30566117
171	0xbe0d48ff	-0.13797377
172	0xbe664da8	-0.22490561
173	0x3f16d4eb	0.5891864
174	0xbcf28c2a	-0.029607851
175	0x3e61327c	0.21991915
176	0xbf625a47	-0.88419
177	0xbd362af9	-0.044474576
178	0x3f3e8144	0.74415994
179	0x3f775a3c	0.9662206
180	0x3e77504b	0.24151723
181	0x3da40f62	0.080107465
182	0xbf771482	-0.9651567
183	0xbdd8c816	-0.10585038
184	0xbf0758c3	-0.52869815
185	0x3eaac0ff	0.3335037
186	0xbf10b716	-0.56529367
187	0xbec2a787	-0.38018438
188	0x3f49be8e	0.7880639
189	0xbe27fe93	-0.16405706
190	0x3e0f1cab	0.1397578
191	0xbf6460d0	-0.89210224
192	0x3b1b54ea	0.0023701736
193	0xbd91581b	-0.07096883
194	0xbef50e72	-0.47862583
195	0x3d6a3c8b	0.057186645
196	0x3f0107ac	0.5040233
197	0x3e24b436	0.1608437
198	0x3d9043a2	0.0704415
199	0x3e017e43	0.12645821
200	0x3dc2cf93	0.09512248
201	0xbd5054a1	-0.05086196
202	0xbe46583f	-0.193696
203	0x3ddbf83f	0.107407086
204	0x3d1e7a2e	0.03869074
205	0xbb24ec4d	-0.002516526
206	0x3e227021	0.15863086
207	0xbe0cc68d	-0.13747616
208	0x3d9d5584	0.076823264
209	0x3e2094ca	0.15681759
210	0x3c82329a	0.01589327
211	0x3cf079dd	0.029354984
212	0xbb88cdd4	-0.0041749272
213	0x3cdc9212	0.02692512
214	0xbe66cfa7	-0.2254015
215	0xbd59b70d	-0.053153086
216	0xbea4b745	-0.32171074
217	0x3c63fd83	0.013915422
218	0xbe4101e8	-0.18848383
219	0xbe636820	-0.2220769
220	0xbd134fae	-0.03596466
221	0xbd0ef906	-0.034905456
222	0xbda0dc21	-0.07854486
223	0xbe0a3f30	-0.13500667
224	0x3e972832	0.29522854
225	0xbdf4697e	-0.119341835
226	0xbec88049	-0.39160374
227	0xbf56042b	-0.8360011
228	0x3e47bc25	0.19505365
229	0x3eeb4f00	0.4595871
230	0x3db1c6e9	0.08680517
231	0x3eb8829a	0.3603714
232	0xbda9204a	-0.08258112
233	0xbf254461	-0.6455746
234	0xbe9d96c9	-0.30779102
235	0x3e525860	0.20541525
236	0xbe8ae3dc	-0.27126968
237	0x3ea8c1be	0.32960314
238	0x3ba69955	0.0050841966
239	0x3e4f8a4b	0.20267598
240	0xbdfdb463	-0.12387922
241	0xbe95fa6e	-0.29292625
242	0xbdf63c54	-0.120232254
243	0xbec33c5f	-0.38131997
244	0x3db8e7a1	0.09028555
245	0x3ec8066e	0.39067405
246	0xbc0f2de4	-0.0087389685
247	0x3de644d7	0.11243599
248	0xbefb579c	-0.49090278
249	0xbe8b26d1	-0.27178052
250	0xbf01e131	-0.5073424
251	0x3eb2acee	0.3489756
252	0x3e4a4aba	0.19755068
253	0x3bf96c04	0.0076117534
254	0x3dc03e4c	0.09386882
255	0xbe84be32	-0.25926358

gru.weight_hh_l0 f4 [192, 64]
0	0x3ebdc76a	0.37066203
1	0xbd2ec552	-0.042668648
2	0x3e98f9e1	0.29878142
3	0xbeb13b29	-0.34615448
4	0xbe1c0f18	-0.15240133
5	0xbf954531	-1.166174
6	0xbf2c3843	-0.6727335
7	0x3d72051e	0.05908691
8	0xbf19aad2	-0.60026276
9	0xbd6d9c25	-0.05801024
10	0xbf26886e	-0.65051925
11	0x3e640b5c	0.22269958
12	0x3e6f913c	0.23395246
13	0xbeb9c03c	-0.36279476
14	0xbf02944c	-0.51007533
15	0xbdbe494d	-0.09291325
16	0x3e125996	0.14291987
17	0x3e667994	0.22507316
18	0xbeecec21	-0.46273902
19	0xbde4c326	-0.11170034
20	0xbee43f49	-0.44579533
21	0xbe263410	-0.16230798
22	0xbedfb47a	-0.4369238
23	0xbeb1889e	-0.34674543
24	0x3e1c4cbe	0.1526365
25	0x3d8aabcc	0.06771049
26	0xbea470d9	-0.32117346
27	0xbf121213	-0.5705883
28	0x3f27fef2	0.6562339
29	0x3e093572	0.13399294
30	0xbec60da5	-0.38682285
31	0xbe5e068d	-0.21682186
32	0x3e86de9e	0.26341718
33	0xbeb48c13	-0.35263118
34	0x3d2a90b5	0.04164191
35	0xbf027ac7	-0.50968593
36	0xbe690fa9	-0.2275988
37	0xbed6c709	-0.41948727
38	0xbe554c97	-0.20829998
39	0xbefc1d2c	-0.49241006
40	0x3e6c1d5f	0.23058079
41	0xbf02c13c	-0.510761
42	0x3c292e37	0.01032596
43	0x3f05bfbb	0.5224568
44	0xbec50551	-0.3848062
45	0xbf03c7cf	-0.5147676
46	0x3ece7369	0.40322426
47	0x3bac890a	0.0052653598
48	0x3ee59ef0	0.44847822
49	0xbeb65056	-0.35608166
50	0x3f044edc	0.5168283
51	0x3e5b503a	0.21417323
52	0xbe9570cd	-0.29187623
53	0x3f15a935	0.58461314
54	0xbd180c89	-0.03712133
55	0x3e4c3301	0.19941331
56	0x3e5bc2b2	0.21460989
57	0xbd0a4b99	-0.0337635
58	0xbf4329d9	-0.7623573
59	0x3f902558	1.1261396
60	0x3bd53c3b	0.006507424
61	0xbeef69ab	-0.46760306
62	0xbe1061c6	-0.14099798
63	0x3f100526	0.56257856
64	0xbe9e766e	-0.3094973
65	0x3f1fcd48	0.6242261
66	0x3f614db7	0.8800921
67	0x3dbfc03e	0.09362839
68	0x3eea794d	0.4579567
69	0xbf489855	-0.7835744
70	0xbe3f4642	-0.18679145
71	0xbf37b337	-0.71757835
72	0x3e8cadec	0.27476442
73	0xbe89b67a	-0.2689703
74	0x3f4b0113	0.79298514
75	0xbeb1497f	-0.34626386
76	0xbedc2f1f	-0.430047
77	0x3edb4574	0.42826426
78	0x3e7e2f5b	0.24822752
79	0x3b9ea8b9	0.0048418907
80	0xbe845039	-0.25842455
81	0xbc41522d	-0.011799377
82	0xbfa64041	-1.2988359
83	0xbd6bb61b	-0.057546716
84	0x3ed11396	0.40835255
85	0x3f09a5ba	0.53768504
86	0x3ef928ea	0.48664027
87	0x3f006c69	0.5016542
88	0x3f4b8db3	0.7951309
89	0xbeb42d71	-0.3519092
90	0x3ceea1af	0.029129831
91	0x3eff09c3	0.49812135
92	0xbe6c198c	-0.2305662
93	0xbe92aa7f	-0.28645703
94	0x3f1fd877	0.62439674
95	0x3dec7a3e	0.11546753
96	0xbe2d738b	-0.16938607
97	0x3f2318d9	0.6370979
98	0x3fbf6653	1.4953102
99	0x3f540837	0.82825035
100	0xbf4dc56c	-0.80379367
101	0x3ef7b535	0.48380437
102	0x3dd19b7c	0.102347344
103	0xbd9fe9b2	-0.07808246
104	0xbe9a1939	-0.30097368
105	0x3ed29e5d	0.41136447
106	0xbf247b3f	-0.6425056
107	0xbf0c6375	-0.5483926
108	0x3cce7576	0.025202494
109	0xbec85277	-0.39125416
110	0x3ec2e4b0	0.380651
111	0xbe5e2692	-0.21694401
112	0xbeb05a40	-0.34443855
113	0xbeacdcca	-0.337622
114	0xbea82277	-0.32838795
115	0xbea0f898	-0.31439662
116	0x3d8bb447	0.068214945
117	0xbf00da2c	-0.50332904
118	0xbf7d9937	-0.9906191
119	0xbe546c3b	-0.20744412
120	0x3e370100	0.17871475
121	0xbe1b9304	-0.15192801
122	0xbe9358d5	-0.2877871
123	0xbdecdadc	-0.115651816
124	0x3e8f7139	0.2801607
125	0xbda68ff7	-0.08132928
126	0x3f1989af	0.59975713
127	0x3ec08d4a	0.37607795
128	0x3d5037b7	0.050834384
129	0x3d52b6d6	0.051443897
130	0x3d79fecd	0.061034013
131	0xbe017b44	-0.12644678
132	0x3e28de28	0.16490996
133	0x3ec1b5d1	0.37834027
134	0x3e830614	0.25590575
135	0x3e796afd	0.24357219
136	0x3e6b8e3e	0.2300348
137	0xbf3fb4e6	-0.74885404
138	0x3e33d9bc	0.17563528
139	0xbe8544d8	-0.26029086
140	0x3d68b907	0.05681708
141	0xbe2bdcf5	-0.16783507
142	0x3db0b00b	0.086273275
143	0xbf0b4ccf	-0.54414076
144	0x3e2d95fb	0.16951744
145	0x3ed6dd27	0.419656
146	0x3f8a4961	1.0803643
147	0xbeb1cfba	-0.34728795
148	0x3e3e3acd	0.18577118
149	0x3c251a6b	0.010077099
150	0x3dcd8a3a	0.1003613
151	0xbee91800	-0.45526123
152	0xbe68780f	-0.22702049
153	0x3f112c22	0.56707966
154	0xbd42f6e3	-0.04759873
155	0x3ececffd	0.40393057
156	0xbe8a312d	-0.26990643
157	0xbf367e2f	-0.7128629
158	0x3d745e56	0.05966028
159	0x3f79e6e4	0.97617936
160	0x3e34c903	0.17654805
161	0xbc7da2f2	-0.015480744
162	0x3e6ce01e	0.23132369
163	0xbebf4f00	-0.3736496
164	0xbe61c326	-0.220471
165	0xbe582215	-0.21106751
166	0xbdcf03a4	-0.10108116
167	0x3f8a74ce	1.0816896
168	0xbe74bb69	-0.23899616
169	0x3c4316c2	0.011907281
170	0x3ebf488a	0.3736003
171	0xbe004336	-0.12525639
172	0x3cdceb75	0.026967743
173	0x3e3f3d63	0.18675761
174	0x3f2f9f37	0.6860232
175	0x3e9d42b6	0.3071496
176	0xbd13e66e	-0.036108427
177	0xbe72603b	-0.23669522
178	0x3e34ed0d	0.17668553
179	0x3ef08a62	0.46980578
180	0x3d87c9d7	0.06630295
181	0xbd623db7	-0.055234637
182	0x3e2b4f87	0.16729556
183	0x3ef67642	0.481371
184	0xbf11fcb5	-0.57026225
185	0xbed78415	-0.42092958
186	0x3f1d903e	0.6154822
187	0xbdd13d1b	-0.10216733
188	0x3f108631	0.5645476
189	0x3e8016aa	0.2501729
190	0x3d9467c7	0.072463565
191	0xbf06d519	-0.5266891
192	0x3ef44345	0.47707573
193	0xbd09b03b	-0.033615332
194	0x3f51933d	0.8186529
195	0xbe506368	-0.2035042
196	0xbdb9b045	-0.09066824
197	0xbe26c8c8	-0.1628753
198	0x3ef60fdd	0.48058978
199	0x3e220c12	0.15824917
200	0xbe8f22cf	-0.27956244
201	0xbe8598ee	-0.2609324
202	0x3f9aa2ff	1.2080992
203	0x3df834a7	0.12119418
204	0x3cc38c3f	0.023870585
205	0x3ec1b2fa	0.3783186
206	0x3e191ab8	0.14951599
207	0x3e933f26	0.28759116
208	0x3eb28f68	0.34875035
209	0xbdab6d8e	-0.08370505
210	0xbe9b52a8	-0.303365
211	0xbf87e197	-1.061572
212	0x3d6d2c70	0.057903707
213	0xbc8710fc	-0.016487591
214	0x3de46e61	0.111538656
215	0x3e21a961	0.15787269
216	0x3e3bef3c	0.1835298
217	0x3d9af6ae	0.07566582
218	0x3ecceef0	0.40026045
219	0xbe6c4684	-0.23073775
220	0x3e650ab2	0.22367361
221	0x3dca0676	0.098645136
222	0xbcf1e5fc	-0.02952861
223	0xbeca4906	-0.39508837
224	0xbd190021	-0.03735364
225	0xbda4e4d9	-0.08051462
226	0x3ef48d2d	0.4776396
227	0x3f6016fd	0.8753508
228	0xbf7ae3f2	-0.98004067
229	0xbcf7d9cf	-0.030255226
230	0xbde5e2f8	-0.112249315
231	0x3ee99949	0.4562476
232	0x3ea7b4d0	0.32755136
233	0xbe9dfde4	-0.30857766
234	0xbdb52343	-0.08844616
235	0x3db28893	0.08717456
236	0xbee7f0b6	-0.45300835
237	0xbf43de47	-0.76511043
238	0x3ecc6a93	0.3992506
239	0xbf063351	-0.5242205
240	0xbd2509ad	-0.04029243
241	0x3d0462b3	0.03232069
242	0x3eb904ed	0.3613657
243	0x3e56ae48	0.2096492
244	0x3e69a287	0.22815906
245	0x3df2ba92	0.11851992
246	0xbeb6ae86	-0.35680026
247	0xbe05e790	-0.13076615
248	0x3eb43b47	0.35201475
249	0x3d820dc4	0.06350282
250	0x3e5ca45e	0.21547076
251	0x3e57ccd3	0.21074228
252	0x3f8eee88	1.1166544
253	0x3e583965	0.21115644
254	0x3f19f37e	0.60137165
255	0x3ee9ecb6	0.4568841

gru.bias_ih_l0 f4 [192]
0	0x3f20e26e	0.62845504
1	0xbed2b059	-0.41150168
2	0xbdce605f	-0.10076975
3	0x3e36b86d	0.1784379
4	0x3e1143b3	0.14185981
5	0xbed3eace	-0.4139008
6	0xbe588ded	-0.2114789
7	0xbe5f143a	-0.2178506
8	0xbe27e00c	-0.16394061
9	0x3e0c2c98	0.13688886
10	0xbe59edb6	-0.21282086
11	0xbe12b166	-0.14325485
12	0x3e199663	0.14998774
13	0x3d136287	0.035982635
14	0x3f01cc5f	0.5070247
15	0x3eb666c8	0.3562529
16	0x3ddf1774	0.10893145
17	0x3dd45439	0.10367627
18	0x3db31ffe	0.087463364
19	0x3ecd9735	0.40154424
20	0x3e67e24e	0.22644922
21	0x3dfdb30c	0.12387666
22	0x3f1e5165	0.6184295
23	0x3f01a6fa	0.5064541
24	0xbec37e3a	-0.3818224
25	0x3cef1c1c	0.029188208
26	0x3ebea270	0.37233305
27	0x3e6a727a	0.22895232
28	0x3d517637	0.05113813
29	0xbe99b8c7	-0.30023786
30	0xbf0cbed2	-0.5497867
31	0x3d8c5b72	0.06853379
32	0xbe80cdb0	-0.25156927
33	0x3ea4a3fc	0.3215636
34	0x3e053b6b	0.13010947
35	0x3e4d851a	0.20070305
36	0xbe8fc0ef	-0.28076884
37	0x3d72eeab	0.059309643
38	0x3d36742f	0.044544395
39	0x3e0cd9b9	0.1375493
40	0x3eaa19a1	0.33222678
41	0x3efd48f5	0.49469724
42	0xbe885bb1	-0.26632455
43	0xbe6af612	-0.22945431
44	0x3d15e28d	0.03659301
45	0x3e3e2a71	0.18570878
46	0x3e16bc91	0.1472037
47	0x3ee0da0b	0.43916354
48	0xbe24751d	-0.160603
49	0x3e80a7b0	0.25127935
50	0x3ea08abc	0.31355846
51	0x3bc5a1be	0.006031244
52	0x3ce48dcc	0.027899645
53	0x3ecb7cfc	0.39743793
54	0xbd916434	-0.0709919
55	0x3e563329	0.20917954
56	0x3e1d5fdd	0.153686
57	0xbe2b2aab	-0.16715495
58	0xbe399eaa	-0.18126932
59	0x3b1be5cd	0.0023788095
60	0xbe4829ab	-0.19547145
61	0xbdd1d305	-0.10245327
62	0xbab71a20	-0.0013969578
63	0x3e962fcb	0.29333338
64	0xbe4072ac	-0.18793744
65	0x3d76e3db	0.060275894
66	0xbece8de2	-0.40342623
67	0x3f04e7b2	0.5191604
68	0xbe7b8aa5	-0.24564607
69	0x3e69c2ea	0.2282826
70	0xbf4d6f2f	-0.8024778
71	0x3e1e4e3c	0.15459532
72	0x3d7bf0fd	0.06150912
73	0xbe9ed671	-0.3102298
74	0x3e182d5e	0.14861056
75	0xbf4ec8b5	-0.80775005
76	0xbe0058b1	-0.12533833
77	0xbe13aeeb	-0.14422195
78	0xbecb3c55	-0.39694467
79	0xbdf6bd4c	-0.12047824
80	0xbd2b21a9	-0.041780148
81	0x3f0c4994	0.5479977
82	0xbdf29766	-0.11845283
83	0xbefdb355	-0.49550882
84	0x3d553ebc	0.05206178
85	0xbe5b9294	-0.21442634
86	0xbed5ac3e	-0.41732973
87	0xbd24a4f5	-0.040196378
88	0xbe404b75	-0.18778785
89	0xbe863494	-0.2621199
90	0xbf0adfef	-0.54247946
91	0xbeaad138	-0.33362746
92	0xbe884c24	-0.2662059
93	0xbde392df	-0.11111998
94	0xbdd3d081	-0.10342503
95	0xbe7029a3	-0.23453383
96	0x3e4924a0	0.19642878
97	0xbe240b68	-0.16019976
98	0xbdd0dc93	-0.10198321
99	0xbd143bf5	-0.036189992
100	0xbe93dfa6	-0.28881568
101	0xbec74ad4	-0.38924277
102	0x3e097178	0.13422191
103	0xbda280d7	-0.079347305
104	0xbf9e1fa5	-1.2353407
105	0xbde3431b	-0.11096784
106	0xbf28033a	-0.65629923
107	0x3df03fc0	0.11730909
108	0xbdf41cd6	-0.119195625
109	0x3e6d053f	0.23146532
110	0xbe89bcc3	-0.26901826
111	0xbcacec2d	-0.021108711
112	0xbec808cf	-0.3906922
113	0x3ee94d73	0.45566902
114	0xbeac41e6	-0.33644027
115	0xbef4257f	-0.47684857
116	0x3d272a25	0.040811677
117	0xbdab3567	-0.08359795
118	0xbe02f7d4	-0.12789851
119	0xbf386b4a	-0.7203871
120	0x3da9bf38	0.08288425
121	0xbcab2204	-0.020890243
122	0xbec5ba78	-0.38618827
123	0xbe2d37fd	-0.16915889
124	0xbf052294	-0.5200589
125	0xbeb59309	-0.3546374
126	0xbe3f262c	-0.18666905
127	0xbe221f33	-0.15832214
128	0x3e945745	0.2897283
129	0x3db2d2ac	0.08731589
130	0x3cad7c91	0.021177562
131	0x3dd044d3	0.10169377
132	0xbd8bf905	-0.06834606
133	0xbd0b1890	-0.03395897
134	0x3ca606ac	0.020266853
135	0xbd71ab2b	-0.05900113
136	0xbe209239	-0.1568078
137	0x3dcf8a93	0.10133853
138	0x3d7ea3a2	0.06216777
139	0xbe0d6445	-0.13807781
140	0xbdf2485f	-0.1183021
141	0x3d9f5cce	0.07781373
142	0xbe480be0	-0.1953578
143	0xbc4c91a6	-0.012485897
144	0x3df22cc7	0.11824947
145	0xbd3ca4a9	-0.04605547
146	0xbde06e75	-0.10958568
147	0xbd7b4672	-0.06134648
148	0xbe625e41	-0.22106268
149	0xbe2b7949	-0.16745485
150	0x3c293cb9	0.010329419
151	0xbe18ce7f	-0.14922522
152	0x3d8acc03	0.067771934
153	0xbe878258	-0.26466632
154	0x3d63c31a	0.055605985
155	0xbe233da0	-0.15941477
156	0x3c69104d	0.014225078
157	0x3e2eac42	0.17057899
158	0xbcd09821	-0.025463166
159	0xbe2922a0	-0.16517115
160	0x3db9772f	0.090559356
161	0xbe0bdcc5	-0.13658436
162	0x3e509632	0.20369795
163	0xbdfbbd3d	-0.12291954
164	0xbdbf5fab	-0.09344419
165	0x3dd1b85e	0.102402434
166	0xbe841992	-0.2580076
167	0x3e5aa870	0.21353316
168	0xbd3a67b3	-0.04550905
169	0xbdff333c	-0.12460944
170	0xbe529eba	-0.20568362
171	0xbe21cd71	-0.15801026
172	0xbe95b947	-0.29242918
173	0xbe2bcd0a	-0.16777435
174	0x3d0a86ff	0.03382015
175	0x3b99a084	0.0046883244
176	0x3e1ce72f	0.15322565
177	0xbd1ee5cb	-0.038793366
178	0x3df68bb0	0.12038362
179	0x3cecba4f	0.028897433
180	0xbec206ed	-0.3789591
181	0xbc3f94b5	-0.011693169
182	0xbe6f7032	-0.23382643
183	0xbe1f5378	-0.15559185
184	0x3d234c14	0.039867476
185	0x3d6f1579	0.058370087
186	0x3e1ccda9	0.15312828
187	0x3e518f02	0.2046471
188	0x3bc59415	0.0060296156
189	0x3db8f9d3	0.09032025
190	0x3e0006e0	0.12502623
191	0x3e17cc01	0.14823915

gru.bias_hh_l0 f4 [192]
0	0x3f38cbd8	0.7218604
1	0xbe8d4f35	-0.27599493
2	0xbe9b6861	-0.30353072
3	0x3e9fb900	0.3119583
4	0x3e89c06d	0.26904622
5	0xbec6bb68	-0.38814855
6	0xbd78b16c	-0.060716078
7	0xbe572690	-0.21010804
8	0xbe0c1d19	-0.13682975
9	0xbd2409d5	-0.04004844
10	0xbe7a0ea6	-0.2441965
11	0xbc0cd05b	-0.008594598
12	0x3e5d4279	0.21607389
13	0xbe431413	-0.19050626
14	0x3e9a07bb	0.30084023
15	0x3eb2ab1b	0.34896168
16	0x3d97b6c5	0.074079074
17	0x3da5383f	0.08067369
18	0x3da659a2	0.08122565
19	0x3eea85ee	0.45805305
20	0x3dec2388	0.115302145
21	0x3e576ce0	0.21037626
22	0x3ec8ddc6	0.392317
23	0x3ed6c860	0.4194975
24	0xbea18eb6	-0.31554192
25	0xbde36750	-0.1110369
26	0x3e5752c3	0.21027665
27	0x3ed09b63	0.4074355
28	0x3e44c1ff	0.19214629
29	0xbe5c8a1e	-0.21537063
30	0xbf109b2c	-0.56486773
31	0xbdc49912	-0.09599508
32	0xbe2a14d0	-0.16609502
33	0x3e3b8afe	0.1831474
34	0x3cfa50a6	0.030556034
35	0x3e8cd143	0.27503404
36	0xbe5b54ec	-0.21419114
37	0xbe0a8f39	-0.13531198
38	0x3e60e99b	0.21964113
39	0x3c3bd0f3	0.011463392
40	0x3e95d515	0.2926413
41	0x3f0ee47d	0.55817395
42	0xbea339f5	-0.31880155
43	0xbee2c63f	-0.44291875
44	0x3e32d962	0.17465737
45	0x3e339b84	0.17539793
46	0x3e0dc8f0	0.13846183
47	0x3e9f07c9	0.31060627
48	0xbe45afd9	-0.19305362
49	0x3ea61091	0.32434514
50	0x3e820e64	0.25401604
51	0x3e4e38ee	0.20138904
52	0x3d2eb02b	0.042648476
53	0x3ebec9d9	0.37263373
54	0x3d86936d	0.06571088
55	0x3e88ef2c	0.26744974
56	0x3e7bc8a6	0.2458826
57	0xbdc27cda	-0.0949647
58	0xbe0542b4	-0.13013726
59	0xbdd00f1f	-0.10159134
60	0xbe7e2f64	-0.24822766
61	0xbe40605b	-0.18786757
62	0xbd2df5ca	-0.04247073
63	0x3e2916b3	0.16512565
64	0xbe5dc3ec	-0.2165677
65	0x3c4fcde2	0.012683364
66	0xbe43ba85	-0.1911412
67	0x3efbc5f4	0.49174464
68	0xbe1c5bd4	-0.15269405
69	0x3e512f2e	0.20428154
70	0xbf5960f8	-0.8491359
71	0x3d9ebec5	0.0775123
72	0x3d2d1356	0.04225477
73	0xbe176ac2	-0.14786819
74	0x3dbedd5e	0.09319566
75	0xbf75f42b	-0.96075696
76	0xbdf67107	-0.12033277
77	0xbe816e0b	-0.2527927
78	0xbebeded0	-0.37279367
79	0xbe8faa6b	-0.28059706
80	0x3d665f6c	0.056243345
81	0x3f089368	0.53349924
82	0xbe65e894	-0.22452003
83	0xbf07d32b	-0.5305659
84	0x3e84bc9a	0.25925142
85	0xbea068aa	-0.31329852
86	0xbee45a7e	-0.4460029
87	0xbd8e888d	-0.06959639
88	0xbe988a74	-0.2979313
89	0xbe26254a	-0.16225162
90	0xbf10aa0e	-0.5650948
91	0xbe8d636a	-0.2761491
92	0xbe48d464	-0.1961227
93	0xbe412f40	-0.1886568
94	0xbe009da3	-0.12560134
95	0xbecab0db	-0.39588055
96	0x3d1690b0	0.03675908
97	0xbe3f4c1d	-0.18681379
98	0x3d974db9	0.07387871
99	0x3db75d7a	0.08953376
100	0xbe4f90c2	-0.20270064
101	0xbe9ad826	-0.30243033
102	0x3dba4138	0.09094471
103	0xbd128588	-0.035771877
104	0xbfad2f45	-1.353005
105	0xbd1a92d3	-0.03773768
106	0xbf00be4f	-0.5029039
107	0x3ccc9e49	0.02497782
108	0xbdaa391b	-0.08311673
109	0x3e53fc73	0.2070177
110	0xbe8e0b0f	-0.27742812
111	0xbe6fbf58	-0.23412836
112	0xbeb38979	-0.3506582
113	0x3ed38955	0.41315714
114	0xbec55957	-0.38544723
115	0xbf19478b	-0.5987479
116	0x3c75ff1b	0.015014435
117	0xbe5ab08f	-0.21356414
118	0xbe587ab9	-0.21140565
119	0xbf4972b4	-0.7869065
120	0x3dbde935	0.09272996
121	0xbda4ec10	-0.08052838
122	0xbf1bd462	-0.60870945
123	0xbea3b605	-0.31974807
124	0xbf35097c	-0.70717597
125	0xbea99428	-0.33120847
126	0xbea0a53b	-0.3137606
127	0xbe55b01e	-0.20867965
128	0x3ea6fd1a	0.32614976
129	0xbdaf6b3e	-0.08565377
130	0x3d3c0185	0.045899887
131	0x3df052e1	0.11734558
132	0xbe610cee	-0.21977589
133	0x3cac6267	0.021043016
134	0x3d4db450	0.050220788
135	0xbd870208	-0.06592184
136	0xbe824495	-0.2544295
137	0x3dce97f1	0.10087574
138	0x3d7bf189	0.061509643
139	0x3e3285ab	0.17433803
140	0x3eab73fb	0.33486924
141	0x3e142598	0.14467466
142	0xbe75d2e5	-0.24006231
143	0xbda1dffc	-0.0790405
144	0x3d4185ac	0.04724662
145	0x3c88783c	0.016658895
146	0xbdff2af5	-0.12459365
147	0xbd2d4f84	-0.04231216
148	0xbe26e792	-0.16299275
149	0xbd97ca42	-0.074116245
150	0x3d96664d	0.07343731
151	0x3d752dab	0.059858005
152	0x3cf054fb	0.029337397
153	0x3bfb164d	0.0076625706
154	0xbe0e1973	-0.13876896
155	0xbea6096a	-0.32429057
156	0x3e8fc0b7	0.28076717
157	0xbb651778	-0.0034956615
158	0xbd9d4567	-0.07679253
159	0xbdbbda45	-0.09172491
160	0x3d80bc08	0.06285864
161	0xbe1d3a9b	-0.15354387
162	0x3e05fded	0.13085146
163	0x3cb24d47	0.021765364
164	0xbd5f234d	-0.054477025
165	0x3e0f2bd1	0.13981558
166	0xbe8c770a	-0.2743457
167	0xbd55c5b1	-0.052190486
168	0x3da501f9	0.08057017
169	0xbe711bab	-0.2354571
170	0xbe622cae	-0.22087356
171	0x3da9afe5	0.08285502
172	0xbe8d9a0b	-0.27656588
173	0xbe0dfaca	-0.138652
174	0x3d6e8ed1	0.05824167
175	0xbd5abab1	-0.0534007
176	0x3e3f3c2a	0.18675295
177	0x3e0fd601	0.1404648
178	0x3e5fe0a8	0.21863043
179	0xbe4f63bc	-0.2025289
180	0xbec97099	-0.39343718
181	0x3e6c2e47	0.23064528
182	0xbcedd4ab	-0.029032072
183	0x3e205a6d	0.15659495
184	0x3d209959	0.039208744
185	0x3dd1adaa	0.10238202
186	0xbe27f5fb	-0.16402428
187	0x3ea06c5b	0.3133267
188	0xbdb8da83	-0.09026053
189	0xbd910d4e	-0.07082616
190	0x3e5fdb48	0.21860993
191	0x3ea1b1a3	0.3158084

gru2out.weight f4 [6, 64]
0	0xbf5f85f9	-0.873138
1	0x3e7c0931	0.24612881
2	0xbe1d5cee	-0.15367481
3	0x3eb7f4e9	0.3592904
4	0x3f27ca1b	0.65542763
5	0x3d5f2e12	0.054487295
6	0x3e796cb2	0.2435787
7	0xbdd29637	-0.102825575
8	0x3eb20e16	0.34776372
9	0xba87164e	-0.001030633
10	0xbdb98e6c	-0.09060368
11	0xbdb62eb3	-0.08895626
12	0xbe1f4f74	-0.15557653
13	0x3d833954	0.06407419
14	0x3ee10307	0.43947622
15	0x3ed977e6	0.42474288
16	0x3e8e6976	0.27814835
17	0xbe4f6d8c	-0.20256633
18	0xbcccf0b0	-0.025017112
19	0x3f1eafed	0.6198719
20	0x3ef911a3	0.48646268
21	0x3f48d9bd	0.7845724
22	0x3f5414b4	0.8284409
23	0x3ddb657f	0.10712718
24	0xbd7168f6	-0.05893799
25	0x3e8d2b10	0.27571917
26	0x3f0be3c7	0.54644436
27	0x3f49d373	0.7883827
28	0xbf1fc387	-0.62407726
29	0x3e0e9c8b	0.13926904
30	0x3ec02d14	0.37534392
31	0x3e6c6210	0.23084283
32	0xbd23c4f1	-0.03998274
33	0x3f038cbd	0.51386625
34	0xbc8e84fd	-0.017397398
35	0xbe7123a8	-0.23548758
36	0x3dfdcb0d	0.123922445
37	0xbe8ae530	-0.2712798
38	0x3df9bc92	0.1219417
39	0xbe87f42d	-0.2655348
40	0xbe933d66	-0.2875778
41	0x3f1eb57b	0.6199567
42	0xbdfedc01	-0.12444306
43	0xbea94018	-0.33056712
44	0x3e1674bc	0.14692968
45	0x3eb2b4f1	0.34903672
46	0xbda3b804	-0.079940826
47	0x3f0c3d1c	0.54780746
48	0xbee3bbd7	-0.44479248
49	0xbd14267d	-0.036169518
50	0xbef27c2f	-0.4736037
51	0x3e83364f	0.25627372
52	0x3f02f689	0.5115743
53	0xbf344409	-0.70416313
54	0xbce230a5	-0.027611086
55	0xbec1ab28	-0.37825894
56	0xbf157b50	-0.58391285
57	0x3e438eaf	0.19097398
58	0x3e2eb402	0.17060855
59	0xbf62889e	-0.8848971
60	0x3e9242dc	0.28566635
61	0x3f4d6d7e	0.80245197
62	0x3ea35eb9	0.31908205
63	0xbe1c40df	-0.15259121
64	0xbec30605	-0.3809053
65	0x3da2d393	0.07950511
66	0xbe053ae3	-0.13010745
67	0x3e23d264	0.15998226
68	0x3f1946fa	0.59873927
69	0xbe8101c6	-0.25196666
70	0xbe4f49e6	-0.20243034
71	0xbe06f3ce	-0.13178942
72	0x3ee79712	0.45232445
73	0xbe186ece	-0.14886019
74	0xbc8100e3	-0.015747493
75	0xbe875d4b	-0.26438364
76	0xbe9114b5	-0.2833611
77	0xbd9250a8	-0.0714429
78	0x3e941456	0.28921765
79	0xbd4f836c	-0.050662443
80	0xbdcd3841	-0.10020495
81	0xbe8ef894	-0.27924025
82	0x3e1f44f8	0.15553653
83	0x3eb3f61d	0.35148707
84	0x3ea79744	0.32732594
85	0x3e7b1380	0.24519157
86	0x3e9cba59	0.30610922
87	0xbe269a51	-0.16269805
88	0xbd8b598b	-0.06804188
89	0x3e43aa92	0.19108036
90	0x3d882b77	0.06648915
91	0x3ef17933	0.4716278
92	0xbecafa63	-0.39644155
93	0x3d2c4ff5	0.04206844
94	0x3e8ad0bf	0.27112386
95	0x3ea33068	0.3187287
96	0xbea81a00	-0.32832336
97	0x3e79dee5	0.24401434
98	0xbe533c0a	-0.20628372
99	0xbcd08a97	-0.02545671
100	0x3dcb90de	0.099397406
101	0xbd39eb6d	-0.045390535
102	0x3ec6344a	0.38711768
103	0xbe6d0cf5	-0.23149474
104	0xbe08dc79	-0.13365354
105	0x3f25f835	0.6483186
106	0x3eaceb0e	0.33773082
107	0xbe822655	-0.2541987
108	0x3eec38bd	0.46137038
109	0x3eb52fac	0.35387933
110	0x3e1d21bd	0.15344901
111	0x3e5b6719	0.21426047
112	0xbeb54c0f	-0.3540959
113	0x3e2e2c59	0.17009105
114	0xbe5fc66e	-0.21853039
115	0x3df8dc84	0.12151435
116	0x3efdf785	0.49602905
117	0xbe6c81d6	-0.23096403
118	0x3e4c9ca1	0.19981624
119	0x3bcc65f2	0.0062377388
120	0xbeaf29e3	-0.34211645
121	0x3e8157e4	0.25262368
122	0x3e8b1a67	0.2716858
123	0xbece24bb	-0.40262398
124	0xbdc5be21	-0.09655405
125	0x3ed55c36	0.41671914
126	0xbd833044	-0.0640569
127	0xbe3b0654	-0.18264133
128	0x3e092b9e	0.13395545
129	0x3d75613d	0.059907187
130	0x3e4abeb3	0.19799308
131	0x3d085d2b	0.033291977
132	0xbdc64dca	-0.09682806
133	0x3e99ddf0	0.30052137
134	0xbc554605	-0.013017182
135	0xbc52c7c9	-0.012865015
136	0xbdf7ca7c	-0.12099168
137	0x3e5601eb	0.20899169
138	0xbb937627	-0.004500169
139	0x3d766bec	0.060161516
140	0x3cab6a32	0.020924661
141	0xbdb8af0f	-0.09017765
142	0xbdf30283	-0.118657134
143	0x3cfa21c7	0.030533684
144	0xbda3d04f	-0.07998716
145	0xbde40a0f	-0.11134731
146	0xbe165b92	-0.14683369
147	0x3e32c82b	0.1745917
148	0xbdf50f51	-0.11965812
149	0x3d9ed848	0.07756096
150	0x3b2a9c22	0.0026033004
151	0x3ed352ef	0.4127421
152	0x3d96d02f	0.073639266
153	0x3d980f1c	0.07424757
154	0xbe057bb1	-0.13035466
155	0xbd46f3e2	-0.04857243
156	0x3cffb318	0.031213328
157	0xbdafa829	-0.08576996
158	0x3d93367d	0.07188127
159	0xbb24b852	-0.0025134278
160	0x3e1f9bf2	0.15586832
161	0x3e1c80c4	0.15283495
162	0xbd95d14c	-0.07315311
163	0x3dd58749	0.10426194
164	0xbe7c1468	-0.2461716
165	0xbb9d050e	-0.0047918623
166	0xbd5bbc66	-0.053646468
167	0xbe405f06	-0.18786249
168	0x3e14fc66	0.14549407
169	0x3d25b790	0.040458262
170	0x3e83501b	0.25647053
171	0x3e12aac9	0.14322962
172	0xbd942022	-0.07232691
173	0xbdf7615e	-0.12079118
174	0x3e9c4b05	0.30525985
175	0xbe1111af	-0.14166902
176	0xbdf4eb14	-0.119589
177	0xbe1d30bc	-0.15350622
178	0x3e8b38a0	0.2719164
179	0x3dce54ad	0.100747444
180	0x3d8118af	0.06303536
181	0x3ccfbbab	0.025358042
182	0xbd41d52f	-0.04732245
183	0x3cfa9c1f	0.030592022
184	0x3dd497bb	0.10380503
185	0xbcbcc87e	-0.02304482
186	0xbdf42a8f	-0.1192218
187	0x3e122259	0.14270915
188	0x3ed8711d	0.422738
189	0xbe13cb71	-0.14433075
190	0x3d18c7ce	0.037299924
191	0x3e120e2a	0.14263216
192	0xbebacc6b	-0.36484084
193	0xb8bb14bd	-8.920718e-05
194	0xbda2196e	-0.079150066
195	0xbd81888f	-0.063248746
196	0xbda9fa49	-0.08299691
197	0xbe380203	-0.17969517
198	0xbdc0adc0	-0.0940814
199	0x3e8bde5c	0.27318084
200	0xbe653e2b	-0.22386996
201	0xbe1f8bae	-0.15580627
202	0xbe9f33bf	-0.31094167
203	0xbe0ec792	-0.13943318
204	0x3f02003a	0.50781596
205	0x3d311b73	0.04323907
206	0x3cf8bfe5	0.03036494
207	0xbe36a4ce	-0.17836305
208	0xbcb2e5ee	-0.021838155
209	0x3e861314	0.2618643
210	0xbe75bdd4	-0.23998195
211	0xbc1b2cc5	-0.009471123
212	0xbe80853b	-0.25101647
213	0xbe01014b	-0.1259815
214	0xbe186e8f	-0.14885925
215	0xbea28456	-0.3174159
216	0x3cc74493	0.02432469
217	0xbdcb6668	-0.09931642
218	0xbdd50b31	-0.10402525
219	0x3d6ac603	0.057317745
220	0x3e20c680	0.15700722
221	0xbb4b181f	-0.003098972
222	0x3cc6fad8	0.024289533
223	0x3e109978	0.14121044
224	0x3d95e36a	0.073187664
225	0xbd8a1513	-0.06742301
226	0x3e005972	0.1253412
227	0xbf0c0b2f	-0.54704565
228	0xbe7ddb25	-0.24790628
229	0x3dec7c79	0.11547179
230	0x3e3e7022	0.18597463
231	0x3e8f16b6	0.27947015
232	0x3e646341	0.22303487
233	0xbdfc60ed	-0.123231746
234	0xbe2bafa6	-0.16766223
235	0xbda70aab	-0.08156332
236	0xbdf57440	-0.119850636
237	0xbe111577	-0.14168344
238	0x3d274986	0.0408416
239	0xbd84ff41	-0.06493998
240	0x3e2749ef	0.16336797
241	0x3ce3d03d	0.027809257
242	0x3d8a20bd	0.067445256
243	0xbe726f9a	-0.23675385
244	0xbe63bc4d	-0.222398
245	0x3e878042	0.2646504
246	0x3e70983e	0.23495576
247	0xbdf8818e	-0.121340856
248	0xbdc82432	-0.09772529
249	0xbe34779b	-0.17623751
250	0xbe9204a2	-0.2851916
251	0x3caae264	0.020859905
252	0xbe29e044	-0.16589457
253	0xbc17602d	-0.009239239
254	0x3dac03f6	0.08399193
255	0xbe8a05de	-0.269576

gru2out.bias f4 [6]
0	0xbdc0c11f	-0.09411835
1	0xbe1a648b	-0.15077417
2	0xbd08b78a	-0.03337816
3	0x3d8f8c37	0.07009166
4	0x3dca886d	0.098893024
5	0x3c959dd4	0.018263735
