try3_simDataset3/30bp_SingleNonConserved_s3_UnifBG_fullytrainedDisc.pth (torch, 495449 bytes, 20 tensors)

embeddings.weight f4 [6, 16]
00000000: f937 f83f 5b1d 1ac0 dd01 083e 4765 563f
00000010: a3f3 06c0 be75 213f be16 0abf fb79 213e
00000020: 712b 323f cc53 3240 98a4 753e 0bc1 713e
00000030: 8d23 4b3f 11c4 793e 542e e93f b099 c6be
00000040: 3061 893d 57fc 0e3f da5a 823e a6fb aa3d
00000050: 24d5 5abe 1b85 e53f 6ee9 9bbe 4569 28c0
00000060: c8b0 213c 2bd9 d63f 4098 603f f0df ab3e
00000070: f7b2 493e 1fa8 9fbf cc31 c6bd ce6d e2bf
00000080: 193b f3bf 8fa6 433f a3fb 6d3d 2e42 8f3f
00000090: 7d2b cb3e 97f4 6dbf ec54 6fbe d143 863f
000000a0: 0faa 553e e385 9cbe e7d1 cbbe 7dee 18bf
000000b0: c60b 2fbf 2e05 e1be a615 4ebf 0df1 02bf
000000c0: 77c7 91be b291 0bc0 788f 70be 0e55 ac3d
000000d0: a6ff eabd 351f 9f3e 41b0 923f fdfb 7d3f
000000e0: eab9 343d a31f 18be 65ec 623e 6611 303e
000000f0: 3e8a d5be 23b9 9cbf a227 e4be b4ca 8c3f
00000100: c913 7c3e 4f5c dfbf 5ee3 2e3f 93cb 00bf
00000110: 8d16 453f bc63 0ec0 405a edbe 6d34 27bf
00000120: dac4 bfbf bd9b 4fbf 7d08 bf3f a52c 8c3e
00000130: 819a 1f3d 7aa8 8dbf 31c1 0240 2225 0fbf
00000140: 60d9 1b3f a4af 20bf 573b 7b3e c854 4b3f
00000150: 7603 ce3f 60bf 0ebf 4d0c 0b40 a4b5 99be
00000160: fd86 163d a5db 0ebe 9a47 1bbf 5253 87bf
00000170: fa29 aa3f ed64 c1bf 5e30 0dbf 0187 2040
1.9392081 -2.4080417 0.13281961 0.83748287 -2.1086204 0.63070285 -0.5394095 0.15769188
0.69597536 2.7863646 0.23988569 0.23608796 0.7935112 0.243912 1.8217263 -0.3878913
0.0670799 0.5585379 0.2545994 0.083487794 -0.21370369 1.7931246 -0.3045153 -2.6314251
0.009868808 1.6785024 0.87732315 0.33569288 0.19697176 -1.2473181 -0.09677467 -1.768976
-1.900241 0.76426023 0.058101308 1.1192071 0.39681616 -0.9295134 -0.23372239 1.0489446
0.20865653 -0.30570897 -0.3980858 -0.59738904 -0.6837734 -0.43949264 -0.8050178 -0.51149064
-0.28472492 -2.1807675 -0.23492229 0.084146604 -0.11474542 0.31078497 1.1460038 0.9921263
0.044122614 -0.14855818 0.2216049 0.17194137 -0.41707033 -1.2243999 -0.44561487 1.099936
0.24616922 -1.7450045 0.68315685 -0.5031063 0.76987535 -2.2248373 -0.46357918 -0.6531437
-1.4981949 -0.8109701 1.4924465 0.2737781 0.038965706 -1.106704 2.0430415 -0.55916035
0.6087856 -0.62768006 0.24534355 0.7942624 1.6094806 -0.55760765 2.1726258 -0.30021393
0.03674983 -0.13950975 -0.6065613 -1.0572302 1.329406 -1.5108925 -0.5515193 2.50824

gru.weight_ih_l0 f4 [192, 16]
00000000: 98b3 103e ce04 21bd 824d 033e 0e37 fcbc
00000010: 075d 6b3d 7d10 0cbe ade7 df3d e8f3 abbb
00000020: 5a87 27be 7004 6fbc 2df5 24bd 0583 61be
00000030: bfb8 423d f3a8 4bb8 9248 fe3d 56be 583d
00000040: 1c6f 31be 3e7a 7bbe 6bf7 b83d b7b8 d03c
00000050: 4d1e ec3d 7f9f 50bd b0a4 9a3e ab7b 3a3e
00000060: d47c c7bd 2d2a 5dbe 6b1f b23c d4f6 dbbd
00000070: edac 8b3d d8b0 79be b169 8fbc 7159 883e
00000080: 3128 c0bc d677 6abb 10c9 6f3e ee26 f33d
00000090: 3c5c 493e 65c4 18be ac1a 343e 2f42 053e
000000a0: d5ad 26be 822e 743b cc4a 213e 6407 ca3c
000000b0: 482f a8bd 64fd 05be 97a3 993c 1175 f13d
000000c0: 684c 423e 8b4d e13d db50 b8ba 72df c43c
000000d0: 1d40 e93d 9ab9 183e 62a5 0f3d 75c0 95bd
000000e0: bdd1 fa3d f437 943d 829d 91bc bf4a 423d
000000f0: 4cb7 973d 0205 753b 84a8 dabd 42d8 bf3c
00000100: 1e44 c53c f44f 8cbd 87b3 053e f0d5 f33d
00000110: aa75 783d dc78 6abe 5122 c93d 98ce 803d
00000120: d831 24be 0fe6 28be 2690 233e 8c83 d9bc
00000130: 307e 163d 1bf7 81be 3fd1 81bc b320 7c3c
00000140: affb 3abe 0139 b2bd 9058 da3d 09d0 373d
00000150: 0abe d43d 6403 2abe 3d73 c6bd 7917 1cbd
00000160: 0b84 16bd 7bf5 33be 7578 dabd 48f3 14be
00000170: f7b0 11be c6e7 a3bc 064b 20be ce7c e4bd
00000180: b7f6 79bd d812 ad3d 2a09 2b3e 7e33 3c3e
00000190: 46da 033e c903 15bd 4f99 0c3e 5b2d ab3d
000001a0: 6a52 9abd 3db6 adbd 0604 acbd 23cc 96bd
000001b0: 4e0b 463d 400b 52bd 646f b6bd c3ea 493e
000001c0: 8a86 e3bb 2859 0c3d 3c3a 533d f5f4 9d3d
000001d0: b899 343e 0b01 9fbd d4dc e33d 5ad9 c53d
000001e0: cb92 d1bd e459 c4bd e2d9 ef3d adc8 1ebe
000001f0: a4bf ff3d 6a68 aabd 8410 b63d 9b2a 34bd
00000200: 4ecb b9bd c157 1abc 915c cf3d bbe1 72bd
00000210: 7eba 663e 78d3 1abe 8eaf 503e 6d05 c6bd
00000220: 2ded 35be af64 0ebe 2337 ea3c c68d 73bd
00000230: ea44 af3d 52ca 32bd b1ed 923d 6f5b 303e
00000240: e471 83be 103b 9fbd 15f0 dbbd 0ab6 e13d
00000250: 2684 9abd f4f0 41be f5a3 9abd c8d4 693e
00000260: e30a 5fbe 5257 38be b935 813e d2e7 803d
00000270: 2c75 e8bd c175 2d3d 68a1 3f3d c4fd 88bd
00000280: 06a3 19be 85c0 08be 0108 dc3d f2e1 373e
00000290: f472 373e f7ef 113d 89d4 e9bb 871c 5b3e
000002a0: 9db5 9bbd af66 04be 854d 953d e2cc d9bd
000002b0: b7b0 e03c a8a3 a8bd 9f5c 17be 5647 6d3d
000002c0: ae76 29bd e018 97bd 5016 6f3e 44e1 3d3d
000002d0: ebba 4c3e 3c8a f4bd ba55 783e dd0c 99bd
000002e0: c1e9 19be 5251 5b3c 11c9 78bd b9a3 cebd
000002f0: 850e 01bd f61c c2bd 96ef ee3d 21e7 4a3d
00000300: d11f 9d3d af0b a1bd 18b4 823c a8a4 f8bd
00000310: e726 203c c699 3a3c fb81 2c3e 2aba 553d
00000320: cd76 73bc b798 49bb 92f7 c93b 9b50 273d
00000330: 341b 88bd 2bad 9ebd 6929 b5bd 5c14 193d
00000340: 2757 5d3d 4e67 68bd 0626 7b3d 61c9 f03d
00000350: b77e c4bc 1746 b1bd bc47 273e 63dd 393e
00000360: f9aa bf3b 7b99 9cbc 49cf 43bc dcf3 1c3d
00000370: 3c25 92bd f902 4dbc 4ee2 debc e4e1 103e
00000380: fee7 cabd a228 b9bd 6e85 ccbd d752 803d
00000390: 7364 833b e334 1bbe eaa2 123e feb5 60bc
000003a0: cc7c ad3c e2be fabd 0d28 233c f045 40be
000003b0: 68b9 27bd ecfe d3bd c9dd 28be fc0a 083e
000003c0: 00ed fcbd 0a30 5e3e e466 623d 7fd5 423e
000003d0: c216 bfbc 1978 87be 8ff3 e6bd 7e37 c83d
000003e0: 0fac 80bc 0c13 c3bd bcce 933d 6c97 82bd
000003f0: 4536 7fbe dbf3 3f3d 5b9a 673d 33dc 8dbd
0.1413101 -0.039311223 0.12822536 -0.03078797 0.057461765 -0.13678165 0.109328605 -0.0052475818
-0.16360226 -0.01458846 -0.04027288 -0.22022636 0.04753947 -4.8556318e-05 0.124161854 0.052915893
-0.17327541 -0.2455835 0.09031566 0.025478704 0.11529217 -0.050933357 0.30203772 0.18211238
-0.09740606 -0.2159812 0.021743497 -0.10740438 0.06820092 -0.24383867 -0.017506452 0.26630738
-0.023456665 -0.0035776994 0.23416543 0.118726596 0.19664091 -0.14918669 0.175883 0.13013528
-0.16277249 0.0037259166 0.15751189 0.024661727 -0.08212143 -0.13084942 0.018754764 0.11789907
0.18974459 0.11001118 -0.0014062183 0.024032328 0.11389182 0.14914551 0.03506983 -0.07312099
0.12247036 0.07237235 -0.0177753 0.047434565 0.07408008 0.0037387018 -0.10676673 0.02341855
0.024080332 -0.06851187 0.13056765 0.1190604 0.06065909 -0.22897667 0.098209985 0.06289405
-0.16034639 -0.1649401 0.15972957 -0.026551984 0.036741436 -0.2538384 -0.015846847 0.0153886555
-0.18260072 -0.08702279 0.10661423 0.044876132 0.103878096 -0.16602856 -0.09689949 -0.038108323
-0.03674702 -0.17574112 -0.106675066 -0.1454593 -0.14227663 -0.02000798 -0.15653619 -0.11156617
-0.0610263 0.0845086 0.16702715 0.18379018 0.12876233 -0.036380563 0.13730358 0.0835826
-0.075352505 -0.08482025 -0.08399205 -0.07363155 0.048350625 -0.05128026 -0.08907965 0.1971846
-0.0069435285 0.034264714 0.05156921 0.077127375 0.17636764 -0.07763871 0.11126104 0.09660597
-0.10233077 -0.09587458 0.1171148 -0.15506239 0.124877244 -0.08320697 0.08889869 -0.043985944
-0.090719804 -0.009420336 0.101250775 -0.059297305 0.22532079 -0.15119731 0.20379469 -0.09669004
-0.17766257 -0.13905595 0.028590744 -0.059461378 0.08558066 -0.04364998 0.07174242 0.17222379
-0.2567283 -0.07774937 -0.107391514 0.11021049 -0.075447366 -0.18939573 -0.075508036 0.22835076
-0.21781497 -0.1800206 0.252363 0.06294216 -0.11350474 0.042348627 0.04678479 -0.06689027
-0.15003595 -0.1335469 0.10743714 0.17957285 0.17914945 0.03562924 -0.007135932 0.21397601
-0.07602999 -0.12929796 0.07290176 -0.106347814 0.027428014 -0.0823434 -0.14781426 0.05792936
-0.041372947 -0.073777914 0.23348355 0.04635741 0.19993179 -0.119404286 0.24251452 -0.074731566
-0.15030576 0.0133860875 -0.060738627 -0.10089821 -0.031507988 -0.0947818 0.11666791 0.049536828
0.07672084 -0.078635566 0.015955016 -0.12140781 0.0097749 0.0113892015 0.16846459 0.052179493
-0.014859867 -0.003076119 0.006163546 0.040848356 -0.066458136 -0.07747873 -0.08845789 0.03737293
0.054038193 -0.056739144 0.06131556 0.1175716 -0.023986204 -0.08655947 0.16335958 0.18150859
0.005849239 -0.019116154 -0.011951276 0.0383185 -0.07136008 -0.012512916 -0.02720752 0.1414867
-0.0990753 -0.09040953 -0.09986387 0.062658004 0.004009777 -0.15156893 0.1431996 -0.013715265
0.021177672 -0.12243439 0.009958279 -0.18776679 -0.0409483 -0.10351357 -0.16490854 0.1328544
-0.12349892 0.21698013 0.055273905 0.19026755 -0.023326281 -0.26458815 -0.11276924 0.09776209
-0.015707044 -0.09525117 0.07217166 -0.06376538 -0.24923046 0.046863418 0.05654369 -0.06926765

gru.weight_hh_l0 f4 [192, 64]
00000000: e5e0 7b3d 8298 0a3e ca07 c0bd 0fd0 2abd
00000010: 5ed6 7a3d 9001 d53d 3aec 0c3e 4b56 213d
00000020: 5ed0 d2bd ea20 acbd 3700 02be 15bc 863c
00000030: 1993 cdbd 4f76 1abe 028a c73d acc4 b33d
00000040: 2fe4 653d 9e44 903d 04e0 a73d b602 093e
00000050: 7f58 bcbd 20cf 30be 3437 86bd ada7 8a3d
00000060: 82cc ba3d aa23 7dbd b4a1 adbd bc0e 3ebd
00000070: ea1f 57be 7515 2bbd 30f3 2c3d 12ae 873d
00000080: 16a4 35bd 2593 1f3e 2132 993d dd7e 023e
00000090: 9754 75bc 0b49 26be a7cb d13c 1690 363d
000000a0: a6b5 db3d c52b e93d e49f 363e 94ec 4e3d
000000b0: 50db 9e3d 32c4 65be 5f11 fb3c afd6 0bbd
000000c0: 8f05 c83b 22dc 0a3d d93d e0bd 0065 f2bd
000000d0: 3a66 e4bd a1b7 673d 1e33 e0bd 0500 14be
000000e0: 903d 25bd f028 dd3d 0a79 b73c 3a23 a83c
000000f0: 557f 1f3e a669 19be f4d2 b8bd d958 d63d
00000100: a131 f53c 3b61 7c3d ad2e 17bd 3912 6ebd
00000110: 819a 7abe f18b f6bd 796d 35bd f2cf 92bd
00000120: e77a 8bbd ea87 fdbd 3c0e 563d 0dc0 2abe
00000130: c6ed 8abd 91e0 5dbe c16c 8b3d fe69 1f3e
00000140: d225 9e3d 591e 153e 7244 adbc 4633 0bbd
00000150: aa7e ef3c 1f61 c33d 092d 03bd 2d5c e2bd
00000160: 7454 e33c bd42 8a3c efde 19be b091 4d3c
00000170: 62cd 97bd 9c5d 07be 0971 2c3e f354 28be
00000180: 5d43 0cbe d4e9 91bd 4fd7 40be 2657 e2bc
00000190: 0ec7 a8bd f701 77be 2272 153c 1fa4 07be
000001a0: 734b 313d 5108 083e 6655 0c3e e708 c4bd
000001b0: 1815 03bd df2f e6bd df5f 4fbb fa8b 91be
000001c0: 4de4 c73d 1e7e b83c 75af 753d a955 083e
000001d0: 52a5 e6bc 0924 ff3d 70fe 11be 2f3a e0bd
000001e0: b3e9 3ebe cd02 493e 685f 5a3e 21f0 453d
000001f0: 6a74 8cbd b5bf 703d 07fa d13d 5f3b b33d
00000200: d12e 143d 3a00 943d 16d7 6c3d e433 aa3d
00000210: 5274 b3bd 7ec8 923d 850d c1bc 6841 263e
00000220: a4b2 053c bb3c 3b3c 6442 683d e9fe 17be
00000230: 2966 223d 1237 97bd e18c 5d3c 663a 0f3e
00000240: ce5d b33d 2f40 ca3b c688 a43d 1113 ab3d
00000250: 89bb 93bb 4bf8 4cbe d1e7 b33a a024 3c3d
00000260: a942 81bd 5503 eebd 4103 923b 3a31 9d3d
00000270: b7a0 123d edfd e6bd f704 41bd 7e69 68bd
00000280: 38fb dcbc 800b 653d 0406 30be c003 383d
00000290: 1bc6 a83d 3d93 613c 3b6b e2bd 9772 e6bc
000002a0: 865f 423e e547 4a3c 3dac 713e b839 f83d
000002b0: 4dc4 79bc 1a8c e4bd f50a 1e3c ec27 06be
000002c0: dfb0 0a3d 7ae5 e43d c2ef 7cbd 0821 f13c
000002d0: 50ef cb3d 1e00 2fbd 5376 b5bd 3cf2 42be
000002e0: 1790 f3bd 7a36 b03d 5fce d13d 4bfb a4bd
000002f0: cd2b 9c3d 704b 7dbc f220 b73d e449 e63d
00000300: 495e 913d 32d7 c2bb 4d97 d53d 4224 8f3a
00000310: e32c f13d 9578 3e3d a185 f3bc 4081 0d3e
00000320: 7e1f 963b 8d0d f43d 39f2 9abb 3063 aa3d
00000330: 0cef 1cbd 6ba6 b5bd 9b95 0e3d fb4b c5bd
00000340: 350b 0b3e c306 2abd 8061 043e 824f 81bd
00000350: d438 483d af07 963d 4548 443d 41d5 b83d
00000360: 01a6 883d a905 aebd ef51 4e3c d59f c5bc
00000370: bf9e 98bd 467e 10be f669 a53c f4db d5bb
00000380: bf59 073e b8b5 abbc 3d0d 153e 8fb7 23bd
00000390: 4e5e 9f3d 8695 263e 241d a13d 6880 6c3d
000003a0: f969 2db9 8bc1 f2bd bbd9 7abd 63e6 0e3e
000003b0: c02a 29be 727d 813d 1f59 c83d e8b5 333e
000003c0: d424 97bc 1b7a 01be 59f0 b3bd 2676 f5bd
000003d0: cc46 943d b023 343c 4427 7abd d8b9 6bbd
000003e0: 9afb 1ebe ebc6 90bd a43e 7ebd 2562 26bc
000003f0: 535d df3d 4d8e 903d 415a d1bd 12f8 123d
0.061493773 0.1353474 -0.09376486 -0.041702326 0.061239593 0.10400689 0.13761988 0.039388936
-0.10293649 -0.08404715 -0.12695394 0.016447106 -0.10037822 -0.15084194 0.0974312 0.087777466
0.056125816 0.07044338 0.081970245 0.1337994 -0.09196567 -0.17266512 -0.06553498 0.06770263
0.09121038 -0.06180159 -0.08478108 -0.04640077 -0.21008268 -0.04176851 0.04222411 0.06624998
-0.044345938 0.15583475 0.074802645 0.12743707 -0.014973781 -0.16238801 0.025609804 0.044571005
0.10728006 0.113853015 0.17834431 0.050518587 0.07756674 -0.22438124 0.030647932 -0.034140285
0.0061041783 0.03390134 -0.109492965 -0.118356705 -0.11152311 0.056571607 -0.1094725 -0.14453132
-0.040341914 0.10798824 0.022396583 0.02052461 0.15575917 -0.14981708 -0.09024611 0.10466165
0.029930891 0.061616164 -0.036909748 -0.058122847 -0.24473001 -0.120384105 -0.044293854 -0.07168569
-0.06810551 -0.12379439 0.05225967 -0.16674824 -0.06783633 -0.21667697 0.068078525 0.15567777
0.077220574 0.14562358 -0.021150801 -0.033984445 0.029235203 0.09540009 -0.03202537 -0.110527374
0.027750231 0.016877526 -0.15026449 0.012546942 -0.074122205 -0.13219303 0.16839994 -0.16438656
-0.13697572 -0.07124677 -0.18832134 -0.027629446 -0.08241092 -0.24121843 0.00912145 -0.13246201
0.043284845 0.13284422 0.13704452 -0.095720105 -0.03200254 -0.112395994 -0.0031642837 -0.28427106
0.09760342 0.022521075 0.059981782 0.13313927 -0.028155003 0.12458045 -0.14257216 -0.10948598
-0.18643837 0.19629975 0.21325457 0.048324708 -0.06858142 0.058776576 0.10252767 0.087515585
0.03617746 0.07226606 0.05782231 0.083106786 -0.08762421 0.07167147 -0.023566017 0.16235888
0.008160267 0.0114280535 0.05670394 -0.14843334 0.03964821 -0.07383551 0.013522358 0.13987121
0.08758126 0.006172202 0.080339 0.08353246 -0.00450844 -0.20016591 0.0013725703 0.045933366
-0.063115425 -0.11621729 0.0044559543 0.07675405 0.0357978 -0.11278901 -0.047123875 -0.05674123
-0.02697526 0.05591917 -0.17189795 0.04492545 0.082409106 0.0137680145 -0.11055609 -0.028130813
0.18981752 0.012346243 0.2360086 0.12120384 -0.015244556 -0.11159535 0.009646167 -0.13101166
0.033860084 0.11176582 -0.06175209 0.029434696 0.099577546 -0.04272472 -0.08860459 -0.19037718
-0.11892717 0.086041406 0.1024444 -0.08055743 0.07625542 -0.01545988 0.08941831 0.11244562
0.070980616 -0.0059460634 0.10429249 0.001092084 0.117761396 0.046501715 -0.029726805 0.13818836
0.004581391 0.11916647 -0.004728582 0.083197 -0.03831391 -0.08869632 0.034810644 -0.09633633
0.13578494 -0.041510355 0.12927818 -0.06313993 0.04888232 0.07325684 0.047920484 0.0902505
0.06672288 -0.08497173 0.012592777 -0.024124065 -0.074521534 -0.1411067 0.020192128 -0.0065264646
0.13217829 -0.020960674 0.14555831 -0.039969977 0.07781659 0.16267976 0.07866886 0.057739645
-0.00016538044 -0.11853322 -0.0612428 0.13955073 -0.16520214 0.06322755 0.097826235 0.1754986
-0.018450178 -0.12644236 -0.08786077 -0.11985426 0.07240066 0.010994837 -0.061072603 -0.05755028
-0.15525666 -0.070691906 -0.062071458 -0.010155235 0.10906472 0.07058392 -0.10222293 0.03588111

gru.bias_ih_l0 f4 [192]
00000000: 07f7 3f3d 394f 0b3e 2b95 f3bb a380 073d
00000010: 2619 4a3d 8ba4 243e 8b00 153d 8dcc 143e
00000020: 9dfe b03d 0dbf 273e 7214 513d e749 b73c
00000030: 5458 1b3e 7f0c 4f3e 4ffd d43d 2d44 d1bc
00000040: a084 1bbc a402 ca3b 1976 133e 2aed 5c3d
00000050: cde7 e23c a8f6 d9bc 8586 bd3d 993f 7e3e
00000060: 57e7 023e ee71 093e 4a1a 123e a2fa 653e
00000070: 32c3 2e3e b7d6 e6bc 7c8d 1e3d 7eee cfbb
00000080: b86e bd3c ad43 173d 996f d8bd 8df9 953d
00000090: cca5 303e a063 7b3d 5781 d5bc e3d6 59bb
000000a0: 80b6 61bd 04a0 083e c841 56bd 4b48 9d3c
000000b0: b349 e13c e2e6 243e 2542 3a3e 9c2b 36bd
000000c0: 23bc 483e b029 f93d a9ff 93bd 39f3 f5ba
000000d0: 9245 df3b 7025 173d a042 2e3e 170e b13d
000000e0: 1ca3 1e3e db29 5bbd 70e3 c03d d1bb d83d
000000f0: e526 813e a373 4b3e 3ed8 0cbd 5547 f53b
00000100: 56c8 133d 4231 a2bd be41 99bd 7247 56bd
00000110: c094 e0bc 814e 393d 4ced b4bd af09 0fbe
00000120: 95f3 e9bd 2ba9 2d3d a45c 983d dc31 d2bc
00000130: de66 63bd 813f 653c 44d8 c43b 26f6 1a3d
00000140: b4f2 aa3d 1a70 f23d 71a6 f53d 9555 0dbe
00000150: 3191 afbd 083c 03bc a078 1b3d ba44 e1bd
00000160: dd6e 063e e961 33be f63a 16be 1e45 42be
00000170: fb34 263c 7ed7 8fbd 4dfc 023d 904e 373d
00000180: 4cbc 7cbd a7a1 fcbb 60f9 0abe 1d66 9fbe
00000190: 50bb d43c f529 09be f953 623d 5ff9 bb3c
000001a0: cbcf 8bbd 96cd 19be 712d 8abe e9ee f6bd
000001b0: ac9b acbc 590d 76be de4b dabd afe1 e7bc
000001c0: 2e07 1b3e 30a5 a1bc 5035 43bd d172 463d
000001d0: 4e3b e33c 32fe 0dbe c902 a1bd d77b 19be
000001e0: 5476 c13c 0752 443d 99b1 b2bc 0294 4ebd
000001f0: 438b 86be 7615 3ebe c34b 58bb 30cb 1dbc
00000200: c357 8e3d 640d 86bd ac6a 93bd 1bbe febd
00000210: 2195 a6bd 74dd db3d c395 9ebd 1757 a9bd
00000220: ae9a 053b bac1 d4bd 6dc1 7abd 1f22 41bd
00000230: c998 173d e7b0 ecbc a353 af3d 2046 df3d
00000240: 33a9 f43b 7b18 bbbb 0dc7 a0bd cb95 5abd
00000250: 7109 87bc 5d17 06be a32f a1bc 7ba9 dabc
00000260: cecf 683d 53c7 89bd 9ffe 31bd cd79 4d3c
00000270: e688 bf3d a2ec f6bc ed70 8abc 1f44 76bd
00000280: a434 a93d 9d67 b63d 4c70 06be b82b 013d
00000290: 12fc 80bc 72a7 1abd 61dd b23d a9de e3bd
000002a0: bdfe 223e 196d a03d 7d4b 90bd 0e5c 86bd
000002b0: 6c37 2d3d 51c1 943c 8df1 34bd 4a52 c2bd
000002c0: f766 c3bd 91c6 053e e444 883d 1996 0cbd
000002d0: 2e93 8f3d e746 193d bd85 8ebd 59f3 983d
000002e0: 3aa4 a1bd d831 14bd 0a60 b5bd 01af 10bd
000002f0: 96f0 913c 8cb9 e43d 1f8a 83bd 9598 e1bd
0.046866443 0.1360444 -0.0074335537 0.033081662 0.04934039 0.16078393 0.03637747 0.14531155
0.08642314 0.16381474 0.05104489 0.022374107 0.15170413 0.2021961 0.10399877 -0.025545204
-0.0094920695 0.0061648656 0.1440052 0.053937115 0.027698422 -0.026606873 0.09254173 0.24828948
0.12783562 0.13422367 0.14267841 0.2245889 0.17066649 -0.028178556 0.03870915 -0.006345569
0.023124084 0.036929775 -0.105681606 0.07322989 0.17250746 0.061374307 -0.02606265 -0.0033239655
-0.055105686 0.13342291 -0.052308828 0.019199511 0.027500963 0.161037 0.18189295 -0.044475183
0.19603018 0.121661544 -0.07226498 -0.0018764503 0.0068137133 0.036900938 0.17017603 0.086452655
0.15491909 -0.053506713 0.0941838 0.10582698 0.25224987 0.1986833 -0.034385912 0.00748531
0.036079727 -0.079195514 -0.074832425 -0.05231423 -0.02741468 0.045240883 -0.08834323 -0.13968538
-0.11423413 0.04239766 0.07439545 -0.02565854 -0.055518024 0.013992191 0.006007226 0.0378324
0.08347073 0.11837788 0.11994637 -0.13802178 -0.08572615 -0.008009918 0.037956834 -0.10999437
0.13128228 -0.17517819 -0.1467093 -0.18971679 0.010144467 -0.07023524 0.031978894 0.044752657
-0.06170301 -0.0077097 -0.13571692 -0.31132594 0.025968224 -0.13394912 0.055255864 0.022946058
-0.06826743 -0.15019831 -0.26987794 -0.12057287 -0.021070324 -0.24028529 -0.10659002 -0.028305857
0.15139458 -0.019732088 -0.047658265 0.04844934 0.02773824 -0.13866499 -0.07861859 -0.14988647
0.023615994 0.04792979 -0.0218132 -0.05043412 -0.26278123 -0.18562874 -0.0033004142 -0.009630963
0.06950333 -0.06545523 -0.071980804 -0.124386035 -0.08133913 0.10735598 -0.077434085 -0.08268564
0.0020386386 -0.10388513 -0.06121962 -0.04715168 0.03701094 -0.028892947 0.08560874 0.10902047
0.007466459 -0.0057097054 -0.07850466 -0.05336551 -0.016483994 -0.1309485 -0.019676035 -0.026692143
0.056838803 -0.06727471 -0.043455716 0.012541247 0.09352283 -0.030142132 -0.01689955 -0.06012356
0.082619935 0.089064814 -0.13128775 0.031535834 -0.015745196 -0.037757345 0.08733631 -0.111264534
0.15917487 0.07833309 -0.07045648 -0.06560527 0.042289183 0.018158587 -0.044175673 -0.09488352
-0.09541123 0.13064028 0.06653765 -0.03432283 0.07010494 0.037421133 -0.06959102 0.0746829
-0.07892652 -0.036180347 -0.088562086 -0.035323147 0.017814916 0.11168203 -0.06422829 -0.11015431

gru.bias_hh_l0 f4 [192]
00000000: c76a 763d 8e72 a03e 8b2d aebc a337 06be
00000010: 6dc0 0c3e 230a 1f3e 9118 163d 7c1a 9c3d
00000020: 0d6a fd3d 8584 9e3d 340a b53c 5cdf 823e
00000030: b0c0 303e 6f72 6b3d 69d7 1b3e 714f 9639
00000040: 062c e93d cfaf fc3d 970d ea3d 9985 e1bc
00000050: 73de 973d 408c f8bc 3512 6c3d d112 183e
00000060: 15c6 943d 217e f8bc b984 a43c e06b 213e
00000070: 1eea d53d aa34 63bd a001 173e c775 be3d
00000080: 918d 433c 0380 003d 47ab c0bd 0f23 bebd
00000090: e098 aa3d 26a2 14bd b0d3 d5bd adab e6bc
000000a0: 7595 8c3d 4f14 923d 4e4d 2e3e 5e85 1b3e
000000b0: 7f7f 403e d23f 223e 5139 3b3e d240 233d
000000c0: a962 1a3d a624 bcbd 6996 98bd 549b 22bd
000000d0: 06fc 323e 4fbb b73d 91e1 323c 8163 113c
000000e0: 3b6d b43d 2efd 8ebd b335 dfbc a9c0 01bd
000000f0: da28 b93d 6d08 553e 191a b83d 0ad2 903c
00000100: 04f9 a2bd 2dcf 49be e8c0 f53d a848 963d
00000110: 9d1a 203e f8fa fb3d 3378 42be f603 443b
00000120: 0497 34bd 8e06 253e cca1 04bc 661d cb3c
00000130: 40ee 933d 6063 933c cb15 edbd 0cb3 0b3e
00000140: 7cd0 dc3d 7efe 81bd d91d 973d 654b 2ebe
00000150: b89b 443d 1dde ccbd 7ace 303d 8ae4 95be
00000160: 0a4f 063d e90c 5fbd 2d09 16bd da94 4bbe
00000170: ad26 31bd f8b0 c2bc 4977 25be a91f aabb
00000180: 29b5 acbd 202c b7bd e203 373d b2f7 0bbe
00000190: 0eba 77bc 5655 6d3b 8365 083d f1ac 1bbe
000001a0: bd4c dd3c 04a1 98be 5960 97be 0211 3cbe
000001b0: af13 ba3d 2495 8cbd cfdc 97bc a5d6 52bc
000001c0: 742d 9f3d 8483 7dbd b7d2 c63d a9af 02be
000001d0: e047 193e 6643 9fbe fd83 03be 3b9f 20be
000001e0: ad40 7cbd 5bca 58bd c2e6 a7bd a37b 7bbd
000001f0: 0b0a 05be 8c38 9bbc 90f3 d1bd 3765 5cbd
00000200: 951b 90bd 9029 883d e6ab fd3c 8e32 bcbd
00000210: 0e87 ab3c 79a2 233d 113e 1c3d 1695 003e
00000220: 27ad c63d e6f0 52bd d996 21bb 545d 883d
00000230: 8b12 443d 3e9a d7bd 5c38 b4bd 5881 d83d
00000240: 9a2a 47bd 12a0 d13d f1dc 2abd 5f4e e43c
00000250: 1222 903c 733a b0bd 6ccf d1bd b6b8 71bc
00000260: 566f 97bd ebca 89bd 578c fcbd 5556 18bc
00000270: 1d8a 53bc d140 ebbc 3af7 f53c b110 c1bd
00000280: 509d 6c3d 3105 6c3d 66d7 d23d 1910 fabd
00000290: e28e 2e3d d597 f03d 39f0 60bd a6b4 40bd
000002a0: 12ff 643d f346 0c3d 74d6 c83d bf2e 5cbb
000002b0: 97b4 173d ce85 c9bc 7783 9f3d e25b df3d
000002c0: 3dde ed3d 4466 d43d cc70 e1bd bead 4a3d
000002d0: 114e 373b 4496 6cbd 288e e73d 47fd 6fbc
000002e0: 7558 a2bd ee0e ddbd 351e 8cbc 8410 053e
000002f0: 2f31 c63d 5d2c 163d 5657 ba3d b4ce bd3d
0.060160425 0.31337398 -0.021261951 -0.13107161 0.1374528 0.1553121 0.036644522 0.07622239
0.12373743 0.0774012 0.022099592 0.25561035 0.17261004 0.05748218 0.15218891 0.00028669418
0.1138535 0.1233822 0.11428373 -0.027529525 0.07415476 -0.030340314 0.05763455 0.14850928
0.07264344 -0.03033358 0.020082818 0.15763807 0.10445045 -0.055470146 0.14746714 0.09299808
0.0119356075 0.03137208 -0.094076686 -0.09284031 0.0832994 -0.03628745 -0.10440767 -0.028158033
0.06864444 0.0713278 0.17021677 0.15187594 0.18798636 0.15844658 0.18283583 0.03985674
0.037691746 -0.09186678 -0.074505635 -0.039698914 0.17478952 0.08971273 0.010918037 0.008873821
0.088098966 -0.06981884 -0.027247285 -0.031677876 0.09040995 0.20803995 0.08989353 0.01767828
-0.07957652 -0.19707938 0.119996846 0.07338077 0.15635152 0.12303728 -0.18991165 0.0029909587
-0.044089332 0.16115782 -0.008095216 0.024794292 0.07223177 0.017991722 -0.11576422 0.1364252
0.10781953 -0.06347369 0.0737874 -0.17020948 0.048000067 -0.10003302 0.04316566 -0.29275924
0.03279022 -0.05445567 -0.036629844 -0.19881001 -0.043249775 -0.023766026 -0.16158785 -0.0051917625
-0.08432991 -0.08943963 0.044681437 -0.13668707 -0.0151200425 0.0036214194 0.033299934 -0.1520269
0.02701413 -0.29810345 -0.29565695 -0.18365863 0.090857856 -0.06864384 -0.018537907 -0.012868558
0.07772341 -0.061893 0.097081594 -0.12762322 0.14968824 -0.31106108 -0.12843318 -0.15685742
-0.061585117 -0.052927356 -0.081983104 -0.061397206 -0.12992112 -0.018947862 -0.10251534 -0.053807463
-0.07036511 0.066485524 0.030965757 -0.0918933 0.020938423 0.039949868 0.03814513 0.12556872
0.09700995 -0.05149927 -0.0024656563 0.06658426 0.047869246 -0.10527466 -0.08799812 0.10571545
-0.048624612 0.10235609 -0.041714612 0.027869401 0.017594371 -0.08604898 -0.10244641 -0.014753511
-0.073942825 -0.06728157 -0.12331455 -0.009297927 -0.012911347 -0.02871743 0.030025113 -0.09427012
0.057767212 0.05762214 0.1029499 -0.12210102 0.042616732 0.1174771 -0.054916594 -0.04704728
0.055907317 0.03424735 0.09806529 -0.0033597199 0.03703746 -0.024599936 0.07788747 0.10906197
0.11614654 0.10371068 -0.110078424 0.0494821 0.0027970115 -0.057760492 0.11306411 -0.014647788
-0.07927028 -0.10793863 -0.017104248 0.12994581 0.0967735 0.036663402 0.09098689 0.09267941

gru.weight_ih_l0_reverse f4 [192, 16]
00000000: e333 653d a2c1 ebbd 476a 89bb 2c1d fdbd
00000010: b249 fabd 88f0 893d da6a 053e cf35 7dbd
00000020: b7e0 8e3c 6387 553d 9379 893d a3aa 5f3e
00000030: 8c0f 00be 77a1 cabd 10d7 463d a3f5 e33d
00000040: 8cf6 51bc cb19 f8bd d77f 01bd 46cc 223d
00000050: 80ad c13c 24e3 aa3d 32c4 763d c0c5 b23d
00000060: 5acc 72bc cf5c 19bd c80a 113e 79c2 b3bc
00000070: 3f48 ea3d f11d 3bbd 089d 193c 56eb 5ebc
00000080: 4bbf 97bd 59cc 213d a4c1 113e 61be 2d3e
00000090: 15bd 703e 0c88 09be f24a 3abc 8d7d dd3c
000000a0: 4a41 6fbe d9ae 17be bbc6 0dbe 0f83 90bd
000000b0: 271f 673d 325f 1dbb 1fdc 823b 7b5f e33d
000000c0: ee1b bebb 5f4f d93d 5faf 88bd 4735 d7bd
000000d0: c3a9 fabb ed23 b63d e968 c6bd 75bb 803d
000000e0: 8a08 89bd 05aa aebd c337 b53c c01b 933b
000000f0: 9676 f0bd b615 c03d 7a44 c1bd 838f a2bd
00000100: 4412 be3d f6c0 48be ef4a 233e 4fb0 ccbd
00000110: 77b2 4fbd 882f 01be fdd0 d33d 558c 223e
00000120: 608b 05be c3d8 15be 5e47 d5bc c3b2 053d
00000130: 6ade 3dbd 318d 80bd 60d4 95bd c03f 253c
00000140: 75ad 8dbe 0609 d33d a6db 4b3d 9d49 8a3d
00000150: a74a 65bd a603 9abd 96dc f7bd 6166 423e
00000160: b469 283d 5a52 54be 697c 133d b639 203c
00000170: 438f 61be 1480 10bd 381b 1ebe 74af d53d
00000180: 9185 cbbd b4f0 943d 958d 7b3e da42 8c3d
00000190: 4e43 a33d 4250 38bc 0050 853d 424c 94bd
000001a0: c09e 07bd 984e 933a c5bf dc3c be10 2bbc
000001b0: cf8c 87ba a034 6abd e6c6 dc3d e28e e93d
000001c0: 9304 5abe ac68 103e 5d0d 36bd 6499 073e
000001d0: 41c8 313e 4722 abbc 0184 883d 0466 5f3c
000001e0: b115 033e bcc5 9ebb 719e a5bd 0855 6abd
000001f0: 14d4 053d 9a4b 04be b31f 09be 2382 64bd
00000200: 0326 66be 24f3 ddbc 0469 88bd d5b7 47be
00000210: b095 923c e90f 1abd 0d10 07bc 7229 f93d
00000220: d854 be3d 5d29 4dbd e5f7 063e 6665 ff3d
00000230: 5b52 51be f195 423d befc 973d 37d1 1bbe
00000240: 38bc 95bd 16d6 b83d 075d 90bd a9f2 43bc
00000250: e12e 85bd 5599 10bd a3ba 9dbd 7b98 57bd
00000260: bd53 013e e9a4 a43d b03c a63d 200d 913d
00000270: 5c25 1fbd d15e c33c 6e4b 63bd 22eb 7d3d
00000280: 9d17 203e 8572 6abe 4a93 ce3d 0a8e f2bd
00000290: 386e acbd 5639 c5bd ca91 e13c 9eda 1bbe
000002a0: 758a 18be c0dc 68bd 77cc 533e b23c 1e3e
000002b0: 1830 a7bb 927f 3bbd cf2b c2bc 1994 eb3c
000002c0: 0e73 6a3b 800d bf3d 7989 c2bd 4ae5 5b3c
000002d0: 753d dbbd 81f4 a13c c508 03bb 2869 923d
000002e0: 3ec4 643c 8b65 ad3d c1bb c5bc c5b1 b33d
000002f0: 0a5e 69bd 0de6 a03d 3148 ae3c b02c 9fbd
00000300: 9d8e 6b3e d1cd bbbd ba34 e23d c601 db3d
00000310: 675c 95bd 9963 013c dfc5 a6bd da28 12be
00000320: 0435 8c3c e5b2 723d d721 fb3d 44dd 2cbd
00000330: 046d 033d de20 2cbe 9dfa 573e 23be 2f3d
00000340: 56b5 653c 80d5 0c3d b695 bc3d e2b2 323d
00000350: 1118 b33d af55 cdbd 381d 503d 6a5e 57be
00000360: 3d25 8bbe 7cd9 23be 5e7a 093d 302d 50bd
00000370: cf82 383e 10a3 d3bb bb28 e83c c173 81bd
00000380: 7833 393d 3893 44be eb78 bdbc d68a debd
00000390: 8f30 5b3d 6f0f 95bd e002 1d3e 1bf8 67bd
000003a0: 8221 49be 9c28 45be dacb 4f3e b41d 2c3d
000003b0: ceb0 ec3d 4555 11bb ecff e53c 03e4 5b3d
000003c0: 8d17 fc3d 24dc 573c b3c1 863d 1323 3cbd
000003d0: 0362 f63d 0b80 1ebe 727b af3d 97ef 7a3d
000003e0: 4b0a 3f3c cf5a 54bd 4da4 0d3e b872 adbc
000003f0: 1f4b 2e3e 57ce debd 3934 753b 30bd e6b8
0.055957686 -0.11511542 -0.0041935774 -0.1235908 -0.122210875 0.06735331 0.13029042 -0.061818894
0.017441137 0.052131068 0.067126416 0.21842436 -0.1250593 -0.09894078 0.048544943 0.11130836
-0.012815129 -0.121142946 -0.03161606 0.03974559 0.023642302 0.08344105 0.0602457 0.08729124
-0.014819229 -0.037442025 0.14164269 -0.021943318 0.11439561 -0.04568285 0.009375818 -0.013605913
-0.07409533 0.03950152 0.14234024 0.16967155 0.23509629 -0.13430804 -0.011370407 0.027037406
-0.2336475 -0.14812793 -0.13845341 -0.070562474 0.056426194 -0.002401304 0.0039935256 0.11102196
-0.0058016693 0.10610842 -0.066740744 -0.10508209 -0.0076496317 0.08893571 -0.09687979 0.062857546
-0.06691082 -0.085285224 0.022121316 0.004489392 -0.117413685 0.09379141 -0.09436889 -0.07937529
0.09280828 -0.19604859 0.15946554 -0.09994566 -0.050707307 -0.12615788 0.10342596 0.15873845
-0.13041449 -0.1463347 -0.026035007 0.032641184 -0.04635469 -0.0627693 -0.07315898 0.010086
-0.276714 0.103044555 0.04977002 0.06752322 -0.055979397 -0.07520227 -0.1210262 0.18984367
0.04111643 -0.2073454 0.03600732 0.009779384 -0.22027306 -0.035278395 -0.1544007 0.10433856
-0.09937585 0.07272473 0.24565728 0.068486884 0.07971822 -0.011249604 0.065093994 -0.072411075
-0.03311038 0.0011238633 0.026946912 -0.010441003 -0.0010341647 -0.057179093 0.10780124 0.11404206
-0.21290807 0.14102429 -0.044446338 0.13242108 0.17361547 -0.020890368 0.06665803 0.013635162
0.12801243 -0.004845349 -0.08086861 -0.05721 0.032672957 -0.12919465 -0.13390999 -0.05578817
-0.22475438 -0.027093478 -0.06660655 -0.1950372 0.017893642 -0.03761283 -0.008243573 0.12166108
0.092935264 -0.050088275 0.13180502 0.12470512 -0.20441572 0.047506277 0.074212536 -0.15216528
-0.073112905 0.09025209 -0.070489936 -0.01195971 -0.06503082 -0.03530248 -0.07701614 -0.05263565
0.126296 0.080392666 0.08117044 0.070825815 -0.038853988 0.023848923 -0.055491857 0.06199182
0.15634008 -0.22895248 0.10086687 -0.11843498 -0.0841946 -0.096300766 0.027535338 -0.15220115
-0.14896567 -0.05685115 0.20683466 0.15452841 -0.005102169 -0.045775957 -0.02370253 0.028757142
0.0035774144 0.09328747 -0.09498877 0.013421366 -0.107050814 0.019769909 -0.001999424 0.07148963
0.013962803 0.084666334 -0.02413738 0.08774141 -0.05697445 0.07856379 0.021274658 -0.07772195
0.23003621 -0.09170116 0.11045213 0.10693698 -0.07293015 0.007897281 -0.0814321 -0.14273396
0.017115124 0.05925264 0.12262314 -0.042203203 0.032086387 -0.16809413 0.21091695 0.042905938
0.014020285 0.034383297 0.092082426 0.043627627 0.08744825 -0.100261085 0.050809115 -0.2103211
-0.27176848 -0.16000932 0.033563964 -0.050824344 0.1801865 -0.0064586475 0.028339734 -0.063209064
0.0452151 -0.19196784 -0.023128947 -0.108663246 0.053513106 -0.07278334 0.15333128 -0.056633096
-0.19641688 -0.19253772 0.20292607 0.042020515 0.1155716 -0.0022176069 0.028076135 0.053684246
0.123091795 0.013175044 0.06579914 -0.045931887 0.12030413 -0.15478532 0.08568467 0.061263647
0.011660169 -0.051844414 0.13832207 -0.021172866 0.17020844 -0.108792 0.003741516 -0.000110024936

gru.weight_hh_l0_reverse f4 [192, 64]
00000000: 5662 813e 8a70 0e3e 1c72 a0bd 5762 8a3d
00000010: d0b0 ef3c 0837 e2bd b257 2e3c 0ba4 10be
00000020: 4888 a5bd 6a98 563d f8bf 663d 6fbb 96bb
00000030: 4e25 09be ccdf 53be 9031 d23d 8070 943d
00000040: fad6 c93d 523b 24bd f5c1 fabd ee58 2f3e
00000050: 3274 5d3d 765f d1bd 3196 b6bc 0a43 bf3c
00000060: b662 f43d 355e 1d3d 42c4 433d 2476 45bd
00000070: 6e4f f63c a9c5 18be ad5f ccbd cb6f 58bd
00000080: 68cc ce3d b954 643a e8bb 773d 5049 413d
00000090: 210a 6bbd fddf 403d 1e13 2d3e d9f2 963c
000000a0: 7eda ca3c 2623 6dbd faa1 a0bd b761 b83c
000000b0: 2990 003c 3a3e 8abc b351 273e 1337 3abd
000000c0: 00a8 b7bb edb6 d8bd 5514 a13d 176b c4bd
000000d0: d87f b43c 6497 043e b196 28be dcff c8bc
000000e0: 7e67 a43d d554 fb3d afe9 87bc 67d6 13be
000000f0: 71cf 21be 0ae5 19be 4dcb e03b 406b f93d
00000100: 60f1 873e 72bc 3f3e a0f8 d43c 0e73 533d
00000110: f739 373d 6ada 97bc 7f7c 8d3d a939 453c
00000120: 38df 343d a034 0b3d 91c0 a5bd 1cde 42be
00000130: dbbf a7bb c79f 77be f7b5 23bc 6cf5 c73d
00000140: ef28 2a3b 6c68 36bd b722 13be 3561 3d3d
00000150: f221 0b3d 0913 7abd 8146 903d 972f 423e
00000160: 0c67 5fbd 999f 71bd bc21 0d3d 7877 c33c
00000170: 6b37 27bd 32e6 e3bd ee0f 17bd f8f0 d9bc
00000180: e725 8fbd 7120 30be 8bb7 b13d 17a3 033c
00000190: 3bee afbd 92f0 ac3d 5d39 e0bc 841b cebd
000001a0: 1cd5 78bd 65e9 47bd f57c 91bd 0d26 75bd
000001b0: c149 9bbd ed73 583d 4b73 6c3e ded1 e7bc
000001c0: 76f9 32bd 9473 9e3d 09b5 03bc 68b0 2f3d
000001d0: 53d2 f6bc e999 b83d 3def cabc 35e5 f13d
000001e0: fe64 563e 3ce0 bb3d d477 4abe fc92 b4bd
000001f0: 59a2 adbd bd50 24be 2cbe 523d 977c b2bd
00000200: 7631 0a3d 54e5 0a3d 72d9 eb3d f6ef d5bd
00000210: f928 0f3e 0f87 19be 092c a4bc 503d d6bc
00000220: 666c 5ebb 23a4 bebd 4a17 8bbd 5641 29be
00000230: ec5b 383d b875 32bd c198 c83d 14ce b73d
00000240: aab6 61bd 1228 213d 46ca 9b3d c7ab 5ebc
00000250: 12fe 663d 4d2c 123d 3f8d 0abd e1cd 1e3e
00000260: ffe2 32bd 08a6 313e f5d5 b6bd 3d8f cbbd
00000270: b360 ac3c fa39 1dbd b4cd c23b d671 22bd
00000280: 2d92 a63c eecc bb3c 76a3 9f3b c47e 95bc
00000290: ff6c f03d d834 11bd 1075 49bd 6326 20bd
000002a0: ff26 dfbc 2aa6 4e3d 6e78 a6bc 5977 27bd
000002b0: 6f96 d6bd 174c ce3d 8ed4 e5bc 808e 5abd
000002c0: cf76 4abd 170a dd3d 349a 94bd 10e9 bd3c
000002d0: 4565 393c 2798 8b3c ad2d 083e 493b 893d
000002e0: fc17 e63d b519 96bd 9be0 2abe 29ce 4abd
000002f0: 7f93 f1bd 7316 20bd a93e 953d 3e82 13be
00000300: e602 813e 431d e83d 4a7f 283c 311d 40be
00000310: 4309 8c3d aba5 7c3c b8ca a93d b80c e13c
00000320: 6fa4 a4bc 7120 a7bd df48 c33b 5647 f1bd
00000330: 6790 863d 34ae 56be b2e9 a9bd f875 123d
00000340: 831e 063d 5ebc 85bc 0ae3 cdbd 78c6 db3d
00000350: c492 52be ba9e a6bd 426c b0bc 1853 5a3d
00000360: 9a18 793d d72e 243d fbf3 d0bd 68a5 bbbd
00000370: 7d1d 0c3e c3c6 d9bd ed84 353c 97c2 4b3e
00000380: e819 6dbd 752e eabd eaf0 603d 4eeb 56bc
00000390: 423c 64bc 06cf 6e3d 2059 c93b 9e35 003e
000003a0: ad6a fdbd e04c 81bd b625 023d 1bd2 90bd
000003b0: d4cb ae3d 8148 cfbb df6a d2bb 9712 1a3e
000003c0: 7d05 1e3e 3b70 903d f63c 083e fcdf 2d3e
000003d0: 5779 9fba 0f04 e73d 12d6 19be 796f 423e
000003e0: d2d2 623e 17cb 093e 5a79 29be 6b29 b53d
000003f0: 521f aabd 0118 b33c ff81 b63d 6e67 623d
0.25270337 0.13910118 -0.07834265 0.06757038 0.029259115 -0.11045653 0.010641025 -0.14125077
-0.08082634 0.052391447 0.05633542 -0.0045999805 -0.13393137 -0.2069084 0.102633595 0.0724802
0.09855457 -0.040095635 -0.122440256 0.17123768 0.05406589 -0.10223286 -0.022288414 0.023347396
0.1193289 0.03841992 0.047794588 -0.04820837 0.030067172 -0.14919151 -0.09979186 -0.05284099
0.10097581 0.00087101344 0.060481936 0.047189057 -0.057382707 0.047088612 0.16901824 0.018426346
0.024762388 -0.05789485 -0.078433946 0.022507532 0.00784687 -0.016875375 0.1633976 -0.04546268
-0.005604744 -0.10581765 0.07865206 -0.09590738 0.022033617 0.12948376 -0.16463734 -0.024536066
0.08027552 0.1227204 -0.016590921 -0.14437257 -0.15801789 -0.15028778 0.006860173 0.121786594
0.26551342 0.1872423 0.02599746 0.051623397 0.044733014 -0.018536765 0.06908511 0.012037673
0.04415819 0.033985734 -0.0809337 -0.1903004 -0.0051193065 -0.24182044 -0.009992114 0.097636074
0.002596434 -0.04453318 -0.14368711 0.046235282 0.03396792 -0.06105331 0.070446976 0.18963467
-0.054541633 -0.058990095 0.034456 0.023860678 -0.040824335 -0.11127891 -0.036880426 -0.02660416
-0.06989651 -0.17199875 0.08677586 0.008034489 -0.08590361 0.08444323 -0.027371103 -0.10063842
-0.060750112 -0.048806567 -0.07103912 -0.05985074 -0.07582427 0.05284493 0.23090856 -0.028298315
-0.043694936 0.077368885 -0.008038768 0.042892843 -0.030129587 0.09013731 -0.02477228 0.11811296
0.20936963 0.09173629 -0.19772273 -0.088170975 -0.08478231 -0.16046424 0.051450893 -0.0871517
0.033738576 0.03391011 0.11516084 -0.104461595 0.13980474 -0.14992927 -0.020040529 -0.026152283
-0.0033939122 -0.0930865 -0.067915514 -0.1652883 0.04500954 -0.043569297 0.097947605 0.08974853
-0.055105843 0.039344855 0.0760694 -0.01359076 0.056394644 0.03568678 -0.03382611 0.15508224
-0.04367351 0.17348492 -0.08927528 -0.0993943 0.021042204 -0.03838537 0.005944932 -0.039659344
0.020333374 0.022924867 0.004871781 -0.018248923 0.11739539 -0.035450786 -0.049183905 -0.03909911
-0.027240274 0.050451435 -0.020321097 -0.040885303 -0.10477912 0.10073107 -0.028055456 -0.053358555
-0.04942971 0.1079294 -0.072559744 0.023182422 0.011315648 0.017040325 0.13298674 0.06700761
0.112350434 -0.07329122 -0.16687243 -0.049513016 -0.11795711 -0.03908391 0.07287342 -0.14405152
0.25197524 0.11333706 0.010284254 -0.18761136 0.06837704 0.015420358 0.08290619 0.027471885
-0.02009794 -0.081604846 0.0059596146 -0.117811844 0.06570511 -0.2096489 -0.08296527 0.035757035
0.032743942 -0.016325172 -0.1005307 0.10731214 -0.20563799 -0.081357434 -0.021535996 0.0533019
0.060814478 0.040083732 -0.102027856 -0.09162408 0.13683124 -0.10633614 0.011079055 0.19898449
-0.057886034 -0.11434642 0.054917254 -0.013117624 -0.013930382 0.0583029 0.0061446577 0.12520453
-0.123738624 -0.06313491 0.031774245 -0.070713244 0.08534971 -0.006325782 -0.0064214314 0.15046154
0.15431781 0.07052656 0.13304505 0.16979975 -0.0012166899 0.11280071 -0.15023068 0.18987836
0.22150734 0.13456379 -0.16550198 0.088457905 -0.08306755 0.021862032 0.089115135 0.05527442

gru.bias_ih_l0_reverse f4 [192]
00000000: d025 313d 61b8 16bd bf80 2a3d a93d db3c
00000010: 3889 813c c703 25bd d9f0 143e 53c5 c83d
00000020: 2159 f33d c8d8 273b eaf2 61bd 453e d3bd
00000030: 6084 123d 18d2 733d 50a0 0ebd 2e59 953d
00000040: a35d 063e 910c f73d 88e1 26ba 2d4e 04bd
00000050: e7d9 fa3d 07af 1d3e c4a6 1f3e 034a 21bd
00000060: 23de a03d a661 f2bc 0e10 febc aa3b 0f3e
00000070: ee9c 1e3e a757 e03d fe11 58bd 6ed1 c23d
00000080: cad8 caba 99d2 ba3d 4735 d0bc c208 cd3d
00000090: 7c23 1f3e ee9e 3bbd a409 af3d f304 063e
000000a0: 259d 853d 2c85 07bd ad22 9f3d d2ed 123e
000000b0: c720 7d3d 01ae c7bc b981 86bd 4e01 893d
000000c0: fdea 5e3d 6309 423e 9cb6 1e3e bbc3 b53c
000000d0: 9a0a 353e 7cfe 4a3e 0942 e63d 9ec2 a23d
000000e0: ef33 b7ba c9c7 d4bb 2eba 313e f269 b7bc
000000f0: c162 463b 5268 153b b6da c03c 8658 2b3d
00000100: 247e 2ebe 2678 ffbd cf9b df3c 33c3 10be
00000110: ba0c 9bbd a635 3ebe 5fcd 23bd 95d0 173e
00000120: 58cc 44bd 25d3 e93c 716e 1dbe 78c8 34bb
00000130: f661 97bb 809a 9e3d 6b99 0ebc 404b 87bd
00000140: 29ae 9abb 1bbf cdbd cf02 2bbc 027f aabe
00000150: cadf 74be 2756 cd3d e59f d43d 2a43 d5bd
00000160: 1928 d5bd d957 27be 91cd 2b3d 9e68 c23d
00000170: d362 783d a283 b13d 849d 25bd b96d 443c
00000180: 5c99 8bbd 5c35 483c ade0 e13d 0a68 f3bd
00000190: 7eb9 7e3c 9092 95bd b0bb e1bc d7ca c43c
000001a0: ec78 c5bd fde3 ecbd 21cc d8bd d5c6 2fbd
000001b0: 43c9 f0bd 850d a3bd 8bdb aa3d e342 c3bc
000001c0: 0ff0 b73b d9be 88be 3a80 86bc 4e75 163d
000001d0: c6ae 23bd ce4b e6bd c092 003d 3818 cebd
000001e0: 1185 54bc d179 cc3d f004 b5bd ba0c 43be
000001f0: 1c02 5cbd 302d f03d 977c bd3d 009b 14be
00000200: 92f1 b3bd f686 3d3d 8b96 a03b 65df 81bd
00000210: d0f9 edbd 0186 4d3c 4438 4bbd 60b7 903c
00000220: 32bb 963d 62cd bf3d 6294 be3d e6b8 65bd
00000230: fff3 ccbd 5634 3bbe 37aa 5b3d 3053 efba
00000240: 280f b6bd 04cc bb3d 1c17 cdbd 7dc2 9dbb
00000250: 162b 93bd 4744 5dbd be68 f5bc 0404 c43d
00000260: 6fff 07bd 7f2e ccbd bc1e 81bd 9c5a 9bbd
00000270: 2800 9fbd 9d66 80bd dec1 f43d ae60 053e
00000280: c7e6 66bd 5162 9ebd 5029 7b3d fb2f bc3c
00000290: 0d19 013d e8ea c3bc 7307 6f3c 988c 2f3d
000002a0: 5471 ccbd 5751 d3bd 0f9c d43c d33a d63c
000002b0: 6b5d 0cbe 82a4 113e 1231 fd3d c514 bfbc
000002c0: 7e27 ef3c eb73 543d e7ea de3d d921 edbb
000002d0: 07e3 b43d 55cf 9b3d 9371 4fbc 8963 d53c
000002e0: 3b67 f23d 0c95 f93d a35a f13d bec0 95bd
000002f0: 444e 36bd 57ef c9bd 5a94 993c 0007 c1bc
0.04324895 -0.03679693 0.041626688 0.0267628 0.015812501 -0.040286805 0.14545001 0.098032616
0.11882234 0.002561139 -0.0551633 -0.10314611 0.035770774 0.059526533 -0.034820855 0.072924
0.13121657 0.12062944 -0.0006366004 -0.032301117 0.12248593 0.15398799 0.1559096 -0.039377224
0.07854869 -0.029587578 -0.031013515 0.13987604 0.15489551 0.10954218 -0.052751534 0.09512602
-0.0015475985 0.091221996 -0.02541603 0.10011436 0.1554088 -0.045805864 0.08546761 0.13087825
0.065241136 -0.033085987 0.07770286 0.14348534 0.061798837 -0.024374964 -0.065677114 0.06689702
0.05442332 0.18948893 0.15499347 0.022188058 0.17679825 0.1982364 0.11243064 0.079472765
-0.0013977269 -0.006493543 0.17356178 -0.022389386 0.0030271264 0.0022797775 0.02354179 0.04183247
-0.17040306 -0.12474088 0.027295975 -0.14136963 -0.07570787 -0.18575153 -0.03999078 0.14825661
-0.04804644 0.028543064 -0.15374161 -0.002758531 -0.004619832 0.07744312 -0.00870357 -0.0660615
-0.0047204685 -0.10046216 -0.010437681 -0.33300024 -0.23913494 0.10026198 0.1038206 -0.10413201
-0.10408039 -0.16342105 0.04194409 0.094926104 0.06064112 0.08667685 -0.04043342 0.011989051
-0.0681636 0.012219753 0.11029182 -0.11885078 0.0155471545 -0.07303345 -0.027555317 0.024022503
-0.09642205 -0.11566923 -0.105858095 -0.04291423 -0.117571376 -0.07961563 0.08342656 -0.023835605
0.005613334 -0.26708105 -0.016418565 0.036732964 -0.0399616 -0.11244927 0.03138995 -0.10063213
-0.012971179 0.09984172 -0.088388324 -0.19047824 -0.05371295 0.11727369 0.09252279 -0.14512253
-0.0878631 0.046271287 0.0049007586 -0.06341437 -0.116199136 0.012544156 -0.049614206 0.017665565
0.073599234 0.093653455 0.093056455 -0.056084536 -0.10007476 -0.18281683 0.053629126 -0.0018259045
-0.088896096 0.09169772 -0.100141734 -0.0048144446 -0.07185952 -0.054020192 -0.029957172 0.095710784
-0.033202585 -0.09969806 -0.0630469 -0.07585642 -0.07763702 -0.06269572 0.1195104 0.13025162
-0.05637243 -0.07733596 0.061318696 0.022972098 0.03151803 -0.023915723 0.014589178 0.04285869
-0.09982553 -0.10318249 0.02595332 0.026151096 -0.13707511 0.14222911 0.12362875 -0.023325333
0.029193636 0.05186836 0.10884648 -0.007236701 0.088323645 0.07607905 -0.012661356 0.026048439
0.11836096 0.121866316 0.11784866 -0.07312153 -0.044508234 -0.098601036 0.018747497 -0.023562908

gru.bias_hh_l0_reverse f4 [192]
00000000: b84e 73ba 2da0 06bd a289 6abc 9f8b f83d
00000010: b413 003e 073e 293d 9c1e 4c3d 3bb7 e33d
00000020: 8fd0 c0bd 5041 6b3d f495 fe3d 431a dcbd
00000030: e3a4 d93d b5a7 09bc ff4b 483e 0a03 8e3c
00000040: 3154 0e3c ad24 0c3e 0710 ea3d 9b0a fd3d
00000050: 6b73 393e ebc8 b03c 3c62 4f3e 2fbd b53b
00000060: 6224 803d 6c90 e8bc 1d8f 7e3b b9ef cf3d
00000070: 310e 7b3d b943 a6bd ba10 73bc a0b2 163e
00000080: c358 fa3d 3080 333d b74c ec3d 484a e33d
00000090: b354 0d3d 563e bcbd 98ce af3d 376b 35bd
000000a0: 69ce 9abd 9b77 003e 441d 0bbd 2043 293e
000000b0: 1f45 a53c bd2a d53c 15e4 84bd 5613 393d
000000c0: 67ba 80bd 95e1 2f3d 10ec 823c bbf4 6d3d
000000d0: 43ed 81bc 9229 5b3e 385a 173e c466 bd3c
000000e0: ce9c 40bb 8ffa d63d 5ac0 593d 42ec b5bd
000000f0: 4471 a4bc c207 dc3d 1fb7 4c3d abbe 9fbc
00000100: c4e2 583d 6cd0 b2bd f6cc 683d 38e3 b1bd
00000110: 627a c9bd cee7 e6bd 1f39 303b f835 373c
00000120: 53ba 89bd 902c e4bd 1f80 0bbe 48e8 e7bd
00000130: b9f4 01bd efcf 2c3d fb77 d1bd 1506 bdbc
00000140: 92a9 933c 9577 d63d 27e3 2e3e 0296 9ebe
00000150: 3c9d 6abe f064 153e f7c2 71bc 4220 b2bd
00000160: bfca 54bd 5e17 f7bd 1380 79bd 0b92 063d
00000170: 85e6 133d 3a92 15bd 8add 54bc 076c 42bc
00000180: 893d 66bd e1a7 7abd 05ce 903d 8afe eabd
00000190: 9a17 383d 9729 dcbc a913 0d3d 9171 95bc
000001a0: 97c8 28be b6cb 64bd ebc2 09bc 92a7 973c
000001b0: 8866 1ebe 8f37 aabd 23e1 49bc 442e 4d3b
000001c0: 5cf3 29be c52e 46be 8e92 84bc 01af d23c
000001d0: bf7d 933d 0f5d 08be 9e41 a73d dc06 c0bd
000001e0: f23f df3d 0cef 86bd 9234 82bd d6d8 3fbd
000001f0: 27b5 a33d 7142 fa3d b260 813d a20a 48be
00000200: b00c 023e 67a5 f73d d12f 563d c782 edbd
00000210: 11b3 613d 7a12 3fbd fe13 b83d 06da 2b3d
00000220: dfcd e9bd c44c f2bd 8062 103c a9c6 f6bc
00000230: c136 c4bd 1bf8 87bc a6e1 d23c ee15 df3d
00000240: 4106 0e3d bbfc 9c3d 6266 ce3c df3d 0d3c
00000250: 40b1 9d3c 8738 aebb 4ac2 163d 77b8 003e
00000260: 1e51 f4bd 3095 b4bd 713f 92bd 2688 a93d
00000270: 63a2 893d 3eba 303d 215c f63d 021c a2bc
00000280: b84b 923d 0000 413d 77a6 983d daf3 39bc
00000290: d37a 053e 4657 76bd 7a41 3e3d 9b5a 353d
000002a0: 16dd 6a3d 6c14 aabd 0765 363d a878 bdbd
000002b0: 5b5d e9bd 912d d13d 8fe3 b2bd cbda dd3c
000002c0: 8ba2 16bd 99d8 b13d b223 0bbe d0f7 43bd
000002d0: 3959 d33c 8ee7 813c 226d 96bd bf91 c0bd
000002e0: d37f dfbc 3cff 2f3d 875f f5bc 6e1c bbbd
000002f0: 4815 42bc e6e8 aebd 6ef7 f5bd 2c49 a93d
-0.00092814444 -0.0328676 -0.014315041 0.121360056 0.12507516 0.04131892 0.04983388 0.11118933
-0.094147794 0.057435334 0.12430945 -0.107471965 0.10627153 -0.008401801 0.1956024 0.017335434
0.008687065 0.13685866 0.11428838 0.123555385 0.18110435 0.02158018 0.20252317 0.005546234
0.062569395 -0.028389178 0.0038842626 0.10153145 0.06129283 -0.08118386 -0.014835531 0.14716578
0.12223961 0.04382342 0.1153807 0.110981524 0.034504604 -0.09191577 0.085843265 -0.0442917
-0.07558901 0.12545626 -0.033963457 0.16529512 0.020174561 0.026021356 -0.06488816 0.045184456
-0.062855534 0.04293974 0.015981704 0.05809472 -0.015860206 0.21402577 0.1478051 0.023120292
-0.0029390338 0.10497009 0.053161956 -0.08882953 -0.02007354 0.10743667 0.049979325 -0.019500097
0.052950636 -0.087311596 0.05683609 -0.08685917 -0.09837796 -0.11274682 0.0026889516 0.011182301
-0.06724992 -0.11141312 -0.13623093 -0.11323601 -0.031727526 0.04219049 -0.102279626 -0.02307419
0.018025193 0.10472027 0.17078839 -0.30973822 -0.22911543 0.14589286 -0.014755956 -0.08697559
-0.051951166 -0.12065004 -0.060913157 0.03285412 0.036108512 -0.036516406 -0.012992272 -0.011866576
-0.05621103 -0.061195258 0.07070545 -0.11474331 0.044944383 -0.0268753 0.034442578 -0.01824263
-0.16482769 -0.055858336 -0.0084082885 0.018512521 -0.154688 -0.08311378 -0.012321743 0.0031308094
-0.1659674 -0.19353779 -0.016183164 0.025718214 0.072017185 -0.13316749 0.08166812 -0.09376308
0.109008685 -0.06588563 -0.06357683 -0.04683765 0.079935364 0.12219704 0.06317271 -0.19535306
0.12700152 0.12092095 0.052291695 -0.115972094 0.05510241 -0.04664848 0.08988188 0.04195597
-0.1141622 -0.11831048 0.008812547 -0.030124025 -0.09580756 -0.016597798 0.025742363 0.10892855
0.034673933 0.07665392 0.025195304 0.008620708 0.019249558 -0.005316797 0.036806382 0.12570368
-0.119295344 -0.08817518 -0.07141007 0.082779214 0.06720426 0.043146364 0.12029291 -0.019788746
0.071433485 0.04711914 0.07453626 -0.011349643 0.13035135 -0.060141824 0.046449162 0.04427586
0.05733975 -0.083046764 0.04452994 -0.09251529 -0.11394759 0.10213769 -0.087348096 0.027081868
-0.036776107 0.08683891 -0.13587835 -0.047843754 0.02579938 0.015857484 -0.07345034 -0.09402799
-0.027282631 0.04296802 -0.029952778 -0.09136282 -0.011845894 -0.085405156 -0.12010084 0.082659096
