try4_realDataset_embeddedMotif_noGaps1/100bp_1_positive_trim100_fullytrainedGen.pth (torch, 67815 bytes, 7 tensors)

embeddings.weight f4 [5, 16]
0	0xbf105e8d	-0.56394273
1	0xbf75394a	-0.9579054
2	0x3e695fd7	0.22790466
3	0xbfc3e1d0	-1.5303288
4	0x3f6c659a	0.9234253
5	0x3fe2e375	1.7725664
6	0x3f009964	0.50234056
7	0x3fb6b581	1.4274141
8	0x3f77bb48	0.96770144
9	0xbf979f68	-1.1845522
10	0xbfbb330c	-1.4624953
11	0xbedf5e16	-0.4362647
12	0xbf9bcfa3	-1.2172741
13	0x3f40546a	0.75128806
14	0x3fac38e8	1.3454866
15	0xbedbb611	-0.42912343
16	0x3e71799c	0.23581547
17	0x3c734fb7	0.0148505485
18	0xbef6a85b	-0.4817532
19	0x3e8d42de	0.27590078
20	0x3f8fdb49	1.1238796
21	0x3fb76e34	1.4330506
22	0x3ef42741	0.47686198
23	0xbfe3ce73	-1.7797378
24	0xbf9e1b2d	-1.2352043
25	0xbf98bf4a	-1.1933377
26	0x3f95c2be	1.1700056
27	0x3e2eb503	0.17061238
28	0xbfa41ea0	-1.2821846
29	0x3ec2f06e	0.38074058
30	0xbf8dfbee	-1.1092508
31	0x3f9f46aa	1.244344
32	0x3e99b316	0.30019444
33	0xbf503068	-0.8132386
34	0x3f081e5e	0.53171337
35	0x3e436013	0.19079618
36	0xbe64a744	-0.22329432
37	0x3e6c973e	0.2310457
38	0x3f53c709	0.8272558
39	0xbe577826	-0.21041927
40	0x3f3a2960	0.72719383
41	0xbf1f4a3a	-0.62222636
42	0x3f51e1a3	0.8198492
43	0xbdaab4d5	-0.08335272
44	0x3f94793b	1.1599497
45	0xbd00d265	-0.031450648
46	0x3dd7ac5c	0.10530922
47	0x3f0422e1	0.5161572
48	0xbee08780	-0.43853378
49	0x3fe303fe	1.7735593
50	0xbc3fcad4	-0.011706073
51	0x3ecfe39e	0.40603346
52	0x3f641e03	0.89108294
53	0xc012cf97	-2.2939203
54	0xbfeb61ea	-1.8389256
55	0xbe6a59d8	-0.22885835
56	0xbf44e940	-0.7691841
57	0x3ed1d50d	0.40982857
58	0x3eb6c700	0.356987
59	0xbe5d8ee8	-0.21636546
60	0x3d238c74	0.03992887
61	0x3cd137da	0.025539327
62	0x3d81a826	0.063309
63	0xbf867324	-1.0503888
64	0x3cfa2bcc	0.030538462
65	0x3d6055bb	0.05476926
66	0xbf409d8b	-0.7524039
67	0xbf03e98b	-0.51528233
68	0x3fe3b09e	1.7788274
69	0xbe4cb6d4	-0.19991618
70	0xbdaeafec	-0.08529648
71	0xbf0db43a	-0.5535313
72	0xbe6f6589	-0.23378576
73	0x3fc2c48e	1.5216234
74	0xbfacee63	-1.351025
75	0x3f8cb3c5	1.0992361
76	0xbe106d5e	-0.1410422
77	0xbe8b1656	-0.27165478
78	0x3f67c49f	0.90534395
79	0xbea8eb3f	-0.3299198

gru.weight_ih_l0 f4 [192, 16]
0	0x3b562352	0.003267486
1	0x3dcb8820	0.09938073
2	0xbe375aa5	-0.17905672
3	0x3da10665	0.07862548
4	0x3ece28c5	0.4026548
5	0x3dfd300d	0.123626806
6	0x3c4d68ba	0.012537176
7	0xbe9fbaf6	-0.31197327
8	0xbded0571	-0.115733035
9	0xbd9c27da	-0.076247886
10	0x3cb1f225	0.021721909
11	0x3e2b49e4	0.16727406
12	0x3e0592f4	0.1304434
13	0xbe8f590d	-0.27997628
14	0xbdd0614c	-0.10174808
15	0x3c8f7a11	0.01751426
16	0x3f06b68a	0.5262228
17	0xbee01be1	-0.4377127
18	0x3e812d0f	0.2522969
19	0xbe153599	-0.14571227
20	0x3e3c791b	0.18405573
21	0x3e8e7825	0.27826038
22	0x3f122674	0.57089925
23	0xbdbd2038	-0.09234661
24	0x3ead0556	0.33793133
25	0xbdf4eff1	-0.11959828
26	0x3ab2d912	0.0013645014
27	0x3db82e36	0.08993189
28	0x3e7ec335	0.24879153
29	0xbeab7a9f	-0.3349199
30	0x3eea9d2c	0.45823038
31	0x3e8f0b4b	0.27938303
32	0xbcad8e1c	-0.021185927
33	0xbde25a97	-0.11052435
34	0x3cf32d24	0.02968461
35	0xbd396053	-0.045257878
36	0xbdab4388	-0.0836249
37	0x3e79ba6e	0.24387524
38	0x3e16c563	0.14723735
39	0x3e856b95	0.2605864
40	0x3ea3a707	0.3196337
41	0xbe8884ea	-0.26663905
42	0xbcc7948d	-0.024362827
43	0x3d3d6a39	0.04624388
44	0x3dd55674	0.1041688
45	0xbd42091e	-0.047371976
46	0x3e7b5d57	0.24547325
47	0x3e2e8124	0.1704145
48	0x3ebe769c	0.37199867
49	0x3d65f9fa	0.0561466
50	0xbec914f8	-0.3927381
51	0x3e88aa75	0.26692548
52	0x3ef06c3b	0.46957573
53	0x3ed0057c	0.40629184
54	0x3e3f5e24	0.18688256
55	0xbee2b783	-0.44280633
56	0xbe96fb15	-0.29488435
57	0x3d23374e	0.039847665
58	0x3e51188c	0.2041952
59	0x3f5716bc	0.84019065
60	0xbe2ed398	-0.17072904
61	0x3d86485e	0.06556772
62	0xbea3143e	-0.3185138
63	0x3ead49e0	0.33845425
64	0x3e863810	0.26214647
65	0xbe35f073	-0.17767505
66	0xbebdf0e4	-0.37097847
67	0x3d917861	0.071030386
68	0x3e98dc68	0.29855657
69	0x3d7f3dd2	0.062314816
70	0x3e86acb2	0.2630363
71	0xbf13712c	-0.5759456
72	0x3bef6d41	0.0073067253
73	0x3cda980f	0.026683835
74	0xbdd00446	-0.10157065
75	0x3f5c72de	0.86112773
76	0xbe0184c7	-0.12648307
77	0xbea916db	-0.3302525
78	0x3de8dc74	0.11370173
79	0x3dd3e968	0.10347253
80	0xbe12ab3a	-0.1432313
81	0x3e4cc7a4	0.19998032
82	0x3eeea5d5	0.46610895
83	0x3d1fff99	0.039062116
84	0x3ea18501	0.31546786
85	0xbea3b6a6	-0.31975287
86	0xbe8ef3ef	-0.27920482
87	0x3e91b688	0.28459573
88	0x3e6dce4d	0.23223229
89	0xbea64ea8	-0.32481885
90	0xbe11c193	-0.14233999
91	0xbf200ebf	-0.625225
92	0x3da2a6c2	0.07941963
93	0x3d291903	0.04128362
94	0x3f4f4453	0.8096363
95	0xbf01ac66	-0.50653684
96	0x3f28650f	0.65779203
97	0xbf40b56f	-0.75276846
98	0x3e62eca9	0.22160591
99	0xbe708c5f	-0.23491047
100	0xbe46ec7b	-0.19426148
101	0x3f06ecbd	0.52704984
102	0x3f4d1ba8	0.80120325
103	0x3e2491dc	0.16071266
104	0x3f108b7e	0.5646285
105	0xbe2184ac	-0.15773267
106	0xbdc5b489	-0.09653575
107	0x3dbeec73	0.09322443
108	0x3e2c7c63	0.16844325
109	0xbd8e2b01	-0.06941796
110	0xbe1d29e7	-0.15348016
111	0x3f44d38c	0.76885295
112	0x3e3287f4	0.17434675
113	0xbda7f2a3	-0.08200576
114	0xbd6dc52d	-0.05804937
115	0xbd9594e4	-0.07303789
116	0x3e1a25fa	0.1505355
117	0xbd9d0bb0	-0.07668245
118	0x3cbb79f9	0.02288531
119	0xbe4dcaa2	-0.2009683
120	0x3dbc66da	0.09199305
121	0x3d1076e8	0.035269648
122	0xbcefe5c7	-0.029284371
123	0x3e605e42	0.21910957
124	0x3e2810ee	0.16412708
125	0xbe78f485	-0.24312027
126	0x3e1fad28	0.15593398
127	0xbd91edf5	-0.07125465
128	0x3d46ff9c	0.04858361
129	0xbeb7cbdd	-0.35897723
130	0x3efd7c15	0.4950873
131	0xbd701164	-0.058610335
132	0xbf0cd67d	-0.55014783
133	0x3da7b0a4	0.081879884
134	0x3e8857f6	0.2662961
135	0x3f04a88c	0.5181968
136	0x3f2cc2ae	0.6748456
137	0xbed4e2cd	-0.41579285
138	0x3dc2217c	0.09479043
139	0xbf29821b	-0.6621415
140	0x3e73c4e2	0.23805574
141	0x3e94693b	0.28986534
142	0x3d99009d	0.0747082
143	0x3b2f8864	0.0026784176
144	0xbf009922	-0.5023366
145	0x3effeec5	0.49986854
146	0x3e81293a	0.25226766
147	0x3e26077e	0.16213796
148	0xbe6f8a43	-0.23392586
149	0xbec79570	-0.389812
150	0xbf1716ad	-0.59018975
151	0x3eb058ed	0.34442845
152	0xbd43bc9b	-0.04778729
153	0x3de53c54	0.11193147
154	0x3e1eede4	0.15520436
155	0xbf14a4e5	-0.5806411
156	0x3e857166	0.2606308
157	0x3d93aa3b	0.07210203
158	0xbd41a67d	-0.047277916
159	0xbedf59bb	-0.43623146
160	0xbab689ed	-0.0013926603
161	0xbe69401c	-0.22778362
162	0x3df70ad0	0.12062609
163	0xbd0a2771	-0.03372902
164	0xbe4a65e9	-0.19765438
165	0x3f0e3269	0.5554567
166	0x3e76a4e8	0.24086344
167	0x3d538acc	0.05164604
168	0x3daa5c44	0.083183795
169	0xbe5971d1	-0.21234824
170	0xbe181163	-0.14850383
171	0xbe938d2b	-0.2881864
172	0xbdec549a	-0.11539574
173	0x3e50fcb0	0.20408893
174	0x3e666090	0.22497773
175	0x3dbd399e	0.09239505
176	0xbe9435e4	-0.28947365
177	0x3f619b46	0.88127553
178	0xbef34167	-0.47510836
179	0xbec1b4cd	-0.37833253
180	0x3ed1275f	0.4085035
181	0xbe677641	-0.22603704
182	0xbf2f0f77	-0.6838297
183	0xbdb09374	-0.086218745
184	0xbf059415	-0.5217908
185	0x3ee5d1d5	0.44886652
186	0xbf15f349	-0.5857435
187	0x3e16d851	0.14730956
188	0xbf2db8c9	-0.67860085
189	0xbe902fa6	-0.28161353
190	0x3e4f0a8b	0.20218866
191	0xbebb8267	-0.36622927
192	0xbec718da	-0.38886148
193	0x3ebfc374	0.37453806
194	0x3eb114dd	0.3458623
195	0xbbba90d3	-0.005693534
196	0xbea12fa5	-0.31481662
197	0xbf15984b	-0.58435506
198	0xbed46b47	-0.41488096
199	0x3edc26c9	0.4299834
200	0x3ccef7e8	0.025264695
201	0x3e5e5e5d	0.21715684
202	0x3d2418af	0.040062603
203	0xbf146e2f	-0.57980627
204	0x3dff887d	0.12477205
205	0xbd77e18d	-0.060517836
206	0x3e3a81d6	0.18213591
207	0xbedf58fd	-0.4362258
208	0x3bad9d17	0.0052982676
209	0xbecee3b8	-0.4040811
210	0x3f27c1b5	0.6552995
211	0x3dda7c98	0.106682956
212	0xbeb897f2	-0.36053425
213	0x3f06d600	0.5267029
214	0x3eaa9d17	0.33322975
215	0x3e9ce1c9	0.3064101
216	0x3f4af311	0.7927714
217	0xbf40d6ec	-0.75327945
218	0x3ee586a2	0.4482928
219	0xbed455df	-0.41471764
220	0x3c8ce363	0.01719827
221	0x3ec3b198	0.3822143
222	0xbdc2c0cb	-0.095094286
223	0x3f2d970f	0.6780862
224	0xbd67e08b	-0.056610625
225	0xbc2f3609	-0.010694035
226	0xbe7a2cca	-0.24431148
227	0xbe781a65	-0.24228819
228	0x3cafd98c	0.02146604
229	0xbd87248d	-0.065987684
230	0x3ddba25d	0.10724328
231	0x3e320281	0.17383768
232	0xbbfccc90	-0.0077148154
233	0x3f0e92b4	0.556926
234	0xbf2a3354	-0.6648457
235	0x3e8f6391	0.2800565
236	0x3db54b18	0.088522136
237	0xbe4c0e4b	-0.19927327
238	0x3e357000	0.17718506
239	0xbc689528	-0.014195718
240	0x3f0b6e7d	0.54465467
241	0xbf3c693c	-0.73598075
242	0xbea58524	-0.3232814
243	0xbf1ad68d	-0.6048363
244	0x3d0c5f2e	0.034270458
245	0x3ec6c399	0.38821104
246	0x3f5bf913	0.8592693
247	0x3d3641b0	0.04449624
248	0x3ee7f890	0.45306826
249	0x3e84ce98	0.2593887
250	0xbeec80eb	-0.46192107
251	0x3f4f6515	0.81013614
252	0x3d667bfe	0.056270592
253	0xbf04c122	-0.518572
254	0x3f2e1d14	0.6801312
255	0x3f1a4c10	0.6027231

gru.weight_hh_l0 f4 [192, 64]
0	0xbeed1c72	-0.46310765
1	0xbf2292c9	-0.63505226
2	0xbe42ef31	-0.19036557
3	0xbf01b56a	-0.5066744
4	0x3f65726c	0.8962772
5	0x3dd069a6	0.10176401
6	0xbe22858b	-0.15871255
7	0x3f95ec73	1.1712784
8	0xbf6b87df	-0.920042
9	0x3dd4a143	0.10382321
10	0xbed4b1f9	-0.41542032
11	0x3f23765e	0.6385249
12	0x3fc6c27b	1.5528101
13	0xbe04511c	-0.12921566
14	0x3ec11f43	0.37719163
15	0x3f7890f1	0.97096163
16	0x3ed54f38	0.41662002
17	0x3cfdfd44	0.031004556
18	0x3f43d230	0.76492596
19	0x3cf31bee	0.029676404
20	0xbe0ba75a	-0.13638058
21	0xbdd0521e	-0.101719126
22	0x3eb0325c	0.3441342
23	0x3eb508e4	0.35358346
24	0x3e49da8c	0.19712275
25	0x3e2d9512	0.16951397
26	0x3f516953	0.81801337
27	0x3ea02703	0.31279764
28	0xbe50dce6	-0.20396766
29	0x3e80491a	0.25055772
30	0xbf4b9849	-0.79529244
31	0x3f90698b	1.1282209
32	0xbf3bb92a	-0.7332941
33	0xbe9b8fca	-0.3038314
34	0xbe8860ca	-0.26636344
35	0xbdca18ad	-0.09867988
36	0xbe116d00	-0.14201736
37	0xbf1158b8	-0.56776
38	0xbf0c0ecf	-0.54710096
39	0xbd05a571	-0.03262848
40	0xbe8e6427	-0.27810785
41	0x3e105558	0.14095056
42	0xbc61b503	-0.013776067
43	0x3e6374e8	0.22212565
44	0x3dfc6244	0.1232343
45	0xbdbe070e	-0.09278689
46	0x3f44221c	0.76614547
47	0xbe9e58ef	-0.30927226
48	0xbe78724d	-0.24262352
49	0xbe35f618	-0.17769659
50	0xbe157d03	-0.1459847
51	0x3f4d0248	0.80081606
52	0xbdf1df8c	-0.11810216
53	0xbf08a569	-0.53377396
54	0xbdb3498a	-0.08754261
55	0x3eac1f69	0.33617714
56	0x3e3cde88	0.18444264
57	0x3e0576f6	0.13033661
58	0xbe9fa596	-0.3118102
59	0xbf0d5ae3	-0.5521681
60	0xbe8883dc	-0.266631
61	0xbdc880bf	-0.09790181
62	0x3e90375e	0.28167242
63	0xbd9c4f6f	-0.07632338
64	0xbea9d3e1	-0.33169463
65	0xbf402ce1	-0.7506848
66	0x3eac5b9e	0.33663648
67	0x3f520d3d	0.8205145
68	0xbef55632	-0.47917324
69	0x3cbf1ce0	0.023329198
70	0xbe0dc01e	-0.13842818
71	0xbeb6f89b	-0.35736546
72	0xbe1b48f0	-0.15164542
73	0xbe93973e	-0.28826326
74	0xbf0f5384	-0.5598681
75	0xbe931bda	-0.28732187
76	0x3e0e667b	0.1390628
77	0x3e9f1053	0.31067142
78	0xbf1ecbf9	-0.6202999
79	0xbf965630	-1.1745052
80	0x3ea347ad	0.31890622
81	0xbf67daa5	-0.90568
82	0x3ee19d7f	0.44065472
83	0xbefe722f	-0.4969649
84	0xbf6f3d15	-0.9345258
85	0xbf118154	-0.56837964
86	0x3dfca0e7	0.12335377
87	0xbe8e827f	-0.27833936
88	0xbf65c556	-0.89754236
89	0xbf3c102f	-0.73462194
90	0x3f75e034	0.9604523
91	0x3ebf3ccb	0.3735107
92	0x3f3f7317	0.7478499
93	0xbc458f29	-0.012058058
94	0xbf2af632	-0.66781914
95	0x3f1bec03	0.60907
96	0xbf0853e4	-0.53253007
97	0xbf1072ab	-0.5642497
98	0xbd4de0d5	-0.050263245
99	0x3c51acba	0.012797529
100	0xbd5b0091	-0.053467337
101	0xbf93a8dd	-1.1535908
102	0xbe3ddb52	-0.18540695
103	0xbe7ea317	-0.24866901
104	0xbed5b93e	-0.4174289
105	0x3eee7c80	0.4657936
106	0x3f3c912b	0.7365901
107	0x3ea6a3fc	0.32546985
108	0xbcc6aea8	-0.024253204
109	0xbdfe7e09	-0.12426383
110	0xbeb1c318	-0.34719157
111	0xbe85e6b7	-0.26152584
112	0x3e0a6637	0.13515554
113	0xbeb38de3	-0.35069188
114	0xbf82bc3b	-1.0213693
115	0x3e8aaaa2	0.27083308
116	0x3e7f3a7d	0.24924655
117	0x3f356a3c	0.70865226
118	0xbed5fe4b	-0.41795573
119	0x3d705346	0.058673166
120	0xbde9ed7a	-0.11422248
121	0xbc6089c3	-0.01370472
122	0xbe5de4c4	-0.21669298
123	0xbe795574	-0.24349004
124	0xbf0848e5	-0.5323623
125	0x3ea7cb69	0.32772377
126	0x3ea6c2af	0.32570407
127	0xbe3f38e0	-0.1867404
128	0x3ea1dd4d	0.31614152
129	0xbda3631f	-0.0797789
130	0x3e5e2f69	0.21697773
131	0x3eba3585	0.36368957
132	0xbe1b46fb	-0.15163796
133	0xbd941372	-0.072302714
134	0x3efce4bb	0.49393257
135	0xbecf4967	-0.4048569
136	0xbe371ab8	-0.17881286
137	0xbf074df7	-0.5285334
138	0x3e96aa47	0.29426786
139	0xbe8671ea	-0.26258785
140	0xbfc1f2a9	-1.5152179
141	0x3d5eaa73	0.05436177
142	0x3e3551a7	0.17706929
143	0xbedff7c2	-0.43743712
144	0xbe858636	-0.26078957
145	0x3e30ae73	0.17254047
146	0xbed577ba	-0.41692907
147	0x3f12bbfe	0.57318103
148	0xbed90482	-0.42386252
149	0xbe5fcc99	-0.21855392
150	0xbf833f12	-1.0253623
151	0x3f301f80	0.68798065
152	0x3f8bee52	1.0932105
153	0x3e5df905	0.21677025
154	0xbf059459	-0.52179486
155	0xbf1c25e8	-0.6099534
156	0x3f2f9a4d	0.6859482
157	0xbd68341c	-0.05669032
158	0x3ea726b8	0.32646728
159	0xbf217428	-0.63067865
160	0xbebf0040	-0.37304878
161	0xbc3da3e9	-0.011574724
162	0x3e357c9d	0.17723317
163	0xbd776303	-0.06039716
164	0xbe27fb6d	-0.16404505
165	0x3b873cdb	0.0041271276
166	0xbedf08d9	-0.43561438
167	0xbf06e5be	-0.5269431
168	0x3dffc6f8	0.12489122
169	0xbef9a785	-0.4876062
170	0xbf8d3584	-1.1031957
171	0xbf4d8441	-0.8027993
172	0x3d8973e7	0.0671156
173	0x3e93b364	0.28847802
174	0xbd913c4a	-0.07091577
175	0x3eb866d2	0.36015946
176	0xbecd5d5b	-0.40110287
177	0x3f5a3a4a	0.8524519
178	0xbec99238	-0.3936937
179	0xbf5029e2	-0.8131391
180	0x3db08f88	0.086211264
181	0xbe9ac116	-0.30225438
182	0xbee84957	-0.45368454
183	0xbe3bb768	-0.18331683
184	0xbddddb20	-0.108328104
185	0x3ebc4497	0.3677108
186	0xbdf7a453	-0.12091889
187	0xbeb48d8a	-0.35264236
188	0x3eaaac57	0.3333461
189	0xbddb01e2	-0.106937185
190	0x3d0acc7f	0.03388643
191	0x3f57023a	0.8398777
192	0xbed7436b	-0.42043623
193	0xbf36e1a0	-0.71438026
194	0xbd442f26	-0.047896527
195	0x3f36909e	0.7131442
196	0x3ecabfee	0.39599556
197	0x3eaa9a2f	0.33320758
198	0xbf555174	-0.8332741
199	0x3f066d36	0.5251039
200	0x3de82149	0.11334474
201	0xbf6fba3e	-0.9364356
202	0xbf12643a	-0.57184184
203	0xbec72a6e	-0.3889956
204	0x3f0ef2da	0.5583931
205	0xbdd8d09e	-0.105866656
206	0x3f3328b4	0.69983983
207	0x3d01b771	0.031669084
208	0x3e085fe2	0.13317826
209	0xbeead781	-0.4586754
210	0x3e32b91e	0.17453429
211	0x3cdf543e	0.02726185
212	0x3ee39418	0.44448924
213	0xbba149a7	-0.00492211
214	0x3e6bd91b	0.23032038
215	0xbf92e663	-1.1476558
216	0xbdfda0f7	-0.12384217
217	0x3f104355	0.5635274
218	0x3ed253aa	0.41079456
219	0x3e0a02fe	0.13477704
220	0xbf71fb3a	-0.94523966
221	0xbee388fc	-0.44440448
222	0xbf215a84	-0.6302874
223	0x3f11a10c	0.56886363
224	0x3efc4e32	0.49278408
225	0xbea75255	-0.32680002
226	0xbc1cc0bb	-0.009567435
227	0x3e505ca3	0.20347838
228	0xbf199160	-0.5998745
229	0xbf1de90d	-0.6168373
230	0xbe896695	-0.26836076
231	0xbeeacdf9	-0.4586027
232	0xbe8fffd6	-0.28124875
233	0x3e9c1d37	0.3049104
234	0xbe1eec9d	-0.15519948
235	0x3e8c64d4	0.27420676
236	0x3e274a57	0.16336952
237	0xbeac536f	-0.33657405
238	0x3c926976	0.017872553
239	0xbf3a31db	-0.72732323
240	0x3f544ef5	0.8293298
241	0xbe8959bf	-0.26826283
242	0xbef03e53	-0.4692255
243	0x3f339e15	0.7016309
244	0x3eb807dc	0.35943496
245	0xbe29fce2	-0.16600373
246	0x3e860e44	0.2618276
247	0x3df13d63	0.11779287
248	0xbdaba1ac	-0.08380446
249	0x3f2af9ba	0.667873
250	0xbca008e5	-0.019535491
251	0x3ec1a68d	0.3782238
252	0xbdec062f	-0.11524617
253	0xba722d70	-0.0009238338
254	0x3ea7195e	0.3263654
255	0xbe4e1f60	-0.20129156

gru.bias_ih_l0 f4 [192]
0	0x3eaa5be1	0.33273223
1	0x3f203a63	0.6258909
2	0x3d60820a	0.054811515
3	0x3e8d3438	0.27578902
4	0x3e7108b6	0.23538479
5	0x3e8b0bee	0.2715754
6	0xbe97790c	-0.2958454
7	0x3e838c03	0.25692758
8	0x3d470a55	0.048593838
9	0xbde3387b	-0.11094757
10	0x3d594c44	0.05305125
11	0xbcedbedd	-0.029021675
12	0xbe56459b	-0.2092499
13	0xbe2daaf1	-0.1695974
14	0xbe3e3dc9	-0.18578257
15	0x3d906b6b	0.07051738
16	0x3dbd97f4	0.092574984
17	0x3ea86bbd	0.32894698
18	0x3e74d108	0.23907864
19	0x3e773ed5	0.24145062
20	0xbdf46186	-0.119326636
21	0x3e2d893b	0.1694688
22	0x3c688c5d	0.014193621
23	0x3d81ed22	0.063440576
24	0x3e9ff08b	0.31238207
25	0x3d4273d1	0.047473732
26	0xbe145ecd	-0.14489289
27	0x3e5cf579	0.21578015
28	0x3ee09e13	0.438706
29	0x3f10abb6	0.5651201
30	0x3ef44d00	0.47714996
31	0x3d915dd7	0.07097977
32	0x3f30ecfa	0.691116
33	0x3e9bdb89	0.3044093
34	0x3ed41d71	0.41428712
35	0xbd0fb8fa	-0.035088517
36	0x3d8fdc62	0.070244566
37	0xbe792ca1	-0.24333431
38	0x3e2e0f96	0.16998133
39	0xbaefe81c	-0.0018303427
40	0x3d39dbdb	0.045375686
41	0x3e9ce7ee	0.30645698
42	0x3eca079f	0.3945894
43	0x3dafacbb	0.085778676
44	0x3a0c3df2	0.0005349807
45	0xbea685f1	-0.32524064
46	0xbeddbe6a	-0.43309337
47	0x3e842419	0.2580879
48	0xbd35724c	-0.044298455
49	0x3f1c2099	0.6098724
50	0xbb8662bd	-0.004101126
51	0x3d79f6b0	0.061026275
52	0xbe64a686	-0.22329149
53	0xbe02277d	-0.12710376
54	0x3dbc18a6	0.09184389
55	0x3e403241	0.1876917
56	0xbdbe681c	-0.09297201
57	0x3d228d65	0.039685626
58	0xbd1c0bc7	-0.03809717
59	0x3dd45f43	0.10369732
60	0x3ea24409	0.31692532
61	0x3e8a7a04	0.27046216
62	0x3e0230a2	0.12713864
63	0x3e6e7404	0.23286444
64	0xbea7131a	-0.3263176
65	0xbf025f8a	-0.5092703
66	0xbf12f5d9	-0.57406384
67	0x3dc73723	0.09727313
68	0xbddc6ebc	-0.107633084
69	0x3ec0d94d	0.37665787
70	0xbe6f5d9d	-0.23375554
71	0xbe5a0b8b	-0.21293466
72	0xbf452e63	-0.77023906
73	0xbf2ab483	-0.6668169
74	0x3d20bb42	0.039241083
75	0xbeb23733	-0.3480774
76	0x3cbba321	0.022904934
77	0xbe96c1f8	-0.2944486
78	0xbe222ef6	-0.15838227
79	0x3e819766	0.2531082
80	0xbf6ed466	-0.93292844
81	0xbf793585	-0.9734729
82	0x3a8d6973	0.0010788873
83	0xbe69d9e8	-0.22837031
84	0x3e26e5e9	0.16298641
85	0xbeeb4e5c	-0.4595822
86	0xbd7dd12a	-0.061967053
87	0x3e458de8	0.19292414
88	0x3dab1598	0.08353728
89	0xbd942c6c	-0.07235035
90	0xbc4d6a05	-0.012537484
91	0xbde49a65	-0.11162261
92	0xbc976e5c	-0.01848524
93	0x3ec08242	0.3759938
94	0xbd93a5c8	-0.07209355
95	0xbe1a619b	-0.15076296
96	0xbf47d49e	-0.78058803
97	0xbe1a2656	-0.15053686
98	0xbf307de1	-0.68942076
99	0xbe319d73	-0.17345218
100	0xbc1d8f4a	-0.009616682
101	0xbeac8738	-0.33696914
102	0xbf1175cf	-0.56820387
103	0xbe6f2704	-0.23354727
104	0xbed2bdda	-0.4116047
105	0xbe8a3003	-0.26989755
106	0x3d3fb4ae	0.04680317
107	0xbf052e3d	-0.5202368
108	0x3e5e90ab	0.21734874
109	0xbeee8071	-0.46582368
110	0xbec778e1	-0.3895941
111	0xbe61eeb6	-0.22063717
112	0xbeb185f6	-0.34672517
113	0xbeb7c4a4	-0.35892212
114	0xbe47e539	-0.19521035
115	0xbeacc07b	-0.337406
116	0xbecd3283	-0.400776
117	0x3d0693d1	0.032855812
118	0x3e730b0c	0.23734683
119	0x3ebabcbf	0.36472127
120	0x3dc590af	0.09646737
121	0xbea8512e	-0.32874435
122	0xbd7452b0	-0.05964917
123	0x3e6c634f	0.23084758
124	0x3e5b60a0	0.21423578
125	0x3cf7cc0b	0.030248662
126	0x3ec150dc	0.37757003
127	0xbeb289b2	-0.34870678
128	0xbc7746b0	-0.015092537
129	0xbcab32b6	-0.020898204
130	0xbe5bcf79	-0.21465863
131	0x3dc8125c	0.09769127
132	0x3e60d3d4	0.21955806
133	0xbdbff5ea	-0.09373076
134	0xbe8f4002	-0.27978522
135	0xbd994f50	-0.07485831
136	0xbe256206	-0.16150674
137	0xbdf0e4e4	-0.117624074
138	0xbe615e9e	-0.2200875
139	0x3e8d6631	0.27617028
140	0xbd802ead	-0.06258903
141	0xbd687713	-0.056754183
142	0x3e84bf40	0.25927162
143	0x3e4ea0b8	0.20178497
144	0xbcee46df	-0.029086528
145	0x3d94658b	0.0724593
146	0xbdb5ee35	-0.08883325
147	0x3c078272	0.008270847
148	0xbd5f74b3	-0.054554652
149	0xbe563ce8	-0.20921671
150	0x3dd4a34d	0.1038271
151	0x3e6c0bed	0.23051424
152	0xbd608eb4	-0.054823592
153	0x3e8763d5	0.26443353
154	0x3c2f345f	0.010693639
155	0xbb803e9e	-0.0039137146
156	0xbe4f0771	-0.20217682
157	0x3e64f466	0.22358856
158	0xbe95efed	-0.2928461
159	0x3dc77471	0.09739006
160	0xbe67dd6d	-0.22643061
161	0xbd600400	-0.054691315
162	0xbdd7fb2d	-0.10545955
163	0x3db1c922	0.08680941
164	0xbd5925a9	-0.05301443
165	0xbe511546	-0.20418271
166	0xbe3961d9	-0.18103732
167	0xbca336c3	-0.019923573
168	0xbe29608f	-0.1654074
169	0xbd37c8da	-0.04486928
170	0xbd84a491	-0.06476701
171	0x3e0a6d09	0.13518156
172	0x3d7cdf0b	0.061736148
173	0xbd7a1ce3	-0.061062705
174	0xbc14ca9a	-0.009081507
175	0xbe601aec	-0.2188527
176	0xbe9a27d0	-0.301085
177	0xbd8074e1	-0.06272293
178	0xbda40e89	-0.08010585
179	0xbbac1ed2	-0.0052526975
180	0xbd19aa44	-0.037515894
181	0xbd4728e8	-0.048622996
182	0xbe256465	-0.16151579
183	0x3e1ebee6	0.1550251
184	0x3d90b6b7	0.070661
185	0x3ce9198f	0.02845457
186	0xbe4cddc4	-0.20006472
187	0x3c849eca	0.016188998
188	0x3e556680	0.20839882
189	0xbdbf43d3	-0.09339108
190	0x3ec32fea	0.38122493
191	0x3f08f2fd	0.5349577

gru.bias_hh_l0 f4 [192]
0	0x3ed3e236	0.41383523
1	0x3ed9fde2	0.4257651
2	0xbe03357a	-0.12813368
3	0x3e91ed61	0.28501418
4	0x3ea858b4	0.32880175
5	0x3ec80dd3	0.39073047
6	0xbe20b677	-0.15694605
7	0x3e04bce2	0.12962678
8	0xbd008c19	-0.031383608
9	0xbe10bd84	-0.14134794
10	0x3dd6f60b	0.10496148
11	0xbe2aca69	-0.16678776
12	0xbea32877	-0.3186681
13	0xbdbfcf1c	-0.09365675
14	0xbeade781	-0.33965686
15	0xbd258340	-0.040408373
16	0x3db56a90	0.08858216
17	0x3e89fd58	0.26951098
18	0x3ea8d4ac	0.32974756
19	0x3de28a4a	0.11061533
20	0xbe192c92	-0.14958408
21	0x3ea15883	0.31512842
22	0x3e01a74e	0.12661478
23	0x3d8b9aaa	0.06816609
24	0x3e731c76	0.23741326
25	0x3b80cc81	0.0039306288
26	0xbe23a20a	-0.15979782
27	0x3db21a1a	0.08696385
28	0x3ec5fcd0	0.38669443
29	0x3ee1cebf	0.44103047
30	0x3f269533	0.6507141
31	0x3e46ffa7	0.19433461
32	0x3f1060ec	0.5639789
33	0x3e89f3ec	0.2694391
34	0x3edf427e	0.43605417
35	0xbd93c28d	-0.07214842
36	0xb88e2a34	-6.7789486e-05
37	0xbe24d6c1	-0.16097547
38	0x3e3999b6	0.18125042
39	0x3cf300c6	0.029663455
40	0x3d3ad437	0.04561254
41	0x3e5a98b3	0.21347313
42	0x3eb65062	0.35608202
43	0x3e2c90fb	0.1685218
44	0x3d94cb06	0.07265286
45	0xbe82275f	-0.25420663
46	0xbf030048	-0.51172304
47	0x3e405ea5	0.18786104
48	0x3d80fb04	0.062978774
49	0x3f1d2432	0.61383355
50	0x3d83733b	0.06418463
51	0xbcc1708b	-0.023613235
52	0xbdcb2066	-0.09918289
53	0xbe25a047	-0.16174422
54	0x3d112819	0.03543863
55	0x3e6b35de	0.22969767
56	0xbea222f2	-0.31667286
57	0x3e171935	0.1475571
58	0x3da1a4ed	0.07892785
59	0xbd223902	-0.039605148
60	0x3e807f10	0.2509694
61	0x3dcfed74	0.101527125
62	0x3e3728ce	0.1788666
63	0x3e184785	0.14871033
64	0xbf007f4f	-0.5019426
65	0xbf07ed54	-0.5309651
66	0xbf2687ec	-0.6505115
67	0x3b37e5c4	0.0028060535
68	0xbc1fc3dd	-0.009751287
69	0x3ec40275	0.38283125
70	0xbe240125	-0.16016062
71	0xbe484138	-0.19556129
72	0xbf0c1aa1	-0.5472813
73	0xbf2ea27d	-0.6821669
74	0x3cc343f2	0.02383611
75	0xbe9cfaf5	-0.30660215
76	0x3e2df2c7	0.16987143
77	0xbed9065c	-0.42387664
78	0xbd85cffc	-0.065338105
79	0x3eb6e530	0.3572173
80	0xbf66a63b	-0.900974
81	0xbf91b339	-1.138282
82	0xbdde3be3	-0.10851266
83	0xbea2c03a	-0.31787282
84	0x3e2430c8	0.16034234
85	0xbf123f9a	-0.571283
86	0xbd0b36a1	-0.033987645
87	0x3e1b1cff	0.1514778
88	0xbe07fb93	-0.13279562
89	0xbdfeae65	-0.12435607
90	0xbc8f56a2	-0.017497364
91	0xbe2e27b7	-0.17007338
92	0x3d255f5c	0.040374145
93	0x3e0a9b18	0.13535726
94	0xbd97c860	-0.074112654
95	0xbe2d2dc4	-0.1691199
96	0xbf4f3b35	-0.8094972
97	0xbe90b17d	-0.28260413
98	0xbf34bdc4	-0.7060206
99	0xbd5ea44d	-0.05435591
100	0x3d98e587	0.07465654
101	0xbeaf6706	-0.34258288
102	0xbf1483d8	-0.5801368
103	0xbe53c0f5	-0.20679076
104	0xbf09d9ff	-0.5384826
105	0xbe12ef43	-0.14349084
106	0xbdf247b8	-0.118300855
107	0xbee2445c	-0.4419278
108	0x3eb5217f	0.35377118
109	0xbea89dca	-0.32932884
110	0xbf1551e4	-0.5832808
111	0xbe7e27fa	-0.24819937
112	0xbe2a0dc2	-0.1660681
113	0xbe58e2a4	-0.21180207
114	0xbe371b36	-0.17881474
115	0xbf02d654	-0.5110829
116	0xbe931ffb	-0.28735337
117	0x3e64856d	0.22316523
118	0x3e6af207	0.22943889
119	0x3e888635	0.26664892
120	0x3e57aa1d	0.21060987
121	0xbebdab14	-0.37044585
122	0x3e26b02b	0.1627814
123	0x3d14a3cd	0.036289025
124	0x3e195e73	0.14977436
125	0xbc214e5e	-0.009845344
126	0x3ecd74b6	0.40128106
127	0xbe84c883	-0.25934228
128	0xbbd225b6	-0.006413187
129	0xbda8dd62	-0.082453504
130	0xbe7389e2	-0.23783067
131	0xbe06b02b	-0.1315314
132	0x3ee9dde6	0.45677108
133	0xbe4bc149	-0.19897951
134	0xbe0cf192	-0.13764027
135	0xbe7f6366	-0.24940261
136	0x3e7acb19	0.24491538
137	0x3d46891f	0.048470613
138	0xbe07a786	-0.13247499
139	0xbdb08e3b	-0.08620878
140	0x3da166ff	0.07880973
141	0x3d9e4c51	0.077294
142	0xbc7d9e9a	-0.015479708
143	0x3cba54c7	0.022745503
144	0x3e3df1a3	0.18549208
145	0xbddfe272	-0.10931863
146	0xbd5750b7	-0.05256721
147	0x3e2d9475	0.16951163
148	0xbdd2d4d5	-0.10294501
149	0x3d886937	0.06660693
150	0x3e5af02d	0.21380682
151	0xbd998965	-0.07496909
152	0xbe77eece	-0.2421219
153	0x3e1ca6c5	0.15297993
154	0x3d7bed40	0.061505556
155	0x3dbadaa1	0.091237314
156	0xbd3031b3	-0.043016147
157	0x3e847e6c	0.25877702
158	0xbec3b794	-0.38225996
159	0x3dcc67fd	0.09980772
160	0x3e159a3d	0.14609618
161	0xbe541b22	-0.20713475
162	0xbe06766b	-0.1313111
163	0x3e883341	0.26601604
164	0xbd8417ce	-0.06449853
165	0x3c85cb60	0.016332328
166	0x3e93e918	0.28888774
167	0x3c9d6454	0.01921288
168	0xbde19c1e	-0.11016105
169	0x3e826aac	0.2547201
170	0x3e609aba	0.21934023
171	0x3eae8cdb	0.3409184
172	0x3e053fc9	0.13012613
173	0xbd6558f6	-0.055993043
174	0x3e06d265	0.13166197
175	0xbdaad31f	-0.083410494
176	0xbcb02c4f	-0.021505503
177	0xbdfab307	-0.12241178
178	0xbe396ec8	-0.18108666
179	0x3de06481	0.109566696
180	0xbe63c922	-0.22244695
181	0x3e20be83	0.15697674
182	0xbe419235	-0.1890343
183	0x3d43386e	0.047661237
184	0x3e286b2b	0.16447131
185	0x3de6f7d1	0.11277736
186	0xbdfa5338	-0.12222904
187	0xbe2e0213	-0.16992979
188	0x3e857ff3	0.2607418
189	0xbe8b0213	-0.2715002
190	0x3e86883d	0.26275817
191	0x3e5de2ec	0.21668595

gru2out.weight f4 [5, 64]
0	0x3f02662c	0.5093715
1	0x3ec00fe3	0.3751212
2	0x3e8e627f	0.27809522
3	0x3d7b0ad2	0.061289616
4	0xbe7166aa	-0.2357432
5	0x3dc884e6	0.09790973
6	0xbda1b438	-0.07895702
7	0xbc87b02f	-0.016563503
8	0xbef59671	-0.4796634
9	0x3e23b51e	0.1598706
10	0x3eddccd9	0.4332035
11	0xbeb7dde6	-0.35911483
12	0x3d7f4e24	0.06233038
13	0x3f598c6a	0.8497988
14	0xbdeea5c1	-0.11652709
15	0xbe9b95a2	-0.30387598
16	0xbeccb40e	-0.3998112
17	0x3f18407f	0.59473413
18	0x3e4afd4e	0.1982319
19	0xbecbf543	-0.39835557
20	0x3dc10a4e	0.094257936
21	0xbe106a16	-0.14102969
22	0xbef006e4	-0.46880257
23	0x3ec6f54e	0.38859028
24	0x3e46e3b2	0.19422796
25	0xbe06202d	-0.13098212
26	0xbf44b1c2	-0.76833737
27	0xbebb42a3	-0.36574277
28	0xbc257f5a	-0.010101164
29	0xbe6538df	-0.22384976
30	0x3e779c29	0.24180664
31	0xbe02d094	-0.12774879
32	0xbe52bb9d	-0.20579381
33	0x3e996bdf	0.29965112
34	0x3f830ca0	1.0238228
35	0xbd62b7b6	-0.05535098
36	0x3ec09edb	0.37621197
37	0x3ec0e3ce	0.376738
38	0x3e787903	0.24264912
39	0x3dd5253d	0.10407493
40	0x3f185ea0	0.59519386
41	0x3e75746f	0.23970197
42	0xbe3597c9	-0.17733683
43	0xbf8b077e	-1.0861661
44	0xbf70fea0	-0.94138527
45	0x3e26d75c	0.1629309
46	0x3e2033c6	0.1564475
47	0x3d6a8a8b	0.05726103
48	0xbedacbb7	-0.42733547
49	0x3e474854	0.19461185
50	0x3cd2e2f5	0.025742987
51	0xbde6e24d	-0.11273632
52	0xbdcffe0f	-0.1015588
53	0xbe58a0fc	-0.2115516
54	0x3eb45f75	0.35229078
55	0xbee337e1	-0.4437857
56	0xbe514421	-0.20436145
57	0xbea70033	-0.3261734
58	0x3efc902f	0.49328753
59	0x3e988b64	0.29793847
60	0xbed607db	-0.41802868
61	0x3e8f5987	0.2799799
62	0xbee060ef	-0.43823954
63	0xbe006b4a	-0.12540928
64	0x3daa3972	0.08311738
65	0xbdfaca5e	-0.1224563
66	0x3dae2297	0.08502691
67	0xbd0dad6e	-0.034589224
68	0xba84f06f	-0.0010142456
69	0xbddbf42b	-0.10739931
70	0x3d86da7c	0.06584641
71	0xbe23b99f	-0.15988778
72	0xbb745493	-0.0037281855
73	0x3eec7975	0.46186414
74	0x3e63b1d3	0.22235803
75	0x3eafe037	0.3435075
76	0xbdc43420	-0.095802546
77	0xbdac3ba2	-0.084098116
78	0xbcf8b154	-0.030357994
79	0x3d39c938	0.045357913
80	0x3bc20e9b	0.0059221513
81	0xbe0d57dd	-0.13803048
82	0xbd10f79f	-0.0353924
83	0x3d0fd8e2	0.035118945
84	0x3e84f0d6	0.25964993
85	0x3ddea7d8	0.108718574
86	0x3d4cc70e	0.04999452
87	0x3da5a389	0.080878325
88	0x3ea9ba32	0.33149868
89	0x3d711feb	0.05886833
90	0xbd6ef2cd	-0.05833702
91	0x3ea849b8	0.32868743
92	0x3dafe949	0.085894175
93	0x3da80959	0.08204908
94	0x3d0acd64	0.033887282
95	0x3cffd731	0.031230541
96	0x3e0dcef4	0.13848478
97	0xbdb60f78	-0.08889669
98	0xbded866e	-0.11597906
99	0xbd6eff16	-0.058348738
100	0xba5e77ff	-0.0008486509
101	0xbdc4ee91	-0.096158154
102	0xbdad37c9	-0.08457906
103	0x3e08b4a9	0.13350166
104	0x3cae7c28	0.021299437
105	0xbe6a6d5c	-0.2289328
106	0x3e0e9623	0.1392446
107	0x3eae74b1	0.34073403
108	0x3d2f2149	0.042756353
109	0xbe9b4782	-0.30327994
110	0x3e7c9c4e	0.24669
111	0xbc81ee86	-0.015860807
112	0x3de1b6aa	0.110211685
113	0xbeae1359	-0.33999136
114	0x3e4971f4	0.19672376
115	0xbdd962a1	-0.10614515
116	0x3c8528a7	0.016254736
117	0x3e707457	0.2348188
118	0xbe1a2efd	-0.15056987
119	0x3e35d907	0.1775857
120	0x3d0250d4	0.031815365
121	0xbe4dca2a	-0.2009665
122	0xbdc88bd1	-0.09792293
123	0x3c9fee69	0.019522863
124	0x3ddb06f5	0.10694686
125	0xbd4eda22	-0.050500996
126	0x3d567b1b	0.052363496
127	0xbd9342fd	-0.071905114
128	0xbdebfc30	-0.1152271
129	0xbe0094b4	-0.12556726
130	0x3e965423	0.29361066
131	0x3d14adca	0.03629855
132	0x3e9944fe	0.2993545
133	0xbdf059bb	-0.11735865
134	0xbc21f064	-0.009883974
135	0x3de72bce	0.11287652
136	0xbe30b39d	-0.17256017
137	0xbcf8422f	-0.030304996
138	0xbe4c0bed	-0.19926424
139	0xbe52ad62	-0.20573953
140	0xbe28c8a7	-0.16482793
141	0xbe7459c0	-0.23862362
142	0x3ccfa54b	0.025347373
143	0xbdb1aa22	-0.086750284
144	0x3e38d2bd	0.1804914
145	0xbc125845	-0.008932178
146	0xbd204546	-0.039128564
147	0x3e4c3d85	0.19945343
148	0xbe891ea5	-0.26781192
149	0x3cde5d4d	0.027144099
150	0x3d301772	0.04299111
151	0xbe06c4a0	-0.13160944
152	0x3ec20965	0.37897792
153	0x3dc70d21	0.09719301
154	0x3e2a2ad7	0.16617905
155	0xbdebc7fc	-0.11512753
156	0xbd69eec5	-0.057112474
157	0x3d80556d	0.06266294
158	0xbe8eb730	-0.27874136
159	0x3ee3d273	0.44496498
160	0xbd401171	-0.046891633
161	0xbde3137b	-0.110877
162	0xbd89cd80	-0.06728649
163	0xbe3f1dda	-0.18663731
164	0xbd937176	-0.07199375
165	0xbc8d3603	-0.017237669
166	0xbe8591a6	-0.26087683
167	0x3e5f854c	0.21828192
168	0xbe3a14e0	-0.18172026
169	0xbd79ff6a	-0.061034597
170	0x3c4a3dfc	0.01234388
171	0x3c66c6c2	0.0140854735
172	0xbea77814	-0.327088
173	0x3dd900f8	0.10595888
174	0x3eb77289	0.3582957
175	0x3e846b7d	0.25863257
176	0x3c602c04	0.013682369
177	0x3c49ae76	0.012309661
178	0xbeaf470d	-0.34233895
179	0x3dc478bf	0.09593343
180	0xbea3e271	-0.320087
181	0xbd07dea0	-0.033171296
182	0xbdcc3765	-0.09971503
183	0x3ce6a6c2	0.028155688
184	0x3b8c8555	0.0042883554
185	0x3e8fc5d1	0.2808061
186	0xbe655ff4	-0.22399884
187	0xbe24bee8	-0.1608845
188	0x3e837c7a	0.25680906
189	0xbc723c77	-0.014784924
190	0x3e0c22a6	0.13685092
191	0xbe14efeb	-0.14544646
192	0xbe3995d2	-0.18123558
193	0x3d651d20	0.05593598
194	0xbec0e834	-0.37677157
195	0xbd7d4b40	-0.061839342
196	0xbd9e4f7f	-0.077300064
197	0xbd7c19e7	-0.06154814
198	0x3c557737	0.013028911
199	0xbc66d2fe	-0.01408839
200	0x3e49211d	0.19641538
201	0xbecabf5e	-0.39599127
202	0xbe90d667	-0.28288576
203	0x3e191b9a	0.14951935
204	0xbbe4e953	-0.006985822
205	0xbd27a98a	-0.04093317
206	0x3de22ee4	0.110441
207	0x3d86dc43	0.0658498
208	0xbd4b2926	-0.04959979
209	0xbd9fd6b0	-0.0780462
210	0x3c33a872	0.010965453
211	0xbe24fd4e	-0.16112253
212	0x3d1dcbb8	0.03852436
213	0x3dd01506	0.1016026
214	0x3e34f803	0.17672734
215	0xbcbc6471	-0.022997113
216	0xbedfdd48	-0.43723512
217	0x3e28adc2	0.16472533
218	0x3e79a7c3	0.24380402
219	0xbe7bf59c	-0.24605411
220	0x3be91cdd	0.0071140365
221	0x3da7fde7	0.08202725
222	0xbd1b7b08	-0.03795913
223	0xbd9dce53	-0.07705369
224	0x3de361e5	0.11102656
225	0xbe067b8e	-0.1313307
226	0x3e4aef14	0.19817764
227	0x3e30f2c2	0.17280105
228	0xbd8a037a	-0.06738944
229	0x3d7546d9	0.05988202
230	0xbcdeae13	-0.027182614
231	0xbed82056	-0.4221217
232	0xbe00910d	-0.12555332
233	0xbd09c207	-0.033632305
234	0xbdee8fdf	-0.11648535
235	0x3d979544	0.07401517
236	0x3f0bd5ac	0.5462291
237	0x3d475e90	0.048674166
238	0xbeddcb1c	-0.43319023
239	0xbe80fee9	-0.2519448
240	0x3d683ca7	0.056698468
241	0x3efed4ae	0.49771637
242	0x3e1ab21f	0.1510701
243	0xbdeb37d4	-0.11485258
244	0x3d82f6ac	0.06394705
245	0xbe2dff7f	-0.16991995
246	0xbdd994fc	-0.1062412
247	0xbb2a9858	-0.0026030745
248	0x3d49ec6e	0.049297743
249	0xbd0db69d	-0.03459798
250	0x3cbf8a96	0.023381513
251	0xbe09d393	-0.13459615
252	0xbc637b29	-0.013884344
253	0xbc9bc9b1	-0.019017072
254	0x3d3e12cb	0.04640464
255	0x3e6c7b58	0.23093927

gru2out.bias f4 [5]
0	0xbe750045	-0.23925884
1	0xbc1f6be8	-0.009730317
2	0x3e85cf5c	0.26134765
3	0x3d604127	0.054749634
4	0xbe358baa	-0.17729059
