try4_realDataset_embeddedMotif_noGaps1/100bp_1_positive_trim100_pretrainedDisc.pth (torch, 495253 bytes, 20 tensors)

embeddings.weight f4 [5, 16]
0	0x3fc13404	1.5093999
1	0x3eff0594	0.49808943
2	0x3f8abd04	1.0838933
3	0xbfd6ef52	-1.6791785
4	0x3fecb456	1.8492534
5	0xbe318b6b	-0.1733834
6	0xbf70063e	-0.93759525
7	0xbf23e43b	-0.6402013
8	0x3ec7808a	0.38965255
9	0xbe1038ff	-0.14084242
10	0xbff49c75	-1.9110247
11	0x3fb995fd	1.4498898
12	0x3fa9e88c	1.3274093
13	0x3d4fdc73	0.050747346
14	0x3f0d5198	0.5520263
15	0x3dc9bea5	0.09850816
16	0x3fabb627	1.3414963
17	0x3eb5a4ca	0.35477287
18	0x3f25c89a	0.6475922
19	0x3ef274ac	0.4735464
20	0xbfaf5f60	-1.3700981
21	0xbec24c9c	-0.37949073
22	0xbec7d82d	-0.39032117
23	0xbedf91fc	-0.43666065
24	0xbef5ccfc	-0.48007953
25	0xbf54803e	-0.8300818
26	0xc015eab6	-2.3424506
27	0x3e76e07e	0.24109074
28	0x3f28dc52	0.6596118
29	0x3eaae1ef	0.333755
30	0x3f04af6c	0.5183017
31	0x3bf1c1f1	0.007377856
32	0x3f6678d6	0.9002813
33	0x3f735f56	0.95067346
34	0x3f296149	0.6616407
35	0xbf9aaadb	-1.2083391
36	0x3eb7b13f	0.35877416
37	0xbf889616	-1.0670803
38	0xbc06b010	-0.0082206875
39	0xbe57b173	-0.21063785
40	0xc008aaae	-2.1354175
41	0x3f7994da	0.97492754
42	0x3f9c1b3b	1.219581
43	0xbf880f95	-1.0629755
44	0x3e907a8f	0.28218505
45	0x3f8bdd48	1.0926905
46	0xbe8f478f	-0.27984282
47	0x3f2e0df9	0.6799007
48	0x3f869eff	1.0517272
49	0xbe776e22	-0.24163106
50	0xc0096ef8	-2.147398
51	0xbed7cc55	-0.4214808
52	0x3d0f53cf	0.034992035
53	0x3e859741	0.2609196
54	0xbccf64ad	-0.02531656
55	0xbe096002	-0.1341553
56	0x3faf5e1c	1.3700595
57	0xbf63110e	-0.886979
58	0xbf06c0c6	-0.526379
59	0x3f51f63f	0.82016367
60	0x3eae8551	0.34086087
61	0x3dd6f007	0.10495
62	0x3fd56aa9	1.6673175
63	0x3f2766e0	0.6539135
64	0x3f254b6f	0.6456823
65	0x40045db3	2.068219
66	0x3fbc1af1	1.4695722
67	0xbed3f9e3	-0.41401586
68	0x3ef00a1d	0.46882716
69	0x3ee6737e	0.4500999
70	0x3e9d1cce	0.3068604
71	0xbfed3c5c	-1.8534045
72	0x3f286636	0.6578096
73	0xbf2dbe79	-0.67868763
74	0x3f999957	1.1999921
75	0x4022b455	2.5422566
76	0x3e7f7e97	0.24950634
77	0xbf12ff88	-0.5742116
78	0x3e823a51	0.25435117
79	0xbfccf722	-1.6012919

gru.weight_ih_l0 f4 [192, 16]
0	0x3db937ae	0.09043823
1	0xbdc4a16a	-0.096011
2	0xbe16d3d6	-0.14729246
3	0xbe281fbb	-0.16418354
4	0x3e410f6f	0.18853544
5	0xbd09a896	-0.03360804
6	0x3e522125	0.20520456
7	0x3c06ed1f	0.008235245
8	0xbda13f46	-0.078733966
9	0x3e06a6f9	0.13149633
10	0x3cc29587	0.02375294
11	0xbdf449ce	-0.119281396
12	0xbda16690	-0.0788089
13	0x3d886158	0.06659192
14	0x3cb4e916	0.0220838
15	0x3d8ce2fb	0.068792306
16	0x3d8b8f66	0.068144605
17	0x3da41687	0.08012109
18	0xbd2defb4	-0.042464927
19	0xbd841b8f	-0.06450569
20	0x3d6ef811	0.058342043
21	0xbda2338f	-0.0791999
22	0xbddc57d5	-0.1075894
23	0xbcf13d3c	-0.029448144
24	0xbdacf3ed	-0.08444963
25	0xbe095adf	-0.13413571
26	0xbd9c00b0	-0.07617319
27	0x3df280cc	0.11840972
28	0x3c41b286	0.011822348
29	0x3db18fc3	0.086699985
30	0xbd51e213	-0.05124099
31	0x3d3aaf8f	0.045577582
32	0x3cb92b1b	0.022603562
33	0xbd94a3dc	-0.07257816
34	0xbdbee802	-0.09321596
35	0xbdb24805	-0.08705143
36	0x3e2a72e8	0.16645396
37	0x3e054f2d	0.13018484
38	0xbcbcc54e	-0.023043301
39	0x3d557dd9	0.05212197
40	0x3de3422a	0.11096604
41	0x3c2aadad	0.010417384
42	0x3e09ebbf	0.13468836
43	0x3d319c2c	0.043361828
44	0x3c707856	0.014677128
45	0x3d996262	0.07489468
46	0x3d96ae25	0.07357434
47	0x3df016b7	0.117230825
48	0x3dffba45	0.124867
49	0x3dc61391	0.09671701
50	0x3dcdf257	0.10055988
51	0x3b315d8c	0.0027063815
52	0x3e1ae233	0.1512535
53	0xbcbc52ac	-0.02298864
54	0xbd326893	-0.04355676
55	0x3d7abd05	0.06121542
56	0x3d8abb75	0.06774036
57	0xbd8db95f	-0.06920122
58	0x3d9ce1d6	0.07660262
59	0x3df0886b	0.1174477
60	0x3e048733	0.129422
61	0xbd9a88eb	-0.07545646
62	0x3c4163df	0.011803596
63	0xbd8e2a11	-0.06941617
64	0x3e14dd82	0.14537624
65	0xbd4f38b0	-0.05059117
66	0xbda850a6	-0.082185075
67	0xbe2e95c6	-0.17049322
68	0x3e37477b	0.17898361
69	0x3d0b3f89	0.03399614
70	0x3daa496b	0.083147846
71	0xbe20a1c2	-0.15686706
72	0x399cbd72	0.00029895786
73	0xbe08f470	-0.13374496
74	0xbcbd115d	-0.023079569
75	0x3e3788c6	0.17923269
76	0xbd4cd6f7	-0.050009694
77	0x3bd00af5	0.0063489624
78	0x3e2abcad	0.16673537
79	0x3e0c81e8	0.1372143
80	0xbadb1cc8	-0.0016716952
81	0x3d893463	0.06699445
82	0x3cdfbf9d	0.027313048
83	0x3dcd2def	0.10018527
84	0xbcfb6488	-0.030687585
85	0x3c1e7594	0.0096715875
86	0xbd4b1093	-0.049576353
87	0xbe0ce4aa	-0.13759103
88	0x3e189ce4	0.14903599
89	0xbe3f6e91	-0.18694521
90	0xbe240c7d	-0.16020389
91	0x3d9d08cb	0.07667693
92	0xbd731253	-0.059343647
93	0xbe4adc7f	-0.19810675
94	0x3e077d81	0.1323147
95	0xbe335a94	-0.17515022
96	0xbd4bb556	-0.049733482
97	0xbd0fa7d1	-0.03507215
98	0x3d4130db	0.047165733
99	0x3d09bdb3	0.033628177
100	0xbd527458	-0.051380485
101	0x3b805cce	0.003917313
102	0x3dc7234b	0.097235285
103	0xbd9314d9	-0.07181711
104	0x3d9262ef	0.07147776
105	0x3c8fc6e2	0.01755089
106	0x3d65bef2	0.056090303
107	0x3e0f3054	0.1398328
108	0x3debde13	0.11516967
109	0x3d726b6e	0.059184484
110	0xbc9b6570	-0.018969268
111	0x3ca3d7e5	0.020000407
112	0xbd08fb28	-0.033442646
113	0xbcf7ad22	-0.030233923
114	0x3e72c7df	0.23709057
115	0x3d38762b	0.04503457
116	0xbd8d3fcf	-0.06896936
117	0xbdf9d887	-0.121995024
118	0x3dd53d3c	0.1041207
119	0xbe175000	-0.14776611
120	0x3bfe594d	0.0077621103
121	0xbaec4de6	-0.0018028587
122	0x3e18f8b0	0.14938617
123	0xbd025b03	-0.031825077
124	0x3c923e81	0.01785207
125	0x3d977509	0.073953696
126	0xbd30968a	-0.043112315
127	0xbe51d82c	-0.2049262
128	0xbdf1e0ce	-0.11810456
129	0x3dc1a49e	0.09455226
130	0xbdcff384	-0.10153869
131	0xbdc975d1	-0.09836925
132	0x3dcd6c30	0.10030401
133	0xbc5d31b7	-0.0135006225
134	0x3b1c1593	0.002381657
135	0x3d22f0c9	0.039780412
136	0x3d8a45ef	0.0675162
137	0xbd8400a7	-0.06445437
138	0x3dc9e738	0.098585546
139	0xbc7a41b4	-0.015274454
140	0x3d8dabe9	0.06917555
141	0xbdacdc58	-0.08440465
142	0xbdeae7dc	-0.11470005
143	0x3d9c95fe	0.07645796
144	0x3db4fb7a	0.08837028
145	0xbe1a1913	-0.15048628
146	0xbd07d10f	-0.03315836
147	0xbb631c68	-0.0034654383
148	0xbe4413a2	-0.19148114
149	0x3d38d511	0.04512507
150	0xbdb6aebc	-0.08920047
151	0x3dbda99d	0.09260867
152	0x3c8a64fe	0.01689386
153	0xbe1a1672	-0.15047625
154	0xbe4e1d83	-0.20128445
155	0x3caba220	0.02095133
156	0x3b78815f	0.0037918908
157	0x3d83f37c	0.06442925
158	0x3e3e0459	0.18556346
159	0xbd4d2bf5	-0.05009075
160	0x3e263dd5	0.16234525
161	0x3e1da644	0.15395457
162	0xbe3fffeb	-0.18749969
163	0xbd809d29	-0.06279976
164	0x3d4a4e8d	0.049391318
165	0x3dec10bb	0.115266286
166	0x3e5782c2	0.21045974
167	0xbdf1b245	-0.1180158
168	0x3dc0d803	0.09416201
169	0xbe17a205	-0.148079
170	0x3dda6fa0	0.10665822
171	0x3e8913c4	0.26772892
172	0x3d26d076	0.040726148
173	0x3d4fc9e7	0.05072966
174	0x3e0a5005	0.13507088
175	0xbc53338f	-0.0128907105
176	0x3c37f581	0.011227966
177	0x3dcce57f	0.100047104
178	0x3d7384ab	0.059452694
179	0xbd9e58d7	-0.077317886
180	0x3d0208b5	0.031746585
181	0x3dbfa1c4	0.09357026
182	0x3e09ba60	0.13450003
183	0xbc3647d8	-0.011125527
184	0x3c8d8569	0.017275529
185	0x3d928303	0.07153895
186	0x3ccf5559	0.025309252
187	0xba61081c	-0.0008584277
188	0x3d90240b	0.07038125
189	0xbd6262b6	-0.05526992
190	0xbda512c0	-0.08060217
191	0xbe06d247	-0.13166152
192	0x3d9f649c	0.077828616
193	0x3e423178	0.18964183
194	0x3df557da	0.11979647
195	0xbdaf97f9	-0.08573908
196	0x3e597c59	0.21238841
197	0xbd2dd6ee	-0.0424413
198	0xbc4438e0	-0.011976451
199	0xbd8fe3db	-0.07025882
200	0xbdb497ac	-0.088179916
201	0x3e3c7199	0.18402709
202	0x3ea2202b	0.31665167
203	0xbd0ddcc8	-0.03463438
204	0xbd7be3df	-0.06149661
205	0x3d012787	0.031531837
206	0xbc4e2b59	-0.012583577
207	0x3d023ea9	0.03179804
208	0x3d80f8f8	0.06297487
209	0xbda31a7c	-0.07964036
210	0x3e269b27	0.16270123
211	0xbe0c1ee8	-0.13683665
212	0xbd0adb77	-0.033900704
213	0xbdc3f54d	-0.09568272
214	0xbcd40515	-0.02588133
215	0xbda27d86	-0.07934098
216	0xbd9ad952	-0.07560982
217	0x3d99f356	0.07517116
218	0x3d11ef37	0.035628524
219	0x3c826a72	0.015919898
220	0xbd95ec72	-0.07320489
221	0xbce70dd3	-0.028204834
222	0x3cb847da	0.022495199
223	0xbdb048cc	-0.08607635
224	0x3de60583	0.1123152
225	0xbdbefee4	-0.0932596
226	0xbe825d98	-0.2546203
227	0x3d2a94ea	0.04164592
228	0x3dade1af	0.08490311
229	0x3dad7ebc	0.08471438
230	0xbb3fc29f	-0.002926029
231	0x3dac9e80	0.08428669
232	0xbd32f82a	-0.0436937
233	0xbdab78fe	-0.08372687
234	0xbbd24937	-0.0064174193
235	0x397a72a2	0.00023884562
236	0x3e04aabe	0.12955758
237	0x3d5dd991	0.054162566
238	0x3e5651ca	0.20929638
239	0x3d5f9aa7	0.054590847
240	0xbc4e54b1	-0.012593434
241	0xbba0bf20	-0.0049055964
242	0xbda99fdd	-0.082824446
243	0xbcf374a0	-0.029718697
244	0x3cd510d5	0.026009003
245	0xbd7e9a3c	-0.062158808
246	0xbd36e922	-0.044655927
247	0x3db9656d	0.090525486
248	0xbd965a8e	-0.07341491
249	0x3dce828e	0.10083495
250	0xbb053e05	-0.0020331156
251	0xbd727b7c	-0.059199795
252	0x3ddf0dc9	0.10891301
253	0xbdc6f8c5	-0.09715418
254	0x3e1d3acc	0.1535446
255	0xbdafdf25	-0.08587483

gru.weight_hh_l0 f4 [192, 64]
0	0x3d21790d	0.039422084
1	0x3c7e75df	0.015531032
2	0x3d572f39	0.05253527
3	0x3c2af1a8	0.010433592
4	0xbce6c3bc	-0.028169505
5	0x3ca086aa	0.019595463
6	0x3d83bf4e	0.06432973
7	0x3d8f64b6	0.07001631
8	0xbe3db86b	-0.18527381
9	0xbdf5f2df	-0.120092146
10	0x3d8e7659	0.06956167
11	0x3d61e69b	0.055151563
12	0xbce0213e	-0.027359601
13	0x3df669b9	0.12031884
14	0x3d961429	0.07328064
15	0x3e1ef7d6	0.1552423
16	0x3d722343	0.05911566
17	0xbd5115e0	-0.051046252
18	0x3dc30c98	0.095238864
19	0x3d1f6bb7	0.038921084
20	0x3e3da4ae	0.18519852
21	0xbda733fe	-0.081642136
22	0x3e664aef	0.22489522
23	0x3d812b91	0.06307138
24	0xbe5d171d	-0.21590848
25	0xbe283d85	-0.16429718
26	0x3d783780	0.060599804
27	0xbe04207c	-0.12903017
28	0xbd89f870	-0.06736839
29	0x3a973c30	0.0011538323
30	0xbe14486b	-0.1448075
31	0x3e026b3c	0.12736219
32	0x3d8a893a	0.06764455
33	0xbcf01b1b	-0.0293098
34	0xbd52cd9b	-0.051465612
35	0x3dec20ba	0.115296796
36	0xbca565cb	-0.02019014
37	0x3e55ae4e	0.20867273
38	0x3ccdd4f6	0.025125962
39	0x3e6a2b62	0.22868112
40	0xbca02573	-0.019549107
41	0x3cc3f1bf	0.023918984
42	0xbd5459e5	-0.051843543
43	0xbd9d3b6c	-0.076773494
44	0xbd30dd86	-0.04318001
45	0xbe4564f5	-0.19276793
46	0x3d8dd355	0.06925074
47	0xbdf89f9f	-0.1213982
48	0xbccc238b	-0.024919292
49	0xbde86fcc	-0.113494486
50	0x3e4c7c1b	0.19969217
51	0x3cc37cde	0.023863252
52	0x3da2a8b4	0.07942334
53	0xbda7cfde	-0.081939444
54	0xbd93bae3	-0.0721338
55	0x3d8cd164	0.068758756
56	0x3e40d67f	0.18831824
57	0xbe0f4dc9	-0.13994516
58	0xbe5ac9e1	-0.21366073
59	0x3e4ac72d	0.19802542
60	0xba578f0f	-0.00082229165
61	0x3e118b3b	0.14213268
62	0x3deb1770	0.1147908
63	0x3e492b3a	0.19645396
64	0xbc8a6dd1	-0.016898068
65	0xbd2fb201	-0.042894367
66	0xbc39e6b6	-0.01134651
67	0xbdd75463	-0.10514142
68	0xbdb34c03	-0.087547325
69	0xbdb8c47b	-0.09021851
70	0xbd481001	-0.048843388
71	0x3d832d1e	0.0640509
72	0xbda03c73	-0.0782403
73	0x3dd08ff9	0.101837106
74	0xbd68a3a9	-0.056796703
75	0x3d765179	0.060136292
76	0x3d0256b1	0.031820957
77	0x3d31e751	0.04343349
78	0xbbce49f8	-0.006295439
79	0x3c073618	0.008252643
80	0x3da1f8d2	0.07908787
81	0x3e0e3ce2	0.13890412
82	0xbdcb71e6	-0.09933834
83	0xbd473b94	-0.048640803
84	0x3d04eaf5	0.032450635
85	0xbd0d9454	-0.034565285
86	0xbdd37851	-0.10325683
87	0xbd0efde7	-0.03491011
88	0xbd49a2fe	-0.049227707
89	0xbd8cfa22	-0.068836465
90	0xbe15d083	-0.14630322
91	0x3de8e879	0.11372466
92	0x3d5b461d	0.053533662
93	0xbe0b366d	-0.1359498
94	0x3bb54e86	0.0055330424
95	0xbce0293d	-0.027363414
96	0xbd0b53a7	-0.034015324
97	0xbc7c8d2c	-0.015414517
98	0xbc4413dd	-0.011967626
99	0x3d8a770f	0.0676099
100	0x3d6bb8f8	0.057549447
101	0x3dcf1a58	0.101124465
102	0x3bc06549	0.005871449
103	0xbdab5978	-0.08366674
104	0xbe1b4e6a	-0.15166631
105	0x3d9971b3	0.074923895
106	0x3d51f0e2	0.051255114
107	0x3cf3f2c0	0.029778838
108	0xbd3b7660	-0.045767188
109	0xbd60c0c0	-0.05487132
110	0xbda5af1a	-0.080900386
111	0xbcc97603	-0.024592405
112	0xbbb8df08	-0.005641822
113	0x3c6898e1	0.014196605
114	0xbd8e3100	-0.0694294
115	0x3e107c53	0.14109926
116	0xbc26e32a	-0.010185996
117	0x3db7563a	0.08951993
118	0xbd64231e	-0.055697553
119	0x3e1aca9f	0.15116356
120	0x3cf64145	0.03006042
121	0xbc036e14	-0.00802185
122	0x3d2f78de	0.042839877
123	0x3d22b616	0.039724432
124	0xbc2b0c9c	-0.010440018
125	0xbdb838fd	-0.08995245
126	0x3daadbb9	0.0834269
127	0xbcd18e2a	-0.025580484
128	0x3d91b846	0.071152255
129	0xbdcf7773	-0.10130205
130	0x3d86adc4	0.06576112
131	0xbe06c483	-0.13160901
132	0xbdfca143	-0.12335446
133	0xbddd79dd	-0.10814259
134	0x3dd84fc5	0.1056209
135	0xbd9cbede	-0.076535925
136	0x3b662ff0	0.0035123788
137	0xbcf4a840	-0.029865384
138	0x3ddccbe2	0.10781075
139	0x3db0e845	0.08638052
140	0xbd1dfe5b	-0.03857265
141	0x3b58f402	0.0033104424
142	0x3df5a253	0.119938515
143	0xbe07b248	-0.13251603
144	0x3c1f8617	0.009736559
145	0x3c5beb47	0.013422794
146	0x3ce03710	0.027370006
147	0x3e057ce6	0.13035926
148	0xbcd8011b	-0.026367715
149	0xbd49d5e8	-0.049276263
150	0x3dab47b8	0.08363289
151	0xbdbeec45	-0.093224086
152	0xbda4dd12	-0.08049978
153	0x3d91314c	0.07089481
154	0x3e04eabe	0.12980172
155	0x3d438192	0.04773099
156	0xbda70829	-0.08155853
157	0x3d2d2a6c	0.042276785
158	0xbcb4694e	-0.02202287
159	0x3d173fe3	0.03692616
160	0x3db9c018	0.09069842
161	0xbd6cfe40	-0.05785966
162	0xbd219a54	-0.03945382
163	0x3b0ff7a5	0.0021967676
164	0xbd6d108a	-0.0578771
165	0x3d6883e3	0.056766402
166	0xbd823ab8	-0.06358856
167	0x3d5de42d	0.054172684
168	0xbdd8770c	-0.105695814
169	0xbbadf619	-0.005308878
170	0x3db37f43	0.087645076
171	0x3d02a194	0.031892374
172	0x3db4a570	0.08820617
173	0x3cb3c9f5	0.021946887
174	0xbd90c41a	-0.070686534
175	0x3d4f2d3f	0.05058026
176	0xbdb41b46	-0.087942645
177	0x3d8c165d	0.06840203
178	0x3e2236f0	0.1584127
179	0x3941c6bf	0.00018479953
180	0xbd9f8d94	-0.07790676
181	0x3dd5838c	0.10425481
182	0x3dc94822	0.09828211
183	0xbd94d58c	-0.07267293
184	0x3deb9cb5	0.11504499
185	0xbdcdb92c	-0.10045084
186	0xbc65a116	-0.014015457
187	0x3d0974da	0.033558704
188	0x3e44d880	0.19223213
189	0x3e088957	0.13333641
190	0xbd76d787	-0.060264137
191	0x3ccc2db1	0.024924131
192	0xbd1141a2	-0.035462983
193	0x3b283838	0.0025668275
194	0x3dada42a	0.084785774
195	0xbd595410	-0.053058684
196	0x3d36a6c2	0.044592626
197	0xbd154cc5	-0.036450166
198	0x3c02934e	0.0079696905
199	0x3c6c90a0	0.014438778
200	0x3ddf689c	0.109086245
201	0xbcf2e0ca	-0.029648203
202	0xbb93a5ed	-0.004505864
203	0xbceb4d47	-0.028723372
204	0xbd8eba97	-0.06969183
205	0xbd2d78ee	-0.042351656
206	0x3d9716d1	0.07377399
207	0xbd1ee1fe	-0.03878974
208	0xbe1cb7af	-0.15304445
209	0x3bbc4d48	0.0057465173
210	0xb9126053	-0.00013959529
211	0x3b67297d	0.0035272532
212	0xbd3e9853	-0.046531986
213	0x3d52b967	0.051446345
214	0x3ce66036	0.028122049
215	0xbe2ef3fc	-0.1708526
216	0xbcf56bbc	-0.029958598
217	0xbc24b05d	-0.010051814
218	0x3de56af0	0.11202037
219	0xbdbdc515	-0.09266106
220	0x3d26f655	0.040762264
221	0xbd2edec9	-0.042692933
222	0xbb602fc8	-0.0034208167
223	0x3ba3805b	0.0049896664
224	0x3d80f56a	0.06296809
225	0x3d66e350	0.056369126
226	0x3d7dad15	0.061932642
227	0xbdc1dacf	-0.094655626
228	0x3da7aec1	0.081876285
229	0xbe2a0caa	-0.16606393
230	0xbd4c3543	-0.04985548
231	0x3dfb8df6	0.12282936
232	0xbe188610	-0.14894891
233	0x3d718145	0.05896117
234	0xbe13f187	-0.14447604
235	0x3e09f4db	0.13472311
236	0x3d55c0d5	0.052185852
237	0xbe0f09ad	-0.13968535
238	0xbdf6dfcb	-0.12054404
239	0xbc8d0e5f	-0.017218767
240	0xbd5eaa2c	-0.054361507
241	0xbdc925f9	-0.09821696
242	0x3d643af5	0.05572029
243	0x3d5a1398	0.053241342
244	0x3df012c5	0.1172233
245	0xbdc90a25	-0.09816388
246	0xbe23e11d	-0.16003843
247	0x3de7d26a	0.1131943
248	0xbdba4495	-0.09095112
249	0x3d9a424c	0.075321764
250	0xbd1c5377	-0.038165536
251	0xbd3b9812	-0.045799322
252	0xbd1629ac	-0.036660835
253	0x3da3d3ec	0.07999405
254	0x3d916073	0.07098474
255	0x3df68a67	0.12038117

gru.bias_ih_l0 f4 [192]
0	0x3dc5a73f	0.0965104
1	0x3c64c07b	0.013961907
2	0x3dda1b91	0.10649789
3	0xbbcca06d	-0.00624471
4	0x3e093447	0.13398848
5	0x3dae43c5	0.0850902
6	0x3deb00d8	0.1147477
7	0x3deeda3b	0.11662718
8	0xbdedf9fe	-0.11619948
9	0x3e05ddb9	0.13072862
10	0x3d4ddb57	0.050258007
11	0x3d225272	0.039629407
12	0x3ccac502	0.024752144
13	0x3d96be74	0.07360545
14	0xbc7e220d	-0.015511048
15	0x3e06b09e	0.13153312
16	0x3dc07786	0.09397797
17	0xbd63c4b6	-0.05560752
18	0x3dbfe6bb	0.0937018
19	0x3e2219a4	0.15830094
20	0xbdd420a8	-0.10357791
21	0x3db84322	0.089971796
22	0xbd50b3fb	-0.050952893
23	0x3dc186dc	0.094495505
24	0x3dc83b87	0.09776979
25	0xbd42da7f	-0.047571655
26	0x3d79d2d6	0.060992084
27	0x3ca0eb3e	0.019643422
28	0x3cf3f3a5	0.029779265
29	0x3dc99319	0.0984251
30	0x3d814711	0.06312383
31	0xbd197e89	-0.03747419
32	0x3de766d0	0.11298907
33	0xbc6103d7	-0.013733826
34	0xbd899b21	-0.067190416
35	0xbd7aa51d	-0.06119262
36	0x3d25cadb	0.04047666
37	0xbd961a12	-0.07329191
38	0x3ca8c4c4	0.020601638
39	0xbc9bb8e9	-0.01900907
40	0x3dc00dd5	0.09377638
41	0xbd80b36c	-0.06284222
42	0xbdd4c98f	-0.10390007
43	0x3a5ea078	0.00084925396
44	0xbd1f4db8	-0.038892478
45	0xbe032372	-0.1280649
46	0x3d9bd6f9	0.07609362
47	0x3d84f03f	0.06491136
48	0x3e355a79	0.17710294
49	0xbdb995d0	-0.090617776
50	0xbd820d7e	-0.0635023
51	0xbbd4d129	-0.0064946604
52	0x3d215fa7	0.03939786
53	0x3bdb0c1b	0.0066847927
54	0x3cb72a32	0.022358987
55	0x3e0e806e	0.1391618
56	0xbcb14bfe	-0.021642681
57	0x3be05496	0.006846021
58	0x3d653607	0.055959728
59	0xbdae6e6a	-0.085171536
60	0xbd2bfa78	-0.041986912
61	0x3dcac916	0.09901635
62	0x3b403e44	0.0029333988
63	0x3d02eb4c	0.031962678
64	0x3ab20325	0.0013581259
65	0xbd314b49	-0.04328469
66	0x3d522df5	0.05131336
67	0x3e0cb31d	0.13740201
68	0xbe3868bb	-0.18008702
69	0xbe29621f	-0.16541336
70	0x3d828140	0.06372309
71	0x3e9b5d93	0.3034483
72	0xbbbf9b42	-0.0058473656
73	0xbdea0fd7	-0.114288025
74	0xbdcbe99a	-0.09956665
75	0xbd31c404	-0.043399826
76	0xbb583e1d	-0.0032996007
77	0x3e15b05e	0.1461806
78	0x3e9a736d	0.30166188
79	0xbcf79237	-0.030221088
80	0xbd7f4742	-0.062323816
81	0x3d047eb6	0.032347403
82	0xbcb591ae	-0.022164192
83	0x3e96ba5a	0.2943905
84	0xbd7a67ff	-0.061134335
85	0xbe3f2c07	-0.18669139
86	0x3e03698c	0.12833232
87	0xbcb0fc3a	-0.021604646
88	0x3e795971	0.24350525
89	0xbdddd36f	-0.108313434
90	0x3db6f395	0.08933178
91	0xbd16fd00	-0.036862373
92	0xbd8273be	-0.06369732
93	0x3c262b29	0.010142126
94	0x3e3c2620	0.18373919
95	0x3e43108d	0.19049282
96	0x3de3b050	0.11117613
97	0xbe16086a	-0.14651647
98	0x3d9f0a69	0.077656575
99	0xbd9c1bc6	-0.07622485
100	0xbdc48da1	-0.09597326
101	0x3e7795e8	0.24178278
102	0x3c97506a	0.018470962
103	0x3d5d26f6	0.053992234
104	0xbcf9bcbc	-0.030485503
105	0xbd00745d	-0.031360973
106	0x3e3f767d	0.18697543
107	0x3e45e0cc	0.19324034
108	0xbd2979b1	-0.04137582
109	0xbc94e7ee	-0.018176999
110	0x3c4b4ffb	0.012409206
111	0x3e550651	0.20803191
112	0xbdca19b1	-0.098681815
113	0xbdba2c42	-0.09090473
114	0xbcaa61fc	-0.020798676
115	0xbcdd70a1	-0.027031245
116	0xbd6dde12	-0.05807311
117	0xbe5e7db2	-0.21727636
118	0xbd6e293d	-0.058144797
119	0xbd457e58	-0.048216194
120	0xbe301266	-0.17194518
121	0x3c6cbc39	0.014449173
122	0x3e1942be	0.14966866
123	0xbe17be68	-0.14818728
124	0xbe912eef	-0.2835612
125	0x3e046bb3	0.12931709
126	0xbc413850	-0.011793211
127	0x3d525662	0.051351912
128	0xbd4132f5	-0.047167737
129	0xbdef5fd3	-0.11688199
130	0xbdcc594c	-0.099779695
131	0x3d8dea93	0.06929507
132	0xbdd7c407	-0.10535436
133	0xbd393d41	-0.045224432
134	0xbdea8dfb	-0.11452862
135	0xbd8fdc98	-0.07024497
136	0x3d124cde	0.035717838
137	0x3d9a30cf	0.07528841
138	0x3e074fc1	0.13214017
139	0x3c8a68a6	0.016895603
140	0xbd76279b	-0.060096364
141	0xbc03da5e	-0.008047668
142	0x3d4de29d	0.050264943
143	0xbd7fc109	-0.062439952
144	0xba9d71b4	-0.0012012036
145	0xbd62c393	-0.055362295
146	0xbd473392	-0.048633166
147	0x3d2d9e74	0.04238744
148	0x3d1d1719	0.038352106
149	0xbc66fba9	-0.014098086
150	0x3dd94989	0.10609729
151	0x3d27a49a	0.04092846
152	0xbd5410f6	-0.051773988
153	0x3d3118cc	0.04323654
154	0xbbc9a30e	-0.006153471
155	0xbcb4cd35	-0.022070507
156	0x3de2d137	0.11075061
157	0x3d16ddbb	0.036832552
158	0xbd71ba78	-0.05901572
159	0x3c8a5a98	0.016888902
160	0x3de1f880	0.11033726
161	0x3da691db	0.081332885
162	0xbd03900a	-0.03211979
163	0x3dd10b9b	0.10207292
164	0xbd68012a	-0.056641735
165	0xbc7073e7	-0.014676071
166	0x3d0d50c2	0.034500845
167	0x3cb9892e	0.02264842
168	0xbdaf2b60	-0.08553195
169	0x3b6f7664	0.0036539072
170	0xbdb4d627	-0.08829909
171	0xbcc47b70	-0.02398464
172	0x3ca1cec8	0.019751921
173	0x3cf76806	0.03020097
174	0x3dd22f2b	0.10262903
175	0x3d1a78fe	0.037713043
176	0x3d0ff25f	0.035143252
177	0xbda0ae39	-0.0784573
178	0xbc1fa910	-0.0097448975
179	0xbbf72bc1	-0.0075430577
180	0x3bc611e4	0.006044613
181	0xbc878712	-0.016543899
182	0x3d39d351	0.045367543
183	0x3dede80b	0.11616524
184	0x3d77fd37	0.06054422
185	0x3cc13b80	0.023587942
186	0x3a42404c	0.00074100937
187	0x3d244ffe	0.04011535
188	0x3cfc6de7	0.030814124
189	0x3e0196e6	0.1265522
190	0x3b52f365	0.0032188531
191	0xbc671042	-0.014102997

gru.bias_hh_l0 f4 [192]
0	0xbdcd0911	-0.10011495
1	0xbd92685c	-0.07148811
2	0xbd817e8e	-0.063229665
3	0x3abaeb55	0.0014260808
4	0x3e004d66	0.12529525
5	0xbdae2a17	-0.08504122
6	0xbd5e08cb	-0.054207604
7	0xbd71ca9a	-0.059031107
8	0xbd6f2e10	-0.058393538
9	0x3be38dbb	0.006944386
10	0x3db07ef4	0.086179644
11	0xbd9bc1b6	-0.07605307
12	0xbd4e027a	-0.05029533
13	0xbd3dc150	-0.046326935
14	0xbc44c10e	-0.012008918
15	0xbd81426f	-0.06311499
16	0x3e0d8c91	0.13823153
17	0x3e12ea98	0.14347303
18	0xbd61b601	-0.055105213
19	0x3dc278d0	0.094956994
20	0x3cf2b259	0.029626058
21	0x3e36dd19	0.1785778
22	0x3e0c4d33	0.13701324
23	0x3cd01bf1	0.025403949
24	0x3dc1c03f	0.09460496
25	0x3c7db782	0.015485646
26	0x3d8c00b8	0.068360746
27	0x3e1754fb	0.14778511
28	0x3cbcf8f5	0.02306793
29	0x3c99155e	0.018686946
30	0xbd315ddb	-0.0433024
31	0x3d044d5d	0.032300342
32	0xbe0033fc	-0.1251983
33	0xbe0efd7d	-0.13963886
34	0xbdbc831b	-0.09204694
35	0xbd6c148a	-0.057636775
36	0xbdcbc281	-0.09949208
37	0x3d7aa34a	0.06119088
38	0x3df19506	0.11796002
39	0x3c9ee005	0.01939393
40	0xbdc15f11	-0.094419606
41	0xbd3eefe9	-0.046615515
42	0x3d82c1a1	0.06384588
43	0x3d8e574d	0.06950245
44	0xbdee8a56	-0.11647479
45	0x3d83e51d	0.06440184
46	0x3dd9d58d	0.10636435
47	0x3d57476b	0.052558344
48	0x3e34fc4a	0.17674366
49	0xbce9ea1e	-0.028554019
50	0x3e0a70fe	0.13519666
51	0x3d2b24c4	0.04178311
52	0x3dffe8c0	0.124955654
53	0x3e59f9cb	0.21286695
54	0x3e03106b	0.12799232
55	0x3e0138b6	0.1261929
56	0x3de4dddf	0.11175131
57	0xbc65470b	-0.013993989
58	0x3e0bd02d	0.13653632
59	0xbcf258ff	-0.029583452
60	0x3db5ab9a	0.08870621
61	0x3db9d5ce	0.09073983
62	0xbd558060	-0.05212438
63	0xbcc818f5	-0.024425963
64	0x3bf44521	0.00745453
65	0x3cb2716b	0.021782598
66	0x3b98daee	0.0046647703
67	0x3e7595d3	0.23982935
68	0xbdb3c1cd	-0.08777199
69	0xbdbe22b5	-0.092839636
70	0x3e472b2c	0.19450063
71	0x3e832f52	0.2562204
72	0x3c980da6	0.018561196
73	0x3d26d046	0.04072597
74	0xb9551c44	-0.00020323793
75	0x3c977cc3	0.018492108
76	0xbd0f272b	-0.034949463
77	0x3da4bee4	0.08044222
78	0x3e341ef6	0.17589936
79	0xbd2fa6a9	-0.04288355
80	0xbcfc3635	-0.030787567
81	0xbc1c5420	-0.009541541
82	0x3d40b5da	0.047048427
83	0x3ea5d596	0.32389516
84	0x3d0e8439	0.034794066
85	0xbde58053	-0.112061165
86	0x3e688010	0.22705102
87	0xbd836998	-0.06416625
88	0x3e8fdf3d	0.28100005
89	0xbd2abdbc	-0.04168485
90	0x3da7dafb	0.08196064
91	0xbdadb20d	-0.08481226
92	0xbe4f58f7	-0.20248781
93	0xbdbd18a1	-0.09233213
94	0x3e2872fe	0.16450116
95	0xbcd53878	-0.026027903
96	0x3dc0a1c6	0.09405856
97	0xbdd76f67	-0.10519295
98	0x3d58af0a	0.052901305
99	0xbda64952	-0.081194535
100	0xbdea6e97	-0.114468746
101	0x3e7faa0c	0.24967211
102	0xbd5faa8b	-0.054606
103	0x3ddbc8c2	0.10731651
104	0xbd9ba639	-0.07600064
105	0xbd2186ab	-0.03943507
106	0x3d982fdd	0.07431004
107	0x3d4d7de3	0.050168883
108	0x3df87eb0	0.12133539
109	0x3da55def	0.08074557
110	0x3dddc10c	0.108278364
111	0x3e2bad79	0.16765393
112	0xbd81e2af	-0.063420646
113	0xbe3abdc0	-0.18236446
114	0x3dfee501	0.12446023
115	0xbd324895	-0.04352625
116	0xbd616698	-0.05502948
117	0xbdd82f4b	-0.105558954
118	0xbdca9f10	-0.0989362
119	0xbce3a1f8	-0.027787194
120	0xbd024906	-0.03180792
121	0xbe223d5c	-0.15843719
122	0x3db77547	0.08957916
123	0xbe008ec8	-0.12554467
124	0xbe60eba0	-0.21964884
125	0x3e053393	0.13007955
126	0x3caf461d	0.021395737
127	0x3d9d626a	0.076847866
128	0x3c98dee5	0.018660972
129	0x3c3b8464	0.011445139
130	0x3dc1c08c	0.094605535
131	0xbcff79bc	-0.031185977
132	0xbdfcc19c	-0.123416156
133	0xbda0ef8c	-0.0785819
134	0xbdb22b2b	-0.0869964
135	0xbdd6c099	-0.10485954
136	0xbde04c55	-0.10952059
137	0xbcac4801	-0.021030428
138	0x3d1a2819	0.037635896
139	0x3b57cc2b	0.003292809
140	0x3d931a23	0.071827196
141	0x3d8c0bd0	0.068381906
142	0x3b9de48c	0.0048185047
143	0xbab7c5a0	-0.0014020689
144	0xbd8c6ef4	-0.068571
145	0xbd721532	-0.059102245
146	0xbd9a471e	-0.07533096
147	0x3dbbb113	0.091646336
148	0x3d5e54a1	0.054279927
149	0xbd3feb1d	-0.04685508
150	0xbd6ccbdc	-0.057811603
151	0xbd58377c	-0.05278729
152	0xbcf72454	-0.03016869
153	0x3d858e87	0.065213256
154	0xbd9d78de	-0.07689069
155	0x3cad6e28	0.02117069
156	0x3d6e9287	0.058245208
157	0xbde387db	-0.11109897
158	0xbd95bd68	-0.07311517
159	0x3d02065b	0.031744342
160	0xbd501868	-0.050804526
161	0xba8df520	-0.0010830499
162	0xbc9c57ae	-0.019084778
163	0x3df3e689	0.119092055
164	0x3d559dbf	0.05215239
165	0xbd99419a	-0.07483216
166	0x3cf8fe30	0.030394644
167	0x3dd96332	0.10614623
168	0xbd217c34	-0.03942509
169	0xbd1197fe	-0.03554534
170	0x3ccc51b2	0.0249413
171	0x3cf21633	0.029551601
172	0xbdb0a9c1	-0.08626128
173	0x3c2839ec	0.010267716
174	0x3d239809	0.039939914
175	0xbda25261	-0.07925869
176	0xbdaa9af6	-0.08330338
177	0xbdc669f5	-0.096881784
178	0x3d69a6b1	0.057043735
179	0x3dd3d72f	0.103437774
180	0x3dc5aaf4	0.09651747
181	0x3d8269ce	0.06367837
182	0xbd8b6d72	-0.068079844
183	0x3d923d89	0.07140643
184	0x3d764803	0.06012727
185	0x3dd01845	0.10160879
186	0x3dcf2a44	0.101154834
187	0x3d3a7ab3	0.04552717
188	0x3d4b1e38	0.049589366
189	0x3c7d0085	0.015442018
190	0x3e0a02c0	0.13477612
191	0xbdaeab57	-0.08528774

gru.weight_ih_l0_reverse f4 [192, 16]
0	0x3c50f70c	0.012754213
1	0xbd85a2a4	-0.06525162
2	0xbc27f908	-0.010252245
3	0x3e104fd2	0.14092949
4	0x3d1b3170	0.037888944
5	0x3dd1a428	0.102363884
6	0x3d962cf6	0.07332794
7	0xbd832365	-0.06403235
8	0x3e672f61	0.22576667
9	0xbd70ce72	-0.05879063
10	0x3d2aeb0d	0.04172807
11	0x3e02da40	0.12778568
12	0x3dcf24fc	0.10114476
13	0xbddc8b25	-0.10768727
14	0xbce49c35	-0.027906517
15	0xbd4ab687	-0.049490478
16	0xbcf630e2	-0.030052606
17	0x3dd00000	0.1015625
18	0x3bb23d4f	0.0054394375
19	0xbd1b390a	-0.037896194
20	0x3db22961	0.08699299
21	0xbd9c9724	-0.07646015
22	0x3ce990c5	0.028511414
23	0xbd301b77	-0.042994943
24	0xbd1683f6	-0.03674694
25	0xbd3ed307	-0.04658797
26	0x3d48cc10	0.049022734
27	0x38e784c3	0.00011039667
28	0x3e1ee90d	0.1551859
29	0x3e09942d	0.13435431
30	0x3de13c43	0.10997822
31	0x3dcd2241	0.10016299
32	0x3d9f4572	0.077769175
33	0xbe73f35e	-0.23823306
34	0xbe7b5c19	-0.24546851
35	0x3d81ab5a	0.06331511
36	0xbd3b9b87	-0.04580262
37	0x3e5cf0b8	0.21576202
38	0x3d843e5c	0.064572066
39	0x3e4593cb	0.1929466
40	0x3d8e5bd0	0.069511056
41	0xbe0e7cbe	-0.13914773
42	0x3d6630cf	0.05619889
43	0x3d795744	0.06087424
44	0x3cb1e1b4	0.021714069
45	0xbe41300f	-0.18865989
46	0x3d98ff02	0.07470514
47	0x3e0633bd	0.13105674
48	0xbabf8e19	-0.0014614492
49	0xbdacb098	-0.0843212
50	0xbcda240d	-0.026628518
51	0x3e0ee87b	0.13955872
52	0xbda31958	-0.07963818
53	0x3addf0cc	0.0016932725
54	0x3d711f1f	0.05886757
55	0xbdab0eca	-0.0835243
56	0x3d2731b2	0.040818878
57	0xbe32c293	-0.17457037
58	0x3bd69b55	0.0065492787
59	0x3de3b43a	0.1111836
60	0x3d3c0231	0.045900527
61	0x3da8f996	0.0825073
62	0xbc993fe5	-0.018707225
63	0x3e4b1e89	0.19835867
64	0x3d9afb02	0.07567407
65	0xbdeb11be	-0.114779934
66	0x3db74ec3	0.089505695
67	0x3bbf5b22	0.0058397213
68	0xbd8de031	-0.06927527
69	0xbe31b856	-0.17355475
70	0xbd3a6dc1	-0.045514826
71	0x3df28a38	0.118427694
72	0x3d095030	0.03352374
73	0x3e42a633	0.19008712
74	0x3e6b4204	0.22974402
75	0xbe3830bc	-0.1798734
76	0x3dc8d777	0.09806722
77	0x3a996ce0	0.0011705421
78	0xbd7b7248	-0.061388284
79	0x3c950745	0.018191943
80	0x3d6598bc	0.056053862
81	0xbd93a3f7	-0.07209008
82	0xbe3c543c	-0.18391508
83	0x3dc24668	0.09486085
84	0x3bc982d4	0.006149629
85	0x3da7aadb	0.08186885
86	0xbdbf35ae	-0.093364105
87	0x3dc587fa	0.09645076
88	0x3d3fbdd1	0.046811882
89	0xbe50e307	-0.20399104
90	0xbe1c0756	-0.15237173
91	0x3d0eb4c0	0.034840345
92	0x3c8ac695	0.016940394
93	0x3d69a2bf	0.057039972
94	0x3dbe9dee	0.093074664
95	0x3d0fda28	0.03512016
96	0x3d295e49	0.041349683
97	0x3b8d5ffe	0.0043144217
98	0x3d48d517	0.049031343
99	0xbd7f7979	-0.062371705
100	0xbe0b73cf	-0.13618396
101	0x3d444f8d	0.047927428
102	0x3c8b737c	0.01702284
103	0xbdee30f4	-0.11630431
104	0xbb80db6e	-0.003932408
105	0xbdc0107e	-0.09378146
106	0xbd36f4f5	-0.044667203
107	0x3db9ae08	0.09066397
108	0x3df0abb4	0.117515
109	0xbd58614e	-0.052827172
110	0x3de8e05d	0.11370919
111	0x3dc11871	0.0942849
112	0x3e0be8b8	0.13662994
113	0x3d661713	0.05617435
114	0xbdd09f81	-0.10186673
115	0xbdc23d2c	-0.09484324
116	0x3d99f14a	0.07516725
117	0xbe0e9ab2	-0.13926199
118	0x3dc02fb9	0.093841024
119	0x3c95a368	0.018266395
120	0x3caba4b1	0.020952554
121	0xbe0ea337	-0.13929449
122	0x3d46c895	0.048531134
123	0x3dee2da3	0.11629798
124	0x3c8b998c	0.01704099
125	0x3d22e3b1	0.039767925
126	0xbd8b6ec3	-0.068082355
127	0x3df5fc96	0.120110676
128	0x3dc802f3	0.097661875
129	0xbe22e430	-0.15907359
130	0xbdc1325e	-0.09433435
131	0x3d1a07cf	0.037605103
132	0xbd63dfe2	-0.055633433
133	0x3db04d3e	0.08608483
134	0x3cebafdd	0.028770382
135	0xbdc0968a	-0.09403713
136	0x3e80f218	0.25184703
137	0xbe20f456	-0.15718207
138	0xbe04089a	-0.12893906
139	0xbd8df6dd	-0.06931851
140	0x3d759a52	0.059961624
141	0x3deb708c	0.11496076
142	0x3dedf5b4	0.1161913
143	0x3e1c7470	0.15278792
144	0x3dbd9de4	0.09258631
145	0x3d92f7ab	0.07176145
146	0xbd1a8c95	-0.037731726
147	0xbdc34640	-0.095348835
148	0x3a841f54	0.0010080137
149	0x3caf6934	0.02141247
150	0xbd639ea0	-0.0555712
151	0x3cb3f88b	0.0219691
152	0xbc5b8dc0	-0.013400495
153	0x3decf8f3	0.11570921
154	0xbc98ce57	-0.018653078
155	0x3bed2849	0.0072374684
156	0x3d87391a	0.06602688
157	0xbd9a1d02	-0.07525064
158	0xbc4ef220	-0.012630969
159	0x3d87cfcb	0.0663143
160	0x3e1dd8ac	0.15414685
161	0x3b3cb7a1	0.0028795975
162	0xbe1c7f0f	-0.15282844
163	0xbd54a6f7	-0.051917043
164	0xbdffe7ba	-0.1249537
165	0xbd871ea3	-0.0659764
166	0xbc019ad5	-0.00791045
167	0xbd7602bc	-0.0600612
168	0xbca38cba	-0.019964565
169	0x3ce5b032	0.028038118
170	0xbdaef439	-0.085426755
171	0xbd7ddf83	-0.061980736
172	0x3df7cc5c	0.12099525
173	0x3d0de8ba	0.034645773
174	0x3dec60e4	0.11541918
175	0x3d9b4521	0.07581545
176	0x3dcf22b7	0.10114043
177	0xbda564cb	-0.08075865
178	0xbde3a8a5	-0.11116151
179	0x3d9b5225	0.07584027
180	0xbe822ead	-0.25426236
181	0x3dad92f6	0.08475296
182	0xbd9d8fb1	-0.076934226
183	0xbd5004ce	-0.050785832
184	0xbc859dfa	-0.01631068
185	0xbe0e4bd7	-0.13896118
186	0xbe7200f1	-0.23633172
187	0x3dc1cf13	0.094633244
188	0x3d83ba74	0.064320475
189	0x3d85658a	0.06513508
190	0x3cb3c543	0.021944648
191	0xba13476e	-0.0005618249
192	0xbcb76739	-0.022388088
193	0x3c0d2b4e	0.008616282
194	0xbbddcbb4	-0.006768668
195	0xbdb53683	-0.08848288
196	0xbc175c74	-0.009238351
197	0xbd4860e2	-0.04892052
198	0x3c946296	0.018113416
199	0xbc44af68	-0.012004711
200	0x3ce961f9	0.0284891
201	0x3b7389cf	0.0037160998
202	0x3e4d0122	0.20019963
203	0x3e1e9ed6	0.15490279
204	0xbd13fea0	-0.0361315
205	0x3b371ef2	0.0027942029
206	0x3d0234ad	0.031788517
207	0xbe3739c9	-0.17893137
208	0xbca58ab5	-0.020207742
209	0xbd202b97	-0.03910407
210	0xbe05c1c9	-0.13062204
211	0x3c75d156	0.015003523
212	0xbd03820d	-0.032106448
213	0x3d6763bf	0.05649161
214	0xbcc33449	-0.023828642
215	0xbceb8a64	-0.028752513
216	0x3c5ab834	0.0133495815
217	0x3dbc378b	0.091902815
218	0x3cbd2c1a	0.023092318
219	0xbdb139a3	-0.086535715
220	0xbe0eb694	-0.13936836
221	0xbdcf45aa	-0.10120709
222	0xbd3de8bf	-0.046364542
223	0xbcc534b9	-0.024072992
224	0x3df1086a	0.11769183
225	0x3c3c2737	0.011483959
226	0xbdb89df4	-0.09014502
227	0xbda4f7c4	-0.0805507
228	0xbe15abcd	-0.14616318
229	0xbd42de3c	-0.04757522
230	0x3de6e8c6	0.11274867
231	0x3da7c6fc	0.0819225
232	0x3dfc3b5d	0.1231601
233	0x3d783c48	0.060604364
234	0xbdee7b18	-0.11644572
235	0xbdcd11a5	-0.10013131
236	0xbcb6fc87	-0.022337211
237	0x3b9c53d2	0.0047707343
238	0x3dae7f93	0.085204266
239	0x3bfc3053	0.0076961904
240	0xbc71ec20	-0.014765769
241	0x3daef61b	0.08543035
242	0xbe16a4b4	-0.14711267
243	0xbda46cea	-0.08028586
244	0xbdafb6b0	-0.08579767
245	0xbe02502b	-0.12725894
246	0x3e05b23d	0.13056274
247	0x3db14a14	0.086567074
248	0xbd02a5cb	-0.031896394
249	0x3d782451	0.06058151
250	0x3def4317	0.11682718
251	0xbde09a5a	-0.1096694
252	0x3d2b2915	0.041787226
253	0x3b37ee42	0.0028065597
254	0xbcff9e95	-0.031203547
255	0x3d7e0a51	0.062021557

gru.weight_hh_l0_reverse f4 [192, 64]
0	0xbc14929d	-0.009068158
1	0x3d450fac	0.04811065
2	0x3e2c4ab9	0.1682538
3	0x3d84be12	0.064815655
4	0x3dfa1f14	0.12212959
5	0xbd075c6b	-0.03304712
6	0x3d81d345	0.063391246
7	0xbe077442	-0.13227943
8	0x3c754445	0.01496989
9	0x3e0a8512	0.13527325
10	0xbda6247f	-0.0811243
11	0xbe140c9c	-0.14457935
12	0xbc29bd64	-0.010360096
13	0x3e141c2b	0.1446387
14	0x3cdd86b2	0.027041767
15	0xbd8eb2f7	-0.069677286
16	0x3c19b108	0.009380586
17	0xbde6bc7e	-0.11266421
18	0xbc32a830	-0.010904357
19	0x3e536bdf	0.20646618
20	0xbd8e532a	-0.06949456
21	0x3e076287	0.13221179
22	0x3dea465f	0.114392035
23	0xbdf5925f	-0.11990809
24	0x3da00594	0.07813564
25	0xbe1fe3f8	-0.15614307
26	0xbdf3845d	-0.11890481
27	0xbdea6b1f	-0.11446213
28	0xbbfd838c	-0.007736629
29	0xbdf6cf05	-0.120512046
30	0x3cca84e1	0.024721565
31	0xba8c5083	-0.0010705147
32	0x3c0f931f	0.008763104
33	0xbdf35ba5	-0.11882714
34	0xbdff8110	-0.124757886
35	0x3dc13b84	0.0943518
36	0xbda7b794	-0.081893116
37	0x3d4da713	0.050208163
38	0xbde875e4	-0.11350611
39	0xbdcc6077	-0.09979337
40	0xbcbb7348	-0.022882119
41	0x3bda0a5b	0.0066540665
42	0xbdb18d39	-0.08669514
43	0x3c8df90e	0.017330673
44	0xbe2ec289	-0.17066397
45	0x3dfbd421	0.1229632
46	0xbdc07afc	-0.093984574
47	0x3d4c9a50	0.04995185
48	0x3dbf0d4b	0.09328707
49	0x3d9bec2f	0.07613408
50	0xbe2652b8	-0.16242492
51	0xbc36d338	-0.011158757
52	0xbd9a3eb5	-0.07531492
53	0xbda0fe90	-0.07861054
54	0x3d94af85	0.0726004
55	0x3e3cc560	0.18434668
56	0x3e2f0fa8	0.17095816
57	0x3cda5d6b	0.026655873
58	0x3e16bbd4	0.14720088
59	0x3db2dfd0	0.08734095
60	0xbe0a2e53	-0.13494234
61	0xbdb1fc04	-0.08690646
62	0xbd13f02b	-0.036117714
63	0x3c9b13b3	0.018930292
64	0x3c9dd268	0.019265369
65	0x3d8fc609	0.07020194
66	0xbd207a5b	-0.039179187
67	0xbd99bffe	-0.07507323
68	0xbbdfb819	-0.006827366
69	0x3dffe72f	0.12495267
70	0xbe1fecd9	-0.15617694
71	0x3d71f811	0.059074465
72	0x3d4833c3	0.04887749
73	0x3d323a07	0.04351237
74	0x3d973102	0.073823944
75	0x3da3d9ea	0.08000548
76	0x3c807c29	0.015684204
77	0xbdd05f05	-0.101743735
78	0x3e015490	0.12629914
79	0x3d8166f9	0.063184686
80	0x3c9ce15b	0.019150427
81	0x3d30a610	0.04312712
82	0x3e1cfc37	0.15330587
83	0x3d3564c1	0.04428554
84	0x3cdb303e	0.026756402
85	0x3d1513f0	0.036395967
86	0xbd5feba1	-0.054668073
87	0xbe0bd569	-0.13655628
88	0x3ce53721	0.02798039
89	0x3ca0e27a	0.019639242
90	0x3b8843ee	0.0041584885
91	0xbd3bf8cb	-0.045891564
92	0x3d2d03e2	0.04224003
93	0xbdb99892	-0.090623036
94	0x3d900cd9	0.070337005
95	0x3bb4eec7	0.0055216285
96	0xbd060823	-0.032722604
97	0x3e002078	0.12512386
98	0x3d9ad55f	0.075602286
99	0x3dae901f	0.08523583
100	0xbdbac470	-0.09119499
101	0xbe354e9f	-0.17705773
102	0x3dc567e0	0.09638953
103	0xbd81830b	-0.063238226
104	0x3d328a0c	0.043588683
105	0xbdb83d8c	-0.08996114
106	0xbd4377b4	-0.04772158
107	0x3c9f1428	0.019418791
108	0xbd5efb7b	-0.05443905
109	0x3dfac97c	0.12245461
110	0x3db77041	0.089569576
111	0x3b79f035	0.003813756
112	0xbe295021	-0.16534473
113	0x3d6a8978	0.057260007
114	0x3e06fc34	0.13182145
115	0x398a2505	0.00026348993
116	0xbd981177	-0.07425206
117	0x3d4c9295	0.04994448
118	0x3e043179	0.12909497
119	0xbc124daf	-0.008929654
120	0xbc6f43ab	-0.014603536
121	0x3dd205b8	0.10254997
122	0x3db17c28	0.08666259
123	0xbd0d287e	-0.034462444
124	0x3d6e7f1b	0.058226686
125	0xbdb50741	-0.08839274
126	0xbc08660f	-0.008325114
127	0x3da02229	0.078190155
128	0xbe05caae	-0.13065597
129	0xbdca9b7d	-0.09892938
130	0x3d90c9d0	0.07069743
131	0xbc54c0d9	-0.012985432
132	0xbd9e71b9	-0.077365346
133	0x3d079bc0	0.03310752
134	0xbc71022b	-0.01470999
135	0x3d1770a1	0.036972646
136	0x3dac14e7	0.08402424
137	0x3d39dd2a	0.045376934
138	0xbcdc717d	-0.026909584
139	0x3da94b2d	0.08266292
140	0x3ccc78ef	0.02496001
141	0xbce25e7c	-0.027632944
142	0xbdb5eae8	-0.088826954
143	0x3d2bd423	0.041950356
144	0xbe087a29	-0.1332785
145	0x3d9eaddd	0.077480055
146	0x3d7b4713	0.06134708
147	0xbdddfb64	-0.108389646
148	0xbde0ae8a	-0.10970791
149	0xbd930f9e	-0.07180713
150	0xbe2a478d	-0.16628857
151	0x3d2ed5d4	0.04268439
152	0xbdb0ce3c	-0.08633086
153	0x3d0fb6b4	0.03508635
154	0xbc454690	-0.012040749
155	0x3dceab2e	0.10091244
156	0x3e06bbce	0.1315758
157	0xbd9dd936	-0.07707445
158	0xbdcc74c4	-0.09983209
159	0x3d40341a	0.046924688
160	0xbe081dac	-0.13292569
161	0xbd520ff0	-0.05128473
162	0xbdcdb065	-0.1004341
163	0x3d66cb34	0.056346133
164	0xbd7bf9b6	-0.06151744
165	0x3d5e0948	0.05420807
166	0x3d78a62c	0.06070535
167	0x3d50ca51	0.050974194
168	0x3d885c62	0.066582456
169	0x3ca52bc9	0.02016248
170	0x3d2103b8	0.039310187
171	0x3d6c03c4	0.05762078
172	0x3df042e3	0.11731508
173	0x3d2009ca	0.039071836
174	0x3d30c2e1	0.0431546
175	0xbbefe4e0	-0.007320985
176	0xbe179556	-0.14803061
177	0xbe089e8a	-0.13341728
178	0xbdd76d46	-0.10518889
179	0xbd9cc36b	-0.076544605
180	0x3d8a4f8f	0.06753456
181	0xbd24d38e	-0.040240817
182	0x3da79cb1	0.081841834
183	0x3dc14330	0.09436643
184	0x3cced62b	0.025248608
185	0x3d061407	0.032733943
186	0x3e1bdecd	0.1522171
187	0xbe22d899	-0.15902938
188	0xbda436f8	-0.08018297
189	0x3d2d7b77	0.042354073
190	0x3d3cbd78	0.04607913
191	0x3cca9fb4	0.024734356
192	0xbda362b8	-0.079778135
193	0xbcc31fb2	-0.023818824
194	0x3d864f14	0.06558052
195	0x3d63b3c4	0.05559136
196	0x3df5e777	0.12007039
197	0x3d3f5253	0.04670937
198	0xbcde30a3	-0.027122801
199	0xbd9f5f65	-0.07781867
200	0x3d849654	0.06473985
201	0x3cb55928	0.02213724
202	0xbd5f33f3	-0.054492902
203	0xbde99200	-0.114048004
204	0xbd2b0197	-0.041749563
205	0x3dc01c36	0.09380381
206	0xbde5a5d2	-0.11213268
207	0xbd301c91	-0.042995993
208	0x3d5fcf9a	0.054641344
209	0x3db5eca7	0.088830285
210	0x3dc8cb81	0.0980444
211	0x3d2cb26d	0.042162348
212	0x3d6effd2	0.058349438
213	0xbd9e4284	-0.077275306
214	0x3db4db91	0.088309415
215	0xbcd41789	-0.025890129
216	0x3d5e7ebb	0.05432008
217	0x3c558781	0.013032795
218	0xbe06fb1b	-0.13181727
219	0xbc7e0961	-0.015505166
220	0x3d9cd0ac	0.076569885
221	0xbe0cc9cc	-0.13748854
222	0xbd69fe0d	-0.057127047
223	0x3ccfae0f	0.025351552
224	0xbcc9230b	-0.024552843
225	0xbd719d03	-0.05898763
226	0x3d8a1fde	0.067443594
227	0x3e11bdcc	0.14232558
228	0x3df6edb0	0.12057054
229	0xbe16878f	-0.14700149
230	0xbe017b80	-0.12644768
231	0xbdee66c8	-0.11640698
232	0xbd81f35c	-0.06345245
233	0xbd9353d9	-0.07193727
234	0xbe355478	-0.17708004
235	0x3e1a33c3	0.15058808
236	0xbc288dd0	-0.010287717
237	0x3da17924	0.07884434
238	0xbc87b6cd	-0.016566658
239	0x3cf6872f	0.030093757
240	0x3cb5f0ac	0.022209488
241	0x3e2834ed	0.1642644
242	0x3d0a24bc	0.03372644
243	0x3cb9fdfb	0.022704115
244	0xbceebd5f	-0.029143034
245	0xbd9c8de6	-0.076442525
246	0xbe1bb9ab	-0.15207545
247	0xbd578912	-0.052620955
248	0x3d1c0829	0.03809372
249	0xbcd593df	-0.026071487
250	0x3d9ba5cc	0.075999826
251	0xbbbe34eb	-0.005804648
252	0xbda38c4e	-0.07985745
253	0x3d375e8b	0.044767898
254	0xbe00e958	-0.12589014
255	0xbdcfa9d7	-0.10139816

gru.bias_ih_l0_reverse f4 [192]
0	0xbdb4dff8	-0.08831781
1	0x3d14503c	0.03620933
2	0xbdd58fae	-0.10427795
3	0x3dea8249	0.11450631
4	0x3d615085	0.05500843
5	0x3db3825b	0.08765098
6	0x3dab00b6	0.08349745
7	0x3c961370	0.018319815
8	0xbd8f73a2	-0.07004477
9	0x3bb9cefc	0.0056704264
10	0xbd69c5d9	-0.057073448
11	0x3e54f611	0.20796992
12	0xbc8dab2d	-0.017293537
13	0xbd015fa5	-0.031585354
14	0x3b8ca4a6	0.0042920886
15	0x3ca345d5	0.01993076
16	0xbdaeaae7	-0.08528691
17	0xbe03cddf	-0.12871502
18	0xbde1a106	-0.11017041
19	0xbd844625	-0.064586915
20	0xb8e35478	-0.00010839937
21	0x3c5d6399	0.013512515
22	0x3dab3c91	0.083611615
23	0x3db80eaf	0.08987176
24	0x3d34f94e	0.044183068
25	0x3d3d7c69	0.046261225
26	0xbd8e29e2	-0.06941582
27	0x3de08654	0.10963121
28	0x3c81c5f5	0.015841464
29	0x3e23ae55	0.15984471
30	0xbd9ed410	-0.077552915
31	0xbd7c71c4	-0.061631933
32	0x3d5fc9bf	0.05463576
33	0x3c9eb517	0.01937346
34	0xbc889fa9	-0.016677694
35	0xbe048ae5	-0.12943609
36	0x3dae37d9	0.08506746
37	0x3d1a91d7	0.03773674
38	0x3d609135	0.05482598
39	0xbd46f49d	-0.048573125
40	0x3c134e50	0.008990839
41	0x3de0f0b5	0.10983411
42	0x3d80a904	0.06282237
43	0xbc1ed15d	-0.009693471
44	0x3d6a8e0f	0.057264384
45	0x3dc54df2	0.096340075
46	0x3d59dade	0.053187244
47	0xb9d2229a	-0.00040080101
48	0x3de41684	0.11137107
49	0x3d04fc95	0.032467443
50	0xbdd16f78	-0.10226339
51	0x3e1fe523	0.15614752
52	0xbce44675	-0.027865628
53	0x3da1e6cc	0.07905349
54	0x3e0407b3	0.12893562
55	0x3d8677a7	0.065657906
56	0x3cf1cc4d	0.029516364
57	0xbd7ebd42	-0.06219221
58	0x3aaf9cf4	0.0013398216
59	0xbd9a193a	-0.07524343
60	0x3d2ace6c	0.041700765
61	0x3d17e032	0.037079044
62	0xbd8e26cf	-0.06940996
63	0xbd8cb21b	-0.068699084
64	0xbd1f636b	-0.03891317
65	0x3d0fd595	0.035115797
66	0xbdc592f2	-0.09647168
67	0x3e42642a	0.18983522
68	0xbdd32742	-0.10310222
69	0x3decb32a	0.1155761
70	0xbe1e87ea	-0.15481535
71	0xb9da2980	-0.0004161112
72	0x3db5a246	0.08868842
73	0xbda5943d	-0.08084915
74	0x3e3a93c6	0.18220434
75	0x3e851935	0.25995794
76	0x3e3c4f7a	0.18389693
77	0x3d68c125	0.056824822
78	0x3d927ac4	0.07152322
79	0xba838421	-0.0010033884
80	0x3d0565b6	0.032567702
81	0x3e0fbd2c	0.14037007
82	0xbc89408d	-0.016754413
83	0x3e4a3163	0.19745402
84	0x3db80f7a	0.08987327
85	0xbdbb4833	-0.0914463
86	0xbc4cf58a	-0.012509713
87	0xbe6bf369	-0.23042072
88	0xbdbf6397	-0.09345167
89	0x3bd59afd	0.00651872
90	0xbcacc611	-0.02109054
91	0x3e55502d	0.20831366
92	0xbe41ba50	-0.18918729
93	0xbdeb0d0a	-0.114770964
94	0xbe079806	-0.13241586
95	0xbcb3ded3	-0.021956837
96	0x3b3063d4	0.002691497
97	0x3d1441fb	0.036195736
98	0x3cad0c22	0.02112395
99	0x3d6bf5b7	0.05760738
100	0x3c8586db	0.016299656
101	0x3e1928c1	0.14956953
102	0x3e58323f	0.21112917
103	0xbccaf331	-0.024774166
104	0x3e1fedc4	0.15618044
105	0x3d08b14f	0.03337222
106	0xbdba27d0	-0.09089625
107	0xbd9f4116	-0.07776086
108	0x3b353a6f	0.0027653237
109	0xbd6b12b6	-0.05739089
110	0xbb494483	-0.0030711002
111	0xbcf72f6f	-0.030173985
112	0x3e433425	0.1906286
113	0xbd2e3a15	-0.04253586
114	0x3d8214bd	0.06351612
115	0xbdc66849	-0.096878596
116	0x3db8d903	0.09025767
117	0x3d63dfc6	0.05563333
118	0xbdcdf271	-0.10056008
119	0x3e0b5af9	0.13608922
120	0x3e07ae0d	0.13249989
121	0x3d3c227d	0.045931328
122	0xbd3d338e	-0.046191745
123	0x3e285a31	0.16440655
124	0x3d9ae39f	0.075629465
125	0xbd81a84e	-0.0633093
126	0x3db338fd	0.08751104
127	0x3d4e701d	0.05039989
128	0xbdb8132d	-0.089880325
129	0x3dead012	0.114654675
130	0xbddc65de	-0.10761617
131	0xbdc4297a	-0.095782235
132	0xbd6d73da	-0.057971813
133	0xbd54dbd0	-0.051967442
134	0xbcb52c2d	-0.022115791
135	0x3dd112d2	0.10208668
136	0xbd76dee8	-0.060271174
137	0x3d5b74fb	0.05357836
138	0xbd1bb725	-0.038016457
139	0xbcdbfe5c	-0.026854686
140	0x3c96606d	0.018356526
141	0xbcc3afeb	-0.023887595
142	0x3db00a85	0.085957564
143	0x3dc110f2	0.0942706
144	0x3d8da3c8	0.069160044
145	0xb9b67dcc	-0.0003480747
146	0x3de80f3a	0.11331029
147	0x3cab3359	0.020898508
148	0xbdc192af	-0.09451806
149	0x3dd9ca1c	0.106342524
150	0x3d971d4c	0.07378635
151	0xbcfbd683	-0.030741936
152	0xbaee7ea8	-0.0018195705
153	0xbaf55eef	-0.0018720309
154	0x3dca5c35	0.09880868
155	0x3db43181	0.087985046
156	0xbdcc4b5a	-0.0997531
157	0xbd80b409	-0.06284339
158	0xbdfdb938	-0.12388843
159	0x3db17143	0.08664181
160	0xbcba0ca5	-0.022711108
161	0x3d0b8aaa	0.034067787
162	0x3c7f080f	0.015565886
163	0xbe02e690	-0.12783265
164	0xbdcb2c74	-0.09920588
165	0x3db59857	0.08866947
166	0x3c835b08	0.016034618
167	0x3d712c79	0.058880303
168	0x3dbf6856	0.093460724
169	0xbc7481f5	-0.014923562
170	0xbcefbe8c	-0.029265665
171	0xbd85dbfa	-0.06536098
172	0x3d0224ac	0.031773254
173	0xbbcda235	-0.00627544
174	0x3d01ed15	0.03172024
175	0xbb9d6f94	-0.004804561
176	0xbc341669	-0.010991671
177	0x3d8b7ca2	0.06810881
178	0x3db35480	0.087563515
179	0x3db3dc74	0.087822825
180	0x3d4a4acc	0.049387738
181	0x3cdb71eb	0.026787719
182	0xbcd62d3d	-0.026144618
183	0x3db29e08	0.08721548
184	0xbdd7c154	-0.10534921
185	0xbd6b4ca4	-0.057446137
186	0xbb253085	-0.0025205922
187	0xbd9f551f	-0.077799074
188	0x3d9ac550	0.075571656
189	0x3dd173b6	0.10227148
190	0xbdf96852	-0.12178101
191	0xbd05db74	-0.03267999

gru.bias_hh_l0_reverse f4 [192]
0	0x3d9d8254	0.07690874
1	0xbbf26bb2	-0.007398092
2	0x3d924e14	0.071437985
3	0x3db0c0cf	0.08630525
4	0x3cb89751	0.02253309
5	0x3e168172	0.14697817
6	0x39a842c8	0.00032093213
7	0x3d784e19	0.060621355
8	0xbd8c1a24	-0.068409234
9	0x3d584d74	0.05280824
10	0x3d85746f	0.065163486
11	0xbca0b0e1	-0.019615592
12	0xbdc68d29	-0.09694893
13	0xbd84349b	-0.06455346
14	0xbda647c5	-0.08119158
15	0x3db3e226	0.08783369
16	0xbcf27b14	-0.029599704
17	0x3dbddd6f	0.09270751
18	0x3d26d82e	0.04073351
19	0xbd158325	-0.036502022
20	0xbcba42d5	-0.022736946
21	0xbd8d3692	-0.06895174
22	0xbd9a5049	-0.075348444
23	0xbdff81c7	-0.12475925
24	0x3dec3af0	0.11534679
25	0xbcb9edb9	-0.022696363
26	0x3c721005	0.014774327
27	0x3d691b2c	0.05691068
28	0xbe02a5f0	-0.12758613
29	0xbd33e7b9	-0.04392216
30	0x3c234422	0.009964975
31	0x3de4369a	0.11143227
32	0x3da2928f	0.0793811
33	0x3db59a2a	0.08867295
34	0xbcdc7197	-0.026909633
35	0x3ca15932	0.019695852
36	0x3dcb52ed	0.09927926
37	0xbd4c3e5d	-0.04986416
38	0xbc557425	-0.013028179
39	0x3de57014	0.11203018
40	0x3d29e3bc	0.04147695
41	0x3c76f869	0.015073874
42	0x3c88697d	0.016651863
43	0x3d28171b	0.04103766
44	0xbdc5395a	-0.096300796
45	0x3d0364af	0.03207844
46	0x388affba	6.6279856e-05
47	0x3d6362a8	0.055514008
48	0x3df6747e	0.12033938
49	0xbc2963c2	-0.0103387255
50	0xbca9cf91	-0.020728858
51	0x3e003e38	0.12523735
52	0xbd52be3b	-0.05145095
53	0x3e0625be	0.13100335
54	0x3d5f2a31	0.054483596
55	0x3e066a82	0.13126567
56	0xbd8ce793	-0.06880107
57	0x3e135a7c	0.14389986
58	0x3d0eb29c	0.034838304
59	0xbdd03362	-0.101660505
60	0x3dff2c30	0.124596
61	0xbcd5e0ca	-0.026108164
62	0xbd51b045	-0.051193494
63	0x3c6b2b5a	0.014353598
64	0x3cbc6f89	0.023002403
65	0x3ddec620	0.10877633
66	0x3c8881a1	0.016663374
67	0x3d8be02e	0.06829868
68	0x3db002b0	0.085942626
69	0xbc98c79d	-0.01864987
70	0xbd53dd0f	-0.05172449
71	0xbc30c547	-0.010789222
72	0x3d49dab1	0.049280826
73	0xbdf7024b	-0.12060984
74	0x3e44a402	0.19203189
75	0x3e3b46b9	0.18288697
76	0x3e6797d2	0.22616509
77	0x3dbe8623	0.09302928
78	0x3db83282	0.089940086
79	0xbd94f67a	-0.07273574
80	0x3d38af05	0.045088787
81	0xbdcf0272	-0.10107888
82	0xbd3fd65a	-0.04683528
83	0x3d8d5409	0.06900794
84	0xbd6de1ed	-0.058076788
85	0xbc0ae40c	-0.008477222
86	0x3d1105d4	0.03540595
87	0xbe281c63	-0.16417079
88	0xbe356cdd	-0.1771731
89	0x3ce243ce	0.027620222
90	0x3e10a769	0.14126362
91	0x3e61e9f1	0.22061898
92	0xbd6f65c7	-0.05844667
93	0x3c0ac169	0.008468964
94	0xbcc3b434	-0.023889638
95	0xbdf95575	-0.12174503
96	0xbccf75ca	-0.02532472
97	0x3dc3f504	0.095682174
98	0xbd89d13f	-0.06729364
99	0x3e2f9870	0.17147994
100	0xbc251695	-0.010076185
101	0x3d7ccf1a	0.061720945
102	0x3dd652e0	0.10465026
103	0xbdc1717e	-0.09445475
104	0xbd38e401	-0.045139316
105	0xbd8f5358	-0.069983184
106	0xbb819872	-0.0039549405
107	0xbd8997e4	-0.06718424
108	0x3dca6283	0.09882071
109	0xbca0f34a	-0.01964726
110	0x3c7bc748	0.015367337
111	0x3d9fe68a	0.07807644
112	0x3c441563	0.01196799
113	0xbdc5729d	-0.096410014
114	0x3dd03053	0.10165467
115	0xbdd28bcd	-0.10280571
116	0x3d95236d	0.072821476
117	0x3d1ceed0	0.038313687
118	0xbd0ab0ca	-0.033860005
119	0xbd6f95a8	-0.058492333
120	0x3d7c3ce2	0.0615815
121	0x3dece82e	0.11567722
122	0x3cccfaa7	0.025021864
123	0xbb6b6d64	-0.0035923356
124	0x3e1e85fb	0.15480797
125	0xbda956b6	-0.08268492
126	0xbaf5accd	-0.0018743515
127	0x3dc618b5	0.09672681
128	0xbde8fde5	-0.113765515
129	0xbdaaf3f2	-0.0834731
130	0xbd94b284	-0.07260612
131	0xbd7883be	-0.060672514
132	0x3cf8fe3a	0.030394662
133	0x3c8966b8	0.016772613
134	0x3e12199a	0.14267579
135	0xbdeebb20	-0.11656785
136	0xbd2e6e14	-0.042585447
137	0x3d859ea9	0.06524403
138	0x3d9bd0a0	0.076081514
139	0xbdb6b94b	-0.089220606
140	0xbca7d40d	-0.020486856
141	0x3d281230	0.04103297
142	0xbdc46a9b	-0.09590646
143	0x3c1928e3	0.009348127
144	0x3c9b286e	0.018940177
145	0xbd39963d	-0.045309294
146	0x3dda8624	0.106701165
147	0x3da2e26f	0.07953345
148	0x3da0bdb8	0.07848686
149	0x3d79d63e	0.060995333
150	0xbd1555ca	-0.036458768
151	0x3cb29604	0.021800049
152	0x3d770b28	0.060313374
153	0xbdb45f72	-0.08807267
154	0xbd481c61	-0.04885519
155	0x3c701354	0.014653046
156	0x3dffac56	0.12484042
157	0x3ca2f1f9	0.019890772
158	0xbdcbbabb	-0.099477254
159	0xbd5ed774	-0.05440469
160	0x3dc08775	0.094008364
161	0xbc02df64	-0.007987831
162	0x3c0d5384	0.008625869
163	0xbda500ef	-0.08056819
164	0xbb56c1c9	-0.0032769314
165	0xbdb2d179	-0.0873136
166	0xbd8682af	-0.06567895
167	0x3d21d636	0.039510928
168	0x3dc0b31f	0.09409165
169	0xbdc44cfb	-0.09584995
170	0x3d57c299	0.052675817
171	0x3c1a35fe	0.009412287
172	0x3d8b1de5	0.06792811
173	0xbd8dc582	-0.06922437
174	0x3d483041	0.048874144
175	0x3cc4d30d	0.024026418
176	0x3cad6e62	0.021170799
177	0x3dba8d1b	0.09108945
178	0xbc879e1f	-0.01655489
179	0xbd57ea3c	-0.052713618
180	0x3cf7c57d	0.030245537
181	0xbd907275	-0.07053081
182	0x3dd81298	0.105504215
183	0x3b8f6d3c	0.0043770354
184	0x3d9b9b2b	0.07597955
185	0x3d7f8c01	0.062389378
186	0x3ddb1151	0.10696662
187	0x3d325385	0.04353668
188	0xbd9b7a23	-0.07591655
189	0x3d2062a6	0.03915658
190	0xbde67177	-0.112521105
191	0x3dc703b6	0.09717505
