try4_realDataset_embeddedMotif_noGaps1/100bp_1_positive_trim100_fullytrainedDisc.pth (torch, 495277 bytes, 20 tensors)

embeddings.weight f4 [5, 16]
1.4996141 0.46440208 1.0758348 -1.7984197 2.0241904 -0.17495266 -0.9987733 -0.58679044
0.3815572 -0.106005654 -1.8813667 1.4752425 1.3607901 0.049177814 0.5453907 0.11469193
1.4160045 0.3965759 0.68358713 0.50459534 -1.4196484 -0.46473068 -0.44788006 -0.5207487
-0.51763827 -0.8361399 -2.3625662 0.24995914 0.7055849 0.29948643 0.46071994 -0.012534531
0.89104295 0.9886639 0.67162126 -1.2385442 0.37542057 -1.0743517 0.008317165 -0.22391987
-2.1383467 0.99616224 1.2532169 -1.0543408 0.28182164 1.096283 -0.29999942 0.68025297
1.0412081 -0.25799862 -2.169865 -0.415209 0.04789129 0.2852346 -0.002091553 -0.11146296
1.4012573 -0.89585555 -0.51855123 0.82981664 0.31122684 0.09753267 1.7021635 0.66185266
0.62725276 2.1266541 1.482352 -0.40732095 0.45417663 0.47442985 0.35984334 -1.9373146
0.6867041 -0.67685384 1.2093229 2.605725 0.23474114 -0.5880735 0.2240446 -1.6377827
00000000: 5bf3 bf3f 1cc6 ed3e f4b4 893f 9e32 e6bf
00000010: 568c 0140 ca26 33be 9baf 7fbf e637 16bf
00000020: 775b c33e 7e19 d9bd a0d0 f0bf bfd4 bc3f
00000030: 5f2e ae3f ad6e 493d ba9e 0b3f 9ae3 ea3d
00000040: a33f b53f ff0b cb3e 91ff 2e3f 292d 013f
00000050: 0ab7 b5bf 2ef1 edbe 8950 e5be c94f 05bf
00000060: f183 04bf 440d 56bf 4934 17c0 4af5 7f3e
00000070: 36a1 343f 4956 993e 7ce3 eb3e a25d 4dbc
00000080: 641b 643f 1419 7d3f 5fef 2b3f 9e88 9ebf
00000090: 2037 c03e 5b84 89bf b844 083c 404b 65be
000000a0: acda 08c0 7d04 7f3f 6969 a03f a4f4 86bf
000000b0: ed4a 903e 0053 8c3f 8699 99be 0f25 2e3f
000000c0: 4f46 853f 6518 84be 11df 0ac0 4696 d4be
000000d0: a829 443d 450a 923e 7012 09bb b146 e4bd
000000e0: 665c b33f ca56 65bf c6bf 04bf dd6e 543f
000000f0: 2059 9f3e 35bf c73d 7ee0 d93f 2d6f 293f
00000100: a393 203f 1a1b 0840 b6bd bd3f 5f8c d0be
00000110: d789 e83e 78e8 f23e 633d b83e edf9 f7bf
00000120: d7cb 2f3f 4b46 2dbf 18cb 9a3f 33c4 2640
00000130: fb5f 703e fc8b 16bf f36b 653e dda2 d1bf

gru.weight_ih_l0 f4 [192, 16]
0.09562571 -0.024704043 -0.03762566 -0.21154301 0.19535743 -0.0955142 0.21092744 -0.028658044
-0.19126609 0.18233778 0.054007694 -0.13984707 -0.0724259 0.10611097 -0.027661644 0.031431332
0.10416998 0.05872224 -0.10386414 -0.07955516 -0.045123473 -0.14216328 -0.19429539 0.019551538
-0.118009016 -0.13198829 -0.12712641 0.0132681765 0.037103307 0.16402902 -0.010622589 0.1746263
0.0002687478 -0.18155825 -0.2404836 -0.089907385 0.17689557 0.14645842 0.12032666 0.15165623
0.13674898 0.038031813 0.20723261 -0.04184898 -0.04401361 0.12137281 0.09934141 0.28324202
0.13316067 0.069891416 -0.012588872 -0.043704797 0.18683498 -0.051193606 -0.04487034 0.09597936
0.06905471 -0.044302467 0.094945066 0.07261436 0.12810878 -0.022164134 0.040543966 0.05115972
0.17203027 -0.07661174 -0.10611037 -0.18057396 0.14271869 -0.027804106 -0.0029468518 -0.11424924
-0.03658989 -0.117816895 -0.06534715 0.12457576 -0.013440832 0.07054251 0.17798518 0.20622051
0.07440142 0.1288599 0.10844101 0.19598466 -0.22388394 0.0626688 -0.16582318 -0.26783183
0.23216698 -0.39371988 -0.32989946 0.23909621 0.04924705 -0.2648686 0.19553365 -0.3412382
0.0018497674 0.020358432 0.13787884 0.017788302 -0.16275978 -0.082253 -0.016201166 -0.10960244
-0.021785168 0.03706496 0.004767533 0.08035212 0.17670308 0.1271957 -0.048527252 0.03128439
-0.014640786 -0.008514226 0.2845732 0.03040343 -0.13380007 -0.20746465 0.099872045 -0.1508269
-0.09202663 0.06740491 0.17482564 -0.09316713 0.024397228 0.14894404 -0.08911257 -0.16835523
-0.027289731 0.09207954 -0.11775483 -0.11857792 -0.13044599 -0.22169246 -0.34170973 0.059845384
-0.07809998 -0.06883229 -0.10427524 -0.12278525 0.18356541 0.09352689 -0.08177744 0.2822431
0.24471547 -0.042451035 -0.009415158 -0.123471476 -0.23280007 -0.11585276 -0.14519723 0.0020102628
-0.10304783 -0.0989369 -0.16579713 -0.04213271 0.15357225 0.23492149 0.21051033 0.038215064
0.2001874 0.17408049 -0.1986122 -0.12354058 0.08596683 0.048321366 0.20177072 -0.092801936
0.030891802 -0.07059192 0.15001786 0.16141893 0.06731284 0.1241282 0.120235644 0.10296782
-0.0016404242 0.082521394 0.048614517 -0.04454295 0.021356283 0.13197298 0.13295534 -0.010016929
0.056413252 0.042756297 0.008005494 0.021035012 0.06255531 -0.095101066 -0.06441817 -0.15922368
0.14859882 0.2269529 0.086997226 -0.107273966 0.096034385 -0.04962052 -0.05950723 -0.13708107
-0.06787201 0.100117266 0.24626769 0.031990036 0.007905411 0.05418216 0.0645186 0.050446663
0.09336787 -0.051208787 0.24846753 -0.09509866 -0.18014 -0.12944305 -0.12594992 -0.11995205
-0.11883884 0.02578003 -0.07681865 0.033066787 -0.029423397 -0.017850583 0.020287434 -0.12400951
0.12425962 -0.12876245 -0.3810734 0.019063119 0.07916127 0.0622266 -0.032834195 0.12190607
-0.05251303 -0.073098995 -0.010888741 -0.0382488 0.1319979 0.08986204 0.26278815 0.1421013
0.015468666 -0.049726855 -0.052610073 -0.030776875 -0.124059804 -0.17855844 -0.21674082 0.18295625
-0.2065103 0.1477667 -0.09652064 -0.23126398 0.13968366 0.006599153 0.14112778 0.026035398
00000000: 6ad7 c33d 2260 cabc 5d1d 1abd bb9e 58be
00000010: c70b 483e f39c c3bd 5dfd 573e 46c4 eabc
00000020: 42db 43be c1b6 3a3e 2c37 5d3d 1234 0fbe
00000030: 0854 94bd b550 d93d ac9a e2bc 24be 003d
00000040: 1257 d53d bb86 703d b9b6 d4bd d1ed a2bd
00000050: 64d3 38bd 4093 11be 5ff5 46be 8c2a a03c
00000060: b6ae f1bd f027 07be 6d2d 02be c462 593c
00000070: a3f9 173d 39f7 273e 5e0a 2ebc 3dd1 323e
00000080: b8e6 8c39 68ea 39be 5541 76be 5d21 b8bd
00000090: 1d24 353e 32f9 153e d36d f63d c54b 1b3e
000000a0: ed07 0c3e 3fc7 1b3d c934 543e d669 2bbd
000000b0: 9d47 34bd 4f92 f83d 8273 cb3d 1905 913e
000000c0: 455b 083e 3b23 8f3d 8e41 4ebc cd03 33bd
000000d0: ab51 3f3e 63b0 51bd f6c9 37bd d490 c43d
000000e0: 8e6c 8d3d 8176 35bd 8f72 c23d d6b6 943d
000000f0: f32e 033e 8f91 b5bc 6e11 263d db8c 513d
00000100: b428 303e 9ee6 9cbd 6550 d9bd 61e8 38be
00000110: d924 123e 70c5 e3bc f81f 41bb 81fb e9bd
00000120: 48df 15bd fc49 f1bd bad4 85bd 9321 ff3d
00000130: ef36 5cbc 9778 903d bf41 363e 782b 533e
00000140: c65f 983d daf3 033e 5216 de3d 34b0 483e
00000150: d541 65be 8058 803d 8dcd 29be 4121 89be
00000160: 2ebd 6d3e a795 c9be 95e8 a8be a3d5 743e
00000170: 46b7 493d db9c 87be f939 483e c6b6 aebe
00000180: e573 f23a bac6 a63c 1c30 0d3e c6b8 913c
00000190: 80aa 26be 4374 a8bd 4fb8 84bc 3e77 e0bd
000001a0: cf76 b2bc 6dd1 173d f738 9c3b a78f a43d
000001b0: a7f1 343e 973f 023e 83c4 46bd 0f24 003d
000001c0: e8df 6fbc 417f 0bbc 94b3 913e 9d10 f93c
000001d0: e302 09be 9d71 54be b789 cc3d 5e72 1abe
000001e0: 7578 bcbd 960b 8a3d 7e05 333e 69ce bebd
000001f0: b2dc c73c c984 183e a780 b6bd 5065 2cbe
00000200: b78e dfbc 3394 bc3d 7229 f1bd fbd8 f2bd
00000210: a293 05be 5903 63be 94f4 aebe 6f20 753d
00000220: e2f2 9fbd f2f7 8cbd 428e d5bd d576 fbbd
00000230: 92f8 3b3e 078b bf3d ee7a a7bd 2b82 903e
00000240: b196 7a3e 23e1 2dbd 0942 1abc 9dde fcbd
00000250: 2463 6ebe 3644 edbd 95ae 14be 9dbe 033b
00000260: be0a d3bd 6e9f cabd b9c6 29be 5993 2cbd
00000270: 0b42 1d3e 428f 703e 0590 573e 6687 1c3d
00000280: edfd 4c3e 2842 323e ff60 4bbe d802 fdbd
00000290: 610f b03d a0ec 453d fc9c 4e3e f10e bebd
000002a0: ce10 fd3c 7f92 90bd 489e 193e 014b 253e
000002b0: 50db 893d ed36 fe3d 1b3e f63d cbe0 d23d
000002c0: 8103 d7ba fa00 a93d 0420 473d ab72 36bd
000002d0: 5ff3 ae3c ed23 073e 7225 083e 0c1e 24bc
000002e0: 9511 673d 3a21 2f3d 7a29 033c 9e51 ac3c
000002f0: 001d 803d 59c4 c2bd aced 83bd 880b 23be
00000300: 4a2a 183e 5766 683e 9a2b b23d 74b2 dbbd
00000310: adad c43d e33e 4bbd dabd 73bd fb5e 0cbe
00000320: 7b00 8bbd 480a cd3d 992d 7c3e fc07 033d
00000330: b285 013c 1dee 5d3d 5422 843d 29a1 4e3d
00000340: a737 bf3d 4ec0 51bd 466e 7e3e 16c3 c2bd
00000350: 9f76 38be b88c 04be 04f9 00be 6ca9 f5bd
00000360: c761 f3bd a430 d33c 1953 9dbd 0a71 073d
00000370: 5609 f1bc 633b 92bc d531 a63c b3f8 fdbd
00000380: d47b fe3d 4eda 03be 0d1c c3be 422a 9c3c
00000390: 4e1f a23d 52e1 7e3d 267d 06bd e4a9 f93d
000003a0: e717 57bd edb4 95bd b166 32bc c6aa 1cbd
000003b0: 752a 073e 9709 b83d 2b8c 863e 0183 113e
000003c0: 4a70 7d3c 63ae 4bbd a97d 57bd c91f fcbc
000003d0: 1113 febd 06d8 36be 4ef1 5dbe e258 3b3e
000003e0: 7077 53be 2750 173e 9dac c5bd 77d0 6cbe
000003f0: 3c09 0f3e b53d d83b cd83 103e 3048 d53c

gru.weight_hh_l0 f4 [192, 64]
0.026141593 0.013235488 0.14659965 -0.08590326 -0.02907137 0.04617009 0.011354155 0.17883672
-0.22115588 -0.14668562 0.066468135 0.06437604 -0.032150596 0.15090415 0.13345195 0.13299099
0.09939001 -0.034279726 0.082846746 0.08719047 0.18170424 -0.045564923 0.2940098 0.061144087
-0.21655421 -0.2128763 0.09588854 -0.14010681 -0.12664708 0.01675963 -0.16954531 0.14387639
0.0804541 -0.017434143 -0.030826425 0.1261412 -0.015977303 0.2850996 -0.032515407 0.27419183
0.004928968 0.08389833 -0.019031825 -0.15141271 -0.13379171 -0.2571245 0.08258996 -0.11843964
-0.019985965 -0.09006746 0.19513345 0.027813014 0.06884875 -0.16943727 -0.0836021 0.02952248
0.19832097 -0.14332767 -0.19820744 0.17746441 -0.045367464 0.20166104 0.0978307 0.20330615
0.016932782 -0.10360397 -0.01877111 -0.07397343 -0.1584661 -0.103205286 -0.0112565365 0.055321034
-0.0865312 0.14342713 -0.08493363 0.04842107 0.004156549 0.0995363 0.026954357 -0.034228045
0.056028232 0.07233538 -0.18082596 -0.08675708 0.0010758992 -0.012830246 -0.10921861 -0.025284888
-0.10581593 -0.06171876 -0.18353505 0.13370115 0.060306992 -0.13856463 0.030391542 -0.027128885
-0.06764103 -0.03992671 0.037637558 0.07855647 0.030237159 0.13010694 -0.0002845432 -0.070583835
-0.12606303 0.0034068848 0.0933636 0.033653453 -0.02240586 -0.08232546 -0.10438155 -0.027591018
-0.069056466 0.032590486 -0.10189304 0.12479016 -0.039455134 0.124534205 -0.045569874 0.06935935
0.13156044 -0.01829892 -0.024508892 0.0037085114 -0.02216024 -0.10842806 0.08117778 -0.03697595
0.102297 -0.074520975 0.041286178 -0.12514156 -0.09435745 -0.09686557 0.08201203 -0.09698981
-0.026144087 -0.010134831 0.11435224 0.10897966 -0.025074774 -0.0040386263 0.092280835 -0.085861154
0.0133890975 0.03328358 0.08092635 0.14081183 0.03317364 -0.060188442 0.06908385 -0.043588895
-0.046247624 0.085446574 0.102131195 0.0636902 -0.080461435 0.0032094496 -0.019569127 0.008866359
0.057464972 0.026721697 -0.090702586 -0.0535549 -0.006347828 0.03699093 0.012624762 0.002632645
-0.08603553 -0.02534621 0.046256114 0.07097232 0.13694385 0.05153032 -0.09642089 0.10447303
-0.09591936 0.013777257 0.2060315 -0.0021182445 -0.10838779 0.12322896 0.14521822 -0.16229373
0.11934775 -0.051788606 0.027705805 0.09266952 0.20348129 0.1147675 -0.08741449 -0.036369666
-0.048896596 -0.022605347 0.061417088 -0.048983272 0.016594537 -0.048864428 0.007908242 0.00015622012
0.06689493 0.004060223 0.0051365956 0.043788973 -0.03905663 -0.040460207 0.059451763 -0.034183808
-0.14931646 -0.035066683 0.0025225733 -0.006107855 0.002727613 0.022206435 0.00719051 -0.14121926
-0.07161572 0.009689253 0.12281812 -0.09898061 0.006976612 -0.028635321 -0.017081223 0.028943624
0.07116234 0.0975686 0.05285719 -0.12320419 0.08129866 -0.15091224 -0.16945443 0.124443315
-0.13526635 0.08242448 -0.080679126 0.11785945 0.025336398 -0.1385678 -0.122697756 -0.080675684
-0.09378693 -0.13340536 0.06778299 -0.0010659914 0.080943055 -0.13431089 -0.13725637 0.04220523
-0.08722849 0.059440617 -0.069477394 -0.03431076 -0.010732474 0.09611471 0.06962921 0.13942331
00000000: e526 d63c a9d9 583c 381e 163e 0cee afbd
00000010: 1527 eebc d91c 3d3d c706 3a3c f920 373e
00000020: b076 62be c134 16be 7220 883d 96d7 833d
00000030: 58b0 03bd 9e86 1a3e a1a7 083e ca2e 083e
00000040: fd8c cb3d e668 0cbd 8eab a93d eb90 b23d
00000050: ad10 3a3e 49a2 3abd 7488 963e 3972 7a3d
00000060: 63c0 5dbe 3ffc 59be 3661 c43d 2978 0fbe
00000070: c6af 01be 7e4b 893c 499d 2dbe 5554 133e
00000080: 1fc5 a43d 0cd2 8ebc b387 fcbc 292b 013e
00000090: d5e2 82bc 93f8 913e e02e 05bd df62 8c3e
000000a0: 2e83 a13b e3d2 ab3d a1e8 9bbc ef0b 1bbe
000000b0: b200 09be d3a5 83be ed24 a93d 7b90 f2bd
000000c0: 9bb9 a3bc 4a75 b8bd 10d1 473e 1ed8 e33c
000000d0: 9300 8d3d f780 2dbe 9437 abbd 21d9 f13c
000000e0: a714 4b3e 7dc4 12be e4f6 4abe 3bb9 353e
000000f0: 3cd3 39bd 3b80 4e3e 765b c83d 7d2f 503e
00000100: 9eb6 8a3c 512e d4bd dfc5 99bc 627f 97bd
00000110: f044 22be 4b5d d3bd 566d 38bc 4f98 623d
00000120: 4537 b1bd 90de 123e aff1 adbd 2c55 463d
00000130: a933 883b b0d9 cb3d 62cf dc3c b532 0cbd
00000140: dc7d 653d 9224 943d 712a 39be b2ad b1bd
00000150: 3005 8d3a f435 52bc 02ae dfbd 4122 cfbc
00000160: 06b6 d8bd cfcc 7cbd 9df0 3bbe f4e8 083e
00000170: 7704 773d e3e3 0dbe aff7 f83c 653d debc
00000180: 6187 8abd 318a 23bd d729 1a3d 37e2 a03d
00000190: ebb3 f73c c13a 053e be2e 95b9 428e 90bd
000001a0: ab16 01be 0b46 5f3b 6a35 bf3d 34d8 093d
000001b0: 7e8c b7bc 409a a8bd fec5 d5bd 8f06 e2bc
000001c0: 7a6d 8dbd 9a7d 053d 4cad d0bd fc91 ff3d
000001d0: b59b 21bd ca0b ff3d 7aa7 3abd 460c 8e3d
000001e0: c8b7 063e 9ee7 95bc dfc6 c8bc 7f0a 733b
000001f0: 6489 b5bc 880f debd 8940 a63d 1874 17bd
00000200: 1781 d13d 749e 98bd b21b 293d 1c25 00be
00000210: 7b3e c1bd 7561 c6bd ecf5 a73d 98a2 c6bd
00000220: 202c d6bc 900c 26bc 8231 ea3d ba30 df3d
00000230: 9d69 cdbc 7456 84bb bcfd bc3d f9d7 afbd
00000240: f25d 5b3c 5d54 083d b7bc a53d fa30 103e
00000250: 15e1 073d 2888 76bd d57b 8d3d 458a 32bd
00000260: 266e 3dbd 9dfe ae3d 292a d13d 0270 823d
00000270: f7c8 a4bd a155 523b 6f4f a0bc 3444 113c
00000280: 6460 6b3d 76e7 da3c 47c2 b9bd 625c 5bbd
00000290: 7101 d0bb cd83 173d 17d8 4e3c 7488 2c3b
000002a0: 6533 b0bd dba2 cfbc 0d77 3d3d f059 913d
000002b0: 023b 0c3e 7511 533d 5178 c5bd f5f5 d53d
000002c0: 5f71 c4bd 01ba 613c ecf9 523e 3fd2 0abb
000002d0: 6bfa ddbd 775f fc3d 16b4 143e 5430 26be
000002e0: 986c f43d 4a20 54bd 49f7 e23c 84c9 bd3d
000002f0: 665d 503e 390b eb3d 5e06 b3bd 5cf8 14bd
00000300: cc47 48bd d92e b9bc 7c90 7b3d afa2 48bd
00000310: 44f1 873c 1126 48bd 9291 013c 05cf 2339
00000320: 3600 893d 9e0b 853b e350 a83b 115c 333d
00000330: d8f9 1fbd 9ab9 25bd b183 733d 5204 0cbd
00000340: 6ae6 18be 15a2 0fbd c251 253b 6724 c8bb
00000350: c1c1 323b 45ea b53c 5f9e eb3b c89b 10be
00000360: 43ab 92bd acbf 1e3c 1188 fb3d 59b6 cabd
00000370: 109c e43b 9f94 eabc eced 8bbc 2e1b ed3c
00000380: 90bd 913d 0cd2 c73d c880 583d 7a52 fcbd
00000390: e97f a63d bd88 1abe 7685 2dbe 23dc fe3d
000003a0: 4383 0abe 2ace a83d 193b a5bd 4c60 f13d
000003b0: 478e cf3c b8e4 0dbe f648 fbbd 4b39 a5bd
000003c0: 5d13 c0bd 6a9b 08be cfd1 8a3d bcb8 8bba
000003d0: 79c5 a53d cb88 09be ef8c 0cbe 64df 2c3d
000003e0: daa4 b2bd 0178 733d 2a4a 8ebd 7189 0cbd
000003f0: 42d7 2fbc cad7 c43d c299 8e3d fcc4 0e3e

gru.bias_ih_l0 f4 [192]
0.10913751 0.041890837 0.0895057 0.0036917077 0.1458356 0.14299573 0.1591091 0.13610822
-0.050435152 0.28333238 0.08927089 0.023409225 0.09321574 0.094446406 -0.0052851136 0.14596173
0.11356691 0.066142276 0.13892953 0.18194309 -0.032367524 0.095330894 -0.05161594 0.09518476
0.08539928 0.024720917 0.101161875 0.07697753 0.10236479 0.16214588 0.060679212 -0.05279751
0.140008 0.08501901 -0.030632975 -0.05654715 0.0687804 -0.071093515 0.09073954 -0.003926496
0.076957464 -0.10265632 -0.102800146 -0.026315175 0.052239563 -0.14646798 0.10526932 0.101996325
0.2796721 -0.056170665 -0.028795907 0.010440092 0.092235856 0.051829595 0.0455531 0.15295097
0.07311625 0.045581747 0.089286864 0.001050089 0.021332137 0.10632076 0.04948432 0.1288795
-0.0063043395 -0.105050184 -0.03829973 0.10375072 -0.2378543 -0.21523908 0.0074914545 0.32487983
0.018383794 -0.30313617 -0.12301423 -0.046597905 -0.09033238 0.08056949 0.29604477 -0.14266536
-0.22235638 0.027357703 -0.026848787 0.4281777 -0.043552615 -0.33917212 0.10491698 -0.100789934
0.22131136 -0.15946233 -0.023930924 -0.1846918 -0.08232413 -0.14915816 0.20158063 0.17376406
0.10283157 -0.09481649 0.04589533 -0.0909694 -0.02370186 0.29240373 0.0924749 0.07396944
0.04671008 -0.110572524 0.16278295 0.15169556 -0.11810425 0.008723681 -0.008028292 0.17124009
-0.2037194 -0.11322279 0.026319396 -0.025774913 -0.06894015 -0.29857895 -0.093439095 -0.13996597
-0.24819261 0.027081802 0.119718425 -0.09975362 -0.35099292 0.06323754 -0.048607174 0.07266012
-0.041484788 -0.11647857 -0.09852525 0.06560967 -0.12501593 -0.017773967 -0.12010128 -0.06754714
0.05851126 0.06415681 0.15174572 0.028525397 -0.06461833 -0.010086813 0.05977145 -0.07502496
-0.02074737 -0.06270724 -0.067060836 0.05167951 0.046164908 -0.012131952 0.11581398 0.027224207
-0.05063109 0.057177242 -0.021008663 -0.03456089 0.12540285 0.044302154 -0.059799906 0.016637461
0.10835631 0.086918846 -0.030091917 0.10217416 -0.046238218 -0.009943837 0.03484169 0.017637476
-0.10462253 -0.0005080747 -0.09563984 -0.02664015 0.026911564 0.015359271 0.10486386 0.03223381
0.03859452 -0.095805734 -0.0042529786 -0.0113740545 0.0133605935 -0.005184116 0.04465489 0.14445615
0.07337685 0.022210147 0.0026867532 0.04268867 0.030400043 0.13963923 0.0017531301 -0.008646208
00000000: 7d83 df3d ba95 2b3d c44e b73d 94f0 713b
00000010: ed55 153e 796d 123e 7fed 223e f45f 0b3e
00000020: 1795 4ebd f110 913e a8d3 b63d b4c4 bf3c
00000030: e5e7 be3d 1e6d c13d bf2e adbb fe76 153e
00000040: c595 e83d 9a75 873d 8b43 0e3e 4a4f 3a3e
00000050: cf93 04bd d83c c33d 3c6b 53bd 3af0 c23d
00000060: d1e5 ae3d 8583 ca3c f52d cf3d 65a6 9d3d
00000070: a2a4 d13d 9209 263e c48a 783d 3442 58bd
00000080: 425e 0f3e 721e ae3d 01f2 fabc fc9d 67bd
00000090: bddc 8c3d 7a99 91bd a7d5 b93d d6a9 80bb
000000a0: e09b 9d3d 7a3d d2bd e288 d2bd ec92 d7bc
000000b0: 27f9 553d b4fb 15be 7197 d73d 73e3 d03d
000000c0: 2e31 8f3e 3613 66bd 65e5 ebbc eb0c 2b3c
000000d0: 27e6 bc3d 454b 543d e395 3a3d 2e9f 1c3e
000000e0: f9bd 953d edb3 3a3d 08dc b63d 24a3 893a
000000f0: bcc0 ae3c b3be d93d 12b0 4a3d fdf8 033e
00000100: a294 cebb 8d24 d7bd 2de0 1cbd 427b d43d
00000110: 1490 73be a267 5cbe e07a f53b a656 a63e
00000120: 9c99 963c aa34 9bbe e2ee fbbd 72dd 3ebd
00000130: 2f00 b9bd 9e01 a53d 2e93 973e de16 12be
00000140: 64b1 63be 431d e03c fdf1 dbbc 1c3a db3e
00000150: 3a64 32bd f8a7 adbe b7de d63d f46a cebd
00000160: 729f 623e 184a 23be c90a c4bc d91f 3dbe
00000170: 8e99 a8bd ebbc 18be 276b 4e3e 35ef 313e
00000180: 5c99 d23d 262f c2bd befc 3b3d 2a4e babd
00000190: 672a c2bc f1b5 953e 7b63 bd3d 4a7d 973d
000001a0: 1253 3f3d d973 e2bd 93b0 263e 1556 1b3e
000001b0: a4e0 f1bd c5ed 0e3c 1989 03bc 9059 2f3e
000001c0: d29b 50be 5ae1 e7bd c69b d73c e925 d3bc
000001d0: 7e30 8dbd 57df 98be ff5c bfbd 3d53 0fbe
000001e0: 3426 7ebe a8da dd3c ef2e f53d a04b ccbd
000001f0: 58b5 b3be af82 813d 5118 47bd d4ce 943d
00000200: f4eb 29bd 518c eebd 9bc7 c9bd 5d5e 863d
00000210: 2d04 00be b69a 91bc a9f7 f5bd 2856 8abd
00000220: 81a9 6f3d a564 833d 3b63 1b3e 18ae e93c
00000230: 9d56 84bd 2943 25bc e8d2 743d b0a6 99bd
00000240: 63f6 a9bc a76c 80bd 3157 89bd e5ad 533d
00000250: 6a17 3d3d 18c5 46bc e12f ed3d 4d05 df3c
00000260: 8c62 4fbd af32 6a3d 5c1a acbc b88f 0dbd
00000270: 9b69 003e 2d76 353d bff0 74bd 494b 883c
00000280: eae9 dd3d 8202 b23d 5383 f6bc b040 d13d
00000290: 4964 3dbd 7aeb 22bc 29b6 0e3d 787c 903c
000002a0: 5644 d6bd 5130 05ba d2de c3bd 723c dabc
000002b0: a475 dc3c 74a5 7b3c ddc2 d63d 9907 043d
000002c0: 4a15 1e3d cc35 c4bd 925c 8bbb 3e5a 3abc
000002d0: 64e6 5a3c 84df a9bb 0ce8 363d 50ec 133e
000002e0: 9a46 963d 0ef2 b53c 3d14 303b 51da 2e3d
000002f0: 8309 f93c 96fd 0e3e 49c9 e53a d3a8 0dbc

gru.bias_hh_l0 f4 [192]
-0.08748736 -0.04355926 -0.08022185 0.011362504 0.13714246 -0.027135983 -0.009845483 -0.03955014
0.007370998 0.15954705 0.12519251 -0.09227328 0.018168168 -0.025485042 -0.0017829628 -0.048686147
0.15782183 0.26522282 -0.009877804 0.11859981 0.100836806 0.1839372 0.13634852 0.02609299
0.08223445 0.08777834 0.10853057 0.20511977 0.09565349 0.08240718 -0.045747165 0.016977314
-0.09818 -0.04088601 -0.055489473 -0.052991286 -0.07118798 0.06338908 0.188098 0.034476575
-0.111238524 -0.08642933 0.06494592 0.042338062 -0.025342869 0.045997154 0.13554041 0.08964337
0.279313 0.005892594 0.16990304 0.058717832 0.17779282 0.25801066 0.15118721 0.13998172
0.20651045 0.024741719 0.16986266 0.05663776 0.1520256 0.09804424 -0.00557346 0.07249109
-0.000208054 -0.03998287 -0.08494827 0.20617707 -0.14554097 -0.14266527 0.13826926 0.27764946
0.042792343 -0.14812295 -0.023651158 0.015293794 -0.121982016 0.014830613 0.17028506 -0.15532798
-0.1908204 -0.01453113 0.04236347 0.45768237 0.052375935 -0.26454097 0.20363605 -0.14335074
0.25880486 -0.092832744 -0.031302057 -0.2326418 -0.22111584 -0.25163284 0.1823426 -0.042755857
0.08571437 -0.053492755 0.021140011 -0.09593898 -0.042197365 0.30029324 0.019398373 0.12729375
0.0011950057 -0.118646644 0.05011622 0.008623304 0.04460678 0.10764684 0.08784098 0.13086087
-0.16845822 -0.20468345 0.17157912 -0.04226997 -0.06589636 -0.18686338 -0.13423131 -0.119536266
-0.108054966 -0.14580415 0.059628867 -0.07711111 -0.2870816 0.06399994 -0.0154185295 0.09815578
0.025486331 0.010451578 0.098840356 -0.034103625 -0.12919532 -0.06404904 -0.09426158 -0.09858363
-0.09023226 -0.027828649 0.061305135 0.016418401 0.07125286 0.06511796 0.011885516 -0.008512141
-0.08687399 -0.06687159 -0.093211964 0.09939262 0.063535064 -0.039585326 -0.046568733 -0.07239628
-0.029076494 0.08040159 -0.08898937 -2.9220377e-05 0.06739539 -0.1117166 -0.07415706 0.032135636
-0.058712408 -0.0019241279 -0.0128889475 0.11614439 0.064559594 -0.06963057 0.024649194 0.10493795
-0.051615596 -0.03814306 0.02021343 0.023136191 -0.07946429 -0.0035377634 0.042861205 -0.08541328
-0.0758123 -0.11572909 0.060466353 0.10167394 0.10634572 0.06576154 -0.061141044 0.08644109
0.06175174 0.105105706 0.10196457 0.053435426 0.04749545 0.029808238 0.13268028 -0.08161483
00000000: 932c b3bd 326b 32bd 5a4b a4bd cc29 3a3c
00000010: 136f 0c3e 484c debc f34e 21bc 54ff 21bd
00000020: 6a88 f13b 4d60 233e 7732 003e c6f9 bcbd
00000030: 69d5 943c 02c6 d0bc 4eb2 e9ba 206b 47bd
00000040: 0c9c 213e 49cb 873e 83d6 21bc 75e4 f23d
00000050: 8783 ce3d 095a 3c3e f29e 0b3e f7c0 d53c
00000060: 896a a83d 21c5 b33d 4745 de3d eb0a 523e
00000070: fae5 c33d 18c5 a83d 6161 3bbd 0214 8b3c
00000080: 9912 c9bd 1778 27bd ee48 63bd 640d 59bd
00000090: 01cb 91bd 22d2 813d c39c 403e 4f37 0d3d
000000a0: 06d1 e3bd dc01 b1bd 5e02 853d ad6a 2d3d
000000b0: d99b cfbc 8367 3c3d 1bcb 0a3e f196 b73d
000000c0: 1d02 8f3e a916 c13b 10fb 2d3e 1c82 703d
000000d0: 520f 363e f919 843e d2d0 1a3e 5e57 0f3e
000000e0: 7a77 533e 25af ca3c 7af0 2d3e fffc 673d
000000f0: 99ac 1b3e 6bcb c83d 92a1 b6bb 3576 943d
00000100: 1229 5ab9 14c5 23bd 5cf9 adbd 1520 533e
00000110: b108 15be d816 12be 7596 0d3e 1228 8e3e
00000120: 0647 2f3d 8bad 17be 13c0 c1bc d292 7a3c
00000130: b5d1 f9bd 19fc 723c 355f 2e3e 4c0e 1fbe
00000140: 6c66 43be fa13 6ebc 5185 2d3d 5855 ea3e
00000150: 2688 563d ea71 87be f885 503e 89ca 12be
00000160: 1282 843e 181f bebd 9636 00bd a739 6ebe
00000170: 316c 62be 05d6 80be 05b8 3a3e c420 2fbd
00000180: 048b af3d 381b 5bbd d12d ad3c a87b c4bd
00000190: 25d7 2cbd 09c0 993e 56e9 9e3c 4b59 023e
000001a0: bda1 9c3a 03fd f2bd aa46 4d3d c248 0d3c
000001b0: 99b5 363d f275 dc3d f9e5 b33d 6400 063e
000001c0: 5080 2cbe 8a98 51be 70b2 2f3e 4723 2dbd
000001d0: acf4 86bd 1d59 3fbe ef73 09be 6ecf f4bd
000001e0: ec4b ddbd af4d 15be 663d 743d 6eec 9dbd
000001f0: 5cfc 92be 6712 833d 009e 7cbc e605 c93d
00000200: b6c8 d03c 183d 2b3c d06c ca3d 3eb0 0bbd
00000210: c74b 04be 252c 83bd 370c c1bd 37e6 c9bd
00000220: b1cb b8bd e8f8 e3bc 181b 7b3d e27f 863c
00000230: 05ed 913d 915c 853d 78bb 423c 8276 0bbc
00000240: feea b1bd f9f3 88bd eae5 bebd 5c8e cb3d
00000250: ac1e 823d 3924 22bd dbbe 3ebd 8044 94bd
00000260: d431 eebc 97a9 a43d 0f40 b6bd 481e f5b7
00000270: 9806 8a3d accb e4bd a8df 97bd a8a0 033d
00000280: 6c7c 70bd 0533 fcba 2a2c 53bc 1cdd ed3d
00000290: d237 843d 799a 8ebd 1bed c93c b5e9 d63d
000002a0: e06a 53bd e63b 1cbd a396 a53c 1c88 bd3c
000002b0: 2cbe a2bd d2d9 67bb 3b8f 2f3d 28ed aebd
000002c0: 7b43 9bbd 6003 edbd 91ab 773d 6d3a d03d
000002d0: c9cb d93d fcad 863d 086f 7abd 0708 b13d
000002e0: 64ef 7c3d a941 d73d cdd2 d03d 1bdf 5a3d
000002f0: 978a 423d 6830 f43c 57dd 073e ad25 a7bd

gru.weight_ih_l0_reverse f4 [192, 16]
0.021614002 0.063902915 0.07639748 0.1332598 0.0052063745 0.055737525 0.16265391 -0.1733241
0.16298224 -0.03767324 0.15722422 0.17331125 0.0958011 -0.09674848 -0.0654687 -0.1632529
-0.09338848 0.010210503 -0.015637591 0.050212696 0.011874164 -0.04351185 0.031673953 0.04646748
-0.032569498 -0.01552919 0.017743813 -0.076452956 0.087207794 0.097292 0.06259405 0.12215301
0.04752063 -0.31802386 -0.37851155 0.025708789 0.05361474 0.3578779 0.18108886 0.23498474
0.21963735 -0.16773698 0.12707552 0.11794056 -0.0332505 -0.2524097 0.12932923 0.18187425
-0.03460657 -0.04680049 0.09522221 0.24809603 -0.14149266 0.047337588 0.08629029 -0.113543876
0.010678425 -0.1794517 -0.0012739636 0.129022 0.02225314 -0.023935536 -0.073535934 0.075599976
0.101195194 0.006655551 0.2917948 -0.049469393 -0.12872317 -0.3980514 -0.07998749 0.12283386
-0.25810987 0.41793653 0.3136344 -0.45075136 0.115767956 0.16502333 -0.22397658 0.083240464
-0.010350527 -0.12069502 -0.16525689 0.16746353 -0.0040605105 0.14176024 -0.02178497 0.14677781
0.06428809 -0.18048012 -0.113420606 0.016519321 -0.059503376 -0.019745816 0.05074396 -0.028415816
0.006396985 0.02509548 0.14681618 0.016913181 -0.27658877 0.049977873 0.032026473 -0.1256049
-0.05581436 -0.07437588 -0.05993829 0.06935479 0.09002291 -0.09814531 0.05134882 -0.017500188
0.14053217 -0.013242303 -0.2042065 -0.036323104 -0.054521076 -0.10792433 0.06346445 0.06432614
0.08277522 -0.24066196 -0.05124982 0.11003597 0.013817817 0.023842113 -0.014868278 0.15136203
0.07606451 -0.050409216 -0.07911116 -0.0028906115 0.01140439 0.12381926 0.17889097 -0.16419499
0.26689437 -0.13876499 -0.0010738772 -0.0174066 0.01961595 0.07221057 0.098498 0.03366577
0.08957412 0.2199449 -0.04063428 -0.2637608 0.21756762 0.010127853 0.17871046 -0.07586498
-0.041468922 0.19836779 0.23619173 0.044386152 0.022019168 -0.03943302 -0.019391611 0.040644716
0.14729694 -0.023880232 -0.19532971 -0.01893931 -0.13153091 -0.019222962 0.010619859 -0.058874704
0.04678501 0.002108056 -0.08760353 -0.026388206 0.11351561 0.0023596792 0.12682581 0.07719076
0.077577494 -0.1265497 -0.15725452 0.09723247 -0.21959423 0.15561056 -0.018279888 -0.027680779
0.05454044 -0.1693625 -0.22216892 0.13283001 0.033292625 0.018029423 0.035239182 -0.012814916
-0.024089454 0.02785152 0.025430525 -0.073318675 -0.021815592 -0.009645183 0.017614314 -0.038812105
0.06023755 -0.016341045 0.19062068 0.19441155 -0.035443928 -0.04256194 0.03125038 -0.24206883
-0.0074353833 -0.08976335 -0.22286817 0.030969921 -0.058060806 0.08657755 -0.002451966 0.012584199
0.055381104 0.05523047 0.015086951 -0.076170586 -0.14344993 -0.11124214 0.010195549 0.025549259
0.093218155 -0.016944943 -0.13008247 -0.08143035 -0.13004787 -0.005063427 0.15584923 0.11524608
0.16568504 0.067517534 -0.076635405 -0.09303715 -0.060499102 -0.015446808 0.09457897 0.018109232
-0.013974369 0.07871291 -0.16517654 -0.09995557 -0.0814139 -0.17414893 0.1417943 0.10503354
-0.07515152 0.10958754 0.14168419 -0.14866167 0.03240726 0.05373749 -0.040405884 0.10388198
00000000: d90f b13c 88df 823d 4876 9c3d 4275 083e
00000010: 3c9a aa3b 084d 643d bf8e 263e df7b 31be
00000020: d1e4 263e 414f 1abd 63ff 203e 8178 313e
00000030: 5e33 c43d 1124 c6bd 7414 86bd c52b 27be
00000040: 7642 bfbd f449 273c 681a 80bc d4ab 4d3d
00000050: db8b 423c 7b39 32bd 8cbc 013d af54 3e3d
00000060: 9867 05bd 256e 7ebc 795b 913c 5e93 9cbd
00000070: 009a b23d 0741 c73d 4f31 803d 5b2b fa3d
00000080: fea4 423d 06d4 a2be 44cc c1be 3d9b d23c
00000090: 219b 5b3d c63b b73e 5c6f 393e d79f 703e
000000a0: 9de8 603e 3ec3 2bbe 1620 023e d28a f13d
000000b0: ad31 08bd d83b 81be e26e 043e 3e3d 3a3e
000000c0: 9ebf 0dbd dfb1 3fbd dd03 c33d e30c 7e3e
000000d0: 74e3 10be 0fe5 413d f7b8 b03d b189 e8bd
000000e0: 90f4 2e3c 30c2 37be 20fb a6ba 581e 043e
000000f0: 384c b63c 7514 c4bc 029a 96bd 29d4 9a3d
00000100: 6d3f cf3d cf16 da3b 2166 953e 6ba0 4abd
00000110: 02d0 03be 65cd cbbe 7bd0 a3bd 5290 fb3d
00000120: fa26 84be c7fb d53e b094 a03e e2c8 e6be
00000130: c017 ed3d e0fb 283e 1e5a 65be fa79 aa3d
00000140: 4295 29bc f32e f7bd 1a39 29be 8f7b 2b3e
00000150: 080e 85bb 9929 113e 6576 b2bc ec4c 163e
00000160: 79a9 833d c8cf 38be 1049 e8bd 8753 873c
00000170: d0b9 73bd fac1 a1bc e6d8 4f3d 49c8 e8bc
00000180: cd9d d13b 0995 cd3c fb56 163e 838d 8a3c
00000190: 0b9d 8dbe 99b5 4c3d 312e 033d 929e 00be
000001a0: 999d 64bd 6252 98bd da81 75bd e209 8e3d
000001b0: ee5d b83d 6900 c9bd 2453 523d 8e5c 8fbc
000001c0: aae7 0f3e 3ff6 58bc 821b 51be 89c7 14bd
000001d0: 7e51 5fbd 6e07 ddbd a6f9 813d 6cbd 833d
000001e0: 0e86 a93d 1770 76be 55eb 51bd 8a5a e13d
000001f0: 2064 623c 8950 c33c 149a 73bc a6fe 1a3e
00000200: b6c7 9b3d e579 4ebd 0805 a2bd 6a70 3dbb
00000210: 7bd9 3a3c f494 fd3d 322f 373e bb22 28be
00000220: 61a6 883e 6918 0ebe 57c1 8cba 4998 8ebc
00000230: a1b1 a03c 23e3 933d 52b9 c93d 1ee5 093d
00000240: a372 b73d 3c39 613e 2170 26bd a80b 87be
00000250: 0cca 5e3e 4bef 253c e0ff 363e 195f 9bbd
00000260: 51db 29bd ed20 4b3e 3fdc 713e 41ce 353d
00000270: 8b61 b43c 8584 21bd 28db 9ebc 137b 263d
00000280: 02d5 163e 7aa0 c3bc 8304 48be 9d26 9bbc
00000290: 0ab0 06be 7979 9dbc ebfe 2d3c 9a26 71bd
000002a0: a3a1 3f3d 5027 0a3b 7b69 b3bd 142c d8bc
000002b0: df7a e83d d9a4 1a3b a0de 013e 3016 9e3d
000002c0: f3e0 9e3d 3f96 01be 5407 21be d121 c73d
000002d0: 4fdd 60be 6058 1f3e b4bf 95bc cdc2 e2bc
000002e0: cc65 5f3d 5d6d 2dbe 4080 63be 9704 083e
000002f0: d95d 083d 71b2 933c f656 103d a7f5 51bc
00000300: 3f57 c5bc df28 e43c ad53 d03c 1a28 96bd
00000310: 9db6 b2bc d406 1ebc e54b 903c 71f9 1ebd
00000320: a6bb 763d a8dd 85bc 1132 433e d213 473e
00000330: a72d 11bd 6e55 2ebd 6600 003d e4e0 77be
00000340: 84a4 f3bb d9d5 b7bd 8e37 64be a2b4 fd3c
00000350: 2bd1 6dbd 924f b13d 2ab1 20bb f52d 4e3c
00000360: 4cd7 623d 5839 623d 422f 773c 53ff 9bbd
00000370: 8ae4 12be ebd2 e3bd 3b0b 273c ae4c d13c
00000380: 29e9 be3d 1fd0 8abc 5734 05be f5c4 a6bd
00000390: 452b 05be 1beb a5bb f196 1f3e 2306 ec3d
000003a0: 57a9 293e a246 8a3d 06f3 9cbd 438a bebd
000003b0: e8cd 77bd 9c14 7dbc 9eb2 c13d d059 943c
000003c0: c0f4 64bc 3c34 a13d 0a24 29be 82b5 ccbd
000003d0: 55bc a6bd 1954 32be 8632 113e d31b d73d
000003e0: 0ae9 99bd 6f6f e03d a915 113e c43a 18be
000003f0: 7abd 043d d81b 5c3d a480 25bd 13c0 d43d

gru.weight_hh_l0_reverse f4 [192, 64]
0.15838099 -0.12883466 0.17687212 0.061592698 0.23144743 -0.012271622 0.069229126 -0.10665213
0.014820203 0.10721294 -0.061987456 -0.14798175 -0.051445626 0.14200538 0.048520137 -0.11343762
-0.0011689398 -0.1448351 -0.0058770226 0.23139893 0.013581532 0.035833232 0.09435905 -0.048409134
0.055853475 -0.114963695 -0.18926795 -0.18330865 -0.02940885 -0.18001418 -0.024603644 0.01747181
-0.095282815 -0.0725068 -0.0813657 0.11149691 -0.1401454 0.1263849 -0.016498307 -0.026280878
-0.0033990114 0.018128734 -0.027236378 -0.010001081 -0.18749323 0.10242202 -0.07235481 0.06512032
0.1273486 -0.019742277 -0.14934677 0.00061891397 -0.08287213 -0.064045556 0.09559831 0.17181875
0.14119981 0.104893975 0.30533785 0.10811272 -0.08378279 -0.16505364 -0.0027568536 0.021246364
-0.026776513 0.05395681 -0.17886461 0.0015961829 -0.10321607 0.21357442 -0.096675925 0.09825179
0.04401609 0.0723056 0.11884312 0.13400862 -0.0054463735 -0.18459281 0.007513485 -0.009610167
0.1907584 0.13231632 0.09735548 -0.031219373 0.03240135 0.09809272 -0.14148712 -0.06316343
0.03611161 0.06926156 0.051438306 -0.021877656 -0.005502694 -0.09242029 0.178759 -0.022481054
-0.06992174 0.0012580814 0.12948643 0.115767434 -0.12989363 -0.084580615 0.12711386 -0.06233167
-0.0015758061 -0.1612724 -0.040126428 0.011689007 0.052007638 0.038560268 0.13084348 -0.06590279
-0.1988738 0.02493565 0.1822675 -0.05466362 -0.17119816 -0.0368421 0.116248734 -0.06844532
-0.053389028 0.08743349 0.019755432 -0.048681162 0.12228682 -0.0705381 0.013368018 0.18827571
-0.15925744 0.010737824 0.09601261 -0.01639914 -0.054207586 0.011296835 -0.042172756 -0.034938134
0.069045626 0.04364955 -0.07555462 0.031567063 0.08087699 0.013730272 -0.06783014 0.013091239
-0.17121829 0.08475223 0.11065876 -0.08175801 -0.12072097 -0.013223505 -0.11558653 0.015208329
-0.0648 -0.057258427 -0.03672625 0.18618543 0.20876314 -0.07566912 -0.07234297 0.0428264
-0.12534736 -0.014824664 -0.20002274 0.10782789 0.06888227 -0.023558332 0.058220327 -0.010621586
0.03133479 0.056926396 0.006530513 0.020926327 0.11300544 0.0969274 0.019504137 0.006350211
-0.15546449 -0.12358919 -0.1186263 -0.033797506 0.10850008 -0.03894173 0.01338716 0.12439279
0.114757225 -0.03571742 0.09255577 -0.16772681 -0.15071048 0.044129968 0.061706413 -0.010707653
-0.060268212 -0.05252071 0.07490465 0.18283013 0.24754015 0.115730986 0.00802799 -0.071532086
0.060720313 -0.0366674 -0.04015593 -0.046873946 -0.06863964 0.09594836 -0.082405604 -0.10324428
0.007157019 0.04638094 0.14884175 0.021675438 0.27395886 -0.023956006 0.05457657 0.032152053
0.06141646 0.017642893 -0.21987617 -0.061611768 0.09036471 -0.22361709 0.020997051 0.050930873
-0.13203822 -0.09214317 0.09476914 0.33950162 0.14673264 -0.085696705 -0.031371415 -0.093170926
-0.11140006 -0.006220071 -0.15748167 0.21390411 -0.07829303 0.0872461 0.0419773 -0.018702487
-0.010678916 0.12035249 0.025441121 0.035032988 -0.108547464 -0.11029006 -0.1964645 -0.050553523
0.05837778 0.068387724 0.072200924 -0.02065409 -0.050515957 0.007822888 -0.066554494 -0.1027011
00000000: a02e 223e 3ced 03be f71d 353e a048 7c3d
00000010: 8e00 6d3e ea0e 49bc 00c8 8d3d 6f6c dabd
00000020: 70d0 723c 7592 db3d 8fe6 7dbd 8788 17be
00000030: a6b8 52bd dc69 113e 0dbd 463d fc51 e8bd
00000040: 1c37 99ba a74f 14be 0a94 c0bb d7f3 6c3e
00000050: 1385 5e3c dec5 123d 513f c13d a848 46bd
00000060: 9dc6 643d 1672 ebbd 75cf 41be 43b5 3bbe
00000070: d4ea f0bc a355 38be 958d c9bc 0b21 8f3c
00000080: a323 c3bd 727e 94bd 0fa3 a6bd 7e58 e43d
00000090: 4782 0fbe 0b6b 013e 7527 87bc ff4a d7bc
000000a0: f3c1 5ebb b682 943c d31e dfbc 93db 23bc
000000b0: 3afe 3fbe a3c2 d13d c22e 94bd cd5d 853d
000000c0: ac67 023e 8eba a1bc 5cee 18be 9d3e 223a
000000d0: ddb8 a9bd 512a 83bd 0cc9 c33d 41f1 2f3e
000000e0: af96 103e a7d2 d63d 3e55 9c3e 346a dd3d
000000f0: 5096 abbd d203 29be 54ac 34bb db0c ae3c
00000100: 6b5a dbbc d101 5d3d 4928 37be 0337 d13a
00000110: f262 d3bd 41b3 5a3e 07fe c5bd 3c38 c93d
00000120: 374a 343d f514 943d 0664 f33d 8e39 093e
00000130: 7e77 b2bb e605 3dbe ae33 f63b f673 1dbc
00000140: 2c56 433e ee7d 073e 4f62 c73d c5bf ffbc
00000150: 47b7 043d d6e4 c83d 00e2 10be d45b 81bd
00000160: c4e9 133d 01d9 8d3d f9b0 523d c538 b3bc
00000170: f14f b4bb d946 bdbd 990c 373e 302a b8bc
00000180: 2133 8fbd 35e6 a43a 1798 043e 7a17 ed3d
00000190: d602 05be 9a38 adbd 232a 023e 7e4f 7fbd
000001a0: 478b ceba 9824 25be 9c5b 24bd 4083 3f3c
000001b0: f605 553d 5ff1 1d3d d5fb 053e 0bf8 86bd
000001c0: 93a5 4bbe d945 cc3c 55a4 3a3e f6e6 5fbd
000001d0: 924e 2fbe bee7 16bd d113 ee3d 0f2d 8cbd
000001e0: 74ae 5abd 5410 b33d 25d6 a13c e665 47bd
000001f0: 8371 fa3d 4876 90bd 8805 5b3c 59cb 403e
00000200: 6214 23be b3ed 2f3c 42a2 c43d 7d57 86bc
00000210: c608 5ebd 5c16 393c 57bd 2cbd 4a1b 0fbd
00000220: cb67 8d3d dfc9 323d 61bc 9abd 774c 013d
00000230: d6a2 a53d eff4 603c 87ea 8abd a37c 563c
00000240: d953 2fbe 9492 ad3d 0fa1 e23d be70 a7bd
00000250: 8e3c f7bd 66a7 58bc a1b8 ecbd 5b2c 793c
00000260: ddb5 84bd d087 6abd 446e 16bd 65a7 3e3e
00000270: 01c6 553e 69f8 9abd 8d28 94bd bc6a 2f3d
00000280: 0f5b 00be 26e3 72bc c3d2 4cbe ded4 dc3d
00000290: 2612 8d3d 67fd c0bc 7078 6e3d 2906 2ebc
000002a0: e958 003d a72b 693d eafd d53b b06d ab3c
000002b0: 656f e73d df81 c63d 24c7 9f3c 6e15 d03b
000002c0: 1532 1fbe 541c fdbd 58f2 f2bd 416f 0abd
000002d0: 4a35 de3d 5d81 1fbd d255 5b3c a6c1 fe3d
000002e0: d605 eb3d 6e4c 12bd e18d bd3d 94c0 2bbe
000002f0: d953 1abe a0c1 343d ddbf 7c3d 276f 2fbc
00000300: cddb 76bd f51f 57bd 9c67 993d d237 3b3e
00000310: 2a7b 7d3e 5e04 ed3d d587 033c 6a7f 92bd
00000320: ddb5 783d 8e30 16bd 8b7a 24bd e5fe 3fbd
00000330: f192 8cbd 9380 c43d 45c4 a8bd bd71 d3bd
00000340: 6d85 ea3b f1f9 3d3d f969 183e b090 b13c
00000350: 5644 8c3e 633f c4bc ae8b 5f3d dfb1 033d
00000360: d38f 7b3d d487 903c 3827 61be 9f5c 7cbd
00000370: 2211 b93d e1fb 64be 0202 ac3c e49c 503d
00000380: 0735 07be 8fb5 bcbd 5316 c23d 28d3 ad3e
00000390: 1541 163e c181 afbd 507f 00bd 66d0 bebd
000003a0: b725 e4bd bdd1 cbbb e042 21be ae09 5b3e
000003b0: 1958 a0bd 15ae b23d 64f0 2b3d f535 99bc
000003c0: 9ff6 2ebc 5e7b f63d e669 d03c c07e 0f3d
000003d0: 224e debd c1df e1bd fd2d 49be 3611 4fbd
000003e0: 8a1d 6f3d dd0e 8c3d 14de 933d c432 a9bc
000003f0: d2e9 4ebd 922b 003c b94d 88bd f454 d2bd

gru.bias_ih_l0_reverse f4 [192]
-0.06100082 -0.032334775 -0.12267827 0.08106995 0.083825 0.025896298 0.04571141 0.012482462
-0.07074719 0.043702938 -0.065582976 0.18692741 -0.01753499 -0.0211599 -0.013657476 0.02198699
-0.100826405 -0.09344876 -0.0074832817 -0.10214285 0.04436441 0.038738456 0.08505796 0.054864243
0.17050049 0.044293724 -0.017180752 0.12717183 0.0011064458 0.16511603 -0.061239086 -0.07848643
0.0765024 0.004078945 0.0023505974 -0.10387704 0.10312748 0.0626574 0.04899345 -0.05905258
-0.0029605422 0.08089369 0.12706593 0.031425674 0.10928442 0.12609643 0.060612403 -0.011083361
0.08691768 0.06265771 -0.17106594 0.20746034 -0.046167813 0.072947964 0.11429293 0.035153653
0.027410245 -0.021011317 0.04054269 -0.05768341 0.03437253 0.02972291 -0.06288159 -0.021666517
-0.048577435 -0.025555868 -0.1091032 0.23624286 -0.08364057 0.05971999 -0.20820363 -0.05619628
0.09143418 -0.0929965 0.15194702 0.25868428 0.26274592 0.014154383 -0.0026044298 -0.0974267
-0.04680914 0.10726989 -0.06882958 0.16534099 0.061695237 -0.15255834 -0.10211532 -0.3678504
-0.323374 -0.099032626 0.0025992177 0.15793285 -0.20622322 -0.08636611 -0.19501117 -0.0045056883
0.07745968 -0.0022285492 -0.0810266 0.08664847 -0.015431461 0.0740059 0.1881487 -0.039895914
0.16486265 0.01974545 -0.08735589 -0.123145685 -0.012850691 -0.0685461 -0.020265555 -0.05473163
0.26001728 -0.059920054 0.039211873 -0.14865755 0.06626995 0.041379232 -0.13423795 0.10735069
0.15995792 -0.000612891 -0.12134219 0.12950401 0.09269942 -0.12189531 0.069721654 -0.08000671
-0.10913425 0.105201796 -0.09823981 -0.11262148 -0.028425632 -0.07382258 -0.02448949 0.091971695
-0.0616048 0.057197303 -0.050782613 -0.04377093 0.02305374 0.002531691 0.10861239 0.0906109
0.054101903 -0.019350613 0.13220185 0.038944103 -0.09829465 0.12171914 0.09171072 -0.016633896
0.0026077759 -0.014087615 0.09220506 0.0866698 -0.112177454 -0.06810065 -0.1632326 0.09111169
-0.011519387 0.049034372 0.042550072 -0.12796392 -0.10031097 0.08742331 0.012569672 0.073264934
0.10169425 0.004404214 -0.022552624 -0.064127564 0.003177523 0.009188846 0.02695016 0.012387532
0.003403918 0.07987483 0.07555368 0.0962188 0.08042525 0.035925683 -0.020533647 0.07875215
-0.10554486 -0.06202686 -0.0073350226 -0.07138354 0.08677751 0.086205654 -0.12141329 -0.030796874
00000000: ffdb 79bd 7871 04bd bf3e fbbd 0008 a63d
00000010: 71ac ab3d 7924 d43c e33b 3b3d 3e83 4c3c
00000020: e7e3 90bd da01 333d 5e50 86bd e669 3f3e
00000030: 8aa5 8fbc 8757 adbc 9bc3 5fbc 0f1e b43c
00000040: 137e cebd 1062 bfbd 5136 f5bb 4530 d1bd
00000050: 75b7 353d 37ac 1e3d de32 ae3d 54b9 603d
00000060: ae97 2e3e 566d 353d a6be 8cbc 5539 023e
00000070: 2906 913a 2d14 293e d6d5 7abd 7ebd a0bd
00000080: 4aad 9c3d aca8 853b 7b0c 1a3b 7cbd d4bd
00000090: 8034 d33d 8652 803d 5bad 483d 1ee1 71bd
000000a0: a805 42bb 97ab a53d 921d 023e 35b8 003d
000000b0: 83d0 df3d 6c1f 013e b644 783d fc96 35bc
000000c0: e601 b23d af52 803d e92b 2fbe 7c70 543e
000000d0: 761a 3dbd be65 953d 6912 ea3d 47fd 0f3d
000000e0: 738b e03c ed1f acbc 1710 263d 7045 6cbd
000000f0: 36ca 0c3d 767d f33c 10c8 80bd fb7d b1bc
00000100: 22f9 46bd 8a5a d1bc 8071 dfbd a6e9 713e
00000110: bf4b abbd f39c 743d 5533 55be 122e 66bd
00000120: d841 bb3d f374 bebd 0098 1b3e 4472 843e
00000130: a286 863e c9e7 673c 15af 2abb a687 c7bd
00000140: f1ba 3fbd 51b0 db3d 86f6 8cbd 264f 293e
00000150: 25b4 7c3d 4138 1cbe d621 d1bd e356 bcbe
00000160: 4791 a5be 9ed1 cabd a357 2a3b 26b9 213e
00000170: 2e2c 53be b7e0 b0bd 02b1 47be 74a4 93bb
00000180: 2ea3 9e3d da0c 12bb 46f1 a5bd c174 b13d
00000190: 3dd4 7cbc 6890 973d 0eaa 403e e669 23bd
000001a0: c1d1 283e 36c1 a13c a5e7 b2bd ce33 fcbd
000001b0: b48b 52bc e661 8cbd f303 a6bc 462e 60bd
000001c0: fc20 853e bb6e 75bd a19c 203d af39 18be
000001d0: 8ab8 873d 457d 293d ac75 09be aeda db3d
000001e0: 02cc 233e 6baa 20ba 4182 f8bd b39c 043e
000001f0: 32d9 bd3d 40a4 f9bd 3aca 8e3d 8fda a3bd
00000200: c781 dfbd 0a74 d73d f431 c9bd 17a6 e6bd
00000210: dfdc e8bc 4b30 97bd 2f9e c8bc a85b bc3d
00000220: 5155 7cbd b847 6a3d 6e01 50bd 2649 33bd
00000230: 32db bc3c baea 253b 2c70 de3d 3592 b93d
00000240: f599 5d3d 2d85 9ebc ec5f 073e da83 1f3d
00000250: b54e c9bd e247 f93d d4d2 bb3d cf43 88bc
00000260: 38e7 2a3b bdcf 66bc 02d6 bc3d f07f b13d
00000270: 4bbd e5bd 5b78 8bbd 7226 27be c498 ba3d
00000280: d0bb 3cbc 44d8 483d fc48 2e3d f908 03be
00000290: d66f cdbd fe0a b33d 07f1 4d3c ed0b 963d
000002a0: 1345 d03d 3a51 903b 48c0 b8bc 5055 83bd
000002b0: fd3d 503b d08c 163c 95c6 dc3c 13f5 4a3c
000002c0: 4414 5f3b 6a95 a33d e3bb 9a3d 5d0e c53d
000002d0: feb5 a43d cf26 133d 2e36 a8bc cf48 a13d
000002e0: e727 d8bd e00f 7ebd a15a f0bb 8931 92bd
000002f0: 68b8 b13d 978c b03d 88a7 f8bd ba49 fcbc

gru.bias_hh_l0_reverse f4 [192]
0.10422587 -0.0759421 0.053038776 0.052868284 0.051349375 0.08522316 -0.03746492 0.054784253
-0.06911165 0.09084119 0.05665439 -0.04065863 -0.097190276 -0.054127425 -0.099141516 0.08989026
-0.04513904 0.12797329 0.14342192 -0.07405778 0.021735977 -0.043725673 -0.0739025 -0.15976736
0.24166584 -0.024663815 0.06700918 0.07445269 -0.14232084 -0.03864968 0.026278552 0.094577715
0.10124774 0.073378764 -0.007881362 0.045255046 0.117339045 -0.024943395 -0.018860552 0.10155085
0.029525386 -0.0138666 0.080894955 0.08215639 -0.04428153 0.061833788 0.0074913907 0.04483115
0.09588599 0.019851785 -0.089531906 0.17655009 -0.06975311 0.12489841 0.039842095 0.100761086
-0.07090708 0.18507962 0.07404098 -0.084100105 0.11726714 -0.033464506 -0.044665568 0.06138648
0.013338163 0.04810532 0.004032263 0.11470592 0.105404265 -0.07450577 -0.105112754 -0.066569306
0.0520269 -0.1327575 0.16177458 0.18161213 0.30501193 0.05035897 0.015812472 -0.16915904
-0.03428823 -0.134178 -0.09891012 0.036897056 -0.086254254 -0.069589764 -0.054200172 -0.3016009
-0.40709618 -0.07793076 0.16495496 0.17023817 -0.07548428 0.036873817 -0.08648435 -0.10429393
0.049443793 0.057257324 -0.16944365 0.20052093 -0.041807573 -0.0138428435 0.081669115 -0.10957678
-0.036459345 -0.08360904 -0.00041468116 -0.11256923 0.08320462 -0.03080247 -0.0018270388 0.053518794
0.08135956 -0.113793515 0.077351265 -0.15458466 0.048833534 0.02405948 -0.067538515 -0.08723132
0.08903831 0.06913224 -0.050129417 -0.038494572 0.17187718 -0.14127117 -0.019664103 -0.033678696
-0.13039228 -0.08565499 -0.056442734 -0.074815325 0.043662924 -0.007286916 0.13944478 -0.1273617
-0.03984899 0.06971235 0.06101864 -0.10745627 -0.014042784 0.07238805 -0.085814625 0.014034312
-0.0043788627 -0.064401075 0.11885091 0.09248398 0.084078096 0.08013456 -0.014086075 0.037159603
0.062274933 -0.098997906 -0.0562205 0.012689927 0.119010724 0.014804113 -0.13804469 -0.047014035
0.10602394 0.0020273912 0.030137198 -0.080829315 -0.0062302034 -0.09918013 -0.06833475 0.0515912
0.10058927 -0.07927619 0.05634847 0.010854591 0.052834693 -0.055653244 0.041528158 0.045649935
0.035491247 0.102971375 -0.0337478 -0.047640167 0.0580256 -0.0447319 0.10775957 0.0005368968
0.0776284 0.0610433 0.09565126 0.04002365 -0.06936275 0.030749334 -0.117085114 0.09948115
00000000: 5f74 d53d 8887 9bbd 303f 593d 6a8c 583d
00000010: b953 523d 7b89 ae3d d174 19bd 7465 603d
00000020: 698a 8dbd f20a ba3d 6f0e 683d aa89 26bd
00000030: b20b c7bd b8b4 5dbd b50a cbbd 6218 b83d
00000040: b7e3 38bd 6e0b 033e 32dd 123e 9bab 97bd
00000050: a60f b23c b119 33bd 325a 97bd 0e9a 23be
00000060: 4077 773e c50b cabc 1c3c 893d a77a 983d
00000070: 8ebc 11be 204f 1ebd 1e46 d73c f6b1 c13d
00000080: fa5a cf3d 9b47 963d d420 01bc 5b5d 393d
00000090: 744f f03d 1756 ccbc 7281 9abc e4f9 cf3d
000000a0: 39df f13c bc30 63bc 41ac a53d 9c41 a83d
000000b0: 8d60 35bd 6d45 7d3d 577a f53b dea0 373d
000000c0: e05f c43d 36a0 a23c 815c b7bd 8cc9 343e
000000d0: b8da 8ebd bdca ff3d 7731 233d d45b ce3d
000000e0: bb37 91bd 8385 3d3e cca2 973d ad3c acbd
000000f0: c129 f03d 1412 09bd 3ef3 36bd 6470 7b3d
00000100: 4f88 5a3c 160a 453d 1321 843b f0ea ea3d
00000110: 31de d73d 7b96 98bd 5b45 d7bd 7d55 88bd
00000120: 291a 553d 95f1 07be 3ca8 253e 88f8 393e
00000130: 862a 9c3e 3545 4e3d 2889 813c 0738 2dbe
00000140: d171 0cbd f565 09be 6491 cabd 5e21 173d
00000150: 12a6 b0bd 1485 8ebd 0001 5ebd 6f6b 9abe
00000160: e96e d0be 2a9a 9fbd f4e9 283e ea52 2e3e
00000170: 8197 9abd 0009 173d b51e b1bd 0e98 d5bd
00000180: 9385 4a3d a886 6a3d a382 2dbe 5c55 4d3e
00000190: 6b3e 2bbd 18cd 62bc 2342 a73d ca69 e0bd
000001a0: 6556 15bd 373b abbd 9069 d9b9 b28a e6bd
000001b0: 2f67 aa3d 7655 fcbc 4079 efba 8636 5b3d
000001c0: d79f a63d 930c e9bd 576a 9e3d 714b 1ebe
000001d0: ac05 483d 6318 c53c a251 8abd 56a6 b2bd
000001e0: b859 b63d 3495 8d3d 8154 4dbd 7cac 1dbd
000001f0: 9200 303e 64a9 10be 9d16 a1bc acf2 09bd
00000200: 8e85 05be e26b afbd 7f30 67bd c738 99bd
00000210: e5d7 323d 15c7 eebb 9dca 0e3e 1b6b 02be
00000220: b238 23bd 59c5 8e3d aeee 793d 0812 dcbd
00000230: b513 66bc 3040 943d 94bf afbd 2cf0 653c
00000240: 907c 8fbb b6e4 83bd 1b68 f33d 3e68 bd3d
00000250: 2331 ac3d 971d a43d 48c9 66bc ab34 183d
00000260: 0014 7f3d 6abf cabd 7847 66bd 69e9 4f3c
00000270: e5bb f33d f38c 723c 965b 0dbe ca91 40bd
00000280: 1423 d93d fbdd 043b 49e2 f63c d789 a5bd
00000290: bc26 ccbb f41e cbbd 17f3 8bbd 4b51 533d
000002a0: bf01 ce3d 8e5b a2bd a7cd 663d 74d7 313c
000002b0: 3169 583d a8f4 63bd 6e19 2a3d 6dfb 3a3d
000002c0: 455f 113d a8e2 d23d 223b 0abd 5622 43bd
000002d0: 40ac 6d3d cc38 37bd 0db1 dc3d 89be 0c3a
000002e0: a3fb 9e3d 8a08 7a3d cfe4 c33d d7ef 233d
000002f0: 0f0e 8ebd 07e6 fb3c 52ca efbd c6bc cb3d
