try4_realDataset_embeddedMotif_noGaps1/100bp_1_positive_trim100_pretrainedGen.pth (torch, 67795 bytes, 7 tensors)

embeddings.weight f4 [5, 16]
0	0xbe87b6d3	-0.2650667
1	0xbf8ff61e	-1.1246984
2	0x3ebc6d4e	0.36802143
3	0xbfb5cabe	-1.4202497
4	0x3f3d8c33	0.7404205
5	0x3ff25280	1.8931427
6	0x3f3bcc0e	0.7335824
7	0x3fa63194	1.298388
8	0x3f86c8d4	1.0530038
9	0xbf9bbcd5	-1.2167002
10	0xbf9f0f45	-1.2426535
11	0xbed76eae	-0.4207663
12	0xbf88b6f2	-1.068083
13	0x3f10ca8c	0.5655906
14	0x3f8541b6	1.0410678
15	0xbd8a6c3a	-0.06758924
16	0x3eabeba5	0.3357822
17	0xbde17da9	-0.11010296
18	0xbee0de32	-0.43919522
19	0x3ec58530	0.38578176
20	0x3f9427ec	1.1574683
21	0x3fbc1a77	1.4695576
22	0x3f21dd18	0.6322799
23	0xbfec4d09	-1.8461009
24	0xbfa4b91e	-1.2868993
25	0xbfae5175	-1.3618609
26	0x3fb0c3d9	1.3809768
27	0x3e1d27b3	0.15347175
28	0xbf9eae68	-1.2396975
29	0x3ec7bdd0	0.39012003
30	0xbf92e81e	-1.1477087
31	0x3fb54802	1.41626
32	0x3ec7ee99	0.39049223
33	0xbf79aa29	-0.9752527
34	0x3f22e36b	0.6362826
35	0x3e8e88ac	0.27838647
36	0xbe357938	-0.17722023
37	0x3e910367	0.28322908
38	0x3f828f18	1.0199919
39	0xbe3637c8	-0.17794716
40	0x3f69a0f4	0.9126122
41	0xbf2956cc	-0.66148067
42	0x3f788c73	0.9708931
43	0xbdf964cb	-0.12177428
44	0x3faad401	1.3345948
45	0xbdefdf1c	-0.117124766
46	0x3e994dc9	0.29942158
47	0x3f19a80d	0.6002205
48	0xbec21d6b	-0.3791307
49	0x3fe75588	1.8072977
50	0xbd7d1110	-0.06178385
51	0x3eb7e5bb	0.35917458
52	0x3f83b6b3	1.029013
53	0xc015ee29	-2.3426611
54	0xbfe87bd1	-1.8162786
55	0xbe5f1b38	-0.21787727
56	0xbf339d79	-0.7016216
57	0x3ec6ccec	0.38828218
58	0x3ed1f35d	0.41005984
59	0xbe423208	-0.18964398
60	0x3cb649d3	0.022251999
61	0x3c281376	0.010258546
62	0x3e3c2397	0.18372951
63	0xbf897e99	-1.074176
64	0x3e8909a0	0.26765156
65	0xbe1370af	-0.14398454
66	0xbf396474	-0.72418904
67	0xbedaebb2	-0.42757946
68	0x3ff9f64d	1.952829
69	0xbe1f81a4	-0.15576798
70	0x3e1f4827	0.15554868
71	0xbf35ffb0	-0.71093273
72	0xbe2b16bd	-0.16707893
73	0x3fc44530	1.5333614
74	0xbfa095c6	-1.2545707
75	0x3fa8f551	1.3199865
76	0x3df49343	0.119421504
77	0xbf24caaa	-0.6437174
78	0x3f832966	1.0247009
79	0xbe0a7ca2	-0.13524106

gru.weight_ih_l0 f4 [192, 16]
0	0x3cdcb8bd	0.026943559
1	0xbd09d100	-0.033646584
2	0xbe400c90	-0.18754792
3	0x3b248d07	0.0025108473
4	0x3e143e66	0.14476928
5	0x3f189219	0.5959793
6	0x3e178706	0.14797601
7	0xbe3ded81	-0.18547632
8	0xbdc2b1ae	-0.09506546
9	0xbe52440c	-0.2053377
10	0x3be15092	0.00687606
11	0x3d8e42ac	0.069463104
12	0x3d117c8f	0.03551918
13	0xbe18007f	-0.14843939
14	0xbe96dd44	-0.29465687
15	0x3e2ea74e	0.17056009
16	0x3ed9dccf	0.42551276
17	0xbf09cdcb	-0.5382964
18	0x3ef993aa	0.4874547
19	0xbe45d95c	-0.19321197
20	0xbd619f6a	-0.05508367
21	0x3e809995	0.25117174
22	0x3f179d92	0.5922481
23	0x3e0edacc	0.13950652
24	0x3f0e0cbb	0.55488175
25	0xbe119d5d	-0.14220186
26	0xbd02be5a	-0.031919815
27	0xbd57ca26	-0.05268302
28	0x3ecea28f	0.40358397
29	0xbea5fe0f	-0.32420394
30	0x3efa7b55	0.4892222
31	0x3e54e0d4	0.2078889
32	0xbdc6542a	-0.09684022
33	0xbc377ba2	-0.01119891
34	0xbe18677d	-0.14883228
35	0xbe407d72	-0.18797854
36	0x3e22c4ba	0.15895358
37	0x3e842f95	0.25817552
38	0x3d743d89	0.059628997
39	0x3df25fbd	0.11834667
40	0x3e1ca57c	0.15297502
41	0xbe2321d4	-0.15930873
42	0xbe0bd1bd	-0.13654228
43	0x3e59a26e	0.21253368
44	0xbd25bbaf	-0.040462192
45	0x3ae07117	0.0017123547
46	0x3e533e07	0.2062913
47	0x3df411c8	0.11917454
48	0x3e0e9670	0.13924575
49	0x3e83a604	0.25712597
50	0xbed06f55	-0.4070994
51	0x3df26341	0.118353374
52	0x3ea13552	0.31485993
53	0x3e1f2c5b	0.15544264
54	0xbd82834f	-0.063727014
55	0xbe885c93	-0.2663313
56	0xbe878b98	-0.2647369
57	0x3e710683	0.2353764
58	0x3cae7b37	0.021298988
59	0x3f25e26d	0.64798623
60	0xbe2db215	-0.16962464
61	0xbb93c7c4	-0.004509898
62	0xbe7559cb	-0.23960035
63	0x3dd0a028	0.101867974
64	0x3ea67ba8	0.32516217
65	0xbe5d79af	-0.2162845
66	0xbee80513	-0.4531637
67	0x3cb40ef3	0.021979785
68	0x3eac60ea	0.3366769
69	0x3dbfac08	0.09358984
70	0x3e9bac1c	0.30404747
71	0xbf226186	-0.6343006
72	0x3cf68e00	0.030097008
73	0x3dab2120	0.083559275
74	0xbe2000ec	-0.15625352
75	0x3f77d49b	0.96808785
76	0xbdb7e509	-0.08979232
77	0xbed1f7de	-0.4100942
78	0x3e4156f8	0.18880832
79	0x3e0f49f2	0.13993052
80	0xbe0b149e	-0.13582084
81	0x3e543d36	0.20726475
82	0x3eef0b00	0.4668808
83	0x3d491911	0.04909617
84	0x3ea56d18	0.32309794
85	0xbea366f0	-0.31914473
86	0xbe9006b5	-0.28130117
87	0x3e892631	0.2678695
88	0x3e5eae10	0.21746087
89	0xbeafafd2	-0.34313828
90	0xbdf90f1a	-0.121610835
91	0xbf24699f	-0.64223665
92	0x3d959e82	0.073056236
93	0x3d56bb39	0.052424643
94	0x3f49efc8	0.788815
95	0xbef7222a	-0.48268253
96	0x3f294af1	0.66129977
97	0xbf33369b	-0.70005196
98	0x3d47b445	0.048755903
99	0xbed6de7d	-0.4196662
100	0xbd0c0c09	-0.034191165
101	0x3ee7b3c0	0.45254326
102	0x3f3cdd3a	0.73775065
103	0x3d70b6d0	0.058768094
104	0x3ef6209c	0.48071754
105	0x3cda9576	0.026682597
106	0xbe9f8f78	-0.31164145
107	0x3e801b1f	0.25020692
108	0x3dbec0c9	0.093141146
109	0xbe3e71ab	-0.18598048
110	0x3d066276	0.032808743
111	0x3f259309	0.6467748
112	0x3d347bc3	0.04406334
113	0x3c5305a8	0.0128797665
114	0xbe1cf5b0	-0.15328097
115	0xbe2060a0	-0.1566186
116	0x3e19a88a	0.15005699
117	0x3d5017a4	0.050803795
118	0xbd5ad874	-0.053429082
119	0xbe363146	-0.17792234
120	0xbd4f6767	-0.05063572
121	0xbb50258b	-0.0031760659
122	0xbd9ff80f	-0.07810985
123	0x3e278741	0.16360189
124	0xbd5a2547	-0.053258207
125	0xbd85c1e9	-0.06531126
126	0xbbdcfbec	-0.0067438986
127	0xbdb86937	-0.09004443
128	0xbe4ac41e	-0.19801375
129	0xbdbd5673	-0.092450045
130	0x3e912c9c	0.28354347
131	0xbe5ab865	-0.21359403
132	0xbed46c69	-0.4148896
133	0xbdeeb155	-0.11654917
134	0xbbd8138d	-0.0065941275
135	0x3f26ac8e	0.6510705
136	0x3ee37510	0.4442525
137	0xbe3e56f4	-0.18587857
138	0xbde3cb46	-0.11122756
139	0xbf28d3f7	-0.6594843
140	0x3cebc57b	0.02878069
141	0x3ec2b381	0.38027576
142	0x3d9892ff	0.07449912
143	0xbe94c883	-0.29059228
144	0xbee0f67f	-0.43938062
145	0x3ee5030a	0.4472888
146	0x3e7e8717	0.2485622
147	0x3dfcf0e0	0.12350631
148	0xbe51af19	-0.2047695
149	0xbeaea3b2	-0.34109265
150	0xbf08fdde	-0.5351237
151	0x3e88ddaf	0.2673163
152	0xbc4d05bd	-0.012513575
153	0x3da416e4	0.080121785
154	0x3e192c73	0.14958362
155	0xbef5c8da	-0.480048
156	0x3e8ddd8d	0.27708092
157	0x3d3750bb	0.044754725
158	0xbb7280c3	-0.0037003017
159	0xbec0dcc5	-0.37668434
160	0xbcceda7c	-0.025250666
161	0xbe428b08	-0.18998349
162	0x3da107b1	0.07862795
163	0xbd6608d0	-0.056160748
164	0xbdcba2a5	-0.09943131
165	0x3f01aef8	0.50657606
166	0x3e506514	0.20351058
167	0x3d9bb4e9	0.07602865
168	0x3d342827	0.043983605
169	0xbe280ab3	-0.16410331
170	0xbe3e34b4	-0.18574792
171	0xbe5cb9d4	-0.21555263
172	0xbe1db8fb	-0.15402596
173	0x3e4c2ede	0.19939753
174	0x3e5a0eff	0.21294783
175	0x3d62fd04	0.055417076
176	0xbe88e3b3	-0.2673622
177	0x3f349c9a	0.70551455
178	0xbec1e2fb	-0.37868485
179	0xbeb63c36	-0.35592812
180	0x3ec139ff	0.3773956
181	0xbe48c506	-0.19606408
182	0xbf1202be	-0.57035434
183	0xbda5213d	-0.0806298
184	0xbed6e593	-0.41972026
185	0x3ebf1e33	0.37327728
186	0xbf02a9cd	-0.51040345
187	0x3dc00372	0.09375657
188	0xbf0a4136	-0.54005754
189	0xbe62d635	-0.22152026
190	0x3e4fa2ad	0.202769
191	0xbea69cde	-0.32541555
192	0xbe7cc00e	-0.24682638
193	0x3e82e3b9	0.25564364
194	0x3f0c2cdc	0.5475595
195	0x3e3c5bbb	0.18394367
196	0xbe7de707	-0.24795161
197	0xbf085be2	-0.532652
198	0xbe90b595	-0.28263536
199	0x3e79a54a	0.24379459
200	0x3e2993bc	0.16560262
201	0x3b870513	0.004120478
202	0x3e87b9e3	0.26509008
203	0xbf5c0409	-0.8594366
204	0x3e9ecbdb	0.31014904
205	0xbd64a074	-0.055817083
206	0x3e6fe757	0.23428093
207	0xbe93574d	-0.28777543
208	0x3e4d7bc7	0.20066749
209	0xbf1699d9	-0.588285
210	0x3ede4dfe	0.43418878
211	0xbe07c213	-0.13257627
212	0xbe085e8c	-0.13317317
213	0x3e81ce0e	0.2535252
214	0x3ef92978	0.4866445
215	0x3ddf6fd5	0.10910002
216	0x3f34ba90	0.7059717
217	0xbf0185ab	-0.50594586
218	0x3e506a6d	0.20353098
219	0xbe41609a	-0.18884507
220	0x3e73bc46	0.2380229
221	0x3e1edda5	0.15514238
222	0x3e1c4935	0.15262301
223	0x3ec3facb	0.38277277
224	0x3debb0b7	0.11508315
225	0xbd450672	-0.04810185
226	0xbe9e4244	-0.30909932
227	0xbe4e13d1	-0.20124747
228	0x3ddabee1	0.106809385
229	0xbc944538	-0.018099412
230	0x3e3587c9	0.17727579
231	0xbbb891f1	-0.005632632
232	0xbd4894fc	-0.048970208
233	0x3ed6353c	0.4183749
234	0xbf0192c8	-0.50614595
235	0x3ebfb1bd	0.3744029
236	0x3d97e792	0.074172154
237	0xbe3ff3f1	-0.187454
238	0x3e07d8b3	0.13266258
239	0x3e177e41	0.14794256
240	0x3e93e0d8	0.2888248
241	0xbeb55005	-0.35412613
242	0xbed9c33a	-0.4253176
243	0xbebc5fde	-0.3679189
244	0x3e38ea8f	0.18058227
245	0x3e7a0f5c	0.24419922
246	0x3f0364ec	0.5132587
247	0xbd5b5d03	-0.0535555
248	0x3cd3d9c8	0.025860682
249	0x3d3b23ee	0.045688562
250	0xbe597ae7	-0.2123829
251	0x3ee7b6f2	0.45256764
252	0xbe1df7d6	-0.15426573
253	0xbe146b71	-0.1449411
254	0x3e915d90	0.28391695
255	0x3ed2e304	0.41188824

gru.weight_hh_l0 f4 [192, 64]
0	0xbdda7483	-0.10666754
1	0xbf0632c9	-0.5242124
2	0x3e1dae31	0.1539848
3	0xbf235ce5	-0.6381362
4	0x3ebec1e4	0.37257302
5	0x3e1a5ab2	0.1507366
6	0x3dba8042	0.091064945
7	0x3f94397d	1.1580044
8	0xbf20950e	-0.6272744
9	0xbe69ab79	-0.22819318
10	0xbb318ef1	-0.0027093256
11	0x3f403fa9	0.7509714
12	0x3f93f166	1.1558044
13	0xbef60c73	-0.48056373
14	0x3f0276e7	0.5096268
15	0x3f7d4cf9	0.98945576
16	0x3e3b3fac	0.18286008
17	0xbcca9a23	-0.024731701
18	0x3f0e6d76	0.55635774
19	0x3c94fd1a	0.018187094
20	0x3dea4b1c	0.11440107
21	0xbe6cf65e	-0.23140857
22	0x3e57ce31	0.2107475
23	0x3ea25f07	0.31713125
24	0x3ec4c84a	0.38434058
25	0x3e9b9686	0.30388278
26	0x3ebd8273	0.37013587
27	0x3e74d854	0.23910648
28	0xbf13659d	-0.57576925
29	0x3ed988c8	0.42487168
30	0xbf0a6cc6	-0.54072225
31	0x3f1f3c5e	0.6220149
32	0xbf22b201	-0.6355286
33	0xbd75e130	-0.06002921
34	0xbaeaa5b6	-0.0017902169
35	0xbf14d6e6	-0.5814041
36	0xbe507b76	-0.20359597
37	0xbef8b629	-0.48576477
38	0xbf395eda	-0.72410357
39	0x3ebc54f7	0.36783573
40	0x3d899469	0.0671776
41	0xbd92bcff	-0.071649544
42	0xbe29d9f8	-0.16587055
43	0x3d3067d4	0.04306777
44	0xbcaa19d6	-0.020764273
45	0xbf0a2450	-0.5396166
46	0x3f28a983	0.65883654
47	0xbe7c25ff	-0.2462387
48	0xbe449132	-0.19196013
49	0x3d13ba0c	0.0360661
50	0xbda3c774	-0.07997027
51	0x3f79609c	0.9741304
52	0x3e7829c3	0.24234681
53	0xbece0f8b	-0.40246233
54	0x3dd400a9	0.103516884
55	0x3e4244f3	0.18971615
56	0x3db71d22	0.089411035
57	0x3d7aa123	0.06118883
58	0xbdcfd79e	-0.101485476
59	0xbe7828e1	-0.24234344
60	0xbf13cba5	-0.5773261
61	0xbdf2b17b	-0.11850258
62	0x3d25d2dc	0.040484294
63	0xbee09638	-0.43864608
64	0xbd44830f	-0.04797655
65	0xbef5f5f5	-0.48039213
66	0x3f3651c4	0.71218514
67	0x3f2ef41a	0.6834122
68	0xbee4684e	-0.44610828
69	0x3e185364	0.14875561
70	0x3ea0a615	0.3137671
71	0xbed06a13	-0.40705928
72	0xbe5d9317	-0.21638142
73	0xbdf94687	-0.12171655
74	0xbe2a8b48	-0.16654694
75	0x3cccefad	0.02501663
76	0xbdfc5d07	-0.12322431
77	0xbce6c3ef	-0.0281696
78	0xbf4a2d5d	-0.7897547
79	0xbf95a67a	-1.169143
80	0x3d97d3bd	0.07413433
81	0xbf3d6b39	-0.73991734
82	0x3e2198a1	0.1578088
83	0xbf0860af	-0.5327253
84	0xbf03e186	-0.51515996
85	0xbf096dac	-0.5368297
86	0xbe40c0b8	-0.18823516
87	0xbe4e9ec0	-0.20177746
88	0xbf1afb3c	-0.60539603
89	0xbe8bf2af	-0.2733359
90	0x3ebfd940	0.37470436
91	0xbd82e5b1	-0.063914664
92	0x3ec19ecc	0.37816465
93	0xbd829951	-0.06376899
94	0xbe2623bd	-0.1622457
95	0x3d82a574	0.06379214
96	0xbf58e5af	-0.8472547
97	0xbded563e	-0.11588715
98	0x3e4caab7	0.19986998
99	0xbe3b115f	-0.18268345
100	0xbe6fd85c	-0.23422378
101	0xbf87085d	-1.0549427
102	0xbda70382	-0.08154966
103	0xbe70019c	-0.23438114
104	0xbded7ce8	-0.115960896
105	0x3e5f48f2	0.2180517
106	0x3ea7cf32	0.32775265
107	0x3e125dac	0.14293545
108	0xbe8d83a9	-0.2763951
109	0xbf1b10f4	-0.60572743
110	0xbe9678e4	-0.29389107
111	0x3e8d3c1d	0.27584925
112	0xbe38376c	-0.17989892
113	0x3c8e23d7	0.017351074
114	0xbf8dfe3e	-1.1093214
115	0x3f078094	0.5293057
116	0x3f0b06af	0.54307073
117	0x3f15f75b	0.5858056
118	0xbe6ef293	-0.23334722
119	0xbe3e4076	-0.18579277
120	0xbe87887d	-0.2647132
121	0xbdd39691	-0.10331453
122	0xbd70a569	-0.058751497
123	0x3d1927fe	0.037391655
124	0xbf2e05d1	-0.67977625
125	0x3d774e59	0.060377453
126	0x3ceecf6d	0.029151643
127	0xbde5e91d	-0.112261035
128	0x3e9ff043	0.31237993
129	0x3c7e6265	0.015526389
130	0x3e57ae8c	0.21062678
131	0x3e4a0614	0.19728881
132	0xbe654a13	-0.22391538
133	0xbd8e6a6f	-0.06953894
134	0x3ea300a9	0.3183644
135	0xbe3c9d33	-0.18419342
136	0xbe8bcc3f	-0.27304265
137	0xbedb7cab	-0.42868552
138	0x3e83edb8	0.25767303
139	0xbe87c0b4	-0.26514208
140	0xbf924809	-1.1428233
141	0x3d1b8dfb	0.0379772
142	0x3eac6bcc	0.33675992
143	0x3d740b4d	0.05958109
144	0xbe8a71db	-0.2703999
145	0x3e5b215a	0.21399441
146	0xbe78ae6a	-0.24285284
147	0x3f05ce26	0.5226768
148	0xbe19cdcc	-0.15019912
149	0xbebae4e2	-0.3650275
150	0xbf4794c3	-0.7796137
151	0x3f100a9a	0.56266177
152	0x3f232fd0	0.6374483
153	0x3dea2b64	0.11434057
154	0xbea1230e	-0.31472057
155	0xbee384af	-0.44437167
156	0x3f36b7f7	0.7137446
157	0xbde3864b	-0.11109599
158	0x3e0fb8f8	0.14035404
159	0xbf3789b2	-0.7169448
160	0xbe6ab7e4	-0.22921711
161	0x3de4d08a	0.11172588
162	0x3e2602db	0.16212027
163	0xbe38334e	-0.17988321
164	0xbd3d6dcd	-0.046247292
165	0xbe5a6aca	-0.213298
166	0xbe490fd2	-0.19634941
167	0xbea9736f	-0.3309588
168	0x3e3bfbd8	0.1835779
169	0xbf179ddb	-0.59225243
170	0xbf7f34c4	-0.9968989
171	0xbefff2e5	-0.4999
172	0x3dad6cbb	0.08468004
173	0x3e3032b2	0.17206839
174	0xbe86604c	-0.26245344
175	0x3d9199a4	0.07109383
176	0xbe971b1e	-0.29512876
177	0x3f53c135	0.82716686
178	0xbeb68102	-0.356453
179	0xbf2a8e59	-0.66623455
180	0xbcb90f6b	-0.02259036
181	0xbeb672ed	-0.35634556
182	0xbeb74afb	-0.35799393
183	0xbe29baa5	-0.16575105
184	0x3dad1eb0	0.08453119
185	0x3ec68391	0.38772252
186	0xbd4587f8	-0.048225373
187	0xbefe30ce	-0.4964661
188	0x3e9e633a	0.3093508
189	0xbd9a07b4	-0.075210005
190	0x3d59a5a5	0.053136487
191	0x3f2c5ce9	0.6732927
192	0xbe1b0a4e	-0.1514065
193	0xbedbddc7	-0.4294264
194	0x3e1e424f	0.15454982
195	0x3f313521	0.69221693
196	0x3e2089ae	0.1567752
197	0x3f117823	0.5682394
198	0xbf460144	-0.7734568
199	0x3f12efd8	0.5739722
200	0x3dd787a8	0.10523921
201	0xbf82194b	-1.0163969
202	0xbe991223	-0.2989665
203	0xbecf5079	-0.40491083
204	0x3e27f3ce	0.16401598
205	0x3d7f32b1	0.062304202
206	0x3f5fd9ea	0.87441885
207	0x3e0150ac	0.1262843
208	0xbd79fcd6	-0.06103214
209	0xbf1168e9	-0.56800705
210	0x3e89ad39	0.2688997
211	0xbe8a391c	-0.26996696
212	0x3edc278a	0.42998916
213	0xbe6b0dee	-0.22954533
214	0x3e7e58b9	0.24838533
215	0xbf89c3a4	-1.076283
216	0x3db506c1	0.08839179
217	0x3ec7c974	0.39020884
218	0x3daed046	0.08535819
219	0xbd21644e	-0.0394023
220	0xbf6ba545	-0.92049056
221	0xbed8ebc3	-0.42367372
222	0xbf0eea29	-0.5582605
223	0x3e70cbe1	0.23515274
224	0x3e9dae65	0.30797115
225	0xbe195a67	-0.14975892
226	0x3e8528a1	0.2600756
227	0x3c174e97	0.009235046
228	0xbdf0312f	-0.11728131
229	0xbebf65a3	-0.3738223
230	0xbe4cb4c6	-0.19990835
231	0xbe95024d	-0.29103318
232	0xbe1f20ea	-0.155399
233	0xbd80604a	-0.06268366
234	0xbe921b4c	-0.2853645
235	0x3c54a3bb	0.0129784895
236	0xbded9719	-0.11601085
237	0xbeed8111	-0.46387532
238	0x3df73bc8	0.12071949
239	0xbf239123	-0.63893336
240	0x3ef967c1	0.4871197
241	0x3d8a6dd5	0.0675923
242	0xbec206ba	-0.37895757
243	0x3f186b30	0.59538555
244	0x3ec862c1	0.39137843
245	0x3e68d77f	0.22738455
246	0x3ea3da9f	0.32002732
247	0xbdbebff9	-0.0931396
248	0xbd53cde6	-0.051710032
249	0x3ed3ffaf	0.4140601
250	0x3d7100ea	0.058838762
251	0x3e8739c8	0.2641127
252	0x3e277e27	0.16356717
253	0x3dd89d74	0.10576907
254	0x3e2407ae	0.16018555
255	0xbea3a33c	-0.31960475

gru.bias_ih_l0 f4 [192]
0	0x3dafff45	0.08593611
1	0x3eb22cb2	0.34799725
2	0x3da60659	0.081066795
3	0x3d4e7e1e	0.050413243
4	0x3e872ebc	0.26402843
5	0x3e901e0e	0.2814793
6	0xbe1c497a	-0.15262404
7	0x3dbddcd8	0.09270638
8	0xbda65239	-0.081211515
9	0xbd89cc64	-0.067284375
10	0x3bda4fc3	0.0066623404
11	0x3d888389	0.06665713
12	0x3d8feb2b	0.070272766
13	0x3d756957	0.059914913
14	0xbd26f787	-0.040763404
15	0x3e3dd771	0.18539216
16	0x3e2ec813	0.1706851
17	0x3e122f64	0.1427589
18	0x3e580d4d	0.21098824
19	0x3e57c978	0.21072948
20	0xbd1803f8	-0.03711316
21	0x3c940d27	0.018072678
22	0xbd1599ac	-0.036523506
23	0xbcf5a62a	-0.02998646
24	0x3e2bfd0e	0.16795751
25	0xbd975151	-0.07388557
26	0x3d7900e7	0.060791876
27	0x3e18daec	0.14927262
28	0x3e589bac	0.21153134
29	0x3e6580d5	0.22412427
30	0x3e7fed02	0.24992755
31	0xbe03aadb	-0.12858145
32	0x3ea26d0a	0.31723815
33	0x3db95c3a	0.09050794
34	0x3e9dd099	0.3082321
35	0xbd81f2d4	-0.06345144
36	0x3d8ef97f	0.06981181
37	0xbd8cb455	-0.06870333
38	0xbc4b9a0a	-0.0124268625
39	0xbdb6eefd	-0.08932302
40	0x3d38416e	0.044984274
41	0x3dca424d	0.09875927
42	0x3e68c586	0.22731599
43	0x3d0ee3a3	0.03488506
44	0x3da91ec4	0.08257821
45	0xbe35881e	-0.17727706
46	0xbe499a2d	-0.1968772
47	0x3e5bc992	0.21463612
48	0x3de6b202	0.11264421
49	0x3f0374a6	0.51349866
50	0x3d041f6b	0.032256525
51	0x3d23af19	0.039961908
52	0xbe181bf1	-0.14854409
53	0x3bee5978	0.007273849
54	0x3d475313	0.04866321
55	0x3db5f537	0.08884662
56	0x3e2424c0	0.16029644
57	0x3d48c905	0.049019832
58	0x38390fb8	4.4122076e-05
59	0x3de5acfa	0.11214633
60	0x3e1b63b1	0.15174748
61	0x3e88dad5	0.26729456
62	0x3db3f51d	0.08786986
63	0x3e223441	0.15840246
64	0xbec7027d	-0.38869086
65	0xbee2e6ae	-0.4431662
66	0xbeeff8b8	-0.46869445
67	0xbe49dab4	-0.19712335
68	0xbe1fb03e	-0.15594575
69	0x3e6bdd84	0.2303372
70	0xbe6c9b56	-0.23106131
71	0xbe566d2c	-0.20940083
72	0xbf32444f	-0.6963548
73	0xbf163b7e	-0.5868453
74	0xbd131bd0	-0.035915196
75	0xbe2111a4	-0.15729386
76	0xbda2e0b9	-0.07953019
77	0xbe979585	-0.29606262
78	0xbd1ae86b	-0.037819307
79	0x3e2bd3e7	0.16780053
80	0xbf3dc8d0	-0.7413454
81	0xbf4ad3a1	-0.7922917
82	0x3e6bf881	0.23044015
83	0xbe9dc6d0	-0.30815744
84	0xbc6dc616	-0.014512559
85	0xbef43635	-0.47697607
86	0xbe6dd67b	-0.23226349
87	0x3cd25beb	0.025678596
88	0x3db34d4e	0.08754979
89	0xbd071f76	-0.032988988
90	0xbeb61a7e	-0.35567087
91	0xbe72a431	-0.23695447
92	0x3d8f6feb	0.070037685
93	0x3edd808f	0.43262145
94	0xbd9e3899	-0.07725639
95	0xbe5b7f36	-0.21435246
96	0xbf5304a4	-0.82428956
97	0x3cd9515e	0.026528057
98	0xbed562f6	-0.41677064
99	0xbd6052a2	-0.054766305
100	0x3d1aa477	0.037754502
101	0xbe6cf6cb	-0.23141019
102	0xbee31cd1	-0.44357923
103	0xbe953a1e	-0.29145902
104	0xbe83f83e	-0.2577533
105	0xbe82d342	-0.25551802
106	0xbd84ce70	-0.06484687
107	0xbee24c22	-0.4419871
108	0x3d4f2234	0.050569728
109	0xbef0c63e	-0.47026247
110	0xbec650e2	-0.38733584
111	0xbee0d1f9	-0.43910196
112	0xbf22cb3d	-0.63591367
113	0xbeaabad1	-0.33345655
114	0xbea0a84c	-0.313784
115	0xbe8854c2	-0.26627165
116	0xbe864842	-0.26227003
117	0xbd992244	-0.07477239
118	0x3eb642df	0.35597894
119	0x3e8daf5b	0.27672848
120	0xbe2cf07b	-0.16888611
121	0xbeb071c3	-0.34461793
122	0xbdff301b	-0.12460347
123	0x3e9394ca	0.28824455
124	0x3e8f45f0	0.27983046
125	0x3e224d5a	0.1584982
126	0x3ed196f1	0.40935472
127	0xbe36951c	-0.17830318
128	0xbde3e5ac	-0.11127791
129	0x3ce7fcb3	0.028318739
130	0xbddcbc76	-0.107781336
131	0x3e3cba91	0.18430544
132	0x3e23bad8	0.15989244
133	0xbdcea44c	-0.10089931
134	0xbe508a09	-0.20365156
135	0xbd010333	-0.03149719
136	0xbdc98bcd	-0.09841118
137	0xbdc05f18	-0.09393138
138	0xbe4b9dea	-0.19884458
139	0x3e94755e	0.28995794
140	0xbd3a9518	-0.045552343
141	0xbe1d7fe2	-0.15380815
142	0x3de6af43	0.11263897
143	0x3e0d0840	0.13772678
144	0x3b3dff75	0.0028991376
145	0x3cf6a6a8	0.030108765
146	0xbe1f8aaa	-0.1558024
147	0x3d4ad5da	0.04952035
148	0x3d44cdeb	0.04804794
149	0xbdb377c1	-0.087630756
150	0x3d2a34f3	0.041554403
151	0x3ea2863f	0.31743047
152	0x3ca054db	0.019571712
153	0x3e60cf28	0.21954024
154	0x3dd6f88f	0.104966275
155	0xbccad664	-0.024760433
156	0xbe65b6c3	-0.22433
157	0x3df50eb6	0.119656965
158	0xbe7da705	-0.24770744
159	0x3d838924	0.06422642
160	0xbd90c2ee	-0.0706843
161	0x3dbb1bea	0.091361836
162	0xbd6a5880	-0.057213306
163	0x3e055705	0.13021477
164	0xbcf39925	-0.029736111
165	0xbe91d414	-0.28482115
166	0xbe6bc0ce	-0.23022768
167	0xbe152ec8	-0.14568627
168	0xbe54ea22	-0.2079244
169	0xbd9471ac	-0.07248244
170	0xbe161283	-0.14655499
171	0x3d41ed08	0.04734519
172	0x3dcc0825	0.09962491
173	0xbdc35461	-0.095375784
174	0xbdef6e52	-0.11690964
175	0xbda80aed	-0.08205209
176	0xbdcfe6da	-0.10151453
177	0x3c59cd4c	0.0132935755
178	0xbd7da0d8	-0.06192097
179	0xbcdc2f7b	-0.02687811
180	0xbdb970ce	-0.09054719
181	0x3ce7fc73	0.02831862
182	0xbda21743	-0.07914593
183	0x3dac8abc	0.08424899
184	0x3e667578	0.22505748
185	0x3d3568a9	0.044289265
186	0xbe4ca952	-0.19986466
187	0x3dad5e8e	0.084653005
188	0x3dbf7bdd	0.09349797
189	0xbdecc73d	-0.11561439
190	0x3e87baaf	0.26509616
191	0x3e8b6e17	0.2723243

gru.bias_hh_l0 f4 [192]
0	0x3e2b0c52	0.16703919
1	0x3e176b7e	0.14787099
2	0xbdd0a58f	-0.10187828
3	0x3d744759	0.059638355
4	0x3eb70318	0.35744548
5	0x3ecd1ff3	0.40063438
6	0xbc60dca7	-0.013724483
7	0xbd0db2fb	-0.034594517
8	0xbe250eaf	-0.16118883
9	0xbdc80f05	-0.0976849
10	0x3d6fe9c4	0.058572546
11	0xbd91a17f	-0.07110881
12	0xbd205731	-0.039145652
13	0x3e0b1dae	0.1358554
14	0xbe474f1b	-0.1946377
15	0x3d9881f3	0.07446661
16	0x3e2ab161	0.16669227
17	0x3daaa52a	0.08332284
18	0x3e9a72c4	0.30165684
19	0x3da39f87	0.07989412
20	0xbd89f9a9	-0.06737072
21	0x3e27a954	0.16373187
22	0x3d9b7047	0.075897746
23	0xbccef011	-0.025260957
24	0x3dbe70c5	0.09298853
25	0xbdf07e84	-0.11742881
26	0x3d3bf3e3	0.045886885
27	0x3ca79414	0.020456351
28	0x3e235922	0.1595197
29	0x3dccdebc	0.10003421
30	0x3ed8d3ed	0.42349187
31	0xbbab437d	-0.005226551
32	0x3e42a9f4	0.19010144
33	0x3d637b9d	0.05553781
34	0x3ea8f5a6	0.32999915
35	0xbdcdd90e	-0.100511655
36	0xba033bd8	-0.0005006171
37	0x3c5fbb55	0.013655503
38	0xba97c036	-0.0011577669
39	0xbd6cde49	-0.057829175
40	0x3d3939ca	0.045221128
41	0x3bbd3fde	0.005775436
42	0x3e41571f	0.1888089
43	0x3df0e71f	0.11762833
44	0x3e1e68a3	0.15469603
45	0xbdd995f2	-0.10624303
46	0xbe8d0f42	-0.27550703
47	0x3e13e006	0.14440927
48	0x3e613316	0.21992144
49	0x3f047841	0.5174599
50	0x3dcde906	0.10054211
51	0xbd36ffde	-0.044677608
52	0xbcc82ce1	-0.024435462
53	0xbce02ffd	-0.027366633
54	0xbbfdb106	-0.00774205
55	0x3e05fe40	0.1308527
56	0xbd81da1f	-0.063404314
57	0x3e20a815	0.15689118
58	0x3defc1f7	0.11706918
59	0xbcff3b0a	-0.031156082
60	0x3dafb36a	0.085791424
61	0x3dc970e0	0.09835982
62	0x3e0ef2ba	0.1395978
63	0x3d980f83	0.074248336
64	0xbf10770c	-0.5643165
65	0xbeee0240	-0.46486092
66	0xbf0b8e6c	-0.54514194
67	0xbe954b5b	-0.29159054
68	0xbd6dd478	-0.058063954
69	0x3e722fd4	0.23651057
70	0xbe213ed7	-0.15746628
71	0xbe44a2d1	-0.19202735
72	0xbef26110	-0.47339678
73	0xbf1a2978	-0.60219526
74	0xbd52351e	-0.051320188
75	0xbded3248	-0.11581856
76	0x3d8a1c0a	0.06743629
77	0xbed9d9e2	-0.42549044
78	0x3d6233a5	0.055225033
79	0x3e8b37c9	0.27190998
80	0xbf359aa5	-0.70939094
81	0xbf75048a	-0.9571005
82	0x3df77f87	0.12084871
83	0xbecb9a0f	-0.39765975
84	0xbc8c8c0e	-0.017156627
85	0xbf16b385	-0.58867675
86	0xbe512fd8	-0.20428407
87	0xbc812b67	-0.015767766
88	0xbe03dfb0	-0.12878299
89	0xbdae11bd	-0.08499477
90	0xbeb8a499	-0.36063078
91	0xbe973f5a	-0.2954052
92	0x3e03fd93	0.128897
93	0x3e449797	0.19198452
94	0xbda25b33	-0.07927551
95	0xbe6e4b60	-0.23270941
96	0xbf5a6b3b	-0.8531987
97	0xbdd82501	-0.10553933
98	0xbedde2c4	-0.4333707
99	0x3d83bf61	0.06432987
100	0x3df9e9ad	0.12202773
101	0xbe72b663	-0.23702388
102	0xbee938ea	-0.45551234
103	0xbe878716	-0.2647025
104	0xbec4ee5c	-0.38463104
105	0xbe0435d5	-0.1291116
106	0xbe6b7842	-0.22995093
107	0xbeba33f1	-0.36367753
108	0x3e3f7ada	0.18699208
109	0xbeaae375	-0.3337666
110	0xbf14bde0	-0.58102226
111	0xbeeeee97	-0.46666405
112	0xbee91766	-0.45525664
113	0xbe3ecefc	-0.18633646
114	0xbe98434b	-0.2973884
115	0xbee140ed	-0.43994847
116	0xbe186b7b	-0.1488475
117	0x3dec9ea6	0.11553697
118	0x3eb2365c	0.34807098
119	0x3e36f192	0.1786559
120	0xbd603aad	-0.054743458
121	0xbec5cba9	-0.38631943
122	0x3dc8598a	0.09782703
123	0x3dbfde6f	0.09368598
124	0x3e5c89c1	0.21536924
125	0x3df27de8	0.11840421
126	0x3eddbacb	0.43306574
127	0xbdb62588	-0.08893877
128	0xbdcdf368	-0.10056192
129	0xbd132619	-0.035925005
130	0xbe860a7a	-0.26179868
131	0xbd817c10	-0.06322491
132	0x3eb19c3d	0.34689513
133	0xbe65a28a	-0.22425285
134	0xbdcd19a1	-0.10014654
135	0xbdfd968f	-0.123822324
136	0xbc3b1818	-0.011419319
137	0x3d8d73ad	0.06906829
138	0xbdc43e9f	-0.095822565
139	0x3d40d56d	0.04707854
140	0x3dedf600	0.116191864
141	0xbd8b8d7b	-0.06814095
142	0xbd984cfa	-0.07436557
143	0xbc46d403	-0.0121355085
144	0x3e0130cf	0.12616275
145	0xbdde37ba	-0.10850473
146	0xbdd3f83a	-0.1035008
147	0x3e535661	0.2063842
148	0xbd93db57	-0.0721957
149	0x3d802465	0.06256942
150	0x3e30454b	0.17213933
151	0xbdb22147	-0.086977534
152	0xbe1b294f	-0.15152477
153	0x3e10a3eb	0.1412503
154	0x3de3e893	0.111283444
155	0x3dac17cc	0.084029764
156	0xbd6fef98	-0.058578104
157	0x3e27b51b	0.1637768
158	0xbeafac5a	-0.3431118
159	0x3d8dbc26	0.06920652
160	0x3dfefd1f	0.12450623
161	0x3c5fe6e0	0.013665885
162	0xbde6383c	-0.112411946
163	0x3e284fab	0.16436641
164	0xbdf6955f	-0.12040209
165	0xbbc9d520	-0.0061594397
166	0x3de920ab	0.11383184
167	0xbd8ed43e	-0.06974076
168	0xbdfc3764	-0.123152524
169	0x3d9126b6	0.07087462
170	0x3e2e9212	0.17047909
171	0x3e8c4d16	0.27402562
172	0x3df886f4	0.12135115
173	0xbd829569	-0.06376154
174	0x3da2ab38	0.07942814
175	0x3d6cddca	0.057828702
176	0x3e4fe629	0.20302643
177	0xbdd5bf9a	-0.10436936
178	0xbde7a766	-0.113112256
179	0x3d8655d9	0.06559343
180	0xbe6f6a86	-0.23380479
181	0x3e317fec	0.17333955
182	0xbe3c71ee	-0.18402836
183	0xbc68a934	-0.014200497
184	0x3db9168d	0.09037504
185	0x3dedc500	0.116098404
186	0xbdf0146e	-0.11722647
187	0xbdbdb7b2	-0.09263553
188	0x3e15911d	0.14606138
189	0xbe9826fd	-0.29717246
190	0x3e87e32f	0.26540515
191	0x3b36af88	0.002787562

gru2out.weight f4 [5, 64]
0	0x3f0ac2f2	0.5420371
1	0x3ef0616c	0.46949327
2	0x3e7a236b	0.24427573
3	0x3d5e9506	0.05434134
4	0xbe72a07d	-0.23694034
5	0x3de7b704	0.11314204
6	0xbdbd48ed	-0.09242425
7	0x3c609bb9	0.013709002
8	0xbf018e61	-0.5060788
9	0x3ddb6c46	0.10714011
10	0x3eaf687a	0.34259397
11	0xbea18934	-0.3154999
12	0xbd670bfe	-0.05640792
13	0x3f698319	0.91215664
14	0xbe0048ca	-0.12527767
15	0xbeb6ec22	-0.3572703
16	0xbed61b54	-0.41817725
17	0x3f2ccbae	0.6749829
18	0x3e72f0d4	0.23724681
19	0xbed062c2	-0.40700346
20	0xbbc41965	-0.0059844726
21	0xbe9d6237	-0.30738994
22	0xbe927d66	-0.28611296
23	0x3ea64ad0	0.32478952
24	0x3df18651	0.11793197
25	0xbe0a6404	-0.13514715
26	0xbf364b27	-0.71208423
27	0xbeaa45a9	-0.3325627
28	0x3e8bc580	0.27299118
29	0xbeb50dcc	-0.3536209
30	0x3e337531	0.17525174
31	0xbdb1ef70	-0.08688247
32	0xbe947236	-0.28993386
33	0x3e617f09	0.22021116
34	0x3f7f641c	0.9976213
35	0xbe1cc75a	-0.15310422
36	0x3eeea8e7	0.46613237
37	0x3ee59cb1	0.4484611
38	0x3e857288	0.26063943
39	0x3df236cd	0.11826859
40	0x3f0dbf16	0.553697
41	0x3e8f1c9b	0.27951512
42	0xbe124b8d	-0.14286633
43	0xbf699fc3	-0.912594
44	0xbf3b965f	-0.73276323
45	0x3e1f0fb2	0.15533331
46	0x3ca6a086	0.020340215
47	0xbdd41f07	-0.103574805
48	0xbef2c87d	-0.47418585
49	0x3e1573b0	0.14594913
50	0xbd7d803d	-0.061889876
51	0xbc309a64	-0.010778997
52	0xbdde795d	-0.10862992
53	0xbe52a016	-0.2056888
54	0x3e9fec60	0.31235027
55	0xbe9f8642	-0.31157118
56	0xbe864b77	-0.2622945
57	0xbea5cfcb	-0.32385096
58	0x3ec4ce86	0.38438815
59	0x3e82dd07	0.25559255
60	0xbe94a4bd	-0.29031935
61	0x3e93f796	0.2889983
62	0xbec4bcfb	-0.3842543
63	0xbdc1d2f3	-0.094640635
64	0x3db4e2dc	0.088323325
65	0xbe170bc7	-0.14750586
66	0x3dd5ca2f	0.10438954
67	0xbd8ee9c3	-0.0697818
68	0xbd8275c0	-0.06370115
69	0xbd8f3fcd	-0.06994591
70	0x3e2bfdb6	0.16796002
71	0xbde91b7e	-0.11382197
72	0xbc360fd5	-0.011112173
73	0x3efe3676	0.49650925
74	0x3e4e5337	0.20148931
75	0x3ea67ead	0.3251852
76	0xbdc57044	-0.096405536
77	0xbe000f94	-0.12505943
78	0xbde0631a	-0.10956402
79	0xbd1a6868	-0.037697226
80	0xbd036e8d	-0.03208785
81	0xbe2a71bf	-0.16644953
82	0x3c708ff9	0.014682763
83	0x3cb06a9c	0.02153521
84	0x3e648661	0.22316886
85	0x3e19efe3	0.15032916
86	0xbbf1b92f	-0.007376812
87	0x3dcb8fc6	0.09939532
88	0x3ea4b1f5	0.3216702
89	0x3c22868c	0.009919774
90	0xbd8cb911	-0.06871236
91	0x3eb78f52	0.35851532
92	0xbcb795fa	-0.022410382
93	0x3d765ef4	0.060149148
94	0x3d1de070	0.03854412
95	0xbcde38d0	-0.0271267
96	0x3db467f2	0.088088885
97	0xbdff46b5	-0.12464658
98	0xbe0c8be4	-0.13725239
99	0xbd0b7f37	-0.03405687
100	0x3d6006bd	0.054693926
101	0xbe144155	-0.14478047
102	0xbe805167	-0.25062105
103	0x3e4a27d6	0.19741759
104	0xbba37abd	-0.004988997
105	0xbe8152f3	-0.25258598
106	0x3e27fdc7	0.16405402
107	0x3eab4b68	0.33455968
108	0x3d3b1952	0.045678444
109	0xbeae18bc	-0.34003246
110	0x3e63c469	0.22242893
111	0x3c6143e4	0.013749097
112	0x3e08d655	0.13363011
113	0xbea21d67	-0.31663057
114	0x3e2a1b9e	0.16612098
115	0xbe05bc00	-0.13059998
116	0x3d26ddf9	0.040739033
117	0x3e7d417d	0.24732013
118	0xbdfc55b7	-0.12321036
119	0x3e513a98	0.20432508
120	0xbd1f9453	-0.038959812
121	0xbe24e4ee	-0.16102955
122	0xbdfadba3	-0.12248924
123	0x3d88027d	0.066410996
124	0x3df78743	0.12086346
125	0x3ba1b99a	0.0049354555
126	0x3d73622b	0.059419792
127	0xbda8ab9b	-0.08235856
128	0xbd7f7e0d	-0.06237607
129	0xbe4399a5	-0.1910158
130	0x3e5de80f	0.21670555
131	0x3c991ba0	0.01868993
132	0x3eca9a77	0.39570972
133	0xbe26484c	-0.16238517
134	0xbb0678d4	-0.0020518797
135	0x3da74ceb	0.08168968
136	0xbe463319	-0.1935543
137	0x3c97d095	0.018532077
138	0xbe3247bb	-0.17410176
139	0xbe8099ed	-0.25117436
140	0xbde0c782	-0.10975553
141	0xbe592a12	-0.21207455
142	0x3d690023	0.056884896
143	0xbb6c9861	-0.0036101567
144	0x3e573f8f	0.2102034
145	0xbccc214e	-0.024918225
146	0xbd826b39	-0.06368107
147	0x3e6bc1f1	0.23023202
148	0xbe93f4e2	-0.28897768
149	0x3c717719	0.014737868
150	0xbcdd2382	-0.02699447
151	0xbe05230f	-0.13001655
152	0x3ec9c282	0.3940621
153	0x3da795d6	0.08182876
154	0x3e34e883	0.17666821
155	0xbe0bf10c	-0.13666171
156	0x3d6e5e65	0.05819549
157	0x3c87bbe8	0.016569093
158	0xbe90c162	-0.2827254
159	0x3f001846	0.5003704
160	0x3ce81a2a	0.028332788
161	0xbd9d6a3f	-0.076862805
162	0xbd9c55d6	-0.076335594
163	0xbe0c582b	-0.13705508
164	0xbdb0b5c6	-0.086284205
165	0xbcd1a7da	-0.025592733
166	0xbe95f630	-0.2928939
167	0x3e866225	0.26246753
168	0xbe59fe9a	-0.21288529
169	0xbd708f64	-0.058730498
170	0x3d21c7c4	0.039497152
171	0x3c22dd7b	0.0099405
172	0xbeafa854	-0.34308112
173	0x3e0d56bc	0.13802618
174	0x3eb88a14	0.36042845
175	0x3e83aacd	0.25716248
176	0xbcaf09c8	-0.021366969
177	0x3cbf1c76	0.023329
178	0xbecc7df3	-0.39939842
179	0x3dec44db	0.11536571
180	0xbed7cc6b	-0.42148146
181	0xbd25fd83	-0.04052497
182	0xbde3c636	-0.1112179
183	0xbadb8099	-0.0016746699
184	0x3c8ecd7c	0.017431967
185	0x3e8a6144	0.27027333
186	0xbe80d210	-0.25160265
187	0xbe5272cb	-0.20551603
188	0x3e886ac6	0.26643962
189	0xbe03e02c	-0.12878484
190	0x3e07144c	0.13191336
191	0xbe2f10e8	-0.17096293
192	0xbe83414c	-0.25635755
193	0x3dd575c1	0.104228504
194	0xbea6f9e8	-0.32612538
195	0x3bef1ac1	0.0072968905
196	0xbdc73c3e	-0.09728287
197	0xbdb788a6	-0.089616105
198	0x3d9f9f8d	0.07794104
199	0xbd019b77	-0.031642403
200	0x3e6d7309	0.23188414
201	0xbee7cd37	-0.45273754
202	0xbe84ef5f	-0.25963876
203	0x3e573c80	0.21019173
204	0xbd8444dc	-0.064584464
205	0xbdc37161	-0.0954311
206	0x3e0c27f5	0.13687117
207	0x3e4c481c	0.19949383
208	0xbd53aa22	-0.051675923
209	0xbdce422c	-0.10071215
210	0x3bb8265e	0.005619808
211	0xbe1dc721	-0.15407993
212	0x3e0acf36	0.13555607
213	0x3d863d32	0.06554641
214	0x3e2f651e	0.17128417
215	0xbd73eaa7	-0.059549954
216	0xbece3fe2	-0.40283114
217	0x3e7caf5e	0.24676272
218	0x3e6306ad	0.22170515
219	0xbe839384	-0.25698483
220	0x3c3c15ee	0.011479838
221	0x3e408bb9	0.188033
222	0xbca09585	-0.019602546
223	0xbddf4c9a	-0.109032825
224	0x3d5e4813	0.054267954
225	0xbe0199c5	-0.12656315
226	0x3e7133d8	0.23554933
227	0x3e358696	0.17727122
228	0xbe4dc1ce	-0.20093462
229	0x3d43fe88	0.04785016
230	0x3d9ea8af	0.077470176
231	0xbf031b27	-0.51213306
232	0xbe03648e	-0.12831327
233	0xbd3bb02f	-0.04582232
234	0xbe3b918c	-0.1831724
235	0x3d6f51ca	0.05842761
236	0x3f086652	0.5328113
237	0x3d65037c	0.055911526
238	0xbee1a8cf	-0.44074103
239	0xbe8c398c	-0.27387655
240	0x3deb6317	0.11493509
241	0x3eecc803	0.46246347
242	0x3e280194	0.16406852
243	0xbdf07e74	-0.11742869
244	0x3d67250d	0.05643182
245	0xbe32b71f	-0.17452668
246	0xbe4733a4	-0.19453293
247	0xbc991f5b	-0.01869171
248	0x3d3b7849	0.04576901
249	0xbd7d1d6f	-0.06179565
250	0x3d11310e	0.035447173
251	0xbe15d8eb	-0.14633529
252	0xbd33bf81	-0.043883804
253	0x3c30af90	0.010784045
254	0x3c9bdf48	0.019027367
255	0x3e871e38	0.26390243

gru2out.bias f4 [5]
0	0xbe58c9e1	-0.2117076
1	0xbbcbe583	-0.0062224283
2	0x3e6e02bf	0.23243235
3	0x3d54851d	0.05188476
4	0xbe20b0c4	-0.1569243
