try5_realCTCFtrimmed1/100bp_1_positive_trim100_noimplant_pretrainedDisc.pth (torch, 495373 bytes, 20 tensors)

embeddings.weight f4 [5, 16]
00000000: 239d d03f 740e 8dbf c96b 19bd a0b6 ba3f
00000010: 7bf6 2cbf c554 353f 7ed4 e03e 0385 8e3f
00000020: bffc a73f 868a d1bf b84d 14bf 1fee 94be
00000030: 0f80 21bf baa4 d63f 3c27 c53f e495 b6bf
00000040: 7b2a 2a3f 0acc 97bf c5db 293d 4315 4f3f
00000050: 9299 983e 211d c3bf a009 ecbf 7d61 923e
00000060: 96f6 f03e aa96 853e e100 40bf 1727 5dbe
00000070: 6454 61bf b2d2 c2bf e7ff c03f 8ec3 82bf
00000080: 728c 25bf 1f0c fa3f 473c f5bf 2554 0b3f
00000090: 4931 94bf 50ea a1bf 136d b33f b064 ecbf
000000a0: 3e97 8ebf 78ce 5cbf cea3 0e3e 48ef 423e
000000b0: 20cc 1f3f 81f4 b7bf 8e55 a3bb 5656 673e
000000c0: e56d 5b3f c74a ea3b 19e1 94be 9cfa e4be
000000d0: 3dab 373f a4d1 edbf b20e c3bf 44a0 ac3f
000000e0: 88ce 7abd 6a44 f33f 7164 8fbf dd7b 303f
000000f0: cb86 1abf 0a58 193f d89f 943e 2833 4c3f
00000100: 963f 96bf 4acb cd3f 16ac bf3d d79e 27be
00000110: 86f7 f7be 3493 07bf 0851 c7be c20d 513e
00000120: a9d2 683f 4606 703e bc11 f03e 2909 4fbf
00000130: 6c1c 80be a50c 06bf 31e4 873f d8bd 443f
1.6297954 -1.1020036 -0.037456308 1.4586983 -0.675636 0.70832473 0.4391212 1.1134342
1.3124007 -1.6370399 -0.5793109 -0.29087922 -0.63086027 1.676902 1.5402598 -1.4264493
0.6647107 -1.1859143 0.041469354 0.8089182 0.29804665 -1.5243264 -1.8440437 0.28590003
0.4706313 0.2609151 -0.7500134 -0.21596943 -0.88019395 -1.5220549 1.5078095 -1.0215929
-0.6466743 1.9534949 -1.915902 0.5442527 -1.1577541 -1.2649632 1.4017662 -1.8468227
-1.1139905 -0.86252546 0.13929674 0.19036591 0.62420845 -1.4371492 -0.004984564 0.22591528
0.8571456 0.0071500274 -0.29077986 -0.4472245 0.71745664 -1.8579602 -1.523886 1.3486409
-0.06123212 1.9005253 -1.1202527 0.68939 -0.6036193 0.5989996 0.290282 0.7976556
-1.1738155 1.6077664 0.09358995 -0.16369186 -0.48431033 -0.5295899 -0.3892901 0.20415404
0.9094644 0.23439893 0.4688853 -0.8087335 -0.25021684 -0.52363044 1.0616513 0.7685218

gru.weight_ih_l0 f4 [192, 16]
00000000: fa7a 2b3c 92cf 0f3d 3eec f1bd 660f b2bc
00000010: a18c a2bd d980 473d 0686 4c3e b7ef 8ebc
00000020: 3404 07be 4836 cdbd 01eb 17bd e35b 4a3d
00000030: 1217 073e 3ce0 883d de14 a8bd 0f44 bf3d
00000040: fc72 0d3e b11b 15bc 04c4 a93c 4536 9fbc
00000050: c7fb bb3d 83d2 91bd 121f a13d b004 31bd
00000060: 9d2e e13d 9400 f53c 0d70 a8bd fc0f cabc
00000070: a399 b9bb 698f 933d 78d2 f43c d6c2 0b3d
00000080: 2f1b b1bd 6f57 1d3e b41f a0bd 07c8 6cbd
00000090: ce37 90bd b8cb 263d 29a0 ba3d 682c 093d
000000a0: 0d4f ffbb 8a75 65bd 08c9 b23c d35a a8bc
000000b0: a37b 48bc c9f2 a83d cf30 48bd cd28 29bd
000000c0: d06f 93bb dce0 b63d e061 1bbd ecdb 413d
000000d0: 61f8 b53d ee0d 7bbd 751f 5ebd fafc 033d
000000e0: 0326 38bd 34e3 423d 9935 26bd 8649 eb3d
000000f0: d179 4fbd 87ef 1ebd ace4 833d f6f7 1d3e
00000100: 9fc9 3ebd 9312 403e 8a79 5abe d204 753e
00000110: 487f 2abe ac5f 913a c811 1abd c88f d0bd
00000120: 0a74 abbd e4ed e4bd 3d3c a8bc 90d6 e1bc
00000130: 3918 dbbc 59d8 f1bd 17e6 46bd 79c1 9a3d
00000140: 47e3 c93d 7029 243d 7dd7 bd3d d782 49bc
00000150: b804 ef3c cae8 053c ac9b d1bc 906e efbc
00000160: 22c5 2dbc 9f90 663d df5e a6bb 87b7 8f3c
00000170: db78 2abe 889b 3cbd 831b df3d fba9 ac3d
00000180: da68 cabd 97c6 253d 0385 54be 9116 4f3d
00000190: 3d62 32be 982a d33c 047d 843e 7500 35bd
000001a0: 3610 cbbd c74f a3bd d4bc 59bd 9b33 e9bd
000001b0: db3e 743e 7128 16be fead 0ebe e2d3 ba3d
000001c0: 13ae fd3d 7d50 cdbd fd09 0d3e 1407 3cbe
000001d0: ce1f c1bd 15e6 0d3e dc06 943d 173f d63d
000001e0: 3859 80bd f8cc 91bd cdf8 e1bd a1d1 2f3d
000001f0: da98 8c3d f673 d13d 544a debd 445e b53d
00000200: 9b9d 46bd a7d9 f83d 39f5 21bd 44d8 003e
00000210: ef56 afbd dd81 32be 939d e4bd f944 d4bd
00000220: 9130 e7bd b9f6 eabd 9012 1ebe c769 17be
00000230: 7328 aebd fac8 f9bb 9c34 6ebc 6cef 663d
00000240: 7259 8f3c 4ca1 cabd 2a73 c5bc 42e9 323d
00000250: e56f 3a3e 9a09 08bd 76b9 d5bc e82a 063e
00000260: b0e6 10be 1306 dabc 4529 19bd 1ff1 1f3e
00000270: b385 16bc 8866 b93c 4e61 263c 6fde 323e
00000280: 0027 33be 272d 083e e542 9ebc 34bc 633e
00000290: 1369 51be 3547 8a3c 9e58 883d 114f 10be
000002a0: 3f7e e6bd ee0a 73be 8bfb 923c 3fdb 1dbd
000002b0: 8e4e b03d 1767 0cbd 3600 5a3c 34dd 123d
000002c0: 1230 fb3c 210a 863d be82 f53c 72a7 e23c
000002d0: 4ee2 a8bd f23e bcbc 4804 0c3d 4d20 eabd
000002e0: 21d0 cd3c d80a a23d b531 c83d 8235 a7bc
000002f0: 3311 adbc 0dcd a5bd 6b8d 283d 0c48 04bd
00000300: 2404 7d3d 30a7 93bd bdbf 70bd ff8d 93bc
00000310: 91a3 0c3e fda2 aebd 45bf 8abb fed3 4cbb
00000320: cdc2 a5bd 6259 193e 5aed 8b3c ae0e 0abc
00000330: 7e05 f2bd af59 edbd 0356 8f3d 236b d63d
00000340: a86d 953b 315f 313e 1b3a 333d c5f9 89bd
00000350: d30d 1cbe 6756 653d 1070 aebd d9e2 64bd
00000360: 47b9 fbbd eddc 7bbd 0862 df3d 1943 cabc
00000370: febb 4e3d 943c 293e b862 d6bd 70c2 313e
00000380: e3d6 09bc 514b 033e 2eeb d4bc 97f8 4f3d
00000390: 9066 13be 1a93 9c3d ee2e 643e 7f4a abbc
000003a0: 866b 1d3c 696e 2dbb fc17 563e 32ad 1dbc
000003b0: 9dde b4bb 1c82 863d 3580 01be 585c 913c
000003c0: bf10 3abd 4adb 013d ca09 d5bd ea05 3a3d
000003d0: ff7d d6bd 9d5d d0bd 306c 0e3e 3671 94bc
000003e0: 3c33 99bd 3ae7 0ebe 2b7b 673c a63c aebd
000003f0: 7511 243d 5488 0cbe 9514 5d3c a31b 053e
0.010466332 0.035110064 -0.11812638 -0.021735858 -0.07936979 0.048706863 0.19973001 -0.01744829
-0.13185197 -0.10020119 -0.03708935 0.049404036 0.13192394 0.06683394 -0.08207105 0.09339153
0.13813394 -0.00910084 0.02072335 -0.019435057 0.09178882 -0.0712023 0.07867254 -0.04321736
0.10995219 0.029907502 -0.08224497 -0.024665825 -0.005664067 0.07205088 0.029885516 0.034121357
-0.08647763 0.15365385 -0.07818547 -0.05780795 -0.07041894 0.040721625 0.091125794 0.033489615
-0.007791406 -0.056020297 0.021824375 -0.02055112 -0.012236509 0.082494326 -0.048874673 -0.041298676
-0.004499413 0.08929607 -0.037935138 0.047328874 0.08885265 -0.06129258 -0.05422922 0.03222368
-0.044958126 0.04757996 -0.04057846 0.11488633 -0.050653283 -0.03880265 0.064401 0.15426621
-0.046579 0.18757086 -0.21335426 0.2392762 -0.16650116 0.0011091135 -0.037614614 -0.10183674
-0.08371742 -0.111781865 -0.020536536 -0.027568132 -0.026744949 -0.11808843 -0.048559275 0.07556433
0.09857803 0.04007858 0.09269617 -0.012299261 0.029177055 0.008173177 -0.025586925 -0.029227525
-0.010606082 0.056290265 -0.0050772275 0.017543567 -0.16647665 -0.046046764 0.10893919 0.08430859
-0.0988328 0.040472593 -0.20753865 0.05055863 -0.17420287 0.025777146 0.2587663 -0.04418989
-0.09915201 -0.07974201 -0.053158596 -0.11386796 0.23852102 -0.14663865 -0.1393356 0.09122445
0.12386718 -0.100251175 0.13773341 -0.18362075 -0.094298944 0.138573 0.07227871 0.10461252
-0.06267017 -0.07119173 -0.11033783 0.042924527 0.068650916 0.10227196 -0.10854021 0.0885587
-0.048490148 0.12150889 -0.039540503 0.12582499 -0.08561503 -0.17432351 -0.111628674 -0.10364718
-0.1128856 -0.1147284 -0.15436769 -0.14786445 -0.08503809 -0.007622835 -0.01453891 0.056380674
0.017498706 -0.09894046 -0.024102766 0.043679483 0.18206747 -0.03321228 -0.026089411 0.13102305
-0.141505 -0.026614225 -0.037392873 0.15619324 -0.00918715 0.022631899 0.010155035 0.17467664
-0.17495346 0.13298474 -0.019319007 0.22239763 -0.20450239 0.016879657 0.066575274 -0.14092661
-0.11254548 -0.23734638 0.01794221 -0.038539167 0.08608733 -0.034278 0.013305714 0.035855487
0.03066257 0.06544901 0.02996957 0.027667735 -0.08246289 -0.022979233 0.03418377 -0.11431942
0.025123658 0.079122245 0.09775106 -0.020411257 -0.021126365 -0.08095751 0.04115049 -0.03229527
0.061771527 -0.07209623 -0.058776606 -0.018012045 0.1373427 -0.08527181 -0.004234227 -0.0031254287
-0.08093796 0.14975503 0.017080951 -0.0084263515 -0.11817454 -0.115893714 0.06998827 0.104696535
0.004560191 0.17321469 0.043756586 -0.06737093 -0.15239649 0.055990603 -0.08517468 -0.0558804
-0.12291198 -0.061489988 0.1090737 -0.024690198 0.050472252 0.16527015 -0.10468048 0.17359328
-0.008413049 0.128217 -0.025991049 0.050774183 -0.14394593 0.07645245 0.22283527 -0.020909546
0.009608155 -0.0026463515 0.20907587 -0.0096238125 -0.0055197016 0.06567785 -0.12646563 0.017744228
-0.045426127 0.03170327 -0.10402258 0.045415796 -0.104732506 -0.10174105 0.13908458 -0.01812039
-0.07480475 -0.13955393 0.014128487 -0.085076615 0.04005571 -0.1372388 0.013493677 0.12998824

gru.weight_hh_l0 f4 [192, 64]
00000000: 4573 643d 1db5 f13d 43bb ec3d 3a34 be3d
00000010: 39e0 f6bd e6d2 ecbd 6f29 5e3e b030 a5bc
00000020: abf2 49bd 030d bd3d 3b80 f23d 0a8c e53d
00000030: a942 3d3e d79e dabb bd24 ccbd 8c5c ae3d
00000040: f070 69bd 6258 8c3c a75d 243d f6ac e33c
00000050: f2f1 aa3d a603 d43c 1689 ed3c ab69 253b
00000060: 76cc bfbd 0396 b0bd bba7 62bd 95e5 073d
00000070: c2a1 09bd 0701 32be 675d c3bd a891 793d
00000080: babe 0bbc 8c8b 173e a59b 91bd 1099 23bd
00000090: 0551 8cbd 53b8 e43d e3ae 9cbc e411 07be
000000a0: d8ad 273e c4ca 2d3e dfb7 41be 4c0c d73c
000000b0: 50d9 193e 88c9 0abd 72bd 3e3c 3e70 17be
000000c0: eb8e f73d 8a68 713d 9d42 8abd e005 363d
000000d0: bdfe b03b 200d 653d 2495 f93c 7aa7 9b3d
000000e0: 512c 2cbe 3d22 aebd ad24 8a3d 6858 3bbc
000000f0: bf39 fe3d 99e9 593d ea00 213d b16e 013d
00000100: 7373 28be fc0e 703d 981f 24be 696b f3bd
00000110: 5b47 fe3d 8f0f 373d 6e99 c53d b26d cfbd
00000120: a5f5 063e 5103 c7bd 523c d63d 34bc 013d
00000130: f662 8dbd cb11 063d 9f35 c2bd 21c2 03bd
00000140: 7a9d 4fbd 8142 8b3d 93e2 143c c1e4 05bd
00000150: 9747 4f3d 79c1 a23d 3fb0 14be f4eb c03b
00000160: cde1 593d 9d44 c03c 7be2 02bd 2554 cc3d
00000170: 2527 8fbc 1d06 963d 3753 7a3d 92e5 de3d
00000180: 7b64 0c3e 5c46 ed3c 0ebf 523d 0787 c9bd
00000190: d8f4 ddbd ec8d 543a df8c 683d 48b5 46bd
000001a0: 3a10 99bb e38b 0e3d 2dc2 c3bd a2f1 063e
000001b0: 54ed 1cbe 63ca 4e3d e5fc a33d 043d 33bd
000001c0: 39c2 cd3d 961f 0e3d c8d0 97bd 1301 d7bd
000001d0: 5b64 fb3d fb71 1abe 397b 56bd dd93 9cbc
000001e0: 78dd 313e d495 a23d 43f7 c03d 73b6 27bd
000001f0: f4aa 8cbb 4417 8e3d 03c6 9dbd 15c3 053e
00000200: da8c d23d 906b 9c3d c2c3 07bd c78b b73d
00000210: a6a6 053d cd2c 6a3c f302 03be 6d10 bd3d
00000220: 0cd3 afbd d115 03bd a0e1 743c 29c4 18bd
00000230: e244 06bd 1253 04be 8753 6b3d 63ea 983d
00000240: 2f40 25be 0fe8 f33d 1492 d13d f8ff dfbc
00000250: ff44 ae3d 3873 a23c 41ca 9fbd 8582 85bd
00000260: c4c2 c23c 4a2a cb3b 3548 1d3d 607d 9b3c
00000270: f14c c5bd 25e2 e63b f925 00be 0fe1 cd3d
00000280: 4e8f f6bb d3c3 53bd f027 9a3d 2ba2 c5bd
00000290: 7817 83bd 7745 053e 94cc 81bd f4e0 f0bc
000002a0: 0a84 623d e9f9 d6bc 90c9 0abe 2980 f0bd
000002b0: 4baa a53d fc70 403c 8830 753d a6d0 63bc
000002c0: e5fb ad3d 719b a5bc b444 9f3d 67a6 083d
000002d0: 11ba 3cbe f6a5 3cbc 15bb ccbd cd0d 10bd
000002e0: 6637 50bd 58c0 28ba 29bd 99bd 6be0 72bd
000002f0: 8571 0f3e 8164 5f3d 39bb cd3d 474f cabd
00000300: 34a9 543e ba4a a6bd 9701 0dbc a316 02bd
00000310: 0950 52bb 574b 43be dca2 70bd cf01 153e
00000320: 28d2 37bd db8c 053e d81b b1bd 8314 023c
00000330: 718d 823c ec46 0cbe 356c b7bc 8524 37be
00000340: ea75 56bd 8b15 d13d 82ea 2e3e b282 05be
00000350: d883 63bd d5fa 943d 144b 9abc f812 fd3d
00000360: 2adf aebc 2939 db3b 3d54 0b3e 6dd9 63bd
00000370: 8169 d8bd cc46 1abd 5677 b2bd 833c a6ba
00000380: 89f7 453d 492f 4bbd 766d eebd 084f 9abc
00000390: e599 89bc 12f3 0a3d af75 003e 0465 653c
000003a0: 8cf4 2d3e d362 153e 3078 30be 8b53 06bd
000003b0: 3a69 e2bc 6b71 043e 62c0 aebc a843 62bd
000003c0: b4df a1bd b236 eb3d 4de5 32bd 182e ac3c
000003d0: f0f4 d93d fc42 d7bd 8f18 003e 9c72 453d
000003e0: bfaf 3abe 4bc3 3ebe b3e2 1c3e 08b3 aebd
000003f0: 9aec 073e bcb4 eebd f1b4 9ebd b053 ad3c
0.055773992 0.11802123 0.11559155 0.09287305 -0.12054486 -0.11563663 0.21695493 -0.020164818
-0.04930369 0.092309974 0.11840864 0.11208351 0.1848246 -0.006671767 -0.09967945 0.08513746
-0.05699247 0.017131988 0.040128376 0.027792435 0.08346929 0.025880646 0.028996032 0.0025239985
-0.0936517 -0.086223625 -0.05533574 0.03317793 -0.03360153 -0.17383204 -0.095392995 0.060929924
-0.0085293595 0.14799327 -0.07109765 -0.039940894 -0.06851391 0.111679696 -0.019126361 -0.13190418
0.1637491 0.1697188 -0.18917798 0.02625098 0.15024304 -0.0338836 0.011641847 -0.14788911
0.12087806 0.058937587 -0.06750987 0.044439197 0.005401461 0.05592072 0.030466624 0.07600303
-0.1681378 -0.08502624 0.067452766 -0.011434652 0.12413358 0.05320129 0.039307512 0.031599704
-0.1645029 0.05860804 -0.16027677 -0.11885721 0.12415954 0.044692572 0.09648405 -0.101283446
0.13179643 -0.097174294 0.10460724 0.031673625 -0.06903641 0.032731812 -0.09482884 -0.032167558
-0.05068729 0.06799794 0.009087223 -0.03268886 0.050605383 0.07947058 -0.14520358 0.005887503
0.053193856 0.023470217 -0.03195427 0.09976987 -0.01747472 0.07325385 0.061114516 0.10883631
0.13710205 0.028964214 0.051451735 -0.098402075 -0.10837716 0.0008108306 0.05677497 -0.048512727
-0.004671124 0.034801375 -0.095585205 0.13178113 -0.15324908 0.05048598 0.0800722 -0.04375936
0.10046811 0.03469809 -0.07412869 -0.10498252 0.12275001 -0.15082543 -0.052363608 -0.019113475
0.1736964 0.07938734 0.094221614 -0.04094548 -0.00429284 0.06938031 -0.07703783 0.13062699
0.102807716 0.076377034 -0.033145674 0.08962207 0.03262963 0.014292908 -0.12794094 0.092316486
-0.08585176 -0.032003228 0.014946371 -0.037296448 -0.032780536 -0.12922314 0.057452705 0.07466581
-0.16137765 0.11909496 0.1023294 -0.027343735 0.08509254 0.019830331 -0.07802249 -0.06519035
0.023774512 0.0062001096 0.03839894 0.018980682 -0.09633816 0.0070460015 -0.12514485 0.10052692
-0.0075244075 -0.051700424 0.07527149 -0.09650072 -0.06400961 0.1301478 -0.06337848 -0.029404141
0.055301704 -0.026242213 -0.13553452 -0.117431946 0.080891214 0.011745688 0.059860736 -0.013904726
0.08495311 -0.020215722 0.07776776 0.03336182 -0.18430354 -0.011514178 -0.099966206 -0.03516941
-0.050834082 -0.0006437353 -0.075067826 -0.059296053 0.14008148 0.054539207 0.100454755 -0.09878402
0.20767671 -0.08119722 -0.008606336 -0.03175987 -0.0032091162 -0.19071709 -0.058749065 0.14551471
-0.044878155 0.13042013 -0.08647889 0.007939461 0.015936585 -0.1369893 -0.022390464 -0.17885025
-0.052358545 0.10209187 0.17081645 -0.13038138 -0.055545658 0.07274405 -0.018834628 0.123571336
-0.021346647 0.0066901636 0.13606353 -0.055627275 -0.10566998 -0.037665173 -0.08714168 -0.0012682829
0.04833177 -0.04960564 -0.11641972 -0.018836513 -0.016797015 0.033923216 0.12544893 0.014001135
0.16987818 0.1458848 -0.17233348 -0.032794517 -0.027638067 0.1293389 -0.02133197 -0.055240303
-0.07903996 0.11485042 -0.04367571 0.021018073 0.10642421 -0.10510823 0.12509368 0.048205003
-0.18231104 -0.18629186 0.15320854 -0.08530241 0.1327385 -0.11655566 -0.077493556 0.02115807

gru.bias_ih_l0 f4 [192]
00000000: c758 fe3d efa8 563d 0d41 f93d 208c 9d3d
00000010: 30df c83d 147c 913c b558 09bd 5ce3 5a3d
00000020: d930 323e 12ee 9bbc dc55 90bc 766c 343b
00000030: 42ac 073d da11 943c 957a 383d 4301 a73d
00000040: 19c8 1e3d 8349 4f3c 5309 08bd e5b5 d73d
00000050: 5e3d 0d3e 3bba cf3d e5e8 5d3d 6076 1b3c
00000060: 8f1b 133e 6c51 e3bd fca8 933d 0ac8 093e
00000070: 283c ed3d 1514 433d a47b f9bb ae87 b5bd
00000080: 61e3 ba3d 7da7 3b3d 6326 9cbc 17c7 023d
00000090: 3549 cebd 270e 123d 9477 99bd e9c3 9a3d
000000a0: cb12 7a3d f119 89bd f8e4 a03c 1346 1c3e
000000b0: 1bd4 00bc 846a 8b3d d51a 703d 0d3b 20bd
000000c0: 5667 f9bc 0c7d 0f3d 5adf 8ebd 24c9 193d
000000d0: 30a2 6abc b761 97bd 140b 9dbd 2e59 1fbd
000000e0: e0ba 0f3e b33d 853d 5222 57bd 0813 73bd
000000f0: b7e5 8bbd 50c6 87bc 8dc8 8c3d e680 95bd
00000100: 4a37 c1bd 4b6c 563e 89c9 c83d f5f0 33be
00000110: 31e6 c63d cec5 44bd 6e5b 5abd 1723 b93d
00000120: d0fa 353e 06cf 7cbd 0586 0abb 7f85 babb
00000130: 0039 353d 52e7 06bd b2b5 c0bc 3b93 9dbd
00000140: b5f0 08be 80ea 0e3e c83f 2f3e 2759 c9bd
00000150: 43b4 a13c b298 243d 4912 1dbe 175b 2b3e
00000160: 6e22 423d 7ee2 5c3d 8d91 963d a1ca 593e
00000170: 67ce 41bd 2b6a 0abe 42a8 b13c 1245 723c
00000180: 6a0d bcbd aca0 ccbd 043c 053d de80 233d
00000190: 8dc0 c0bd 2a1b 2dbe 7250 75bc 17b6 32bc
000001a0: 66cf 1dbe 5238 a6bd 59d1 e73d a930 a93d
000001b0: 698a 853e 5772 35be e21e 0d3e 5727 303c
000001c0: ae04 003e 09f8 e9bc a5d9 8cbd ada4 433e
000001d0: fc86 963d dedd 713d 2a67 0abe 4618 4ebe
000001e0: 305a 803e 4925 6bbe 5f97 603c 0260 1c3d
000001f0: 05e4 e23b b1c2 d83d 541c 3b3c b0e0 9f3d
00000200: 620b 0e3e 32a7 77bd ed20 a2bd 64e5 a43d
00000210: 5aef 8b3c b3e2 763d 4521 d9bd 74ae 793d
00000220: fcf3 733b 3ae7 99bb bfee 55bd e2e5 18be
00000230: c85b cf3d 0ab6 083d def5 20bd 851a 943d
00000240: c3ff ce3d 4c7e 733b 0d8c 423d f147 eabd
00000250: 8f2f 25bd 7551 cf3b e6ca b1bb 84e4 553d
00000260: 3824 cdbd e834 aebd 8eb4 c9bb faf6 a2bc
00000270: a6a9 cb3d b77c cbbd b71e 44bd d19c b8bd
00000280: 0dda 393d 418e f63c ee9b 8e3d 18b4 ee3c
00000290: d7c0 d73d 5e90 923c 59ec 7d3d eae6 513d
000002a0: f080 8e3d 9717 47bd 6b29 af3d fd65 9e3d
000002b0: 28e7 063e 51f2 b53d 5d45 f13c e21b 343d
000002c0: e0ca bcbb 2793 ccbd 6019 ee3d a565 d3bd
000002d0: 40d6 013d c7a4 3ebd cbe6 aa3c c278 e53d
000002e0: 898e e8bd f43d 01bc 5492 6c3c f906 133d
000002f0: b150 a1bd 9958 b63c 9a11 663d a246 ccbd
0.12419277 0.0524072 0.121706106 0.07692742 0.09808195 0.01775936 -0.033531863 0.053439483
0.17401446 -0.01903442 -0.017619066 0.0027530468 0.033123262 0.018074919 0.04503878 0.081545375
0.038765047 0.012651804 -0.033212017 0.105327405 0.13792941 0.101429425 0.054177184 0.009488672
0.14365982 -0.11099514 0.072099656 0.13455215 0.115837395 0.047626574 -0.007613616 -0.088637695
0.091254 0.045814026 -0.019061273 0.031928148 -0.10072557 0.035658028 -0.07493511 0.07556898
0.06105308 -0.06694401 0.01964043 0.15261106 -0.00786307 0.068074256 0.05861934 -0.039118815
-0.030444782 0.035031363 -0.06976195 0.03754534 -0.014320895 -0.073916845 -0.076681286 -0.038903408
0.14036131 0.06505909 -0.052522965 -0.05934432 -0.06830924 -0.016574055 0.068741895 -0.07299976
-0.09434374 0.20939748 0.09804065 -0.17572387 0.09711874 -0.048040204 -0.05330985 0.09039896
0.17771459 -0.06172087 -0.002113701 -0.0056921835 0.044243813 -0.032935448 -0.02352414 -0.076940976
-0.13373072 0.13956642 0.17114174 -0.098314576 0.019739276 0.040184684 -0.15339006 0.16733967
0.047396116 0.053926937 0.0735198 0.21268703 -0.04731598 -0.13517062 0.021686677 0.014786975
-0.09182246 -0.09991583 0.03252794 0.03991782 -0.09411726 -0.16904894 -0.014972793 -0.010907671
-0.15411147 -0.08116211 0.11319227 0.08261234 0.2608216 -0.17719398 0.13781312 0.010751567
0.12501785 -0.028560655 -0.0687745 0.19105788 0.07349965 0.05904948 -0.13515916 -0.20126447
0.25068808 -0.22963442 0.013707965 0.038177498 0.0069241547 0.105840094 0.011420328 0.078065276
0.1387153 -0.060462184 -0.07916436 0.08051565 0.017081905 0.06027479 -0.10602049 0.060957387
0.0037224283 -0.004696754 -0.05222964 -0.14931443 0.10124928 0.03337673 -0.039296977 0.07231621
0.101073764 0.0037154136 0.047496844 -0.11439503 -0.04032856 0.006326849 -0.0054257987 0.052219883
-0.10016674 -0.08506185 -0.006155557 -0.019893158 0.09944467 -0.09935897 -0.047880854 -0.09014285
0.045373965 0.030097129 0.06963335 0.02913861 0.10534828 0.017891105 0.061992977 0.051245607
0.069581866 -0.04860648 0.08552822 0.077342965 0.13174117 0.08884109 0.02945202 0.043971904
-0.0057614893 -0.099890046 0.11625934 -0.103221215 0.031698465 -0.046543863 0.020862004 0.11204673
-0.113553114 -0.007888306 0.014439184 0.03589532 -0.07876719 0.022259044 0.05616913 -0.0997441

gru.bias_hh_l0 f4 [192]
00000000: 1214 a93d 9217 87bc 69b5 98bd 5fcc 4abc
00000010: 1824 5b3c 60f9 4b3d 20c4 813d b7d1 b9bd
00000020: 91d6 3c3e 1d59 983d 6253 3a3d ce5e da3d
00000030: 2f66 a13c 3dec 6fbd 7362 15bd 6a80 243b
00000040: 698a a0bc 2d30 193c 8c21 fc3d 0060 22bd
00000050: 57aa 093d 2e6f e53c 7f77 163e 73d6 993c
00000060: dfbe dabc 759b 5e3d d3fa 0cbd fb4d e9bc
00000070: b04c b83c 1693 e93d b909 3f3d de6c fabd
00000080: d05c bdbc c528 3fbd 3567 b9bc ca12 ee3c
00000090: 63db c9bd 9e68 823d 19d6 0bbd 45b0 25bd
000000a0: 7670 123e abe3 623d 9499 d03d 96b6 0cbd
000000b0: 686a d6bd ccec a6bc 87aa 413d 4f9f 7ebd
000000c0: 1ea0 6bbd 960a 71bd dab4 80bd ce16 3abd
000000d0: 6a7c e33d 4d06 c03d cde4 ee3c 7cd0 8f3d
000000e0: 6708 183d e673 473e fa5f af3d 739b 5bbc
000000f0: c908 923d b8d9 f9bc dad2 06be 3f57 863d
00000100: 2af2 83bd 98f9 fe3d b05f 5e3c 8ab4 b2bd
00000110: 6a65 663e f504 7a3c 7cb3 28bd b2a9 06be
00000120: a29d 013e 9806 c33d 9f85 813d 075c e2bd
00000130: e1fc 8fbd 0db4 eebd d358 0ebd 5c56 d13b
00000140: df98 0bbe 1d83 00bd e090 993d bf96 dcbd
00000150: 432c d1bc 4baa ea3d df31 1c3d a5f0 3e3e
00000160: 8268 1ebd d0ce 1a3d 0357 1d3b effe c43c
00000170: 3160 60bd e70c 88bd d1f9 84bd 4f06 a7bc
00000180: 8ca1 cc3d 00ca b63d ed7d aabd 245e 823d
00000190: 4b42 73bd 98a7 1bbe d6cd 0e3e 8e37 02be
000001a0: 7521 bcbc fd8f 483c 7f9f 72bd 7deb d1bb
000001b0: 0b64 e53d 49e0 28be 60c3 3f3e ec1a 16be
000001c0: 8766 c7bb c2bd a93d 435f 8fbd 793d af3d
000001d0: 0a1d d9bd 725a 6f3d 0580 783d c267 6bbc
000001e0: 3439 603e 6947 96be 945d cabd e1d5 10be
000001f0: a538 493d fca0 733e a138 b7bd 53a4 fa3d
00000200: 39e6 653d 465a d6bd ca88 8c3d 3380 2dbd
00000210: 3e2f 823b 6215 bbbd d582 313d 289f 55bd
00000220: f126 253b eb81 2cbd eadd 64bd 34a0 5ebd
00000230: f848 8fbd 9efb 86bd 36bc e73c ba5d 163d
00000240: 7eea 2d3d 3ad8 0a3d 3a5e 823d 3be9 3cbd
00000250: a68f c3bc 5449 de3d ed5b 8b3d 99ac a53d
00000260: c5ff 573b ee33 bb3d 78bb abbc 3d52 c43d
00000270: c2cb db3c 4eb8 c3bc f40b 413d 5a7d cc3d
00000280: ea5e a1bd 4840 8bbd 5212 d1bc 25b0 99bd
00000290: 04a4 1bbd 5544 d2bd 9d11 b3bd 7172 44bd
000002a0: 09b5 553d e9d1 023e 5008 f1bd 2f26 babd
000002b0: 5da2 b9bd 8069 f2bc b962 5b3d 9f02 c5bd
000002c0: 8ef8 063d 1218 b8bd 2f1d b4bd e581 aabd
000002d0: f2cf cd3d b42e 9ebd 274d 9cbd 5e13 babd
000002e0: 610f 013e 3f56 6c3d b022 c5bd 719a c5bd
000002f0: 5841 fc3d 8af7 cdbd 88ef 93bd 0891 29bd
0.08255781 -0.016490731 -0.07456476 -0.012377827 0.013375305 0.04979837 0.06336236 -0.09073203
0.18441226 0.07438872 0.045489676 0.10662614 0.019702045 -0.058574904 -0.03647084 0.0025100955
-0.01959725 0.009349865 0.12311086 -0.039642334 0.033609714 0.028007116 0.14694022 0.018779015
-0.026702343 0.054347474 -0.034418892 -0.028479567 0.022497505 0.114050075 0.04664013 -0.12227796
-0.023115546 -0.04666974 -0.02263222 0.029061694 -0.09856298 0.063676104 -0.034139726 -0.040451307
0.14300713 0.055392902 0.10185543 -0.034353815 -0.10469514 -0.020376585 0.04728177 -0.062163647
-0.057525747 -0.058847986 -0.06284495 -0.045431904 0.111077145 0.09376202 0.029161835 0.07022187
0.037117388 0.19477805 0.08563228 -0.013403761 0.07130582 -0.030499324 -0.13166371 0.065596096
-0.064426735 0.1244995 0.013572618 -0.08725841 0.22499624 0.015259971 -0.041186795 -0.13150671
0.12657788 0.09522742 0.06324314 -0.11052709 -0.07030655 -0.11655436 -0.034752678 0.0063884687
-0.13632534 -0.03137504 0.07498336 -0.1077094 -0.025533801 0.11458262 0.0381335 0.18646486
-0.038673885 0.037794888 0.0024008162 0.024047343 -0.054779235 -0.06643086 -0.06492961 -0.02038875
0.0999175 0.08925247 -0.083248 0.06365612 -0.059389394 -0.1520065 0.13945708 -0.12716505
-0.022965172 0.012241361 -0.05923414 -0.006406246 0.11200722 -0.16491808 0.18726873 -0.14658707
-0.0060852203 0.082881466 -0.070005916 0.08556647 -0.10601242 0.058435865 0.060668964 -0.0143679995
0.21896821 -0.29351357 -0.0988113 -0.14144088 0.049126286 0.2379188 -0.08946348 0.122383736
0.05612776 -0.10466437 0.06862028 -0.04235859 0.003972917 -0.09134938 0.04333766 -0.052153736
0.0025200213 -0.042116087 -0.055875696 -0.054352 -0.069963396 -0.06590961 0.028287988 0.03671048
0.042459957 0.033897616 0.063656285 -0.046120863 -0.023872208 0.1085383 0.06804643 0.08089561
0.0032958847 0.09140764 -0.020963416 0.09585998 0.026830558 -0.023891594 0.04713054 0.099848464
-0.078794315 -0.0679937 -0.025521431 -0.075043 -0.037998214 -0.102669396 -0.08743594 -0.047960702
0.0521746 0.12775387 -0.117691636 -0.09089314 -0.090641715 -0.029591322 0.053560946 -0.096196406
0.032951884 -0.08988966 -0.08794629 -0.08325557 0.10049428 -0.07723752 -0.07631903 -0.09085725
0.12603523 0.05769944 -0.09625757 -0.09648598 0.12317151 -0.1005698 -0.07223421 -0.04139808

gru.weight_ih_l0_reverse f4 [192, 16]
00000000: 2831 b23d 8ce4 bd3d c52b bebb 547e bdbc
00000010: e34a 5e3d c50a cb3d 0112 283d abd1 793d
00000020: 7168 9c3d 361f 953d 8ca2 ccbd 96c5 5b3e
00000030: 6ad3 0e3d d74a 873d a483 e6bd d0c8 a13d
00000040: 4163 5c3c 185f 8c3a 54e9 54bc d0d8 fe3d
00000050: 08de f4bd a700 15be e441 84bc 16e2 23be
00000060: ba84 aabd dd78 06be 53d0 5e3d 9ed9 593d
00000070: 4c3d 2a3e 1c92 60bd d0b7 a63d ff34 053e
00000080: 4943 89bd 600b 78bd 10d4 313c f610 8ebd
00000090: d0bd 69bb 96ff b0bd 0e17 183e f630 35bd
000000a0: f60d 13bb 634d b43d a25e 503d a957 8cbd
000000b0: 5ecc 863d 6142 76bd 2daf eabb 9b4f 283e
000000c0: 0094 ab3d 4bb7 80bd 2195 fbbc 6567 1bbe
000000d0: 19f8 413d 849a d1bd fd42 d83d 905a 03bd
000000e0: bf70 22be 9af2 073e 007f 00be 6fea 513e
000000f0: bff4 9fbb bb6d 71bc 4600 1e3d b888 683d
00000100: 0505 1c3e 1f39 9b3d 54a6 b33c a63b 04be
00000110: 2d5a 0abd 5ee3 703d ec31 4dbd 1f4d 593d
00000120: 084c b6bc 3086 a4bc bee0 f7bc d1c7 323d
00000130: a81a bfbc d1a1 a53c c344 fcbc 7a7b de3d
00000140: b657 8f39 fa6c 82bd 550b 163d 4f5e abbc
00000150: 8e5f e2bd a778 36be 387e acbd 39bd ca3d
00000160: 258b f13d 3a72 d13d 07a4 043d cf6b 47bc
00000170: 432f 72bd 6d52 bc3d 8ffe d8bc 29ae cabc
00000180: 432b efbc 7fd3 203c c537 b93c e9af c93d
00000190: 4d44 443e e4ae ab3d d795 45bd 3a07 cf3d
000001a0: 0b3c 7a3d 6f76 103e 0fff 56bd 1e4f 4f3d
000001b0: c2ff 60be 7d92 003d 1293 dc3d 95cd f1bd
000001c0: b98f 173d f508 da3d 1ac5 50bc 03da 033d
000001d0: 820b 133e 2e9d cebd dff7 f03c c784 3ebd
000001e0: dd90 0b3d 9de7 bc3d 4b39 d73c 21b6 57bd
000001f0: 4f35 40bd ef84 b3bd 3042 7d3d 0c56 45bb
00000200: 0ae8 21be 655d 82bc 4b86 fa3b bed2 08bd
00000210: 34cd 55bd 64a4 ea3c 0f76 263e b081 62be
00000220: f841 c1bd 0ceb a73d 0a68 2d3d 7058 d33d
00000230: ca67 d03d e26b 13bc 28c5 29bd 5955 b5bd
00000240: 9b7e 1a3d 7a14 7abd b372 83be c838 1dbd
00000250: 1b8d 02be e4ab 25bd 9ec8 bbbd 8cab 4cbe
00000260: 0b2e 50be 3a5f be3d 21a9 1abd 5093 663e
00000270: 111f 1e3e 6c1a 18be ad63 58bd c92a e9bd
00000280: 0bf6 4a3d 2109 d43c 2712 04be b467 73bd
00000290: 6685 85bb e582 84bd c4d7 b53d 072f 873d
000002a0: d392 983b 345d ac3d 9fe6 ecbd 7d7d 1fbc
000002b0: 56e5 a5bd f560 433d 58d8 50bd 3581 11bc
000002c0: 9b7e b2bd 56bd 15bd 3dfd 0bbe d863 683d
000002d0: 16e5 f73d 5f82 e7bd 4faa 2f3d 482a aa3d
000002e0: 8eae 13bb b327 893d 9b28 f6bd 3177 2b3e
000002f0: 9f02 b73c 94e1 a33b 4209 cc3d b86b 983d
00000300: 0734 24be 6e7e 073c c0fc 0fbe e08d ac3d
00000310: 8f3f 133d 7009 413d 3ab3 303e f7fe b4bd
00000320: 8c41 21bd 0df8 ae3d 7c59 683d 28fb 4d3d
00000330: 382f a63d b948 19be bb85 32be 4468 8e3d
00000340: 2e3c 383e 0bc5 85bd da41 893c da29 673d
00000350: 06e7 d53d 4a2c 4bbe 897c ebbd 4212 333c
00000360: eb28 163d 1a4d 7d3e cbd6 aabc b3dc 2b3e
00000370: f1fa b9bd 059e 0bbc 598c 9ebd 00e4 a53d
00000380: 2d94 a13d 1f8b 98bc f6e6 33be 3570 1e3e
00000390: 46b7 9fbd 2e4f 99bb 1468 58bd 14e8 363c
000003a0: fc06 8dbd b082 b13d 310f dfbb 888a d23c
000003b0: 2712 96bd ac6b 38bd de9e 513d 722d f0bd
000003c0: 704b f9bc 4452 173d d319 6cbe fb35 873d
000003d0: 4ee8 86bd f843 9dbd 838d 6e3d fdbd f9bd
000003e0: bd04 19be f924 5cbd 7e8b 1ebd 6405 c53d
000003f0: 963e 9a3d 2d5b 5fbe 7e7f 90bd f97a 893d
0.08700782 0.092721075 -0.0058035576 -0.023131527 0.054270636 0.099141635 0.041032795 0.06099097
0.07637108 0.07281344 -0.09991941 0.21462092 0.03486959 0.066060714 -0.11255577 0.0789963
0.013451398 0.0010709492 -0.012995083 0.124436975 -0.119564116 -0.1455103 -0.0161447 -0.16004214
-0.08326097 -0.13132043 0.054397892 0.05318605 0.16624945 -0.05482684 0.08140528 0.13008498
-0.06702287 -0.060557723 0.010853782 -0.06936829 -0.0035666116 -0.08642499 0.14852545 -0.044236146
-0.0022438741 0.08803823 0.0508715 -0.06852657 0.06581949 -0.060121898 -0.007161996 0.16436617
0.08377838 -0.0628496 -0.030710759 -0.1517616 0.047355745 -0.1023455 0.10559652 -0.03206879
-0.15863322 0.13276139 -0.12548447 0.20499586 -0.004881471 -0.014735634 0.03857448 0.05677101
0.1523629 0.07579254 0.021929897 -0.12913379 -0.033777405 0.058810584 -0.050096437 0.053052064
-0.022253051 -0.020083517 -0.030258533 0.04364759 -0.02332814 0.020218762 -0.030794507 0.10863395
0.00027340435 -0.06368442 0.0366319 -0.020918993 -0.11053382 -0.17819463 -0.08422512 0.098993726
0.11794118 0.10226865 0.03238299 -0.0121717 -0.059127104 0.09195409 -0.02648857 -0.02474125
-0.029195433 0.00981605 0.0226096 0.09848005 0.1916668 0.08382967 -0.0482386 0.101088
0.061092418 0.14107679 -0.052489337 0.05061256 -0.21972564 0.031389702 0.10770239 -0.1180679
0.0370023 0.1064624 -0.012742305 0.032190334 0.14359859 -0.100885734 0.02941507 -0.046513345
0.0340737 0.09223864 0.026272437 -0.052663926 -0.04692584 -0.087655894 0.0618307 -0.0030111102
-0.15811172 -0.015913675 0.0076454035 -0.033404104 -0.05219765 0.02864284 0.16255973 -0.22119784
-0.09436411 0.081991285 0.042335548 0.103196025 0.10176046 -0.008997889 -0.04144779 -0.088541694
0.037718397 -0.061054684 -0.25673446 -0.03838423 -0.1274914 -0.04044713 -0.09169124 -0.19987315
-0.20330064 0.09295507 -0.03775895 0.22517133 0.15441538 -0.14853829 -0.052829433 -0.11385114
0.04955105 0.02588326 -0.1289755 -0.05942507 -0.00407474 -0.06470279 0.08879045 0.06600767
0.0046561747 0.084162146 -0.11567425 -0.009734509 -0.08100383 0.047699887 -0.05098757 -0.008880903
-0.08715554 -0.036557518 -0.13670821 0.056735843 0.121042415 -0.11304163 0.04288703 0.08308846
-0.0022534463 0.06697025 -0.12019464 0.16744687 0.022340117 0.0050012562 0.09962703 0.07442421
-0.16035472 0.008269889 -0.1406126 0.08425498 0.035949286 0.04712814 0.1725587 -0.08837693
-0.03936915 0.08543406 0.056725964 0.05028835 0.08114475 -0.14969148 -0.17433827 0.06953481
0.17991707 -0.065317236 0.016755033 0.056436397 0.10444455 -0.19841114 -0.114983626 0.010929646
0.036660116 0.24736443 -0.020854374 0.16783409 -0.090810664 -0.0085215615 -0.07741613 0.08100128
0.078895904 -0.018621026 -0.17568573 0.15472491 -0.077986285 -0.0046786284 -0.05283363 0.01116373
-0.06886098 0.08667505 -0.006807231 0.025700822 -0.07327681 -0.04502456 0.0511769 -0.11727418
-0.03043148 0.03694369 -0.23056726 0.06602093 -0.06587277 -0.0767898 0.058240425 -0.121944405
-0.14943214 -0.053746197 -0.03870725 0.09620169 0.075314686 -0.21812125 -0.07055567 0.06712908

gru.weight_hh_l0_reverse f4 [192, 64]
00000000: 9d11 fabd 6c93 9dbd fae8 eaba 05af 8c3d
00000010: 6b82 24bd 6d78 00bd 8725 f6bd e15d b43d
00000020: b5aa 0ebe e345 1b3d ac9f c9bd 20a7 243d
00000030: 924f 51bc 016f 823d 0a88 6f3d 0e3f e23d
00000040: 564d 81bd b2fa ccbd e571 fabd d3d0 d5bd
00000050: 5161 393d a7ae a43d 24ca 69b9 5cde dd3c
00000060: bd22 0c3d c41f bc3d 125c 10bd 830c 32be
00000070: fee5 cd3d 0ae0 cb3d dbd8 25be 173e 84bd
00000080: f2a7 0dbe 5bc4 1d3d 1e17 c83d 5c6f 423d
00000090: 4d29 e8bd 2df4 b4bd 9f5d bdbd 5d2a abbd
000000a0: ab02 8f3d da39 b7bd 28ab d43d 4a5b 71bd
000000b0: 6940 48bd e692 b33d 37d2 29be d12c 313e
000000c0: 3c81 373d 5410 d53c 863c 62bd b779 d2bd
000000d0: 2790 1f3c 9c9c dbbd 8972 aebc e537 bdbd
000000e0: b902 913c d598 1c3d 5ca5 dcbd 63ab e3bd
000000f0: f6d2 8abd 4671 bc3c 3b0f c73d fc73 80bd
00000100: 3a34 063d 4456 753d 6e9b 32bc ec28 0c3d
00000110: bcd3 103e fbeb 2a3e 07fe 69bd 3927 d5bd
00000120: bdbc 13be 39f3 b73d 56a8 cfbd e7ee e1bc
00000130: 3341 26bd 30a5 f03c eb54 893d e10c e83d
00000140: a20d 133d 791b 9d3d f3ea dc3d 4a4d 84bc
00000150: 96ba ccbd a710 993d 7a00 0c3d 99df 9ebb
00000160: 4c9d 8f3d 888a bb3d fe9c ac3d 9a33 03be
00000170: 2b01 ed3b 0786 0f3e fbfc 0c3d 5f6c 283e
00000180: 03c9 3ebd f2ca 6dbd 69d5 e6bd 3c89 71bd
00000190: aea2 af3d c41d 8ebd 14d3 c6bd a9cf 0f3c
000001a0: 9aec c53d 2c8a ff3d 6b11 99bd db16 e9bd
000001b0: 8cd4 f03a 0f89 23be 4b14 823d ec58 103e
000001c0: add5 373e ff52 a03c a78d ff3c c7aa d93d
000001d0: 2ab7 323d 904f 0e3c 7990 7d3d 2dca ae3d
000001e0: 4964 543d 5f53 f33d 1831 20bd d227 ccbc
000001f0: f6f2 eebd a83c 8bbd a647 e7bd 4f3d e2bd
00000200: 0e8a 993c fc09 dabd d80b 9cbc 49d0 7b3d
00000210: 9c8d 3fbc 933e 19be 3f47 39be 8462 c6bd
00000220: bc12 0dbe 719f 9f3d cc0f c5bc f000 4abd
00000230: 7873 ab3c c45c 8ebd d99f 2c3e fb9d 293e
00000240: c907 5e3d 8a2b 9a3c 307f b43d bc95 36be
00000250: a5b3 3fbe 6a2d 2c3c f55c 88bd 5886 3e3e
00000260: 2ee4 423c def9 90bc 7bbd 23be f681 03be
00000270: 415f 13bc b534 233d 5188 73bc 3f51 e7bb
00000280: 8562 2ebe b245 d63d 6ece 91bd 6bd3 aebd
00000290: d350 573d bda1 a1bd 2acf c03d c680 05bd
000002a0: 959a 0bbe 0e2a e8bd cecf 2d3d caa0 36be
000002b0: 8d50 34be e031 c4bd a01d 7dbd 96a7 a53c
000002c0: a74b 4cbc 6b73 56bd 5dff 0bbd f6db fa3d
000002d0: 46f9 c2bd 840d 523d cc2f 923d 8965 fdbd
000002e0: 0c97 cebd 84b5 3b3d a26d a13d d309 b83b
000002f0: e5a8 0ebe 4dca ce3c cbea 5f3d 4319 c1bd
00000300: 4876 ab3c 016e ae3d 466e c43c 1b60 17bd
00000310: 9869 b33d 3c1d 433c be43 42bd 0c26 013e
00000320: 43d7 e73c 1688 ba3b 2341 8ebc 5bf4 103d
00000330: c3bf 363d 0637 9ebd 613e 433d 7864 a5bd
00000340: 6209 cf3d ee86 e1bc 05ce b2bc 64b7 e5bc
00000350: 0cbd f8bd 29cf 7f3d b293 8d3d dff6 d83c
00000360: 1da2 77bc 7629 a13d c879 7d3d 97f5 b0bd
00000370: c9c1 083e 5759 8ebc 9c43 d0bd 3f59 80bd
00000380: e967 fcbc 50b1 113d 4a05 99bd 33ff ce3c
00000390: 7b8c 38bd fb34 3e3c c350 94bd cdf5 40bd
000003a0: ef9c e9bd 525b fc3d 637b 9ebd 3a9d a5bd
000003b0: 4fb6 9fbd 09c0 ae3c 390e d6bc 8150 dd3d
000003c0: d5ae d93d 93e1 043e 0b56 ab3d 287f 8a3d
000003d0: ee8a a6bd ff6b 323d 63b0 f73c e3a8 513d
000003e0: 76db 08be 1106 e9bd a37d 68bc d9b0 8f3d
000003f0: a566 4e3d 2cfb 823d 3872 dabc 1179 47be
-0.12210391 -0.07694134 -0.0017922216 0.0686932 -0.04016344 -0.031364847 -0.120188765 0.088069685
-0.13932307 0.037908446 -0.09844908 0.040198445 -0.012775319 0.063688286 0.058479346 0.11047183
-0.06313579 -0.10008754 -0.12228755 -0.10440221 0.045258824 0.08041125 -0.00022295915 0.027083568
0.034212817 0.09185746 -0.035244055 -0.17387585 0.10053633 0.099548414 -0.16196005 -0.06457155
-0.13833597 0.038517337 0.09770034 0.04746948 -0.113360025 -0.08835635 -0.092463724 -0.083576895
0.06982931 -0.08946581 0.10384208 -0.05892495 -0.04888955 0.08768253 -0.16584097 0.17302252
0.044800982 0.026008762 -0.0552335 -0.102771215 0.009738958 -0.1072323 -0.021294849 -0.09239177
0.017701494 0.03823169 -0.10773727 -0.11116674 -0.06778519 0.023003232 0.09719702 -0.06272122
0.03276465 0.059896722 -0.010901315 0.034218714 0.1414327 0.16691582 -0.057127025 -0.10407872
-0.14427467 0.08981938 -0.101395294 -0.027579738 -0.040589523 0.029375643 0.0670565 0.113305815
0.035901673 0.076712556 0.107870005 -0.016150136 -0.09996526 0.07473879 0.034180142 -0.0048484323
0.07012424 0.09157282 0.084283814 -0.12812653 0.0072328052 0.14015971 0.03442095 0.1644759
-0.04657842 -0.05805487 -0.112711735 -0.058968768 0.085759506 -0.06939271 -0.09708229 0.008777537
0.09664269 0.12477526 -0.07474025 -0.113813125 0.0018373891 -0.15970252 0.06351527 0.14096421
0.17952605 0.019570826 0.031195475 0.10628276 0.04363171 0.008685961 0.061905358 0.08534656
0.051853452 0.11881136 -0.03910932 -0.024921332 -0.11667435 -0.06798679 -0.11292963 -0.1104685
0.018742587 -0.106464356 -0.019048616 0.061477933 -0.011691477 -0.14965276 -0.18093584 -0.09686759
-0.13776678 0.07794083 -0.024055384 -0.0493173 0.020929083 -0.069512874 0.16857852 0.16564171
0.054206643 0.01881959 0.088133216 -0.17830557 -0.18720873 0.010508874 -0.06658355 0.18605936
0.011895223 -0.017697271 -0.1599025 -0.12842545 -0.008994878 0.039845187 -0.014864043 -0.007059246
-0.1702977 0.10462512 -0.071194515 -0.085364185 0.052567314 -0.07892177 0.094145134 -0.03259351
-0.13633187 -0.11336146 0.042434506 -0.17834774 -0.17608853 -0.095798254 -0.06179583 0.020221513
-0.012469209 -0.052356165 -0.03417908 0.122489855 -0.095202014 0.05128242 0.07138023 -0.12372882
-0.10087404 0.045827404 0.07882239 0.0056164055 -0.13931616 0.025242949 0.054667275 -0.094286464
0.020930424 0.08517075 0.023978364 -0.036956888 0.08760375 0.0119088255 -0.047427885 0.1261217
0.028300887 0.0056924922 -0.017365044 0.035389286 0.044616472 -0.07725339 0.04766691 -0.080758035
0.101092115 -0.02753016 -0.021826753 -0.028041549 -0.12145433 0.062453423 0.06912936 0.026484905
-0.015114334 0.07869236 0.061883718 -0.086405925 0.13355173 -0.017376585 -0.101691455 -0.06267022
-0.030811267 0.03556949 -0.07471712 0.025268173 -0.045055848 0.011609311 -0.072419666 -0.047109414
-0.11406886 0.123221055 -0.07738378 -0.08086629 -0.077984445 0.021331804 -0.026129829 0.108063705
0.1062905 0.12976675 0.08366021 0.067625344 -0.081319675 0.043560024 0.030235475 0.051186454
-0.13364968 -0.1137811 -0.01419011 0.07016153 0.05039086 0.063955635 -0.026665792 -0.19479777

gru.bias_ih_l0_reverse f4 [192]
00000000: 5ccc 9f3d 6bab aabd b109 ebbd 218c cc3d
00000010: 350a a53b 5a02 b63d df09 123e 675c 39bd
00000020: c665 04be dba5 78bd da8f 693d 47c1 82bd
00000030: a795 0cbd a36a 003e 26e5 d03d 8810 80bd
00000040: 3b90 b3bd 7c52 b23d 0536 013d 4b40 cd3d
00000050: 5134 7b3b 4217 6a3d 8278 e53c b700 c0bc
00000060: 79f8 6a3d c94b f83d cb24 e23d 13c1 a03d
00000070: 798a a13d 5b89 b7bd 60e3 4dbd 0982 b7bd
00000080: cb74 273d c189 da3d bb82 533d 9c72 3abd
00000090: 128d 323e 583a e13d 332f ea3d 374e 163e
000000a0: 729e e5bc 95cc 8cbc 5057 55bd 6e20 2b3d
000000b0: 85b9 d43c 27b1 8ebd 84f2 77bd ac90 e83d
000000c0: 0ccc 77bd 92ed 103d a738 293d ecca 323e
000000d0: a0d3 2d3d d016 ef3d ebe2 b4bd 6851 733d
000000e0: 0602 fa3c 82cf d73d d8c1 58bc 1bbd 073d
000000f0: 5513 8c3d aa2d 353e ef17 483d da36 febd
00000100: f83a d93d a648 e6bd 9ddb 063e 7f78 363e
00000110: 84a3 68bd 20a9 9bbd 1a8c 34bd 97eb f23c
00000120: 31c1 e4bd 8a09 263e 0ba9 a0bd 12fe 093d
00000130: f408 3c3d caad e4bb 9376 07be f6eb 3fbd
00000140: f333 1e3e 9896 65bd 7189 07be 32be 9a3d
00000150: 50ab b5bd 3461 243e b216 54bd 7c66 893d
00000160: eb28 b1bd a60e 733e 09b3 0f3e 1e28 ad3d
00000170: f941 4dbe 05a7 823e 3f19 5e3e b624 913b
00000180: d42b 2a3d 5307 553e b751 45bd a3c6 bfbd
00000190: d271 033c 1733 0abe 13d4 cabd 9968 00be
000001a0: b6c3 433b 4b5e 13be 9e95 e83d 9090 e23d
000001b0: 8ea6 84bd 60fa 0abe 8c7f bfbd 1ab8 2b3d
000001c0: b93d 9c3d 1929 fdbd 4de6 aebc 8007 5a3b
000001d0: f431 e8bc 0dd0 edbd c362 56be ce6a 54be
000001e0: 7222 333e 009c f5bc ce53 58be 91da a83d
000001f0: 6abb 0d3d 0b8d 2abe 76eb a5be 6ed8 033d
00000200: a514 f7bd c2e5 90bd e1a4 c0bc b067 2fbd
00000210: e4e8 963c b5df 363d e237 743d 12e7 abbd
00000220: bc97 babc 49e6 a63d 1afc 4cbc 51b0 8bbc
00000230: 704a 96bd 17b6 f5bd d6e0 b93d d3de ee3c
00000240: b0fc a13c 4d7b 92bd 4cf0 a9bd c801 7bbd
00000250: 304a ad3c 6cad 15bd e508 4ebd 7b34 783d
00000260: 252c d63d 1adb 963d 7bdb c73d 81c4 ce3d
00000270: 6694 8a3d 14ab 19bd 9d84 a4bc fd3d 223d
00000280: 979d adbd 71ea 353d ea83 a4bd fe73 a2bd
00000290: cfd1 e23c e075 c7bc 2ab6 2f3d c709 05bd
000002a0: 119f 383d 146e 3abd ce9d 70bc 05ba 6d3d
000002b0: 9131 d6bb 2995 e0bd a301 fa3d 98eb 0bbb
000002c0: 0432 c43d 2e66 cabd 43b1 913d ca05 cabc
000002d0: c5fc 52bd 6cf4 f4bc 93e9 cc3c b28a 90bd
000002e0: 7f56 b1bd b9e0 2a3d f920 edbd 4ca7 a3bd
000002f0: 6972 66bd 336d ac3d 289e e43c 044e ad3d
0.0780265 -0.08333477 -0.11476458 0.09987665 0.005036617 0.08887167 0.14261578 -0.045254137
-0.12929448 -0.060705047 0.057021953 -0.06384521 -0.034322407 0.12540679 0.101999566 -0.06253153
-0.08767744 0.08707139 0.031545658 0.100220285 0.0038330744 0.057151087 0.028011564 -0.02343784
0.05736587 0.1212383 0.11042174 0.07849326 0.0788774 -0.08961745 -0.05026567 -0.08960349
0.040882867 0.10670806 0.051638346 -0.045519456 0.17436627 0.10997456 0.11434784 0.14678274
-0.028029654 -0.017187396 -0.05208522 0.041778974 0.025967369 -0.06967383 -0.060534015 0.11355719
-0.06049733 0.035382815 0.041313794 0.17460221 0.04243815 0.11674273 -0.08832344 0.059403807
0.030518543 0.10537626 -0.01322981 0.03313933 0.06839625 0.176932 0.04885095 -0.12412806
0.106069505 -0.11244325 0.13169713 0.17819403 -0.056796566 -0.076006174 -0.044078924 0.029653354
-0.11169661 0.16214576 -0.078447424 0.033689566 0.045906976 -0.006978725 -0.13228826 -0.04685589
0.15449505 -0.05605182 -0.13236023 0.07555808 -0.08870566 0.16052705 -0.051779456 0.067090005
-0.086503826 0.23736057 0.1403314 0.08454917 -0.20044698 0.2551805 0.21689318 0.004429425
0.041545704 0.20803575 -0.048173632 -0.09364059 0.008022742 -0.13496052 -0.09903731 -0.12539901
0.0029871291 -0.14391439 0.11356662 0.11062729 -0.0647708 -0.13572073 -0.093504995 0.04192362
0.0762896 -0.123613544 -0.02135005 0.003326863 -0.028344132 -0.11611948 -0.20936112 -0.20743868
0.17493609 -0.029981613 -0.21125719 0.08244813 0.03460256 -0.16655366 -0.32406205 0.032188825
-0.120644845 -0.07075073 -0.02351612 -0.042823493 0.018421598 0.044646937 0.059623607 -0.083936825
-0.02277743 0.08149392 -0.012511278 -0.017051848 -0.073384166 -0.119976215 0.09076087 0.029158985
0.019773811 -0.07152424 -0.08297786 -0.061280996 0.02115354 -0.03654234 -0.05030145 0.060596924
0.10457639 0.07366009 0.097586595 0.10096074 0.06766586 -0.03751667 -0.020082766 0.039609898
-0.084773235 0.044413034 -0.08032973 -0.0793228 0.027687935 -0.0243482 0.042898335 -0.032480028
0.045073573 -0.045515135 -0.014686061 0.05803873 -0.0065366705 -0.1096595 0.122073434 -0.0021350142
0.09579852 -0.098827705 0.07113888 -0.024660964 -0.05151059 -0.029901706 0.02501372 -0.07057704
-0.08659076 0.04171822 -0.11578555 -0.07990894 -0.056261454 0.084192656 0.027907446 0.08462146

gru.bias_hh_l0_reverse f4 [192]
00000000: 4413 8c3d 32af 133e f663 99bc c5a7 54bd
00000010: 2164 963b 8283 ffbc f3a9 8e3d 122e 913d
00000020: 1607 ecbd f2ee 163e 6c41 c03d d7e3 90bd
00000030: 4394 a23d 8925 fd3d c169 153e f59d 24bd
00000040: 8391 c1bd 42ca 45bd 64cd f1bc b7f4 b8bd
00000050: 2d79 bbbd 4054 e23d b3be 1c3e 0e02 71bc
00000060: bf1f ebbc dac1 a53c c160 103d 84dc 01be
00000070: b47b 3c3c 07ca 1d3c 471b 02be 514a fb3a
00000080: e933 b9bd e910 30bd 69fc 1b3d d1f5 d2bc
00000090: e4bf 8cbd 846d a9bd 9189 debd 3939 0fbd
000000a0: 4d0b f83d 57ea 9c3c 9db8 c2bc 8a5f ff3d
000000b0: 95c8 f2bd a754 4f3d 022a d03d 3e30 fbbc
000000c0: b206 c73d 10fe 083b 5041 ef3c 8daf 1e3c
000000d0: 7613 dd3d 07d9 2bbc 62c1 993d 4378 b93d
000000e0: b6e3 953c d26b e13d 529b 26bd ec78 e5bc
000000f0: 0b60 7f3d e3d3 763e d09b 873d e807 a23d
00000100: 1804 bd3d b268 2dbe 0fce 483e 8e8d 28bb
00000110: 34f6 8c3d 62ad 15be 263d 4bbd 62c9 f7bd
00000120: 779a 0a3c 12cc 313e 91f6 debd 077e 80bd
00000130: b0af 4e3e a4c7 9e3d 3294 c8bd 3705 bb3d
00000140: 3db4 243e 5947 c6bd ec7e 9fbd 5939 553d
00000150: e086 d4bc 7ebb 003d 2ae3 053d 7fa1 efbc
00000160: c898 9cbb ae39 9c3d 2b54 88bd f48c a73d
00000170: 59ca 4ebe dd53 a43e 811a 343e fcd8 193c
00000180: b5e1 3d3c df4c 4f3e 6405 bdbd dd61 9e3d
00000190: 7101 f2bb f3ed 75bd dd00 53bd 30b6 25bd
000001a0: 1e96 e93c 83bc 52be 30a2 3c3e 8208 50bd
000001b0: 54d8 6fbb 05ec 82bd 623c fe3c 9481 79bd
000001c0: 21a9 c93d 7933 ffbd da0c 063d 613f b0bd
000001d0: fbe8 0c3d 7301 c6bd 3553 c6bd ec77 10be
000001e0: c4e4 3b3e ff46 7abe fcd9 1dbe b8b1 10bd
000001f0: b37e 833d 33be 16be a893 0bbe 2d8b e5bb
00000200: 1f21 37bc b7c2 1ebc 588d 5cbd ab7f bfbd
00000210: fd9c 983d 1aad b03d fae0 b1bb 345e 96bd
00000220: a99e bf3c af05 103d b3ae 683d e9ac 88bb
00000230: 35fb 5bbd 3111 c7bc 8b26 24bc fc70 c2bd
00000240: 3afc 743d a558 89bd 889f dabd e58f a2bd
00000250: 2a44 14bd bcdc ed3c d624 883d 17d7 03bd
00000260: 80cc 65bd 997b 9b3d 4984 12bd 95c3 25bd
00000270: 7c10 6cbb b375 c53d c288 39bd 61e2 003b
00000280: 30ce cc3d d91c 8d3d ec9c 94bc b131 debd
00000290: 1cd7 adbc c281 d2bd dd9c 9cbd eff2 803b
000002a0: 8b3e 903d aad5 123c d974 a0bc 290a 03bc
000002b0: d06a 95bd a777 16bd d031 e03d 5100 ba3d
000002c0: b9ab 063d 3a1b 3dbd 7114 83bd e786 ac3d
000002d0: bea2 dc3d d04f b1bc 684c a43c 1295 cf3d
000002e0: dbc3 e2bc 7e7d a5bd 2c57 4a3d 3ace cd3d
000002f0: ca38 7e3b 43ca e23c bb13 243b 83ce a7bd
0.06839612 0.144223 -0.018724423 -0.05191781 0.004589573 -0.031190637 0.06966009 0.07088865
-0.11524789 0.14739588 0.09387478 -0.07074707 0.07938435 0.12360675 0.14591123 -0.040189702
-0.09451582 -0.04828859 -0.029516883 -0.09031051 -0.09153972 0.11051226 0.15307121 -0.0147099625
-0.028701661 0.020234037 0.03524852 -0.12681776 0.0115041025 0.009630687 -0.12705718 0.0019171928
-0.09043104 -0.042984877 0.038082514 -0.02575198 -0.06872538 -0.082728416 -0.108660825 -0.03496668
0.121115305 0.01915471 -0.023769671 0.124693945 -0.11854664 0.05061784 0.10164262 -0.030662652
0.09718074 0.0020903386 0.029205948 0.009685409 0.107947275 -0.010488755 0.07507588 0.09056141
0.018297058 0.11006893 -0.04067547 -0.028011762 0.062347453 0.24104266 0.06621516 0.07911664
0.092292964 -0.1693447 0.19609855 -0.0025719139 0.06882897 -0.14616922 -0.049618863 -0.120989576
0.008459679 0.17363003 -0.108868726 -0.06274038 0.20184207 0.07752922 -0.09793891 0.09131854
0.1608438 -0.09681577 -0.0778788 0.052056644 -0.02594322 0.031428806 0.032687344 -0.029251812
-0.004778955 0.07628189 -0.06656679 0.081811816 -0.20194377 0.32095233 0.17588235 0.009390112
0.011589457 0.20244168 -0.09229544 0.0773351 -0.0073854257 -0.06004138 -0.051514495 -0.04045695
0.028513964 -0.20579724 0.18421245 -0.050789364 -0.0036597447 -0.063926734 0.031034652 -0.06091459
0.09846712 -0.124609895 0.0327271 -0.086058386 0.034401875 -0.09668245 -0.09683839 -0.14108247
0.18348986 -0.24441145 -0.15415186 -0.035325736 0.0642065 -0.14720993 -0.13630545 -0.0070051164
-0.01117733 -0.009689978 -0.053845733 -0.093505226 0.07451818 0.086267665 -0.0054284306 -0.073421866
0.023391085 0.03516167 0.05680723 -0.004171003 -0.053706367 -0.02430019 -0.010018955 -0.09494206
0.059810854 -0.06706361 -0.106749594 -0.07937602 -0.03619782 0.029035918 0.06647651 -0.032187548
-0.05610323 0.07591934 -0.03577069 -0.040469725 -0.0036020568 0.0964159 -0.045296438 0.0019666182
0.10000265 0.06890268 -0.018141232 -0.10849322 -0.021220736 -0.102786556 -0.07647107 0.00393521
0.07043179 0.008962074 -0.019586967 -0.007998028 -0.072957635 -0.036735203 0.10947001 0.090820916
0.03287861 -0.046168543 -0.06400383 0.08424168 0.10773228 -0.021644503 0.020055965 0.10135855
-0.027681282 -0.08080576 0.04939954 0.100491 0.0038791173 0.027684337 0.0025036174 -0.08193686
