try5_realCTCFtrimmed1/100bp_1_positive_trim100_noimplant_pretrainedGen.pth (torch, 67895 bytes, 7 tensors)

embeddings.weight f4 [5, 16]
1.1340195 -0.24269158 -0.61074364 1.5552765 1.4566756 0.559197 -1.8325189 0.037780087
-1.0907172 -1.0736464 -0.44336644 -1.1006707 1.3501587 -0.406635 0.30847803 1.6643502
-0.40378428 0.040301442 1.192711 -0.8876975 -0.003086254 0.058928326 0.64561933 0.30566287
-1.2098869 -0.44514155 0.8645084 -0.6768315 -0.5867966 -0.71242684 -0.07850856 0.81413555
-0.40910596 -0.19983655 1.4686519 0.62406904 -0.075361624 0.14638993 0.53015304 -0.6017198
0.12329432 0.18697178 -1.7044996 1.2510598 0.4927903 0.101064056 1.0047002 0.1098968
0.20297638 1.1886444 -0.29759863 -0.5377832 1.094726 1.0711619 0.6605129 0.028531423
-0.45936647 0.08409984 -0.76183385 2.0088775 0.13546818 0.47650394 -0.8611865 0.47436517
-0.048100155 -0.134917 1.2532755 0.011345114 0.39685893 -0.05781557 -1.906235 -0.05867511
0.6326174 0.37774873 0.8162298 0.21650769 1.2620224 0.8783984 -0.05999996 0.5015485
00000000: 8d27 913f 2484 78be b259 1cbf 4d13 c73f
00000010: 5974 ba3f 8927 0f3f fb8f eabf 4bbf 1a3d
00000020: 9f9c 8bbf 3f6d 89bf ed00 e3be c7e2 8cbf
00000030: 00d2 ac3f 7632 d0be d5f0 9d3e 6d09 d53f
00000040: d0bc cebe 2013 253d c1aa 983f 2540 63bf
00000050: c042 4abb d45e 713d 4f47 253f d87f 9c3e
00000060: 93dd 9abf 98e9 e3be 6c50 5d3f d444 2dbf
00000070: 4d38 16bf 9b61 36bf 19c9 a0bd 306b 503f
00000080: 5676 d1be f4a1 4cbe c9fc bb3f fdc2 1f3f
00000090: 3257 9abd 3ee7 153e 1cb8 073f 4f0a 1abf
000000a0: bc81 fc3d 8875 3f3e 0b2d dabf ba22 a03f
000000b0: 034f fc3e acfa ce3d 049a 803f 9311 e13d
000000c0: 0ad9 4f3e 8025 983f d95e 98be 29ac 09bf
000000d0: fb1f 8c3f d51b 893f 6017 293f bbba e93c
000000e0: 1532 ebbe 893c ac3d 8b07 43bf 7391 0040
000000f0: 2cb8 0a3e 53f8 f33e b876 5cbf fedf f23e
00000100: ab04 45bd af27 0abe 556b a03f dbe0 393c
00000110: 1831 cb3e 05d0 6cbd 82ff f3bf 5055 70bd
00000120: 37f3 213f 4868 c13e 70f4 503f 31b4 5d3e
00000130: f389 a13f b8de 603f 85c2 75bd 7c65 003f

gru.weight_ih_l0 f4 [192, 16]
0.0047100987 -0.30273095 0.10847188 0.6316267 -0.29451564 0.015417667 0.20330018 -0.052190296
-0.19389005 -0.10962731 -0.113805905 -0.15426673 0.020067595 -0.27372 0.48350868 0.12304119
0.09278747 -0.37048772 -0.23732693 0.84417677 -0.12434222 -0.2729568 -0.5636948 -0.165194
0.3795053 0.14162897 -0.008615005 -0.1707955 0.2511912 0.23198862 0.67592573 -0.2678011
0.30179572 0.537706 -0.43156242 -0.040304642 0.32935777 0.33739784 0.11197656 -0.06003716
0.18591446 0.28449777 -0.4171944 0.59603125 0.2586884 0.49454212 -0.7092043 -0.1810261
0.20995034 0.964646 -0.37246475 -0.18822102 0.4930236 0.41248995 0.0054069604 -0.00026465865
0.08805612 -0.0034504056 0.038983896 0.18869306 -0.16119695 0.09541695 -0.3622731 -0.041581526
-0.046618566 -0.30882856 0.19640647 0.21840566 -0.22389948 -0.16049615 -0.47013068 -0.08611672
0.3314764 0.17498787 0.27676475 -0.15194263 0.123890825 0.055490147 0.6686168 -0.013325584
-0.16068971 0.109168865 -0.041000746 -0.16705804 0.098031476 0.022401202 0.42878813 0.059326425
-0.46710435 -0.28629172 -0.21828756 0.13933785 -0.14531788 -0.2767654 -0.006965894 0.22123455
0.030916173 -0.44348648 0.14715111 0.7555057 0.18821087 -0.05166995 -0.6305474 -0.28397545
0.50137794 0.32728845 -0.35807934 0.22428484 0.552176 0.40878102 0.6908777 0.1257418
-0.5755873 -0.26797357 0.40783712 0.36816126 -0.1273199 -0.049799956 0.20793192 -0.32865697
0.011385658 -0.014568129 -0.26417363 0.10427499 0.015843507 -0.17250042 0.68796885 0.08070768
-0.09097026 -0.009637327 0.30052224 -0.17635502 0.3483477 0.09546794 -0.5518634 -0.033661027
-0.047333073 0.12928492 0.2742893 -0.27447 0.38550264 0.34367913 -0.15864584 0.5243382
-0.0900838 0.11854115 0.2847514 -0.53597146 0.25440758 0.11935392 -0.12874162 0.23746726
-0.3966663 -0.10876126 0.480183 -0.049089313 -0.08527312 0.14857721 -0.28323212 0.24675554
-0.25348443 -0.19982097 0.54856986 0.19138677 0.10458173 -0.039182685 -0.2894807 -0.16130392
-0.2252652 -0.15173574 0.02743154 -0.02343231 0.36035478 0.07822555 0.44996753 0.3854954
0.106472254 0.16781949 -0.2308239 -0.4235647 -0.0050830864 -0.12708206 -0.25928587 0.88479894
-0.26056245 -0.26325756 0.87611145 -0.4631236 -0.11087165 -0.17483117 -0.63161546 0.30823433
-0.27424958 0.20755114 0.17136572 0.028268328 0.23444085 0.3622657 0.45758936 -0.39483726
-0.20155579 0.16257071 -0.6672085 0.35997382 0.14804055 0.2263708 0.44989634 0.062012043
-0.0643174 -0.47832173 0.089551486 0.020119345 -0.28606454 -0.2334516 -0.15577729 0.029403185
-0.29985446 -0.14958034 0.078210406 -0.09344882 -0.011690149 -0.1588036 0.16441551 0.22849907
0.019325865 0.33624274 -0.2628363 -0.21250135 0.28581047 0.18656181 0.49817178 -0.008709074
-0.5096513 -0.21992943 -0.23335303 0.0133534735 -0.34895557 -0.33571002 -0.12730828 0.04492897
-0.0902952 -0.867563 0.08538035 0.56903374 -0.5613092 -0.6497244 -0.7255524 -0.15849726
0.87406707 0.2748358 0.21284309 -0.3364235 0.37676337 0.10628987 0.58429456 -0.36540705
00000000: 2c57 9a3b 8dff 9abe 8126 de3d 4ab2 213f
00000010: c1ca 96be 629a 7c3c ec2d 503e 7ec5 55bd
00000020: 1d8b 46be 4884 e0bd 1213 e9bd 19f8 1dbe
00000030: cc64 a43c 0725 8cbe 738e f73e 05fd fb3d
00000040: 5b07 be3d 91b0 bdbe d505 73be f81b 583f
00000050: 22a7 febd fec0 8bbe 4d4e 10bf 9e28 29be
00000060: 854e c23e 2f07 113e f325 0dbc 04e5 2ebe
00000070: 229c 803e 6d8e 6d3e 7809 2d3f 3a1d 89be
00000080: f884 9a3e 1aa7 093f c0f5 dcbe 7b16 25bd
00000090: 95a1 a83e 69bf ac3e f753 e53d 86e9 75bd
000000a0: 5c60 3e3e b1a9 913e 819a d5be 8195 183f
000000b0: ce72 843e a034 fd3e 6a8e 35bf e85e 39be
000000c0: 39fd 563e 0af3 763f b3b3 bebe 03bd 40be
000000d0: 976d fc3e e231 d33e df2c b13b e2c1 8ab9
000000e0: c456 b43d 3320 62bb 94ad 1f3d c138 413e
000000f0: d010 25be f669 c33d dc7b b9be 6451 2abd
00000100: 1cf3 3ebd c71e 9ebe c71e 493e bca5 5f3e
00000110: e845 65be 1a59 24be f8b4 f0be f75d b0bd
00000120: 46b7 a93e 0530 333e 1cb4 8d3e d996 1bbe
00000130: 79ba fd3d a349 633d 782a 2b3f 8d53 5abc
00000140: d88b 24be ed93 df3d 66f0 27bd 4311 2bbe
00000150: bac4 c83d ba82 b73c 1e8a db3e 4400 733d
00000160: 4d28 efbe d494 92be c686 5fbe 95ae 0e3e
00000170: 36ce 14be 32b4 8dbe 2742 e4bb 4f8b 623e
00000180: ea43 fd3c a910 e3be c8ae 163e d268 413f
00000190: 5aba 403e dfa3 53bd 8e6b 21bf 3b65 91be
000001a0: 4e5a 003f 5a92 a73e 2d56 b7be edaa 653e
000001b0: 685b 0d3f bf4b d13e 5cdd 303f 75c2 003e
000001c0: b059 13bf d533 89be 07d0 d03e a27f bc3e
000001d0: 2660 02be 0afb 4bbd 1bec 543e ba45 a8be
000001e0: e98a 3a3c 29af 6ebc c441 87be 208e d53d
000001f0: 3eca 813c f3a3 30be ba1e 303f 114a a53d
00000200: 9e4e babd e1e5 1dbc 0dde 993e 6996 34be
00000210: a15a b23e b284 c33d eb46 0dbf 25e0 09bd
00000220: 53e0 41bd 4463 043e a66f 8c3e 5587 8cbe
00000230: 9a60 c53e b6f6 af3e 0e74 22be 073b 063f
00000240: db7d b8bd b4c5 f23d efca 913e 6d35 09bf
00000250: b641 823e d46f f43d d8d4 03be 9e2a 733e
00000260: d817 cbbe 39be debd 8cda f53e e011 49bd
00000270: aca3 aebd a024 183e cd03 91be 7cad 7c3e
00000280: b6c8 81be de9d 4cbe 136f 0c3f e5fa 433e
00000290: f22e d63d 067e 20bd d036 94be db2c 25be
000002a0: ecab 66be 9d60 1bbe 1cb8 e03c 1ef5 bfbc
000002b0: 6c80 b83e b834 a03d 2562 e63e a75f c53e
000002c0: 200e da3d dfd8 2b3e 1a5d 6cbe 79dd d8be
000002d0: 0590 a6bb cd21 02be 1ec1 84be 2f82 623f
000002e0: 7168 85be b2c9 86be d748 603f 891e edbe
000002f0: ad10 e3bd f106 33be 8db1 21bf e4d0 9d3e
00000300: 716a 8cbe 4988 543e 7f7a 2f3e fb92 e73c
00000310: 4311 703e e47a b93e 2749 ea3e 1c28 cabe
00000320: a464 4ebe f078 263e 2dce 2abf 7d4e b83e
00000330: f197 173e bfcd 673e d058 e63e 5700 7e3d
00000340: d7b8 83bd 96e6 f4be c566 b73d 53d1 a43c
00000350: 0d77 92be f00d 6fbe 1584 1fbe f3de f03c
00000360: 8686 99be 972b 19be c72c a03d 1862 bfbd
00000370: 0a88 3fbc 699d 22be 8a5c 283e a9fb 693e
00000380: 4751 9e3c 0228 ac3e 7b92 86be f499 59be
00000390: c055 923e 0f0a 3f3e 5f10 ff3e 81b0 0ebc
000003a0: 8278 02bf 2e35 61be 19f4 6ebe 87c8 5a3c
000003b0: 4eaa b2be 2fe2 abbe 1a5d 02be 7107 383d
000003c0: b1ec b8bd 9c18 5ebf e5db ae3d 32ac 113f
000003d0: f6b1 0fbf 5754 26bf cdbd 39bf 1b4d 22be
000003e0: dcc2 5f3f 47b7 8c3e 8af3 593e b33f acbe
000003f0: 21e7 c03e 81ae d93d 5494 153f a216 bbbe

gru.weight_hh_l0 f4 [192, 64]
-0.00767377 0.6030096 0.034120172 0.3100943 -1.2127802 -0.104582645 0.15611565 0.3266064
0.00901268 0.048573077 0.15490487 1.085469 0.4088039 -0.015096103 0.65400517 -0.35297903
0.056279358 -0.37227702 -0.0398982 0.9763653 0.27105892 -0.19342825 -0.092165366 0.06625397
-0.4583732 0.11506274 0.04895837 0.33615264 0.18899317 -0.4049357 0.08943731 -0.13797283
1.0284572 0.43324605 -0.30862647 0.043268867 0.01962456 0.102764495 0.116506875 -0.067775026
0.36453968 -1.203243 -0.703073 0.3451175 -0.02917569 -0.46952507 0.55273646 0.13666917
0.51883715 0.35617703 -0.0650924 0.04538267 -0.128098 0.00389636 1.3575108 -0.14323647
-0.14754812 0.24932396 0.07785536 -0.5695683 -0.09582479 0.15791264 -0.61501914 -0.4889293
0.36842728 0.037489597 0.4058415 -0.02137316 0.90655035 0.32211137 -0.145458 -0.5858234
0.5014783 0.04345644 -0.32133493 0.6335336 0.17255503 -0.31998253 -0.20662418 0.20719561
-0.010678021 -0.30914462 -0.64254713 0.0757773 0.32547146 0.07909631 0.14029633 -0.4382487
0.44388226 0.4979431 0.29194373 -0.90434635 -0.16920324 0.07640605 -0.16451024 -0.21866168
-0.096341364 -0.05628857 -0.007932153 -0.07411951 0.009528059 0.5185115 -0.2208581 -0.16552623
0.57807946 -0.018193986 -0.06347194 0.073152006 0.24160522 -0.0077712806 0.36789003 0.24209791
-0.018426672 -0.98321354 -0.16556802 0.68819153 0.12844452 0.007833113 0.09287666 0.05517061
0.073436424 -0.05778523 0.19501777 -0.08053342 0.35319194 0.3345436 0.20117831 -0.095342785
-0.21179858 0.18822367 -0.71709657 0.3935492 -0.23544398 -0.13270737 0.004864773 0.43144038
-0.07498706 -0.10907276 -0.22260997 0.42053735 0.13817264 -0.5478793 -0.008882306 -0.49971026
0.039410267 0.07123206 0.17847516 -0.19675048 0.25565475 0.25101 0.4961464 0.23832086
0.11749174 -0.0032543372 0.1364346 -0.12179863 -0.07720905 0.25523806 -0.12591372 0.061709143
0.23352182 -0.23765525 0.08322008 0.010541114 -0.07828284 0.13810997 -0.028795553 0.15662895
-0.43584555 0.32803673 -0.2331762 0.21679203 -0.10181959 0.056540485 0.15784138 -0.15354803
-0.38359377 0.014612784 -0.005610389 -0.27200353 0.15457647 0.07304115 -0.3039436 -0.24649134
0.01832541 -0.0048670145 0.11130975 0.02158117 0.17040719 -0.45030662 0.22676596 0.1417451
-0.028340349 -0.26594883 -0.7290279 0.35373092 -0.20385173 -0.3628379 0.24653935 -0.80754566
0.12205678 0.18443686 0.3182171 -0.6646264 0.6560837 0.8648444 0.21906465 -0.15707768
-0.0014248948 0.61509514 -0.24754357 0.5536003 0.030521754 0.15295249 -0.49112898 -0.03449941
-0.61098576 -0.096385896 0.038651116 0.11855044 -0.434918 -0.044202004 -0.079748064 -0.220104
-0.16893111 -0.42040956 0.039995454 0.07278547 -0.08204357 0.2688977 -0.18623394 -0.31335768
-0.4004555 0.19953215 -0.102367625 -0.08040401 0.1408411 -0.5668659 -0.62698185 0.15016352
0.17268266 0.69856954 0.040907152 2.4486754 -0.057565033 0.17576286 0.024553854 -0.15492174
0.2750221 1.2983546 0.06563436 0.0489147 0.076545075 0.18377848 -1.1630228 -0.3580273
00000000: 4074 fbbb d65e 1a3f 98c1 0b3d aec4 9e3e
00000010: 623c 9bbf 6d2f d6bd c8dc 1f3e f438 a73e
00000020: eba9 133c 90f4 463d 629f 1e3e a6f0 8a3f
00000030: bf4e d13e a555 77bc e26c 273f abb9 b4be
00000040: 2f85 663d 189b bebe 4c6c 23bd 14f3 793f
00000050: 3cc8 8a3e 0e12 46be 32c1 bcbd 29b0 873d
00000060: e4af eabe 04a6 eb3d 9288 483d 331c ac3e
00000070: 6d87 413e bb53 cfbe e92a b73d c048 0dbe
00000080: 7ca4 833f 6dd2 dd3e 4a04 9ebe b23a 313d
00000090: afc3 a03c 3176 d23d 289b ee3d a2cd 8abd
000000a0: f2a4 ba3e de03 9abf 98fc 33bf 3eb3 b03e
000000b0: db01 efbc 9765 f0be 2380 0d3f 01f3 0b3e
000000c0: 83d2 043f d65c b63e 2a4f 85bd 2ee3 393d
000000d0: 1f2c 03be 135a 7f3b eac2 ad3f 95ac 12be
000000e0: db16 17be c84e 7f3e a272 9f3d 3acf 11bf
000000f0: ca3f c4bd dab3 213e e571 1dbf f154 fabe
00000100: 80a2 bc3e b18e 193d 75ca cf3e c416 afbc
00000110: af13 683f c8eb a43e f1f2 14be 86f8 15bf
00000120: e260 003f 61ff 313d 0386 a4be 422f 223f
00000130: 44b2 303e c0d4 a3be 4a95 53be 162b 543e
00000140: def2 2ebc 3448 9ebe f87d 24bf 2131 9b3d
00000150: 32a4 a63e 3ffd a13d d7a9 0f3e 2262 e0be
00000160: 8944 e33e 66f2 fe3e a679 953e 3e83 67bf
00000170: 9d43 2dbe c67a 9c3d 5f75 28be d9e8 5fbe
00000180: 9f4e c5bd d88e 66bd dcf5 01bc f8cb 97bd
00000190: 931b 1c3c 2bbd 043f a028 62be b57f 29be
000001a0: 04fd 133f 8e0b 95bc 94fd 81bd b8d0 953d
000001b0: 5c67 773e 3aa6 febb 155c bc3e 84e8 773e
000001c0: 88f3 96bc e2b3 7bbf aa8a 29be 522d 303f
000001d0: f686 033e 7556 003c 1e36 be3d 94fa 613d
000001e0: d665 963d 35b0 6cbd bdb2 473e b5ee a4bd
000001f0: 93d5 b43e 4c49 ab3e b001 4e3e 1443 c3bd
00000200: bae1 58be b5bd 403e a493 37bf 487f c93e
00000210: 3a18 71be 71e4 07be ac68 9f3b c1e5 dc3e
00000220: d192 99bd 8a61 dfbd def3 63be ac50 d73e
00000230: 217d 0d3e d141 0cbf 1787 11bc 06da ffbe
00000240: a96c 213d 1de2 913d 31c2 363e f578 49be
00000250: 2ee5 823e 6284 803e e706 fe3e 620a 743e
00000260: 829f f03d b846 55bb 83b5 0b3e 8f71 f9bd
00000270: c71f 9ebd 90ae 823e 87ef 00be bac2 7c3d
00000280: 5820 6f3e e65b 73be 4a6f aa3d a3b4 2c3c
00000290: c152 a0bd b36c 0d3e a7e4 ebbc 5763 203e
000002a0: 2627 dfbe 6ef4 a73e bec5 6ebe bbfe 5d3e
000002b0: ca86 d0bd ff96 673d 2ca1 213e b23b 1dbe
000002c0: 6766 c4be 756a 6f3c 5bd7 b7bb 0c44 8bbe
000002d0: 4b49 1e3e 9996 953d 7f9e 9bbe 3a68 7cbe
000002e0: 2c1f 963c 7a7b 9fbb 5ef6 e33d feca b03c
000002f0: 397f 2e3e 978e e6be 5635 683e a125 113e
00000300: 052a e8bc 722a 88be 93a1 3abf 381c b53e
00000310: 82be 50be e4c5 b9be d074 7c3e 50bb 4ebf
00000320: e8f8 f93d 04dd 3c3e 5aed a23e f524 2abf
00000330: 1af5 273f 7166 5d3f 7c52 603e f9d8 20be
00000340: 89c3 baba e076 1d3f 107c 7dbe c0b8 0d3f
00000350: c208 fa3c 949f 1c3e 4275 fbbe 414f 0dbd
00000360: 9069 1cbf f865 c5bd a250 1e3d 93ca f23d
00000370: 92ad debe 290d 35bd f452 a3bd f162 61be
00000380: 47fc 2cbe ec3f d7be 46d2 233d 8c10 953d
00000390: 7606 a8bd f6ac 893e 1cb4 3ebe 6b70 a0be
000003a0: 8108 cdbe 2852 4c3e 1ea6 d1bd dcaa a4bd
000003b0: a638 103e 201e 11bf e281 20bf 77c4 193e
000003c0: b9d3 303e 74d5 323f 428e 273d 19b7 1c40
000003d0: 50c9 6bbd 2efb 333e 2a25 c93c cea3 1ebe
000003e0: b2cf 8c3e 7c30 a63f 4f6b 863d c85a 483d
000003f0: aac3 9c3d 6d30 3c3e eedd 94bf 5b4f b7be

gru.bias_ih_l0 f4 [192]
-0.10650567 -0.055016704 -0.05220004 -0.09707021 0.03147868 0.2277239 0.20639922 0.19719203
0.3871623 0.110668704 0.4008783 0.10172125 0.1873736 -0.050661422 -0.111311994 -0.16418993
-0.02926933 0.13822082 0.081480846 -0.14975135 0.35505435 -0.1442017 -0.062075432 0.010894019
-0.122792095 0.088066645 -0.0058382247 -0.07285311 -0.105478175 0.144815 0.28663734 0.09627251
-0.20173381 -0.21087308 0.06076707 0.23563257 0.08493189 0.22006689 -0.03038834 -0.04660924
0.016909603 -0.040153597 -0.07115053 0.11356671 0.21265973 0.16322874 0.46404567 0.18053299
-0.17325573 0.21736744 0.11850625 0.17559637 0.15655719 -0.03943358 -0.23796184 0.36810365
0.24216677 0.21886186 0.1608918 -0.06320572 0.20826875 -0.085303426 0.08553802 0.12784807
0.0838463 0.4620603 0.6878662 -0.083168596 0.20610094 -0.596638 -0.3846125 0.11117194
-0.5195987 0.15414602 -0.5406063 -0.39020374 -0.13142152 -0.22124672 -0.42905903 -0.06665592
-0.46633086 0.24881144 -0.39125514 -0.0809388 0.28032923 0.44799423 -0.5165709 0.18165787
0.07334028 -0.62696755 0.33285147 -0.14958943 -0.10990768 0.21491043 0.29276344 -0.032555938
-0.24822986 0.0023365223 0.3768554 -0.6867546 0.05646493 -0.5261068 0.19390926 0.084592424
0.04750066 0.13353185 -0.79961544 0.5772739 -0.44755098 -0.47205833 -0.34584677 0.0077424054
-0.2644783 -0.18230952 0.40717041 -0.07757847 -0.67258847 -0.21150135 0.4264909 0.048571788
-0.24102591 -0.3777929 -0.10812044 0.20837797 0.14757003 -0.07722673 -0.4189891 -0.5180771
-0.0126177315 0.036138285 0.09475137 -0.28377497 0.081992455 -0.091810144 0.13337222 0.04748513
-0.205104 -0.105579846 0.17278954 0.093073264 -0.009333262 -0.19504341 -0.024510663 0.16243568
0.10493408 0.086092375 0.16719386 -0.006219504 0.10102981 -0.07796566 0.0952446 0.115668125
0.004674633 -0.17551352 -0.020584267 0.017786486 -0.037429508 -0.17721549 -0.2994922 0.098642156
0.111732826 0.13340494 0.17916216 -0.12594402 0.03164191 0.07990297 0.07832325 -0.043775298
-0.024561137 0.06435178 -0.13847978 -0.0755274 -0.008909209 -0.16065344 0.019271588 0.030798418
-0.11408193 0.08748511 0.14176646 -0.044887763 -0.22406104 0.044480514 -0.1318606 -0.20840946
0.10737309 -0.1563958 -0.20556831 0.12376166 -0.08171221 -0.056562502 0.13408056 0.007453937
00000000: a51f dabd 3259 61bd b6cf 55bd bfcc c6bd
00000010: caef 003d 7430 693e 515a 533e b5ec 493e
00000020: 233a c63e 46a6 e23d ec3f cd3e 3b53 d03d
00000030: ddde 3f3e 5a82 4fbd 8bf7 e3bd 6821 28be
00000040: 3cc6 efbc c289 0d3e 6edf a63d 6b58 19be
00000050: afc9 b53e 9ca9 13be cf42 7ebd d47c 323c
00000060: 6c7a fbbd 495c b43d 944e bfbb 0334 95bd
00000070: f104 d8bd 624a 143e 21c2 923e 862a c53d
00000080: 4f93 4ebe 1def 57be e4e6 783d aa49 713e
00000090: c5f0 ad3d 3759 613e f8f0 f8bc 55e9 3ebd
000000a0: 0286 8a3c 1978 24bd 5eb7 91bd aa95 e83d
000000b0: 79c3 593e 6f25 273e 6597 ed3e a4dd 383e
000000c0: f369 31be 9295 5e3e 68b3 f23d 89cf 333e
000000d0: 8750 203e 1b85 21bd 45ac 73be 1578 bc3e
000000e0: 91fa 773e 531d 603e d2c0 243e 0072 81bd
000000f0: 6744 553e 90b3 aebd 8f2e af3d 9bea 023e
00000100: 9cb7 ab3d 2b93 ec3e 0018 303f 4c54 aabd
00000110: 200c 533e 45bd 18bf eeeb c4be 1dae e33d
00000120: 6c04 05bf 74d8 1d3e 2d65 0abf c9c8 c7be
00000130: 5d93 06be 808e 62be a0ad dbbe e682 88bd
00000140: ebc2 eebe 6dc8 7e3e 9852 c8be 3ec3 a5bd
00000150: 5087 8f3e 805f e53e fe3d 04bf 8504 3a3e
00000160: 6e33 963d f280 20bf 826b aa3e f92d 19be
00000170: 4717 e1bd 7b11 5c3e 17e5 953e 6059 05bd
00000180: f82f 7ebe 5720 193b 31f3 c03e 26cf 2fbf
00000190: c547 673d efae 06bf 2690 463e cb3e ad3d
000001a0: 0d90 423d 93bc 083e 99b3 4cbf 39c8 133f
000001b0: 6725 e5be a1b1 f1be d412 b1be 01b4 fd3b
000001c0: b369 87be 59af 3abe a478 d03e 76e1 9ebd
000001d0: c22e 2cbf cf93 58be 045d da3e 36f3 463d
000001e0: 7fcf 76be 126e c1be 406e ddbd 0961 553e
000001f0: 991c 173e 0c29 9ebd bd85 d6be b3a0 04bf
00000200: 9aba 4ebc bd05 143d 020d c23d f44a 91be
00000210: a9eb a73d f506 bcbd ba92 083e c57f 423d
00000220: c806 52be 3f3a d8bd beef 303e 329d be3d
00000230: 8aea 18bc 76b9 47be 96ca c8bc 8a55 263e
00000240: aee7 d63d 3351 b03d de34 2b3e fbcc cbbb
00000250: b8e8 ce3d 76ac 9fbd 9a0f c33d 69e3 ec3d
00000260: aa2d 993b d1b9 33be 56a0 a8bc f7b4 913c
00000270: af4f 19bd fa77 35be 0b57 99be e604 ca3d
00000280: 2ed4 e43d 4e9b 083e 4976 373e 78f7 00be
00000290: f39a 013d 2ba4 a33d f167 a03d ba4d 33bd
000002a0: 7034 c9bc deca 833d a5cd 0dbe 1cae 9abd
000002b0: eef7 11bc 5682 24be 73df 9d3c f74c fc3c
000002c0: c9a3 e9bd 652b b33d 3a2b 113e 3bdc 37bd
000002d0: 4270 65be 3331 363d 7706 07be 4a69 55be
000002e0: 6ce6 db3d 3826 20be 8080 52be c176 fd3d
000002f0: bb58 a7bd 15ae 67bd 6a4c 093e 2840 f43b

gru.bias_hh_l0 f4 [192]
0.056868296 -0.17116949 -0.015266834 -0.065089464 -0.13055 0.17316294 0.20492989 0.21353821
0.46817562 0.22282563 0.30257443 0.07161526 0.27232265 0.06522025 0.062832795 -0.14333808
-0.042616643 0.036595017 0.017116683 -0.25041872 0.29587734 -0.19593853 -0.07291152 -0.05230356
-0.13804322 0.099839166 0.0074844034 0.07672965 -0.05585394 0.034355912 0.12580131 0.13279425
-0.16324665 -0.06207182 0.20988192 0.03330824 0.23078443 0.2701749 -0.06096849 0.011498191
-0.15568027 -0.17063914 -0.14249349 0.04477123 0.11313107 0.12765545 0.49033692 0.080987446
0.020581454 0.15307692 0.15366219 0.24079818 0.17810823 -0.06257581 -0.23230515 0.18690641
0.24027173 0.04109115 0.14038956 -0.026399823 -0.008704619 -0.14013413 0.10302351 0.10070191
0.07046778 0.45741695 0.7536242 -0.14708821 0.30758306 -0.6479969 -0.20109528 -0.08878818
-0.68213314 0.3733369 -0.33932737 -0.4167323 -0.17111902 -0.23471832 -0.549256 -0.14271702
-0.48379266 0.08308613 -0.3400479 -0.18171488 0.10490288 0.24995476 -0.37326896 0.37277147
0.108267345 -0.61715025 0.3974635 -0.24671654 -0.12360664 0.194642 0.3266822 0.025635831
-0.20442843 -0.011411249 0.40040353 -0.9015081 -0.0117167635 -0.62315565 0.3959224 0.13254979
0.05281294 0.15691853 -0.5865715 0.34995642 -0.39391643 -0.52437556 -0.41426954 0.13177411
-0.23378046 -0.23843911 0.35357305 -0.08681915 -0.5910763 -0.07032996 0.45997322 -0.07079765
-0.3645592 -0.38139063 -0.27723297 0.16728733 0.12745565 -0.0045244647 -0.5921088 -0.439912
0.050628252 0.13588254 -0.06203411 -0.18203579 0.030776458 -0.051798977 0.1558045 -0.11351467
-0.18159482 0.03657816 -0.0795058 0.09344563 -0.035728775 0.07327051 -0.049811352 0.015864655
-0.09638635 -0.057648446 -0.04703274 -0.08557386 -0.25859556 -0.10385595 0.057681773 0.029566785
0.17003152 0.12986645 -0.11796429 0.0510675 -0.0719389 -0.08385336 0.3049198 0.07198378
0.026239755 0.14115968 0.18685675 -0.15306194 0.16995992 -0.11688158 0.08833358 -0.02225332
-0.0018251159 0.007165566 0.022391608 -0.03687125 -0.21834324 0.22426432 -0.06335567 -0.059573945
0.025518935 0.059004866 0.22962353 -0.09163828 -0.27388316 -0.13950288 -0.030971373 -0.20757647
-0.33068207 -0.16813207 -0.12869878 0.04330179 -0.18114106 -0.015291873 0.13952993 -0.065771066
00000000: bbee 683d 0e47 2fbe be21 7abc a04d 85bd
00000010: e6ae 05be a051 313e 24d9 513e c3a9 5a3e
00000020: b7b4 ef3e 672c 643e 09eb 9a3e 05ab 923d
00000030: e06d 8b3e 3292 853d 7bae 803d 38c7 12be
00000040: ca8e 2ebd a8e4 153d 4938 8c3c e236 80be
00000050: 3c7d 973e 1ca4 48be a352 95bd 423c 56bd
00000060: 345b 0dbe 7a78 cc3d ba3f f53b 6f24 9d3d
00000070: 1ac7 64bd c9b8 0c3d 0fd2 003e 37fb 073e
00000080: 212a 27be 053f 7ebd 49eb 563e 396e 083d
00000090: c152 6c3e 5d54 8a3e 18ba 79bd e962 3c3c
000000a0: a66a 1fbe 07bc 2ebe d0e9 11be 0a62 373d
000000b0: 43b1 e73d 1cb8 023e 710d fb3e bfdc a53d
000000c0: 709a a83c 32c0 1c3e 9f59 1d3e cc93 763e
000000d0: 0162 363e bf27 80bd 67e1 6dbe 6564 3f3e
000000e0: cb09 763e 324f 283d 48c2 0f3e 7144 d8bc
000000f0: d19d 0ebc 527f 0fbe fdfd d23d ce3c ce3d
00000100: 6951 903d 8e32 ea3e 84ed 403f 4b9e 16be
00000110: 877b 9d3e 20e3 25bf eceb 4dbe 94d6 b5bd
00000120: 47a0 2ebf 0426 bf3e 51bc adbe f05d d5be
00000130: d339 2fbe 005a 70be 0b9c 0cbf 6924 12be
00000140: acb3 f7be 1029 aa3d c21a aebe 7713 3abe
00000150: 52d7 d63d 24f4 7f3e 1c1d bfbe e7db be3e
00000160: 45bb dd3d 8ffd 1dbf 5680 cb3e 43a3 7cbe
00000170: 7a25 fdbd 3c50 473e e442 a73e 3c02 d23c
00000180: b055 51be 3ff6 3abc b101 cd3e 3cc9 66bf
00000190: abf7 3fbc 2187 1fbf 57b6 ca3e 22bb 073e
000001a0: 6252 583d 40af 203e 8d29 16bf 7d2d b33e
000001b0: 6aaf c9be 7a3d 06bf 231b d4be cbef 063e
000001c0: 2564 6fbe 6229 74be 8707 b53e 3dce b1bd
000001d0: c750 17bf 2709 90bd 9c81 eb3e 5cfe 90bd
000001e0: 81a7 babe a245 c3be 7bf1 8dbe 5f4d 2b3e
000001f0: bc83 023e f641 94bb 7194 17bf 253c e1be
00000200: 925f 4f3d cb24 0b3e 7b17 7ebd 9767 3abe
00000210: e91e fc3c 2a2b 54bd 378b 1f3e 617a e8bd
00000220: fef3 39be fbd2 153d f0d3 a2bd 6c60 bf3d
00000230: 5658 12bd d90e 963d fd06 4cbd 98f6 813c
00000240: 3566 c5bd c720 6cbd 67a5 40bd 5941 afbd
00000250: a366 84be 6eb2 d4bd b943 6c3d 0b36 f23c
00000260: be1c 2e3e b6fb 043e 4397 f1bd 282c 513d
00000270: b454 93bd 4fbb abbd 731e 9c3e 3b6c 933d
00000280: c1f4 d63c 2a8c 103e 6057 3f3e 45bc 1cbe
00000290: f909 2e3e 9c5f efbd 3ce8 b43d 984c b6bc
000002a0: ba38 efba 20cd ea3b 9b6e b73c 4f06 17bd
000002b0: 5f95 5fbe 8ca5 653e 9ec0 81bd cf03 74bd
000002c0: 160d d13c 16af 713d 6e22 6b3e daac bbbd
000002d0: 6a3a 8cbe d8d9 0ebe adb7 fdbc ed8e 54be
000002e0: 294f a9be d02a 2cbe 9dc9 03be 385d 313d
000002f0: 0b7d 39be c48a 7abc efe0 0e3e fbb2 86bd

gru2out.weight f4 [5, 64]
-0.017946392 -0.35994065 -0.010353736 0.6760248 0.00872252 -0.052157346 -0.430908 0.052641954
0.26527426 -0.65275615 -0.18002903 0.12260036 0.0016475985 0.2708643 0.4642917 0.055464443
0.22152415 0.024380129 -0.3454538 -0.28853878 0.3783092 0.24914637 -0.47270313 -0.7620978
-0.055597905 -0.510924 0.5223546 -0.5983629 0.21392131 0.5972669 -0.3562298 -0.027252577
0.08170782 -0.21114948 -0.18503518 0.70722693 -0.56559086 0.4941736 -0.5411479 -0.08863984
-0.3656714 -0.03331504 0.13802968 0.2348355 0.478347 -0.63340664 0.36382523 0.40342903
-0.2063064 -0.34297836 -0.27336448 -0.111364804 0.36808586 0.45342034 -0.028209897 0.49730498
0.5165225 0.47223845 0.94776857 -0.1841162 0.3339825 0.34836325 -0.046162073 0.39742982
0.025433918 0.030718492 0.043607388 -0.059043445 -0.011590344 -0.01801047 0.25100592 0.07347075
-0.14818206 -0.026974706 0.2294619 -0.122947715 -0.054982115 0.23981251 0.059057772 -0.057759255
-0.029524641 0.021464806 0.086447045 -0.14639187 -0.06866964 0.04828877 -0.013200578 0.10030944
0.045771856 0.052279595 -0.02471893 0.12057474 -0.13418086 0.012598938 0.28026962 0.07828457
-0.22481741 -0.39367223 0.08346443 0.017045366 -0.030399285 -0.13783796 -0.014936664 -0.06688988
0.038463376 -0.035192214 0.033302005 -0.11675704 -0.10196325 0.19909947 -0.010089555 0.04687517
-0.03948634 0.0521153 0.05530459 -0.022697063 -0.14229204 0.1548985 -0.05693777 0.086921774
-0.13990383 -0.013297628 -0.13348866 0.012426693 -0.18347342 0.012990837 0.082271874 -0.08879623
-0.047126424 0.15530235 -0.07156499 -0.56130123 -0.00043805502 0.06069649 -0.015990296 -0.1552133
-0.13097925 0.03566291 -0.04508382 -0.19078398 0.18651125 -0.13822323 -0.016699545 0.24035697
-0.07640201 -0.09368495 0.119840644 -0.10272333 -0.13167042 -0.04820405 -0.04000853 0.078765504
0.04791943 0.0863984 0.061170775 0.050137922 0.107015 -0.077116095 -0.074877955 -0.06652997
0.04823673 0.20813884 0.10299269 -0.14317316 0.03806599 -0.04740399 -0.048712928 0.0702579
0.08985272 -0.048193134 -0.013865127 -0.117694564 -0.18090841 -0.12057377 0.174876 -0.18288238
0.0013322962 -0.09963542 0.05877813 -0.12756242 -0.305647 -0.11369315 -0.08579443 -0.12960172
-0.000132141 -0.17819223 -0.052568123 0.089496665 -0.113621034 0.02772455 -0.124898456 0.16912784
0.07039763 0.06112898 -0.24266924 0.43928367 -0.13997854 0.08099207 0.19297428 0.19233987
-0.10773074 0.15288179 -0.09613122 0.15435919 -0.078000486 -0.14878158 0.085863546 0.14272982
0.21744893 0.0819272 0.075244546 0.17448774 -0.08386254 -0.22840905 0.24684872 0.18022089
0.010268395 0.015968228 -0.2715507 0.13153945 -0.1507518 -0.21461052 0.1043629 -0.00089684065
0.15945815 0.06818272 0.14495815 -0.30211726 -0.044528477 0.1433895 0.13528103 0.092449196
-0.21985838 0.16499814 0.14317055 -0.10565726 -0.21937218 0.10933019 -0.030145109 0.04041779
0.10405924 0.15068659 0.16710027 0.120243534 0.20397244 -0.016609963 0.010660211 -0.28087285
-0.12128778 -0.15125132 0.17442633 0.14151281 0.12039387 -0.19243722 0.25183132 -0.14431812
00000000: 5004 93bc 244a b8be b7a2 29bc f60f 2d3f
00000010: e7e8 0e3c f1a2 55bd f99f dcbe 179f 573d
00000020: 07d2 873e 071b 27bf 8859 38be e615 fb3d
00000030: 3bf4 d73a baae 8a3e a4b7 ed3e af2e 633d
00000040: 3ad7 623e d6b8 c73c 52df b0be 5bbb 93be
00000050: beb1 c13e 3a20 7f3e 2506 f2be d718 43bf
00000060: a1ba 63bd eacb 02bf 08b9 053f 502e 19bf
00000070: 300e 5b3e 7ce6 183f c163 b6be cc40 dfbc
00000080: 6e56 a73d 9237 58be dd79 3dbe d30c 353f
00000090: 90ca 10bf 5204 fd3e ab88 0abf ce88 b5bd
000000a0: 4839 bbbe 5a75 08bd a757 0d3e b878 703e
000000b0: e6e9 f43e f026 22bf 4d47 ba3e 408e ce3e
000000c0: fc41 53be dc9a afbe 6ef6 8bbe 3b13 e4bd
000000d0: c075 bc3e b626 e83e 7118 e7bc c29e fe3e
000000e0: d23a 043f 3dc9 f13e f6a0 723f f588 3cbe
000000f0: c1ff aa3e ab5c b23e 7114 3dbd ec7b cb3e
00000100: cb5a d03c 59a5 fb3c a99d 323d 8ad7 71bd
00000110: 6de5 3dbc b18a 93bc d983 803e d577 963d
00000120: 0abd 17be 0ffa dcbc 0ff8 6a3e 03cc fbbd
00000130: ed34 61bd 6991 753e 90e6 713d f894 6cbd
00000140: a9dd f1bc f6d6 af3c 260b b13d c0e7 15be
00000150: aba2 8cbd 72ca 453d 3d47 58bc 096f cd3d
00000160: 457b 3b3d 2123 563d 5a7f cabc e4ef f63d
00000170: b566 09be c76b 4e3c 807f 8f3e a953 a03d
00000180: 8936 66be 688f c9be 66ef aa3d b9a2 8b3c
00000190: ec07 f9bc 6525 0dbe e9b8 74bc 90fd 88bd
000001a0: c68b 1d3d b625 10bd af67 083d 511e efbd
000001b0: 1cd2 d0bd bbe0 4b3e a94e 25bc 2e00 403d
000001c0: 6ebc 21bd da76 553d 1187 623d 31ef b9bc
000001d0: 01b5 11be b69d 1e3e 9437 69bd 0b04 b23d
000001e0: f342 0fbe 4bde 59bc 40b1 08be 5499 4b3c
000001f0: 75e0 3bbe 85d7 543c 287e a83d ccda b5bd
00000200: a307 41bd 9407 1f3e aa90 92bd 70b1 0fbf
00000210: c0aa e5b9 e29c 783d 15fe 82bc 3cf0 1ebe
00000220: 6d1f 06be 4613 123d d0a9 38bd e05c 43be
00000230: cefc 3e3e 648a 0dbe 7ccd 88bc 2320 763e
00000240: a878 9cbd e5dd bfbd 036f f53d 9c60 d2bd
00000250: 9cd4 06be 9c71 45bd fcdf 23bd cf4f a13d
00000260: 2a47 443d a5f1 b03d 358e 7a3d 6c5d 4d3d
00000270: ae2a db3d 0bef 9dbd 9d59 99bd dd40 88bd
00000280: e193 453d 5922 553e d5ed d23d fc9b 12be
00000290: 15eb 1b3d b02a 42bd 3587 47bd 60e3 8f3d
000002a0: b404 b83d 2a66 45bd 8f2a 63bc d909 f1bd
000002b0: 0e40 39be 61ef f6bd b212 333e 8545 3bbe
000002c0: 71a0 ae3a a80d ccbd 56c1 703d b99f 02be
000002d0: c37d 9cbe f4d7 e8bd fdb4 afbd 50b6 04be
000002e0: 548f 0ab9 0678 36be ac51 57bd 074a b73d
000002f0: 25b2 e8bd 981e e33c c3ca ffbd d92f 2d3e
00000300: a22c 903d 6262 7a3d 497e 78be cae9 e03e
00000310: 8956 0fbe 2cdf a53d 0d9b 453e bef4 443e
00000320: efa1 dcbd 0b8d 1c3e 72e0 c4bd 5610 1e3e
00000330: b8be 9fbd 335a 18be 3ad9 af3d c427 123e
00000340: efaa 5e3e 73c9 a73d d019 9a3d eaac 323e
00000350: 20c0 abbd 10e4 69be e9c5 7c3e d38b 383e
00000360: c53c 283c cdcf 823c b108 8bbe 47b2 063e
00000370: ae5e 1abe dcc2 5bbe 37bc d53d f519 6bba
00000380: ff48 233e 62a3 8b3d e96f 143e 1daf 9abe
00000390: 7e63 36bd b2d4 123e 1c87 0a3e 0156 bd3d
000003a0: 8e22 61be 46f5 283e 4d9b 123e d562 d8bd
000003b0: 1aa3 60be 82e8 df3d e0f2 f6bc 208d 253d
000003c0: 031d d53d 964d 1a3e 551c 2b3e 3e42 f63d
000003d0: 27de 503e 9e11 88bc 2aa8 2e3c 91ce 8fbe
000003e0: ba65 f8bd a0e1 1abe d19c 323e bce8 103e
000003f0: 1091 f63d 430e 45be 09f0 803e 21c8 13be

gru2out.bias f4 [5]
-0.08195113 -0.1126919 -0.096558034 0.22260873 -0.06987089
00000000: fed5 a7bd 03cb e6bd 38c0 c5bd 8bf3 633e
00000010: 7818 8fbd
