try5_realCTCFtrimmed1/100bp_1_positive_trim100_noimplant_fullytrainedDisc.pth (torch, 495397 bytes, 20 tensors)

embeddings.weight f4 [5, 16]
000000 d8 94 db 3f f0 83 8e bf f6 66 1c be 8e 40 c7 3f
       1.7154799 -1.1134014 -0.15273651 1.5566576
000010 85 77 54 bf 88 98 7f 3f 4e ae 0a 3f 33 52 97 3f
       -0.8299487 0.9984212 0.5417222 1.182196
000020 e5 e7 b6 3f 2b b3 ec bf e2 74 fc be ce b1 bd be
       1.4289519 -1.8492178 -0.49307925 -0.37049717
000030 97 eb 27 bf 8c ab eb 3f 8a 0b cc 3f b1 71 dd bf
       -0.65593857 1.8411727 1.5941021 -1.7300321
000040 fb 37 2c 3f 47 71 9f bf a9 ba 9a 3d 2e 49 63 3f
       0.6727292 -1.2456445 0.07555134 0.8878354
000050 13 ed 8c 3e 15 8d c4 bf eb b0 ef bf 82 a6 5d 3e
       0.27524623 -1.5355555 -1.8725866 0.21645549
000060 87 b0 fa 3e 8b 47 4a 3e f8 6b 35 bf 64 fc 7f be
       0.48962805 0.19753854 -0.7086787 -0.24998623
000070 fa 14 65 bf 4e c0 ce bf 6e b4 c4 3f a5 44 8a bf
       -0.8948513 -1.6152437 1.5367563 -1.0802199
000080 d8 9e 1f bf a0 b1 fa 3f 7b 80 f7 bf fc 30 06 3f
       -0.6235175 1.9585457 -1.9336084 0.52418494
000090 3b ac 92 bf 9a ed a8 bf 46 0f b6 3f 44 8d ec bf
       -1.145881 -1.319751 1.4223411 -1.8480611
0000a0 b3 96 93 bf 38 bb 5b bf f5 4b f8 3d 93 b4 69 3e
       -1.1530365 -0.8583255 0.12123863 0.2282279
0000b0 c6 63 24 3f 2b 61 b7 bf a3 aa 95 bc e1 62 82 3e
       0.6421474 -1.4326528 -0.018269842 0.25466064
0000c0 ad 06 69 3f 59 f7 09 3c 5a 6c 9d be 58 11 01 bf
       0.9102581 0.008420789 -0.30746728 -0.5041709
0000d0 cf 2c 4d 3f 05 cb f4 bf 0d fa c2 bf 53 88 b3 3f
       0.801465 -1.9124457 -1.523256 1.4025978
0000e0 07 bb c3 bd 99 f7 f9 3f 04 72 98 bf b0 88 3e 3f
       -0.09557157 1.9528686 -1.1909795 0.7442732
0000f0 23 42 1b bf 0e 60 22 3f c9 5e 87 3e 99 be 52 3f
       -0.6064779 0.6342782 0.26439503 0.8232208
000100 c9 ce a4 bf fb 67 db 3f 71 32 12 3e 3f e3 7e be
       -1.2875606 1.7141107 0.14277054 -0.24891375
000110 44 9e 0f bf ab bb fe be 05 2b be be 4c 0d 4d 3e
       -0.5610087 -0.49752554 -0.37142196 0.20024604
000120 59 ec 73 3f 06 46 48 3e 96 fc 17 3f b0 f3 62 bf
       0.9528251 0.19557962 0.5936979 -0.8865309
000130 90 93 62 be 53 48 f0 be cd 65 8e 3f 81 97 59 3f
       -0.22126603 -0.4693018 1.1124817 0.849968

gru.weight_ih_l0 f4 [192, 16]
000000 ef 18 98 bd 84 8b 89 3d 4c 00 a9 bd 16 fc 53 bd
       -0.07426631 0.067160636 -0.0825201 -0.05175408
000010 b1 ea d0 bd 56 17 56 3d 58 85 2f 3e a9 e3 bb 3a
       -0.10201014 0.05226835 0.1714071 0.0014334816
000020 97 7e d3 bc fa 5d bc bd b9 bc 0e 3c 0b 15 8d bd
       -0.025817199 -0.09197612 0.008711987 -0.06888779
000030 08 fa c7 3d 3a 54 5e 3d e5 82 29 3b 4b 2a 05 3e
       0.097644866 0.054279543 0.0025865373 0.13004415
000040 d6 df 23 3e d5 09 15 3b 20 0d 73 bd 7e a4 b3 3d
       0.16003355 0.0022741456 -0.05933869 0.08771609
000050 81 ba 64 3d b6 22 00 be 6a 93 90 3d f9 e0 06 be
       0.055841926 -0.12513241 0.07059367 -0.13171758
000060 ea 8e 81 3d ed 44 2d 3b 6f 73 0d be 3d 50 96 bc
       0.06326087 0.0026438788 -0.13813566 -0.018348807
000070 ff d7 6a bc bb d7 e9 bb 8f 33 7a 3d f5 cd 02 bd
       -0.014333724 -0.007136313 0.061084326 -0.031934697
000080 da 08 3b be 02 05 19 3e 44 82 38 bd 6f 13 1f bc
       -0.18265095 0.14943317 -0.045046106 -0.009709223
000090 8d 0c df bd e1 fd 73 3d 43 4f 9c 3d 57 c4 11 3c
       -0.10891066 0.05956829 0.076323055 0.008896909
0000a0 32 b1 ca 3d 6b f8 d3 bd 7f e3 9f 3d f4 c1 36 be
       0.098970786 -0.10350116 0.07807063 -0.17847425
0000b0 bf 72 0f bd ce f2 3e 3d 7d 84 de bb aa ed bb bd
       -0.03502154 0.046618275 -0.006790696 -0.0917619
0000c0 24 3c ed bd a4 84 9e 3e a7 43 16 be bc cc a6 bd
       -0.115837365 0.30960572 -0.14674245 -0.08144519
0000d0 b3 f7 32 3c 97 6e 4d be 38 a4 ab bc 3f 0f e8 3c
       0.010923314 -0.20061718 -0.020952329 0.028327582
0000e0 c9 06 9f bd 58 67 01 3e 0c 40 5b bd 79 8d 1e 3e
       -0.07764966 0.12637079 -0.053527877 0.15483655
0000f0 9f cd 0f bc d9 10 09 bd e1 66 c7 3d cb 9a ed 3e
       -0.008777051 -0.033463333 0.097364195 0.4640716
000100 7d 8f 16 bd 74 54 0d 3e 14 86 1c be b1 57 50 3e
       -0.036757935 0.13801748 -0.15285522 0.20345952
000110 28 61 4d bd da f7 87 bc 25 cd df bd 0a 90 87 bc
       -0.050141484 -0.016597677 -0.109278 -0.016548175
000120 f3 14 30 3b 9d 3e 3a bd a7 17 33 bd d1 76 b7 bd
       0.0026867955 -0.04546987 -0.04372373 -0.08958209
000130 79 31 a8 bd 4e 49 1c be d3 6e b1 bc 63 a0 98 3d
       -0.08212561 -0.15262339 -0.02165929 0.07452466
000140 09 36 35 3e 27 35 6a 3d 9b 67 03 3e fd 7e 3a be
       0.17696394 0.057179596 0.12832491 -0.18212505
000150 66 62 29 3e a4 74 58 bd 01 f6 ef bd 04 ec 16 3e
       0.16541442 -0.052845612 -0.117168434 0.1473847
000160 9d b6 03 3c 53 d5 47 3e 2d cb be bd 52 ed be 3d
       0.008039144 0.1951497 -0.093160965 0.09322609
000170 16 27 7a be ca 3f bd 3d 9f 6b d4 3d ba 5a 4e 3e
       -0.24428973 0.092406824 0.103720896 0.20151797
000180 9e 7f 0f be a3 ee 38 3d 54 a1 00 be 50 d8 0e be
       -0.14013526 0.045149457 -0.12561542 -0.13949704
000190 f6 37 fc bd 8d 84 9a 3d b7 60 75 3e b0 8a 47 3d
       -0.12315361 0.07544813 0.23962675 0.048716247
0001a0 ce 94 d7 bc 7a 9a 85 3c 7b f8 38 3b 52 0c 21 be
       -0.026316073 0.016309012 0.0028224278 -0.15727356
0001b0 bf 07 6c 3e c1 84 cd bc 59 82 25 be 9d dc 57 3e
       0.2304983 -0.025087716 -0.16163005 0.21080251
0001c0 81 43 18 3e eb 4b 91 3a c8 f9 72 bd 29 07 50 3b
       0.148695 0.0011085247 -0.05932024 0.003174255
0001d0 85 f8 74 be 64 27 8f 3c f1 a0 4c 3e 7e 5b 98 bd
       -0.23922928 0.017474838 0.1998327 -0.07439326
0001e0 41 77 a0 be 74 c4 04 be 21 b4 43 be b8 d4 6f 3e
       -0.31340984 -0.12965566 -0.19111682 0.2342099
0001f0 4c 4a 51 3e 8e c5 f5 bc 40 3d 48 be e8 e3 a5 3d
       0.20438498 -0.030001428 -0.19554615 0.0810011
000200 14 3c 14 bd 5d 02 99 3d dc 65 b7 3c 4c 79 6a 3d
       -0.036190107 0.07471154 0.022387438 0.057244584
000210 cd 17 df bb a9 ef 29 be a5 df 21 be 34 45 1a bd
       -0.006808257 -0.1659533 -0.1580797 -0.037663653
000220 b2 ac a0 bd 9d 14 25 bd 35 7b 22 be 5a 2c 25 be
       -0.07845439 -0.04030286 -0.15867312 -0.161302
000230 6f bc da bd 2e 79 03 3b cd d7 03 bd 94 a5 a4 3d
       -0.10680472 0.0020061242 -0.032188226 0.08039394
000240 0e 6f f7 bc b3 f2 ca 3d 02 b2 51 be fa 1c 23 be
       -0.030204322 0.099095725 -0.20478061 -0.15929022
000250 31 dc 04 3e a9 30 e5 bd 27 ea 82 3d 04 cc 02 3e
       0.12974621 -0.11190922 0.06392317 0.12773138
000260 41 45 98 be c5 91 91 3d 1e ac 8b bd 5d cd 8f 3e
       -0.29740337 0.071078815 -0.06819938 0.28086367
000270 4c 93 ce 3d bb e9 ea 3d 54 d6 ac bd 55 40 ed 3e
       0.100866884 0.11470362 -0.08439317 0.46338144
000280 37 41 54 be 68 21 e0 3d 27 26 88 3c db 68 57 3e
       -0.20728002 0.10943872 0.016619755 0.21036093
000290 78 cf 24 be 41 cf 38 bd c1 1a 8e bd 84 b7 82 bd
       -0.16094768 -0.045119528 -0.06938697 -0.06382659
0002a0 23 7e d5 bb 5b 2f 1f be 23 77 26 bc 65 12 0b be
       -0.006515281 -0.15545408 -0.01016024 -0.13581236
0002b0 8b 6a 83 bd 55 21 8b bd 78 47 5f 3e 6f e7 8c 3d
       -0.06416806 -0.06793467 0.21804607 0.0688008
0002c0 7e 65 61 bd b8 ab b2 3d 46 a1 9f 3d 68 ec 1c bd
       -0.05502843 0.08724159 0.07794432 -0.038311392
0002d0 61 ef ac bd e5 b2 39 bc 36 8e a6 3c f6 40 bb bd
       -0.084440954 -0.011334156 0.020331483 -0.0914325
0002e0 39 71 01 3e 6f 66 d7 3d 10 74 14 3e 9b f0 fc bd
       0.12640847 0.105175845 0.144974 -0.12350579
0002f0 b3 56 e4 bc 09 7a af bd d7 5d 6d 3d 7c ed 06 3d
       -0.027873373 -0.08568198 0.05795082 0.032941326
000300 f4 2a 32 3e 00 a6 c7 bd d3 4a 08 be cd a2 91 bd
       0.17399198 -0.09748459 -0.13309793 -0.0711113
000310 1c 26 45 3e ed 1f 0a be e0 af 3f 3c 6c ac ae 3c
       0.19252819 -0.13488741 0.011699647 0.021322452
000320 fa 27 8b be 46 19 6e 3e 33 fb e2 bd 39 fe 88 3e
       -0.27178937 0.23251829 -0.11083069 0.26756456
000330 17 25 b2 bd 8f 34 06 bd 16 9d b9 bd 94 9b 0a 3e
       -0.086984806 -0.032764968 -0.09063165 0.13535911
000340 26 f8 db 3d 40 aa 7a 3d 3a 8f df 3c ea 91 49 3c
       0.1074069 0.06119752 0.027289975 0.012302855
000350 5d e6 60 bd 31 fa cb ba 64 2e 29 be 3c f6 3b 3c
       -0.05490719 -0.0015562234 -0.16521603 0.011472281
000360 2f 5a 6d bd eb 89 16 bc a3 42 06 3d 4f 43 6b 3c
       -0.057947334 -0.009188156 0.032778393 0.014359309
000370 e6 6c 04 bd 8d ac a6 3d 82 e6 0a bd ca 04 f7 3d
       -0.032330416 0.0813838 -0.033911236 0.1206146
000380 3f d6 a8 bd 02 26 55 3e 33 76 1e be 7a ca 32 3d
       -0.08243989 0.2081528 -0.15474777 0.043650128
000390 8e fa 5f be 44 bb d4 3c 36 4b a2 3e 6f d9 fb bd
       -0.21872923 0.025968201 0.31698006 -0.122973315
0003a0 b3 e3 26 be 72 82 27 38 fe 13 54 3e ec f3 33 3d
       -0.16297798 3.993739e-05 0.20710751 0.043933794
0003b0 41 3e db 3d 4c a5 ff 3b 19 7f 33 be 86 c9 ba 3d
       0.10705233 0.0078016873 -0.17528953 0.09120469
0003c0 4e 6a 7d 3c f0 71 14 3c e2 7d 05 be 61 2b 03 3e
       0.01546724 0.009060368 -0.13036302 0.12809516
0003d0 07 53 48 bd 21 75 48 be 10 d4 2b 3c 16 ba 76 3d
       -0.048907306 -0.19575931 0.010487571 0.06023606
0003e0 ec 03 98 3c e3 2c 8a bd 61 be ac bd b1 e6 cb bd
       0.018556558 -0.06746843 -0.084347494 -0.0995611
0003f0 05 07 be bd 67 cf 68 be ed d8 02 3e 79 03 d6 3d
       -0.092786826 -0.22735368 0.12778063 0.10449881

gru.weight_hh_l0 f4 [192, 64]
000000 04 8f a4 3d cb e2 8f 3e ee 23 34 3e b2 e7 95 3d
       0.080350906 0.28102717 0.17591831 0.07319583
000010 72 21 02 be 9e 63 5c be b3 2a 4a 3e 35 ae 8b bd
       -0.12708071 -0.21522376 0.19742851 -0.06820337
000020 a4 35 95 bd 07 4e b0 b9 4f 53 d9 3d 66 af 16 3e
       -0.07285622 -0.0003362747 0.10611593 0.14715347
000030 d4 f8 7f 3e ff c9 2c bd 05 90 a5 bd 15 f9 6c 3e
       0.24997264 -0.042184826 -0.0808411 0.23141892
000040 a2 85 3d 3c 1b b1 31 bd 63 ac 04 3d a6 9c 16 bc
       0.011567505 -0.04338179 0.032390963 -0.009192621
000050 e7 eb 35 3e d2 37 59 bb 32 98 b2 bc 33 89 c5 3d
       0.17765771 -0.0033144844 -0.021801088 0.09645309
000060 ce eb 06 be aa cc 4d be 54 bf 3e bd af c3 8e 3d
       -0.1317589 -0.20097604 -0.046569183 0.069709174
000070 a8 23 c9 bd cb ac 87 be d4 7c bc be f1 d4 b2 3d
       -0.09821254 -0.26499018 -0.36813986 0.087320216
000080 8f 6d f4 bd 32 eb 8c 3c cd 8e 31 3c 83 aa 1e bd
       -0.11934959 0.017201994 0.010837269 -0.03873683
000090 40 29 d4 bd 12 f3 d4 3d 95 e0 ea bc d9 27 36 3d
       -0.1035943 0.103979245 -0.028671542 0.044471595
0000a0 c6 42 01 3c 26 49 98 3d 80 f7 85 be b4 f9 05 be
       0.007889455 0.07435827 -0.2616539 -0.13083535
0000b0 0a b3 43 3e 91 e6 b4 bd 0c f2 ea 3d c9 93 45 be
       0.19111267 -0.088330396 0.11471948 -0.19294657
0000c0 f6 15 36 3e eb b0 dc bc 1a 01 0f be b9 1a 28 3d
       0.17781815 -0.02693983 -0.13965264 0.04104111
0000d0 0f 96 4c bd d6 18 93 3d e7 d1 a2 bd ed bf b5 3d
       -0.049947795 0.071824715 -0.07950192 0.088744976
0000e0 a4 80 fa bd 2e ef fe bd 30 83 00 bd 8d 4c 5d bc
       -0.122315675 -0.12447964 -0.03137511 -0.013507021
0000f0 f9 de 03 3e 90 a5 52 3d f3 54 90 bd 76 3c 00 be
       0.12878026 0.051427424 -0.07047453 -0.12523064
000100 24 15 a7 bd 5a 9d 42 3d f5 e2 17 be de 03 23 be
       -0.08158329 0.047513343 -0.14832671 -0.15919444
000110 34 0c 89 3d 66 17 8c bd 09 02 85 3d 86 45 30 be
       0.06691781 -0.068404004 0.06494529 -0.17214021
000120 d8 38 22 3e 0b f6 a2 bd ef 05 82 3d 2b 7b 02 3c
       0.15841997 -0.07957085 0.06348788 0.007963936
000130 c3 e7 94 3c 6b 55 25 3d c7 cf a8 bd 29 fc dd 3b
       0.018176919 0.040364664 -0.082427554 0.0067744446
000140 de 71 82 bd 2a 29 49 3e 38 9d 59 3b 26 e3 eb bd
       -0.06369375 0.19644609 0.0033205282 -0.115179345
000150 d0 72 0a 3e ae 72 9a 3d d0 77 58 bd cc 90 37 3e
       0.1352036 0.07541405 -0.052848637 0.1792633
000160 10 e0 3a 3d 42 41 12 3c 4e 9c 89 bc 45 7d 09 3e
       0.04562384 0.0089266915 -0.016798165 0.13426693
000170 74 94 13 bd cb 94 c2 3c bc a7 c9 39 fa 19 9e 3d
       -0.036030248 0.02375259 0.0003846268 0.077197984
000180 04 d0 3a 3d 3c 26 f4 3d 15 c6 1a 3e 54 65 0a be
       0.045608535 0.11921355 0.15114625 -0.13515216
000190 d9 9c ff bd 9f 69 72 3e 3b 0c e3 3d d1 90 19 3e
       -0.12481088 0.23673104 0.11086317 0.1499665
0001a0 21 10 89 bc 3a 84 4a 3b b6 8e 41 be 43 db a0 3d
       -0.016731324 0.0030901567 -0.18902096 0.07854321
0001b0 f8 60 5c 3d b9 41 ef bb 6f ca f0 3d ed f1 71 3d
       0.053803414 -0.007301536 0.11757361 0.05906861
0001c0 c6 ea 80 3e dc 39 bf 3d ba ea 61 bc dd 59 17 be
       0.25179118 0.09337208 -0.013788873 -0.14780374
0001d0 1a b2 d9 3d 88 51 32 be a7 06 35 be 76 ae b3 3c
       0.10629673 -0.17413914 -0.17678319 0.021933775
0001e0 c9 cb a0 3e e0 62 8c 3d cd 1a 95 3d 49 d1 98 bc
       0.31405476 0.068547964 0.072805025 -0.018654482
0001f0 cf d3 93 bc e3 96 d7 3b 70 ba ea bd 8d 05 bd 3d
       -0.018045334 0.0065792664 -0.114613414 0.09229574
000200 13 4f e9 3d ac b5 ed 3b e8 a2 fe bc 9d ca 9f 3d
       0.11392035 0.007254323 -0.03108354 0.07802317
000210 ee 31 bb 3c d0 31 30 ba 59 e8 4c be c5 31 99 3d
       0.022850957 -0.000672129 -0.20010509 0.07480196
000220 76 8c 98 bd 4a ff 0c bd 53 46 b4 bc 1e 2b 58 bd
       -0.07448666 -0.03442315 -0.02200619 -0.052775495
000230 08 e4 9a bc 5b df 40 be 8b 37 53 3d db a5 b2 3d
       -0.018907562 -0.18835203 0.05156664 0.08723041
000240 f2 a0 5f be e9 2b 15 3e 76 b7 c9 3d 1a b2 f4 bc
       -0.2183874 0.14567532 0.098494455 -0.029870082
000250 be d7 a9 3d a7 cd 14 3d 9c 6b 8a bd 69 97 5f 3a
       0.08293103 0.036328938 -0.06758806 0.0008529337
000260 67 d6 71 bc a0 4a 6a bc 9e 43 01 3d 6f e2 31 3c
       -0.01476059 -0.014300019 0.031558625 0.010857209
000270 09 32 95 bd cf e7 5d bd b5 46 43 be 9c 6c ec 3d
       -0.07284934 -0.054176148 -0.19069941 0.11544153
000280 39 0c 6d bd b4 ba 5a bd d6 64 21 3e b9 fd de bd
       -0.057872985 -0.05340071 0.15761122 -0.108882375
000290 06 8a e0 bc 6a cb 01 3e 88 01 87 bd b5 6a 97 3c
       -0.027409565 0.12675253 -0.06592089 0.018483499
0002a0 2c 83 00 ba be cd 97 bd e7 7d 0a be e3 2c 10 be
       -0.00049023586 -0.07412289 -0.1352459 -0.14079623
0002b0 40 68 1b 3e bf 84 58 bc c8 5c 9a 3d 74 6f 26 bb
       0.15176487 -0.013215243 0.07537228 -0.002539602
0002c0 5d 3c 57 3e 99 15 c0 bc b3 06 56 3d 5a f0 28 3c
       0.2101912 -0.023447799 0.052252483 0.0103112105
0002d0 7e 4f 46 be d7 12 0f bd 27 9a 21 be 5d 44 80 3b
       -0.19366261 -0.034930076 -0.1578146 0.0039143995
0002e0 65 74 9e bb 21 09 1e bd 92 73 b9 bd ca 4e 87 bd
       -0.0048356527 -0.038582925 -0.090552464 -0.06606825
0002f0 67 3d eb 3d 1f d5 8e 3b 59 66 0e 3e f0 91 10 bd
       0.11486321 0.004358902 0.1390623 -0.035295427
000300 8f d7 ad 3e e1 9c e0 bd c4 86 63 be 10 a7 0f bd
       0.3395352 -0.10967422 -0.22219378 -0.035071433
000310 14 1a 4d bc ee 9d 18 be b4 18 fa bc c3 1f af 3e
       -0.012518425 -0.14903995 -0.030529357 0.3420392
000320 91 8e 96 bd 68 32 44 3e c3 f7 67 bd 59 bc 20 3b
       -0.07351411 0.19159853 -0.05663277 0.0024526326
000330 2f 98 4d 3e f8 2c 1f be 00 81 69 3d af e7 70 be
       0.20077585 -0.15544498 0.05700779 -0.2352588
000340 71 02 41 be fd e5 f2 bc 4b f3 82 3e 4f 66 3a be
       -0.18848588 -0.029650683 0.25576243 -0.1820309
000350 e6 0f 03 be 91 c5 3a 3e e2 5a 1e be a9 16 8d 3e
       -0.12799034 0.18239428 -0.15464357 0.2755635
000360 25 0d 57 3d d6 e1 df 3d 72 52 49 3e 5e 96 ee 3c
       0.05250277 0.10931747 0.19660357 0.029124435
000370 f4 55 22 be c2 f1 db bd c6 a7 6a 3c 21 bd 4a be
       -0.15853101 -0.10739471 0.014322227 -0.1979871
000380 42 86 95 3d 35 47 23 bd 31 e9 e5 bd 54 17 9d bd
       0.07300998 -0.03986283 -0.11226118 -0.07670465
000390 79 62 59 bd d4 f8 25 be 4d 51 a2 3d bf 6a 1c 3e
       -0.053072426 -0.16208202 0.07925663 0.15275095
0003a0 09 68 58 3d 6d 49 39 3e f8 f1 63 bd eb fc 3f 3e
       0.05283359 0.18094416 -0.05565068 0.18748824
0003b0 b1 12 ff 3d e9 04 42 3e 2a 27 a3 bc 19 22 36 bd
       0.12454737 0.18947186 -0.019916136 -0.04446611
0003c0 4f b0 d9 bd 91 84 25 3d e1 50 17 be 2b b8 e4 bd
       -0.10629331 0.04040963 -0.14776947 -0.1116794
0003d0 37 97 04 3e fa f0 17 be 38 e0 dc 3b 1f d9 37 3d
       0.12948309 -0.14838019 0.006740596 0.044884797
0003e0 83 38 d8 bd 10 89 e8 bd ae 72 3e 3e 5c 4d 11 3d
       -0.10557654 -0.113542676 0.18598434 0.035474166
0003f0 b0 b4 8c 3d ef 79 70 be 4e 78 ca bd ad 32 87 3d
       0.06870401 -0.23484014 -0.098862275 0.066014625

gru.bias_ih_l0 f4 [192]
000000 91 8d 13 3e dd 12 bd 3d e0 18 ed 3d b0 60 7a 3e
       0.14409472 0.092321135 0.1157701 0.24450946
000010 ad de d0 3d 11 e9 91 3d c5 e9 85 bd 43 83 19 3e
       0.10198722 0.07124532 -0.065387286 0.14991479
000020 72 9d 15 3e 78 a8 46 3d 46 89 5f 3d 69 b2 4a 3a
       0.14610842 0.048500508 0.054574274 0.00077322737
000030 b2 5a 89 3c 68 7f 8a 3d 14 39 99 3d 0e 51 2d 3e
       0.01676688 0.06762582 0.0748159 0.16925451
000040 af c9 3e 3e 3c 09 be 3c ba be 3b 3d e7 1a 90 3e
       0.18631624 0.023197763 0.045836188 0.28145525
000050 1a f4 1a 3e ed da dd 3d 7f 08 14 3e 3d 8d d3 3d
       0.1513218 0.108327724 0.14456366 0.103296734
000060 f3 51 0f 3e bc 04 04 3e ff 8b cd 3d 33 59 06 3e
       0.13996105 0.12892431 0.10036468 0.13119964
000070 96 f4 93 3e 34 f8 1d 3e 59 6c 4e 3c 9a 90 0c bd
       0.28897542 0.15426713 0.012599074 -0.03431759
000080 4c 33 2c 3d c1 c6 42 3e 88 30 47 3d a4 ad c2 3d
       0.042041108 0.19021131 0.048630267 0.095057756
000090 ac a3 5a bd 27 cf 1b 3e f3 d1 c9 bd c6 ee 59 3e
       -0.053378746 0.15215741 -0.09854498 0.21282491
0000a0 b4 53 05 3e 3f ad 70 bd 69 1b 4a 3b 4b c5 54 3e
       0.13020211 -0.05875897 0.0030839092 0.20778386
0000b0 58 63 c0 bb 5e d0 41 3e 80 fc 2e 3d 38 27 16 3d
       -0.0058712177 0.18927142 0.04272127 0.036658496
0000c0 b4 f2 c0 3b d0 15 d5 3d 2e 5a cf 3d d0 c9 87 3d
       0.0058883075 0.10404551 0.10124622 0.066302896
0000d0 a1 ce 51 3d 26 e3 6c bd 60 9f a7 bd 49 34 f4 3d
       0.051222447 -0.057833813 -0.08184695 0.11924035
0000e0 fd 3d 1f 3e 8b 51 1d 3e 1f 5b ad 3b af 9a a2 3d
       0.1555099 0.15363137 0.0052904035 0.0793966
0000f0 d9 5c f9 bc 6e 9a 08 3d 9c c8 43 3e aa ac c2 3d
       -0.030439781 0.0333504 0.19119495 0.09505589
000100 91 06 34 be 6e 1d 7f 3d 4b 90 29 3e f4 83 9f be
       -0.1758063 0.062283926 0.1655895 -0.3115536
000110 26 57 54 3e 2f 7f c4 bd 3b 16 a0 bd 72 00 d2 3c
       0.2073637 -0.09594571 -0.0781674 0.025634978
000120 94 87 e3 3e ad 34 db bd 4b 0a 87 bd 0c 92 a7 bb
       0.44439375 -0.107034065 -0.0659376 -0.0051138457
000130 55 09 9c 3c 92 d6 8a 3c 7a b1 79 bd 88 95 e5 bd
       0.019047419 0.016948018 -0.06096027 -0.112101614
000140 75 dc 57 be cd 49 01 3e b7 77 a9 3e 33 53 1c be
       -0.21080191 0.12625809 0.33099148 -0.15266113
000150 c2 5c 32 3d d4 3f 12 bb 01 ef 99 be 56 54 1a 3e
       0.043545492 -0.0022315877 -0.30065158 0.15071234
000160 cb 9f 65 3c 58 c9 66 be 54 e7 34 3e 9f 64 b8 3e
       0.014015148 -0.22537744 0.1766637 0.36014268
000170 5c 59 65 bd f2 40 55 be a4 ee 55 3d 7f 70 8c 3c
       -0.055993423 -0.20825556 0.05222954 0.017143486
000180 3c 31 01 be 66 a2 1e be 18 66 8a bb 14 8f 1f bc
       -0.12616438 -0.15491638 -0.0042235963 -0.009738702
000190 6f 66 13 be fb 3b ab be 07 31 93 3c a3 c9 6c be
       -0.14394544 -0.334442 0.017967714 -0.23123793
0001a0 ef 7b 3d be 6c 6b 07 be a6 e6 0a 3e 7d c0 92 3c
       -0.18504308 -0.13224572 0.13564548 0.017914051
0001b0 02 22 94 3e 54 60 75 be 3b b6 01 3e c1 23 08 3b
       0.28932196 -0.23962528 0.12667172 0.0020773264
0001c0 f6 9c 01 bd 43 ad 20 bc 18 58 58 be 8e 4f 87 3e
       -0.03164383 -0.009806934 -0.21127355 0.26427883
0001d0 d1 9b 13 3d bc e6 4c 3e c9 28 3f be af 5f f6 be
       0.03603727 0.20009893 -0.18667902 -0.48119876
0001e0 f1 f6 ea 3e b4 f0 77 be 6d 8e 4a be 53 5e 64 3d
       0.45891526 -0.24212915 -0.19780894 0.055754017
0001f0 9e 81 d0 3d 7e a6 77 3d a8 ac 0e 3d dc 11 11 3d
       0.101809725 0.060461514 0.034832627 0.035417423
000200 a6 c1 16 3e 58 b3 6b bd 7d fa b1 bd 35 52 77 3d
       0.14722309 -0.057544082 -0.08690355 0.060381133
000210 c1 c3 51 3c 82 80 76 3d f5 15 e0 bd 17 48 96 3d
       0.012803019 0.06018115 -0.10941688 0.07337969
000220 c5 62 ec 3a f8 ef 5e 38 7e e2 36 bd 43 e7 1e be
       0.0018034807 5.3152413e-05 -0.044649594 -0.15517907
000230 5d c9 d3 3d 56 b1 14 3d 95 41 0a bd 22 f0 98 3d
       0.103411414 0.036301933 -0.03375395 0.07467677
000240 9f a5 a0 3d ef 3d dd b9 30 ae 65 3d 62 a3 ef bd
       0.0784409 -0.0004219855 0.05607432 -0.11701085
000250 d1 6e 0e bd 94 3a 85 3b db 87 c8 bc 45 05 53 3d
       -0.03477365 0.004065821 -0.024478843 0.051518697
000260 44 a9 ca bd 0a 4d ae bd 37 d0 c2 bb e0 27 4f bc
       -0.09895566 -0.08510788 -0.0059452313 -0.012643784
000270 f5 ec c6 3d 91 95 cb bd b7 bb 41 bd df 8e d7 bd
       0.09713165 -0.09940637 -0.04729816 -0.105252974
000280 b3 d5 5a 3d 97 c1 a6 3c 2a 21 94 3d 2a 25 ea 3c
       0.053426456 0.020355983 0.07232888 0.028582174
000290 13 fb db 3d 1b 4e 4a 3c e3 dd 7f 3d 74 f0 83 3d
       0.10741248 0.012347723 0.062467467 0.06442347
0002a0 4a 75 c5 3d ac e5 42 bd 38 8d ba 3d f8 78 95 3d
       0.09641512 -0.047582313 0.091089666 0.072984636
0002b0 9e 11 0a 3e d6 90 bf 3d f5 ae d6 3c 69 20 33 3d
       0.13483283 0.09353797 0.026206473 0.04373208
0002c0 bd 74 a6 bc d3 90 d7 bd 33 61 ef 3d 0d 2d d4 bd
       -0.020319337 -0.1052567 0.11688461 -0.10360155
0002d0 13 4f 07 3d 69 ac 32 bd d7 f9 a3 3b 29 a9 e8 3d
       0.033034395 -0.043621454 0.0050041485 0.1136039
0002e0 d5 d3 f6 bd 32 ba 9c bc 60 d7 8a 3c 31 0c 41 3d
       -0.120521225 -0.019131754 0.016948402 0.047130767
0002f0 76 1c 98 bd 89 d0 f5 3c 3e 0f 8a 3d 47 66 de bd
       -0.074273035 0.030006664 0.067411885 -0.108593516

gru.bias_hh_l0 f4 [192]
000000 25 d6 d1 3d 9e e2 bf 3c a0 dd a4 bd f0 ed 1e 3e
       0.10245923 0.02342349 -0.08050084 0.15520453
000010 e0 8f 8d 3c a9 86 d3 3d 10 0d 01 3d 8f 30 bc 3b
       0.017280519 0.10328419 0.031506598 0.0057430933
000020 2a 43 20 3e 99 54 11 3e 9a 03 f1 3d cc 50 d6 3d
       0.15650621 0.14192428 0.11768265 0.104646295
000030 1e 45 5b 3b 0a d8 13 bc 72 53 db bb c5 c4 b8 3d
       0.0033457945 -0.009023676 -0.006693297 0.09021906
000040 7c 06 03 3e 86 fc a2 3c 6e 02 4f 3e 00 c3 0b 3e
       0.12795442 0.019895803 0.2021577 0.13648605
000050 04 88 40 3d 76 f8 0e 3d 9b 05 73 3e 0d 94 e6 3d
       0.047004715 0.03490492 0.23732607 0.11258707
000060 26 0b f9 bc 32 aa 96 3e 64 aa c9 bb 76 62 02 bd
       -0.030400824 0.29426724 -0.0061543453 -0.03183218
000070 63 54 48 3e a6 fc 61 3e 34 ea 88 3d be 2d 8b bd
       0.19563441 0.22069034 0.06685296 -0.06795834
000080 b0 20 94 bd e0 24 c8 3d 1e 90 38 3d d8 ce bc 3d
       -0.07232797 0.09772658 0.045059316 0.0921914
000090 0c c8 51 bd f1 7f 38 3e 85 8a 6c bd 88 40 c6 3d
       -0.05121617 0.18017556 -0.05774929 0.09680277
0000a0 6c 3f 59 3e 53 35 82 3d 19 b1 ae 3d 2e 8d aa 3c
       0.212156 0.06357827 0.085298724 0.020819273
0000b0 88 55 d2 bd cc 7b ce 3d 6f 8c 00 3d 5a 0b 5f 3c
       -0.1027022 0.10082206 0.031383928 0.013613546
0000c0 d3 9b ad bc 48 8f 26 3c a6 84 dd 3d ff 98 88 bc
       -0.021192467 0.010165997 0.10816316 -0.016674517
0000d0 0c dc 34 3e 5a f6 e0 3d dd 91 c4 3c 94 d8 69 3e
       0.17662066 0.10984488 0.023995334 0.22836524
0000e0 da 16 56 3d 06 13 91 3e ba e3 12 3e 6f 58 00 3e
       0.052267887 0.28334826 0.14344683 0.12533735
0000f0 0c 97 df 3d 1f 21 9f 3c 14 ee 16 bc 41 42 6f 3e
       0.10917482 0.019424973 -0.009212036 0.23365118
000100 db 63 15 be 1f 41 b9 bc 03 23 a6 3d e1 70 64 be
       -0.14588873 -0.02261406 0.08112147 -0.22308685
000110 b6 a4 ab 3e 1d b7 05 bd 4e 42 87 bd 2f fb 48 be
       0.33524102 -0.032645334 -0.066044435 -0.19627069
000120 fa 58 c9 3e 6e 72 4c 3d d9 2e 18 ba 11 2d e1 bd
       0.39325696 0.049913816 -0.00058053207 -0.10994924
000130 30 97 c3 bd 6b 8a 88 bd 90 d7 93 bd f7 b2 eb bc
       -0.09550321 -0.06667026 -0.0721885 -0.02877186
000140 9f 84 5a be 67 06 37 bd 2c 78 70 3e f1 f1 25 be
       -0.21339653 -0.04468384 0.23483342 -0.16205575
000150 0b 6e e2 ba 12 cc 93 3d 5b 7e df bd ea e9 2d 3e
       -0.0017275227 0.07216658 -0.10912772 0.16983762
000160 84 91 93 bd 4e 4e 77 be d7 27 d8 3d cb 9e 2f 3e
       -0.07205489 -0.24150965 0.10554474 0.17150418
000170 7c f5 81 bd 0c dd 0e be 00 d9 0c bd 73 b8 93 bc
       -0.063456506 -0.1395151 -0.034386635 -0.018032288
000180 b0 4c 86 3d 3c 4b 0c 3d f2 c1 f5 bd 20 5f 65 3c
       0.06557596 0.034251437 -0.11999883 0.01399973
000190 2f ae df bd 41 82 a2 be d0 88 30 3e 2c eb b1 be
       -0.10921895 -0.3174 0.1723969 -0.34749734
0001a0 52 c4 5c bd cc 18 1f bd 25 a9 16 bd 5f 9f 91 bd
       -0.053898163 -0.038842008 -0.036782403 -0.07110476
0001b0 de e1 0f 3e 46 ce 68 be a5 5a 34 3e 09 fd 1e be
       0.14051005 -0.22734937 0.17612703 -0.15526213
0001c0 2e a7 26 be 1f 26 d0 3d e8 9a 59 be b2 98 22 3e
       -0.16274711 0.10163521 -0.21250498 0.15878561
0001d0 e9 eb 12 be de 45 4c 3e dc e8 15 3c c3 ae 96 be
       -0.14347805 0.19948527 0.009149756 -0.29430208
0001e0 57 b9 da 3e 80 ad 9c be 01 e3 9e be 50 ac fd bd
       0.42719528 -0.3060112 -0.31032565 -0.123863816
0001f0 37 78 13 3e 50 29 45 3e b6 45 87 bd dd 4c a3 3d
       0.14401327 0.1925404 -0.06605093 0.07973645
000200 0e 4b 69 3d b5 a6 c7 bd 0b a8 76 3d 27 1d 92 bd
       0.056956343 -0.09748594 0.060218852 -0.071344666
000210 6e c6 a1 3a 65 c8 bc bd c0 00 1b 3d c9 7f 28 bd
       0.0012342462 -0.0921791 0.037842512 -0.04113749
000220 f4 f8 fa 3a f1 52 34 bd 73 d4 52 bd 0e df 61 bd
       0.001914768 -0.04402441 -0.05147214 -0.055144362
000230 17 38 94 bd 0f 25 83 bd 1d 0b 22 3d fe 87 19 3d
       -0.07237261 -0.06403553 0.03956138 0.037483208
000240 f8 8d 80 3c b9 86 f3 3c ff df 92 3d 29 d3 43 bd
       0.015692696 0.029727327 0.0717163 -0.0478088
000250 1d 2d 89 bc ab 8f db 3d b8 6e 3e 3d be b4 aa 3d
       -0.016745145 0.10720762 0.04649231 0.08335255
000260 3d 02 fb 3b f2 50 b8 3d 96 25 d1 bc 41 ae cb 3d
       0.007660179 0.08999814 -0.025530618 0.09945346
000270 4f 02 99 3c a3 d5 c3 bc 46 db 6a 3d b9 a8 a9 3d
       0.018677859 -0.02390558 0.05733802 0.082841344
000280 5c f4 88 bd 35 0a 9c bd ac 7f 9e bc 18 97 9a bd
       -0.06687233 -0.07619134 -0.019347988 -0.0754835
000290 9b 91 22 bd a4 0d dc bd 7a 9f a8 bd bd 96 43 bd
       -0.03968964 -0.10744789 -0.08233543 -0.047751177
0002a0 2b fa a0 3d c7 22 0a 3e 9c 15 f0 bd 07 83 ca bd
       0.07860216 0.13489829 -0.11722872 -0.09888273
0002b0 2c f0 b7 bd c1 3e 00 bd 04 7b 6d 3d f7 c0 bf bd
       -0.08981356 -0.031309847 0.057978645 -0.09362977
0002c0 26 5a c7 3c a4 f4 d1 bd 08 e9 b7 bd 7f 69 b1 bd
       0.024334978 -0.102517396 -0.08979994 -0.086627
0002d0 52 5c d8 3d c1 91 9e bd e3 66 ab bd e9 83 b1 bd
       0.10564484 -0.07742644 -0.083692335 -0.08667738
0002e0 72 e8 02 3e c2 f0 38 3d 9b d1 bb bd cf b4 b8 bd
       0.12783983 0.04515148 -0.091708384 -0.090188615
0002f0 92 e9 03 3e 98 25 b8 bd d9 f0 8c bd 0f cb 50 bd
       0.12882069 -0.089915454 -0.068818755 -0.0509749

gru.weight_ih_l0_reverse f4 [192, 16]
000000 78 fe 3c bd 76 96 19 3e 2a 32 cd 3c f1 7f cc bc
       -0.046141118 0.14998803 0.025048334 -0.024963351
000010 50 06 02 bc e8 54 e0 3d 17 ba 14 3d 77 d5 1f 3c
       -0.007936075 0.109536946 0.03631028 0.009755484
000020 4b d3 1a 3e b6 7e 2d 3d d8 eb 8a bc ea 33 6e 3d
       0.15119664 0.04235717 -0.016958162 0.058154978
000030 6f 0b 1e 3d 8d bf 46 bd 52 d0 80 bd d7 1e b6 3d
       0.038585123 -0.04852252 -0.06289734 0.08892601
000040 56 53 42 bd 2f 28 2e 3d a1 ec ce bb 4c 2d b6 3d
       -0.047442757 0.04251879 -0.0063148295 0.088953584
000050 17 6d 0f be 85 d3 14 be 23 d2 90 bc 54 6d 10 be
       -0.14006458 -0.14533813 -0.017678326 -0.14104205
000060 b2 31 32 bd 16 46 fd bd a2 c6 c8 3d b4 d8 dd bc
       -0.043504424 -0.123668835 0.09803511 -0.027080871
000070 bd 7d 22 3e 9d 13 1f bd 73 de f9 3d 41 3c 57 3e
       0.15868278 -0.038837064 0.12200632 0.21019079
000080 95 28 9b 3b 3f 21 b8 bd c0 78 ca 3a 30 b9 c0 bd
       0.0047350624 -0.08990716 0.0015447363 -0.09410322
000090 44 ae 84 3d 7c 00 11 be fc 51 96 3d db d3 15 bb
       0.06478551 -0.14160341 0.07339856 -0.0022861871
0000a0 a3 ad f1 bc db 8b 27 3e ef 49 52 bd 80 af c5 3c
       -0.029501742 0.16361944 -0.05134004 0.024131536
0000b0 1c 09 0b 3c 81 11 8a bd 61 5d 8a ba 87 a1 37 3e
       0.008486059 -0.0674162 -0.0010556394 0.17932712
0000c0 68 77 82 3e c8 c5 b8 bd 3a ac c8 bd 39 95 17 be
       0.25481725 -0.09022099 -0.097984746 -0.14803018
0000d0 bf 9f f8 3d 16 f1 22 be 83 10 a4 3d 42 57 95 bc
       0.12139844 -0.1591228 0.08010962 -0.018230084
0000e0 1a 9b a5 be bc f1 7d 3e 4a bf 8c be 8c ae f7 3e
       -0.32344896 0.24799246 -0.27489692 0.48375356
0000f0 2e 37 dc bb 69 9b 2a bc 73 52 6a bc 9e 31 a8 3d
       -0.006720445 -0.010413029 -0.014301884 0.08212589
000100 cd 06 34 3e 62 12 22 3e 3b e5 ce bd 73 0a 97 be
       0.1758072 0.15827325 -0.10102316 -0.2950016
000110 0b 8b 96 3d 53 60 5c bd a8 e7 c7 bd db e3 08 3e
       0.07350739 -0.0538028 -0.09760982 0.1336817
000120 ba 6b 1b be b6 cc 5a 3e f2 09 02 be b4 f4 60 3e
       -0.15177813 0.21367154 -0.12699106 0.21968347
000130 fb b9 bc bc d0 9a b0 3d 8b c7 c4 bd 04 8c 98 3e
       -0.023037901 0.08623278 -0.09608372 0.29794323
000140 6c 54 c2 bd d8 84 dd 3b 24 70 8e bb 05 c8 92 3d
       -0.094887584 0.006760221 -0.0043468643 0.07167057
000150 14 b0 3f be ec 32 69 be eb b0 be bd 30 fb f9 3c
       -0.18719512 -0.22773331 -0.09311088 0.030515283
000160 fd ca 17 3e ba ec 62 3d d5 43 a8 3d 3b a3 01 be
       0.14823528 0.05540154 0.08216063 -0.12659924
000170 c9 6d 8c bd d4 1d a2 bd b6 54 f2 3d 0c 49 83 bd
       -0.06856877 -0.079158455 0.118325636 -0.06410417
000180 36 00 a3 bd a6 4e 11 3d d5 34 36 3d 88 1e f8 3d
       -0.079590246 0.035475396 0.04448398 0.121151984
000190 b1 bf 1e 3e 38 e2 a2 3d 70 38 76 bd d8 1f b9 3d
       0.15502812 0.07953304 -0.060112417 0.09039277
0001a0 02 15 05 3e ca e9 fc 3d 08 46 bb bc 0f 59 93 bc
       0.12996295 0.12349279 -0.022860542 -0.017986802
0001b0 0a 50 76 be 21 e6 5d bc 26 0b 2d 3e 13 9b ff bd
       -0.2405397 -0.013543637 0.16898784 -0.1248075
0001c0 25 12 9e bd 62 86 5d 3e b8 ea 10 bd a9 6a 99 ba
       -0.077183045 0.21633294 -0.035380095 -0.0011704761
0001d0 0c d6 74 3d af 2e d3 bd cf 7d a1 3d 8c e0 81 bd
       0.059774444 -0.103116386 0.07885324 -0.06341657
0001e0 ee 0f 85 3d 68 72 99 3d 73 90 dd 3d e4 1b 1a be
       0.06497179 0.074925244 0.10818567 -0.15049702
0001f0 2b ac 3d bc 52 07 af bd f5 79 bb 3d 3d 9d d0 3d
       -0.011576693 -0.08546318 0.09154121 0.10186241
000200 35 d3 11 be 11 3e 64 3d 14 26 42 be 61 93 c3 3d
       -0.14240725 0.055723254 -0.18959838 0.09549595
000210 1e 19 0e be 61 fc 96 bd 97 d6 5e 3e fd 6d ac be
       -0.13876769 -0.07372356 0.21761547 -0.33677664
000220 62 1d 8d be 08 02 29 3d db 1b d3 bc 17 eb 71 3e
       -0.2756148 0.041261703 -0.025770118 0.23624836
000230 7d 29 16 3e f7 90 02 be ff 10 ce bc a8 da e2 bd
       0.14664264 -0.12750612 -0.025154589 -0.110768616
000240 41 db 44 3e 93 4b 12 be 2e fd bb be bc b8 a7 3b
       0.19224264 -0.14286642 -0.36716598 0.0051184576
000250 f1 12 a9 bc e7 23 36 be 0c 42 4f be b8 19 20 be
       -0.020638915 -0.17787133 -0.20240039 -0.15634811
000260 ab 5b a3 be 37 14 48 3e 70 11 5b be 9e a1 c7 3e
       -0.31905875 0.19538961 -0.2139337 0.38990492
000270 af 35 74 3d 24 22 45 be b9 fb fb bc a6 a7 10 be
       0.05962151 -0.19251305 -0.03075968 -0.14126453
000280 b4 47 10 3e 73 c4 f9 bb 95 77 0a be d6 17 f1 bd
       0.14089853 -0.0076222955 -0.1352218 -0.117721245
000290 b0 1b 74 3d a7 bf a2 bd da d6 8c 3d 58 ee d7 3d
       0.059596717 -0.07946711 0.06876917 0.10543507
0002a0 9b f9 a8 bd fc 44 24 3e dc 9e 52 be b7 62 20 3e
       -0.082507335 0.1604194 -0.20568413 0.15662657
0002b0 63 4f a7 bd 4a fb c6 3d 94 13 ec bd ef ee 90 3b
       -0.08169439 0.09715898 -0.11527172 0.0044230144
0002c0 e5 8f bb 3d 8e c1 fc bd e8 7b 16 be 43 54 4b 3d
       0.09158305 -0.12341605 -0.14695704 0.049640905
0002d0 da ba 8b 3e f9 f8 3d be d6 62 a9 bd 48 3a 5c 3e
       0.27290994 -0.18552007 -0.082708046 0.21506608
0002e0 fa a8 05 bd c7 3d 68 3e 80 f0 98 be 86 d5 b3 3e
       -0.03263185 0.22679816 -0.29870987 0.35123843
0002f0 5c b8 a8 bd fa e1 9b 3c c5 e1 eb 3d 33 25 75 3d
       -0.08238289 0.019028652 0.115176715 0.05984993
000300 af 61 cf bd 64 ff 4e 3d 27 0e 40 be 21 29 cd 3c
       -0.101260535 0.05053653 -0.18755399 0.025044026
000310 7f c5 7c 3d dc f5 04 bd a0 b0 c5 3d ca 45 37 bd
       0.061711784 -0.032461032 0.09652829 -0.04474429
000320 5c e5 a7 bd db 6c 54 3e 4d 67 3e bd d5 0b 27 3e
       -0.08198044 0.2074465 -0.046485234 0.16313107
000330 f2 e3 a8 3c 4c 74 1c be b3 30 0d be ab 01 37 3e
       0.020616505 -0.15278739 -0.13788109 0.1787173
000340 1a 4c 19 3e f4 66 46 3b fd 4d 95 bd af 4a 32 3d
       0.14970437 0.0030273767 -0.07290266 0.043528255
000350 c7 ee 8b 3d 9e bf 60 be 77 1e b0 bd f7 d9 6d bd
       0.068326525 -0.21948096 -0.08599561 -0.058069196
000360 e2 c8 2a bd bb a4 83 3e 60 e8 a4 bc f5 4e 6b 3e
       -0.041695483 0.25711617 -0.020130336 0.22979338
000370 09 ef 4a bd d1 f3 0a bd 67 9c e0 bd f1 01 f8 3d
       -0.049544368 -0.033923928 -0.109673314 0.12109745
000380 1b ab 7e 3d 43 d8 2c bd 6a 1d 00 be dc 2e 10 3e
       0.062174898 -0.04219843 -0.1251122 0.14080375
000390 49 58 47 bd e2 ff bd bc 4d d7 ec bd ec f3 2b 3d
       -0.04866818 -0.023193303 -0.11564503 0.04198067
0003a0 02 0a 35 3b 5f d0 ed 3d b1 71 37 bc a0 90 f1 bc
       0.0027624373 0.11612009 -0.01119654 -0.029487908
0003b0 3e 19 07 be 06 ce 9c bd 1e c7 03 3e f0 ed e7 bd
       -0.13193223 -0.07656483 0.12868926 -0.1132468
0003c0 e3 87 b3 bd 6f 4c 8e 3d f3 e4 a5 be 45 6f 34 3e
       -0.08766153 0.06948172 -0.32401237 0.17620571
0003d0 6d d5 15 be 64 a5 94 bd 9e de c2 3d 87 5d 47 be
       -0.14632197 -0.07258108 0.09515117 -0.19469272
0003e0 22 fc 23 be d8 32 ed bd 90 30 5d bc 41 55 01 3d
       -0.1601415 -0.11581963 -0.013500348 0.031575445
0003f0 6e c9 d1 3d 18 ad 9c be de e7 6f bd ba cb 98 3c
       0.10243498 -0.3060081 -0.058570735 0.018651832

gru.weight_hh_l0_reverse f4 [192, 64]
000000 44 04 19 be 79 7f b8 bd e3 d6 b5 3d f2 b3 9b 3d
       -0.14943033 -0.090086885 0.08878877 0.07602681
000010 12 f5 4f bd 1c 8c b2 bd 90 36 81 be ec 79 a0 3d
       -0.050770827 -0.0871813 -0.2523694 0.07835755
000020 25 d3 1f 3d 92 12 a4 3d 37 02 23 bd 83 66 ef bc
       0.039019722 0.080113545 -0.039797034 -0.029223686
000030 4c 09 d0 3d 18 3f 0e 3e 8b 54 1e 3e 9a a9 1b 3e
       0.10158023 0.13891256 0.15461938 0.15201417
000040 c4 26 02 be 8f 31 72 be 7c b7 f3 bd 99 1d 43 be
       -0.127101 -0.23651718 -0.11900231 -0.1905426
000050 0f c3 e1 3d a7 e8 26 3e be 5d fa 3d 7a 46 e1 3d
       0.110235326 0.16299687 0.12224911 0.109997705
000060 55 64 27 3e b9 6c fb 3d 7b 3b a3 3b 0f e4 af bd
       0.16346867 0.122765966 0.004981456 -0.085884206
000070 64 c7 81 3d 74 3f 99 3d 97 76 7b be e8 0e 48 bd
       0.06336859 0.07482806 -0.24556957 -0.04884234
000080 c6 08 5d be a7 14 4e bd 4d 68 9e 3e 01 5a d4 3d
       -0.21585378 -0.050312664 0.3093895 0.103687294
000090 15 66 99 bd df 48 b9 bd 35 e1 06 be 25 27 29 be
       -0.07490174 -0.09047102 -0.13171847 -0.16518839
0000a0 e0 25 c9 3d 0d 31 21 be 9b ba 4f 3d 9c c4 b7 bc
       0.09821677 -0.15741368 0.05071507 -0.022432618
0000b0 5d 6d 26 3c 53 9d e2 3d d8 d6 34 be 58 ad 49 3e
       0.01015791 0.110651635 -0.17660081 0.19695032
0000c0 2f b4 cf 3a 15 7c 41 bd 8e 7d 12 be b1 41 0d be
       0.0015846546 -0.047237474 -0.14305708 -0.1379459
0000d0 e8 fc dd bc 8d b4 a3 3d 22 2e 14 be 54 16 fa bc
       -0.027098134 0.07993422 -0.14470723 -0.030528225
0000e0 3e 33 8e 3c 83 87 f7 3c 15 a1 8f be 04 94 55 bd
       0.017358419 0.030215984 -0.28052583 -0.05214311
0000f0 9c e9 bb bc f5 08 7c 3d 5f cb ef 3d dc 32 15 be
       -0.022938542 0.06153198 0.11708712 -0.14570183
000100 d1 2e af 3d 94 12 47 3e 16 25 5d 3c 43 02 3d 3e
       0.085538514 0.1944068 0.0134976115 0.18457894
000110 96 92 80 3e 74 77 24 3e 1f 3b b0 bd ae 2c 91 bd
       0.25111836 0.16061193 -0.086050265 -0.070886
000120 a1 bb d5 bd bd f5 28 bd cb 96 2f 3c e9 ac c6 bd
       -0.10436178 -0.04124998 0.010717104 -0.09700949
000130 4f 5d 1d bd f6 38 9c 3d 12 02 c1 3d ac 79 82 3e
       -0.038419064 0.07628052 0.09424223 0.25483453
000140 26 df 40 bd b1 8e f1 bb 85 ad a0 3d f8 10 b6 3d
       -0.04708781 -0.0073717465 0.07845596 0.08889955
000150 dc 2e 7b 3b c1 04 97 bd 70 78 d2 3d 70 ed e4 3c
       0.003832749 -0.073739536 0.10276878 0.02794525
000160 42 64 96 3d 7f 16 1c bd d4 78 4d 3e a0 91 85 be
       0.073433414 -0.03810739 0.20065624 -0.26087666
000170 74 0b 1f 3e 0b a9 c2 3d 0a 56 28 3e d2 b4 14 3e
       0.15531713 0.09504899 0.16439071 0.14522102
000180 15 67 99 3d 5e 2c fb bd 3c 59 7b bd ad aa 3c be
       0.074903645 -0.12264322 -0.061364397 -0.18424483
000190 f4 b8 5a 3e c0 f6 6f bc d3 c7 3d be 93 fd ff 3c
       0.21359617 -0.014646232 -0.18533258 0.031248843
0001a0 f2 bf 32 3e 9c 0d 3b 3e bd 00 f0 bd 94 c0 38 bc
       0.17456034 0.1826691 -0.11718891 -0.011276383
0001b0 29 0b 68 3d c1 8a a1 be b4 2c 02 3e ea f2 1e bd
       0.05665127 -0.31551173 0.12712365 -0.03880588
0001c0 60 2b 01 3c 1f 90 13 bd 69 8f 7f bd 2d 32 da 3d
       0.007883877 -0.036026116 -0.062392626 0.106541015
0001d0 ec a2 93 3d 0b 95 98 be 8b 89 4b 3d 07 b6 10 3e
       0.07208809 -0.2980121 0.049691718 0.14131938
0001e0 15 9e f8 3d d0 c0 75 3e 76 ab 07 bd 6d e1 80 3d
       0.12139527 0.23999333 -0.033122502 0.062929966
0001f0 13 34 5a bc 68 a7 5a be 2d 9f 33 be dc 7c 6f be
       -0.0133180795 -0.21352923 -0.1754119 -0.23387474
000200 00 bb bf bb 26 ae 16 be 12 db e3 bc 60 4b 97 3d
       -0.0058511496 -0.1471487 -0.027814422 0.073874235
000210 ef ba 52 3c 2b bf 3e be 79 cb 3f be de 51 1f be
       0.012861951 -0.18627612 -0.18729962 -0.15558574
000220 aa 44 00 be 89 7c 48 3d 92 84 65 bc 9e 20 8a bd
       -0.12526193 0.04894689 -0.014008658 -0.067445025
000230 c0 a2 12 3c cc e5 76 bd 07 29 61 3e 1b 5e 71 3e
       0.008949935 -0.060277745 0.21988307 0.23571055
000240 d2 70 40 3d 4e 4a 78 bc cf a5 4c 3d 1f 1c 2f be
       0.046982594 -0.015154434 0.049962815 -0.17100571
000250 d9 94 47 be db a9 e9 bb 93 22 78 bc 0c 40 18 3e
       -0.19490375 -0.007130844 -0.015144962 0.14868182
000260 14 8b da 3d 43 d6 14 bd 1c b7 02 be 29 f3 13 be
       0.10671058 -0.03633715 -0.12765163 -0.14448227
000270 63 b9 ac 3c d6 78 b3 3c 54 13 d7 bc 32 44 38 3c
       0.021084493 0.021908205 -0.026254334 0.011246728
000280 ba 01 3c be da de 4d 3d a1 10 66 bd 1f 23 04 be
       -0.18360034 0.050261356 -0.056168202 -0.12904023
000290 47 d5 92 3d 84 ca 2b be 88 a3 ca 3d bf d4 a7 bc
       0.07169586 -0.16776472 0.09894472 -0.020487187
0002a0 b1 c5 c6 bd 8d 7f 51 be 1d 77 7d 3c 61 a1 0d be
       -0.097056754 -0.20458813 0.015470293 -0.13831092
0002b0 a3 59 4c be c1 87 c8 bd a1 4c 96 bd ee ac 60 3c
       -0.19956069 -0.09791518 -0.073388346 0.013713105
0002c0 54 75 c1 bc bf f6 58 be a3 f8 91 bd 94 f4 23 3e
       -0.023615517 -0.21187876 -0.07127502 0.16011268
0002d0 c9 09 26 be 54 b9 f1 bb 3e 2b ed 3c ce 49 fe 3d
       -0.1621467 -0.007376829 0.028951284 0.12416421
0002e0 2c b5 ab bd b3 f4 3f bd 5b 3f 00 3d 48 bf 47 3d
       -0.08384165 -0.046864223 0.03131042 0.048766404
0002f0 c6 b4 d4 bd 91 4f a8 3d d2 1f 3b 3d 3b 5c f7 bd
       -0.10386042 0.08218301 0.045684643 -0.120781384
000300 19 2c 83 3d ce f9 6f bd fd cc 08 3d 27 6e ab bc
       0.06404895 -0.05858784 0.033398617 -0.020926548
000310 d0 89 16 3e 21 6a b3 3d bd d7 70 3c b0 93 e2 3d
       0.14701009 0.08760477 0.0146998735 0.110633254
000320 00 85 79 bb ad d1 9f bc c9 ea b0 bc f3 40 9d 3c
       -0.003807366 -0.01950916 -0.02159633 0.01919601
000330 b9 2e 4f 3e fb a2 8a bd bb 57 d7 3b f6 68 9a bd
       0.20232667 -0.06769367 0.0065717376 -0.07539551
000340 e6 3c b5 3d f3 04 b8 3b a5 15 0d 3d 46 b0 30 bd
       0.08849506 0.0056158244 0.03444447 -0.043136857
000350 f9 48 53 be 25 02 49 3d 89 96 b3 3d 3a f4 8f 3d
       -0.20633306 0.04907431 0.08768947 0.070290044
000360 1a 29 ed 3b ce 66 6b 3d 63 46 b2 3d 07 53 3e be
       0.0072375657 0.05747109 0.087048315 -0.1858636
000370 e9 43 27 3e c0 59 62 bd 15 d4 e4 bd f9 11 85 bd
       0.163345 -0.055261374 -0.11173264 -0.06497569
000380 87 bb 8f bb 5d 1c 05 3d eb 76 66 bd fe cd 5a bd
       -0.0043863687 0.032497752 -0.056265753 -0.053419106
000390 24 48 c5 3b b0 87 d7 3d ec 27 9e bd b8 4b e1 bd
       0.0060205627 0.10523927 -0.07722458 -0.1100077
0003a0 b6 81 7d bd 53 f9 73 3e fc c3 f8 bd 8b 09 30 bd
       -0.06189128 0.23825578 -0.12146756 -0.04297785
0003b0 60 d4 a1 bd 1e 50 a0 bc e8 df 23 3d 60 d6 96 3d
       -0.079018354 -0.019569453 0.040008456 0.073651075
0003c0 87 16 05 3e b6 d8 e3 3d 69 77 40 3d c0 55 47 3e
       0.12996875 0.11125319 0.04698888 0.19466305
0003d0 5b 94 35 be 19 3c c4 bb 87 c1 36 bd 87 4e ba 3d
       -0.17732374 -0.0059886095 -0.044618156 0.09097009
0003e0 c1 b0 b4 bd 4f ab 95 bd 82 7d 8f bd 29 c2 be 3d
       -0.08822776 -0.07308065 -0.070063606 0.09314377
0003f0 63 53 b6 3d 57 76 e1 3c cc e4 7c bd 89 e6 7c be
       0.089026235 0.02752225 -0.061741635 -0.24697317

gru.bias_ih_l0_reverse f4 [192]
000000 21 29 b4 3d 5f 9d 5d bd fc 38 be bd 9a e2 e2 3d
       0.08796907 -0.05410516 -0.09288213 0.11078377
000010 cb 5d 54 3d 35 12 2d 3e f9 d6 2e 3e 96 8f 8c bb
       0.05184726 0.16901477 0.17074193 -0.0042895777
000020 8f 6c 3a bd 1e 19 6c 3c 6d 1a 23 3d 73 16 03 bd
       -0.045513686 0.014410285 0.039820123 -0.03200383
000030 67 94 0b 3d 7b dc 00 3e 1a ef 00 3e 18 36 72 bd
       0.034077074 0.12584107 0.1259121 -0.05913362
000040 98 41 f1 bc 1f 2f 15 3e 67 ce 44 3e e5 8f d1 3d
       -0.029450223 0.14568757 0.19219361 0.10232524
000050 8d ac 95 3d b0 b2 23 3d 7b fe 2d bb 84 43 9d 3c
       0.07308302 0.03996533 -0.0026549387 0.019197233
000060 2c ec bb 3d 1d 9a 07 3e 67 88 33 3e 11 67 05 3e
       0.091759056 0.13242383 0.17532502 0.13027598
000070 87 d9 17 3e b7 bf c4 bd 2f 36 7d bc c9 61 5c bd
       0.14829074 -0.09606879 -0.015454813 -0.053804193
000080 d1 9c c6 3d e6 84 f5 3d 1d db 05 3e c1 6f af bb
       0.09697879 0.11988239 0.13071866 -0.0053538983
000090 e2 b2 37 3e ab 8b 30 3e d7 b4 e4 3d a2 ec 70 3e
       0.17939332 0.17240779 0.11167305 0.23527768
0000a0 2c 3c 33 3c 79 76 86 3c 89 48 90 bd c8 b9 66 3d
       0.010939639 0.016413914 -0.07045085 0.05632952
0000b0 e0 db 39 3d 7d d3 6c 3d 58 ed 35 3c 72 be 14 3e
       0.045375705 0.05781888 0.01110395 0.14525774
0000c0 38 d9 e8 bc 87 be eb 3d dc 8a 6d 3d fb 3c 4f 3e
       -0.02842389 0.115109496 0.057993755 0.20238106
0000d0 e9 4f 98 3d 33 aa 85 3e a4 94 de bc 02 a3 11 3e
       0.07437117 0.26106414 -0.027170487 0.14222339
0000e0 51 d8 9a 3d 8c 76 ad 3d 6f 51 3a 3d 8f bb 0d 3d
       0.0756079 0.08469877 0.045487817 0.034602698
0000f0 ed 8b 0b 3e e7 90 3d 3e 2f e6 2b 3e ab ff c8 bd
       0.13627596 0.18512307 0.16787027 -0.0981439
000100 5d 0a 8c 3d 28 6f 22 be b3 a3 2e 3e 07 99 ea 3d
       0.06837914 -0.15862715 0.17054634 0.11454969
000110 93 59 9a bd 87 8b 30 be 0a 72 a3 bd b8 93 f8 bc
       -0.07536616 -0.17240725 -0.079807356 -0.030343875
000120 6c d2 59 be 09 30 c6 3d 33 4f 0a be a1 1c 87 bc
       -0.21271676 0.09677131 -0.13506775 -0.016493144
000130 ec 10 6c 3c f0 b2 6a bd 7e 84 45 be 67 21 10 be
       0.014408331 -0.057299554 -0.19288823 -0.14075242
000140 a6 b7 48 3e c7 3a 46 be 2e 11 22 be 40 e0 c1 3d
       0.19601306 -0.1935836 -0.15826866 0.094666004
000150 29 42 1a be 8a 12 6a 3e 84 b7 e9 bd a6 c0 32 3e
       -0.150643 0.22858635 -0.11411956 0.17456302
000160 b1 b9 a6 bd 6e 6a 32 3e 07 67 ea 3d 0e ee b2 3c
       -0.081408866 0.17423412 0.11445432 0.021842029
000170 e3 c6 70 be c6 87 9a 3e e3 5f 14 3e d7 21 03 bd
       -0.2351337 0.30181712 0.14489703 -0.032014694
000180 db c2 d9 3c 57 9d 44 3e cd f1 a4 bd 70 b5 10 be
       0.026582172 0.19200645 -0.08053932 -0.14131713
000190 94 31 80 3d 6b 2f dd bd 23 82 e7 bd fa c0 44 be
       0.06259456 -0.1080006 -0.113041185 -0.1921424
0001a0 cb 49 6f bc c6 df 8a be 28 f4 94 3d 10 93 71 3e
       -0.014604996 -0.2712385 0.072731316 0.23591256
0001b0 fb 86 9a bd df e0 95 be d0 e1 4c be aa c9 86 bd
       -0.07545277 -0.29273126 -0.20008016 -0.06581433
0001c0 07 58 4c bc 03 32 12 be f3 2f 93 bd 60 fc ad 3c
       -0.012472159 -0.1427689 -0.0718688 0.021238506
0001d0 17 31 91 bb b1 89 23 be 41 06 84 be 41 d1 94 be
       -0.004430901 -0.15970494 -0.2578602 -0.29065898
0001e0 4b 21 21 3e d7 0d ed bd c3 a5 66 be 1d 38 97 3d
       0.15735357 -0.11574905 -0.2252417 0.0738375
0001f0 86 5b 4a 3b 1a 46 53 be d8 be f1 be 91 7b f9 bb
       0.0030877306 -0.2063221 -0.47215915 -0.007613607
000200 39 98 08 be 9c 2e a6 bd 33 87 c0 bc da 07 56 bd
       -0.13339318 -0.08114359 -0.023501968 -0.05225358
000210 28 a1 07 3d 9c 38 cc 3c 07 f4 37 3d 4a 35 bb bd
       0.033112675 0.024929337 0.044910457 -0.091410235
000220 bb ee c7 bc 98 61 9a 3d f2 47 ed bc 97 46 4f bc
       -0.024405828 0.07538146 -0.02896497 -0.012651107
000230 b4 55 a9 bd d6 b4 ec bd bc 2d cf 3d e7 a7 31 3d
       -0.082683 -0.11557929 0.10116145 0.043373015
000240 54 35 5c 3c 05 a7 97 bd f5 dd bd bd 15 28 77 bd
       0.013440449 -0.07404903 -0.092708506 -0.06034096
000250 3d 59 8d 3c ad 8d 16 bd 96 8a 69 bd 24 db 89 3d
       0.017254466 -0.036756206 -0.05701693 0.06731251
000260 1e 24 c9 3d 05 a5 8c 3d f7 1b b8 3d 58 30 ca 3d
       0.09821342 0.068674125 0.08989709 0.09872502
000270 7e d8 a1 3d 93 f4 21 bd e9 7f 96 bc e4 f6 38 3d
       0.07902621 -0.039539885 -0.01837154 0.04515733
000280 2c 47 be bd ae e1 0f 3d 9b 7d cb bd 58 a7 ab bd
       -0.09290919 0.035127334 -0.09936067 -0.08381528
000290 58 b7 1e 3d 6a c1 02 bd bc 7a 1a 3d b8 3e 2f bc
       0.03874907 -0.031922735 0.037714705 -0.010696106
0002a0 4c f3 2c 3d e0 c6 63 bd b5 43 40 bc f1 ce 70 3d
       0.042224213 -0.055609584 -0.011734893 0.058791105
0002b0 7f ec 5c 3a eb 30 e3 bd d6 34 f8 3d 8c 77 0e bb
       0.00084275746 -0.11093315 0.12119453 -0.0021738736
0002c0 e9 75 c8 3d 70 f9 d9 bd 89 62 a6 3d ab a9 c1 bc
       0.097881146 -0.106432796 0.08124263 -0.023640474
0002d0 39 3f 4d bd 2f 7a cf bc cd c2 6b 3c fa d4 99 bd
       -0.050109122 -0.025326816 0.014389706 -0.07511325
0002e0 90 8c aa bd 2b a6 1f 3d e3 19 04 be ac 02 9d bd
       -0.083275914 0.03897683 -0.129005 -0.07666525
0002f0 d4 00 87 bd bb 32 b7 3d 54 c9 0c 3d 97 36 9a 3d
       -0.06591955 0.08945223 0.03437169 0.075299434
