try5_realCTCFtrimmed1/100bp_1_positive_trim100_noimplant_fullytrainedGen.pth (torch, 67915 bytes, 7 tensors)

embeddings.weight f4 [5, 16]
000000 34 63 9c 3f dd 82 c2 bc 7b 61 50 bf bb 39 b7 3f
       1.2217774 -0.023744041 -0.81398743 1.4314493
000010 44 71 d0 3f a7 ab 39 3f 01 b4 e6 bf 00 39 00 bd
       1.6284566 0.72527546 -1.8023683 -0.03130436
000020 0e dd a3 bf 46 0f a0 bf 83 4c d5 be a5 e6 7b bf
       -1.2801836 -1.2504661 -0.41659936 -0.9839881
000030 b1 6f 9c 3f 80 e4 f4 be 5a 23 2c 3e 09 69 d2 3f
       1.2221586 -0.47830582 0.1681036 1.6438304
000040 85 9f 95 be ed 37 58 3e 8e 44 6d 3f 80 28 90 bf
       -0.29223266 0.21115084 0.9268273 -1.126236
000050 8d 21 24 3c 23 78 d5 3d 60 12 35 3f ae 2b 99 3e
       0.010017765 0.10423305 0.70731163 0.29916137
000060 1e 9c a0 bf dd 46 f4 be 88 47 6e 3f 67 e4 3f bf
       -1.2547643 -0.47710314 0.930779 -0.7495789
000070 4b 1b 43 bf fb d6 3b bf 95 7d b5 be 07 ca 21 3f
       -0.7621352 -0.7337491 -0.35447374 0.63198894
000080 a0 a7 1a be 9a 89 40 be 8c 3b 93 3f 02 00 1e 3f
       -0.15103006 -0.18802491 1.1502547 0.6171876
000090 c8 cc 10 be 93 2c 71 3d d4 96 e1 3e fc 74 be be
       -0.14140618 0.0588804 0.44060385 -0.37198627
0000a0 e8 9f ed 3d 8e 0e 46 3d f4 d0 c7 bf f7 28 82 3f
       0.11602765 0.048353724 -1.5610642 1.0168751
0000b0 6d 56 b2 3e 9a 48 24 3d 07 26 79 3f e1 4c 9c 3c
       0.34831563 0.0401083 0.9732365 0.019079627
0000c0 3b f0 a0 bc 70 f8 87 3f 8a cb a1 bd ce fd 0e bf
       -0.0196458 1.0622692 -0.0790015 -0.55856025
0000d0 5d 63 a1 3f 33 c4 7f 3f c4 72 08 3f 8b 67 91 bc
       1.2608448 0.9990875 0.5330012 -0.017749568
0000e0 c8 be 06 bf c6 d4 4c 3e ed 19 52 bf d3 97 f9 3f
       -0.5263486 0.20003042 -0.8207081 1.9499458
0000f0 b7 46 aa 3e e9 e2 a1 3e 74 43 35 bf b2 b4 42 3f
       0.33257076 0.3161843 -0.7080605 0.7605697
000100 ee e3 22 be fe 60 73 be 65 89 b4 3f ea aa 59 3c
       -0.15907261 -0.23767468 1.410443 0.013285378
000110 16 4e b1 3e 2a ff dc bd 23 37 fe bf 40 98 bf bd
       0.34629887 -0.10790856 -1.9860576 -0.09355211
000120 41 e1 19 3f 48 bb 91 3e 28 03 75 3f e6 49 df 3d
       0.60109335 0.28463197 0.9570794 0.10902767
000130 a7 57 b4 3f 4a a7 50 3f 24 60 91 3d 0b 19 1a 3f
       1.4089249 0.8150526 0.070984155 0.6019446

gru.weight_ih_l0 f4 [192, 16]
000000 83 8f 25 3d dc 1f 80 be e7 3c 1c bc 90 ad 20 3f
       0.040420067 -0.25024307 -0.009536005 0.62764835
000010 0c 37 07 bf 71 2f 92 3b 8f e4 fb 3e ac 08 6c bc
       -0.5281837 0.004461222 0.49197814 -0.014406364
000020 70 81 d0 be d7 40 4e be df 35 19 be 63 6b 5a be
       -0.40723753 -0.20141922 -0.14961956 -0.21330027
000030 a1 e7 45 be 93 78 ef be 6f 2a ef 3e c1 e4 5c bd
       -0.1932664 -0.46771678 0.46712062 -0.053929094
000040 c3 76 2a 3e a9 32 07 bf ba 10 93 be 22 1b 5e 3f
       0.16646867 -0.52811676 -0.287237 0.8676015
000050 70 42 1f be 7e 7d c1 be 63 47 4d bf a0 44 e6 bd
       -0.15552688 -0.37791055 -0.8018705 -0.11243558
000060 ee 1f e6 3e a5 41 3a 3e f5 d1 10 3e 10 78 9d be
       0.44946235 0.18189104 0.14142592 -0.30755663
000070 fc 2f a3 3e cb 12 96 3e 75 8c 0a 3f 51 73 9a be
       0.31872547 0.29311213 0.5412057 -0.30166104
000080 8a 6d b1 3e 11 7d fa 3e 82 89 11 bf c7 c0 64 3d
       0.34653884 0.48923543 -0.56850445 0.05584791
000090 62 1e 4a 3e fe a7 99 3e 2a ed f2 3e a6 b9 8f bd
       0.19738153 0.3001098 0.47446567 -0.070178315
0000a0 13 e4 10 3e 7b d2 26 3e 8f 21 20 bf e5 36 0f 3f
       0.14149503 0.1629123 -0.62551206 0.5594314
0000b0 3f d8 93 3c b6 5b 9e 3e 3d 3b fe be 36 3d 98 be
       0.01804745 0.30929345 -0.4965457 -0.297342
0000c0 4a fb 40 3e 8a 8a 70 3f a2 88 a0 be eb eb aa bd
       0.18845859 0.93961394 -0.31354243 -0.08345779
0000d0 80 22 08 3f 96 5c d5 3e 7f 51 f5 bd 40 ea 62 bd
       0.5317764 0.416722 -0.11978435 -0.05539918
0000e0 27 55 5c 3e 8c 24 0d 3e 7e a5 f3 bc 30 35 92 3e
       0.21516858 0.13783473 -0.029741999 0.28556204
0000f0 06 50 c6 3c 7c 07 80 3e cd dd 94 be 54 c4 1e bd
       0.02420808 0.2500571 -0.2907547 -0.03876145
000100 7a f0 19 be ff 40 cb be 20 86 7a 3e 3b 05 75 3d
       -0.15033141 -0.39698026 0.24465227 0.05981944
000110 1d 93 d5 be 0e c2 8a be ee 1e d8 be 57 a1 44 bc
       -0.417138 -0.27101177 -0.42211097 -0.012001357
000120 43 fb 93 3e 71 7c 1a 3e e9 30 05 3f 4a 93 99 be
       0.28902635 0.15086533 0.52027756 -0.29995185
000130 f9 cd a0 bd 59 66 6e bd 6a 7d 24 3f e8 2a 74 bd
       -0.07851786 -0.058203075 0.64253867 -0.05961123
000140 63 e1 a1 be f1 c2 62 3e 20 3a ba 3b f4 68 2c be
       -0.3161727 0.22144677 0.0056831986 -0.16836911
000150 7a 2c 5c 3c 0b 74 ef 3d e3 c3 42 3f a1 39 75 bd
       0.013438338 0.11692055 0.7608015 -0.059869412
000160 73 2e 0a bf 2f 0a 85 be a9 56 07 bf eb 3d c8 3e
       -0.53977126 -0.25984332 -0.5286661 0.3910974
000170 4a b9 91 be e7 6b b8 be 1f 08 f4 3d ce 8c e0 3d
       -0.28461677 -0.36019823 0.119156115 0.10964356
000180 74 a8 90 3e 2f 45 d4 bd 58 78 9b be 5b 80 bf 3e
       0.2825352 -0.10364758 -0.30365252 0.37402615
000190 24 65 72 3d e9 4b 98 bd d7 2f a5 be 78 96 a8 3c
       0.059178486 -0.07436354 -0.3226306 0.020579562
0001a0 a0 d5 29 3e ec 1b 7e 3d b4 db e2 bd 5d e6 00 be
       0.16585398 0.062038347 -0.11077061 -0.12587877
0001b0 e8 de 74 3d a3 86 bc 3d 4a a9 8b 3e 27 29 06 be
       0.059782892 0.092053674 0.27277595 -0.13101636
0001c0 a2 2d 50 bf 75 0a f9 be 10 ed 17 3f 6f 7e b8 3e
       -0.8131963 -0.4864079 0.59346104 0.3603396
0001d0 d6 e5 5b be c8 c2 75 be b6 4e a3 3c 25 50 9c be
       -0.21474394 -0.24000084 0.019934993 -0.30529895
0001e0 1d d2 e6 3d d5 d1 33 3c 2e 5f 45 bb c5 a6 ae bd
       0.11270545 0.010975321 -0.0030116546 -0.085279025
0001f0 81 e0 01 3e e3 e0 0a be 30 ae 5b 3f d3 a6 26 3e
       0.12683298 -0.1356235 0.85812664 0.16274576
000200 b8 66 5f bb 1e c8 7d 3e 84 f6 90 3e 09 be d2 be
       -0.0034088325 0.2478337 0.28313076 -0.4116061
000210 e2 ac 1e 3f bb 37 ad 3e e9 0a e1 be 4f 7e 6b 3d
       0.6198255 0.3383158 -0.43953636 0.057493504
000220 f3 2d 84 be af 74 27 3e 37 ff 81 3e 6e 36 b2 bd
       -0.25816306 0.16353105 0.25390026 -0.08701788
000230 bf f1 f2 3e 9b a9 01 3f 0c 31 bf be dc e1 45 3f
       0.47450063 0.5064942 -0.37342107 0.7729776
000240 60 ba a4 bd 91 7a a4 3d 0f 27 82 3e 2b 1c 26 bf
       -0.08043361 0.0803119 0.25420424 -0.6488673
000250 46 36 96 3e 35 9b 93 3d 3d 00 c0 be c5 0c a1 3e
       0.29338282 0.07207338 -0.37500182 0.31455055
000260 28 4d 89 be 39 95 0a bd 98 47 2c 3f 18 1c 08 be
       -0.26816678 -0.033833716 0.67296743 -0.13291967
000270 96 d8 bf bc ea 4d 62 3e b4 92 d8 be 97 b4 8d 3e
       -0.023418706 0.22100034 -0.42299426 0.27676842
000280 e6 aa ac be e1 cd 3b be c0 7a 31 3f e8 2f 96 bc
       -0.33724135 -0.18340255 0.69327927 -0.01833339
000290 10 2c ee 3d 13 d9 f4 bc 86 ec 86 be 75 1f 9c bc
       0.11629498 -0.029888665 -0.26352328 -0.019057969
0002a0 30 04 f1 be d3 47 bc be af 4f 5d 3e 76 53 fe bd
       -0.47073507 -0.36773548 0.21612428 -0.12418263
0002b0 da 73 7f 3e 6d 22 98 bd 20 ce b9 3e a3 50 10 3f
       0.24946538 -0.07428441 0.36290073 0.5637304
0002c0 fd 25 18 bc d0 98 64 3c 9f 7d 1b bd 35 fe 07 bf
       -0.009286401 0.013952449 -0.0379616 -0.53122264
0002d0 9c 87 f4 bd cb c3 93 be b9 ea 26 bf db 94 88 3f
       -0.11939928 -0.28860316 -0.6520191 1.0670427
0002e0 fe bc 40 be a7 0c ac be ef 00 b8 3f 42 68 3d bf
       -0.18822095 -0.33603403 1.4375285 -0.7398721
0002f0 4b 2b 1b bd e4 7f 2f be c3 d4 25 bf 3f e3 af 3e
       -0.037883084 -0.1713863 -0.64777774 0.34353063
000300 d3 fb 5c be 72 54 b4 3e 67 27 87 3e cd 45 03 be
       -0.21580438 0.35220677 0.2639725 -0.12819596
000310 ac 07 01 3f 69 6c 06 3f 07 f2 bd 3e db 92 75 be
       0.5040233 0.5250917 0.37098715 -0.23981802
000320 77 6e d3 be 48 36 f9 bb eb a0 01 bf 29 0e c5 3e
       -0.41295215 -0.007605348 -0.50636166 0.38487366
000330 eb bb 7a 3e 34 85 63 3e b8 69 52 3e 83 2e ad 3e
       0.24485748 0.22218782 0.20548141 0.33824548
000340 ff 32 3f 3d da 3c 61 be fc 2f 29 bc 87 da 43 bd
       0.046679493 -0.2199587 -0.010326382 -0.047815826
000350 99 a6 c7 bd 7e c0 a5 bd ab 66 8d bd f8 70 8d 3d
       -0.09748573 -0.080933556 -0.06904348 0.06906313
000360 d7 d7 bd be d3 3f 31 be 76 db 2c 3d 91 1b 0d bc
       -0.37078735 -0.17309503 0.04220148 -0.008612529
000370 20 d5 63 bd 8d 29 09 be df 17 9e 3c 53 81 69 3e
       -0.055623174 -0.13394757 0.019298492 0.2280324
000380 2e d0 f3 3d 5b 7a 2e 3f 1a 39 de be d5 24 09 bf
       0.119049415 0.6815545 -0.4340294 -0.53571826
000390 7f 4e 06 3f aa 2e f2 3e b9 6c 55 3f 36 8a 09 3e
       0.52463526 0.47301227 0.8336902 0.1343163
0003a0 c6 16 7c bf 48 78 da be f4 31 90 be 95 60 de 3d
       -0.9847225 -0.42669892 -0.2816311 0.10858265
0003b0 ac 92 14 bf 7e 1b 02 bf 05 49 c6 be 6e f1 44 3e
       -0.58036304 -0.508232 -0.38727584 0.19232723
0003c0 a2 40 5c be a5 28 9d bf a9 ad 24 3e ba 8d 5f 3f
       -0.2150903 -1.2278029 0.16081871 0.8732563
0003d0 5a e2 7b bf 25 d5 6b bf 73 72 18 bf 35 fd ae be
       -0.9839226 -0.9212211 -0.59549636 -0.34177557
0003e0 1b c8 7c 3f 55 f5 86 3e d2 42 1c 3d de ff dc be
       0.98742837 0.26359048 0.038149662 -0.4316396
0003f0 f4 28 82 3e 9a e2 8a bd 80 d2 82 3f 3a e5 1a bf
       0.2542187 -0.06781502 1.022049 -0.6050602

gru.weight_hh_l0 f4 [192, 64]
000000 ad 9f 3e be e0 10 19 3f b1 44 3b 3e 13 4b c3 3e
       -0.18615599 0.59791374 0.18287922 0.38143215
000010 97 69 d1 bf 65 1c 2f 3e 28 71 98 3d 24 d8 18 3f
       -1.6360348 0.17100675 0.07443458 0.59704804
000020 10 d3 8f be da ee 3b be 40 33 9d 3e 3c dd 89 3f
       -0.28090715 -0.18352833 0.30703163 1.077064
000030 d4 7c 67 3e 71 e7 f0 3d aa 88 bc 3e be 22 3a be
       0.22606212 0.11762894 0.36823016 -0.18177316
000040 ad 51 22 bd 4d 6c 2b bf 05 28 81 3e e6 7c 65 3f
       -0.039628673 -0.6696213 0.25225845 0.89643705
000050 d8 78 b1 3d 13 23 2e bd b2 6a 81 be ec bc 3c be
       0.08665627 -0.042513918 -0.25276715 -0.18431443
000060 03 be 0a bf eb f5 34 3d 5c 3b 12 3e 79 45 9d 3e
       -0.54196185 0.04417984 0.14280456 0.30717066
000070 f5 2f 01 3e e0 84 39 bf 63 2c 6e 3e 50 59 a7 be
       0.1261595 -0.72468376 0.2325912 -0.32685328
000080 1e 3a 97 3f b7 2e c7 3e 50 4c 7b be 5d ea 68 bc
       1.1814611 0.38902828 -0.2454083 -0.014216033
000090 99 8b 92 3e 04 a4 0e 3e 06 ab a6 3d 8a 78 85 3b
       0.2862213 0.13929754 0.08138089 0.0040732073
0000a0 7d fa d4 3d 6b b7 8d bf a6 e1 3f bf bf 24 1e 3f
       0.10399339 -1.10716 -0.7495369 0.6177482
0000b0 96 77 1d 3c 61 54 bb be 3b 3f 03 3f 2b 5e b3 3d
       0.009611031 -0.36587813 0.5126836 0.087581955
0000c0 9a 93 f1 3e e9 dc 18 3f 7b e7 34 be df 5d d7 bd
       0.47182924 0.5971208 -0.17666428 -0.10515951
0000d0 0a e7 96 3c ca 75 60 3e e5 a3 be 3f 77 4e f3 3b
       0.018420715 0.21919933 1.4893767 0.007425125
0000e0 67 c5 69 be dc 4c 3f 3e 89 17 2d 3e 0f 49 56 bf
       -0.2282921 0.18681663 0.16903509 -0.8370523
0000f0 88 d8 6d 3d e7 0f 7c 3e 32 ef 60 bf a4 49 af be
       0.05806783 0.24615441 -0.87864983 -0.3423587
000100 82 0c fa 3e 23 a6 36 bb 36 2c 06 3f 38 85 23 3c
       0.48837668 -0.0027870021 0.5241121 0.009980492
000110 f6 95 5e 3f df 8d b3 3e 5f 2c 6a be 76 49 33 bf
       0.8694757 0.35069177 -0.22868489 -0.7003397
000120 d9 cc fa 3e 3f 8a 12 bd 06 56 12 bf 2e aa 35 3f
       0.4898441 -0.035776373 -0.5716251 0.709628
000130 a4 a4 2f 3d 09 64 b6 be 2b 44 ab bd 69 a3 be 3e
       0.042881623 -0.35623196 -0.083626114 0.37234047
000140 db 34 2f bd ff 96 22 bf 4a 9f 86 bf b3 2f 16 3d
       -0.042775016 -0.6351165 -1.0517361 0.036666583
000150 2c f2 40 3e c9 5a 42 3e 70 57 11 3e 30 eb 1d bf
       0.18842381 0.18979944 0.14193511 -0.6168699
000160 f6 4c 74 3e cd 1d a9 3e 59 bd cb 3e 22 44 88 bf
       0.23857483 0.3303055 0.39792898 -1.0645792
000170 63 77 03 bf b3 fb 21 3e 6d 14 cf be c3 b4 cf be
       -0.51354045 0.15818672 -0.4044527 -0.40567598
000180 ff b6 89 be 09 c9 8c bd cf 80 5b bd 8a 73 6d bd
       -0.26897427 -0.06874282 -0.05358964 -0.057971515
000190 84 e8 3e 3e 07 cf 44 3f 66 f3 7c be c3 bd 9c be
       0.18643385 0.768784 -0.24702224 -0.30613527
0001a0 e5 e0 0f 3f 02 6c 9f 3d 13 4b 00 be 1d 6c 36 be
       0.56202537 0.07784273 -0.12528639 -0.1781468
0001b0 ea ef a5 3e 99 64 0c 3e 1b 07 eb 3e 30 81 ce 3e
       0.32409602 0.1371025 0.4590386 0.40332937
0001c0 0d cd 8d bd 33 35 8c bf a9 80 3b be dd 67 54 3f
       -0.06923876 -1.0953735 -0.18310799 0.8297098
0001d0 44 73 27 3e e8 d4 b6 3d 1a d8 e4 3c 57 22 15 3e
       0.16352564 0.089273274 0.027935077 0.14563881
0001e0 be 68 a2 bc 41 d4 c1 3c 13 83 93 3e 59 24 5b be
       -0.019825336 0.02366078 0.2881094 -0.21400584
0001f0 8c 33 83 3d 7d 41 00 3f 2e 09 0f 3e eb 1c 79 3c
       0.06406316 0.5009993 0.13968346 0.0152046485
000200 6b fc 18 be ce 7f ca bd b2 db 10 bf 16 be 0c 3f
       -0.1494004 -0.09887658 -0.5658523 0.5497755
000210 27 0b 5f 3d 85 85 e5 be ad 65 c5 3d 3e 68 ab 3e
       0.054453995 -0.4482843 0.09638534 0.33477968
000220 59 a0 9f be 8a 73 a9 be cd 4b 29 be c0 5e 26 3f
       -0.31177023 -0.33095962 -0.16532822 0.6498833
000230 78 95 fb 3c e5 8d 6d bf 5d 1a 60 bd fc c3 91 be
       0.03071092 -0.9279464 -0.054712642 -0.28469837
000240 36 57 c7 3e 12 3f fe 3d f0 f3 70 3d f6 bb 80 be
       0.38933724 0.124143735 0.058826387 -0.25143403
000250 e2 51 dc 3e 09 e8 5e 3e 7e ee 90 3e f4 a1 82 3e
       0.43031222 0.21768202 0.28306955 0.25514185
000260 09 0c 70 3e b9 92 20 be f1 f0 a3 3e 28 01 0b be
       0.23442091 -0.1568097 0.3201976 -0.1357466
000270 8e ed 8b 3d 6d 6f c4 3e c4 e2 ba be 4a 61 83 3e
       0.06832419 0.3836626 -0.36501133 0.25660163
000280 03 1f 89 3e 2b 40 a3 be 9a fb ab bc 1f f2 04 bd
       0.26781473 -0.31884894 -0.020993996 -0.032457467
000290 43 d6 60 3d 63 b5 38 3e cb 44 9b bd 5a a4 fe bc
       0.054891836 0.18037944 -0.075814806 -0.031084228
0002a0 68 c1 27 bf 55 e8 4e 3e 1a 65 e7 be f9 b1 8a 3d
       -0.6552949 0.20205815 -0.45194322 0.06772227
0002b0 04 b0 ca 3d 40 61 41 bc d1 e6 76 3e 5d 05 a7 be
       0.098968536 -0.011802971 0.24111487 -0.3262128
0002c0 a2 13 dd be d0 6c f0 3d 6a 5b 9c bd fb 29 78 be
       -0.4317904 0.11739504 -0.07634623 -0.24234764
0002d0 08 5a 9b 3e c9 a6 02 3e f3 b9 5a be 56 85 42 be
       0.30342126 0.12758936 -0.21359996 -0.18996176
0002e0 bb 90 b5 3d 6f 42 a7 3c 69 dc 84 3e 1f e9 26 be
       0.08865496 0.02041742 0.2594941 -0.16299866
0002f0 27 7a b9 3e 01 08 e2 be c7 3d 68 3d 34 61 93 3e
       0.36226007 -0.44146731 0.05669954 0.28785098
000300 58 ed 4d 3d 2e c0 d8 be 9e 81 97 bf d1 6a c4 3e
       0.050275177 -0.4233412 -1.1836431 0.38362744
000310 b8 92 9d 3d 84 f4 64 bf f6 60 9c 3e d8 4c 3b bf
       0.07694 -0.894356 0.30542725 -0.7316413
000320 ee 43 f0 3d 18 0e c6 3e cc e2 f4 3e 43 78 05 bf
       0.117317066 0.38682628 0.47829282 -0.5213663
000330 a8 64 87 3f d7 d4 44 3f 13 1b d1 3d 49 b9 ff 3c
       1.0577593 0.7688727 0.10210242 0.03121628
000340 26 77 fb bd 20 c0 12 3f 7c 6c 3a be ca 5e d1 3e
       -0.12278585 0.5732441 -0.18205446 0.4089263
000350 f2 42 bd 3c fd f7 03 3e 19 be b2 be 12 90 44 be
       0.023103211 0.12887569 -0.34910658 -0.19195583
000360 1c 1b 05 bf 52 d0 b6 bb 28 32 2a 3d bb 0a b0 3e
       -0.5199449 -0.005579033 0.04155174 0.34383187
000370 ea 86 01 bf 29 d0 b1 be 19 ed 16 bd 7d 52 66 be
       -0.5059649 -0.34729126 -0.036847208 -0.22492404
000380 9a 60 0c be 62 79 05 bf 05 24 26 3d a2 c5 46 3e
       -0.13708726 -0.5213834 0.040561695 0.19411328
000390 e6 23 fe bd 11 27 35 3e 88 96 27 be 70 1f 90 be
       -0.12409191 0.17690684 -0.16366017 -0.28148985
0003a0 3c 8e d6 be 12 b3 24 3f f9 0f 02 bf 9c e4 f7 bc
       -0.4190539 0.6433574 -0.5080562 -0.030260377
0003b0 d0 2b 82 bd 5b 08 0f bf c0 95 5e bf ce 36 ee 3d
       -0.06356013 -0.55872124 -0.8694725 0.11631547
0003c0 e4 85 5d bd 88 16 38 3f 18 55 e8 3d aa e8 27 40
       -0.054082766 0.7190938 0.11344355 2.6235757
0003d0 b8 b6 c1 bd b7 57 2f 3d b5 39 32 3d 29 7b 8d be
       -0.09458679 0.04280826 0.043512065 -0.27633026
0003e0 95 b2 ad 3e 7c 95 b8 3f 36 6f a0 bc d5 fe 0c 3d
       0.3392531 1.4420619 -0.01958428 0.034422714
0003f0 73 19 6e bc 35 a4 ab 3d c7 57 8d bf dc 86 9a be
       -0.014532435 0.083809294 -1.1042413 -0.30181015

gru.bias_ih_l0 f4 [192]
000000 60 24 84 be ef fe ec bd 94 ee 41 be 1e 71 44 bd
       -0.25809002 -0.11572062 -0.18938667 -0.04795944
000010 2e 2c 8f bc 04 22 8f 3e 12 99 7a be 5d 94 8c 3e
       -0.017477121 0.2795564 -0.24472454 0.27456942
000020 47 18 16 3f 28 60 2b 3d da 1d 0f 3f ce af 58 3d
       0.58630794 0.04183975 0.55904925 0.052902035
000030 e3 58 d6 3e 7e 58 89 bd 27 22 e0 bd b0 a2 a2 be
       0.4186469 -0.06706332 -0.10944014 -0.31764746
000040 2f 03 22 be 7b 8e 45 3e 85 2c 52 3e d2 1e 32 be
       -0.15821527 0.19292633 0.20524795 -0.1739457
000050 0c 4c 78 3e 74 0c 80 be 30 e5 a8 3a 23 75 a9 3e
       0.2424776 -0.250095 0.0012885686 0.3309718
000060 a5 56 9e bd 80 8b ff 3d 70 ad 58 bd a9 08 f7 bd
       -0.0773137 0.124777794 -0.052899778 -0.12062199
000070 14 e0 03 be e1 3d 0c 3e bf 3c f1 3d 5d af 0a 3d
       -0.12878448 0.1369548 0.117791645 0.033858646
000080 5c 2a a3 be 54 93 7d be 25 87 d8 3d 9f 85 11 3f
       -0.31868255 -0.24763232 0.10572652 0.56844515
000090 b2 7f 9a 3d a6 ff 06 3f ad f2 f9 bd 3a 4e 04 be
       0.07543887 0.5273384 -0.1220449 -0.12920466
0000a0 71 dd 86 3e 0e 47 7a be 15 7c e1 3a 5b f4 d1 bd
       0.2634082 -0.24441168 0.0017203117 -0.10251685
0000b0 53 8d 85 3e 97 10 df 3d 07 58 50 3f ce 35 d7 bd
       0.26084384 0.10891836 0.8138432 -0.10508309
0000c0 ef 53 94 be 81 b0 62 3e d9 2a fd 3d 39 a4 de 3e
       -0.28970286 0.22137643 0.12361688 0.43484667
0000d0 34 0d 0d 3e 12 0e 94 bc bc e0 8e be 7e c5 23 3f
       0.13774568 -0.018073115 -0.27905834 0.63973224
0000e0 a8 b8 ae bd 45 65 b4 3e 18 b9 02 be 20 67 02 3e
       -0.08531314 0.35233513 -0.1276592 0.12734652
0000f0 5d 52 4a 3e 1f 5c 85 be 8e ba 29 3e a6 79 bd 3d
       0.19757982 -0.26046845 0.16575071 0.09251718
000100 7f df 76 3e bf 9b 04 3f 79 61 23 3f 1c 83 59 3e
       0.24108694 0.5180015 0.63820606 0.2124142
000110 38 3a c1 3e 9f 55 1f bf 2b 43 30 3e dc f9 a0 bb
       0.3773973 -0.6224002 0.17213123 -0.004912598
000120 22 aa 17 bf 0c a2 9e 3d 7b 12 20 bf bf 6c b4 3c
       -0.5924398 0.07745752 -0.625282 0.02202451
000130 85 51 9b be e8 34 cd be b7 fb 33 be 2b f2 98 be
       -0.30335632 -0.40079427 -0.1757649 -0.2987226
000140 82 56 18 bf 44 d9 07 3f 83 d1 0b bf 8b 0d d8 3c
       -0.59507 0.53065896 -0.54616565 0.026373645
000150 17 7a d6 3e a5 89 9c 3d 7d 12 33 bf 9b 54 24 3f
       0.41890022 0.07643441 -0.69950086 0.641916
000160 6a ea b6 bd cc c3 86 3d a5 06 a2 3e dd 5a 5f be
       -0.0893143 0.06580314 0.31645694 -0.21812005
000170 5f 6e 02 bd 3e ce 96 3e b9 2b f8 3e e3 5b 91 be
       -0.03184354 0.29454225 0.48470858 -0.28390417
000180 f8 c1 9a be bb 76 b9 bd 78 7e d8 3e 3e 28 87 bf
       -0.3022611 -0.09055849 0.42283988 -1.0559156
000190 e5 42 13 bd 6a 23 9d be 9f 90 07 bd 63 28 86 3e
       -0.035952467 -0.3069108 -0.033096906 0.26202688
0001a0 12 04 d5 bd c0 99 24 3d 1d fe 88 bf d6 4c 2c 3f
       -0.10401167 0.04018569 -1.0702549 0.6730474
0001b0 9f 90 d2 be 1e b0 63 bf 45 3e 66 be 6f 0b 01 3d
       -0.41125962 -0.8894061 -0.22484691 0.031505045
0001c0 6c 66 a7 be 26 95 c0 be 31 17 25 3f 93 5e 85 3e
       -0.3269533 -0.3761379 0.6448851 0.26048717
0001d0 e0 2e b5 be 3a fa 04 be d0 5b 03 3f e8 0e 46 3e
       -0.35387325 -0.12986079 0.5131197 0.19341624
0001e0 50 87 88 be d5 41 d1 be f9 18 5e 3d 39 bb 28 3e
       -0.26665735 -0.40870538 0.054223035 0.1647767
0001f0 09 c0 dd 3d 73 a7 8a bd d2 64 18 bf 45 21 9d be
       0.108276434 -0.0677022 -0.5952884 -0.30689445
000200 34 78 04 bd 50 27 db 3d 48 78 bf 3d 3b 25 9c be
       -0.032341197 0.10700858 0.09349114 -0.30497155
000210 2b cb db 3d 04 92 31 be 8d f7 ec 3c ef c7 28 3e
       0.107321106 -0.17340857 0.028926635 0.16482519
000220 7b 92 06 be 73 22 f7 bc 91 cb 83 3d d0 ea e1 3d
       -0.13141815 -0.030167794 0.064353116 0.11031115
000230 88 97 be 3d 78 09 75 be 6f 7a 16 be 4d 6f 5d 3e
       0.09306246 -0.23929393 -0.14695142 0.21624489
000240 6b f9 84 3d 36 98 19 3e 5a 4b 5c 3e e9 89 f4 3c
       0.06492885 0.1499947 0.2151312 0.029850917
000250 a7 68 1e 3d c5 2e 65 bd ea b9 2d 3e ec 6b 16 3e
       0.038674023 -0.055952806 0.16965452 0.14689606
000260 34 6a a1 3c 37 0b 1f be 29 d3 09 bd ac c1 21 bc
       0.019703962 -0.15531622 -0.033648644 -0.009872835
000270 a0 00 01 be 3a d6 de bd 32 bf c1 be ac 55 40 3e
       -0.12597895 -0.10880704 -0.37841183 0.18782681
000280 82 3d f0 bc 17 73 57 3e 19 2c 47 3e 9f 0b ce bd
       -0.029326204 0.21039997 0.19450416 -0.1006081
000290 54 dc d8 3d ee 09 3a 3e de dd 55 3e 4f 81 03 bd
       0.10588899 0.1816785 0.20885417 -0.03210574
0002a0 d4 f8 84 bc 9c d4 89 bd d7 08 55 be 0d 0b 16 3d
       -0.016231932 -0.06730005 -0.20804153 0.036631633
0002b0 86 f9 12 be 90 04 a0 be 1b e4 2c 3d 07 54 c1 3d
       -0.14352998 -0.3125348 0.042209726 0.09439855
0002c0 95 58 41 3c 9d fd 1e 3e d1 50 f9 3d 68 e1 18 3c
       0.011800905 0.15526433 0.12173618 0.009331085
0002d0 d5 96 b0 be 96 af 38 3d f8 44 db bc a3 0d 9d be
       -0.34490076 0.045089327 -0.026766285 -0.30674466
0002e0 62 20 83 3e 97 05 fd bd af 5b 6f be a3 7c 33 3e
       0.25610644 -0.12354582 -0.23374818 0.17528014
0002f0 30 3c 8e be b9 9f 95 bc 05 0e a0 3e 3f 6e 23 bd
       -0.27780294 -0.018264638 0.31260696 -0.03990006

gru.bias_hh_l0 f4 [192]
000000 79 fa c1 bd 3c 70 6d be be 1c 1c be cc e5 82 bc
       -0.09471602 -0.23187345 -0.1524534 -0.015978716
000010 6c d0 37 be 38 65 66 3e 40 1a 7c be e2 f2 94 3e
       -0.179506 0.2249955 -0.24619389 0.29091555
000020 9b d5 2a 3f 3e b1 1d 3e ae e6 eb 3e ac be ba 3c
       0.66732186 0.15399644 0.46074432 0.022795998
000030 b8 eb 00 3f ce f5 47 3d de 83 84 3d 9b f5 97 be
       0.5035968 0.048818402 0.06470464 -0.2967957
000040 14 ae 2f be cc fb ba 3d da 43 10 3e 0f 9a 8c be
       -0.1715625 0.09130058 0.14088383 -0.27461287
000050 33 b3 3b 3e ba 89 9a be 45 6d 1c bc b5 19 89 3e
       0.18330078 -0.30183202 -0.009547536 0.26777425
000060 a2 92 bd bd dd d3 0b 3e ad 1b 22 bd c5 3e ed 3c
       -0.092564836 0.13655038 -0.039577175 0.028960595
000070 c6 1e a2 bd 1b 0d d9 3c 41 4f 30 bd 94 23 90 3d
       -0.07916026 0.026495507 -0.043044332 0.07038036
000080 c5 75 8f be 00 68 ca bd 92 7a 82 3e 49 74 bb 3e
       -0.2801954 -0.09883118 0.2548414 0.36612156
000090 29 9a 62 3e 88 d3 13 3f bb 49 1c be 84 9b 91 bd
       0.2212912 0.57744646 -0.15262501 -0.071097404
0000a0 e2 fe b9 3d 7a f2 bf be 5c 96 8e bd 80 6c 2f be
       0.09081818 -0.37489682 -0.069622725 -0.17131233
0000b0 c1 2f 25 3e f8 35 96 3d 0c 13 57 3f 34 8a 51 be
       0.16131498 0.073345125 0.8401344 -0.20462877
0000c0 4a 55 c4 bd 1b db 20 3e 56 95 22 3e 2f 03 00 3f
       -0.0958658 0.15708582 0.1587728 0.5000486
0000d0 ab 1e 23 3e 5b d1 28 bd 4e fb 8b be 05 c5 ea 3e
       0.15929668 -0.041215282 -0.27340168 0.4585344
0000e0 32 9a b2 bd 08 c1 32 3e a5 b7 17 be 8d 17 28 3e
       -0.08720817 0.17456448 -0.14816149 0.16415234
0000f0 f2 de 9e bc e4 6e a1 be 45 a2 3b 3e 42 e1 85 3d
       -0.019393418 -0.31529915 0.1832362 0.06537105
000100 67 2c 69 3e 70 6b 03 3f fd 36 34 3f fc 0e 18 3e
       0.22770844 0.5133581 0.70396405 0.14849466
000110 a8 2f f5 3e 7a 7b 2c bf 93 17 b6 3e 29 ca 51 be
       0.4788792 -0.6737591 0.3556486 -0.20487274
000120 fd 45 41 bf 45 e2 97 3e ef 16 d9 be 48 97 93 bb
       -0.7549742 0.29664817 -0.4240031 -0.004504118
000130 c2 a4 af be a7 1a d4 be 54 88 97 be a1 e3 bf be
       -0.34305388 -0.41426584 -0.29596198 -0.37478355
000140 e4 ce 1c bf 8b d8 ba 3e 30 6b fd be 43 60 98 bd
       -0.6125319 0.36493334 -0.4949584 -0.074402355
000150 33 51 79 3e 1f 0c f9 bd 0a 63 0e bf 6c 41 55 3f
       0.24347381 -0.12160515 -0.5561987 0.8330295
000160 37 c5 5e bd e7 de 9a 3d 74 1b c3 3e 0c 68 a1 be
       -0.054387297 0.075620465 0.38106883 -0.31524694
000170 ca 8a 3a bd ac 6d 8c 3e c7 c4 04 3f 2e 21 67 be
       -0.045542516 0.27427423 0.5186276 -0.22571251
000180 d1 54 84 be 8d 9e d5 bd 00 8d e4 3e 4b a5 a2 bf
       -0.2584596 -0.10430632 0.44638824 -1.2706693
000190 5b 44 d5 bd ca d3 ce be 5c f8 2c 3e 40 b6 9e 3e
       -0.104134284 -0.40395957 0.16891617 0.3099842
0001a0 e6 22 ca bd 36 32 82 3d 1e 72 5b bf d9 36 e4 3e
       -0.098699376 0.06357233 -0.85721004 0.44573095
0001b0 9c 1a b7 be c7 14 71 bf 6d 27 96 be 00 45 1f 3e
       -0.3576249 -0.9417233 -0.29326954 0.15553665
0001c0 ce ae 97 be 33 52 dd be a0 5e 17 3f 5e a3 80 3e
       -0.29625553 -0.43226776 0.5912876 0.2512464
0001d0 ea 72 8b be bf 4f 39 3c 1c ee 0b 3f e0 a5 97 3d
       -0.2723611 0.011310517 0.546602 0.07404685
0001e0 05 c7 c7 be 67 19 d3 be 05 4b eb bd 2e 4f fd 3d
       -0.39019027 -0.41230318 -0.11488918 0.12368618
0001f0 51 8e b4 3d 79 d8 a3 3b 67 b6 44 bf f4 37 6a be
       0.08816207 0.005000171 -0.76840824 -0.22872907
000200 71 90 a9 3d 45 ab e6 3d a5 e7 bf bd a8 32 51 be
       0.08279503 0.11263136 -0.093703546 -0.2042948
000210 36 73 bb 3d 0d 77 4d 3c 1b 33 11 3e be ba 3a bd
       0.09152834 0.012540591 0.14179651 -0.045588247
000220 62 f1 d7 bd 85 cd 24 3e 61 34 61 be 66 fa 07 3e
       -0.10544087 0.16094024 -0.21992637 0.13279113
000230 2e 34 80 3d 10 b6 1d bd 21 ea 54 bc 4d 5e de bd
       0.062599525 -0.038503706 -0.012995274 -0.1085783
000240 bb ef ce bd ba b8 b8 bc 9f be eb 3c 9f ac ee 3a
       -0.10104319 -0.022549022 0.028777419 0.0018209404
000250 4f 50 82 be 45 df d6 bd 03 1a 2a 3e 19 14 9f 3d
       -0.25451896 -0.10491804 0.16611485 0.07767505
000260 26 72 06 3e f5 09 5c 3e 74 81 29 be 36 51 c0 3d
       0.13129482 0.21488173 -0.16553289 0.0939049
000270 05 e7 04 be 22 51 6d 3c dd 6a 6e 3e 02 7e 04 3e
       -0.12978752 0.014484676 0.23282953 0.12938693
000280 58 37 ba bd 27 d4 a4 3e c3 4a 59 3e 44 e6 de bd
       -0.09092587 0.3219311 0.21219926 -0.108837634
000290 f5 8a d7 3d 0d a7 6b bd f4 63 43 3e 9b f4 fb 3c
       0.10524551 -0.05753236 0.19081098 0.030756285
0002a0 61 0a 81 3e 05 8a 73 bc 99 d6 b7 3d ed 86 4b bd
       0.2520323 -0.014864449 0.08976478 -0.049689222
0002b0 fd f1 a8 be 20 c3 4d 3d 71 43 c1 bc 16 e4 95 bd
       -0.32997122 0.050234914 -0.023591729 -0.073188946
0002c0 c7 54 1f 3d d6 26 ca 3d 03 21 79 3e 2c 0f b9 bd
       0.03889921 0.098706886 0.24328999 -0.09036097
0002d0 a5 bc b3 be 0f f3 e4 bd 9a 75 33 3d 44 34 99 be
       -0.35104862 -0.11179172 0.043813325 -0.29922688
0002e0 ad 5d 99 be e1 e3 3f be 84 78 80 bd 9c a3 0e 3e
       -0.2995428 -0.18739273 -0.062729865 0.139296
0002f0 f6 77 c7 be 13 c0 9b 3d 70 f9 b2 3e 6c bd 35 be
       -0.3895871 0.076049946 0.3495593 -0.1774804

gru2out.weight f4 [5, 64]
000000 d5 65 33 bc ba 5f c0 be db a0 a6 bd 93 3e 51 3f
       -0.010949572 -0.37573034 -0.081361495 0.81736106
000010 94 01 33 bc 9e b0 7e 3b cc ea df be 26 5c cd 3d
       -0.010925669 0.0038862596 -0.43733823 0.100273415
000020 fb 2d 64 3e 5e 80 69 bf 2e 47 15 be e9 05 ae 3d
       0.22283165 -0.912115 -0.14577934 0.08497221
000030 1d 62 c6 bc 46 fc 8f 3e 68 b5 ba 3e 89 82 3b 3d
       -0.024216706 0.28122157 0.36466527 0.045778785
000040 55 ab bd 3e 56 85 3d bc 6e b0 96 be d7 6c b4 be
       0.37044778 -0.011567434 -0.2943148 -0.35239288
000050 08 72 ca 3e f2 f2 92 3e 72 24 0b bf 78 71 5f bf
       0.39540124 0.28700978 -0.54352486 -0.87282515
000060 6d 61 7b bd ec 22 0e bf 5d 5c 17 3f be 34 19 bf
       -0.06137221 -0.55522037 0.5912531 -0.59846103
000070 c9 09 a2 3e ec a2 b6 3e ad dc ce be a4 66 cc bd
       0.3164809 0.35671175 -0.40402737 -0.09980515
000080 39 81 b9 3d 53 fe 8d be 87 bc 5d be 83 9f 37 3f
       0.090578504 -0.27733096 -0.21653949 0.7172777
000090 17 84 d4 be d4 57 bd 3e ef a3 0e bf 57 e5 b7 bd
       -0.41507027 0.3698107 -0.5571889 -0.0897929
0000a0 8b 13 e8 be 9a 0d 01 bd e8 12 b3 3d 3e 53 7f 3e
       -0.4532741 -0.031507112 0.087438405 0.24934098
0000b0 5f 63 06 3f 1e 7a 0a bf 69 a0 ad 3e ef 11 b8 3e
       0.5249538 -0.54092586 0.33911446 0.35951182
0000c0 42 1f 73 be 5d 8e a1 be de 9a a6 be 9a a0 0c be
       -0.23742393 -0.31553927 -0.3254003 -0.1373314
0000d0 fc 90 ef 3e 6c 28 19 3f d3 2b 7f 3c 3d 58 09 3f
       0.46790302 0.59827304 0.015574413 0.53650266
0000e0 ee 5a 00 3f 5e 7e f0 3e 97 a7 8e 3f 92 db 6c be
       0.5013875 0.4697141 1.1144894 -0.23130634
0000f0 91 c3 e3 3e b1 7d 9b 3e 2b eb 66 be 2b 20 c9 3e
       0.44485143 0.30369332 -0.22550647 0.39282355
000100 ea 95 f6 3d e8 28 a2 3c 6f 4e c5 3c eb 16 89 bd
       0.120403126 0.019794896 0.024085252 -0.066938244
000110 f2 28 1b bd 47 77 23 3d c9 88 4e 3e 65 0f 84 3d
       -0.037880845 0.039908674 0.20169367 0.06448249
000120 07 9b 1c be 75 3d 2f bb 7a 5e 57 3e 83 c6 db bc
       -0.15293513 -0.0026739512 0.21032134 -0.026828056
000130 79 21 a6 bd 02 cc 2f 3e a9 c5 29 bd 35 0b dc bc
       -0.08111853 0.17167667 -0.04144827 -0.026860813
000140 e5 7e 10 bc d1 77 00 3d 61 2a 93 3d 81 f1 0a be
       -0.0088193165 0.031364266 0.071858175 -0.13568689
000150 3a 9c ce bd 0c 08 cc bc 75 c8 1d 3c 78 1d cc 3d
       -0.100883916 -0.02490618 0.009630312 0.09966558
000160 ab e1 b6 bd d7 1a 83 3b cf de 39 bb 98 97 33 3e
       -0.089297615 0.0040010023 -0.0028361564 0.17538297
000170 9b ae b4 bd da da 81 bd 17 e5 4f 3e dd 44 d4 3d
       -0.08822366 -0.06340571 0.20302235 0.10364697
000180 16 aa 51 be 9e 2e 92 be b6 13 06 3e dc af 14 bd
       -0.20475039 -0.2855119 0.13093457 -0.036300525
000190 7d 34 88 bb 9e 43 e8 bd dd 26 8a 3a 52 35 1a 3b
       -0.0041566477 -0.11341022 0.0010540147 0.0023530317
0001a0 a1 ad 8f 3c 62 4c 91 bd 0e 61 0e bb 4e ad 85 bd
       0.017538847 -0.07094647 -0.002172533 -0.06527196
0001b0 a7 16 e9 bd a2 61 1b 3e 7c 6f ad bc db 6a 70 bc
       -0.11381274 0.15173963 -0.021171324 -0.014673914
0001c0 5f 18 99 bc 43 a4 e0 bb 63 be 70 3d 58 11 4c 3d
       -0.018688379 -0.006855519 0.058775317 0.049821228
0001d0 95 16 14 be 1a 67 e5 3d 79 27 5e bd e4 ac 74 3d
       -0.1446174 0.11201306 -0.054236863 0.059735194
0001e0 dd db b5 bd 99 7b 49 bd 4d 7b 27 be 63 05 b5 3d
       -0.08879826 -0.049190138 -0.1635563 0.08838918
0001f0 b8 8e 2d be 97 be 32 bd b4 2f 9c 3d 4a e1 14 bd
       -0.16948974 -0.043638792 0.07626286 -0.036347665
000200 fe 72 7e 3c da cf 3b 3e 11 fe bd bd a5 c5 f6 be
       0.015530346 0.18341008 -0.09276975 -0.48197666
000210 b4 8c 49 bc 6c e3 48 3b 9c a7 18 3d d9 0b 12 be
       -0.012301613 0.0030653132 0.03726922 -0.14262332
000220 07 01 df bd b1 44 37 3d d5 1e 75 bd 8a ff 2d be
       -0.10888868 0.044743244 -0.059843857 -0.16992012
000230 bb 08 1b 3e d3 a7 9d bd a8 d1 27 bb 0f 1a 9b 3e
       0.15140049 -0.076980256 -0.0025607143 0.3029332
000240 4e 48 06 be cf 98 60 bd 9c c1 e3 3d b5 a4 39 bd
       -0.1311352 -0.05483323 0.111209124 -0.045323092
000250 74 4f ee bd ba 1b 54 bd ab 0a 7a bd 2f 2b d5 3d
       -0.11636248 -0.051784255 -0.06104533 0.10408627
000260 e4 87 8b 3c 14 ff 0f 3e f7 94 22 3d 35 d2 97 3d
       0.017032571 0.14062148 0.039692845 0.07413141
000270 71 ba f4 3d 2d ab 34 bd b7 60 24 bd af 61 1f be
       0.119496234 -0.04410856 -0.040131297 -0.15564607
000280 08 fb 95 3d a2 fe 24 3e bd 58 7c 3d 5e 54 0d be
       0.07323271 0.1611276 0.061608065 -0.13801715
000290 fb f8 04 3d c1 14 4b bd c0 05 10 bc ca 45 6c 3d
       0.03246401 -0.04958034 -0.008790433 0.057683744
0002a0 a7 00 df 3d a2 fb 79 3b 2a 58 01 bd 4a 89 3b be
       0.10888796 0.003814437 -0.03157822 -0.1831409
0002b0 23 48 50 be 27 f1 a0 bd 7e 32 b5 3d 15 3c 24 be
       -0.20340018 -0.07858496 0.08847521 -0.16038544
0002c0 24 0f 3f bd d4 38 51 bb a3 e0 65 3d 36 3e 0e bd
       -0.0466453 -0.0031924741 0.056122433 -0.034727298
0002d0 4f d1 9e be 02 52 5b bd f7 68 6e bd dc 75 08 be
       -0.31019065 -0.053545006 -0.05820557 -0.1332621
0002e0 e3 e2 be bd 1b db ee bd 05 33 13 bd 88 15 c0 3d
       -0.09320619 -0.11662885 -0.035937328 0.09379107
0002f0 e8 01 09 be 67 bd 12 3d 1c bf f0 bd 70 cc 87 3d
       -0.13379633 0.03582516 -0.11755201 0.0663079
000300 27 e1 10 bd cd b3 83 3d 7f 02 cc bd 76 25 9e 3e
       -0.035370972 0.06430779 -0.099614136 0.30887955
000310 a4 1b 68 3c 3c 99 b3 3d a4 82 41 3e cb 64 e6 3d
       0.014166746 0.087694615 0.18897492 0.112496935
000320 5d cc ba bd 03 1f db 3d 10 11 46 bd 5a 5f 92 3d
       -0.091210105 0.106992744 -0.048356116 0.07147093
000330 a7 3e 47 bd f0 05 39 be c6 b6 a4 3d e2 2c bc 3d
       -0.048643734 -0.18068671 0.08042674 0.09188248
000340 d0 e7 72 3e c7 42 2f 3d e2 27 ef 3c 62 be 4a 3e
       0.23721242 0.042788293 0.029193822 0.19799188
000350 89 4b 0d bd d3 f2 30 be df 28 80 3e ac e8 4e 3e
       -0.034495864 -0.1728013 0.25031182 0.20205945
000360 5e 34 1d 3e 5d dc 62 3c de a5 63 be 89 64 de 3d
       0.15352008 0.013846484 -0.22231242 0.10859019
000370 df fb 05 be fc 6c d7 bd 96 ed a3 3d e4 5a 4a 3d
       -0.13084362 -0.10518834 0.080043 0.049403086
000380 47 d5 d9 3d f7 52 96 3c 3c 41 00 3e f6 c8 5e be
       0.106363826 0.018350108 0.12524885 -0.21756348
000390 69 79 1b bd 2d ab 98 3d 0f 4e e7 3d 92 db 47 3c
       -0.037957583 0.07454524 0.11294185 0.012198346
0003a0 e1 64 1f be 7a 54 15 3e 91 0f 5c 3e 82 7f 41 be
       -0.15565826 0.14583007 0.21490313 -0.18896297
0003b0 8c b1 3c be 9f 31 b9 3d f0 f5 80 3d 76 55 ae 3d
       -0.18427104 0.090426676 0.06296909 0.08512394
0003c0 80 7f 12 3e cd 16 25 3e ed 16 2b 3e 06 ad 29 bd
       0.1430645 0.16121979 0.16707964 -0.041424774
0003d0 d5 64 3f 3e 8e ce 8d bd 9b 97 4b 3c 65 a1 95 be
       0.18690808 -0.06924163 0.012426282 -0.29224697
0003e0 00 61 a7 bd 97 9e 4f be fa cd 0a 3e 02 32 86 3d
       -0.08172798 -0.20275341 0.13555136 0.06552507
0003f0 32 20 b7 3d 41 f3 8d bd e6 51 7d 3e 4a 1c d1 bc
       0.08941688 -0.069311626 0.24738273 -0.025526185

gru2out.bias f4 [5]
000000 28 87 fa bd 9f db f7 bd 27 f8 aa bd 35 c7 7e 3e
       -0.1223281 -0.12102436 -0.083481126 0.24880679
000010 30 b8 a8 bd
       -0.08238256
